models/AJG model.pth (torch, 270882 bytes, 5 tensors)

lstm.weight_ih_l0 f4 [512, 1]
0	0x3bf39210	0.0074331835
1	0x3b8060c9	0.0039177877
2	0x3de00aa5	0.1093953
3	0xb8b41378	-8.586695e-05
4	0xbd6e7f2a	-0.05822674
5	0x3d05fe3b	0.032713156
6	0xbd75ce70	-0.060011327
7	0x3d385e31	0.045011703
8	0xbd9d7e38	-0.0769009
9	0x3d337ae4	0.04381837
10	0x3d0c5ec9	0.03427008
11	0xbdadbb6b	-0.08483013
12	0xbe02371c	-0.12716335
13	0x3c892ee5	0.016745994
14	0x3d78b7e2	0.06072224
15	0xbc3343ab	-0.010941426
16	0xbdc42bd3	-0.09578671
17	0xbd00084d	-0.031257916
18	0x3dcc2886	0.09968667
19	0x3d4f4763	0.05060519
20	0x3d898bf6	0.067161486
21	0x3d3c66ca	0.045996465
22	0x3d1a1ea2	0.03762687
23	0x3dc06eca	0.09396131
24	0xbd94e872	-0.07270898
25	0x3cf8a083	0.030349975
26	0x3df3288b	0.11872967
27	0xbca63ec2	-0.020293597
28	0x3d9f6e42	0.07784702
29	0x3b5749a2	0.0032850285
30	0x3d31bac8	0.04339102
31	0xbd26bd9a	-0.040708162
32	0x3d87bdf9	0.06628031
33	0xbdc52d12	-0.09627737
34	0x3d4972b0	0.04918164
35	0x3d79b68e	0.060965113
36	0x3cacc023	0.021087712
37	0x3d50fac8	0.051020414
38	0xbca677cb	-0.020320794
39	0x3de19576	0.110148355
40	0x3d878848	0.066177905
41	0xbd73d75d	-0.05953156
42	0xbdbce656	-0.092236206
43	0xbc67ec93	-0.014155525
44	0xbd96d2eb	-0.07364448
45	0x3c7b9645	0.015355651
46	0xbd87595b	-0.0660884
47	0xbd8cd5c3	-0.06876709
48	0xbbbfdc00	-0.0058550835
49	0xbca73d2f	-0.020414917
50	0xbccb8996	-0.02484588
51	0xbd3f22bc	-0.046663985
52	0x3df50cfe	0.11965369
53	0x3ccb4cf1	0.024816962
54	0x3db9cc0c	0.09072122
55	0xbb9a6b76	-0.0047125174
56	0x3d2c3326	0.042040966
57	0x3dd5587e	0.10417269
58	0x3cec7435	0.028864006
59	0x3c6c1059	0.014408194
60	0xbbf4b91a	-0.007468355
61	0x3c46d572	0.01213585
62	0x3d3e51c6	0.046464704
63	0x3e1a2132	0.15051726
64	0x3d041a22	0.032251485
65	0xbd8aec8b	-0.06783398
66	0xbdc14dd7	-0.09438675
67	0x3d3955a3	0.045247685
68	0x3d93a847	0.07209831
69	0x3e067d1d	0.13133664
70	0x3d5a580e	0.05330663
71	0x3cb0b214	0.02156929
72	0xbd06db0e	-0.03292375
73	0x3d694ed7	0.056959953
74	0xba1be662	-0.00059471105
75	0x3cbd9b90	0.023145467
76	0x3dc1ae08	0.09457022
77	0xbd5a1d53	-0.053250622
78	0x3d5e2a3f	0.054239508
79	0xbccc5d2b	-0.02494677
80	0xbdd60b9f	-0.10451435
81	0x3d9d68e3	0.07686021
82	0x3ced21be	0.028946754
83	0x3cc713ec	0.024301492
84	0x3c70b93f	0.014692604
85	0x3b693416	0.0035584024
86	0xbdbd19af	-0.092334144
87	0x3b1de626	0.0024093478
88	0xbca9ed92	-0.020743165
89	0x3db3b045	0.08773855
90	0xbddc1bae	-0.10747467
91	0xbc79b7f8	-0.0152416155
92	0x3dd03f46	0.101683185
93	0x3914ce2f	0.00014191189
94	0xbd1a212d	-0.037629295
95	0xbca96410	-0.020677596
96	0x3d4b3b10	0.049616873
97	0x3dae901d	0.08523581
98	0xbd6d1d28	-0.057889134
99	0x3d841dc5	0.064509906
100	0x3d607a4e	0.05480414
101	0x3ca118f9	0.019665228
102	0xbd8a1346	-0.06741957
103	0x3bc19255	0.0059073367
104	0x3dda7e5e	0.10668634
105	0xbc2c5b47	-0.010519809
106	0x3cf69ceb	0.030104121
107	0x3d3a9b7e	0.045558445
108	0x3e03e60f	0.12880729
109	0x3d3d05cb	0.046148103
110	0x3cc8c3f7	0.024507506
111	0x3d389add	0.045069564
112	0x3c3fb2ac	0.011700314
113	0x3d561a9c	0.05227147
114	0xbd4c9575	-0.04994722
115	0x3c4acd9b	0.012378122
116	0xbe0257bf	-0.12728785
117	0xbd331703	-0.043723118
118	0x3c336a11	0.010950581
119	0x3de186fd	0.11012075
120	0xbcb83085	-0.022484073
121	0xbd34e0c5	-0.04415967
122	0xbd8a7353	-0.067602776
123	0xbacbeda3	-0.0015558492
124	0x3cdb9f7d	0.026809448
125	0x3dd94305	0.10608486
126	0xbdbbfa29	-0.09178574
127	0xbd0cb342	-0.03435064
128	0x3d3f9c97	0.046780195
129	0x3c88f5c8	0.01671876
130	0x3e37d02e	0.17950508
131	0x3dc065bd	0.09394405
132	0x3c3fc5ba	0.0117048565
133	0x3c2ba39e	0.010476021
134	0x3c16b035	0.0091972845
135	0xbd6cfa8a	-0.05785612
136	0xbba7efc9	-0.00512502
137	0xbd8a18ab	-0.06742986
138	0xbd96945b	-0.07352515
139	0x3d60346d	0.054737497
140	0xbd0cd81e	-0.034385793
141	0x3d158ca7	0.03651109
142	0xbcf0b30c	-0.029382251
143	0x3cbc6b37	0.023000343
144	0xbd40e807	-0.04709628
145	0xbd313d38	-0.043271273
146	0xbd83377f	-0.064070694
147	0x3d0cb472	0.034351774
148	0x3dc4032c	0.095709175
149	0x3e02952f	0.12752222
150	0xbd4cb021	-0.049972657
151	0x3d806b96	0.062705204
152	0xbd6796bd	-0.05654024
153	0x3d700cd2	0.058605976
154	0x3cfd7d5f	0.03094357
155	0xbdc84dfd	-0.097805
156	0x3df59a65	0.11992339
157	0x3dbb0f04	0.091337234
158	0x3d8b39f9	0.06798167
159	0xbd829677	-0.06376355
160	0x3c8c9b1e	0.01716381
161	0xbdcf4786	-0.10121064
162	0x3a86cac6	0.001028382
163	0x3bad2e16	0.005285035
164	0x3d9fd374	0.07804003
165	0x3dcfd4d0	0.10148013
166	0xbd35fdfc	-0.04443167
167	0x3d1d5a89	0.03841642
168	0x3d6eb9b1	0.058282558
169	0xbddea26d	-0.10870824
170	0xbde37892	-0.11106981
171	0x3c4542dd	0.012039867
172	0x3d574cd1	0.052563492
173	0x3d8a279b	0.067458354
174	0xbd9d7b87	-0.076895766
175	0xbd4777f3	-0.048698377
176	0xbdc9c58e	-0.09852134
177	0x3a395dae	0.00070711493
178	0xbcbf5062	-0.02335376
179	0xbdb60fb7	-0.08889716
180	0x3dc029fc	0.09383008
181	0xbd40f62e	-0.047109775
182	0xbd77dff8	-0.060516328
183	0x3dfcdda5	0.12346963
184	0x3b23f4cd	0.0025017739
185	0xbcde38b8	-0.027126655
186	0xbdaf8b9b	-0.085715495
187	0x3cdf872e	0.027286138
188	0xbdb3bded	-0.0877646
189	0xbce736c8	-0.028224364
190	0xbdda4a81	-0.10658742
191	0x3dae918d	0.08523855
192	0xbd6c5ac2	-0.05770374
193	0x3d0d853e	0.034550898
194	0xbe0f1e24	-0.13976341
195	0xbc6bfd2e	-0.014403624
196	0x3c5a1508	0.013310678
197	0x3daa88d2	0.08326878
198	0x3c1b4b08	0.009478338
199	0x3c0aac57	0.008463941
200	0xbde1471e	-0.10999893
201	0xbd419cbf	-0.047268625
202	0xbd864b1c	-0.06557295
203	0xbde46d3a	-0.11153646
204	0xbcec6015	-0.02885441
205	0xbdad15bf	-0.08451413
206	0x3d776399	0.060397718
207	0xbcf84302	-0.03030539
208	0xbddc5d31	-0.10759962
209	0x3be457dc	0.0069684815
210	0x3d8fef92	0.07028116
211	0xbdcab2d9	-0.09897394
212	0xbd9a6e06	-0.075405166
213	0xbcc4b110	-0.024010211
214	0xbda9f774	-0.08299151
215	0xbd77e6ca	-0.060522832
216	0x3e0fcbf0	0.1404264
217	0xbc9987af	-0.018741457
218	0x3d13d4a3	0.036091458
219	0xbceb0fdc	-0.028694086
220	0x3e27c64e	0.16384241
221	0x3e050f39	0.12994088
222	0x3d8187ff	0.06324767
223	0xbdf05b1a	-0.11736126
224	0x3d50ab1b	0.05094443
225	0x3db4870f	0.08814823
226	0x3c886745	0.016650805
227	0x3dc04853	0.09388795
228	0x3c3879cf	0.01125951
229	0x3df19386	0.11795716
230	0xbdd0e8cd	-0.10200653
231	0xba8fec75	-0.0010980504
232	0xbc51c200	-0.012802601
233	0xbb3ffac0	-0.0029293746
234	0x3cd0f813	0.025508916
235	0xbd97c0f9	-0.074098535
236	0x3cca0bb2	0.02466378
237	0xbd799dd0	-0.060941517
238	0xbd97c978	-0.07411474
239	0x3c0eb83c	0.008710917
240	0x3de6211d	0.112367846
241	0x3d0c750f	0.034291323
242	0xbdc5a57c	-0.09650704
243	0x3be05356	0.006845872
244	0x3d17e824	0.03708662
245	0xbb76b8b8	-0.0037646722
246	0x3d0975af	0.033559497
247	0x3d6e11ed	0.058122564
248	0x3d2839dc	0.041070804
249	0xbe835117	-0.25647804
250	0xbc44a609	-0.0120024765
251	0x3dac4f70	0.08413589
252	0xbd5a8b5e	-0.053355567
253	0x3d931ff5	0.0718383
254	0xbcc38406	-0.023866665
255	0xbdc14ef1	-0.09438885

lstm.weight_hh_l0 f4 [512, 128]
0	0x3aaddaa5	0.0013264014
1	0x3cbce27f	0.02305722
2	0x3ce88858	0.028385326
3	0xbc3c7a0e	-0.0115037095
4	0xbd740252	-0.059572525
5	0x3d231af2	0.03982062
6	0x3d4ef37b	0.05052517
7	0xbda2d785	-0.07951263
8	0x3c685912	0.014181392
9	0xbd344c3d	-0.04401802
10	0xbda0b9c9	-0.07847936
11	0xbcd089a2	-0.025456253
12	0x3dc5c29f	0.09656262
13	0x3d4cf92f	0.050042327
14	0xbd2805aa	-0.041021027
15	0x3dc25936	0.09489672
16	0x3c93acc7	0.018026723
17	0xbcd9c454	-0.026582874
18	0x3d7d014d	0.06176882
19	0x3da48958	0.08034009
20	0x3d82fdc4	0.06396058
21	0xba5e8fb7	-0.0008490043
22	0xbd828dcd	-0.063747026
23	0xbdac3005	-0.084075965
24	0x3d82a32a	0.06378777
25	0x3db2dd37	0.087336
26	0xbd3bfb71	-0.04589409
27	0xbd6e7bba	-0.058223464
28	0xbd1a1237	-0.037615027
29	0x3c055cbc	0.008139785
30	0x3d574ab8	0.05256149
31	0xbd8f5e0f	-0.07000362
32	0xbca5d173	-0.020241475
33	0x3c9b178a	0.018932123
34	0xbdc99a3d	-0.09843872
35	0x3ccc2511	0.024920018
36	0xbd7909f5	-0.06080051
37	0xb9f4e761	-0.00046711697
38	0x3d57f551	0.052724186
39	0xbd2373fe	-0.03990554
40	0x3c6c7f55	0.014434655
41	0xbd6db5d9	-0.05803475
42	0x3ce861f9	0.02836703
43	0x3cfa41a7	0.030548884
44	0xbcb295d5	-0.021799961
45	0x3d12ecfd	0.03587054
46	0xbdc1d0ff	-0.09463691
47	0xbd8ef178	-0.0697965
48	0xbb8bd7e6	-0.0042676805
49	0x3cf798f4	0.0302243
50	0x3d915764	0.070967466
51	0xbd61a1ed	-0.055086065
52	0xbd90f658	-0.07078236
53	0xbd2b123e	-0.041765444
54	0xbd9a9a61	-0.07548977
55	0xbc089988	-0.008337386
56	0x3d53345b	0.051563602
57	0xbd2c7741	-0.042105917
58	0x3cc96fdc	0.024589472
59	0xbb7bcd32	-0.0038421866
60	0xbd4c791e	-0.049920194
61	0x3d813385	0.06308655
62	0x3c796728	0.015222348
63	0x3dca6ad7	0.09883659
64	0xbc6b6104	-0.014366392
65	0xbdca6eb7	-0.098843984
66	0xbd577dac	-0.052610084
67	0x3d8fc1ef	0.07019412
68	0xbd0cccdb	-0.034375053
69	0xbdc49ff8	-0.09600824
70	0x3d5e414b	0.054261487
71	0x3d60412d	0.054749656
72	0x3c25a6d8	0.010110579
73	0x3c1091b4	0.008823801
74	0x3d6651aa	0.056230225
75	0x3d9a117c	0.07522866
76	0x3c7cc64f	0.01542814
77	0x3d70221c	0.05862628
78	0xbc45b6f5	-0.012067546
79	0xbd91bc5e	-0.07116006
80	0x3dd5abce	0.1043316
81	0x3d89c0d0	0.06726229
82	0x3db19890	0.08671677
83	0xbda8932c	-0.08231196
84	0xbc3b003f	-0.011413633
85	0xbd691763	-0.05690707
86	0x3d233d19	0.03985319
87	0x3c88fef3	0.016723132
88	0xbbf8f0dc	-0.007597072
89	0xbbc4dd44	-0.006007822
90	0xbcde81dd	-0.027161533
91	0xbc844644	-0.016146787
92	0xbdc26519	-0.09491939
93	0xbdb2f752	-0.08738579
94	0xbd914695	-0.070935406
95	0xbcae2208	-0.021256462
96	0xbdd482f7	-0.10376542
97	0xbdbec08f	-0.093140714
98	0xbdc5ecdd	-0.09664319
99	0xbd22a561	-0.0397085
100	0x3d6da3b2	0.05801744
101	0xbddaba63	-0.10680082
102	0x3daccbf2	0.08437337
103	0x3d0e7134	0.034775928
104	0x3d8244ff	0.06360816
105	0xbd44cdbb	-0.048047762
106	0xbc09c68b	-0.008409153
107	0x3d87082c	0.065933555
108	0xbd3e8f29	-0.046523247
109	0x3baa5bae	0.0051989174
110	0xbd52f2c3	-0.051501047
111	0xbdcd5e48	-0.10027748
112	0xbd1f4b58	-0.038890213
113	0xbd42ef2a	-0.047591366
114	0xbd3eee8b	-0.04661421
115	0xbce4c7bf	-0.027927278
116	0x3cee3277	0.029076798
117	0xbd8fce7a	-0.07021804
118	0xbc3ddb1c	-0.011587884
119	0x3d73367c	0.059378132
120	0x3d832f65	0.06405524
121	0x3c3cdc88	0.011527188
122	0xbce26e68	-0.027640536
123	0xbcf25a51	-0.029584082
124	0xbc444ef2	-0.011981713
125	0x3d30ef7a	0.043197133
126	0xbd996cae	-0.07491432
127	0xbd58c9ba	-0.052926756
128	0x3dba700e	0.09103404
129	0x3ca7164d	0.020396376
130	0x3d5e5059	0.054275844
131	0xbd2cf410	-0.042224944
132	0x3ce990dc	0.028511457
133	0xbb9f776d	-0.0048665316
134	0xb8fe85aa	-0.00012136561
135	0xbd069bd0	-0.032863438
136	0xbd859f12	-0.06524481
137	0xbd7a0cf9	-0.061047528
138	0xbbbf8722	-0.0058449665
139	0x3d64167c	0.055685505
140	0xbc73222a	-0.014839688
141	0x3cc8fefc	0.024535649
142	0xbd326d96	-0.04356154
143	0xbcdf9406	-0.027292263
144	0xbd073d64	-0.03301753
145	0x3d1f1ab0	0.03884381
146	0xbdb4fcbf	-0.0883727
147	0xbd5203e5	-0.051273245
148	0x3ddb1541	0.10697413
149	0xbd579c83	-0.052639496
150	0xbd4a9d59	-0.049466465
151	0x3d5e6cc4	0.054302946
152	0xbd689b9c	-0.056789026
153	0xbc7ede0f	-0.015555873
154	0xbc1f5934	-0.0097258575
155	0xbd87c45b	-0.06629249
156	0x39aa85e2	0.00032524677
157	0x3c715d99	0.014731788
158	0x3cc4d617	0.024027867
159	0x3d9c436b	0.076300465
160	0xbd67784e	-0.056511216
161	0xbdadc20d	-0.08484278
162	0xbc7556b9	-0.01497429
163	0x3cfeb683	0.031092888
164	0xbd17d47b	-0.03706787
165	0x3d6bee94	0.057600573
166	0x3c859e9e	0.016310986
167	0xbd9ab614	-0.0755426
168	0x3d47e580	0.048802853
169	0x3cde5c83	0.027143722
170	0xbc92fdbc	-0.017943256
171	0xbd9bdf3c	-0.07610938
172	0xbcadc9fe	-0.021214481
173	0x3d54f2a6	0.05198922
174	0x3c038abf	0.008028685
175	0x3d6271a6	0.055284165
176	0xbdd42d30	-0.10360181
177	0xbd2abbfd	-0.041683186
178	0xbcde796b	-0.027157506
179	0xbd393bc4	-0.045223013
180	0xbd86e163	-0.06585958
181	0x3cbb9810	0.022899657
182	0xbd9e833c	-0.07739875
183	0xbcf04f9c	-0.029334836
184	0xb988c6aa	-0.00026087958
185	0x3d2a260d	0.041540194
186	0x3ce548f3	0.027988886
187	0x3b4712c1	0.0030376168
188	0x3bfce6a3	0.0077179237
189	0xbd98bdd9	-0.074580856
190	0x3d89ec92	0.06734575
191	0x3bc9cd67	0.006158519
192	0x3dd78c20	0.105247736
193	0x3cbbc1bd	0.02291953
194	0x3d2ca9d1	0.042154137
195	0x3ce51401	0.02796364
196	0xb51febab	-5.957506e-07
197	0x3d30fe08	0.043211013
198	0x3dabb396	0.08383863
199	0xbd2f7041	-0.042831663
200	0x3c91adc1	0.017783048
201	0xbd4215d3	-0.047384094
202	0xbdc4dd30	-0.09612501
203	0x3db7fc73	0.08983698
204	0xbd758a4b	-0.05994634
205	0x3cec73d4	0.028863825
206	0xbda198f5	-0.07890502
207	0xbb32cb0e	-0.0027281675
208	0x3d8009f0	0.062518954
209	0x3d8f0683	0.06983664
210	0xbd3d9c2d	-0.04629152
211	0xbd8728f6	-0.065996096
212	0xbd41e21d	-0.04733478
213	0x3d853dc1	0.06505919
214	0xbdd9712e	-0.106172904
215	0xbd13067c	-0.035894856
216	0xbda22af4	-0.07918349
217	0x3db319d9	0.087451644
218	0xbc79082f	-0.015199705
219	0xbd409c80	-0.04702425
220	0x3cc7912d	0.024361217
221	0x3d6bf5f3	0.057607602
222	0x3cc40804	0.023929603
223	0x3cd1f349	0.025628703
224	0xbd542e91	-0.05180222
225	0xbddfa28e	-0.10919677
226	0xbd874dc7	-0.06606632
227	0xbd1ca604	-0.038244262
228	0x3cf6cccc	0.030126952
229	0x3c5b1d5e	0.013373701
230	0x3d6dc1fe	0.058046333
231	0x3d2de0a9	0.04245058
232	0x3d79b733	0.060965728
233	0x3d777580	0.06041479
234	0x3d912f91	0.07089151
235	0xbd711e2d	-0.05886667
236	0x3d863c42	0.06554462
237	0x3c5b64b3	0.013390708
238	0x3c38c9eb	0.01127861
239	0xbd94e6a2	-0.07270552
240	0xbcf24ed2	-0.0295786
241	0x3d5a2ac3	0.053263437
242	0xbd763e2d	-0.06011789
243	0x3d95e974	0.07319918
244	0xbbb8be90	-0.005637951
245	0xbd7d3e9f	-0.0618273
246	0x3d56a1ac	0.052400276
247	0x3d7358d7	0.059410896
248	0x3d35f2dc	0.044421062
249	0x3dc0f396	0.0942146
250	0x3da77f53	0.08178582
251	0xbd88d08b	-0.066804014
252	0x3dc7d6ca	0.09757765
253	0xb9322a01	-0.0001699105
254	0xbca2172c	-0.01978644
255	0x3d8ad120	0.06778169

lstm.bias_ih_l0 f4 [512]
0	0x3d92998f	0.07158195
1	0x3d6daa1a	0.05802355
2	0xbd5adfa3	-0.053435933
3	0x3d609a6f	0.05483478
4	0xbd9ac8d7	-0.075578384
5	0xbbc1d18f	-0.005914874
6	0xbc2c8379	-0.010529392
7	0xbd74cdb9	-0.059766505
8	0x3d82ef5a	0.06393309
9	0xbcda0e07	-0.026618017
10	0x3cd8830a	0.026429672
11	0xbd60c5be	-0.05487608
12	0xbd2bbbdd	-0.041927207
13	0xbc3d7db8	-0.011565618
14	0xbca35936	-0.01994
15	0x3ba70554	0.0050970707
16	0xbc8b6b2c	-0.017018877
17	0xbd30a63e	-0.04312729
18	0xbbec58c6	-0.007212731
19	0x3dfd38eb	0.12364372
20	0xbd8bb944	-0.06822446
21	0x3dbddf81	0.092711456
22	0xbb73b944	-0.0037189284
23	0xbb133f84	-0.0022468278
24	0xbd8df4c1	-0.06931449
25	0x3d134935	0.035958488
26	0x3d6c47c0	0.057685614
27	0x3c013fcb	0.007888745
28	0x3c896579	0.016772019
29	0x3da6bf0d	0.08141909
30	0x3cf92b3d	0.030416125
31	0xbc188de8	-0.009311177
32	0x3da29271	0.07938088
33	0xbc1d0426	-0.009583509
34	0xbd2a403b	-0.04156516
35	0x3d4ab98b	0.049493354
36	0x3db40318	0.087896526
37	0x3b0aabcc	0.0021159528
38	0x3c235115	0.009968062
39	0x3d1c8cb6	0.03822013
40	0x3da951a0	0.08267522
41	0xbd9398e7	-0.07206898
42	0x3c5cef9f	0.0134848645
43	0x3db9aa56	0.09065692
44	0x3cbee313	0.023301637
45	0xbc972b8c	-0.018453382
46	0x3d505977	0.05086657
47	0x3d9427b9	0.07234139
48	0xbce65270	-0.028115481
49	0xbc1f089c	-0.0097066425
50	0x3deec3b7	0.116584234
51	0xbd94c475	-0.07264034
52	0xbd13a093	-0.036041807
53	0xbce4475e	-0.027866062
54	0xbb6d89a1	-0.0036245363
55	0x3d21b8bd	0.03948282
56	0x3d42333c	0.047412142
57	0x3d875238	0.06607479
58	0xbca6ef4c	-0.020377778
59	0x3d8e7c33	0.06957283
60	0xbd81cc89	-0.0633784
61	0x3d6351b2	0.055497833
62	0x3d0d065b	0.03442989
63	0x3d1178eb	0.035515707
64	0x3d9a9de3	0.07549646
65	0x3d95d577	0.07316106
66	0x3cf5fce8	0.030027822
67	0xbd757278	-0.05992362
68	0xbd238cdb	-0.039929252
69	0xbc4d47e5	-0.012529348
70	0x3da0157a	0.07816596
71	0x3debc799	0.115126796
72	0xbce11f89	-0.027480857
73	0x3df90c93	0.121606015
74	0xbbd37a8d	-0.006453818
75	0x3d77d461	0.060505275
76	0x3d48b0b4	0.048996642
77	0x3d839fda	0.06426974
78	0x3c3a9c36	0.011389783
79	0x3d0f4c66	0.03498497
80	0x3e18cafc	0.14921182
81	0x3dac0b94	0.08400646
82	0xbcdf6e2e	-0.027274217
83	0xbd101e46	-0.03518512
84	0xbd66e70b	-0.056372683
85	0xbcc0c01d	-0.023529107
86	0x3aca3a29	0.001542871
87	0xbd14cb2b	-0.03632657
88	0x3cbf202a	0.023330767
89	0xbd41af56	-0.047286354
90	0x3b0dc511	0.0021632353
91	0xbd15985b	-0.03652225
92	0xbac8260a	-0.0015270126
93	0xbc6f628d	-0.014610899
94	0xbc90c874	-0.017673708
95	0xbc35c998	-0.011095427
96	0x3d8600ef	0.06543147
97	0x3d4fcd9f	0.050733205
98	0x3dbb0d36	0.09133379
99	0x3d5d52b6	0.054033957
100	0x3cd5197d	0.02601313
101	0xbcc6d038	-0.024269208
102	0x3d28ecb2	0.041241355
103	0xbbcb6fa1	-0.0062083756
104	0xbc1c2571	-0.009530411
105	0xbd8ab162	-0.06772114
106	0x3de44f7d	0.11147974
107	0x3d8af439	0.06784863
108	0xbd1142fd	-0.035464276
109	0x3dbdf5cd	0.092753984
110	0xbce950d0	-0.028480917
111	0x3d5f6d72	0.054547735
112	0x3dcef788	0.101058066
113	0x3cb09ccb	0.02155914
114	0x3daf5658	0.08561391
115	0x3d3aa0cf	0.045563515
116	0x3d7f1857	0.06227907
117	0xbcbefb7c	-0.023313276
118	0x3be38f04	0.006944539
119	0xbca8c428	-0.020601347
120	0x3d2803b9	0.041019175
121	0xbc4c50d6	-0.012470445
122	0x3dbad3c2	0.09122421
123	0x3b8c8aaa	0.004288991
124	0xbd23c563	-0.039983165
125	0x3de42e85	0.111416854
126	0x3d9196b7	0.07108825
127	0x3ddbd8b9	0.10734696
128	0x3c55dfce	0.0130538475
129	0x3da2c4f7	0.07947724
130	0xbd135d3e	-0.035977595
131	0x3d4c49f2	0.049875207
132	0x3aa50190	0.0012588967
133	0xba3f4e98	-0.0007297783
134	0x3d51d25c	0.051226005
135	0x3da3281f	0.07966637
136	0xbd238117	-0.03991803
137	0xbc6550e0	-0.013996333
138	0xbbf45abe	-0.0074571064
139	0xbc39fca4	-0.011351738
140	0x3d0569bb	0.032571536
141	0x3caeb70d	0.02132752
142	0x3ca51dc2	0.020155791
143	0xbc08d2bb	-0.008351023
144	0x3d8a59f2	0.06755437
145	0xbd1c892b	-0.03821675
146	0xbdc3a3b1	-0.09552706
147	0x3cd73fff	0.026275633
148	0x3d986daa	0.07442792
149	0x3c9391bf	0.018013833
150	0x3d35d382	0.044391163
151	0x3db2e03c	0.087341756
152	0x3bc74814	0.0060815904
153	0xbd8b6038	-0.06805462
154	0x3ce5da4c	0.028058194
155	0x3d979dd3	0.074031495
156	0xbd10bf2b	-0.035338562
157	0x3bcb75d8	0.0062091164
158	0xbc688078	-0.014190786
159	0x3c729650	0.014806345
160	0xbcccc1ed	-0.024994815
161	0x3dd585f3	0.104259394
162	0x3bb48051	0.0055084606
163	0x3dcbcdc6	0.099513575
164	0xbd2fd110	-0.042923987
165	0x3dbb976f	0.09159743
166	0x3d3d2e43	0.046186697
167	0xbd364043	-0.04449488
168	0x3db7f9be	0.089831814
169	0xbc8a5adb	-0.016889026
170	0x3bcf3a18	0.006324064
171	0xbc1a546c	-0.009419542
172	0x3bdcb726	0.0067357
173	0x3dcc7bff	0.09984588
174	0xbcbb6b9f	-0.022878466
175	0xbb54eeb1	-0.0032490904
176	0xbca7c180	-0.02047801
177	0xbbd7863b	-0.006577281
178	0xbcafa2e1	-0.021439971
179	0xbd27a741	-0.04093099
180	0x3c555672	0.013021098
181	0x3db6b0e2	0.089204565
182	0x3b94406e	0.004524282
183	0xbd9c1ce3	-0.07622697
184	0x3d526951	0.05136997
185	0xbd929e86	-0.07159142
186	0xbd652645	-0.0559447
187	0x3dcefd43	0.101068996
188	0x3d0d9864	0.03456916
189	0x3d54be52	0.051939316
190	0xbd8cd253	-0.06876054
191	0xbc98963c	-0.018626325
192	0x3d844688	0.06458765
193	0x3cdae695	0.026721278
194	0xbcf9f500	-0.030512333
195	0x395d209a	0.00021088347
196	0xbcd302d6	-0.025758188
197	0x3d896c2a	0.06710084
198	0x3cbd46e0	0.023105085
199	0xbbbe2b90	-0.005803533
200	0x3ce1de85	0.027571926
201	0x3d18ff01	0.037352566
202	0x3c453db4	0.012038637
203	0xbccbca05	-0.024876604
204	0x3dd2a065	0.10284499
205	0xbd773773	-0.060355615
206	0x3d92dff8	0.07171625
207	0xbdb1c5d9	-0.086803146
208	0xbd89180e	-0.06694041
209	0x3d8992c6	0.06717448
210	0x3d695db9	0.056974147
211	0x3cac1a86	0.021008741
212	0x3dc99037	0.0984196
213	0x3d4c945e	0.04994618
214	0xbd5a70ca	-0.05333022
215	0xbcce5788	-0.025188223
216	0xbae71028	-0.0017628716
217	0x3da5f876	0.08104031
218	0xbd6bedf0	-0.05759996
219	0x3c5f4253	0.013626653
220	0xbc3862d6	-0.011254033
221	0xbd269ee9	-0.040678892
222	0x38380d09	4.388116e-05
223	0xbc858bac	-0.016301952
224	0x3dcbf327	0.09958487
225	0xbdc0c0c3	-0.094117664
226	0xbd8b0675	-0.06788341
227	0x3d2a0f13	0.041518282
228	0x3c8f9f45	0.017532
229	0xb9a345c1	-0.00031141753
230	0xbd6897c1	-0.05678535
231	0x3d9de73b	0.07710119
232	0x3d9f5b51	0.07781089
233	0xbd25b68a	-0.040457286
234	0xbd284948	-0.04108551
235	0xbd985a15	-0.07439057
236	0x3c5afe8f	0.013366356
237	0xbcccfb80	-0.025022268
238	0xbcca05a6	-0.024660897
239	0x3cf15984	0.02946163
240	0x3d98c027	0.07458525
241	0x3c98bc9e	0.018644627
242	0xbd2fce51	-0.042921368
243	0xbd5967d3	-0.05307753
244	0x3c97f230	0.018548101
245	0xbd6a73d4	-0.05723937
246	0xbd57bdf1	-0.052671377
247	0x3d165880	0.036705494
248	0xbcd65759	-0.026164697
249	0xbd820074	-0.06347743
250	0x3ca1ec60	0.019766033
251	0xbc8e0053	-0.017334139
252	0xbd7bdeb2	-0.061491676
253	0xbd82cf91	-0.063872464
254	0xbcbbc29d	-0.022919947
255	0x3d750f37	0.059828963

lstm.bias_hh_l0 f4 [512]
0	0xbc118a88	-0.008883126
1	0xbc5b15c2	-0.013371887
2	0xbbd52ddb	-0.0065057105
3	0xbaf19700	-0.0018431842
4	0xbda8eb7b	-0.08248039
5	0xbd2c0d78	-0.042005032
6	0xbc8c4e78	-0.01712726
7	0xbc986445	-0.0186025
8	0x3d6b7be3	0.057491194
9	0xbcdad884	-0.02671457
10	0x3d9850de	0.07437299
11	0x3dc29686	0.09501366
12	0x3d42dc68	0.047573477
13	0xbd1680ef	-0.036744054
14	0xbd8b2255	-0.06793658
15	0xbce75e60	-0.028243244
16	0xbd8f40fd	-0.069948174
17	0xbbfe8355	-0.007767121
18	0x3cd63d83	0.026152378
19	0xb8b2d1b5	-8.5267624e-05
20	0x3cd17f2f	0.025573341
21	0xbbbfcc7f	-0.0058532353
22	0xbbb5a7d9	-0.0055436906
23	0x3db2a736	0.08723299
24	0x3dcc534c	0.09976825
25	0x3c3a8383	0.011383894
26	0x3cf6108c	0.030037187
27	0x3c90cbba	0.01767527
28	0xbd824ec7	-0.06362682
29	0x3dc42c39	0.09578747
30	0x3d000d41	0.03126264
31	0x3db606cd	0.08888016
32	0x3d9d7392	0.07688059
33	0x3cc6eef0	0.024283856
34	0xbd89890d	-0.067155935
35	0x3d746913	0.05967052
36	0x3bd3f5a1	0.00646849
37	0xbcd134dd	-0.025537902
38	0xbd69146d	-0.056904245
39	0xbcb6049d	-0.022218997
40	0xbd0aa575	-0.0338492
41	0xbd85e640	-0.06538057
42	0xbd1c4136	-0.038148127
43	0x3d3d6be7	0.04624548
44	0x3da45af5	0.08025161
45	0x3ca044b8	0.019564018
46	0xbaf8c6ce	-0.0018980147
47	0xbd38deb1	-0.04513425
48	0x3d0d45b5	0.034490306
49	0x3c93e570	0.01805374
50	0x3d8626f2	0.06550397
51	0xbd0f2fc6	-0.03495767
52	0x3bac136e	0.0052513396
53	0x3a80b889	0.0009820621
54	0x3c1977f3	0.009366977
55	0xbd67739e	-0.056506746
56	0xbd6c0e6a	-0.057630934
57	0xbdaf05c9	-0.08546025
58	0xbd4a3517	-0.049367037
59	0x3cd904ba	0.026491512
60	0xbd1b73b9	-0.03795216
61	0xbd3d598b	-0.046227973
62	0xbb7131b3	-0.0036803305
63	0xbd970c2f	-0.07375371
64	0xbcfbe3b5	-0.030748228
65	0x3b3c1dd5	0.0028704305
66	0x3d940c12	0.07228865
67	0xbc09850f	-0.00839354
68	0x3d747052	0.05967743
69	0x3dbc9b98	0.09209365
70	0xbc175aa4	-0.009237919
71	0x3c0c8ec1	0.008578957
72	0x3d55930a	0.05214218
73	0x3e0eec94	0.13957435
74	0x3d2d9218	0.042375654
75	0x3b9faa69	0.0048726094
76	0x3de046dd	0.10951016
77	0xbc27dbe3	-0.010245296
78	0x3d6472a4	0.055773392
79	0xbd1df41c	-0.03856288
80	0x3e3c355c	0.1837973
81	0xbc7823cb	-0.015145252
82	0xbd2b80b5	-0.04187079
83	0x3d0420c2	0.032257803
84	0x3d495e0b	0.049161952
85	0xbcc5c193	-0.024140155
86	0x3de6250e	0.11237536
87	0x3d690ea4	0.056898728
88	0xbc1f9401	-0.009739877
89	0x3a222bcf	0.00061863376
90	0xbcea6591	-0.028612884
91	0x3db7ee51	0.08981002
92	0x3d8e9252	0.06961502
93	0xbd5087c5	-0.05091073
94	0x3c8f02eb	0.017457446
95	0x3d92b328	0.071630776
96	0xbc9f2386	-0.019426119
97	0xbd46ea11	-0.048563067
98	0x3dc34044	0.09533742
99	0xbcec648f	-0.028856544
100	0x3d53a29a	0.05166874
101	0xbc5b6c1b	-0.013392474
102	0x3da5b4d5	0.080911316
103	0x3dcceafc	0.10005757
104	0xbabd22d6	-0.0014429938
105	0xb991a0ba	-0.00027776306
106	0xbcc4756f	-0.023981778
107	0x3d82eea3	0.063931726
108	0x3cd96ed8	0.026542112
109	0xbd4fc4f0	-0.050724924
110	0xbd5fe66d	-0.05466311
111	0x3db8c0e5	0.09021167
112	0xba63803b	-0.00086784706
113	0x3daf50d5	0.08560339
114	0x3ccf58eb	0.025310954
115	0x3d8c75d7	0.06858414
116	0xbd53f41a	-0.051746465
117	0xbc82f356	-0.015985172
118	0x3deb3ba9	0.11485989
119	0xbd00d0de	-0.03144919
120	0x3ddefcd7	0.10888069
121	0x3db7575c	0.08952209
122	0xbd77b0d1	-0.06047136
123	0x3dcafc1e	0.09911369
124	0xbcc51af8	-0.024060711
125	0x3c1f100a	0.009708414
126	0xbd73a3f2	-0.059482522
127	0xbd5b1aea	-0.053492464
128	0x3daaa7c4	0.0833278
129	0x3dcfce2d	0.10146747
130	0xbcf9d877	-0.030498726
131	0xbcf9cfe1	-0.030494632
132	0x3d22e030	0.039764583
133	0x3db77ed7	0.0895974
134	0x3cb02483	0.021501785
135	0x3ce40601	0.027834894
136	0xbc90ee8e	-0.017691877
137	0x3ca534c4	0.020166762
138	0x3d5221ba	0.051301695
139	0xbcb8ac31	-0.022543045
140	0xbc4984b4	-0.012299705
141	0x3d52cc1f	0.051464196
142	0x3d8a567f	0.06754779
143	0xbc708c6d	-0.014681918
144	0xbd82aba4	-0.06380394
145	0x3dbf2882	0.09333898
146	0x3d945a9a	0.072438434
147	0xbd210b65	-0.039317507
148	0xbd2c38fe	-0.04204654
149	0x3dac4637	0.0841183
150	0xba84a304	-0.0010119383
151	0x3d9bba18	0.07603854
152	0xbd4e16f0	-0.050314844
153	0xbda23cd2	-0.07921757
154	0x3d2b0781	0.041755203
155	0x3d215245	0.0393851
156	0xbcb68187	-0.02227856
157	0xbcec7375	-0.028863648
158	0xbd51c440	-0.05121255
159	0xba14a10c	-0.000566975
160	0xbd3f366e	-0.046682768
161	0x3c140dcd	0.0090364935
162	0x3d1075bf	0.03526854
163	0xbd6c667c	-0.057714924
164	0x3d92b98d	0.07164297
165	0x3cd186e9	0.025577025
166	0xbd4fb95a	-0.050713874
167	0x3ce18b69	0.027532296
168	0xbcf4ba3f	-0.029873965
169	0xbd576e89	-0.05259565
170	0xbd48a6e5	-0.048987288
171	0x3d5fd73c	0.054648623
172	0xbd3da5d0	-0.04630071
173	0x3ddcda89	0.1078387
174	0xbcc63ec7	-0.024199856
175	0x3d5ca49e	0.05386793
176	0x3dc5275c	0.09626648
177	0xbc09848f	-0.008393421
178	0x3d914aac	0.07094321
179	0x3daf7023	0.0856631
180	0x3d86dee2	0.0658548
181	0x3cf2b4f0	0.029627293
182	0xbd3ddcd5	-0.04635318
183	0x3c65c7bf	0.014024674
184	0xbd15f695	-0.036612112
185	0xbc829535	-0.015940288
186	0x3d9581f4	0.07300177
187	0x3da978b9	0.08274979
188	0xbd0d3b67	-0.03448048
189	0x3daffd26	0.08593206
190	0x3d35b6f1	0.04436392
191	0xbcd06133	-0.025436973
192	0xbc05ede3	-0.008174392
193	0x3c9940e2	0.018707696
194	0x3dac8624	0.08424023
195	0xbb92962b	-0.004473468
196	0xbd8ad673	-0.06779184
197	0xbd0a79a2	-0.033807404
198	0xbd456fad	-0.048202205
199	0x3dad5728	0.08463889
200	0x3d7c6aaa	0.06162516
201	0xbd9e934c	-0.077429384
202	0x3d1a546e	0.037678175
203	0xbc81e903	-0.015858179
204	0x3dd04a0d	0.10170374
205	0xbd71f780	-0.059073925
206	0xbc4463ed	-0.011986715
207	0xbd6d3514	-0.057911947
208	0xbdb4b602	-0.08823778
209	0xbd9b0638	-0.075695455
210	0xbd766f1c	-0.060164556
211	0x3cc7fe65	0.024413297
212	0x3d8f74b1	0.07004679
213	0x3d89ac9f	0.06722378
214	0x3cd14111	0.025543721
215	0x3cc2df21	0.023788037
216	0x3dc1d062	0.09463574
217	0x3c025795	0.0079554515
218	0x3d67d1ec	0.05659668
219	0xbd8a7e70	-0.06762397
220	0x3c47ca15	0.012194176
221	0x3c8f3165	0.017479608
222	0x3cef46f8	0.029208645
223	0x3d259bc1	0.04043174
224	0x3da5ae6d	0.0808991
225	0xbcfe2e9f	-0.03102809
226	0x3d376a3d	0.04477905
227	0xbd35d33a	-0.044390894
228	0xbd0230ff	-0.031785008
229	0x3d6e51ef	0.058183607
230	0x3d8522ce	0.06500779
231	0x3d524d23	0.051343095
232	0x3b93e6d4	0.004513601
233	0x3daa63c9	0.08319814
234	0x3d16d900	0.03682804
235	0xbd918f41	-0.07107402
236	0x3d966080	0.07342625
237	0xb847e6dd	-4.7660305e-05
238	0xbc4212ee	-0.0118453335
239	0x3d3c6a1e	0.04599964
240	0x3d08031a	0.033206083
241	0xbd8c9a9a	-0.068654254
242	0xbce144c2	-0.027498607
243	0x3d8097b1	0.06278933
244	0x3daf9796	0.085738346
245	0xbccf295e	-0.02528828
246	0xbb1d8659	-0.0024036376
247	0xbd68f334	-0.05687256
248	0x3d476204	0.04867746
249	0x3dbdb202	0.09262468
250	0xbd3c3b04	-0.04595472
251	0x3b531f11	0.0032214562
252	0x3a856bcd	0.0010179222
253	0x3be204e5	0.006897556
254	0xbd7b4c0b	-0.061351817
255	0x3d699baf	0.057033237

fc.weight f4 [1, 128]
0	0xbdde1db1	-0.10845507
1	0x3dd00e82	0.10159017
2	0x3d968d6d	0.073511936
3	0x3cde73ab	0.027154764
4	0xbc6a22d7	-0.014290533
5	0xbe0ad33e	-0.13557145
6	0xbdcde438	-0.10053295
7	0x3d4865d4	0.048925236
8	0x3c88e860	0.016712368
9	0x3d9579c5	0.07298616
10	0x3d6f7041	0.058456663
11	0x3e07c2c6	0.13257894
12	0xbd34819e	-0.044068925
13	0x3dc288c9	0.09498746
14	0x3dbed9f1	0.09318913
15	0xbe055a63	-0.13022761
16	0x3d5b21e7	0.05349913
17	0x3ddae17f	0.10687541
18	0xbd5cf04d	-0.053940106
19	0x3deef404	0.11667636
20	0x3d7501eb	0.059816282
21	0x3dcdc89c	0.10048029
22	0x3de8d30b	0.11368378
23	0xbcf76cbd	-0.030203218
24	0xbcb07c09	-0.02154352
25	0xbdd62b81	-0.104575165
26	0xbdc55d2a	-0.0963691
27	0x3dcfcba5	0.10146264
28	0x3d023d33	0.031796645
29	0xbd639c24	-0.05556883
30	0x3e0c2f9c	0.13690037
31	0x3df0d64c	0.11759624
32	0x3dd73ecc	0.105100244
33	0x3d676b67	0.05649891
34	0x3d975fe4	0.073913366
35	0xbde65d37	-0.11248248
36	0xbdc78ad3	-0.097432755
37	0xbe0be785	-0.13662536
38	0xbcb2ded4	-0.021834768
39	0xbcb70285	-0.022340069
40	0xbd0c5e95	-0.034269888
41	0xbd0a3bc6	-0.03374841
42	0xbcd0fde1	-0.025511684
43	0x3e114499	0.14186324
44	0x3d658df2	0.056043573
45	0x3df20225	0.11816815
46	0x3da535c8	0.080668986
47	0x3d8865a3	0.06660011
48	0x3e0cacf4	0.13737851
49	0x3d42e027	0.04757705
50	0x3e059ff0	0.13049293
51	0x3d8efa4b	0.06981333
52	0xbc97432d	-0.01846465
53	0x3e12e2fd	0.14344402
54	0x3c0b28d8	0.008493625
55	0xbd1a36ab	-0.03764979
56	0xbd82d905	-0.063890494
57	0x3ca0eac7	0.0196432
58	0xbdcd2a6f	-0.10017859
59	0xbd949e0b	-0.07256707
60	0xbd904b9c	-0.07045671
61	0x3d906e29	0.070522614
62	0xbd257f40	-0.04040456
63	0x3dcc4fe2	0.09976174
64	0xbcfb5216	-0.03067879
65	0xbcf597ad	-0.029979551
66	0xbe0e7e76	-0.13915429
67	0xbd8346f0	-0.06410015
68	0xbb917070	-0.0044384524
69	0xbdd7e70f	-0.10542118
70	0x3b84d29e	0.004053428
71	0xbd99f8f7	-0.075181894
72	0x3d9dd52b	0.07706674
73	0xbe1412cb	-0.14460294
74	0xbb091e0d	-0.0020922453
75	0xbde212e7	-0.110387616
76	0xbde000d6	-0.109376594
77	0xbd9a5efe	-0.075376496
78	0x3c4b451c	0.012406614
79	0xbc811d03	-0.015760904
80	0xbcf472a3	-0.02983982
81	0xbd7c3799	-0.06157646
82	0x3d920571	0.07129944
83	0x3d0529e1	0.032510642
84	0x3d163f05	0.036681194
85	0xbe008ce9	-0.12553753
86	0x3dce7726	0.100813195
87	0xbdad31ca	-0.08456762
88	0xbdf23298	-0.11826056
89	0xbd6885f0	-0.056768358
90	0x3dbc5f90	0.091979146
91	0xbdc01829	-0.09379608
92	0xbe0e1070	-0.13873458
93	0xbdb4b9fd	-0.08824537
94	0xbce207e7	-0.027591659
95	0x3dda53e8	0.10660535
96	0x3dfb53b7	0.12271827
97	0xba2f4594	-0.0006686088
98	0x3d48847a	0.048954464
99	0xbd8325d5	-0.064037
100	0x3d490c65	0.049084086
101	0xbd847f4a	-0.06469591
102	0xbe164674	-0.14675313
103	0xbd833d70	-0.06408203
104	0x3d58985d	0.05287968
105	0xbdbdc381	-0.09265805
106	0xbdb8df2c	-0.09026942
107	0xbd8d2619	-0.06892032
108	0x3dabd021	0.08389307
109	0x3ca91980	0.020642042
110	0xbd0c4e69	-0.034254465
111	0xbcef379a	-0.029201318
112	0x3d380656	0.044927917
113	0xbda7fea1	-0.082028635
114	0xbda917c5	-0.08256487
115	0xbdf56150	-0.119814515
116	0xbd9c117a	-0.07620521
117	0x3de06b3f	0.109579556
118	0x3deaffe3	0.11474588
119	0xbd22ad98	-0.039716333
120	0xbd4f1339	-0.05055544
121	0xbdd66dd6	-0.10470168
122	0xbdd1b5f1	-0.10239781
123	0xbddffac3	-0.10936501
124	0xbd97abfc	-0.0740585
125	0xbd71c09e	-0.059021585
126	0x3e02797d	0.12741657
127	0xbdb9b288	-0.09067255
