models/ALGN model.pth (torch, 270889 bytes, 5 tensors)

lstm.weight_ih_l0 f4 [512, 1]
0	0x3d02a3c9	0.03189448
1	0x3c4d8200	0.012543201
2	0xbd59cc59	-0.053173397
3	0xbc4fea38	-0.012690119
4	0xbcd86645	-0.026415953
5	0x3dd1f540	0.10251856
6	0x3da87e7f	0.08227252
7	0x3c0b0ef3	0.008487451
8	0x3bd22382	0.0064129243
9	0x3e2383c2	0.1596823
10	0x3da756b6	0.08170836
11	0xbba178e1	-0.00492774
12	0xbd1b101e	-0.037857167
13	0x3d5f522d	0.05452173
14	0x3d0456c4	0.03230931
15	0xbe5708df	-0.20999478
16	0x3d83d1ee	0.06436525
17	0x3dc29060	0.095001936
18	0x3da2feaf	0.07958733
19	0xbe512f1c	-0.20428127
20	0x3de1512d	0.11001811
21	0xbbdc8010	-0.0067291334
22	0x3cf12f74	0.029441573
23	0x3e3a9526	0.18220958
24	0x3b8eef8c	0.0043620523
25	0x3dd4354a	0.103617266
26	0x3dcc7b82	0.09984495
27	0x3de4f678	0.11179823
28	0x3e027c24	0.12742668
29	0xbd039f3a	-0.032134272
30	0xbd9f7993	-0.0778686
31	0xbbbee6e3	-0.0058258637
32	0xbd965a36	-0.07341425
33	0x3dda0d67	0.106470875
34	0xbc28ee54	-0.010310728
35	0xbcbf9269	-0.023385243
36	0x3db9d3ed	0.09073625
37	0x3db7f1f3	0.08981695
38	0x3d36eeca	0.04466132
39	0x3cd86a8a	0.02641799
40	0x3d1261ae	0.035737686
41	0x3c5ee4fe	0.013604401
42	0xbcb8ee7b	-0.022574654
43	0x3c6b0518	0.014344476
44	0x3d869df0	0.06573093
45	0xbd1e5fa9	-0.038665447
46	0x3db5e426	0.088814065
47	0xbd8d53e8	-0.069007695
48	0xbd893385	-0.0669928
49	0x3d8143a1	0.06311727
50	0x3db890d1	0.090119965
51	0xbd18938f	-0.037250098
52	0xbe3599b5	-0.17734416
53	0x3cc44446	0.023958337
54	0xbd790295	-0.060793478
55	0xbc7bec87	-0.015376217
56	0x3dad8f00	0.08474541
57	0xbd8aaff6	-0.06771843
58	0x3d02c35e	0.031924598
59	0x3c5e8881	0.01358235
60	0x3c7459bd	0.014913973
61	0xbc8e3498	-0.017359063
62	0x3e05846b	0.13038795
63	0x3dcb27dd	0.09919713
64	0x3d3d8365	0.046267886
65	0xbe05da08	-0.13071454
66	0x3d1c712f	0.038193878
67	0xbd8517a3	-0.06498649
68	0xbdad0ae3	-0.08449342
69	0x3de33b0d	0.110952474
70	0xbd43de10	-0.047819197
71	0x3d6875ec	0.056753084
72	0xbd26d653	-0.04073174
73	0xbd66c40d	-0.056339312
74	0xbd089239	-0.033342574
75	0x3aa38b3b	0.0012477407
76	0xbe026b7f	-0.12736319
77	0x3e01f5a5	0.12691362
78	0x3b317559	0.0027078001
79	0xbc5a752c	-0.0133336
80	0x3d694a59	0.05695567
81	0xbe3f5798	-0.18685758
82	0x3e1b72b7	0.15180479
83	0x3d2c17ea	0.042014994
84	0xbd24b83b	-0.04021476
85	0x3dfc0a15	0.123066105
86	0xbba4eb80	-0.0050329566
87	0xbcb61a82	-0.022229437
88	0x3d8e8e3e	0.06960724
89	0x3d7d6a1d	0.061868776
90	0xbbc016ea	-0.0058621066
91	0x3b3d98a8	0.0028930102
92	0x3d556d44	0.052106157
93	0x3e1244d6	0.14284071
94	0xbbeb8914	-0.007187972
95	0xbd061419	-0.03273401
96	0x3d08496b	0.03327314
97	0x3da643d3	0.08118405
98	0xbd0baf32	-0.034102626
99	0x3d230b6d	0.03980582
100	0x3daa56df	0.083173506
101	0x3d7aedf3	0.061262082
102	0x3cd0f73c	0.025508516
103	0xbdcb8ddc	-0.09939167
104	0xbc220b0d	-0.00989033
105	0x3d6bc3ae	0.05755966
106	0x3d740122	0.059571393
107	0x3e0f48fe	0.13992688
108	0x3bd62d85	0.006536188
109	0xbd835a62	-0.064137235
110	0xbc90f255	-0.017693678
111	0x3d999ca4	0.0750058
112	0x3a9e8022	0.001209263
113	0x3d76ac99	0.060223196
114	0xbce3232e	-0.027726736
115	0x3b98a132	0.004657888
116	0xbd74c532	-0.059758373
117	0xbe14820f	-0.14502738
118	0xbd464798	-0.04840812
119	0x3e0af9b2	0.13571814
120	0x3d904e10	0.07046139
121	0x3df1d38e	0.11807929
122	0x3dd2a56c	0.10285458
123	0x3dcf7b32	0.101309195
124	0x3e35f07c	0.17767519
125	0xbdd06111	-0.10174764
126	0xbbc8376f	-0.006110124
127	0x3c189993	0.009313959
128	0x3dd95687	0.10612207
129	0xbe26b34f	-0.16279338
130	0x3d628292	0.055300303
131	0xbbf0f417	-0.0073533165
132	0x3d808e25	0.06277112
133	0x3a428a7e	0.00074211496
134	0x3de02173	0.1094388
135	0xbb6db386	-0.0036270334
136	0xbd8ac724	-0.06776264
137	0x3df30295	0.11865727
138	0x3d5b3f4e	0.05352717
139	0x3d48cca2	0.049023278
140	0x3e02e777	0.1278361
141	0xbe1770a6	-0.14789066
142	0x3d79a285	0.060946006
143	0xbe425389	-0.18977179
144	0x3e1f77b0	0.15573001
145	0x3d9e0fd5	0.077178635
146	0xbcfb0750	-0.030643135
147	0xbe16a9de	-0.14713237
148	0x3e2d237c	0.16908067
149	0x3d899714	0.06718269
150	0x3e061331	0.13093258
151	0x3e922bb0	0.28548956
152	0x3d687b69	0.056758318
153	0x3dab1979	0.08354468
154	0x3dab334c	0.083593935
155	0x3d7ba6bd	0.06143831
156	0xbccbc328	-0.024873331
157	0x3d590bf6	0.052989922
158	0xbe1132e3	-0.14179568
159	0x3d33b985	0.043878097
160	0xbdbeeebb	-0.09322878
161	0x3cba7c11	0.022764238
162	0x3e0c9440	0.13728428
163	0x3db4aea9	0.08822376
164	0xbb5407a0	-0.0032353178
165	0xbcadcee3	-0.021216815
166	0xbd69de98	-0.057097048
167	0x3cd5c963	0.026097005
168	0xbb2f7283	-0.0026771135
169	0x3d897c6f	0.06713187
170	0xbb8e3fd6	-0.004341106
171	0x3d8c9632	0.06864585
172	0x3db28bcb	0.0871807
173	0xbc7b4d07	-0.015338189
174	0x3d513028	0.051071316
175	0xbe7099f9	-0.23496236
176	0x3ceedb97	0.029157443
177	0x3e07cc01	0.13261415
178	0xbd15a2d4	-0.036532238
179	0xbd9684e1	-0.073495634
180	0xbd9d9645	-0.07694677
181	0x3dd3bf95	0.10339276
182	0x3d45b9bf	0.048272844
183	0xbcc3b671	-0.023890706
184	0x3ca53daf	0.020171015
185	0xbf03d4f6	-0.5149683
186	0x3cea740a	0.028619785
187	0x3df1151e	0.11771606
188	0xbd473ce3	-0.04864205
189	0xbca70bda	-0.020391393
190	0x3d947118	0.072481334
191	0x3d8acb0f	0.067770116
192	0x3deb395d	0.114855506
193	0xbe0f8f4e	-0.1401951
194	0xbda25a78	-0.07927412
195	0xbd663df5	-0.05621143
196	0x3b2ddba9	0.0026528633
197	0x3c29fc00	0.010375023
198	0xbe1412c3	-0.14460282
199	0xbd370e36	-0.044691287
200	0xbcaebc01	-0.021329882
201	0xbc43eb4a	-0.011957953
202	0xbc8c63ce	-0.017137434
203	0xbc9519d3	-0.01820079
204	0xbe47ebeb	-0.1952359
205	0x3d8a6b7c	0.06758782
206	0xbde0a231	-0.109684356
207	0x3cebcefb	0.02878522
208	0x3e000181	0.12500574
209	0xbe65e822	-0.22451833
210	0x3d9d0402	0.0766678
211	0xbb5ec924	-0.00339944
212	0xbde44603	-0.11146166
213	0x3b077171	0.0020666982
214	0x3da59455	0.08084933
215	0x3d66036a	0.0561556
216	0x3d4b7662	0.049673446
217	0x3c930923	0.017948693
218	0x3bf59315	0.00749434
219	0x3bc94da0	0.006143287
220	0xbd6a3f4e	-0.05718928
221	0x3e4e761d	0.20162244
222	0x3e079510	0.13240457
223	0x3d17b2b0	0.037035644
224	0x3c05a073	0.00815593
225	0x3db15bae	0.08660065
226	0x3dfa5517	0.12223261
227	0x3d62ca01	0.055368427
228	0x3d29996d	0.041406084
229	0xbd45e234	-0.048311427
230	0xbd7279b6	-0.059198104
231	0xbb734bf8	-0.0037124138
232	0x3de5535d	0.11197541
233	0xbd252c3c	-0.04032539
234	0xbd7da21c	-0.061922178
235	0x3d99818e	0.07495414
236	0xbca803f2	-0.020509694
237	0xbda234db	-0.07920238
238	0x3dd747bc	0.10511729
239	0xbd20100d	-0.039077807
240	0xbb052683	-0.0020317144
241	0x3c90fef1	0.01769969
242	0xbd376d35	-0.044781882
243	0x3d9b9cd0	0.07598269
244	0xbe6ba93f	-0.23013781
245	0xbe306880	-0.17227364
246	0xbd687384	-0.05675079
247	0x3e13ad8d	0.14421673
248	0xbd5ae1e7	-0.053438094
249	0x3d3b27cd	0.045692254
250	0x3cfad61f	0.030619679
251	0x3db4ef8d	0.08834753
252	0x3e0f1739	0.13973702
253	0xbdf556ac	-0.11979422
254	0x3ca0acd9	0.01961367
255	0xbda562be	-0.08075474

lstm.weight_hh_l0 f4 [512, 128]
0	0x3ab582df	0.0013848207
1	0xbd3a525a	-0.045488693
2	0xbd092768	-0.033484846
3	0xbdac30e7	-0.08407765
4	0xbd69f6e8	-0.057120234
5	0x3db6b474	0.089211375
6	0xbd0d481d	-0.0344926
7	0x3d85cada	0.065328315
8	0x3c8fe965	0.017567346
9	0x3b32f8da	0.0027308972
10	0x3da9dfcf	0.08294641
11	0xbb796bbe	-0.0038058604
12	0x3d60b846	0.054863237
13	0xbd88fe40	-0.06689119
14	0xbd1dc932	-0.038521953
15	0x3de19bc5	0.11016039
16	0xbd778568	-0.06042996
17	0x3d81bfec	0.06335434
18	0x3884c8e0	6.3316664e-05
19	0xbd3ad57f	-0.045613762
20	0x3b62c377	0.003460137
21	0xbd9bfb5d	-0.07616303
22	0xbd9da6fa	-0.07697864
23	0xbd17bc8c	-0.037045047
24	0x3c5cc153	0.013473826
25	0xbdcd7710	-0.10032475
26	0x3db084b4	0.08619061
27	0x3cadbe89	0.021209018
28	0xbd7caed1	-0.061690155
29	0xbdb50fe0	-0.088409185
30	0xbdba5470	-0.090981364
31	0x3d2f71fc	0.042833313
32	0x3c35e665	0.011102294
33	0x3cd76f3e	0.026298162
34	0xbd23dd70	-0.0400061
35	0x3d7e3d72	0.062070318
36	0xbd0f6e40	-0.035017252
37	0x3cc6a599	0.024248885
38	0xbdab4f4f	-0.08364736
39	0x3ccfd22f	0.025368778
40	0x3d9795bf	0.07401609
41	0xba0b4b9d	-0.00053136965
42	0x3d0d63bb	0.03451894
43	0x3cd09fa5	0.02546675
44	0x3cb57316	0.022149604
45	0x3b34c5c4	0.0027583698
46	0xbc87b70f	-0.016566781
47	0x3db2af10	0.08724797
48	0xbd5c60a7	-0.053803112
49	0xbbe05b47	-0.0068468186
50	0x3cf1c95b	0.02951496
51	0x3cdd1200	0.026986122
52	0x3d1824b6	0.037144385
53	0x3d5490a4	0.051895753
54	0xbdbc1c67	-0.09185105
55	0xbd516494	-0.05112131
56	0x3c5dd306	0.013539081
57	0xbe00103a	-0.1250619
58	0xbcdd1931	-0.026989551
59	0x3da27470	0.07932365
60	0xbd4be541	-0.04977918
61	0x3ddb75d3	0.107158326
62	0xbd6926ee	-0.056921892
63	0xbc6362d1	-0.01387854
64	0x3bf3d598	0.007441234
65	0xbd1be5c9	-0.038060937
66	0xbc8f16ed	-0.017466987
67	0x3cb000a1	0.021484675
68	0xbc2b828c	-0.0104681365
69	0xbd9f3579	-0.07773871
70	0xbcc92aff	-0.024556635
71	0xbdae5efc	-0.085142106
72	0xbd488ba0	-0.04896128
73	0xbd8a8688	-0.06763941
74	0xbd2aa377	-0.0416598
75	0x3ca05558	0.019571945
76	0xbbe2bc1d	-0.0069193975
77	0xbc20bdc9	-0.009810873
78	0x3d27cb17	0.040965166
79	0xbd99e1c5	-0.07513765
80	0x3cdfbb2e	0.027310934
81	0xba772eb7	-0.00094292633
82	0xbd461283	-0.048357498
83	0xbcb3c0e9	-0.021942573
84	0x3cee5038	0.029090986
85	0x3d6de6f9	0.0580816
86	0xbc5bc6a8	-0.013414063
87	0xbd64283a	-0.055702426
88	0xbd2f42fd	-0.042788494
89	0xbd905b64	-0.070486814
90	0xbc828605	-0.015933046
91	0xbca9373f	-0.020656226
92	0xbcbb35c5	-0.022852788
93	0xbdaba872	-0.08381738
94	0xbc3f0904	-0.011659864
95	0xbcb2afb9	-0.021812307
96	0x3c82115a	0.015877414
97	0xbd128e02	-0.03577996
98	0x3cd3f996	0.025875848
99	0x3cc5ae36	0.024130922
100	0x3da77bcc	0.08177909
101	0x3d920f93	0.07131877
102	0xbdb19739	-0.086714216
103	0x3ccf9d72	0.02534363
104	0xbd5cd8ae	-0.05391758
105	0xbd201df8	-0.03909108
106	0x3c661d4c	0.014045071
107	0x3d61fc51	0.05517227
108	0xbc96aeea	-0.018393952
109	0x3d41671a	0.047217466
110	0x3d03239a	0.032016374
111	0xbd13d67b	-0.036093216
112	0x3da6e7fa	0.08149715
113	0xbc9a0fcf	-0.018806366
114	0xbd99f323	-0.07517078
115	0xbcd243f2	-0.025667164
116	0xbcf533cd	-0.029931927
117	0x3bb36462	0.005474613
118	0xbd136a4c	-0.035990044
119	0x3d94cd21	0.07265688
120	0x3d8eb694	0.06968418
121	0xbd990b91	-0.07472909
122	0xbdaa054d	-0.08301792
123	0xbd6241ba	-0.055238463
124	0xbd058977	-0.0326018
125	0xbc877752	-0.016536389
126	0xbc53c237	-0.012924722
127	0xbc48413d	-0.012222585
128	0xbc734f94	-0.014850516
129	0xbe30a596	-0.17250666
130	0xbc8dfc0c	-0.0173321
131	0x3df7159d	0.12064669
132	0x3cb3658d	0.02189901
133	0x3dbc318b	0.09189137
134	0xbd0ea1c1	-0.03482223
135	0xbd8752dc	-0.06607601
136	0xbdc0d964	-0.09416464
137	0xbd4f049d	-0.05054151
138	0x3c84c1c9	0.016205685
139	0xbd6a8d6f	-0.057263788
140	0x3c9fe488	0.019518152
141	0x3e0e6af8	0.13907993
142	0x3d9908cd	0.07472382
143	0x3e71b334	0.23603517
144	0xbdb3b9be	-0.08775662
145	0xbd72f897	-0.059319105
146	0xbbd35536	-0.006449367
147	0x3d85bfde	0.065307364
148	0xbd88671b	-0.06660291
149	0x3caf0c6a	0.021368224
150	0xbd88e1eb	-0.066837154
151	0xbe10cb84	-0.14140135
152	0x3d8cbfc0	0.06872511
153	0x3cf6af29	0.03011282
154	0xbd737876	-0.059441052
155	0xbd3db3f9	-0.046314213
156	0x3c53a077	0.012916676
157	0x3d5cd23d	0.053911436
158	0xbe0586fe	-0.13039777
159	0xbaebc9f8	-0.0017989269
160	0xbd7c83b4	-0.06164904
161	0xbd3498b9	-0.04409096
162	0xbd76059b	-0.06006394
163	0x3d02ce8a	0.031935252
164	0x3c947446	0.01812185
165	0x3d223d96	0.039609514
166	0x3d01e869	0.031715784
167	0x3d1f14fa	0.038838364
168	0xbc357019	-0.011074089
169	0xbc2d7897	-0.010587833
170	0x3de934a5	0.11386994
171	0x3c0fdbe1	0.008780451
172	0xbacbe986	-0.0015557266
173	0x3dd1717e	0.10226725
174	0xbd6c6f6c	-0.057723448
175	0x3e0874f7	0.13325869
176	0xbdbc2e4a	-0.091885164
177	0xbe4a3127	-0.19745313
178	0xbd856da8	-0.06515056
179	0x3d513e12	0.051084585
180	0xbe02497c	-0.12723345
181	0x3d851655	0.064984
182	0xbbc049b3	-0.0058681606
183	0xbde1f7d3	-0.11033597
184	0xbd936047	-0.07196098
185	0xbdc4b0f0	-0.09604061
186	0x3db442c7	0.08801799
187	0x3d74e9b5	0.059793193
188	0xbdc6494e	-0.096819505
189	0x3e1a508c	0.15069789
190	0x3da45a68	0.08025056
191	0x3d930cb1	0.07180155
192	0xbdaf139c	-0.08548662
193	0xbd8d5fa6	-0.06903009
194	0xbd80d232	-0.062900916
195	0x3d17c03e	0.03704857
196	0x3dd3be5d	0.10339043
197	0x3c98c027	0.018646313
198	0x3e00a503	0.12562947
199	0xbc5f6821	-0.013635666
200	0x3c45e9aa	0.012079636
201	0x3da908dd	0.08253644
202	0xbd459cce	-0.048245244
203	0x3dd1fa8d	0.10252867
204	0x3e063fb5	0.1311024
205	0x3e044cab	0.12919872
206	0x3d11ebf2	0.035625406
207	0xbcac1117	-0.021004243
208	0xbd6a944c	-0.057270333
209	0x3d7aa7b4	0.06119509
210	0x3d4de89a	0.050270654
211	0xbd626675	-0.055273492
212	0x3ddfc5cf	0.10926401
213	0xbd8f7ebb	-0.07006594
214	0x3d42773a	0.047476985
215	0xbcefd9ff	-0.029278753
216	0x3d742595	0.059606154
217	0x3d885fd8	0.06658906
218	0x3dc982bd	0.098393895
219	0xbcd97306	-0.026544105
220	0xbbae72a4	-0.005323725
221	0xbdbe78ee	-0.09300409
222	0x3bd11f27	0.0063818875
223	0x3dc7e74c	0.09760913
224	0xbce2baf2	-0.027677033
225	0xbdb3e433	-0.0878376
226	0xbd427add	-0.047480453
227	0xbd4fc0e0	-0.05072105
228	0xbe04f9cf	-0.1298592
229	0x3dc43eb4	0.09582272
230	0x3c958ae7	0.01825471
231	0x3dc64d6a	0.09682734
232	0xbc1c063b	-0.00952297
233	0x3d83f0bb	0.064424
234	0x3d8a657e	0.06757639
235	0x3d0dcaaf	0.034617122
236	0xbdbdb828	-0.09263641
237	0x3e23d279	0.15998258
238	0x3c4dbf03	0.012557748
239	0xbdc91b0b	-0.09819611
240	0x3cf3a740	0.029742837
241	0x3d9f474a	0.07777269
242	0x3dae3dfc	0.08507916
243	0xbe32d24a	-0.17463031
244	0xbd592a38	-0.05301878
245	0xbe0ceb4c	-0.13761634
246	0xbd7026bf	-0.0586307
247	0xbcd60478	-0.026125178
248	0xbcafb026	-0.021446299
249	0xbcdc9cda	-0.026930261
250	0x3dbead15	0.093103565
251	0xbd927bf3	-0.07152548
252	0xbdfc9f4d	-0.12335072
253	0xbe216ce9	-0.15764202
254	0xbc7548ed	-0.014971
255	0xbabdf226	-0.0014491722

lstm.bias_ih_l0 f4 [512]
0	0x3d7940f7	0.06085297
1	0xbc7f5a29	-0.015585461
2	0x3d99c71a	0.07508679
3	0x3d2b0688	0.041754276
4	0x3dcee0d1	0.10101474
5	0x3d1692ee	0.036761217
6	0xbd76036d	-0.06006186
7	0x3d8af03e	0.06784104
8	0x3dccae08	0.09994131
9	0x3c902911	0.017597707
10	0x3c8f5319	0.017495679
11	0x3d5e8e57	0.054334965
12	0xbc213321	-0.00983885
13	0x3ddf950e	0.10917102
14	0x3e00112b	0.12506549
15	0xba8851c2	-0.0010400342
16	0xbd7cd5d7	-0.06172737
17	0xbd3f3254	-0.046678856
18	0xbcdb4ab1	-0.026769014
19	0x3da15b9a	0.078788
20	0x3ce81d46	0.028334271
21	0x3d8f3857	0.06993168
22	0xbcde4959	-0.027134584
23	0x3b3d9935	0.002893043
24	0x3e04d36e	0.12971279
25	0x3e3bbe7d	0.18334384
26	0x3defe0d3	0.11712804
27	0x3db267fb	0.08711239
28	0xbd7ab671	-0.061209146
29	0xbd88e066	-0.066834256
30	0xbce49712	-0.027904067
31	0x3d8c3d4b	0.06847628
32	0x3df7cd36	0.12099688
33	0x3ca2ec9a	0.019888211
34	0x3cd69d19	0.026197957
35	0x3cfd036a	0.030885417
36	0xbd022d4e	-0.031781487
37	0x3da129a8	0.078692734
38	0x3d09f385	0.033679504
39	0xbc27af1b	-0.0102346195
40	0x3da94678	0.08265394
41	0x3d825b9a	0.06365128
42	0x3dc9fec7	0.09863048
43	0xbca97ad7	-0.020688457
44	0x3d4ac826	0.049507283
45	0x3da867d6	0.0822293
46	0xbd341542	-0.043965586
47	0x3916dd22	0.00014387493
48	0x3d8177f3	0.063217066
49	0xbdaa6ca8	-0.08321506
50	0x3db478d1	0.088121064
51	0x3d541e12	0.05178649
52	0x3da52be7	0.08065014
53	0xbc9c3ac1	-0.019070985
54	0x3bc27b64	0.0059351195
55	0x3cfe20de	0.031021532
56	0x3db37bee	0.08763872
57	0x3d1709c3	0.036874544
58	0xbcc29231	-0.02375135
59	0x3ce382b9	0.027772294
60	0x3df599ea	0.119922474
61	0x3d96c85a	0.07362433
62	0xbccd2581	-0.025042297
63	0x3dbd181d	0.09233115
64	0x3de0cbbf	0.109763615
65	0x3d332cbc	0.043743834
66	0x3d57c2cc	0.052676007
67	0x3d924fb6	0.0714411
68	0xbd251ac9	-0.040308747
69	0x3de79481	0.11307622
70	0x3b6d401f	0.003620155
71	0x3bf2a787	0.0074052247
72	0xbc7a1636	-0.015264085
73	0xbd8edcc7	-0.06975704
74	0x3e06745f	0.1313033
75	0x3d3228de	0.043496005
76	0x3de672a1	0.112523325
77	0xbc053338	-0.008129887
78	0xbd72c15e	-0.05926644
79	0x3d7f0a49	0.062265668
80	0x3b3a2346	0.0028402372
81	0x3b8689db	0.004105789
82	0x3d41cefd	0.04731654
83	0x3de3907c	0.111115426
84	0x3db32b91	0.08748544
85	0xbcd1c2cb	-0.02560558
86	0x3cfb852b	0.030703148
87	0xbd7074d4	-0.058705166
88	0x3dea612d	0.11444316
89	0xba0c3075	-0.0005347797
90	0x3dbba19f	0.09161686
91	0x3d57c32c	0.052676365
92	0xbc027243	-0.007961812
93	0xbb04c66f	-0.0020259877
94	0x3dbb2edb	0.09139796
95	0xbd23cc00	-0.03998947
96	0x3d8e82ac	0.069585174
97	0x3d820661	0.06348873
98	0x3dde1415	0.10843674
99	0x3dffb40b	0.12485512
100	0x3d7715bd	0.060323466
101	0xbcab1619	-0.02088456
102	0x3e2295df	0.15877484
103	0x3d44debe	0.048063986
104	0x3e00bc65	0.12571867
105	0x3db3ce22	0.08779551
106	0xbceec065	-0.029144475
107	0x3ad5ad04	0.0016302173
108	0x3e05efe5	0.13079794
109	0x3d79b9a4	0.060968056
110	0xbc802def	-0.015646903
111	0x3d5d43f5	0.054019887
112	0xbd6bbb0e	-0.057551436
113	0x3d180b00	0.037119865
114	0x3dd7c559	0.10535688
115	0x3d3086cb	0.0430973
116	0xbd0f8bb5	-0.035045344
117	0x3d4dd40e	0.05025106
118	0xbd83f19c	-0.06442568
119	0xbd0c5378	-0.03425929
120	0xbd078c12	-0.033092566
121	0x3d28d95f	0.041222926
122	0x3d4339d9	0.04766259
123	0x3d06d73b	0.032920104
124	0x3c79e880	0.015253186
125	0xbd0409da	-0.032235958
126	0x3d644b29	0.05573574
127	0x3d280de3	0.04102887
128	0xbd831da5	-0.064021386
129	0xbbcd5284	-0.00626594
130	0x3d6100b9	0.05493233
131	0x3d94bc3f	0.072624676
132	0x3d7f7652	0.0623687
133	0x3cf31fcb	0.029678246
134	0x3d5f2e4f	0.054487523
135	0x3caab2b9	0.020837175
136	0x3dcf93a1	0.1013558
137	0x3d6f95c7	0.05849245
138	0x3ca4565f	0.020060716
139	0xbca06bf2	-0.019582722
140	0x3dcab027	0.0989688
141	0x3e182792	0.14858845
142	0xbd8a411e	-0.06750701
143	0x3d3ad581	0.04561377
144	0xbd8844c4	-0.06653741
145	0x3d974853	0.073868416
146	0x3d4fd297	0.050737944
147	0xbdcadf76	-0.09905903
148	0xbdabd642	-0.08390476
149	0xbd0f8885	-0.035042305
150	0x3c8bc42b	0.017061314
151	0x3cb9e695	0.022692958
152	0xbd8814af	-0.0664457
153	0xbdc1a5ab	-0.09455427
154	0x3d24296b	0.04007856
155	0x3d1a0319	0.03760061
156	0xbd643a8d	-0.0557199
157	0x3c6d947b	0.0145007325
158	0xbd7d9af9	-0.06191537
159	0xbcdfc328	-0.027314737
160	0xbc64effd	-0.013973233
161	0xbd844ff9	-0.06460566
162	0x3a925f49	0.0011167313
163	0x3a2ec746	0.00066672673
164	0x3cbb7793	0.022884166
165	0xbb9489e6	-0.0045330403
166	0xbd8ea5d5	-0.06965224
167	0x3c9f1a8d	0.01942184
168	0x3c7221aa	0.014778534
169	0xbcba3e30	-0.022734731
170	0xbd179274	-0.037004903
171	0xbd4ca4a4	-0.0499617
172	0x3c402ef2	0.011729943
173	0x3d4ea5f5	0.050451238
174	0x3c2966df	0.010339468
175	0x3b237aaf	0.0024944951
176	0x3d806b3c	0.06270453
177	0x3cc8529d	0.024453456
178	0x3dcc8be2	0.09987618
179	0x3ca28ae6	0.019841623
180	0x3d3aec52	0.04563553
181	0xbd79bd29	-0.060971413
182	0x3bac97a9	0.0052671027
183	0xbd5375a6	-0.05162587
184	0x3db4b6a2	0.08823897
185	0xbd369192	-0.04457242
186	0x3dc22881	0.09480382
187	0x3d886647	0.06660133
188	0x3d918f73	0.07107439
189	0xbd1ac599	-0.0377861
190	0xbd3678a4	-0.044548646
191	0xbbf5a022	-0.007495896
192	0xbd3000a3	-0.042969357
193	0xbd3e698a	-0.04648737
194	0x3d945716	0.07243173
195	0x3d9fdac7	0.078054
196	0xbbfe92c8	-0.0077689625
197	0xbcaf82c4	-0.021424659
198	0xbd19ad35	-0.0375187
199	0xbd471d00	-0.04861164
200	0x3d356c07	0.044292476
201	0x3b56ff02	0.0032805805
202	0x3d1b7655	0.037954647
203	0x3dc4a05f	0.09600901
204	0x3d408cd6	0.04700931
205	0x3d6b2590	0.05740887
206	0x3d575a84	0.052576557
207	0xbcb1e25c	-0.021714382
208	0x3d93ac5c	0.07210609
209	0xbd11fdce	-0.035642438
210	0xbd7c61f9	-0.06161687
211	0x3dd522ed	0.10407052
212	0xbc913615	-0.017725984
213	0x3d6f5ecd	0.05844002
214	0x3d973621	0.07383371
215	0x3d5881d8	0.052858204
216	0xbd4cad0c	-0.049969718
217	0xbce886f9	-0.028384672
218	0xbc4c12a5	-0.012455617
219	0x3caf7cad	0.021421755
220	0xbcfff5da	-0.03124516
221	0x3c9e21c0	0.019303203
222	0xbd22e9f9	-0.039773915
223	0xbce848ea	-0.02835508
224	0x3cccaf92	0.024986062
225	0xbc9386bd	-0.018008584
226	0xbd882742	-0.06648113
227	0x3d1afe2e	0.03784006
228	0x3d6640c4	0.05621411
229	0xbd9d1cfa	-0.076715425
230	0xbdd964b3	-0.1061491
231	0xbd6bbb9f	-0.057551976
232	0xbd80456c	-0.06263241
233	0x3cfa2041	0.030532958
234	0x3d1d3b30	0.038386524
235	0xbd6aea16	-0.057352148
236	0x3b9faf57	0.004873197
237	0xbcd8a1e1	-0.026444377
238	0xbd8635bf	-0.0655322
239	0xbcf4879e	-0.029849824
240	0xbd243d23	-0.040097367
241	0x3da9f677	0.082989626
242	0xbd2aba84	-0.04168178
243	0x3d8f58ed	0.06999383
244	0xbd6b3bea	-0.057430185
245	0xbd70b234	-0.058763698
246	0xbd3c2ce7	-0.04594126
247	0xbd106900	-0.035256386
248	0xbc39e79b	-0.011346723
249	0x3d4beef2	0.049788423
250	0x3ce14fb2	0.027503822
251	0x3c06fb9c	0.008238699
252	0x3d96af52	0.073576584
253	0x3dbae747	0.09126144
254	0x3d5734cc	0.052540585
255	0xbd7a3eac	-0.061094925

lstm.bias_hh_l0 f4 [512]
0	0x3d97f1a1	0.07419134
1	0xbd063144	-0.032761827
2	0xbcff9d8f	-0.03120306
3	0x3d1b8494	0.037968233
4	0xbc926fb1	-0.017875524
5	0xbc84cdfe	-0.016211506
6	0x3d731fb3	0.059356403
7	0xbd433e35	-0.047666747
8	0xbd1d976e	-0.038474493
9	0x3d7877d7	0.060661163
10	0xbd072166	-0.032990836
11	0x3c582a26	0.013193643
12	0xbc816004	-0.015792854
13	0x3c536b8a	0.012904057
14	0x3dc071e5	0.09396724
15	0xbc8e4dfb	-0.017371168
16	0xbd601af5	-0.05471321
17	0x3dac52c4	0.08414224
18	0xbd5853b8	-0.052814215
19	0x3db27ebb	0.08715578
20	0x3b22509f	0.0024767292
21	0x3dd4751b	0.103738986
22	0x3d6294c0	0.05531764
23	0x3dc2c4b9	0.09510178
24	0x3d870001	0.065917976
25	0x3df08737	0.1174454
26	0x3d60e875	0.05490919
27	0x3dcde655	0.10053698
28	0x3d8a40c1	0.06750632
29	0xbc6bdd8f	-0.014396085
30	0xbc6b18a4	-0.0143491365
31	0x3d205d26	0.039151333
32	0x3da5f715	0.08103768
33	0x3d3da1a4	0.04629673
34	0xbd109e0a	-0.035306968
35	0x3da8e3d7	0.08246582
36	0xbcbfe9af	-0.023426859
37	0xbd5da475	-0.054111917
38	0x3dd82e98	0.10555762
39	0x3daaaa72	0.08333291
40	0xbdb4a860	-0.088211775
41	0xbcbd7b8f	-0.023130206
42	0x3ddaf113	0.106905125
43	0xbd28c8aa	-0.041206993
44	0xbc82feea	-0.015990693
45	0x3da935b9	0.082622
46	0x3d943235	0.07236139
47	0xbbb7d3f2	-0.0056099826
48	0x3d9d36d8	0.07676476
49	0xbd9c25fe	-0.07624434
50	0xbd470ce8	-0.048596293
51	0xbd4f7fbd	-0.05065893
52	0xbc92fdae	-0.01794323
53	0xbd0167ff	-0.03159332
54	0x3d83fc64	0.06444624
55	0x3d4e3e93	0.050352644
56	0x3d4498ff	0.04799747
57	0x3de04ad3	0.109517716
58	0x3d2b90a7	0.041885998
59	0xbb10d29b	-0.0022098187
60	0x3d032bca	0.032024182
61	0x3d92fbca	0.07176931
62	0x3d661e79	0.056181405
63	0x3c832283	0.016007667
64	0xba882cbf	-0.0010389312
65	0xbd58fea9	-0.052977238
66	0xbd6946c3	-0.05695225
67	0x3d8e1a7c	0.06938645
68	0xbc62c71c	-0.013841417
69	0x3dbda157	0.09259289
70	0x3dd7cb88	0.105368674
71	0xbd9f9e5a	-0.07793875
72	0x3d77dafb	0.06051157
73	0x3d825300	0.06363487
74	0xbca6d8e2	-0.02036709
75	0x3dd93b25	0.10606984
76	0x3d9fbfd7	0.078002624
77	0x3d121888	0.035667926
78	0x3d86d9bd	0.06584499
79	0xbd56ff57	-0.052489605
80	0xbc911ee1	-0.01771492
81	0x3df7eebe	0.12106083
82	0x3da753f4	0.0817031
83	0x3da00948	0.0781427
84	0x3ded5c88	0.115899146
85	0xbca72185	-0.020401726
86	0xbd4482be	-0.047976248
87	0x3da02ecb	0.07821425
88	0x3da2c1dc	0.07947132
89	0x3dfb627a	0.12274642
90	0xbb9708ab	-0.0046091876
91	0x3ca82b4c	0.020528458
92	0xbba9d752	-0.005183139
93	0xbb415059	-0.0029497354
94	0x3ca9e5d4	0.020739473
95	0x3cda776a	0.02666827
96	0xbcd2c081	-0.025726559
97	0xbcbed2ca	-0.023293871
98	0x3cccbe69	0.024993138
99	0xbd1c9d17	-0.03823575
100	0x3d62aa38	0.055338115
101	0x3d857abe	0.06517552
102	0x3e217164	0.15765911
103	0x3da34e9e	0.079739794
104	0x3dde3449	0.10849816
105	0x3cf661e3	0.030075973
106	0x3d29e815	0.041481096
107	0xbdb5a037	-0.08868449
108	0x3beab8dc	0.0071631502
109	0x3c9cf3bf	0.019159196
110	0x3cfb7c14	0.030698813
111	0x3ce07388	0.02739884
112	0xbcbaeace	-0.022817042
113	0xbd2c8277	-0.04211661
114	0xbd3feba5	-0.046855588
115	0xbda20026	-0.079101846
116	0x3d2327b1	0.039832775
117	0x3dc1e0a0	0.09466672
118	0xbd74d3de	-0.059772365
119	0x3c8db9f4	0.017300583
120	0x3dfd960a	0.12382133
121	0xbd4abead	-0.04949825
122	0xbbf0964b	-0.007342135
123	0x3de8f48b	0.11374768
124	0x3c12f2c1	0.00896901
125	0xbc4b5e14	-0.012412567
126	0xbd60c5cb	-0.05487613
127	0x3d0b1e13	0.033964228
128	0xbd9928ce	-0.07478486
129	0x3d29ca11	0.04145247
130	0xbc9a93f4	-0.018869378
131	0x3d352f64	0.04423465
132	0xbd456f16	-0.048201643
133	0xbd9287a1	-0.071547754
134	0x3d92c2f9	0.07166094
135	0xbd5323bf	-0.051547762
136	0x3d0a08d6	0.033699833
137	0xbd8c6e23	-0.068569444
138	0xbd68a424	-0.05679716
139	0x3d76c65a	0.060247757
140	0x3c557df9	0.0130305225
141	0x3ca783f9	0.020448672
142	0xbc8c53b5	-0.017129758
143	0x3c36278a	0.011117825
144	0x3d831d93	0.06402125
145	0x3bb321ac	0.0054666605
146	0xbd989cf8	-0.074518144
147	0xbdcc8628	-0.09986526
148	0xbce3a1f9	-0.027787196
149	0xbd13be21	-0.036069993
150	0xbda15a97	-0.07878607
151	0x3c9eaf56	0.019370716
152	0xbd1a5876	-0.03768202
153	0xbc4bfdee	-0.012450678
154	0xbd4b4ae9	-0.049631987
155	0x3b09fa55	0.002105375
156	0xbd9275b6	-0.07151358
157	0x3d8bc7f9	0.06825251
158	0x3d900282	0.07031728
159	0xbd2a7a71	-0.041620675
160	0x3cba876a	0.022769649
161	0x3da891bf	0.08230924
162	0x3d9c403d	0.0762944
163	0x3da147bc	0.0787501
164	0xbca7db6c	-0.02049037
165	0x3d5d2502	0.05399037
166	0x3d1bde9d	0.038054097
167	0xbd3ba464	-0.045811072
168	0x3c9ae499	0.018907832
169	0xbd84170d	-0.06449709
170	0xbce3ba51	-0.027798804
171	0x3dc33ff5	0.09533683
172	0x3cb3f8a0	0.02196914
173	0xbdc9d041	-0.098541744
174	0xbd011660	-0.03151548
175	0xbd2fc0e7	-0.042908575
176	0xbd7815a6	-0.06056752
177	0xbd520797	-0.05127677
178	0xbb45f33f	-0.00302048
179	0x3d71629b	0.058931928
180	0x3d3daca6	0.04630723
181	0x3c853130	0.016258806
182	0x3d1501f9	0.036378834
183	0xbb858dfc	-0.0040757637
184	0xbcb0e9ea	-0.021595914
185	0x3a9a061d	0.001175109
186	0xbc22bfc9	-0.00993342
187	0x3d4db5da	0.050222255
188	0x3d62f9aa	0.05541388
189	0xbd8b79b5	-0.06810323
190	0xbcd1f4ea	-0.02562948
191	0x3cd5ed65	0.026114175
192	0xbd48ead4	-0.049052075
193	0xbd89bcd2	-0.06725468
194	0xbd322820	-0.043495297
195	0x3d38dcd2	0.045132466
196	0xbc7b408e	-0.015335215
197	0x3d3d0fe2	0.046157725
198	0x3de8a434	0.11359444
199	0xbd7a786c	-0.06115
200	0xbdcf8540	-0.10132837
201	0x3d8c232e	0.068426475
202	0xbd3fc05c	-0.046814308
203	0x3d4cb6b6	0.049978934
204	0x3dc94089	0.09826762
205	0x3c55d52a	0.013051311
206	0xbd8c1d51	-0.06841529
207	0xbd19641b	-0.037448984
208	0xbb936e62	-0.0044992426
209	0x3b36f082	0.002791435
210	0xbbed3564	-0.0072390307
211	0x3dbe3c19	0.092888065
212	0x3d9f762c	0.07786211
213	0x3c098f82	0.008396031
214	0x3c448d9c	0.011996653
215	0x3cd77458	0.026300594
216	0x3dace0a6	0.08441286
217	0xbcaa32bc	-0.020776145
218	0x3da133b1	0.078711875
219	0x3c8b0cc4	0.01697386
220	0xbd9f2203	-0.07770159
221	0xbd92c4dc	-0.07166454
222	0x3d6a49a8	0.05719915
223	0x3cd6b7b5	0.026210645
224	0xbb010ca9	-0.0019691384
225	0xbd76e5ab	-0.060277622
226	0x3d8907dd	0.06690953
227	0xbcb50f71	-0.02210209
228	0x3dcacf21	0.09902788
229	0xbda8b90d	-0.08238421
230	0xbdcf571e	-0.10124038
231	0xbd1bd56e	-0.03804534
232	0x3d9f37db	0.077743255
233	0x3ca1c292	0.019746099
234	0xbc68e90f	-0.014215722
235	0x3a76d462	0.0009415803
236	0x3d677cd6	0.056515537
237	0x3d968d8f	0.07351219
238	0x3d5cef77	0.05393931
239	0xbd2a8e8a	-0.041639842
240	0x3d77fac9	0.0605419
241	0xbc3b3101	-0.011425258
242	0xbd50e885	-0.051002998
243	0xbbe88855	-0.00709633
244	0x3d33fb6b	0.043940943
245	0x3a900fdd	0.0010991056
246	0x3d96ba8c	0.073598
247	0xbd9dfe04	-0.07714465
248	0xbc1299de	-0.008947818
249	0x3c569b97	0.013098619
250	0xbd6b5f2c	-0.05746381
251	0x3cb12f7c	0.021629088
252	0x3d6645eb	0.056219023
253	0x3cfe4144	0.03103698
254	0xbd978be1	-0.07399727
255	0x3d85c197	0.06531065

fc.weight f4 [1, 128]
0	0x3d819ceb	0.06328758
1	0x3dde4e2d	0.108547546
2	0xbda20925	-0.079119004
3	0x3d2daa3e	0.042398684
4	0x3b9b7545	0.004744204
5	0xbd173ed2	-0.036925144
6	0xbddbfd27	-0.10741644
7	0x3d3a2cda	0.04545293
8	0x3da24806	0.07923894
9	0xbde7f6af	-0.11326348
10	0x3d7fd22d	0.0624563
11	0x3debb2ca	0.11508711
12	0xbdb5b8c4	-0.08873132
13	0xbdcb2d14	-0.09920707
14	0x3e2b6edd	0.1674151
15	0xbe2958cf	-0.16537784
16	0xbd94b789	-0.07261569
17	0xbdb33f8b	-0.08752354
18	0x3d8adcc2	0.067803875
19	0xbd952a2d	-0.07283435
20	0xbd8699f2	-0.065723315
21	0xbdcb654a	-0.09931429
22	0xbd975241	-0.073887356
23	0xbde384bf	-0.11109304
24	0xbddd1dfc	-0.10796735
25	0xbda463b4	-0.08026829
26	0xbdc776c9	-0.09739453
27	0x3d8abf58	0.06774777
28	0xbd561feb	-0.052276533
29	0xbd7b9a1c	-0.061426267
30	0x3d026450	0.031833947
31	0x3e094603	0.13405614
32	0x3db500a4	0.08838013
33	0x3e0b67bb	0.13613789
34	0xbdec1299	-0.11526985
35	0x3df3563d	0.11881683
36	0xbd0bb7ea	-0.03411094
37	0xbded7854	-0.115952164
38	0x3e1c2897	0.15249859
39	0x3d8dba60	0.06920314
40	0x3d7650ca	0.06013564
41	0xbdd89a2a	-0.105762795
42	0xbdb590cf	-0.08865511
43	0x3e0bf25d	0.13666673
44	0x3dc9efaf	0.09860169
45	0xbd8c64e8	-0.06855184
46	0x3cacff3f	0.021117805
47	0xbe0e0248	-0.13868058
48	0x3d570423	0.05249418
49	0xbda8ff57	-0.08251827
50	0xbdd78138	-0.105226934
51	0x3d57659b	0.052587133
52	0x3db5bd34	0.08873978
53	0x3ddba81b	0.10725423
54	0x3d45313a	0.04814265
55	0x3dfa0cdb	0.12209483
56	0xbd60e38b	-0.054904502
57	0x3e8515f3	0.25993308
58	0xbdbfd9d2	-0.09367718
59	0xbd8fedde	-0.070277914
60	0x3d89596a	0.067065075
61	0xbd54e033	-0.051971626
62	0x3d7303be	0.05932974
63	0xbd04dd7b	-0.032437783
64	0xbe1385d4	-0.1440652
65	0x3da1f8f2	0.07908811
66	0x3d7ea323	0.062167298
67	0x3cf69cb5	0.03010402
68	0xbd1cc080	-0.03826952
69	0x3da66d33	0.08126297
70	0xbe347816	-0.17623934
71	0x3d33bf6c	0.043883726
72	0xbd321528	-0.043477207
73	0xbdb7a706	-0.08967404
74	0x3e04fcc2	0.12987044
75	0xbd9065db	-0.070506774
76	0xbdd64a09	-0.1046334
77	0x3db37cab	0.08764013
78	0xbd566aa4	-0.052347794
79	0x3d7507b3	0.059821796
80	0x3da1eabf	0.079061024
81	0xbe195685	-0.14974411
82	0x3dac265d	0.08405755
83	0x3e05fef7	0.13085543
84	0xbda8a521	-0.08234621
85	0x3da82623	0.08210399
86	0xbc71996b	-0.01474605
87	0x3ccf4146	0.02529968
88	0xbdebaff8	-0.11508173
89	0x3df2118d	0.11819754
90	0x3d8e6e82	0.069546714
91	0x3e192f8d	0.14959545
92	0xbb95aa00	-0.0045673847
93	0xbdeba505	-0.11506084
94	0xbd1c220b	-0.038118403
95	0x3d668288	0.056276828
96	0x3d9f0517	0.07764643
97	0xbd9fa091	-0.077942975
98	0x3d9a76aa	0.075421646
99	0xbdeadc3f	-0.1146779
100	0xbdddc41d	-0.10828421
101	0x3d63a696	0.05557879
102	0x3dfa316e	0.12216459
103	0xbce2fec9	-0.027709382
104	0xbd7bdd28	-0.061490208
105	0xbd12c1c3	-0.035829317
106	0xbc2cf20d	-0.010555756
107	0x3d87b26b	0.066258274
108	0x3e11d9bf	0.1424322
109	0xbe18f2da	-0.1493639
110	0xbdc46eff	-0.09591483
111	0xbe063d1c	-0.13109249
112	0x3d255dcb	0.04037265
113	0xbdeacd3d	-0.11464927
114	0xbe05bdd2	-0.13060692
115	0xbda122fc	-0.07868001
116	0x3dec1d76	0.11529057
117	0x3d5b1e9a	0.05349598
118	0x3da22064	0.07916334
119	0xbd2b5f65	-0.041839022
120	0xbddd2481	-0.10797978
121	0xbd8f4ae7	-0.06996708
122	0x3d6214ad	0.0551955
123	0x3dd8e708	0.10590941
124	0xbda2a1d6	-0.07941024
125	0x3dc72765	0.09724311
126	0x3d82b964	0.06383017
127	0xbcddbd98	-0.027067944
