models/ALL model.pth (torch, 270882 bytes, 5 tensors)

lstm.weight_ih_l0 f4 [512, 1]
0	0xbdc0bbc0	-0.094108105
1	0x3e039c13	0.12852506
2	0xbda71c8f	-0.08159744
3	0x39a244f7	0.0003095043
4	0x3cfae532	0.030626867
5	0xbd53a8c2	-0.051674612
6	0x3d7e0e69	0.06202546
7	0x3d1650ac	0.03669803
8	0x3ceb11be	0.028694984
9	0xbd299c6d	-0.041408945
10	0x3d86684a	0.0656286
11	0x3bc69a17	0.0060608494
12	0xbd4ef039	-0.050522063
13	0xbda8a8cd	-0.08235321
14	0x3dadce5e	0.08486627
15	0x3b4bee49	0.003111737
16	0xbc7c1c43	-0.0153875975
17	0x3c3819a8	0.011236586
18	0x3b254c25	0.0025222388
19	0xbc5b6e4f	-0.013392999
20	0xbdec8317	-0.11548441
21	0x3db5e110	0.08880818
22	0xbdb14aff	-0.086568825
23	0x3c3e6e9e	0.011623053
24	0xbd33b710	-0.043875754
25	0x3a5430da	0.00080944377
26	0x3db33f45	0.08752302
27	0xbdc90449	-0.098152705
28	0x3d54f92c	0.05199544
29	0x3d473e58	0.04864344
30	0xbd99cc97	-0.075097255
31	0x3ca37a81	0.019955875
32	0xbd5b3062	-0.05351294
33	0xbcead46b	-0.028665742
34	0x3d05a025	0.03262343
35	0x3cc9bc8e	0.024626043
36	0x3db29a06	0.08720784
37	0xbdbca8d6	-0.092118904
38	0x3c2d54b7	0.01057928
39	0xbc7cbbba	-0.015425617
40	0x3ddd739c	0.10813066
41	0xbd82390d	-0.06358538
42	0xbd3303d3	-0.04370482
43	0x3af382c1	0.0018578396
44	0x3d295926	0.041344784
45	0xbc2bdf00	-0.010490179
46	0xbd856480	-0.065133095
47	0xbde722b6	-0.112859175
48	0xbde75823	-0.112961076
49	0x3ce97d44	0.028502114
50	0x3cfa79ca	0.030575652
51	0x3b2cb912	0.0026355428
52	0xbdc0a108	-0.09405714
53	0xbd8faa7b	-0.070149384
54	0xbd613154	-0.054978684
55	0x3caa1a09	0.020764368
56	0xbd718f71	-0.058974687
57	0x3c2472b4	0.010037113
58	0xbdb3b451	-0.08774627
59	0x39c99de4	0.00038455345
60	0x3d209f9e	0.039214723
61	0xbcb6c512	-0.022310767
62	0x3d5ad93f	0.05342984
63	0x3c84d592	0.01621512
64	0x3d440efa	0.047865845
65	0x3dd34718	0.103162944
66	0x3c0dc8ac	0.008653801
67	0x3be567e6	0.007000911
68	0x3d91f1c6	0.07126193
69	0xbd996a37	-0.07490962
70	0xbd2678ce	-0.040642552
71	0xbda8a606	-0.082347915
72	0x3c617672	0.01376115
73	0xbd99c62d	-0.07508502
74	0x3d568eac	0.052382156
75	0x3d153f93	0.036437582
76	0x3d70c79e	0.05878412
77	0x3bc29395	0.0059380033
78	0x3d57e826	0.05271163
79	0xba37de7f	-0.00070140505
80	0x3cabdeb4	0.020980217
81	0x3b0e2be4	0.0021693641
82	0x3bdcbe8a	0.006736581
83	0xbc90f892	-0.017696653
84	0xbd473c5e	-0.048641555
85	0x3c782c95	0.015147348
86	0x3ce6064c	0.028079174
87	0xbdc66750	-0.09687674
88	0xbd8f478d	-0.06996069
89	0xbb9ff308	-0.0048812665
90	0xbb3a4a4b	-0.002842563
91	0x3c6a7613	0.014310378
92	0xbb6fceb9	-0.0036591722
93	0x3db1d5ea	0.08683379
94	0x3cf52ea0	0.02992946
95	0xbd972d09	-0.07381637
96	0x3e0df69a	0.13863602
97	0xbdb5aa34	-0.08870354
98	0xbd9e586b	-0.07731708
99	0xbdda98fe	-0.10673712
100	0xbb264948	-0.002537327
101	0x3d0c4600	0.034246445
102	0xbdb3d9d6	-0.08781783
103	0xbd1793a2	-0.037006028
104	0x3d6532a6	0.055956505
105	0xbca2d4d9	-0.019876884
106	0x3d35ed91	0.044416014
107	0x39977fd8	0.00028896215
108	0xbc8bc3a9	-0.017061071
109	0x3d9f9780	0.07792568
110	0x3dc0cb3c	0.09413764
111	0xbcc20c12	-0.023687396
112	0x3c6d8f37	0.014499477
113	0x3cca5094	0.024696626
114	0x3c2a79b1	0.01040499
115	0x3b0a4b8a	0.0021102154
116	0x3dcde930	0.100542426
117	0xbd86c858	-0.06581181
118	0xbdbd16ab	-0.09232839
119	0x3b0d832e	0.0021593082
120	0xbd6c5676	-0.057699643
121	0xbdbe0ae6	-0.092794225
122	0x3d95f925	0.07322911
123	0xbce9932f	-0.028512565
124	0x3cb2da92	0.021832738
125	0x3dac6a67	0.08418732
126	0xbdb2aa7f	-0.08723926
127	0xbd262081	-0.040558342
128	0xbc5e3247	-0.013561792
129	0xbbf9f54e	-0.0076281196
130	0xbd7a8e1c	-0.061170682
131	0xbb2df429	-0.0026543236
132	0xbc20919c	-0.009800341
133	0xbdadbb93	-0.084830426
134	0xbdd88815	-0.105728306
135	0x3c2f03f0	0.010682091
136	0x3d917b98	0.07103652
137	0x3c3049c6	0.010759776
138	0x3da4b0d5	0.080415405
139	0x3c4fc72a	0.012681762
140	0x3c85efb6	0.016349655
141	0x3d9ef89e	0.07762264
142	0x3d2db73c	0.042411074
143	0xbd7d15de	-0.061788432
144	0x3d066bfe	0.032817833
145	0xbdb3444a	-0.087532595
146	0x3d3543fd	0.04425429
147	0xbb87b66f	-0.004141621
148	0xbb94e01c	-0.0045433175
149	0x3dc4296b	0.09578212
150	0xbc719397	-0.014744661
151	0xbd79e3cd	-0.061008263
152	0xbd92c3eb	-0.07166275
153	0xbceafff6	-0.028686505
154	0x3cf19c76	0.029493552
155	0xbd0cbcca	-0.03435973
156	0xbaa094ae	-0.0012251341
157	0x3c7d6e4f	0.015468194
158	0xbd1afb85	-0.037837524
159	0xbb1d1e51	-0.0023974369
160	0xbddcad9f	-0.10775303
161	0x3d121b82	0.035670765
162	0x3c2f4202	0.01069689
163	0x3d083ef8	0.033263177
164	0xbd7c53c0	-0.061603308
165	0xbd051c85	-0.0324979
166	0xbd291eb0	-0.04128903
167	0x3d0e554e	0.03474932
168	0x3de8c55f	0.113657705
169	0xbcd695b5	-0.026194433
170	0x3cace179	0.021103607
171	0x3d1f4c1c	0.038890943
172	0xbcd8db4f	-0.026471762
173	0x3d1bd612	0.03804595
174	0xbc9af705	-0.018916616
175	0x3ccbb7fa	0.024868
176	0xbde301cd	-0.11084328
177	0x3cc06d00	0.023489475
178	0xbdbf38c6	-0.093370005
179	0xbc66e137	-0.014091781
180	0xbd9115d3	-0.07084241
181	0xbd993c40	-0.07482195
182	0xbd58581c	-0.052818403
183	0xbc7ed57c	-0.015553828
184	0x3d25afb5	0.04045077
185	0xbd85dcb2	-0.06536235
186	0xbd8e0271	-0.069340594
187	0x3daedc05	0.08538059
188	0xbdf2c441	-0.11853839
189	0xbd79d16d	-0.06099074
190	0xbd5de962	-0.05417765
191	0x3d0b6871	0.03403515
192	0xbd8592d9	-0.065221496
193	0xbd19df2d	-0.037566353
194	0xbd37b896	-0.04485377
195	0xbd20e386	-0.039279483
196	0xbd72499e	-0.059152238
197	0xbd92af7b	-0.071623765
198	0xbd78c869	-0.060738
199	0xbd85e12a	-0.06537087
200	0xbc1fcb4c	-0.00975306
201	0xbd28dbff	-0.04122543
202	0x3dab760b	0.08372124
203	0x3c2c02a4	0.010498676
204	0xbd1b6aa9	-0.037943516
205	0xbdd8791f	-0.10569977
206	0x3ce7fa3e	0.028317567
207	0x3d2bbb61	0.041926745
208	0xbd90b7fa	-0.07066341
209	0x3d7cbda1	0.06170428
210	0x3c68c4bb	0.01420706
211	0x3d41935c	0.047259673
212	0x3d38ab0d	0.045085
213	0x3cac11aa	0.021004517
214	0xbd394c00	-0.045238495
215	0x3ccb1be2	0.024793569
216	0xbd614c6f	-0.055004533
217	0x3d24172c	0.04006116
218	0x3d94926d	0.07254491
219	0xbd469c81	-0.048489098
220	0x3d3f3aee	0.04668706
221	0x3dc14477	0.09436887
222	0xb9e3cb4a	-0.00043448276
223	0x3d222ea1	0.03959525
224	0x3cb72314	0.022355594
225	0xbd6f50ed	-0.058426786
226	0xbca3fd3c	-0.020018212
227	0x3d300cb8	0.04298088
228	0xbd5d76a5	-0.054068226
229	0x3d4c7475	0.04991575
230	0x3da4faa3	0.08055618
231	0x3d77aa01	0.060464863
232	0xbd0772db	-0.03306852
233	0xbc4573ec	-0.012051564
234	0xbc647934	-0.013944913
235	0xbc89923d	-0.016793365
236	0x3d412d2b	0.047162216
237	0xbd1aa2e9	-0.03775302
238	0x3ca2e9c2	0.019886855
239	0xbcd1c5ee	-0.025607076
240	0xbd1aa37a	-0.03775356
241	0x3d41a03e	0.04727196
242	0xbd51aa52	-0.05118782
243	0xbddb78e5	-0.10716418
244	0x3de979df	0.11400198
245	0xbc520705	-0.012819056
246	0x3cbd0b1c	0.023076586
247	0x3d248009	0.040161166
248	0x3d3d4d7c	0.046216473
249	0xbd976dd7	-0.07393997
250	0x3da72dd8	0.08163041
251	0x3d718b48	0.05897072
252	0x3d6b5dbb	0.057462435
253	0xbcd87124	-0.026421137
254	0xbb8b944d	-0.004259622
255	0x3c162d07	0.009166009

lstm.weight_hh_l0 f4 [512, 128]
0	0x3d8bc2f2	0.06824292
1	0x3d102875	0.035194833
2	0xbafaebcd	-0.001914376
3	0x3db214a2	0.08695342
4	0x3d91537c	0.070960015
5	0xbd5346e6	-0.051581286
6	0xbd5f0df3	-0.054456662
7	0x3c30d6b5	0.010793378
8	0xbd5ae376	-0.05343958
9	0x3cf7a688	0.030230775
10	0x3c08a7e0	0.008340806
11	0x3cdbdf07	0.026839746
12	0x3cad9995	0.021191398
13	0xbb99bb41	-0.004691512
14	0x3ca0f781	0.019649269
15	0xbd8bb4f2	-0.06821622
16	0xbd936987	-0.07197862
17	0x3dac2367	0.0840519
18	0xbd0d04af	-0.034428295
19	0x3daf6b72	0.085654154
20	0xbd8e914e	-0.069613084
21	0xbda325dd	-0.07966206
22	0xbcca0216	-0.024659198
23	0xbd4eae32	-0.050459094
24	0x3cb7e8e1	0.022449913
25	0xbd5db822	-0.05413068
26	0xba863b4e	-0.0010241063
27	0xbcaf0ec1	-0.02136934
28	0x3d557eb7	0.052122798
29	0x3d61f989	0.055169616
30	0xbd3a55d4	-0.04549201
31	0xbcc5254e	-0.02406564
32	0xbd541908	-0.051781684
33	0xbd729b3d	-0.059230078
34	0x3d913e07	0.07091909
35	0xbdbd0514	-0.09229484
36	0x3bb35282	0.005472482
37	0xbcd39ccd	-0.025831604
38	0x3ccac9a6	0.024754357
39	0x3dc00e21	0.09377695
40	0xbdb347bf	-0.08753919
41	0x3d6336f3	0.055472326
42	0x3d2beaa7	0.04197183
43	0x3bef05c0	0.0072943866
44	0xb8e400fe	-0.00010872072
45	0x3d4e7e15	0.05041321
46	0xbdb13913	-0.08653464
47	0x3d159686	0.036520503
48	0xbd3f1057	-0.046646442
49	0x3dcc8ed7	0.09988182
50	0xbcfcd46c	-0.03086301
51	0x3cfde942	0.030995015
52	0x3b214c85	0.002461226
53	0x3d60e5d1	0.05490667
54	0xbd338181	-0.043824676
55	0x3d7588e4	0.059945002
56	0xbd18430a	-0.03717331
57	0x3d124e93	0.035719465
58	0xbc991626	-0.018687319
59	0x3d00f5dd	0.031484473
60	0x3b5f859c	0.0034106737
61	0xbc9c9851	-0.019115599
62	0x3dc6e666	0.09711914
63	0xbd7f07f4	-0.062263444
64	0xbd43c52c	-0.04779546
65	0xbdbebc0d	-0.093132116
66	0x3d6ffa0c	0.058588073
67	0xbd5d5c08	-0.054042846
68	0x3c9d69b3	0.01921544
69	0xbcf5a827	-0.029987408
70	0xbd5ec116	-0.05438336
71	0x3d9f351f	0.07773804
72	0xbd7f7d7e	-0.062375538
73	0x3d80ab74	0.06282702
74	0xbdbd756f	-0.09250914
75	0xbd50ccf7	-0.05097672
76	0xbd047c45	-0.032345075
77	0xbdba61dc	-0.091006964
78	0xbd8f76a9	-0.070050545
79	0xbd81a543	-0.06330349
80	0x3c4c2040	0.012458861
81	0x3db70506	0.08936505
82	0xbd8ab58a	-0.06772907
83	0xbcda0c03	-0.026617056
84	0xbd5a69ec	-0.05332367
85	0xbcf4028f	-0.029786376
86	0xbdaa64ba	-0.08319993
87	0xbc5da238	-0.0135274455
88	0xbc21406f	-0.009842022
89	0x3bcc2fed	0.006231299
90	0x3d1e58b6	0.03865882
91	0x3cff3054	0.031150974
92	0x3c9fb60a	0.019495983
93	0x3bf698ee	0.007525555
94	0x3d1dcaaf	0.038523372
95	0x3cec7c41	0.028867843
96	0xbd9fcbbf	-0.07802533
97	0xbdbf1624	-0.09330395
98	0x3da4a7f4	0.08039847
99	0xbd439711	-0.04775149
100	0xbd7e3cff	-0.06206989
101	0x3b5fb643	0.0034135736
102	0x3d7c60f8	0.061615914
103	0xba7d6819	-0.0009666696
104	0xbd9818ac	-0.07426581
105	0xbc7df566	-0.015500402
106	0x3d034fd2	0.032058544
107	0xbd2c6cb9	-0.042095874
108	0x3d7c128f	0.061541136
109	0x3c97ae88	0.01851584
110	0xbd307ce7	-0.043087866
111	0xbd33b38a	-0.043872394
112	0x3b04285a	0.0020165653
113	0x3d98d1b5	0.074618734
114	0x3d0f818c	0.035035655
115	0xbda927fa	-0.08259578
116	0xbd5dbf9e	-0.05413782
117	0x3d68afae	0.056808166
118	0x3c7d0ed9	0.0154454345
119	0x3d8563d5	0.06513182
120	0x3d444b51	0.04792339
121	0x3c7e67fd	0.015527722
122	0x3cad2cac	0.021139465
123	0x3c9c49dc	0.019078188
124	0x3d293139	0.041306708
125	0x3d8e3c1a	0.06945057
126	0xbc4bae39	-0.012431675
127	0xbcdaf6db	-0.026729038
128	0xbd00a9b9	-0.03141186
129	0xbccb623e	-0.024827119
130	0x3c5052be	0.01271504
131	0xbdc1ae6b	-0.09457096
132	0xbda88e17	-0.082302265
133	0x3b675733	0.0035299778
134	0x3da3974f	0.07987844
135	0x3c8f0248	0.017457142
136	0x3b889f0d	0.004169351
137	0x3ccb1730	0.02479133
138	0xbcc57961	-0.02410573
139	0xbcb7e4b8	-0.022447929
140	0x3d12bf4d	0.03582697
141	0xbdb66b90	-0.08907235
142	0x3d90c7b2	0.07069339
143	0xbd21725f	-0.039415713
144	0xbd952677	-0.07282727
145	0x3d1c353e	0.038136713
146	0x3da8de65	0.082455434
147	0x3d7b22b8	0.061312407
148	0x3d4fd7e8	0.050743014
149	0xbd58307e	-0.05278062
150	0x3d86873c	0.06568763
151	0x3cba9f66	0.022781085
152	0xbbaee79b	-0.005337668
153	0x3d37b3ce	0.04484921
154	0xbdc07d8e	-0.09398948
155	0x3d7084b1	0.058720294
156	0xbd35def7	-0.04440209
157	0x3cb87ed0	0.022521406
158	0x3d88d3a1	0.0668099
159	0xbd02209f	-0.03176939
160	0x3bba6a6c	0.005688956
161	0x3db20e23	0.086941026
162	0xbdaec678	-0.08533949
163	0xbd1d953b	-0.038472395
164	0x3d224d18	0.039624304
165	0xbcdc3f6a	-0.026885707
166	0xbd44378c	-0.047904536
167	0xbd9055c7	-0.07047611
168	0x3db64ede	0.089017615
169	0xbce04d84	-0.027380712
170	0xbcffffa1	-0.031249823
171	0xbcfb800c	-0.030700706
172	0x3d934384	0.07190612
173	0x3d988b49	0.074484415
174	0x3dbd1f74	0.09234515
175	0x3ccadb52	0.024762783
176	0x3d25e1d7	0.04049858
177	0xbcc1b5e9	-0.023646312
178	0x3c50fc8c	0.012755524
179	0x3d53b610	0.0516873
180	0xbd0568c8	-0.03257063
181	0x3d00282d	0.031288315
182	0x3d885af0	0.0665797
183	0x3c50c065	0.012741183
184	0xbda252ca	-0.07925947
185	0xbcde0e6f	-0.027106492
186	0xbd9c51b4	-0.07632771
187	0x3d5a7c74	0.053341344
188	0xbcfabbad	-0.030607069
189	0x3da2a45c	0.07941505
190	0xbd646f26	-0.055770062
191	0x3d2b76a5	0.041861195
192	0xbd218615	-0.03943451
193	0x3dd6b2f6	0.10483353
194	0x3da022ab	0.078191124
195	0x3d26f196	0.040757738
196	0xbd10aea3	-0.035322797
197	0xbb4e50e6	-0.0031481325
198	0x3d6217b2	0.05519838
199	0xbda4dee2	-0.08050324
200	0xbd0f6a83	-0.035013687
201	0xbd6c1283	-0.05763484
202	0xbba34835	-0.004982973
203	0x3d2549ec	0.0403537
204	0x3d01e68f	0.03171402
205	0xbd5cc56c	-0.053899214
206	0x3c5da1bd	0.013527331
207	0xbd81e7d7	-0.06343048
208	0xbcb09cfc	-0.021559231
209	0xbd676564	-0.056493178
210	0xbd1f7772	-0.03893227
211	0x3c354e46	0.011066025
212	0x3d59bff0	0.05316156
213	0x3c86d790	0.01646021
214	0x3dd720e6	0.10504322
215	0xbd468619	-0.04846773
216	0x3da273c9	0.079322405
217	0x3d4971df	0.04918086
218	0x3dba6042	0.09100391
219	0x3d1a3528	0.03764835
220	0xbd54fe91	-0.052000586
221	0x3c075a88	0.00826133
222	0x3d155060	0.036453605
223	0xbd6cceaf	-0.057814296
224	0x3c3eb4cd	0.011639786
225	0x3dad1dfb	0.08452984
226	0x3bcf2968	0.0063220747
227	0xbcedda7e	-0.02903485
228	0x3d378268	0.0448021
229	0x3d290bf9	0.041271184
230	0xbb3be97f	-0.002867311
231	0x3cfc389e	0.030788716
232	0xbc91896f	-0.017765729
233	0xbd85be8b	-0.06530484
234	0x3d98d3b4	0.07462254
235	0x3d7720ac	0.060333893
236	0x3d8d7c49	0.06908471
237	0xbd9defb0	-0.077117324
238	0x3d34c6d2	0.044134922
239	0x3d3e444c	0.04645185
240	0x3d84061c	0.06446478
241	0xbc91fc4c	-0.0178205
242	0xbd9d9400	-0.076942444
243	0x3d367e6f	0.04455417
244	0xbad55fa0	-0.0016279109
245	0x3d2145bf	0.039373156
246	0xbbe8d387	-0.007105294
247	0xbd0c03df	-0.03418338
248	0xbd63ab33	-0.05558319
249	0x3dbc8b3e	0.09206246
250	0x3da22009	0.079162665
251	0xbdbb3590	-0.091410756
252	0xbdc14aaf	-0.09438073
253	0x3dafca7e	0.08583544
254	0xbd96e7a5	-0.073684014
255	0xbd2bf295	-0.04197939

lstm.bias_ih_l0 f4 [512]
0	0x3d8fc3f2	0.070197955
1	0x3d9a2f42	0.07528545
2	0xbc689c03	-0.014197352
3	0xbd17d25e	-0.037065856
4	0xbd9344e2	-0.07190873
5	0xba806f6a	-0.0009798829
6	0xbda8dd01	-0.08245278
7	0x3c75e04e	0.015007092
8	0x3da5e6c4	0.08100656
9	0x3db85aa9	0.09001667
10	0xbc1f4c61	-0.0097228
11	0xbdbb2a79	-0.091389604
12	0x3d457c72	0.048214383
13	0xbda10dcc	-0.0786396
14	0xbd467914	-0.048455313
15	0x3cf9e33d	0.030503863
16	0x3cea2529	0.028582172
17	0xbd4fe2ee	-0.050753526
18	0x3d32251a	0.043492414
19	0x3db3a9ac	0.08772597
20	0x3bec4705	0.0072106146
21	0x3d414511	0.047185007
22	0x3d004711	0.031317774
23	0x3c9a9a54	0.018872418
24	0xbc80aaae	-0.015706386
25	0xbd37c7c4	-0.044868246
26	0xbdac368d	-0.08408842
27	0x3d0b8f8b	0.03407244
28	0xbcd32dd7	-0.025778694
29	0x3cd2a5b9	0.025713788
30	0x3cfee989	0.031117218
31	0x3d1cceeb	0.03828327
32	0x3d77f83d	0.060539473
33	0x3d75d3a5	0.060016293
34	0xbcb2bf7b	-0.02181982
35	0xbd40e0d0	-0.047089398
36	0xbda4b31c	-0.08041975
37	0xbd0a225d	-0.033724178
38	0x3d5751fc	0.05256842
39	0xbb093d0e	-0.0020940932
40	0x3d483d1e	0.04888641
41	0x3c4ea25e	0.012611954
42	0x3dbf992f	0.09355389
43	0x3dbaab94	0.09114757
44	0x3d517553	0.05113728
45	0xbd560e77	-0.05225989
46	0x3dd9249e	0.10602687
47	0xbcd3ae2b	-0.025839886
48	0xbcdb510a	-0.02677204
49	0xbd432b73	-0.04764886
50	0x3d8f875e	0.07008241
51	0xbd1635ac	-0.03667228
52	0xba2e5038	-0.0006649527
53	0x3db4eca8	0.08834201
54	0x3d271b77	0.040797677
55	0xbd43ec2d	-0.047832657
56	0x3da0a2f6	0.07843582
57	0xbd640497	-0.05566844
58	0xbc38b718	-0.011274122
59	0x3d5be86b	0.053688448
60	0xbd61aca4	-0.055096284
61	0xbd598d13	-0.053113054
62	0x3be22823	0.0069017573
63	0x3dd31ed2	0.10308613
64	0x3d853033	0.06503334
65	0x3da06d1f	0.07833313
66	0x3d62ea56	0.05539926
67	0x3c0233c2	0.00794691
68	0x3dbfb117	0.09359949
69	0x3cb38b22	0.02191693
70	0x3d7e76c4	0.062124982
71	0x3d1bd8bd	0.038048495
72	0x3d5bf665	0.053701777
73	0x3d04036f	0.032229837
74	0xbd24d776	-0.040244542
75	0xbc9f2e6f	-0.019431321
76	0xbd4c2a71	-0.049845163
77	0x3c54aec9	0.012981125
78	0xbdc9e13e	-0.09857415
79	0x3d5434a8	0.05180803
80	0xbd105323	-0.035235535
81	0x3c7ac884	0.015306596
82	0xbc98f842	-0.018673066
83	0x3cd0e1cd	0.025498295
84	0x3da54ff2	0.08071889
85	0xbd139822	-0.036033757
86	0x3d41e548	0.0473378
87	0x3db2bff7	0.08728021
88	0x3d3e8bac	0.04651992
89	0x3c2f9878	0.010717504
90	0x3d37baab	0.044855755
91	0x3c668a42	0.014071049
92	0xbd1a2e1a	-0.037641622
93	0x3c841210	0.016121894
94	0xbd2a03bc	-0.041507468
95	0x3db5f269	0.08884127
96	0x3d757f44	0.059935823
97	0x3cd717db	0.026256492
98	0x3d8f6f29	0.07003624
99	0xbd9164e6	-0.07099323
100	0xbc9ede4a	-0.019393105
101	0xbcd24529	-0.025667744
102	0x3be69d12	0.007037767
103	0xbcce4ee0	-0.025184095
104	0xbdb20f07	-0.086942725
105	0xbcfdfd72	-0.031004641
106	0xbc8d9555	-0.017283121
107	0xbd3c1424	-0.045917645
108	0x3d496f64	0.049178496
109	0xbd0ffb75	-0.035151917
110	0x3dc3b4e8	0.095559895
111	0xbd9fa349	-0.07794816
112	0xbcb4913e	-0.022041913
113	0x3d4ca5d5	0.049962837
114	0x3d8522fa	0.06500812
115	0x3c29a4cb	0.010354231
116	0x3db69557	0.08915203
117	0x3da92c22	0.08260371
118	0xbc7cb958	-0.015425049
119	0xbd6a8095	-0.05725153
120	0x3c021be7	0.007941223
121	0x3d9dac67	0.07698899
122	0xbc914e3f	-0.017737506
123	0x3db48793	0.08814921
124	0x3dc217d3	0.094772
125	0x3bd3eee4	0.006467687
126	0xbbf6e6b6	-0.007534827
127	0x3d803fb6	0.06262152
128	0x3b46dfc6	0.0030345782
129	0x3ce955ff	0.028483389
130	0xba6324c4	-0.00086648413
131	0xbcd69d9c	-0.0261982
132	0xba184a4b	-0.00058094104
133	0x3d043888	0.032280475
134	0x3d59aee9	0.053145323
135	0xbdc922dc	-0.09821102
136	0x3cffdcc2	0.031233195
137	0x3db54ef0	0.08852947
138	0x3dc9930d	0.09842501
139	0xbd48045f	-0.048832294
140	0xbc88fa9c	-0.016721062
141	0x3c832cfd	0.016012663
142	0xbc7362b8	-0.014855079
143	0x3dacac29	0.084312744
144	0xbd86169f	-0.065472834
145	0x3dbcd0d4	0.09219518
146	0xbd82281c	-0.063553065
147	0xbbcc521a	-0.006235373
148	0x3d1ec723	0.03876413
149	0x3cdce3b4	0.026964046
150	0x3da162cf	0.07880174
151	0x3dc93a43	0.09825566
152	0x3d42490c	0.047432944
153	0x3d3ba0bb	0.04580758
154	0x3d81be67	0.063351445
155	0x3d894020	0.06701684
156	0xbcf2eed4	-0.029654898
157	0x3d9a067a	0.075207666
158	0x3dac056a	0.0839947
159	0x3dcd74b9	0.10032029
160	0x3d34216f	0.043977197
161	0xbc6c91a4	-0.01443902
162	0xbccc9620	-0.024973929
163	0x3db69875	0.089157976
164	0xbc9e8641	-0.019351127
165	0x3d880807	0.06642156
166	0x3d474b9e	0.0486561
167	0xbd32b6f6	-0.043631516
168	0x3d2c4f84	0.04206802
169	0x3dbfbdb1	0.09362353
170	0x3cce0d15	0.025152722
171	0x3d91cf57	0.07119625
172	0xbd47590f	-0.048668917
173	0x3d79cb16	0.060984693
174	0xbd500a93	-0.050791334
175	0x3bfb9acf	0.0076783667
176	0x3d925be0	0.0714643
177	0x3d71e963	0.059060466
178	0xbc817309	-0.015801923
179	0xbd60c482	-0.054874904
180	0xbc301f3f	-0.010749637
181	0xbd4a4619	-0.049383257
182	0x3bbbdb38	0.00573292
183	0xbd12112e	-0.035660915
184	0xbd48b942	-0.0490048
185	0x3caf6896	0.021412175
186	0x3cb430b0	0.021995872
187	0xbd1a17e6	-0.037620448
188	0x3d94a33a	0.072576955
189	0xbc8c25fa	-0.017107952
190	0xbcc93d8b	-0.024565479
191	0xbd653a6c	-0.05596392
192	0xbce77242	-0.028252725
193	0x3b1cbf94	0.00239179
194	0x3d7edd70	0.062222898
195	0xbd70cafd	-0.058787335
196	0x3cc2876b	0.023746213
197	0x3d166c17	0.036724176
198	0x3d962932	0.07332076
199	0x3dbc1082	0.09182836
200	0x3ccb7b2e	0.02483901
201	0x3d3eca59	0.046579693
202	0x3d17f255	0.03709634
203	0xbdac238b	-0.08405217
204	0x3d3d135d	0.046161044
205	0xbd29980b	-0.041404765
206	0xbdd5048d	-0.104012586
207	0xbd6e7a3c	-0.05822204
208	0xb992de73	-0.00028013028
209	0x3cf91ef9	0.030410277
210	0xbc39a9b9	-0.011331969
211	0x3a24ee4f	0.0006291614
212	0x3d8d6dbc	0.06905696
213	0x3d9084e7	0.07056599
214	0xbcf4fc24	-0.029905386
215	0x3a9662ae	0.0011473501
216	0xbd4d2698	-0.050085634
217	0x3d4e7383	0.05040313
218	0x3d85dc32	0.065361395
219	0xbdaead06	-0.08529095
220	0x3d97f87f	0.07420444
221	0xbd057712	-0.032584257
222	0xbd566a73	-0.05234761
223	0x3d8141ba	0.063113645
224	0x3dabd347	0.08389907
225	0x3db15306	0.086584136
226	0xbd9976e7	-0.07493382
227	0x3d1a6ec2	0.037703283
228	0x3da2796f	0.07933318
229	0xbd9deaff	-0.077108376
230	0x3c3d2da8	0.01154653
231	0xbd1a4b45	-0.03766944
232	0x3c26f162	0.010189386
233	0x3c718c2e	0.014742894
234	0x3cda425b	0.026642969
235	0xbd762f34	-0.06010361
236	0xbd313b9b	-0.043269735
237	0x3d7138ca	0.05889205
238	0x3d0a9d26	0.033841275
239	0xbd0d76ed	-0.034537245
240	0x3cbef91f	0.02331215
241	0x3d1d8395	0.038455565
242	0x3d2bc9f4	0.041940644
243	0x3d8212e1	0.06351257
244	0x3dcbc3ad	0.099494316
245	0x3c9c5cd3	0.01908723
246	0xbd8ac996	-0.06776731
247	0xbd917018	-0.07101458
248	0xbd211ffe	-0.03933715
249	0x3dc26cac	0.09493384
250	0x3d4b1e48	0.049589425
251	0x3c0a8ae0	0.008455962
252	0xbc98312c	-0.018578134
253	0xbd49f8a2	-0.04930938
254	0xbd987ece	-0.07446061
255	0xbd0d7556	-0.03453573

lstm.bias_hh_l0 f4 [512]
0	0xbd2f2e7f	-0.04276895
1	0x3d05e535	0.032689292
2	0xbd2edd23	-0.04269136
3	0xbd8b398d	-0.06798086
4	0xbcde63bd	-0.027147168
5	0xbc071108	-0.008243807
6	0xbd343dfb	-0.04400442
7	0x3d929989	0.07158191
8	0xbd9c9643	-0.07645848
9	0x3d645d9b	0.05575333
10	0x3d06af76	0.032882176
11	0xbd873634	-0.06602135
12	0xbd40617f	-0.04696798
13	0x3c0fcf04	0.008777384
14	0xbd9536a8	-0.072858155
15	0xbcac47b1	-0.021030279
16	0xbdbb4eb3	-0.0914587
17	0xbc57d8b1	-0.013174222
18	0x3c1d0872	0.009584533
19	0xbd4071f3	-0.04698367
20	0x3d9801cf	0.0742222
21	0x3d771baf	0.060329136
22	0x3ce3866e	0.027774062
23	0xbd289ac0	-0.041163206
24	0x3d2a9c4a	0.041652955
25	0x3d84d628	0.064861596
26	0x3b126c83	0.002234251
27	0x3d99b6b4	0.07505551
28	0x3d8eccca	0.06972654
29	0x3d038c3d	0.032116164
30	0xbd299722	-0.041403897
31	0x3d47284a	0.048622407
32	0x3cc1457c	0.023592703
33	0x3d53c511	0.05170161
34	0xbd304e08	-0.043043166
35	0xbcd25d51	-0.025679262
36	0x3d4fe202	0.050752647
37	0xbda9b359	-0.08286161
38	0xbd177bd3	-0.036983322
39	0xbd229362	-0.039691336
40	0x3d95e720	0.07319474
41	0xbd335f42	-0.043792017
42	0x3db71987	0.08940416
43	0xbd468f26	-0.04847636
44	0xbd63218f	-0.055451926
45	0x3d610688	0.05493787
46	0x3dbca502	0.0921116
47	0x3dba437c	0.09094903
48	0x3ddab033	0.106781386
49	0x3d176128	0.03695789
50	0xbcd48afe	-0.025945183
51	0xbd5a062c	-0.053228542
52	0x3cb4c7d7	0.022067947
53	0x3d7e8f23	0.062148225
54	0xbdb9ed29	-0.09078438
55	0x3d923561	0.071390875
56	0xbd3dff9e	-0.046386354
57	0xbd7f08a4	-0.0622641
58	0x3ce449a5	0.027867148
59	0x3cecce0b	0.028906843
60	0x3d1f9123	0.038956773
61	0xbcb940c6	-0.022613894
62	0x3c6804e7	0.014161325
63	0xbd314950	-0.043282807
64	0xbd361ed5	-0.044462997
65	0xbd495fd7	-0.049163666
66	0xbd1866f1	-0.037207548
67	0x3d660491	0.0561567
68	0x3cd479b5	0.02593694
69	0xbd1ed146	-0.038773797
70	0x3d8ae963	0.06782796
71	0xbd2a2977	-0.04154345
72	0x3d20a9f7	0.03922459
73	0x3d82e231	0.06390799
74	0xbd42322a	-0.04741112
75	0x3c2e00f8	0.010620348
76	0xbd4a5d9b	-0.049405675
77	0x3cc1c102	0.023651604
78	0xbd949086	-0.07254128
79	0xbd223aa9	-0.039606724
80	0xbc5f3787	-0.013624079
81	0x3d1e73e4	0.03868474
82	0x3d4d10cd	0.05006485
83	0xbb9bb4b5	-0.0047517666
84	0x3c883bce	0.01663008
85	0xbce2562e	-0.027628984
86	0xbd274471	-0.040836755
87	0xbca363be	-0.019945022
88	0x3dca1d41	0.09868861
89	0xbd649b4f	-0.055812176
90	0xbd171013	-0.036880564
91	0xbda3de53	-0.08001389
92	0x3d850423	0.0649493
93	0x3d922364	0.071356565
94	0x3dc7f3cd	0.09763298
95	0x3d9a7976	0.07542698
96	0x3dd82921	0.1055472
97	0xbd33b25f	-0.04387128
98	0xbb247c6c	-0.0025098575
99	0x3cd8d620	0.02646929
100	0x3d48532a	0.048907436
101	0x3d2884de	0.041142337
102	0x3c9295c5	0.017893681
103	0xbd8d1357	-0.068884544
104	0xbb3ca742	-0.0028786217
105	0x3d04cde6	0.032422923
106	0x3dc8980a	0.09794624
107	0x3dedf909	0.11619765
108	0xbc12cfee	-0.008960707
109	0x3d5d715a	0.05406318
110	0x3d16eec8	0.036848813
111	0x3d5191e5	0.051164526
112	0x3c7de1bf	0.015495717
113	0x3dc56061	0.096375234
114	0x3d126d23	0.035748612
115	0x3dc92b2e	0.09822689
116	0x3dec46c1	0.11536933
117	0x3def6127	0.11688452
118	0x3d629555	0.055318195
119	0xbdcaffbe	-0.0991206
120	0x3d25aabd	0.04044603
121	0x3db98bae	0.09059845
122	0xbbd8468e	-0.0066002076
123	0x3d035377	0.03206202
124	0x3ce64d6a	0.028113086
125	0x3dcdcf8b	0.10049351
126	0xbd8619d9	-0.06547899
127	0x39176aea	0.00014440311
128	0xbc778404	-0.015107159
129	0x3d97364f	0.073834054
130	0x3d20df97	0.039275732
131	0xbc9e047f	-0.019289253
132	0x3d9518c4	0.07280114
133	0xbd04942a	-0.032367863
134	0xbd276c70	-0.0408749
135	0xbba55c8f	-0.0050464342
136	0x3da892c1	0.08231116
137	0xbcebce20	-0.028784811
138	0x3c3c9666	0.011510467
139	0x3d259622	0.04042638
140	0x3dce3d6d	0.1007031
141	0x3c9c92a5	0.019112894
142	0x3da60da5	0.08108071
143	0x3d7aa29d	0.061190236
144	0xbcac1261	-0.021004857
145	0xbd8dfa56	-0.069325134
146	0x3d97cce4	0.07412127
147	0x3d5d7d1f	0.054074403
148	0x3da9115e	0.08255266
149	0x3d17f244	0.037096277
150	0x3d2559b6	0.04036876
151	0x3d0be9cb	0.03415851
152	0xbd4a41f2	-0.049379297
153	0xbd021f8c	-0.031768367
154	0x3ce29395	0.027658263
155	0x3d87f124	0.06637791
156	0xbccaadfd	-0.024741167
157	0xbc106aa5	-0.008814489
158	0xbcec9b84	-0.02888275
159	0x3d23f597	0.040029135
160	0x3cde0f3b	0.027106872
161	0x3b00ab12	0.0019633216
162	0xbc33d641	-0.010976375
163	0x3cb8821e	0.022522982
164	0x3d003a19	0.031305406
165	0x3d7c2eb6	0.061567985
166	0x3d85344f	0.06504118
167	0xbc802ac2	-0.015645389
168	0x3da9140f	0.08255779
169	0x3cfe50a8	0.03104432
170	0x3c92d132	0.017922018
171	0xbc15a033	-0.009132433
172	0xbd3e8588	-0.046514064
173	0x3b87702c	0.004133245
174	0xbd558a44	-0.052133814
175	0x3daa6943	0.08320858
176	0xbd5612ab	-0.052263897
177	0x3d516118	0.051117986
178	0xbd9a0979	-0.07521338
179	0xbdb2fb62	-0.08739354
180	0x3ce1b887	0.02755381
181	0xbd56ef63	-0.05247439
182	0x3b04d12f	0.0020266285
183	0x3d08000a	0.033203162
184	0xbdb4cd48	-0.08828217
185	0x3dabba68	0.083851635
186	0xbd201d86	-0.039090656
187	0xbd9ae2df	-0.075628035
188	0x3d79e0dc	0.06100546
189	0x3da6165f	0.08109736
190	0x3d250ef5	0.040297467
191	0xbd15fd6d	-0.03661864
192	0x3d5e47af	0.05426758
193	0x3d6742e3	0.056460273
194	0x3d073a50	0.033014596
195	0xbcf7e654	-0.030261196
196	0x3c6b72b3	0.014370608
197	0x3d8f9e7d	0.07012651
198	0x3d9e72d4	0.077367455
199	0x3dac858c	0.084239095
200	0x3ca2353d	0.019800777
201	0x3db1a47a	0.086739495
202	0xbd28447d	-0.04108094
203	0x3d96b4c4	0.07358697
204	0x3d631c85	0.05544712
205	0x3dc5cd3c	0.09658286
206	0x3d2cf84c	0.04222898
207	0x3d8016ac	0.06254324
208	0xbd83d234	-0.064365774
209	0x3d3b8a0d	0.045785952
210	0x3d94f917	0.072740726
211	0x3cb7f3f4	0.022455193
212	0x3c5922b4	0.013252903
213	0x3d6f639b	0.0584446
214	0x3c7991d5	0.015232523
215	0x3d8098db	0.06279155
216	0x3d944edb	0.07241603
217	0xbd62aa0d	-0.055337954
218	0xbd42f732	-0.047599025
219	0x3d987405	0.07444004
220	0xbdc1077e	-0.09425257
221	0x3c9b5610	0.018961936
222	0x3d0502f4	0.03247352
223	0x3b1cd93d	0.0023933195
224	0xbd42a8c0	-0.047524214
225	0xbd8cb751	-0.06870902
226	0x3da1d96e	0.079027995
227	0x3da6467f	0.08118915
228	0x3d0910fe	0.03346347
229	0x3c258e2f	0.0101047
230	0x3c6d9158	0.014499985
231	0xbd8fdec9	-0.07024915
232	0x3da38828	0.07984954
233	0x3d28c425	0.041202683
234	0x3db58f53	0.088652276
235	0x3cee0a19	0.02905755
236	0xbbd86edc	-0.0066050123
237	0xbaabce69	-0.001310778
238	0x3dbbaf2f	0.09164273
239	0xbc9e2b75	-0.019307831
240	0x3d9843d6	0.07434814
241	0x3db0e19d	0.08636782
242	0xbda7a587	-0.08185869
243	0xbba2ccf0	-0.004968278
244	0xbca86b13	-0.02055887
245	0x3d9fc7d4	0.07801786
246	0x3d393cd4	0.045224026
247	0xbdb744d6	-0.08948676
248	0xbd96748d	-0.07346449
249	0x3da9ed5a	0.08297224
250	0xbbaebc9f	-0.005332544
251	0x3d9bd4e5	0.07608966
252	0x3dca0e30	0.09865987
253	0xbd48c7d8	-0.04901871
254	0x3caed770	0.021342963
255	0xbd6b5308	-0.05745223

fc.weight f4 [1, 128]
0	0x3c87e1f6	0.016587239
1	0xbd20f5c3	-0.039296877
2	0x3d1a6fe3	0.03770436
3	0x3c95edf9	0.01830195
4	0x3d062d71	0.03275818
5	0xbd81e2d3	-0.063420914
6	0xbda547ca	-0.08070333
7	0xbd46f07c	-0.048569188
8	0xbcfd84f4	-0.030947186
9	0xbdd6ba34	-0.10484734
10	0xbdef88a3	-0.11695983
11	0xbd846589	-0.06464679
12	0xbd5e09e3	-0.054208647
13	0x3d68a618	0.056799024
14	0xbbb865b0	-0.0056273565
15	0x3a554d5b	0.0008136832
16	0x3c8a57a9	0.016887503
17	0x3d556d5e	0.052106254
18	0x3db90452	0.09034027
19	0xbdd0a34f	-0.10187399
20	0xbdb1df5d	-0.08685181
21	0xbd61461e	-0.05499851
22	0x3da234b1	0.07920206
23	0x3d40ef52	0.047103234
24	0xbc36c0e7	-0.01115439
25	0xbdce2f75	-0.100676455
26	0xbc1752c5	-0.009236042
27	0x3d65fbbc	0.056148276
28	0xbd4a3ea5	-0.04937615
29	0x3d8c055c	0.0683696
30	0x3d2fad2d	0.042889763
31	0xbd83b349	-0.0643068
32	0x3dd15793	0.102217816
33	0x3d5a17c3	0.053245317
34	0xbddb99b1	-0.10722674
35	0x3d2afc73	0.04174466
36	0x3d7341d9	0.05938897
37	0x3d74d6fa	0.05977533
38	0x3da21f35	0.079161085
39	0xbdccb691	-0.09995759
40	0x3d356565	0.04428615
41	0x3d9cee2e	0.07662617
42	0x3ddf90c8	0.10916287
43	0xbd0403f4	-0.032230332
44	0x3d9dad1c	0.076990336
45	0xbdf88af9	-0.12135882
46	0x3d0e6df5	0.034772832
47	0x3d816357	0.06317776
48	0xbdc23879	-0.094834276
49	0x3d23c0c2	0.03997875
50	0x3d2c6c5e	0.042095535
51	0x3d8647f4	0.06556693
52	0xbd7ca59e	-0.061681382
53	0x3d070cdc	0.032971248
54	0xbd21f78f	-0.03954273
55	0xbd950f4d	-0.07278309
56	0xbd567cfa	-0.05236528
57	0x3dc2c969	0.09511072
58	0x3dba6e30	0.09103048
59	0xbd3cbcf7	-0.04607865
60	0x3d99cde1	0.075099714
61	0x3d475f52	0.04867489
62	0xbd82dfcd	-0.06390343
63	0x3dbed2d8	0.09317559
64	0x3d4f8692	0.050665446
65	0x3decff10	0.11572087
66	0x3d3937d5	0.04521926
67	0xbbacfd12	-0.005279192
68	0xbda86c97	-0.08223837
69	0xbce8a883	-0.028400665
70	0x3bfe7a53	0.007766047
71	0xbdc813fe	-0.09769438
72	0xbdb50767	-0.088393025
73	0x3d968061	0.07348705
74	0x3de8a24b	0.1135908
75	0xbdb193f7	-0.086708
76	0x3d39299a	0.04520569
77	0x3da67dd8	0.081294715
78	0xbcf6aa49	-0.030110495
79	0xbdbedd11	-0.09319509
80	0xbcafc7cc	-0.021457575
81	0xbca711fb	-0.020394316
82	0x3d45694f	0.048196133
83	0x3dea603a	0.11444135
84	0x3db5e9fe	0.08882521
85	0xbdd56de4	-0.104213506
86	0x3c56827e	0.013092635
87	0xbdbade6f	-0.09124457
88	0x3cb4e7bd	0.022083158
89	0x3df23838	0.11827129
90	0x3c67cc57	0.0141478395
91	0xbd271b50	-0.04079753
92	0x3d3fe3c1	0.046848062
93	0xbdc481b7	-0.09595054
94	0x3d8f072a	0.06983788
95	0xbdefc51e	-0.11707519
96	0x3d8c3c55	0.06847445
97	0x3d8c4d51	0.068506844
98	0x3cd11386	0.025522005
99	0x3c8c791c	0.017147593
100	0x3d520ee7	0.051283743
101	0xbc861923	-0.016369408
102	0xbd9ae94c	-0.07564029
103	0xbd9a3931	-0.0753044
104	0xbd6fb05a	-0.05851779
105	0x3cdebfbe	0.02719104
106	0x3dbbd6d6	0.09171836
107	0x3d9680a8	0.07348758
108	0xbd899720	-0.06718278
109	0xbda88dc7	-0.08230167
110	0x3dde92bf	0.10867833
111	0x3c7ad8db	0.015310491
112	0x3d4b831e	0.04968559
113	0x3de3ceb7	0.11123412
114	0xbccf340d	-0.025293374
115	0x3d8dddc6	0.069270656
116	0xbdbea02c	-0.09307894
117	0x3da459aa	0.080249146
118	0x3dfa893a	0.12233205
119	0xbd45784a	-0.04821042
120	0x3d67c50d	0.056584407
121	0x3d9305b6	0.07178824
122	0xbd79f51d	-0.061024774
123	0x3c4c0962	0.012453409
124	0xbcac14fc	-0.0210061
125	0x3d31f0cf	0.043442544
126	0xbdb961fe	-0.09051894
127	0xbca50cae	-0.020147648
