models/AVGO model.pth (torch, 801269 bytes, 9 tensors)

lstm.weight_ih_l0 f4 [512, 1]
0	0xbcc92ee1	-0.024558486
1	0xbc5d7493	-0.013516563
2	0xbd6c2d69	-0.057660494
3	0xbc35fb5e	-0.011107294
4	0x3d6a4106	0.057190917
5	0xbd3fd8b0	-0.04683751
6	0x3d58b765	0.052909274
7	0x3d9fe459	0.07807226
8	0xbd975ca9	-0.073907204
9	0xbd993f57	-0.07482784
10	0x3da2d496	0.07950704
11	0x3d42e37d	0.04758023
12	0x3d9d6970	0.07686126
13	0x3bd8b693	0.0066135614
14	0x3c83b39d	0.016076857
15	0x3cbd20d4	0.023086943
16	0xbdad6ca8	-0.0846799
17	0x3d3ae17d	0.0456252
18	0xbcd55d62	-0.026045505
19	0x3c17b981	0.009260536
20	0x3db6109a	0.08889885
21	0xbdc42ae7	-0.095784955
22	0x3d7d33a8	0.06181684
23	0xbdc0fd40	-0.094233036
24	0x3de7fed3	0.11327901
25	0x3d8c4401	0.06848908
26	0x3bca062c	0.0061652865
27	0xbbfed546	-0.007776889
28	0xbd29c3d5	-0.041446526
29	0x3dd31142	0.10306026
30	0xbcdc04bf	-0.026857732
31	0x3c32b928	0.0109084025
32	0x3cce015a	0.025147129
33	0x3d299fba	0.041412093
34	0x3d8bec77	0.068322115
35	0x3c147c4d	0.009062839
36	0xbd6a8e2a	-0.057264484
37	0x3c871488	0.016489282
38	0xbc8af97c	-0.016964667
39	0x3ca81e06	0.020522129
40	0x3c6fb7e5	0.014631246
41	0x3b90ec92	0.0044227326
42	0x3d8e03de	0.06934331
43	0x3d0c1e72	0.034208722
44	0x3c92d1b7	0.017922265
45	0x3dcfa382	0.101386085
46	0x3b8da8b7	0.004323091
47	0x3d57b07b	0.05265854
48	0xbdb9cbc7	-0.090720706
49	0xbb40c810	-0.0029416122
50	0xbcfbdcb5	-0.03074489
51	0x3c20330a	0.009777794
52	0x3d580efa	0.052748658
53	0x3d870986	0.06593613
54	0x3d3fdfdf	0.04684436
55	0xbb0d297f	-0.0021539626
56	0x3ccb58cd	0.024822617
57	0xbd4a0806	-0.049324058
58	0xbd30feae	-0.04321163
59	0xbc18b19f	-0.009319692
60	0x3d064335	0.032778937
61	0xbd77ef5e	-0.060531013
62	0x3d867386	0.06565003
63	0xbc418f14	-0.011813898
64	0x3cf6dad8	0.03013365
65	0x3d9608be	0.07325886
66	0x3d69443a	0.05694983
67	0x3dac268e	0.08405791
68	0xbda75cf0	-0.08172023
69	0xbd43e055	-0.04782136
70	0x3db96c48	0.09053856
71	0x3d88cee5	0.06680087
72	0xbc3a18cc	-0.011358451
73	0x3da35a67	0.07976227
74	0x3d9c1d91	0.07622827
75	0x3d8ddb73	0.06926622
76	0xbcdf0f93	-0.027229106
77	0x3d1d865c	0.038458213
78	0x3d88ae21	0.066738375
79	0x3db06a03	0.0861397
80	0x3d4e22e9	0.05032626
81	0x3d1bd8b7	0.038048472
82	0x3dd562b3	0.10419216
83	0xbd8efef5	-0.06982223
84	0x3d18071d	0.03711616
85	0xbc97b707	-0.018519891
86	0xbcc3c958	-0.02389972
87	0x3d28c0b4	0.0411994
88	0x3da67a57	0.08128803
89	0x3cac8819	0.02106099
90	0xbdd53d83	-0.10412123
91	0xbc9eda00	-0.01939106
92	0x3df7184c	0.12065181
93	0x3d3ac984	0.045602337
94	0x3d7fe50a	0.062474288
95	0xbd26af1f	-0.040694352
96	0xbbc51918	-0.0060149543
97	0x3d03ed78	0.03220889
98	0xbcb234bd	-0.021753663
99	0xbc8c67fe	-0.017139431
100	0x3dc22eea	0.094816044
101	0xbd7e9229	-0.062151108
102	0xbc87dfa4	-0.016586132
103	0xbd83df0c	-0.06439027
104	0x3d308fed	0.04310601
105	0x3de53251	0.11191238
106	0xbceadf5d	-0.028670961
107	0x3d80704f	0.06271421
108	0x3d3990c5	0.04530408
109	0x3c10a4b7	0.008828334
110	0x3cca2f20	0.024680674
111	0xbce36b3d	-0.027761096
112	0x3c89ad3f	0.016806243
113	0x3c0482cd	0.008087826
114	0xbcdd1fa3	-0.026992625
115	0xbd9ededb	-0.0775735
116	0x3d8ebdc5	0.069697894
117	0xbc8cd62f	-0.017191974
118	0x3c4e1920	0.012579232
119	0x3d7f7183	0.062364113
120	0x3c7a0b8d	0.015261543
121	0xbd10112a	-0.03517262
122	0xbba036e9	-0.0048893583
123	0x3c250c90	0.010073796
124	0x3dbbf3e5	0.091773786
125	0xbd56df1f	-0.05245888
126	0x3d426455	0.047458965
127	0xbc62ca83	-0.013842228
128	0x3d2ff184	0.042954937
129	0xbdbcb8e2	-0.09214951
130	0x3d4fe596	0.05075606
131	0xbd56f437	-0.052478995
132	0x3c9278f5	0.017879942
133	0xbd64ec45	-0.055889387
134	0x3d763cac	0.060116455
135	0x3dbc8bbf	0.09206342
136	0x3c9bf0f6	0.019035798
137	0x3cbbf67e	0.022944685
138	0x3d9cef9f	0.076628916
139	0xbb810f76	-0.0039386107
140	0xbd880371	-0.066412814
141	0xbc852ac6	-0.016255748
142	0x3ce66df8	0.028128609
143	0xbad798c5	-0.0016448727
144	0xbc8ff9e0	-0.017575204
145	0xbd4f5bf7	-0.050624814
146	0x3d4105f9	0.047124837
147	0xbbca2cd9	-0.006169897
148	0x3c9e2b14	0.01930765
149	0xbd51979d	-0.05116998
150	0x3d84f7c4	0.0649257
151	0xbc0a4789	-0.008439907
152	0x3c9de115	0.019272367
153	0x3cc45cc4	0.023970015
154	0x3d95c0c6	0.07312159
155	0x3da7a5b7	0.081859045
156	0x3d19a8b6	0.03751441
157	0x3dba121d	0.09085486
158	0xbdceaa02	-0.1009102
159	0x3c974e82	0.018470053
160	0x3d0fd795	0.035117704
161	0x3d6d1eaf	0.05789059
162	0xbd6a3631	-0.057180587
163	0x3d9f301e	0.077728495
164	0xbd29f3ff	-0.04149246
165	0xbd0afe74	-0.03393407
166	0x3cb9f578	0.022700056
167	0x3dc53598	0.09629363
168	0xbd748020	-0.059692502
169	0x3d56a701	0.05240536
170	0x3dd76fc0	0.105193615
171	0xbd1473bd	-0.03624319
172	0x38f1cf90	0.00011530437
173	0x3de05316	0.109533474
174	0x3d8dc72a	0.06922753
175	0xbd398411	-0.045291964
176	0x3caf17a7	0.021373583
177	0xbdbaf95e	-0.09129594
178	0xbd10153a	-0.035176493
179	0x3db39938	0.087694585
180	0xbd391151	-0.04518253
181	0x3def39f1	0.11680973
182	0xbc484db5	-0.012225558
183	0x3d772e69	0.060346995
184	0xbc8ed4f6	-0.017435532
185	0x3d2034ac	0.03911273
186	0xbcbb6746	-0.022876393
187	0xbcb8f55c	-0.022577934
188	0x3d1798bd	0.037010897
189	0xbc72c15c	-0.014816608
190	0xbcd1fa70	-0.025632113
191	0xbd075287	-0.03303769
192	0xbc2b5716	-0.010457775
193	0x3d32ffe5	0.04370107
194	0xbd6c2bce	-0.057658963
195	0xbcc8bb19	-0.024503278
196	0xbca3fe05	-0.020018587
197	0x3d6d3303	0.057909977
198	0x3dc94397	0.09827345
199	0x3cb03088	0.021507517
200	0xbde5ffa8	-0.11230403
201	0x3d967d94	0.07348171
202	0xbd5296f8	-0.051413506
203	0x3dddc531	0.10828627
204	0xbd4b056c	-0.049565718
205	0x3d7d2ddd	0.061811317
206	0xbd46ab9a	-0.048503496
207	0xbc56d457	-0.013112149
208	0xbb9e6ae6	-0.0048345206
209	0x3d5afcfe	0.05346393
210	0xbc5a0a40	-0.013308108
211	0x3c1a2d52	0.009410219
212	0x3d8e1008	0.069366515
213	0x3d169f35	0.036772925
214	0xbd9430ae	-0.072358474
215	0x3d541fba	0.05178807
216	0x3d6d31ec	0.057908937
217	0x3cb1baf0	0.021695584
218	0x3d0f5785	0.034995575
219	0xbd99cc0a	-0.075096205
220	0x3d3a1c8e	0.045437388
221	0x3d2b68c0	0.041847944
222	0xbd440449	-0.04785565
223	0xbda3dec6	-0.08001475
224	0xbd7ccfde	-0.061721675
225	0xbcb83520	-0.02248627
226	0xbd9b599f	-0.07585453
227	0xbd5ea20a	-0.05435375
228	0x3ce04791	0.027377876
229	0xbdbf7a4c	-0.09349498
230	0x3dc0919f	0.09402775
231	0xbd0ef491	-0.034901205
232	0xbd21bf6c	-0.039489195
233	0xbd2a579b	-0.041587453
234	0x3d0ebedc	0.034849986
235	0xbd3d1952	-0.046166725
236	0x3baef380	0.005339086
237	0xbdae3727	-0.08506613
238	0xbd8bd50a	-0.06827743
239	0xbaea18e6	-0.0017860204
240	0x3dd35e1c	0.10320684
241	0xbbc8d1c3	-0.006128521
242	0xbd93fbeb	-0.07225784
243	0xbccc253f	-0.024920104
244	0xbd1da437	-0.038486686
245	0xbd481797	-0.048850622
246	0x3d62d746	0.055381082
247	0xbc130f95	-0.008975883
248	0x3d7a112b	0.06105153
249	0x3d9b184d	0.075729944
250	0xbd78a556	-0.06070455
251	0x3dbac166	0.09118919
252	0x3dac99d2	0.084277764
253	0xbd82bd00	-0.06383705
254	0xbd62b53f	-0.05534863
255	0xbd4a3794	-0.04936941

lstm.weight_hh_l0 f4 [512, 128]
0	0x3da4fd79	0.080561586
1	0xbc2795c3	-0.010228577
2	0xbcae117d	-0.021248573
3	0xbdcc1a9e	-0.09966014
4	0x3d849d73	0.064753436
5	0xbd7489cb	-0.059701722
6	0x3d9e1dc2	0.077205196
7	0x3d1c1cb4	0.03811331
8	0x3baa3c57	0.0051951814
9	0x3d87dd8f	0.06634056
10	0xbc4039ea	-0.011732558
11	0xbcd98699	-0.026553439
12	0xbd6b2c2b	-0.05741517
13	0xbd09896f	-0.033578333
14	0x3dd0a009	0.10186774
15	0x3cee03f6	0.029054623
16	0xbd71bac8	-0.05901602
17	0x3d661c5c	0.05617939
18	0x3dac167d	0.08402727
19	0xbdaa037a	-0.08301444
20	0xbcc30620	-0.023806632
21	0xbd2388bf	-0.039925333
22	0xbcba56c2	-0.022746447
23	0x3d994c21	0.074852236
24	0x3d8eeef9	0.06979174
25	0x3d4624cb	0.048374932
26	0xbccc6505	-0.024950514
27	0x3d5c32e6	0.053759478
28	0xbc5408ce	-0.012941552
29	0x39e382dd	0.00043394315
30	0xbd0c1fe6	-0.03421011
31	0x3d84303e	0.06454514
32	0xbcd54c85	-0.026037464
33	0xbd320d9e	-0.043470018
34	0xbd3c2228	-0.04593101
35	0xbdd1885a	-0.10231085
36	0xbd8e6e13	-0.06954589
37	0xbd3dc8ce	-0.04633408
38	0x3d674fd0	0.0564726
39	0xbd84d3c8	-0.064857066
40	0x3ca0f9ad	0.019650305
41	0x3cee6f1f	0.029105721
42	0x3c641822	0.013921769
43	0x3d1bda82	0.038050182
44	0x3d6adcda	0.057339527
45	0xbd278ef9	-0.040907834
46	0xbd893fa0	-0.06701589
47	0x3d569eac	0.052397415
48	0xbd322403	-0.043491375
49	0xbaee9c37	-0.0018204515
50	0xbbfef103	-0.0077801957
51	0xbbe26e40	-0.0069101155
52	0x3cdece2f	0.027197925
53	0xbc83e178	-0.016098723
54	0x3d2033cf	0.03911191
55	0x3d89fb93	0.06737437
56	0xbd4fcf9d	-0.050735105
57	0xbd654566	-0.055974387
58	0xbd11963f	-0.035543676
59	0x3d455c0e	0.048183493
60	0xbd3d5fb2	-0.04623384
61	0x3db626b6	0.08894102
62	0x3d30b8dc	0.043145046
63	0xbce26901	-0.02763796
64	0xbd5a53a4	-0.053302422
65	0x3da01809	0.07817084
66	0xbd494d59	-0.04914603
67	0xbd31a3db	-0.043369155
68	0x3d187834	0.03722401
69	0xbd8296b6	-0.06376402
70	0x3d6c9f31	0.057769004
71	0xbdbfd6e9	-0.09367163
72	0xbcefaca6	-0.02925713
73	0xbdaaf057	-0.083466224
74	0xbb9a9fdd	-0.004718764
75	0x3ccf2173	0.025284505
76	0x3d8b449e	0.06800197
77	0xbcc6e900	-0.024281025
78	0x3d8ae648	0.06782204
79	0x3dd7a27d	0.10529039
80	0xbd32e8b9	-0.043678973
81	0xbd5c1dab	-0.05373923
82	0x3c0b0f55	0.008487542
83	0x3da9735e	0.08273958
84	0xbcee36c1	-0.029078843
85	0x3c1ffde9	0.009765127
86	0x3db6dd5f	0.08928942
87	0xbcf74ba6	-0.03018744
88	0xbd996d3e	-0.074915394
89	0xbcebd402	-0.028787617
90	0x3cecb8dd	0.028896743
91	0xbd809f1a	-0.06280346
92	0x3cff8398	0.031190678
93	0x3d099ba3	0.033595692
94	0x3d699c14	0.057033613
95	0x3ca3f47b	0.020014038
96	0xbc8a964f	-0.016917376
97	0xbc3295c7	-0.0108999675
98	0x3cc7a998	0.02437286
99	0xbb457719	-0.0030130802
100	0x3ca232b0	0.01979956
101	0x3b0934b3	0.0020935952
102	0xbdb0d9b7	-0.08635276
103	0xbba820f9	-0.005130884
104	0xbd4fec96	-0.050762735
105	0xbb5f25b1	-0.0034049565
106	0x3d162c15	0.036663134
107	0xbd8a5032	-0.06753577
108	0x3c84041a	0.016115237
109	0xbd1f6a58	-0.038919777
110	0x3c2e29dc	0.010630097
111	0x3b8fc15e	0.004387065
112	0x3d8a7942	0.06761409
113	0xbd7853f6	-0.060626946
114	0xbcb0908c	-0.0215533
115	0xbcdc0ed0	-0.026862532
116	0x3c1496de	0.009069173
117	0x3db81c7a	0.089898065
118	0x3d1e6be7	0.038677122
119	0xbd449394	-0.047992304
120	0x3d1b9a63	0.03798903
121	0xbdbe6f5b	-0.09298583
122	0xbbd425a9	-0.006474216
123	0x3d1ca0e1	0.038239364
124	0x3cc31a0c	0.023816131
125	0x3d96d0bd	0.073640324
126	0xbc839ea3	-0.016066855
127	0xbd0698fa	-0.032860734
128	0xbcfb501c	-0.030677848
129	0xbd050d52	-0.032483406
130	0x3de01aa3	0.109425806
131	0x3dc15f10	0.0944196
132	0xbda0b81a	-0.078476146
133	0x3d786b5f	0.060649272
134	0x3aa63b4a	0.0012682464
135	0x3de440a1	0.111451395
136	0x3c4a061c	0.012330558
137	0x3caab780	0.020839453
138	0x3c2bf553	0.010495502
139	0xbd3a9c06	-0.04555895
140	0x3c2ce472	0.0105525125
141	0x3cdf9707	0.027293695
142	0x3d124864	0.03571357
143	0x3c4078d6	0.0117475595
144	0xbda9d908	-0.082933486
145	0xbd653354	-0.055957153
146	0xbc820c1d	-0.015874917
147	0xbd8b432c	-0.067999214
148	0xbc22ab82	-0.009928586
149	0x3db14667	0.08656006
150	0xbc13f8dc	-0.009031501
151	0xbda41842	-0.08012439
152	0x3c4b709b	0.012416984
153	0x3d1bae6f	0.03800815
154	0xbd2cdbfd	-0.042201985
155	0xbd580955	-0.052743275
156	0xbdc58bcb	-0.09645804
157	0x3d73bb0f	0.059504565
158	0xbdaf628a	-0.08563717
159	0xbb8ed76a	-0.0043591755
160	0xbce85211	-0.028359445
161	0x3d37b8c0	0.044853926
162	0xbdba60fc	-0.091005296
163	0xbd42cfce	-0.04756146
164	0x3babd60d	0.0052440227
165	0xba344973	-0.00068774
166	0xbda0b941	-0.078478344
167	0xbd9cba92	-0.07652773
168	0x3d4d9577	0.05019137
169	0x3cf70fef	0.030158965
170	0xbd5e7f82	-0.05432082
171	0xbd0c8a55	-0.03431161
172	0xbd65f13f	-0.056138273
173	0xb9fb1e54	-0.00047897047
174	0x3c185b86	0.009299165
175	0x3cbbcd25	0.022924969
176	0xbd8215b4	-0.06351796
177	0x3d8d776c	0.069075435
178	0xbdcfb8a7	-0.101426415
179	0xbd34fda3	-0.0441872
180	0xbdc84def	-0.0978049
181	0xbd6c73e8	-0.057727724
182	0x3d894261	0.06702114
183	0xbdb7f170	-0.089815974
184	0xbd909f1d	-0.070615984
185	0xbd50beb5	-0.050963122
186	0x3da50e93	0.080594204
187	0xbd920ff2	-0.071319476
188	0xbdc423d9	-0.0957715
189	0x3d04c413	0.032413553
190	0x3ca5bdda	0.02023213
191	0xbd975477	-0.07389157
192	0xbd85c264	-0.06531218
193	0x3d5043db	0.050845962
194	0xbd2ec4d1	-0.042668168
195	0x3d1852c7	0.037188318
196	0x3c4ad45e	0.012379734
197	0xbb8d1abe	-0.0043061664
198	0x3d9a67d2	0.075393334
199	0x3b7d89cc	0.003868687
200	0x3d808697	0.06275671
201	0xbc59a10a	-0.013283024
202	0xbd5cb488	-0.053883106
203	0x3c962187	0.018326534
204	0xbd83d85b	-0.06437751
205	0xbdebc8f8	-0.11512941
206	0xbd696c0e	-0.056987815
207	0xbded21e7	-0.11578732
208	0xbcfa1c3b	-0.03053104
209	0x3d9db551	0.07700599
210	0xbca4f1c8	-0.020134822
211	0xbda9b299	-0.08286018
212	0xbd116315	-0.035494883
213	0xbdce8b9a	-0.10085221
214	0xbd3ebfcb	-0.046569627
215	0xbd25d76a	-0.040488638
216	0x3d92a645	0.0716062
217	0x3d88423a	0.06653257
218	0xbd2f0b38	-0.04273531
219	0xbd7db6bf	-0.06194186
220	0x3de39588	0.11112505
221	0xbd5dc1da	-0.05413995
222	0x3bb9200d	0.0056495727
223	0x3d061766	0.03273716
224	0xbcb05e73	-0.021529412
225	0xbcb45845	-0.022014746
226	0x3cbf8e10	0.02338317
227	0xbd80105d	-0.06253121
228	0x3c419ade	0.011816708
229	0xbdc5cc63	-0.09658124
230	0xbc9101b2	-0.017701004
231	0x3aa6da98	0.0012729941
232	0x3c929eda	0.017898012
233	0xbdd490c6	-0.10379176
234	0xbd5c9003	-0.053848278
235	0x3c642f88	0.013927348
236	0x3cc72899	0.02431135
237	0x3d86e267	0.065861516
238	0xbaf026f1	-0.0018322152
239	0x3c82e228	0.01597698
240	0x3d0e32cd	0.034716416
241	0x3d4d23ef	0.050083097
242	0xbc7bc194	-0.015365977
243	0xbd42a1f1	-0.04751772
244	0xbcf7edcf	-0.030264763
245	0x3d830b41	0.06398631
246	0xbda25b8d	-0.07927618
247	0x3dc6e8f7	0.09712403
248	0x3ba6a7e1	0.0050859307
249	0x3de9df31	0.114195235
250	0x3d9aec12	0.07564558
251	0xbcaefaf8	-0.021359906
252	0x3cf257dd	0.029582912
253	0x3d499f39	0.049224112
254	0xbb5ac470	-0.0033381246
255	0xbb2ad87c	-0.0026068976

lstm.bias_ih_l0 f4 [512]
0	0x3880f0eb	6.14839e-05
1	0xbd740a20	-0.05957997
2	0xb9d759d8	-0.00041074934
3	0x3d249d96	0.04018935
4	0x3d3e3269	0.046434794
5	0xbd9324d0	-0.07184756
6	0x3da041d5	0.078250565
7	0x3d008cbc	0.031384215
8	0xbcb0b881	-0.021572353
9	0xbd9fe08a	-0.07806499
10	0xbd78da03	-0.060754787
11	0x3ad197cb	0.0015990672
12	0x3c92cd8d	0.01792028
13	0x3b3731ce	0.002795327
14	0x3cada67c	0.02119755
15	0x3d1b5e52	0.037931748
16	0xbd4ec902	-0.050484665
17	0xbd60bcfb	-0.054867726
18	0xbcbec258	-0.02328603
19	0xbd03fb66	-0.032222174
20	0xbc97bbf5	-0.018522242
21	0x3ce42557	0.027849836
22	0x3b822896	0.0039721234
23	0x3d36dc69	0.044643793
24	0xbc04e1c3	-0.008110466
25	0xbdbaab9e	-0.09114765
26	0xbbdf3d15	-0.0068127015
27	0x3da2e1e4	0.079532415
28	0xbd9ab093	-0.0755321
29	0x3d370067	0.044678118
30	0xbcb6c26d	-0.022309506
31	0x3bef98b8	0.0073119067
32	0xbd869029	-0.06570465
33	0x3d0ea951	0.03482944
34	0x3ca95425	0.020670006
35	0x3d2e2733	0.042517852
36	0xbd5deed0	-0.054182827
37	0xbceef2e9	-0.029168563
38	0xbd4d88f2	-0.05017943
39	0x3d961bbf	0.07329511
40	0xbd2159bd	-0.03939222
41	0x3d6f9c7f	0.058498856
42	0x3d180a26	0.037119053
43	0xbd800f02	-0.062528625
44	0x3c95a4da	0.018267084
45	0xbcbfa1e9	-0.023392634
46	0x3d1edcf2	0.03878493
47	0x3d962939	0.07332081
48	0x3d53a42c	0.05167024
49	0xbc6044fa	-0.01368832
50	0xbc5e0a51	-0.013552264
51	0xbd19292c	-0.03739278
52	0xbb07d759	-0.0020727722
53	0x3d29111f	0.041276094
54	0xbbee61ac	-0.007274827
55	0xbda27a08	-0.07933432
56	0x3d7bfbb8	0.061519355
57	0x3c8d0521	0.01721436
58	0x3d4218f4	0.04738708
59	0xbdc1061f	-0.09424996
60	0x3d98c9b2	0.07460345
61	0x3d9e8c2d	0.0774158
62	0xbd8d1846	-0.068893954
63	0x3d2caab2	0.042154975
64	0x3dc222d4	0.09479299
65	0xbd87d47a	-0.066323236
66	0x3d47950c	0.048726127
67	0x3b07d51b	0.0020726386
68	0x3b8dd7f6	0.004328723
69	0xbda72873	-0.08162012
70	0xbd100a7f	-0.03516626
71	0xbd9e3943	-0.077257656
72	0x3cc11c81	0.023573162
73	0x3d9e8f66	0.07742195
74	0xbc99b7ee	-0.018764462
75	0x3d808aa9	0.06276447
76	0xbdcbd34a	-0.099524096
77	0x3d403747	0.046927717
78	0xbdb36dbd	-0.08761165
79	0xbda16b7b	-0.078818284
80	0xbdb4cf72	-0.088286296
81	0x3d81cc71	0.06337822
82	0xbd320b94	-0.043468073
83	0x3d8dc05e	0.06921457
84	0xbd1f87dc	-0.038947925
85	0x3bd6c1d4	0.006553868
86	0x3d431f56	0.047637306
87	0xbd5e4b45	-0.054271
88	0x3d939c84	0.07207587
89	0xbd459d6c	-0.048245832
90	0xbc7b819c	-0.0153507255
91	0xbd8123e1	-0.063056715
92	0x3d403d62	0.04693354
93	0xbd7bb753	-0.06145413
94	0xbd500c04	-0.05079271
95	0xbc9561c3	-0.018235093
96	0x3cae68c2	0.021290187
97	0x3ca5cdf4	0.020239808
98	0x3d833549	0.06406648
99	0xbd3c14d1	-0.04591829
100	0x3d8e1989	0.06938464
101	0xbd9ea7ab	-0.07746824
102	0xbd67c330	-0.05658263
103	0x3b78a99a	0.0037942887
104	0xbb712793	-0.003679727
105	0xbd0e7380	-0.034778118
106	0x3da9c9e5	0.082904615
107	0xbb6c1155	-0.0036021073
108	0x3d860485	0.06543831
109	0xbd93a4fa	-0.07209201
110	0xbd7aa538	-0.06119272
111	0x3db8b0b8	0.090180814
112	0xbd61e00a	-0.0551453
113	0x3c8e9520	0.017405093
114	0xbb1ff2e7	-0.0024406256
115	0x3dc8f406	0.09812169
116	0xbab92a0a	-0.0014126908
117	0xbca343e3	-0.019929832
118	0xbda9afbc	-0.08285472
119	0x3d99c38c	0.07508001
120	0x3acdd035	0.0015702309
121	0x3da4e1cd	0.080508806
122	0x3ccb25e1	0.024798336
123	0xbca3d6ec	-0.019999944
124	0x3d021b04	0.031764045
125	0xbce43a59	-0.027859854
126	0x3d2482a8	0.040163666
127	0x3d899494	0.06717792
128	0xbd9ca58f	-0.07648765
129	0xbba70f46	-0.0050982563
130	0xbd35b5aa	-0.0443627
131	0xbcec4bbc	-0.028844707
132	0x3d11fa04	0.035638824
133	0xbda811e5	-0.08206538
134	0xbb98e3e1	-0.004665837
135	0x3d47d026	0.04878249
136	0x3d270523	0.040776383
137	0x3cc40deb	0.023932418
138	0x3d2f02ba	0.04272721
139	0xbb039099	-0.00200752
140	0x3c610c06	0.013735777
141	0xbd8a5198	-0.06753844
142	0xbc4f7835	-0.012662937
143	0xbcc5d9ea	-0.024151761
144	0x3d7da5a4	0.061925545
145	0xbce19af5	-0.02753971
146	0x3dc31222	0.09524943
147	0xbc00ea50	-0.007868364
148	0x3d026f9e	0.031844728
149	0x3cd055e0	0.025431573
150	0xbd9bb72f	-0.07603299
151	0x3d0a6820	0.033790708
152	0x3b8f5c21	0.0043749963
153	0xbd78b84b	-0.06072263
154	0x3cee03e0	0.029054582
155	0xbd32020b	-0.04345898
156	0xbd0eb7f8	-0.034843415
157	0x3da6e1ec	0.0814856
158	0xbd711da5	-0.05886616
159	0xbd6c3e0d	-0.057676364
160	0xbd8dc1d1	-0.06921733
161	0xbc6863b6	-0.014183929
162	0x3d39d70e	0.045371108
163	0x3d6c7b1f	0.057734605
164	0x3d11d7a8	0.035606056
165	0xbd8cfedd	-0.06884549
166	0xbbb9b486	-0.005667272
167	0xbc831a1d	-0.016003663
168	0xbce5a91e	-0.028034743
169	0xbcb25698	-0.021769807
170	0xbd6f5579	-0.058431122
171	0x3cf76767	0.030200673
172	0xbdc7d606	-0.097576186
173	0x3c4c2073	0.012458908
174	0x3da93c1a	0.082634166
175	0xbd29677f	-0.041358467
176	0xbd8919ee	-0.06694399
177	0xbd15df47	-0.036589887
178	0xbdc5a3df	-0.096503966
179	0xbd5c8a4f	-0.05384284
180	0x3dc461a4	0.09588936
181	0x3cdcac09	0.026937502
182	0xbd6dc658	-0.058050483
183	0x3d9452f1	0.07242382
184	0xbd8ef4c8	-0.06980282
185	0x3b0d6901	0.002157748
186	0x3b315abe	0.0027062143
187	0xbd202433	-0.039097022
188	0xbd640229	-0.055666123
189	0xbd4d23b5	-0.05008288
190	0x3d5c6685	0.053808708
191	0xbca1ec6b	-0.019766053
192	0x3d11c1e3	0.035585295
193	0xbd4f027b	-0.050539475
194	0x3d5c6e4b	0.05381612
195	0xbcfd2107	-0.030899538
196	0xbbf47a4e	-0.007460869
197	0xbdb1b2bb	-0.08676668
198	0xbd9becf2	-0.07613553
199	0x3d2b14bb	0.041767817
200	0xbcda4b73	-0.026647305
201	0xbd198a5e	-0.037485473
202	0x3ce41d46	0.02784599
203	0xbd35301d	-0.044235338
204	0x3d173ef6	0.03692528
205	0x3dc5e24b	0.096623026
206	0x3c7e2a5c	0.015513029
207	0xbcd2a0d8	-0.025711462
208	0xbdac2468	-0.084053814
209	0xbd812911	-0.06306661
210	0x3d3b7305	0.045763988
211	0x3d17b979	0.037042115
212	0x3ca7a04d	0.02046218
213	0x3d9851d6	0.07437484
214	0x3d3d063c	0.046148524
215	0x3c2f534a	0.01070101
216	0x3d2c239b	0.042026144
217	0x3c91f45e	0.017816719
218	0xbd513e29	-0.05108467
219	0x3dbe429c	0.092900485
220	0x3db90e46	0.090359256
221	0xbd86ab92	-0.06575693
222	0x3c1eb6bf	0.009687125
223	0xbd9511f9	-0.07278819
224	0xbc926fbc	-0.017875545
225	0xbd4120e0	-0.047150493
226	0xbc44ad51	-0.0120042125
227	0xbd124f62	-0.035720237
228	0x3cc70976	0.024296504
229	0x3d7630a0	0.060104966
230	0xbcc69b08	-0.024243847
231	0x3cbfaa70	0.0233967
232	0xbca46855	-0.02006928
233	0xbcedd61f	-0.029032765
234	0x3d777378	0.060412854
235	0xbd74e724	-0.059790745
236	0x3d9d172a	0.07670434
237	0xbcb003c7	-0.021486176
238	0x3cf87efc	0.030333988
239	0x3da39153	0.07986703
240	0x3da63ac0	0.081166744
241	0x3d210363	0.03930987
242	0x3d8fbdb8	0.07018608
243	0x3dcc66c5	0.09980539
244	0xbb912900	-0.0044299364
245	0x3d602697	0.054724302
246	0xbd00be28	-0.031431347
247	0x3aacd5a7	0.0013186232
248	0xbd3a87d1	-0.04553968
249	0x3ce3b2a8	0.02779515
250	0xbbecf4a7	-0.0072313133
251	0xbdba224a	-0.09088571
252	0x3c43dcb6	0.011954477
253	0xbd6fd584	-0.058553234
254	0x3b8156b2	0.0039471025
255	0x3d951a46	0.07280402

lstm.bias_hh_l0 f4 [512]
0	0x3c9caac7	0.019124402
1	0x3d73e924	0.059548512
2	0x3d7cea81	0.061747078
3	0xbd1caf90	-0.038253367
4	0xbd58b2c7	-0.05290487
5	0xbd77d8cb	-0.060509484
6	0x3d8fbe37	0.070187025
7	0xbd8ef9a6	-0.069812104
8	0x3cdc8483	0.026918655
9	0x3c533028	0.012889899
10	0x3c5a708c	0.013332497
11	0xbd620fd3	-0.055190872
12	0xbda62d4c	-0.081141084
13	0x3d8aacdd	0.06771252
14	0xbce6dd38	-0.028181657
15	0xbdb6c2ea	-0.08923896
16	0xbcde4504	-0.027132519
17	0xbc30a2dd	-0.010781017
18	0x3d1c2976	0.038125478
19	0xbd807f76	-0.06274311
20	0xbd9e92b0	-0.07742822
21	0x3d2b89f7	0.04187962
22	0xbd5d24b3	-0.053990077
23	0xbd7eb7f9	-0.06218717
24	0xbd8473db	-0.0646741
25	0x3c9c9765	0.01911516
26	0x3cd29828	0.02570732
27	0x3d9cec12	0.07662214
28	0xbd36392c	-0.044488117
29	0x3c466377	0.012108675
30	0x3d28ca2f	0.041208442
31	0xbceff502	-0.029291634
32	0x3c5409e1	0.012941808
33	0xbd41b6c9	-0.047293458
34	0x3daaae7c	0.083340615
35	0x3d0f5ae5	0.034998793
36	0x3db1df94	0.08685222
37	0x3d9e58bb	0.07731768
38	0x3d3b0e20	0.045667768
39	0x3babfa20	0.005248323
40	0x3da4787b	0.08030792
41	0xbdd79cdd	-0.10527966
42	0xbd8f994e	-0.070116624
43	0x3db30246	0.08740668
44	0x3d099a39	0.033594344
45	0x3d03b3e0	0.032153964
46	0x3d169aed	0.036768842
47	0x3dc1a133	0.094545744
48	0x3bd96d1c	0.0066353213
49	0x3d8b6b02	0.068075195
50	0x3cd8a664	0.026446529
51	0x3ba87971	0.00514143
52	0xbcee8072	-0.029113982
53	0xbd5e1b47	-0.054225232
54	0xbda725cf	-0.08161508
55	0x3d6c879c	0.057746515
56	0x3d0e9485	0.034809608
57	0x3d22e1ed	0.03976624
58	0xbd790d53	-0.060803723
59	0x3caef6d2	0.021357927
60	0xbdad032e	-0.08447872
61	0x3dac60b5	0.08416883
62	0xbb1fa1ee	-0.0024357992
63	0xbc94cab3	-0.01816306
64	0x3db7307a	0.08944793
65	0xba27db96	-0.0006403265
66	0x3d8d0900	0.06886482
67	0xbdb253d8	-0.08707398
68	0x3d087343	0.033313047
69	0x3b30e578	0.0026992243
70	0xbd3dbf2b	-0.04632489
71	0xbd91bc96	-0.07116048
72	0x3d8362d9	0.06415338
73	0xbd5f9717	-0.05458745
74	0x3d501329	0.050799523
75	0xbc556929	-0.01302556
76	0xbdbf1a43	-0.09331181
77	0x3c5a6128	0.013328828
78	0xbcf298ac	-0.029613815
79	0xbda32997	-0.07966917
80	0xbd61cb28	-0.055125386
81	0xbaf9e309	-0.0019064854
82	0x3d6b5386	0.0574527
83	0x3d36b968	0.04461041
84	0x3ceac7da	0.02865975
85	0x3d967841	0.07347155
86	0x3c224043	0.0099030165
87	0xbd719c63	-0.058987033
88	0x3d62d892	0.05538232
89	0x3d25b9da	0.040460445
90	0xbb9753ec	-0.0046181586
91	0xbc40bb3d	-0.011763391
92	0xbd075fa5	-0.033050198
93	0xbd858a2d	-0.065204956
94	0x3d876d24	0.06612614
95	0x3dbd8129	0.09253151
96	0xbc96f943	-0.018429404
97	0x3d4f59c5	0.05062272
98	0xbd6ac574	-0.057317212
99	0xbcc3104c	-0.023811482
100	0xbd851295	-0.06497685
101	0xbd48a477	-0.04898497
102	0xbd955e8e	-0.072934255
103	0xba67bcf7	-0.00088401086
104	0x3d3ecc83	0.046581756
105	0x3bc7f963	0.0061027273
106	0x3d1c7d64	0.03820552
107	0x3d7d3f62	0.061828025
108	0xbaeea20d	-0.0018206254
109	0x3d61c6c7	0.05512121
110	0x3dab3424	0.083595544
111	0x3cf18e5f	0.029486833
112	0xbd02d189	-0.03193811
113	0x3d2ce3df	0.042209502
114	0xbd789d7b	-0.06069706
115	0xbd14a8c8	-0.036293775
116	0x3d6f77b7	0.05846378
117	0x3ccc268d	0.024920726
118	0xbd85d9a6	-0.06535654
119	0x3d807d29	0.062738724
120	0xbd05477c	-0.032538876
121	0xbd35edd1	-0.044416253
122	0x3c79a33a	0.01523667
123	0xbcf471f6	-0.029839497
124	0x3db28178	0.087161005
125	0x3d719e32	0.058988757
126	0x3d937d49	0.072016306
127	0x3dad13e3	0.08451059
128	0x3c5bd3fa	0.013417238
129	0xbd14bc51	-0.036312405
130	0x3d72d0e1	0.059281234
131	0xbc1b56d2	-0.009481149
132	0x3d98bee6	0.07458286
133	0xbda86c4d	-0.08223782
134	0x3aa7d309	0.0012803982
135	0xbda3f02e	-0.08004795
136	0x3d334b63	0.043773066
137	0xbc55596e	-0.01302181
138	0xbda79c3a	-0.08184095
139	0xbc18a8b8	-0.009317569
140	0xbcdb8420	-0.0267964
141	0xbd03cc6d	-0.032177377
142	0x3d316933	0.043313216
143	0xbd7712b4	-0.06032057
144	0xbc8b0d86	-0.016974222
145	0x3d02cd81	0.031934265
146	0x3c276608	0.010217197
147	0x3d5145f6	0.05109211
148	0xbd22ac46	-0.039715074
149	0x3d8229d9	0.06355638
150	0x3d99d531	0.07511366
151	0xbcc31fc8	-0.023818865
152	0x3cb1f37b	0.021722546
153	0x3bc15e11	0.005901106
154	0xbc97b12d	-0.018517101
155	0xbd968392	-0.07349314
156	0xbcf907db	-0.030399254
157	0xbc8e3ed1	-0.017363938
158	0xbd64a40b	-0.055820506
159	0xbc98571d	-0.018596226
160	0xbd8aa3ff	-0.06769561
161	0xbd706834	-0.058693126
162	0x3d4ae5fa	0.04953573
163	0x3cdfd6ce	0.027324107
164	0x3d9abf94	0.07556072
165	0xbd9055d5	-0.07047621
166	0xbc3ff196	-0.011715313
167	0x3d7ee5e7	0.06223097
168	0xbcc05dc4	-0.023482211
169	0xbd167826	-0.036735676
170	0xbc244ba9	-0.010027804
171	0xbbe8bba8	-0.0071024485
172	0x3d80251f	0.0625708
173	0xbd2a9f8d	-0.041656066
174	0xbd7620e3	-0.060089957
175	0xbd28cb13	-0.04120929
176	0x3dbb8722	0.09156634
177	0x3d8d562e	0.06901203
178	0xbdc36a39	-0.09541745
179	0x3cb37db5	0.021910528
180	0x3ce898da	0.028393198
181	0xbd93efbe	-0.072234616
182	0x3d8aeb83	0.067832015
183	0x3c66dc18	0.01409056
184	0x3d3a882c	0.04554002
185	0x3d955bd6	0.07292907
186	0xbd386f54	-0.045028046
187	0x3ca5bc5e	0.020231422
188	0x3d3e984d	0.046531964
189	0x3c6d409e	0.014480738
190	0x3d2259d7	0.03963646
191	0x3c76b4ba	0.015057737
192	0x3d91fe19	0.071285434
193	0x3dcb49cd	0.09926186
194	0xbd8a1a5b	-0.06743308
195	0x3c9dc5c5	0.019259343
196	0xbc87ac25	-0.016561577
197	0x3d1fb9f5	0.0389957
198	0xbd81ddd2	-0.06341137
199	0x3cdf991c	0.027294688
200	0x3d8b03a4	0.06787804
201	0xbd054bde	-0.032543056
202	0xbd7d6b22	-0.061869748
203	0xbd871f53	-0.065977715
204	0x3d73a643	0.05948473
205	0xbcd55bfb	-0.026044836
206	0x3cfafb72	0.030637477
207	0xbd2ccadb	-0.042185646
208	0x3daacc6f	0.08339774
209	0x3d0a14ff	0.03371143
210	0x3d913a37	0.07091182
211	0x3d872d99	0.06600494
212	0x3d69c0a0	0.057068467
213	0x3d1bb599	0.038014982
214	0x3d119e50	0.03555137
215	0x3d7b20da	0.061310627
216	0xbd24b233	-0.040209007
217	0x3d7efe99	0.062254522
218	0xbd35394d	-0.0442441
219	0xbd73cea7	-0.05952325
220	0x3d6fe0b1	0.05856389
221	0xbd73bf27	-0.05950847
222	0x3a89d959	0.0010517045
223	0x3db38d6b	0.08767208
224	0xbdab3927	-0.0836051
225	0x3c85331b	0.01625972
226	0x3cdf718c	0.027275823
227	0xbd1d4f15	-0.038405497
228	0xbb7fbce9	-0.0039022511
229	0xbd87bb03	-0.066274665
230	0xb9b2a33a	-0.0003407242
231	0xbd36d8dc	-0.044640407
232	0xbc965dfb	-0.01835536
233	0x3d528ab2	0.0514018
234	0xbd9e61cb	-0.07733496
235	0xbd9b77e8	-0.0759123
236	0xbbb0b2ff	-0.0053924317
237	0x3c0f04fc	0.008729216
238	0x3d2cbe4c	0.04217367
239	0xbd93ed57	-0.07223003
240	0x3dba4b7a	0.09096427
241	0x3d6070a7	0.054794934
242	0xbd9f930b	-0.07791718
243	0xbd399b89	-0.045314346
244	0x3bcb8fb4	0.006212199
245	0x3d9a1a57	0.07524555
246	0x3d749dcb	0.059720796
247	0xbc93eff5	-0.018058756
248	0xbd2b357b	-0.04179905
249	0x3c220aca	0.009890268
250	0xba60d590	-0.0008576745
251	0xbd84a348	-0.06476456
252	0x3cd0a001	0.02546692
253	0xbd895ac8	-0.06706768
254	0x3d79b10f	0.06095987
255	0xbd508bdd	-0.050914634

lstm.weight_ih_l1 f4 [512, 128]
0	0x3cfacefb	0.030616274
1	0x3d9b0275	0.07568828
2	0xbdd46a5b	-0.10371848
3	0xbd419b37	-0.047267165
4	0xbd7ab917	-0.06121167
5	0x3d04c1e3	0.032411467
6	0x3d178e76	0.037001096
7	0xbdcae71a	-0.099073604
8	0xbce6af21	-0.02815968
9	0xbd7c5794	-0.06160696
10	0xbc828c97	-0.01593618
11	0xbdca26ea	-0.098707035
12	0x3ba2e62f	0.0049712877
13	0x3d91244d	0.07087002
14	0x3ce61604	0.02808667
15	0xbc526182	-0.0128406305
16	0x3c2da8e3	0.010599348
17	0xbd7f7d4a	-0.062375344
18	0x3de025e7	0.10944729
19	0xbd1fd490	-0.039021075
20	0x3d8f12c5	0.06986002
21	0x3c867852	0.016414795
22	0x3db09455	0.08622042
23	0x3d26e9e8	0.040750414
24	0x3d65ab7a	0.056071736
25	0x3ce67087	0.02812983
26	0x3cd6e813	0.026233708
27	0xbc637555	-0.013882955
28	0xbd592e27	-0.05302253
29	0xbcb2dc74	-0.021833636
30	0xbd75a410	-0.059970915
31	0xbbfb0f83	-0.0076617613
32	0x3d82712a	0.063692406
33	0x3dae17f9	0.08500666
34	0x3d5941ef	0.053041395
35	0xbd7904c8	-0.060795575
36	0xbd6afa60	-0.057367682
37	0x3d856c2b	0.06514772
38	0x3d9dad34	0.076990515
39	0x3cad7d73	0.021177983
40	0x3d139534	0.036030963
41	0x3b1bab3b	0.0023753184
42	0x3d51044a	0.05102948
43	0xbd784d39	-0.06062052
44	0xbd280075	-0.04101606
45	0xbdb0a0dd	-0.08624432
46	0x3cf54ff2	0.029945347
47	0x3dbcb2e1	0.09213806
48	0xbb4ad0d6	-0.003094723
49	0x3cb23fae	0.02175888
50	0x3da01e93	0.078183316
51	0x3d077cff	0.03307819
52	0x3be1ce10	0.0068910196
53	0xbdae846a	-0.0852135
54	0x3bc0d577	0.005884822
55	0xbd4deb7b	-0.0502734
56	0xbd443c29	-0.047908936
57	0xbda47d41	-0.08031703
58	0x3ba96f40	0.0051707327
59	0xbd414142	-0.047181375
60	0xbd80494f	-0.062639825
61	0x3d1124f1	0.03543562
62	0xbb9492f3	-0.0045341193
63	0x3d2d153f	0.04225659
64	0x3c203bd4	0.009779889
65	0xbd7de1ff	-0.061983105
66	0xbd7c15f0	-0.06154436
67	0xbc801358	-0.015634224
68	0x3ced9655	0.029002348
69	0x3d2519d6	0.040307842
70	0x3d610c2a	0.05494324
71	0xbd61c37d	-0.055118073
72	0xbd541aa2	-0.05178321
73	0xbda6670e	-0.08125125
74	0x3cf31f51	0.029678019
75	0xbd093fe5	-0.0335082
76	0x3d15af10	0.036543906
77	0x3dc84d90	0.09780419
78	0x3d708d58	0.058728546
79	0xbd10da06	-0.035364173
80	0xbdb4886b	-0.08815082
81	0x3b89d094	0.0042057727
82	0xbd618ba1	-0.0550648
83	0x3ab34e21	0.00136799
84	0x3d0dc58c	0.034612224
85	0x3d77f662	0.060537703
86	0x3d591b9e	0.053004853
87	0x3db9ba54	0.090687424
88	0x3d2c4505	0.04205801
89	0xbd95b095	-0.07309071
90	0xbd6d5a71	-0.05794758
91	0x3d875d89	0.06609637
92	0xbd5c1ac4	-0.053736463
93	0x3b680089	0.003540071
94	0x3ccfe4ed	0.025377715
95	0xbc7694f3	-0.015050161
96	0x3c6349af	0.013872548
97	0xbd51ffa6	-0.051269196
98	0x3bf2a512	0.007404932
99	0xbcce1f3a	-0.025161374
100	0xbd43e77e	-0.04782819
101	0xbd821648	-0.06351906
102	0xbcecf882	-0.028927092
103	0xbd554cb5	-0.052075107
104	0xbd64c563	-0.055852305
105	0x3daa6ccc	0.083215326
106	0x3d3ce5ac	0.04611747
107	0x3cb7877a	0.022403467
108	0xbd449374	-0.047992185
109	0xbdb35024	-0.0875552
110	0xbc024ebb	-0.007953341
111	0x3d0d83c8	0.034549505
112	0xbd92722a	-0.07150681
113	0xbc51e5b8	-0.012811117
114	0x3da5a331	0.08087767
115	0xbdd010f6	-0.10159485
116	0x3d151693	0.03639848
117	0xbda2444e	-0.07923184
118	0x3d4f973c	0.050681338
119	0x3c60db48	0.013724156
120	0xbb34abdb	-0.0027568254
121	0xbb19d627	-0.0023473592
122	0xbb213b3b	-0.0024601955
123	0xbd68e469	-0.056858454
124	0xbd0b85d3	-0.03406317
125	0x3d690a26	0.056894444
126	0x3d0c9228	0.034319073
127	0x3c37b82c	0.011213344
128	0x3d848099	0.064698406
129	0x3c7c84c7	0.015412516
130	0xbd441e6c	-0.047880575
131	0xbd246efe	-0.040144913
132	0xbb3d8fd5	-0.0028924842
133	0x3d162fce	0.036666684
134	0xbc9b074e	-0.018924382
135	0x3c4ae132	0.012382792
136	0xbdcaa7b8	-0.09895271
137	0xbcba39b5	-0.022732595
138	0x3d4a5238	0.049394816
139	0x3d85d396	0.065344974
140	0x3d5d1c38	0.05398199
141	0xbd5c5333	-0.053790282
142	0xbd0d516a	-0.03450147
143	0xbd1227c3	-0.03568245
144	0x3c4d5735	0.012532999
145	0xbbae6d91	-0.00532312
146	0xbdb035b8	-0.08603996
147	0xbc57c0ca	-0.013168523
148	0x3c9f3043	0.019432193
149	0x3d4404d3	0.047856163
150	0x3d31f31c	0.043444738
151	0x3cfd9787	0.030956043
152	0xbd737d5c	-0.059445724
153	0xbd5f6f84	-0.05454971
154	0xbd6429b0	-0.05570382
155	0xbcacd259	-0.021096395
156	0xbdc75e6b	-0.09734806
157	0x3cfd4e01	0.030920984
158	0x3d370327	0.04468074
159	0x3d940dac	0.0722917
160	0xbd0e9a3f	-0.03481507
161	0xbdbabec5	-0.09118418
162	0x3bb578a2	0.005538062
163	0xbd3c8673	-0.04602666
164	0x3c4175f2	0.0118079055
165	0xbdaafecd	-0.08349381
166	0x3c6c6705	0.014428859
167	0x3d521ae2	0.05129517
168	0xbd068dae	-0.03284996
169	0x3ccc145f	0.024912057
170	0x3b0ad227	0.002118239
171	0xbd39f431	-0.045398895
172	0xbbd3e7c2	-0.0064668367
173	0xbce956c5	-0.028483758
174	0xbd236f8d	-0.039901305
175	0xbd1aa14e	-0.03775149
176	0xbd7f0353	-0.06225903
177	0xbcfcb6f6	-0.030848961
178	0xbce85937	-0.028362853
179	0x3d00c870	0.031441152
180	0x3a3f6d53	0.00073023624
181	0x3ddb3955	0.107042946
182	0x3d054af9	0.032542203
183	0xbdcaa478	-0.09894651
184	0x3cda9155	0.026680628
185	0xbd83c855	-0.06434695
186	0xbd436baa	-0.0477101
187	0xbd8e0036	-0.06933634
188	0x3d8f4d22	0.06997134
189	0xbbc58e2e	-0.006028912
190	0x3d4e8fc9	0.050430093
191	0xbca77ade	-0.02044433
192	0xbcf555e5	-0.029948184
193	0xbd46fa62	-0.048578627
194	0x3cb32e84	0.021872766
195	0xbce16aef	-0.02751681
196	0xbc88d9de	-0.01670545
197	0x3a9b23e9	0.0011836264
198	0x3c888562	0.016665164
199	0x3dbc9d8d	0.09209738
200	0x3dc33d22	0.095331445
201	0xbd7ccac9	-0.06171683
202	0x3d7ff76b	0.062491816
203	0x3c6fe3c5	0.014641707
204	0xbd47c8db	-0.048775535
205	0xbdca7b01	-0.098867424
206	0xbdce790d	-0.10081682
207	0x3d6033a8	0.054736763
208	0x3d25d9a2	0.040490754
209	0x3dcd170a	0.1001416
210	0xbd6fe515	-0.05856808
211	0xba1fefc1	-0.0006101095
212	0x3d67aa5a	0.056558944
213	0xbd3b1a87	-0.045679595
214	0xbd9128af	-0.07087838
215	0xbd0a82b9	-0.033816073
216	0x3de16fb1	0.110076316
217	0xbd722e25	-0.059126038
218	0x3c8d58f0	0.017254323
219	0x3de33ccc	0.110955805
220	0xbc89640c	-0.016771339
221	0x3c936c56	0.017995995
222	0xbdb96923	-0.09053256
223	0x3c13edce	0.009028865
224	0xbd49fec8	-0.049315244
225	0x3d9ecd42	0.077539936
226	0x3d1a516a	0.0376753
227	0xbd62636d	-0.0552706
228	0x3dbf4aa0	0.093404055
229	0xbd35623e	-0.044283144
230	0x3dcbca75	0.09950725
231	0x3cf28ecc	0.029609106
232	0xbd31244c	-0.043247506
233	0xbb3e4eca	-0.002903866
234	0xbd22a0a9	-0.039704
235	0x3d74bb83	0.059749138
236	0xbd81a5aa	-0.06330426
237	0x3cd1663e	0.025561448
238	0xbce3f4e5	-0.027826736
239	0xbd813ee6	-0.06310825
240	0x3d82d102	0.06387521
241	0x3bfaa9c8	0.007649634
242	0x3d2ec5f5	0.042669255
243	0xbd588939	-0.05286524
244	0x3d21b62c	0.039480373
245	0x3d12c690	0.035833895
246	0x3d188f54	0.037246063
247	0x3dba6820	0.091018915
248	0xbd3659ef	-0.04451936
249	0x3dbf916c	0.09353909
250	0xbd607d8e	-0.05480724
251	0x3cff4e53	0.031165278
252	0x3ca6d13c	0.020363443
253	0xbd337dd7	-0.043821182
254	0x3c81d618	0.015849158
255	0xbd09a006	-0.033599876

lstm.weight_hh_l1 f4 [512, 128]
0	0x3da43576	0.08018009
1	0x387dd2fe	6.0516402e-05
2	0xbdaab901	-0.08336068
3	0x3db7f5ba	0.089824155
4	0x3dba8bbe	0.09108685
5	0xbd26516b	-0.04060499
6	0x3cfa8194	0.030579366
7	0x3dbbeca2	0.091759935
8	0xbd95e8ed	-0.07319818
9	0xbdb75f85	-0.08953766
10	0x3cc741cf	0.024323372
11	0xbc9aa559	-0.018877672
12	0xbd9b47a5	-0.075820245
13	0xbd7c11ee	-0.061540537
14	0x3d0146e0	0.031561732
15	0xbdbb28cc	-0.09138641
16	0x3d4e096b	0.05030195
17	0x3d8e69d4	0.06953779
18	0x3caae94a	0.020863194
19	0xbd8f9f93	-0.07012858
20	0x3d605e1c	0.05477725
21	0xbdacf1d6	-0.08444564
22	0x3bc38c91	0.0059676846
23	0x3d91b826	0.07115202
24	0x3d8721c6	0.06598239
25	0x3d894b1c	0.06703779
26	0xbd5ba919	-0.05362806
27	0x3d4f3aee	0.05059331
28	0x3d1b6c21	0.037944917
29	0x3ca51312	0.020150695
30	0xbd600427	-0.05469146
31	0x3cc5adf6	0.024130803
32	0x3d436e6e	0.047712736
33	0xbcc1bb53	-0.023648893
34	0x3daf3534	0.085550696
35	0x3d5e5b26	0.054286145
36	0xbce802e2	-0.028321687
37	0x3dc27099	0.094941325
38	0x3d193c47	0.037411
39	0x3ce23fcd	0.027618313
40	0xbcf7fbf7	-0.030271513
41	0x3d07db9b	0.033168416
42	0x3da4c92f	0.08046185
43	0xbc562360	-0.0130699575
44	0x3cb081e0	0.021546304
45	0x3c6ce229	0.014458218
46	0xbd3bc44e	-0.045841508
47	0x3da358c4	0.07975915
48	0xbcf1bb2e	-0.0295082
49	0xbc64a0f7	-0.013954393
50	0xbd219e05	-0.03945734
51	0xbc89e589	-0.016833084
52	0xbd185a5a	-0.03719554
53	0x3d747358	0.059680313
54	0xbc4a9137	-0.0123637235
55	0xbda7e3e7	-0.08197766
56	0x3d371d85	0.044705886
57	0xbc5086c1	-0.01272744
58	0xbcb5171c	-0.022105746
59	0xbd9f755d	-0.07786057
60	0xbc6aa416	-0.014321348
61	0x3d781107	0.060563114
62	0xbd84218c	-0.06451711
63	0xbd9f7b26	-0.077871606
64	0x3d65a0cd	0.056061555
65	0x3d03c5f6	0.032171212
66	0x3d3176ca	0.043326177
67	0x3d164a7d	0.03669213
68	0xbd2f4cf3	-0.042797994
69	0x3cd742f4	0.026277043
70	0x3dba8cb2	0.09108867
71	0x3d69d80b	0.0570908
72	0xbce12953	-0.027485525
73	0x3d28b164	0.041184798
74	0x3bc04abd	0.0058682845
75	0xbd2efb88	-0.042720348
76	0x3d57da64	0.052698508
77	0xbd7bb5cd	-0.061452676
78	0x3db72e66	0.08944397
79	0xbd9beef6	-0.076139376
80	0x3c8ab1ed	0.016930545
81	0xbd471da8	-0.048612267
82	0x3db90a3c	0.09035155
83	0xbd8fa16a	-0.07013209
84	0xbd7b8dba	-0.061414458
85	0xbd5014b6	-0.050801
86	0x3d1c08bf	0.03809428
87	0x3db62561	0.08893848
88	0x3cd65699	0.02616434
89	0x3d95b78e	0.07310401
90	0xbac25b00	-0.0014828146
91	0xbd0b4a37	-0.034006324
92	0x3d8538cc	0.06504974
93	0xbd2b6e8a	-0.041853465
94	0x3c894f22	0.016761366
95	0xbdab9a2d	-0.08379016
96	0xbdc49f46	-0.096006915
97	0x3d9a08f6	0.075212404
98	0x3d084476	0.033268414
99	0xbdc6bb73	-0.09703722
100	0x3b92d77a	0.004481253
101	0x3d446c4b	0.04795484
102	0xbc992afa	-0.01869725
103	0x3d35debd	0.044401873
104	0xbd957cd6	-0.07299201
105	0xbc90e962	-0.01768941
106	0xbcf297f5	-0.029613474
107	0xbb30dbb4	-0.0026986422
108	0xbda6f8b4	-0.08152905
109	0x3d8ac09f	0.06775021
110	0x3d9f1819	0.07768268
111	0xbc123d34	-0.008925725
112	0x3d7d58b0	0.061852157
113	0xbc127561	-0.008939118
114	0xbd877566	-0.06614189
115	0x3d260bbc	0.040538535
116	0x3d0b2e92	0.03397996
117	0x3d7174fe	0.058949463
118	0x3b9e2db8	0.0048272274
119	0x3db0eb7d	0.08638666
120	0xbca57bd3	-0.020200646
121	0x3d04619c	0.03231965
122	0xbd396cf2	-0.045269914
123	0x3cb27e7b	0.021788826
124	0x3c91f84f	0.017818598
125	0xbd5f90cf	-0.05458146
126	0xbd538747	-0.051642682
127	0xbc3f0fec	-0.011661511
128	0x3daa129d	0.083043315
129	0xbd934381	-0.0719061
130	0xbd0e5435	-0.034748275
131	0xbcdf676f	-0.027271
132	0xbd1f306b	-0.038864534
133	0x3c390959	0.011293733
134	0x3ddf06c0	0.10889959
135	0x3d71f584	0.059072033
136	0xbd9b4592	-0.07581629
137	0x3d96b8ae	0.073594436
138	0xbd6eb11f	-0.058274385
139	0x3d94bbbe	0.072623715
140	0xbd1851e0	-0.037187457
141	0xbd6f6b47	-0.058451917
142	0xbcebd35a	-0.028787304
143	0x3d561ca3	0.052273404
144	0xbd78a1c7	-0.060701158
145	0x3d551fd8	0.05203232
146	0xbd802eca	-0.06258924
147	0x3da7183c	0.08158919
148	0xbd4f2131	-0.050568763
149	0x3ce10307	0.027467264
150	0xbcaad66c	-0.020854197
151	0xbd2d9c91	-0.04238564
152	0x3cb90fe0	0.022590578
153	0xbc54ea46	-0.012995308
154	0xbd16982c	-0.036766216
155	0xbc5f09c2	-0.013613166
156	0xbdbc97d3	-0.09208646
157	0x3c8d612a	0.017258245
158	0x3d4462a7	0.047945645
159	0xbd9d269e	-0.07673381
160	0x3c91a1b0	0.017777294
161	0xbc7b2822	-0.015329393
162	0x3a5b2950	0.0008360343
163	0xbcd05fe2	-0.025436345
164	0x3ce474a1	0.027887644
165	0xbd1c79b6	-0.03820201
166	0xbce01cda	-0.027357507
167	0xbd90d8e4	-0.070726186
168	0x3cc18ddf	0.02362722
169	0xbd42a3bf	-0.04751944
170	0x3d83d45d	0.064369895
171	0xbcbd800d	-0.023132348
172	0x3ca8fc04	0.020627983
173	0x3d7d85f8	0.06189534
174	0x3d815fea	0.06317122
175	0xbc36cf56	-0.011157831
176	0x3d1b5ad0	0.037928402
177	0xbda537fa	-0.08067317
178	0x3d98b42d	0.07456241
179	0x3d628842	0.055305727
180	0x3da17e1c	0.078853816
181	0xbd3f7154	-0.046738937
182	0xbd890228	-0.066898644
183	0x3d391953	0.045190167
184	0xbcaf0f88	-0.02136971
185	0x3db3968f	0.08768951
186	0xbd80be69	-0.06286318
187	0x3d0c86fd	0.034308422
188	0xbda79955	-0.08183543
189	0xbcc3964a	-0.023875374
190	0x3db4f152	0.08835091
191	0xbc527774	-0.012845863
192	0x3da64aca	0.08119734
193	0x3d97deb8	0.07415527
194	0x3d9d5165	0.076815404
195	0xbd06c503	-0.03290273
196	0xbd0c80d2	-0.03430254
197	0x3d3fdc79	0.04684112
198	0x3d1a7859	0.03771243
199	0x3c38f5d2	0.011289077
200	0x3d5a1387	0.05324128
201	0x3cc6dc6a	0.024275023
202	0xbd800609	-0.06251151
203	0xbd99c0cc	-0.07507476
204	0xbdab6e69	-0.083706684
205	0xbccf634e	-0.025315907
206	0xbd3c067a	-0.045904614
207	0xbd5a4cae	-0.053295784
208	0x3d8b583f	0.06803941
209	0x3b236c5b	0.002493641
210	0xbda149f9	-0.07875437
211	0xbc314881	-0.010820509
212	0x3ba0f5a0	0.0049120933
213	0xbd249473	-0.040180635
214	0x3da1b174	0.078951746
215	0xbd81af74	-0.06332293
216	0xbd8f4a86	-0.06996636
217	0x3cf3758d	0.029719139
218	0x3b2ca6d1	0.0026344548
219	0xbdb60b0f	-0.08888828
220	0x3d33799c	0.043817148
221	0xbd604099	-0.054749105
222	0x3d8aba62	0.06773831
223	0x3be22dff	0.006902456
224	0xbd2982fe	-0.04138469
225	0x3d6fc96d	0.058541704
226	0x3b069fae	0.0020541954
227	0x3dde7fe1	0.10864235
228	0x3db29b29	0.08721001
229	0x3c0a7142	0.008449854
230	0x3cb5b2c3	0.022179967
231	0xbdc3b5f7	-0.095561914
232	0x3b87d65e	0.0041454276
233	0x3ceeaadd	0.029134208
234	0xbd00dc36	-0.03146001
235	0x3dd2f2b7	0.103002004
236	0x3caf1830	0.021373838
237	0xbd552433	-0.052036475
238	0x3d9478f7	0.07249635
239	0x3c4f4d52	0.012652712
240	0xbdb68338	-0.08911747
241	0xbd3e8d75	-0.046521623
242	0xbd9310b6	-0.07180922
243	0x3dc6e3b3	0.09711399
244	0xbae61344	-0.0017553349
245	0xbd7beeb4	-0.061506942
246	0x3c14acb2	0.009074377
247	0x3d7e470b	0.06207947
248	0xbd9c0910	-0.07618916
249	0xbdb4a5c5	-0.088206805
250	0x3d5220a5	0.051300664
251	0xbdd75fe4	-0.105163366
252	0x3d390a35	0.04517575
253	0xbc7728d9	-0.015085422
254	0x3dae6e70	0.08517158
255	0x3b8fbdb9	0.0043866304

lstm.bias_ih_l1 f4 [512]
0	0xbd51e040	-0.051239252
1	0xbca26495	-0.019823352
2	0x3ce7fd78	0.028319106
3	0x3d1a9898	0.03774318
4	0xbdb67987	-0.08909898
5	0xbdaef7db	-0.085433684
6	0xbce2effa	-0.02770232
7	0x3cb4b90e	0.022060897
8	0x3ca000fb	0.019531718
9	0x3d212ca5	0.039349217
10	0xbce74c3d	-0.028234595
11	0xbd0168ca	-0.031594075
12	0x3daefdbc	0.0854449
13	0x3dad3a85	0.08458427
14	0x3da91fe9	0.082580395
15	0x3d90e6c4	0.07075265
16	0x3d58a09a	0.052887537
17	0xbd96e851	-0.073685296
18	0x3cffc4e5	0.031221816
19	0xbda88df6	-0.08230202
20	0x3af8ebed	0.001899121
21	0xbd644f87	-0.055739906
22	0x3dc8c642	0.0980344
23	0x3da0fa3e	0.0786023
24	0x3ce2ada0	0.027670681
25	0x3d8c92b3	0.06863918
26	0xbcfe66b9	-0.031054841
27	0x3da97372	0.082739726
28	0x3d0b6806	0.03403475
29	0x3d887d8d	0.06664572
30	0xbd02af99	-0.031905744
31	0x3cdee136	0.027206998
32	0xbd15f624	-0.03661169
33	0xbdac25e0	-0.084056616
34	0x3cfa611c	0.030563883
35	0x3d88eacc	0.06685409
36	0xbd9a0a4d	-0.07521496
37	0xbc34d376	-0.011036744
38	0x3d74adda	0.05973611
39	0x3d6fc9a1	0.058541898
40	0x3c3e4d62	0.011615129
41	0xbc87e259	-0.016587423
42	0x3bedc563	0.0072561963
43	0x3d125e01	0.03573418
44	0x3dc3ad00	0.095544815
45	0xbd111e37	-0.035429206
46	0x3d48f2ba	0.049059607
47	0xbd155bbb	-0.036464434
48	0x3d8e52a6	0.06949358
49	0x3c2b274b	0.01044638
50	0x3bb627aa	0.0055589275
51	0x3d22915c	0.039689407
52	0x3c536aee	0.012903912
53	0x3d80357f	0.062602036
54	0x3d1624b4	0.036656097
55	0xbdb65a6d	-0.08903966
56	0xbd905be9	-0.070487805
57	0xbd182491	-0.037144247
58	0xbd6581c6	-0.056031965
59	0xbd007fd3	-0.031371903
60	0xbd37afad	-0.04484527
61	0xbd6d0baf	-0.05787247
62	0xbd8c9c93	-0.06865802
63	0x3ab249dd	0.0013602335
64	0xbd610441	-0.054935697
65	0x3d428350	0.04748851
66	0x3db2af74	0.08724871
67	0x3dc91796	0.09818952
68	0xbd3bd0d7	-0.045853462
69	0xbd36f482	-0.044666775
70	0xbd3b07b9	-0.04566166
71	0xbd3cc23c	-0.046083674
72	0x3d860490	0.06543839
73	0xbd6f2fec	-0.05839531
74	0x3d7f59cd	0.0623415
75	0xbd7edfb4	-0.06222506
76	0xbcf20b7c	-0.029546492
77	0xbd5a9601	-0.05336571
78	0x3cdb26ce	0.026751902
79	0x3c89509a	0.016762067
80	0x3cc1ee3e	0.023673173
81	0xbc8aec47	-0.016958369
82	0xbd547bc7	-0.051875856
83	0x3d968266	0.0734909
84	0x3d3ba969	0.04581586
85	0xbd4056e3	-0.04695786
86	0xbd146fc6	-0.036239408
87	0x3b7b2a23	0.0038324676
88	0x3c38dce1	0.01128313
89	0x3aad4c3e	0.0013221574
90	0x3a2c7e2c	0.00065800804
91	0x3ce4bd69	0.027922349
92	0xbcde746d	-0.027155126
93	0xbd22cc4b	-0.03974561
94	0x3c8d6b20	0.017262995
95	0x3dc1f61b	0.09470769
96	0x3c9bed1b	0.01903396
97	0x3d87ed66	0.06637077
98	0xbd41fea3	-0.04736198
99	0xbd44a7d1	-0.048011605
100	0x3d644ec0	0.055739164
101	0xbd5355bc	-0.051595435
102	0x3a149114	0.000566737
103	0xbadef1e8	-0.001700935
104	0x3da4143d	0.08011673
105	0xbc32c888	-0.010912068
106	0x3a8292d5	0.0009961972
107	0x3daf36b4	0.08555356
108	0x3d263364	0.040576354
109	0x3aa3656d	0.001246614
110	0xbdb4cf2c	-0.088285774
111	0x3d93c2a7	0.07214861
112	0xbd14ba6f	-0.03631061
113	0xbcbfa0aa	-0.02339204
114	0xbd5e1dc9	-0.054227624
115	0x3ccdf42e	0.025140848
116	0xbcdf1d60	-0.027235687
117	0x3c85c342	0.016328458
118	0xbd56edb9	-0.052472804
119	0x3d100462	0.03516043
120	0x3d8c5065	0.068512715
121	0xbd9d125e	-0.07669519
122	0x3d810128	0.06299049
123	0x3c4af5f6	0.012387743
124	0x3c4f38a3	0.012647781
125	0xbd89674b	-0.06709155
126	0xbd9b001e	-0.07568382
127	0x3c4e9714	0.012609262
128	0xbdb20d7e	-0.0869398
129	0x3c923848	0.017849103
130	0x3b712729	0.0036797023
131	0xbd47de2d	-0.048795868
132	0xbd082532	-0.033238597
133	0xbdbf92b8	-0.09354156
134	0x3d41482e	0.047187977
135	0xbbd75409	-0.006571297
136	0xbd417199	-0.047227476
137	0xbd48de25	-0.04903998
138	0x3bb339df	0.0054695453
139	0x3c43f464	0.011960123
140	0x3d22e1c3	0.039766084
141	0x3b9f8c10	0.0048689917
142	0xbd2f873c	-0.04285358
143	0xbd3f88fe	-0.046761505
144	0x3d2dcff7	0.04243466
145	0xbd62117f	-0.055192467
146	0xbcec545a	-0.028848816
147	0xbd8fcd05	-0.07021526
148	0x3cc90510	0.024538547
149	0xbd7eaa17	-0.06217393
150	0x3c9dde4c	0.019271038
151	0xb8ab23b5	-8.160566e-05
152	0xbdba48e3	-0.09095933
153	0xbd9f5b8e	-0.077811345
154	0x3db1be5d	0.08678887
155	0xbc921a13	-0.017834699
156	0x3c8c3f55	0.017120043
157	0xbc64a77f	-0.01395595
158	0x3d6c27b9	0.05765507
159	0x3d06d9a0	0.032922387
160	0xbc1cd223	-0.009571585
161	0xbc860b88	-0.01636292
162	0xbcafebc4	-0.021474726
163	0x3d51a9c1	0.05118728
164	0xbb817981	-0.003951252
165	0x3d3496f0	0.044089258
166	0x3d02d086	0.031937145
167	0xbd1a6696	-0.03769549
168	0xbd9aa5b0	-0.07551134
169	0xbda8d71f	-0.08244156
170	0x3c449b41	0.011999906
171	0xbd803050	-0.06259215
172	0x3da81ded	0.08208833
173	0x3bf4cedb	0.007470948
174	0x3cea43e2	0.028596822
175	0xbd4e1e6c	-0.05032198
176	0xbd9becb3	-0.07613506
177	0x3c3f5ae7	0.011679388
178	0x3d72a47c	0.059238896
179	0x3d9822ca	0.074285105
180	0xbca7ac89	-0.020468013
181	0xbb7feb21	-0.003905006
182	0xbda536e4	-0.0806711
183	0x3d4d1ecf	0.05007821
184	0x3d92bfa9	0.071654625
185	0x3d5d5de5	0.054044623
186	0xbd0b07a9	-0.033942852
187	0x3d7d95ff	0.061910626
188	0x3db99b76	0.09062855
189	0xbc83b090	-0.016075402
190	0xbd908a13	-0.070575856
191	0x3daa0fd6	0.08303802
192	0xbd23bb2e	-0.03997343
193	0x3d4ce34a	0.050021447
194	0x3d71de20	0.059049726
195	0x3dae3e0d	0.08507929
196	0xbdb44f05	-0.08804134
197	0x3d4a56c9	0.04939917
198	0x3d5db440	0.054126978
199	0xbce4e822	-0.02794272
200	0xbbd2796d	-0.0064231665
201	0xbd22ee64	-0.03977813
202	0x3d606327	0.05478206
203	0xbceded24	-0.029043742
204	0x3d5edb2d	0.05440824
205	0x3d14b76a	0.03630773
206	0xbce8f29d	-0.028436
207	0x3d2a31a5	0.04155125
208	0xbd47879a	-0.048713304
209	0xbd7b8dce	-0.061414532
210	0x3d9f5bab	0.07781156
211	0x3d9f28fe	0.077714905
212	0xbd526714	-0.051367834
213	0xbd87c388	-0.066290915
214	0x3cd5ced7	0.026099605
215	0x3d9b2bec	0.07576737
216	0x3d9b8232	0.07593192
217	0x3d8b39a1	0.06798101
218	0x3d3b3f57	0.045714702
219	0xbd8482d0	-0.06470263
220	0x3cfc8f5a	0.030830074
221	0xbc02d036	-0.007984212
222	0x3d3193c1	0.0433538
223	0xbd7139a2	-0.058892854
224	0x3d854890	0.06507981
225	0xbdab1c4c	-0.083550066
226	0x3c3bc03c	0.011459406
227	0x3ce75bc8	0.028242007
228	0xbd419166	-0.047257803
229	0x3d64fb35	0.055903632
230	0xbd4bd545	-0.049763937
231	0xbd618ced	-0.055066038
232	0x3db2decf	0.087339036
233	0x3c567b39	0.013090902
234	0xbd87e7cf	-0.06636011
235	0xbd4b2f38	-0.04960558
236	0xbd0feeec	-0.035139963
237	0x3d5807a1	0.05274165
238	0x3d14e502	0.03635121
239	0xbd925278	-0.07144636
240	0x3d1fc4d9	0.039006088
241	0x3db33656	0.08750598
242	0x3d9ca185	0.07647995
243	0x3da92253	0.082585
244	0x3db3d807	0.08781438
245	0xbcf81227	-0.030282093
246	0xbd29a2e3	-0.041415107
247	0x3bbf9897	0.0058470475
248	0x3c468f91	0.01211919
249	0xbda82fe2	-0.08212258
250	0x3c9a6e9d	0.018851573
251	0xbd1bd921	-0.038048867
252	0x3b8e6f43	0.0043467595
253	0xbdb54c78	-0.08852476
254	0xbd8e8dd2	-0.06960644
255	0xbd92669d	-0.07148478
