models/AVGO model.pth (torch, 270889 bytes, 5 tensors)

lstm.weight_ih_l0 f4 [512, 1]
00000000: 0e26 243d ae67 a5bd 77e1 433c 2b8a 54bc
00000010: 7015 45bc 4f91 2fbb 392c 463d 052b b03c
00000020: c8e8 533d 71b4 46bb fac2 bb3d 83df 1abd
00000030: 574a 383d 043e b83c 0014 273d 186c b3bd
00000040: 047d 05bd 097d 823d 1160 8b3c e835 8cbd
00000050: cd29 2c3c a056 533c 3449 34bc 9c20 573d
00000060: 2432 003e b80a ac37 ec8e 943b f1f4 b53d
00000070: cbf8 44bd f022 713d 0ccf 743d 2903 fdbb
00000080: ed1b 13bd 3a2b a83d 7b4e 8abc c271 b33d
00000090: 971e c2bc 25ac 0c3d 915b b63d 2223 c7bd
000000a0: c966 d2bc 29e0 403c 8375 003d 7f30 b73d
000000b0: 3b34 313e 8bce 8cbd 0335 483d 7bfb ff3c
000000c0: 568f 083d c345 6fbc b1cd d03d 102c 903d
000000d0: 0cac 5bbd 73f5 3fbd f097 ce3d 0a8c 513d
000000e0: 62e6 5b3a 7d98 b7bc 8fea b13d e733 ee3d
000000f0: 66ed 4e3e 819d a03d 0461 d33a 0c9a 94bd
00000100: 8ead 00bd f6fb db3d 8875 fabc 0659 083d
00000110: dbef c6bd 764d a63d 4c16 3d3c b175 173d
00000120: 45af 273d 07c0 d8ba af3f 63bd bac1 e73a
00000130: a06e 81bd 2360 063e 89d6 eb3d d4e8 85bc
00000140: bdbe 363d 4af8 5b3d baef 2b3c 288f ce3d
00000150: 981f 593d 3210 9e3d d27e 8bbd 8093 cebc
00000160: 04ce 87bd 404f 273c 6673 5d3c b236 15bd
00000170: b4b8 953c a9eb dabc 1d7b a53d 9060 063d
00000180: 2c3f 9bbc 6124 d83d fafc e53d 4360 4c3d
00000190: f26a f13b 699e 183d 742f bcbd e841 9cbd
000001a0: d1bb 163c 5e28 033e cdbd 50bd b305 153d
000001b0: f2b7 063c 07f5 333d 863e 22bd ae4a 903d
000001c0: 7c86 7e3d 34fb 693d 2bdd 6abd 442e 933c
000001d0: 6623 5b3d 4337 71bd 1ee8 3d3d df34 9abc
000001e0: f01c 403c 9733 76bd 2faf 713d 61b4 0dbc
000001f0: e455 8d3d b98c a33d b0df 9d3c 5ed6 643d
00000200: 98d0 5c3c d414 d0bb 3f55 cc3d 16ad 48bd
00000210: a73d 3d3d 42fe 0a3d f4f8 e6bc 5fa6 0f3e
00000220: 3315 97bc 0642 bbbc 7dd9 803d 6ce5 733d
00000230: 54f3 99bb ba66 3b3b 1cad a9bc b7b6 c7bd
00000240: 8e36 84bd 44f4 2f3d 615c 553c a695 69bd
00000250: 5708 47bd 9379 06bd 8792 afbd f199 5cbc
00000260: ecf7 013e 6e1c 603d 0166 cbbd 643b 8d3b
00000270: 3241 c0bd 9e51 cc3d 424b 2bbd 22c9 a13d
00000280: 428c a1bd f241 3f3d 3e23 763d 246e 95bd
00000290: 31d3 96bd b423 86bc 3102 533d 303f 913d
000002a0: c021 ee3b c0ab b43d 7a18 d6bc c557 c23d
000002b0: 9910 0e3d b9d9 16bd 1ab5 723c 5f9a 15bd
000002c0: 837c 263d 894c 9e3c fbe1 743c fb41 ac3d
000002d0: 6149 58bc bddb 4e3d 1307 94bb 39d4 b4bd
000002e0: 9edb 723d 4d82 c13c 2bf4 eb3d 6619 8c3c
000002f0: fc65 8d3e 6941 34bd aba2 e7bc a20c 4cbc
00000300: 3b5e b63c 4fc5 c33d c66c 173d 6957 2dbd
00000310: a49e 6bbd 009f 15bd ed55 ae3d b40d a7bc
00000320: 6de9 f23c 7432 c6bd e98c aabd 57e8 10bd
00000330: 1f74 87bd 161b fbbc 1483 553d 45f5 e53c
00000340: 5a6e b9bb 9805 1abd d665 6ebd c712 0c3e
00000350: f77b 50bd d03c 133d 95bf 87bd d5bd b4bc
00000360: 4de3 cb3c 420a 833c e641 a4bd 4daf c5bb
00000370: 6647 a53d 0b04 153d d364 113d 7a8a 02bd
00000380: 5dfa babc f60b 6b3c 7e9e ac3d c211 c83c
00000390: 5a19 f03b 2057 e43d ef08 06bd f591 41bd
000003a0: 1db4 113d 84bf 623d e410 ee3d be06 cebd
000003b0: d583 ef3d 5708 12bd 4cd7 153d 86ca 863d
000003c0: 7b73 83bc bdaa 82bc 17d8 573d 1f93 673b
000003d0: c536 8fbd 713c 3cbd 34ea 0a3d 3d89 1dbd
000003e0: c959 fa3d d72f 593d 930e fa3d 6385 d8bd
000003f0: 8626 083c 7d1d ce3d 1564 df3b 7a11 34bd
0.040075354 -0.08076416 0.0119556105 -0.012972395 -0.012029037 -0.0026789492 0.048382018 0.021504888
0.05173567 -0.0030319954 0.09168048 -0.037810814 0.04499277 0.022490509 0.040790558 -0.087608516
-0.032589927 0.06371505 0.017013581 -0.06846219 0.010508013 0.012899071 -0.011003781 0.052521333
0.12519127 2.050899e-05 0.004533639 0.088846095 -0.04808883 0.05887121 0.059767768 -0.007721324
-0.035915304 0.0821137 -0.016883126 0.08761932 -0.023696227 0.034343857 0.08904184 -0.09723498
-0.025683777 0.011772194 0.031362068 0.08944797 0.1730508 -0.068753324 0.04887868 0.031247845
0.03333982 -0.014604035 0.101954825 0.07039654 -0.053630874 -0.046864938 0.100875735 0.051158942
0.0008388517 -0.02241158 0.086873166 0.11630993 0.20207748 0.078425415 0.0016126935 -0.072559446
-0.031415515 0.10741417 -0.030573621 0.033288024 -0.097137176 0.08120243 0.0115409605 0.036977474
0.040938634 -0.0016536721 -0.055480655 0.0017681636 -0.06319928 0.13122611 0.11515529 -0.016346373
0.044615496 0.053703584 0.010494167 0.10085899 0.053008646 0.07717933 -0.068112984 -0.025216818
-0.06631091 0.010211766 0.013516283 -0.036429115 0.01827655 -0.0267237 0.080801226 0.032806933
-0.018951021 0.10553814 0.11229892 0.04989649 0.007367485 0.037260447 -0.091887385 -0.07629758
0.009200052 0.12808368 -0.050962258 0.03638239 0.008222567 0.04393485 -0.03961041 0.07045494
0.062139973 0.05712433 -0.05733983 0.017966397 0.053500555 -0.058890592 0.046363942 -0.018824039
0.011725649 -0.060107794 0.05900496 -0.008648963 0.06901148 0.07985825 0.019271702 0.0558685
0.013477467 -0.006350139 0.09977197 -0.048993193 0.046201374 0.033933885 -0.028194882 0.1402831
-0.018442726 -0.02285863 0.062914826 0.059544966 -0.0046981964 0.0028595165 -0.020712428 -0.09751647
-0.06455718 0.04295756 0.013022513 -0.05702748 -0.048591938 -0.032830786 -0.0857287 -0.013464437
0.12692231 0.054714613 -0.09931565 0.0043100584 -0.09387435 0.09976505 -0.04181982 0.07899691
-0.0788808 0.04669375 0.060092203 -0.07296398 -0.073645 -0.016374446 0.05151576 0.0709213
0.007267207 0.08821821 -0.026134718 0.09489397 0.034683798 -0.03682873 0.014813686 -0.036524173
0.040646087 0.019323604 0.014946456 0.08411022 -0.013201089 0.050502528 -0.004517445 -0.08829541
0.059291475 0.023621703 0.11521181 0.017101955 0.2761687 -0.044007692 -0.028275808 -0.012454184
0.02226173 0.09559118 0.03696897 -0.04231969 -0.05752434 -0.036528587 0.08512483 -0.020392276
0.029652322 -0.09677592 -0.08327658 -0.035377827 -0.06613945 -0.030652564 0.05212696 0.028071055
-0.005658907 -0.03760299 -0.058202587 0.13679038 -0.050899472 0.035946667 -0.06628338 -0.022063175
0.024888659 0.015996102 -0.08020382 -0.0060328604 0.08070259 0.03638081 0.035496544 -0.031870343
-0.02282446 0.014346113 0.084286675 0.02442253 0.007327241 0.1114943 -0.032723363 -0.047258336
0.03557216 0.055358425 0.116243154 -0.1005988 0.11695067 -0.035652485 0.036582276 0.06581597
-0.016046276 -0.015950555 0.052696314 0.0035335494 -0.06992868 -0.04595608 0.03391476 -0.03846096
0.122241564 0.05302414 0.12209811 -0.105723165 0.008309966 0.10064218 0.0068173506 -0.04396198

lstm.weight_hh_l0 f4 [512, 128]
00000000: 259a 9ebd fd0b 86bd 915a 383d a626 093d
00000010: 101c 443d 7a37 293d df94 b63d 5774 3b3d
00000020: dd29 0a3b 746b 433d 96d1 9bbd e9fa 8f3d
00000030: 2efa b63c ed1f c33c 2673 abbd 6a26 80bd
00000040: bef4 4cbd bf77 08bd bff5 2b3c be6f b43d
00000050: 316d c3bc 41d1 9ebc f1c4 8c3d 4970 b53b
00000060: 649b 503d 82fc fbbc 388b c7bc 20b9 ac3d
00000070: b9a0 8abd b3e2 ecbc 861e cabd 40db f93c
00000080: 5900 ccbd be5e 63bd f287 f03c 58af 52bb
00000090: 4402 653c 732f aabd 530e 223d 8a6c f3bc
000000a0: 3cf4 3fbc a316 5fbd 70a5 8cbd a95f 993d
000000b0: e5f5 ad3c e955 9c3d c4a3 87bd b402 ae3c
000000c0: 8926 85bc 1a97 9a3d 5a03 063c 63a6 943c
000000d0: 8870 8239 1fea 653d c251 9bbd 6730 0f3c
000000e0: 1d4f 2e3c bf90 8bbd ca44 903d c7bc 96bd
000000f0: 1a9f 7bbc 0097 8dbd d40b f6bb 82b9 5e3c
00000100: 8fe0 943d c06a 223c 49d6 8e3c 1f7f 333d
00000110: 897f 013d e07c 8e3d a42c 373c f532 87bd
00000120: 9acd ab3d 6bd1 0f3d 3a56 82bd 3913 8f3d
00000130: 2c9f f73b a7b9 ac3c cb20 adbd 4750 b0bc
00000140: e7e9 1a3c f213 7abc 1e47 3b3d 4907 6f3b
00000150: 94c2 433d 5f77 9cbd 642d 19bd 148a b73c
00000160: 0d10 003c 330d a8bc b475 32bd 1ee8 7dbd
00000170: 0823 e5bc 20a4 04bd 03fd d53c cc21 a63d
00000180: f70a f93c 7e2f 323d bb5a aa3d 7e9d bb3d
00000190: 1d80 a83d f689 21bd 7624 51bd 6522 8dbb
000001a0: 96b3 b83d 73e9 23b9 83f2 40bd c9aa 84bd
000001b0: cfc0 773d 986a 21bd 3517 b53c 0ef0 9cbd
000001c0: 577a b23d 32f0 9abd 71f0 913d 6fae 993d
000001d0: 8e65 863c db4b a2bc 53d7 9bbd 2e03 46bd
000001e0: ff71 16bd 5c3b 9c3d 312a 9fbd b540 b1bd
000001f0: def6 2a3d f02f bd3d 4c39 6cbc 871e 8939
00000200: eeac d7bc f917 16bd 62b3 52bb 2209 c4bc
00000210: 4ef8 a53d d1f8 71bd eb48 3abc f58e 053d
00000220: 9ea2 4a3c 8c2e 9a3c c726 b33d 4f5b 28bd
00000230: 84e4 9bbd 475c 7d3c 1f34 4ebd b6bc 29bd
00000240: 10b7 8cbd bab0 78bd b91e 7b3d 3bb1 213d
00000250: 7695 1b3d c88d 11bb 35c3 a63b 0be4 85bd
00000260: fcdc 4cbc b933 4b3c 08f1 bb3c 6a9a 46bd
00000270: a30a 893d 9423 2d3d 9736 f73b 5bdb 07bc
00000280: d51f a6bd bdbe d3bc cf47 7dbd d1d5 8ebd
00000290: 2133 26bd c1a8 86bd 8b47 7ebd 8cfe 0a3b
000002a0: 2049 8e3b 4955 6fbd 0e47 3c3d bbcd a3bd
000002b0: 8700 453d 94c2 c3bc d1ba 88bd bde8 e33b
000002c0: 4b1c e7bc b9bb 92bd f0c4 82bd fdb2 01bd
000002d0: da05 483d eac6 73bc cd22 8e3d 1bd3 813d
000002e0: 6816 8abd b0c1 b5bc 15c3 5bbd 3db4 8e3d
000002f0: a3a8 27bd 85d0 b3bd f1ca 6b3c 3267 983c
00000300: 451a 6d3d 0d70 edbb b964 3abd 7d5a a13d
00000310: ca24 303d 59c0 b33d 612b 30bd afe1 433d
00000320: 8be4 32bd 3032 b6bb 8afe 1a3d 9b49 5b3c
00000330: 33dc fbbc f798 523c c5fd fcbc 43bf 503d
00000340: 80fa 82bd 01d3 a03d d319 443d 424a 41bc
00000350: 92d1 803c 8792 8ebc f03a b2bd 34a9 92bc
00000360: 2124 3c3d 0d98 ffbb f2d6 c73c 0d15 d63c
00000370: 2032 683d a6e3 a8bd 70f9 b9bd 7606 90bc
00000380: 360f 7abb 1f27 dcbc 35d4 48bd 9a54 fe3c
00000390: 055b 503d f344 433a 4ba4 113d 9cb8 bebd
000003a0: e212 dabc 6789 713d 7e5b 113d a157 083d
000003b0: 5c55 57bc b8f1 9a3d 058c ea3c 3e64 933c
000003c0: 171c 943d f8b3 8f3d ab88 4ebd f9f7 223d
000003d0: 18bf 97bd 70b2 33bd 8afa 923d dc27 653c
000003e0: ac8e ccbd c709 8bbd 1fcf c7bd 38e2 793b
000003f0: 6e4a 643c dfc3 23bd ae4e 38bc 8ad8 3cbd
-0.077442445 -0.06545255 0.045008246 0.033484124 0.047878325 0.041312672 0.08915114 0.045765247
0.0021082081 0.047709897 -0.07608335 0.07030279 0.022336092 0.023818934 -0.08371572 -0.06257327
-0.05003809 -0.033317324 0.010495602 0.08810376 -0.023855777 -0.01938689 0.06873501 0.005537067
0.050929442 -0.030760054 -0.024358377 0.08433747 -0.06768937 -0.028916692 -0.09869103 0.030500054
-0.09961004 -0.055510275 0.029361699 -0.003214797 0.013977591 -0.083098315 0.039564442 -0.029714841
-0.011715945 -0.054464947 -0.06867492 0.07488949 0.021235416 0.076335736 -0.06623033 0.021241523
-0.016253727 0.075483516 0.00817951 0.018145746 0.00024879375 0.05613148 -0.075839534 0.008739567
0.010638979 -0.068147175 0.070443705 -0.07360225 -0.015357757 -0.069135666 -0.0075087342 0.013594033
0.07269394 0.0099131465 0.017436163 0.043822404 0.031615768 0.06957412 0.011180077 -0.06601516
0.08388825 0.035111826 -0.06364103 0.06986088 0.0075568166 0.02108462 -0.084535204 -0.021522654
0.009455181 -0.015263544 0.04572212 0.0036472848 0.047792986 -0.07639956 -0.037396803 0.022404708
0.007816327 -0.020514106 -0.04356928 -0.061988942 -0.027970806 -0.032383084 0.026121622 0.08111915
0.030400736 0.043502323 0.08318087 0.091608986 0.08227561 -0.03943821 -0.051060162 -0.0043070787
0.09018628 -0.00015631858 -0.047106277 -0.06477887 0.06048661 -0.039408296 0.022105793 -0.07662974
0.08714741 -0.07565345 0.07125939 0.07503974 0.016405847 -0.019811561 -0.07609429 -0.048342876
-0.03672981 0.076285094 -0.07771719 -0.0865492 0.041739337 0.09237659 -0.0144179575 0.0002615342
-0.026327576 -0.036643956 -0.0032150378 -0.023930136 0.08104001 -0.05907518 -0.011369924 0.032607038
0.0123678725 0.018821023 0.087476306 -0.041102704 -0.07611945 0.015463895 -0.050342675 -0.041439734
-0.06870854 -0.060715415 0.061308596 0.03947566 0.037984334 -0.0022209752 0.0050891885 -0.06537636
-0.012503859 0.012402468 0.022942081 -0.048487104 0.06691482 0.042270258 0.0075443494 -0.0082920445
-0.0811154 -0.025847787 -0.06183606 -0.06974376 -0.040576104 -0.06575156 -0.062079947 0.002120885
0.0043422133 -0.058430944 0.0459662 -0.07998224 0.048096206 -0.023896493 -0.066762574 0.006955235
-0.028211733 -0.071647115 -0.06385219 -0.031664837 0.048833705 -0.014878968 0.069402315 0.06339093
-0.06742555 -0.022187084 -0.05365284 0.069679715 -0.04093231 -0.08780006 0.014391647 0.018603895
0.05788638 -0.0072460235 -0.045506213 0.078785874 0.043003835 0.08776922 -0.04301012 0.04782265
-0.043674987 -0.005560182 0.037840404 0.013384248 -0.030744648 0.0128538525 -0.030882725 0.05096365
-0.06395435 0.07852746 0.04787619 -0.01179749 0.01572493 -0.017403854 -0.08702648 -0.017902948
0.045932893 -0.0078001083 0.024394486 0.026133085 0.056688428 -0.082465455 -0.090807796 -0.017581206
-0.003815604 -0.026874123 -0.0490305 0.0310462 0.050868053 0.0007448934 0.035557073 -0.09312555
-0.026620332 0.058968928 0.035487644 0.033286694 -0.01314291 0.075656354 0.02863122 0.017992135
0.0723192 0.07016748 -0.050423305 0.039787266 -0.07409495 -0.043871343 0.07176693 0.013986554
-0.0998815 -0.06788974 -0.09756302 0.0038129222 0.013933761 -0.03998172 -0.011249227 -0.046104945

lstm.bias_ih_l0 f4 [512]
00000000: 62c8 6d3d 0b83 a83d 7117 d03c ca08 143e
00000010: 8ccf 723b 8694 693d 78c1 aa3d 2222 913d
00000020: e220 143e 3cc6 6a3c bec0 8c3c 6c79 ac3d
00000030: 283c 813d 005e 813d cdfd 5cbd f1a8 b23d
00000040: bf7c 77ba 71cd 94b9 c013 91bb 5eca 82bd
00000050: a29c c83d e2cb 453d c640 673d 5a9e 2fbd
00000060: 5b9a 9bbd 920b 6c3d e523 833d bc03 33bb
00000070: df07 6f3d e862 143d b0eb 5b3d adeb e7bc
00000080: 3502 463c e75e b03d 8edb 17bd a2fe 833e
00000090: ed6a 323d 2689 2b3d a971 d13d 140e 02bd
000000a0: 28bc a83d 1aaf 4fbd b18c 533c 913b 6e3d
000000b0: 2c15 123c f834 90bd ee9f 70bd 408f bd3b
000000c0: 4c3b b23c 34b4 0f3d 089c 19bd 5a43 07bd
000000d0: 095e 1e3d b1c0 fa3d 4012 7f3c a680 e63c
000000e0: ee02 8b3d 05d2 873d 5f39 04bc a1f9 5fbd
000000f0: 0794 4e3d 28f5 563c 8755 af3c d7de 553d
00000100: e23f 3a3d 3b81 fe3d 5d50 133c 616b 15bd
00000110: 47e5 87bb 05aa b4bc 9959 d73d 3017 a2bd
00000120: 71f7 fe3b 4064 d03b c773 2abb 7f8b ce3d
00000130: e0f5 d3bc 39f1 6eba 7afe 0c3c e7b1 bd3d
00000140: ce08 2b3c 1426 33bb c34f c23c 25bb 063d
00000150: 91f9 44bd e063 f4bc 7852 523c d886 073e
00000160: fc88 ce3d 65cf 113d 9b90 f1bc 1a1e af3d
00000170: 69a0 783d 47e3 4dbd d537 643c 2d15 1abd
00000180: ba8a a43c 13c2 193d 5845 30bc ba1d ae3d
00000190: d2e3 a63d a999 b13d 70d7 d73d acf5 753d
000001a0: 5547 743c 261e cebc d5f7 013d 93b0 bcbd
000001b0: 6cdd a63d ef9b e53d c77c bc3d dab9 47bd
000001c0: 25be 57bb 8565 b0bd 33a3 273d 8ad1 c7bc
000001d0: f05a 1bbd 39c8 97bd 36f1 1f3a 5095 a63d
000001e0: 8eb7 f33b 6f82 c4bc 1e8c eb3d 34cc 863d
000001f0: 3212 d83d 1890 00bd a195 173d f101 d53c
00000200: f82e 95bd f683 8aba 6623 8d3d 36fa 393d
00000210: c81b 983c 555e 3dba bc87 993d b44d 71bd
00000220: 7b32 71bd 5533 af3c 0b19 9dbc e4ce 6b3d
00000230: 4d76 66bb 8fa8 17bd c5f8 62bd 9d05 ce3b
00000240: b2f1 ba3d e04f 3e3d 836b b73d 1430 c5bd
00000250: 2048 573d 264f 21bd 7bdf 743c 0515 90bd
00000260: 39b7 92bd bdba 14bd 6b67 e03c 8423 8cbd
00000270: e345 8bbd bc89 743d 14ac 8b3d 7f5c 0abd
00000280: 1e3e 2cbb 2c09 a63a bae7 133d 830d 60bd
00000290: afe1 bd3c f30f 2dbd d0d4 443d 68e3 2abd
000002a0: 1257 83bd 6198 a5bd 21b2 a0bd 888c 243c
000002b0: 6570 a5bd 3daf 9c3c 489f 96bd 51d8 d63c
000002c0: e8cd ce3d 39a3 553d 8852 5e3c 2efe 93bd
000002d0: 03a4 8f3d f55e bb3d a336 c83d 4a7f 5f3d
000002e0: 011b 1c3d d184 adbc 4f4b 0cbd 15e9 febc
000002f0: 8326 113d c3ed 0f3d d5ab 543d 177a 48bc
00000300: 05c6 96bd 3f42 22bd b7d6 8abd f29f 97bd
00000310: 3f6a 5c3d a5bc 823d 6b60 33bc ea78 983d
00000320: 71c7 9a3d b6a3 f33c 3386 713d 4d06 d33c
00000330: ebd2 2a3b c70c 963d 5e98 c1bd a423 82bd
00000340: 6ae6 85bd 20a0 a6bd bcc4 95bd 8ecd 883d
00000350: 7358 aabc 77b4 953d 428c 72bd 51ac 28bc
00000360: dd1b 8fbd 9b97 0ebd cd0f 163d a819 033d
00000370: f250 f33c 29cd eebc 6410 68bc ceaa 12bd
00000380: b0c0 02ba e92b 79bc dd45 a03d 760e 1e3d
00000390: d99a 44bd a29b b2bc 0964 70bd bbeb f33c
000003a0: 686b 333d 8280 9c3c 6b54 9a3d 4579 d8bd
000003b0: aa9b a0bc 0489 a03d 231b 18bc 3aa5 f5bc
000003c0: b8d5 a13d 273f 94bd cb3d c53d 64c8 6c3d
000003d0: 82f7 b03d 6b4a bfbd 4a06 8e39 ed37 b3bc
000003e0: 34d6 633d 66b7 97bd b0ae d43d 41ea 283d
000003f0: 264a 3cbd d5cc 893a d02d bd3d bfff 74bd
0.058052428 0.082281195 0.025401803 0.14456478 0.0037049977 0.05702641 0.083376825 0.070865884
0.14465669 0.014329489 0.01718175 0.08421597 0.06310302 0.06316757 -0.05395298 0.08723629
-0.0009440891 -0.00028381826 -0.004427403 -0.06386255 0.097955 0.04829014 0.056458257 -0.042875625
-0.075978 0.05762822 0.06403331 -0.0027315458 0.058357116 0.036227137 0.053691566 -0.028310621
0.012085487 0.08611851 -0.037074618 0.25780207 0.043559004 0.04187884 0.10226757 -0.031751707
0.08239013 -0.0507041 0.012911961 0.058162276 0.008916181 -0.07041353 -0.05874627 0.005784899
0.02175679 0.035083964 -0.03750232 -0.033023216 0.038663898 0.12243784 0.015568316 0.028137516
0.06787668 0.06631855 -0.008070319 -0.054681424 0.05043414 0.013119973 0.021403087 0.05221447
0.04547108 0.124269925 0.008991328 -0.036479358 -0.004147205 -0.022053728 0.10515136 -0.07914579
0.007780962 0.006359607 -0.002600895 0.100852005 -0.025874078 -0.00091149245 0.008605594 0.09262448
0.010439111 -0.0027335929 0.023719674 0.03289332 -0.048089568 -0.02983278 0.012837045 0.13235033
0.100847214 0.035598177 -0.029487899 0.08550663 0.060699854 -0.050265577 0.013929327 -0.03761785
0.020085681 0.0375386 -0.01075872 0.08501764 0.08148922 0.086718865 0.10539138 0.060048744
0.014909585 -0.02516086 0.03173049 -0.09213366 0.081477016 0.112113826 0.09203487 -0.048761226
-0.0032919731 -0.08613113 0.040927123 -0.024391908 -0.03792852 -0.07411236 0.0006101312 0.08133948
0.007437653 -0.023987977 0.115013346 0.065819174 0.105503455 -0.03138742 0.03700793 0.026001902
-0.07284349 -0.0010567892 0.06891517 0.045404635 0.018567935 -0.00072238344 0.074965924 -0.058911994
-0.058886033 0.021386782 -0.01917698 0.057570353 -0.0035165728 -0.037025984 -0.055413026 0.0062872902
0.09128131 0.046462893 0.08956053 -0.09628311 0.052559018 -0.039382122 0.01494586 -0.07035259
-0.07163853 -0.0363109 0.027393064 -0.068427116 -0.06800439 0.059701666 0.06819931 -0.033779617
-0.0026282142 0.0012667528 0.036109664 -0.054700386 0.023178903 -0.04225154 0.048054516 -0.041720778
-0.06413092 -0.080857046 -0.078464754 0.010043271 -0.08078078 0.019126529 -0.07354599 0.026226195
0.10097867 0.052157614 0.013569482 -0.07226215 0.07013705 0.09148971 0.09776046 0.05456475
0.03811169 -0.021181496 -0.034251507 -0.031117002 0.03543712 0.035138857 0.051921684 -0.01223614
-0.07361988 -0.03961396 -0.06779235 -0.07403554 0.05381226 0.06383637 -0.010948281 0.074449375
0.07557572 0.02974115 0.058965873 0.02575984 0.0026065658 0.07326656 -0.0945289 -0.06354454
-0.065380886 -0.0813601 -0.07312915 0.066798314 -0.020794129 0.073098116 -0.05921579 -0.01029499
-0.069877364 -0.03481255 0.036636163 0.03200689 0.029701684 -0.029150562 -0.014164064 -0.035807423
-0.0004987819 -0.015208223 0.07825825 0.03858801 -0.047999237 -0.021802727 -0.05868915 0.029775491
0.043803602 0.019104246 0.07535633 -0.10570005 -0.019605476 0.07838634 -0.009283814 -0.029986013
0.07902092 -0.07238608 0.09630927 0.057808295 0.08640958 -0.09340366 0.00027089036 -0.021877253
0.055624202 -0.07408027 0.103848815 0.041239027 -0.04596915 0.0010513315 0.09237254 -0.05981421

lstm.bias_hh_l0 f4 [512]
00000000: a93b ce3d 2880 a43d a2ad 7b3c d97c a23c
00000010: 2464 c73c 98bc a23d 3294 55bd 1137 af3d
00000020: bf74 023e 81c1 d8bc f53c bc3c 079c 833d
00000030: 4171 30bc 2eac eb3d 745e 8b3d c194 36bd
00000040: 99e3 913d 34f6 91ba 0e58 f13c c61e 403d
00000050: 7181 703d c345 babd 38fb a43d a6ec a53d
00000060: bacb 2dbc 2366 8b3d 91ad 5dbd 8e0b a7bc
00000070: dba7 dc3d 3492 0b3b 2f97 b53c b671 a3bd
00000080: b8d2 953d b072 3b3d 4333 dabc ee6a 8e3e
00000090: 7174 3fbd a1e9 773d ed17 c5bc 97e9 5d3d
000000a0: e132 283d d5e9 c73d 9a07 aa3c 2930 3abd
000000b0: a7b7 b83d 0cbc 893d d789 643c 1359 4d3d
000000c0: 7f16 883d 39de 773d 55a8 903d ed75 d0bc
000000d0: 237f 963a 516b 4a3d 4694 7f3d 8e4a 4d3c
000000e0: 2130 46bd 5fec 12bd 9cc2 19bd 81bf 76bd
000000f0: 94e1 3d3d a766 ba3d fe80 913d a52b f53d
00000100: de2d 663d 3dad 273b e3cc cb3d 8b2e 933b
00000110: 3b6d afbc cb84 e33d f933 c03d 5184 393c
00000120: 6541 d0bc ce2b d63d 4825 003c eb7f 9e3d
00000130: ae25 9bbd 8aea a5ba 019f 013d 65a5 063d
00000140: c95a 47bc 9997 0c3d e644 833d 2d44 01bd
00000150: 5884 16bc 1bc2 b23d 1438 2dbd 084e 1d3e
00000160: 206a aebb 9248 96bd 5fbb 763d 5ea3 b03d
00000170: e855 86bc 2fc8 d9bc 2f37 b33c e367 18bd
00000180: 03b2 9a3c 9617 dbba 0a55 15bd be60 f03c
00000190: 3808 6bbd 6a4f 4e3d 18d4 b93d 9d83 d03b
000001a0: 4708 bfbd 7e1a 803d cd77 49bd c32d b0bd
000001b0: 9c56 ae3d 5039 303d 8bdd 893c 7649 783d
000001c0: c305 923d cb93 d2bc 5bf5 dabc 28cb 7a3d
000001d0: b20e 05bd 5167 b4bd 3e66 fa3d 0f60 c53c
000001e0: 622d 1a3b e309 dabc 9e61 d23c 5ec1 5f3d
000001f0: 2822 ee3d fecc 473d f7cf 08bd 8e8d 9cbd
00000200: 1a0a c13c c654 b13d f47a 983d 9492 323d
00000210: b917 ecbc f376 5c3d 2809 abbc 8224 d63d
00000220: f119 48bd 3cad efbc aeb9 dd3c 5759 84bd
00000230: 63fc db3c c9db a53d 650e 9b3d 0cdb f23c
00000240: 1af0 f1bb db6e 3ebd 5e8d 8fbc 3418 b2bd
00000250: 08ff 3e3d d4f6 cdbd 9a5a 763d 3017 7dbd
00000260: 91a9 0e3d 8fa4 81bc 9bc3 f83c 0104 463c
00000270: e26f 823d 4bd6 903d 58c8 64bc 7aa6 903d
00000280: 970e 7b3c 9a99 123c dc67 9c39 8e96 c83d
00000290: 8272 b9bb 0522 f93c 59ec 593d 7381 313c
000002a0: 2125 88bd c89c bdbc 00d6 9abd 898e d63c
000002b0: e4be a43d b770 3cbc b70b a9bd 1be6 62bd
000002c0: ca55 2bbd a31e 20bc dbb5 35bc d225 043d
000002d0: 36da dc3c ecec 473d 69c5 033d 695b 203d
000002e0: fe2e c13c bdb2 79bd 41a3 c33c 1a69 12bb
000002f0: 0cc7 ff3d ab4c 47bd cf99 3e3d 01ef 583d
00000300: 6692 aebc 5f92 a93d 3534 b33b 5996 bd3c
00000310: 3a27 3cbb 43a1 c63d 6c48 693d dffe 543d
00000320: 779c 78bd 289c d5bc 20db 863d 8f15 283c
00000330: da0e 463c e76a 6f3d f433 34bd 5256 893d
00000340: 78fa 093d 677b b0ba d198 5c3d 1bb6 c33b
00000350: 5398 8a3d bbd1 973d f288 a03d d6f6 5dbd
00000360: a03c 25bd bc96 d23c 0c25 cdbc 0222 bb3d
00000370: 6c32 7b3d fe39 e03c 98e5 afba 5495 d53d
00000380: 6051 23bd 1935 413d 9ebb 713c 2e72 143d
00000390: 097b 733b e95a 283d cd97 653d b9d4 8e3d
000003a0: fdb5 67bd 0327 953d 6ebc 7cbc ed75 a3bd
000003b0: 8a3f 563d 868c 01bd 44f4 c33d a444 74bd
000003c0: 98b1 da3b a1b6 023d 93ea 1e3d 5920 85bc
000003d0: fb8c 1cbd 352e 1ebd 750e 76bd 969c cfbc
000003e0: 4c1a c4bd 45a2 963c 424f ca3d f88d 8c3d
000003f0: f021 d6bb 21ba cb3b fa9f 99bc 43d5 463d
0.10069973 0.08032256 0.0153612215 0.019834923 0.024339743 0.07946128 -0.052143283 0.08555425
0.12739848 -0.026459457 0.022978285 0.06426244 -0.010769189 0.1150745 0.06805125 -0.044575457
0.07123489 -0.0011135996 0.029460933 0.046904348 0.058717195 -0.09095337 0.08055729 0.08101778
-0.010607654 0.068065904 -0.054120604 -0.020391252 0.107742034 0.002129686 0.022166817 -0.07980673
0.07315582 0.04576367 -0.026635772 0.27815956 -0.046741907 0.06052554 -0.02405926 0.054177847
0.041064147 0.09761397 0.020755578 -0.045456085 0.09019404 0.0672532 0.013948879 0.050133776
0.06644916 0.060514662 0.07063357 -0.025446856 0.0011481981 0.04941875 0.062397264 0.012529982
-0.048385743 -0.035869952 -0.03753911 -0.060241226 0.046357706 0.09101611 0.071046814 0.11971215
0.056196086 0.0025585436 0.099511884 0.0044916323 -0.02141439 0.111093126 0.09384913 0.011323051
-0.025421808 0.10457574 0.007821389 0.07739242 -0.07575546 -0.0012658399 0.03164578 0.032872576
-0.012167641 0.034324262 0.06409626 -0.031559158 -0.009186827 0.08728429 -0.04228981 0.15361798
-0.0053227097 -0.073380604 0.060237285 0.0862491 -0.016398385 -0.026584713 0.0218769 -0.03720845
0.01888371 -0.0016715403 -0.036458053 0.029343005 -0.057380885 0.050368704 0.09073657 0.006363346
-0.09327751 0.06255053 -0.049186517 -0.08602478 0.08512613 0.043023407 0.016829273 0.060616933
0.07130005 -0.025705239 -0.026728323 0.0612289 -0.032484718 -0.088087685 0.122265324 0.024093656
0.0023525585 -0.026616042 0.025681313 0.05462777 0.116276085 0.04877948 -0.033401456 -0.07644187
0.023564387 0.086587474 0.074453264 0.04359682 -0.028819906 0.053824376 -0.02087839 0.10456182
-0.048852865 -0.02925741 0.027066078 -0.06462353 0.026853746 0.08098561 0.07571105 0.029645465
-0.0073833587 -0.04649244 -0.017523464 -0.08696023 0.046629936 -0.10056844 0.060144998 -0.06178969
0.03482968 -0.015825538 0.03036671 0.012085916 0.06368996 0.07072123 -0.013963781 0.07063003
0.015323303 0.008947754 0.0002983202 0.09794341 -0.0056594023 0.03041173 0.053203914 0.010834086
-0.06647707 -0.023146048 -0.075603485 0.026191013 0.08044222 -0.011501483 -0.082541876 -0.055395227
-0.04182986 -0.009772929 -0.011090721 0.03226263 0.02695952 0.04880993 0.032170687 0.039149676
0.023581978 -0.060961474 0.023881556 -0.0022340477 0.12489137 -0.0486571 0.046533402 0.052962307
-0.021310043 0.08279871 0.00546887 0.02314298 -0.0028709904 0.09698727 0.056953833 0.052000877
-0.06069609 -0.026075438 0.065847635 0.010259046 0.012088502 0.05845156 -0.04399486 0.067059174
0.03368613 -0.0013464511 0.053856675 0.0059726364 0.06767335 0.0741305 0.0783862 -0.05419048
-0.04034102 0.025706641 -0.02504208 0.09137346 0.061327383 0.027371403 -0.0013419865 0.10428873
-0.039872527 0.04716978 0.014754204 0.036241703 0.0037152192 0.041102324 0.05605297 0.069741674
-0.056570042 0.072828315 -0.0154257845 -0.07981477 0.05230669 -0.031628154 0.09568074 -0.059635773
0.006674003 0.03191245 0.038797926 -0.016250776 -0.038220387 -0.038618285 -0.06007238 -0.02534322
-0.09575328 0.018387923 0.098783985 0.06863016 -0.0065348074 0.0062172567 -0.01875304 0.048543226

fc.weight f4 [1, 128]
00000000: aeaf 14bd 34e9 f4bd a835 9b3d 015a a13d
00000010: 8a59 02be ccf1 ca3d 7852 843b 15eb b83d
00000020: dd72 9dbd 2048 3fbd e1b7 abbd 10e3 b6bd
00000030: 09cb 4f3d 4e51 cbbd c2f8 813d 534d 1f3d
00000040: 7cbb 8c3d 0494 cb3c 1e56 52bd 6dca 3fbd
00000050: 162e 4a3d c11f 883d 24d2 83bc 4972 463d
00000060: 3caa 273d d987 873c e32f 22bc 1728 f3bc
00000070: d94d 8ebd 1de3 003e fbdf c8bd ec26 94bd
00000080: c475 f13d ecd0 f23d 1aeb b53d 261b 72bd
00000090: a826 403b 0396 1dbe 92d2 063e b141 35bd
000000a0: 425a 353d cbe2 b43d a736 74bd bdcc b6bd
000000b0: 80be 9ebd ce38 e7bb 7354 91bd 101f f53c
000000c0: ff9b ed3d 90a9 08bd ff1d f83c 660d 14bc
000000d0: 0770 9abd 72b6 d23d fbd4 00be 0bfe 8fbd
000000e0: e85a c63d 1298 1b3d 8e4d f6bd 6623 18bd
000000f0: 2f80 90bd 3abb 023e bcf3 b1bd 5aad f63d
00000100: 4208 b7bd cc73 bb3d 8524 da3d 0f28 a23b
00000110: 25e4 c33d 04c3 6bbd e058 ee3d 24f6 bd3c
00000120: 453b 813d d97f b43c 3b8c 0b3e a7a2 d3bd
00000130: e27f 38bd be18 7f3d aabf c73d a5d0 2abd
00000140: 7c04 163d 0590 463d bc2b eb3c f11b 95bd
00000150: fadb be3c 5200 15bd 38dd bb3d 02ea c33d
00000160: 8773 be3d 4f90 943b a40c 9bbd 7b29 e83d
00000170: 9115 8bbd 9800 a73d fb05 d23d 63f4 d83d
00000180: fe49 01be 0f47 aebd 2a0a 393d f008 c33d
00000190: 8e93 06be ca45 b5bd a880 84bd f922 893d
000001a0: eceb 79bb f4da af3d a802 28bd 81e8 643d
000001b0: 13b3 2c3d 93f1 d4bd a9bb a9bd 4183 f03d
000001c0: 6dfb 2ebd 1d62 483d 4c93 ad3d cd56 c3bc
000001d0: 42b6 0c3e ef9d 6fbd e962 62bd 7670 7e3d
000001e0: b4f5 9fbd dcc2 33bd 9725 ad3d ff7e ce3d
000001f0: 9a73 f8bd 631d aa3c 988b 9dbd 954e 953c
-0.036300354 -0.119585425 0.075785935 0.07878495 -0.12729469 0.099094 0.0040381514 0.09029213
-0.07687924 -0.046699643 -0.083846815 -0.089300275 0.05073074 -0.09927617 0.06346275 0.0388921
0.06871697 0.024850853 -0.05135166 -0.046823908 0.049360357 0.066466816 -0.016091414 0.048448835
0.040933833 0.01654427 -0.009899112 -0.029682202 -0.06948442 0.12586637 -0.09808346 -0.07233986
0.1179004 0.11856255 0.08882733 -0.059107922 0.0029319916 -0.15389256 0.13166264 -0.0442521
0.04427553 0.0883232 -0.059622433 -0.089257695 -0.07751179 -0.007056332 -0.070961855 0.029922038
0.116020195 -0.033364832 0.03028774 -0.009036398 -0.07540899 0.10288705 -0.12581246 -0.07030877
0.09685308 0.037986822 -0.12026511 -0.037143134 -0.07055699 0.12766734 -0.08689067 0.12044783
-0.08937122 0.09152946 0.10651497 0.004948623 0.095649995 -0.05755903 0.11638045 0.023188658
0.06310133 0.022033619 0.13627712 -0.10333758 -0.045043834 0.062279455 0.09753354 -0.041702885
0.03662537 0.04847719 0.028707378 -0.0728072 0.023298252 -0.03637726 0.091730535 0.09566118
0.09299379 0.0045338045 -0.075707704 0.11336037 -0.06791223 0.0815441 0.10255047 0.10593488
-0.12625882 -0.08509647 0.04517571 0.09523189 -0.13142225 -0.08851202 -0.06469852 0.06696124
-0.0038135005 0.08586684 -0.04101816 0.055885796 0.042162966 -0.10397639 -0.082877465 0.11743785
-0.042720247 0.048921693 0.0847536 -0.0238451 0.13741401 -0.058500227 -0.05527011 0.06211897
-0.07810536 -0.043887004 0.08454435 0.10082816 -0.12131424 0.020765966 -0.07692641 0.018225947
