models/BKNG model.pth (torch, 799657 bytes, 9 tensors)

lstm.weight_ih_l0 f4 [512, 1]
00000000: 5bf6 683d 5cb7 bc3b 0f94 3dbd d483 da3d
00000010: cff9 91bd 2b16 3fbc 3587 5dbc 8d17 f53c
00000020: bbae 92bc e28c 303d ec92 17bd b8c4 843d
00000030: a78a 64bd 8558 233d 31c8 49bd f22a 35bd
00000040: c388 803d 6d2a 943d 6bec b2bd 2114 acbd
00000050: 4d91 a8bd 2cf8 bd3d 7577 f039 bf21 8ebd
00000060: ff05 a93c a4ba 0b3c 043c 96bd e389 183c
00000070: 5c11 a6bd f0ab 3a3d 9bdc 7d38 8793 8ebd
00000080: d263 c6bd 6382 d13d 76e6 b0bc 3c35 083e
00000090: 5a01 88bd d63c 55bd dbec 60bd 6df0 cdbd
000000a0: 9722 83bd 0926 1f3c cc53 7c3d bc00 50bd
000000b0: 6022 963d e64c 4dbd eb72 9dbc c5fb 20bd
000000c0: dd9c 94bd 6a21 033d 9579 833d c78f 4dbd
000000d0: 9467 4c3d 5ce3 ebbc a418 7f3d 162e 49bd
000000e0: 5859 afbd 810d 6fbd cbb7 de3d e114 c2bd
000000f0: e549 89bd b13e a13c ee18 963d 44b7 6abc
00000100: afd4 e73c 495c 513d bd8d f5bd a4f5 713c
00000110: d5ec b63c 28b0 a03d 8c6f aabc e0f0 913c
00000120: 3b02 643d bbe6 f4bc dfe3 aebc 29c8 cc3c
00000130: 34b3 bfbc 82e0 333d 835a 73bd 3362 88bc
00000140: bca2 453d 4f55 503c e9c9 25bd f2ae a63c
00000150: 9f34 b2bd d702 693c 5164 b1ba 3bf8 5e3d
00000160: bf59 b6bc d432 fbbd d1bb debd 27b7 ac3d
00000170: 722f 6ebd aef0 bd3c 80ce 093c 4805 103d
00000180: b6e0 aa3c aaad e73c 06ef 763d 7be2 b73d
00000190: b539 203b 3a91 283d aa7e cebd d60c 01bd
000001a0: fcbb 6d3d a2ab 713d 6e55 a6bc 1fb8 99bd
000001b0: a9ef babd 0efb 96bd 7a97 8fbc 1d6b e33c
000001c0: c851 2cbb a7b0 2c3d d5af 84bd eb49 633d
000001d0: f439 abbd bf16 d83c 11df 9ebd 1b47 0b3d
000001e0: 02ef cbbd ec30 b0bd 7544 923d de26 cabd
000001f0: dd07 35bc 2b46 213d 70ed c2bc 595d 86bd
00000200: 10aa abbd 837e 43bc 4b01 653d ae6c ab3c
00000210: 351e c8bd e8c5 a73d bfe4 8fbd 62cd abbd
00000220: 2f3c 4cbd 4362 fb3c f9d3 2fbd a8c5 73bd
00000230: 9128 30bd ffc2 47bd 8694 bfbd 2da1 593d
00000240: 671e 843d 9385 0e3d 01da 80bd a10d f23c
00000250: 7123 da3c c228 40bd 9a1d f33d cc68 27bd
00000260: 60e4 3cbd 73ec a0bd 237f dcbc ab88 89bd
00000270: 1f46 1abd 9131 82bc 91d6 b53c c31f 89bd
00000280: 2922 d4bd 8b65 fb3d 63c3 e53c 5173 113e
00000290: ac5f 0d3d 8c28 0f3d e3ef 8e3d 8aa1 0fbd
000002a0: c725 b3bd 722a b93d f18c f13c 7819 babd
000002b0: 189b 073e c101 bf3c c241 abbd dfee 0bba
000002c0: 2939 2bbd d02b 98bd a942 163b 2cf3 c9bc
000002d0: 7ac5 b3bd 10b9 7ebd e58a 6cbd 2bcd 17bd
000002e0: 860f e9bc 4917 d6bd 3fbb 143e a67d 6c3d
000002f0: 2913 d1bd 9b39 f83d d188 92bc 21b4 083c
00000300: fd82 f73d 3dbe c2bc 18d5 0bbd 1a8e 82bd
00000310: bb4d 103d 7c10 bfbc 3a04 fe3c 8811 4abc
00000320: f146 fdbc 129e 6a3c 5e94 edbc b917 a33d
00000330: d831 873d fd76 0cbd 6840 bfbd d032 8bbd
00000340: db45 82bd 4c05 763d 21cb 19bd 54b8 17bd
00000350: bcd2 813d 3ecd 5ebb 7cfc 8bbd 23d5 053d
00000360: ee97 98bd d568 7ebd 07eb 3dbd a2eb 023e
00000370: 9370 a43d 291a 823d 97c2 8abc 1bdb 0e3d
00000380: 86e3 cb3c f764 143d cf57 b43c 6042 b93c
00000390: 7995 5c3d 7eab 5bbc 9cf2 25bd 451c 8cbd
000003a0: cca3 763c 6459 dc3d 08f4 9dbd a783 5cbd
000003b0: 7522 4fbd 103b 8d3c ff92 e43c 2355 e6bc
000003c0: b2b4 98bd 6259 79bd e837 68bd 61ef 0ebd
000003d0: ae40 683b 79dc d43c 7258 703d 26d0 a23d
000003e0: 6fa6 dbbd cfaa 4a3c 1552 813d 3657 63bd
000003f0: 02cd 103d d49b a9bd 5824 183c 8566 c5bd
0.056875568 0.005759163 -0.046283778 0.106696755 -0.07127725 -0.011663 -0.013521005 0.029918456
-0.017905584 0.043103106 -0.03700535 0.064828336 -0.05579629 0.03987934 -0.049263183 -0.04423041
0.06276085 0.072346546 -0.087364994 -0.08402277 -0.08230839 0.09275851 0.0004586537 -0.0694003
0.020632742 0.008528385 -0.07335666 0.0093102185 -0.0810878 0.04557413 6.0525355e-05 -0.06961732
-0.09687008 0.102299474 -0.021594267 0.13301557 -0.06640883 -0.05205997 -0.054913383 -0.10055623
-0.06403082 0.009713658 0.061603352 -0.05078195 0.07330775 -0.050122164 -0.019219836 -0.039302606
-0.07256482 0.032014288 0.06419674 -0.050185945 0.049903467 -0.028794937 0.06227936 -0.049116217
-0.08561963 -0.058362488 0.108748995 -0.094766386 -0.067035474 0.019683214 0.07328974 -0.0143259205
0.028299658 0.0511134 -0.11989925 0.014768038 0.022329727 0.07846099 -0.020805143 0.017815053
0.05566619 -0.029895177 -0.021348892 0.024997788 -0.02340088 0.04391528 -0.05941249 -0.016648388
0.0482509 0.012715652 -0.04047576 0.020347092 -0.08701443 0.0142218685 -0.0013533925 0.05443595
-0.022259591 -0.12265554 -0.10875667 0.08433371 -0.058150716 0.023186054 0.00841105 0.035161287
0.020859104 0.028281052 0.060286544 0.089787446 0.0024448459 0.041154124 -0.10082753 -0.031506382
0.058040604 0.059001572 -0.020304408 -0.075058214 -0.09127743 -0.07372104 -0.017528284 0.027761037
-0.0026293863 0.042160656 -0.0647885 0.055490416 -0.08360663 0.026378034 -0.0775739 0.03400336
-0.099576965 -0.08603081 0.071419634 -0.098706946 -0.011049238 0.039373558 -0.02379486 -0.065607734
-0.08382046 -0.011932018 0.055909436 0.020925846 -0.097713865 0.081920445 -0.07026052 -0.08388783
-0.049862083 0.030686503 -0.042926762 -0.05951467 -0.043007437 -0.048769947 -0.093545005 0.053132225
0.06451111 0.034795355 -0.06291581 0.029547514 0.026628228 -0.04691387 0.118708804 -0.040871426
-0.046116233 -0.07857599 -0.026916092 -0.067155205 -0.03766453 -0.015892776 0.02219704 -0.06695511
-0.10358078 0.12275227 0.02804727 0.14204146 0.034515068 0.034950778 0.069793485 -0.035066165
-0.0874744 0.09041299 0.029486151 -0.09086889 0.13242757 0.023316266 -0.08362152 -0.0005338024
-0.04180256 -0.074302316 0.0022927916 -0.024652086 -0.087779 -0.062188208 -0.057749648 -0.037060898
-0.028449785 -0.1045366 0.14524554 0.057737015 -0.10208733 0.12120362 -0.017887505 0.008343727
0.12085531 -0.023772353 -0.03413877 -0.0637476 0.03523038 -0.02332329 0.031007875 -0.012333281
-0.030917617 0.014319913 -0.029001411 0.07963509 0.06601304 -0.034293164 -0.093384564 -0.06796801
-0.0636098 0.060063645 -0.037547234 -0.037041023 0.063390225 -0.0033996846 -0.06835267 0.032673966
-0.07450853 -0.062111694 -0.046366718 0.127852 0.08029284 0.06352646 -0.01693849 0.034876924
0.024888765 0.0362291 0.022014527 0.022614658 0.053853486 -0.013407586 -0.040514573 -0.068413295
0.015053701 0.107592374 -0.07712561 -0.05383649 -0.05056997 0.017240077 0.027902124 -0.028116768
-0.0745634 -0.060876258 -0.05669394 -0.03489626 0.0035438943 0.025984036 0.058678098 0.079498574
-0.10725104 0.0123698255 0.06314484 -0.055503093 0.03535176 -0.08281675 0.009286009 -0.09638695

lstm.weight_hh_l0 f4 [512, 128]
00000000: f456 273d 991a cbbb 8915 b4bc 5304 a23c
00000010: 402a 83bd ac54 9b3d a15c 90bd ec3d 8cbd
00000020: 245b 67bd 0db7 10bc ae6e babd 63c1 353c
00000030: 6d89 673d 5613 71bc 17a6 9abd 3024 683d
00000040: 4c28 d2bd c24a 243d 236c 853d f5b5 093d
00000050: c187 c03c c40c d23b b066 48bd fc9a 6e3c
00000060: 6f7a 6fbd 081b 003d 9ccb 953d ddab 9f3d
00000070: 9943 1b3c fae4 7ebd 23ff dcbc 004d 933d
00000080: 6ebd e7bc 803a 573c 14c7 f33c dbb3 00bc
00000090: ca5a 8e3d 6585 143d fe2f eb3c 4380 bc3b
000000a0: db57 4bbd 7414 003d 4faa b63d b84e 67bc
000000b0: 56ca cdbc ea08 7b3d 675d ba3d 0b41 783d
000000c0: 63d8 e0bb 2a64 003c 5c08 93bd d8fb 82bd
000000d0: 970f 89bb 9e22 a73c 4bb8 a13d 9a52 8f3c
000000e0: 9cb4 14bd c3c2 ce3b 3199 df3d dc37 f6bc
000000f0: b8b5 223d 5c22 1b3d 22a9 923d 77d3 ad3d
00000100: a018 2f3d acc3 2fbd 8c9d a53d 7074 8abd
00000110: fc54 2fbd 0f99 b43d eb8f 833d e5ea 93bd
00000120: c4f3 743c e9c7 e53c 0a17 72bc 6376 023e
00000130: ba22 b9bd aa26 b5bd 5389 c33d dcf3 1abd
00000140: 9cd5 dd3b 20bc 48bd 18f2 75bd 2566 363d
00000150: 08dd 3ebd 88b6 aabc 2ba3 89bb 721a e63c
00000160: c87c 96bd e1db 37bd cea3 923d 5355 b4bb
00000170: 57aa 993c 19d5 943c c263 85bc 74eb 3b3d
00000180: 1b4b 8f3d 0f16 aa3d 488f 4a3d 27e0 b3bb
00000190: 7524 7bbc 52b0 373d 0c5a 80bd f01f 3d3d
000001a0: 657b 75bd befe 523c 042b 32bd 7112 853d
000001b0: c3b5 7dbc 833e b43c 85b0 9f3d aa25 53bd
000001c0: e7d5 d1b9 64cd ff3c f24d 953d 6bfd 993d
000001d0: 3578 093d c5e8 9f3d e48c 7fbd 509c a23d
000001e0: f464 843d 41ec c23b 0341 043c c7bb 82bd
000001f0: 77e7 93bd 792e 613d 4e73 ba3b 1774 683d
00000200: 84bc 553d d364 5cbd a593 95bd 66f6 003d
00000210: 9771 023c e36f 8dbd f33a 9fbd aaf0 60bd
00000220: 6781 91bd 6668 b3bd e00b 89bd 4380 ce3b
00000230: 862c 01bd 1b39 933d 45b3 803d 6d9c 953c
00000240: bfde 57bd 6002 3cbd 1189 933d 003f 35bc
00000250: 773d 5cbd abb4 a73d 6e6b 153d 33b7 963c
00000260: 40ab e1bc 7f14 7b3d d6dc 85bd ad4b 8bbd
00000270: 9a0e 1b3d 4b5b b03d 7b5f cd3c ad1b fdbc
00000280: 12d2 2f3d d790 9ebd 3f43 c73d ebd6 b8bc
00000290: 5f00 ccbd 24b8 2bbd 1767 bcbc f323 00bc
000002a0: f035 d13d 27f1 fdbc 5c23 7b3d 7278 913d
000002b0: e9ae 033e c7f0 93bc 2535 633c 82f0 053d
000002c0: d3a3 35bc 3d2c 7e3d 33d1 653c 9cad b0bd
000002d0: 606f 80bc 5061 d83c 5a60 17bb 228d 513c
000002e0: ad20 353d 94e8 3e3d 8684 93bc c5a3 54bd
000002f0: 6fe3 37bd 9033 cd3c 020f 3abb f6ba a53d
00000300: 86a0 8b3d 0120 41bd efd0 8e3d 4be6 c5bd
00000310: 2fcc 48bd 6870 e1bc 8166 08bd 4ad4 f0bc
00000320: 3dcf 353b 5e34 89bd 522f 3bbd 3191 c03d
00000330: c65f 90bd 8b50 64bd 40d8 fcbc 004f 1d3d
00000340: a98c f93c bacd 3abd 9099 003d 62d4 83bc
00000350: a9e5 883d dadc 99bd 0650 66bd b9d4 c8bc
00000360: 1188 c2bc 65b6 8a3d c9d5 e7bc 4d2c 913d
00000370: aab6 803d a6a5 16bd 5acb 413d b17c 893d
00000380: 1aff 783d 7ab0 b63d 5988 70bc 5472 ebbb
00000390: 82ea 503d 87c1 39bc ea98 0ebd 29e0 763d
000003a0: 8777 993c 7477 6abd d843 3c3d 475f c6bd
000003b0: 5a2d a63c bcdd 8cbd da57 80bd 6cb0 533c
000003c0: 3922 8b3d ab40 52bc 5065 983b fbc8 01bd
000003d0: 3193 3dbd 05ec 8abd d5e4 e5bc 1ff1 0cbd
000003e0: 5633 003d 8493 ba3c bb59 a63d a130 75bd
000003f0: 53bd 07bd 346a da3c aa87 a93d aa49 973c
0.04085441 -0.006198239 -0.021982925 0.019777453 -0.06404543 0.07584509 -0.070489176 -0.06847748
-0.056483403 -0.008832705 -0.09103142 0.01109347 0.056527544 -0.014714083 -0.075512104 0.056675136
-0.10261592 0.040110357 0.06514766 0.033620793 0.023502233 0.006410213 -0.048926055 0.014563318
-0.05846637 0.03127578 0.07314226 0.07796452 0.009476566 -0.062230088 -0.026977127 0.07192421
-0.02828857 0.013136506 0.029758014 -0.007855381 0.069509104 0.036260027 0.028709408 0.0057525947
-0.049644332 0.031269506 0.089192025 -0.014117889 -0.025120895 0.061287798 0.09099846 0.060608905
-0.006861733 0.007836381 -0.07179329 -0.06395692 -0.0041827667 0.020402249 0.07896479 0.017495442
-0.036305055 0.0063098385 0.10917891 -0.030055933 0.03972408 0.037874565 0.07161166 0.08487599
0.042748094 -0.042911217 0.0808669 -0.0676049 -0.042805657 0.08818256 0.064239345 -0.07222537
0.014950696 0.028049426 -0.014776001 0.12740473 -0.09039827 -0.08845265 0.09547677 -0.03783022
0.006769849 -0.049007535 -0.06004533 0.044531006 -0.04659751 -0.02083899 -0.0042003593 0.028088782
-0.07348019 -0.044887427 0.071601495 -0.0055033355 0.018757982 0.01816802 -0.01628292 0.045878842
0.06996747 0.083049886 0.04945305 -0.0054893675 -0.015328516 0.044845887 -0.06267175 0.046173036
-0.05993213 0.012878118 -0.043498054 0.06497658 -0.01548523 0.022002464 0.0779734 -0.05154959
-0.00040022956 0.031225868 0.072902575 0.07519039 0.033561904 0.07808069 -0.062390223 0.079399705
0.06464568 0.005948574 0.008072141 -0.06383472 -0.07221883 0.05497596 0.005690015 0.056751337
0.052181736 -0.05380709 -0.073035516 0.031484984 0.007961652 -0.06906106 -0.077749155 -0.054917015
-0.0710476 -0.08760147 -0.06691718 0.006301911 -0.0315366 0.071886264 0.06284193 0.018263066
-0.05270266 -0.045900702 0.07203878 -0.011062384 -0.053769555 0.081887566 0.036479406 0.018397903
-0.027547479 0.061298843 -0.06536262 -0.068015434 0.037855722 0.08611163 0.025069943 -0.030896986
0.042924948 -0.0774247 0.09729623 -0.022563418 -0.09961008 -0.041923657 -0.022998376 -0.007821071
0.10215366 -0.03099878 0.06131302 0.07103051 0.12859692 -0.018059148 0.013867651 0.03270007
-0.011086422 0.062053908 0.014026928 -0.08626863 -0.015678108 0.02641359 -0.0023098201 0.012789996
0.044220615 0.046608523 -0.018007528 -0.051913995 -0.044894632 0.025049001 -0.0028390293 0.080923006
0.06817727 -0.047149662 0.06973445 -0.096630655 -0.04902285 -0.02751942 -0.03330088 -0.029398102
0.0027741932 -0.066994414 -0.045699425 0.09402693 -0.07049517 -0.055740874 -0.030864835 0.03840542
0.03046258 -0.045606352 0.03139645 -0.016092483 0.06684429 -0.07512827 -0.05622866 -0.024515497
-0.023746522 0.0677307 -0.028300183 0.07088528 0.062848404 -0.03677907 0.04731307 0.06713236
0.06079016 0.08920379 -0.014680945 -0.00718526 0.051004894 -0.011337644 -0.0348138 0.06027237
0.018733753 -0.057242826 0.04596314 -0.096861415 0.020285297 -0.0687823 -0.06266756 0.01292048
0.06793637 -0.012832801 0.0046507493 -0.03168581 -0.04628295 -0.067832984 -0.028063217 -0.03440964
0.031298958 0.022775419 0.081225835 -0.05986083 -0.033139538 0.02666197 0.08277829 0.018467743

lstm.bias_ih_l0 f4 [512]
00000000: 67b9 273d 596d d53d 3344 853d 0560 89bd
00000010: 11d1 34bc 312c 363d ff19 173e ec7a b23d
00000020: ed5a 5d3d ee61 223d 5a56 a23c 52ae 413d
00000030: e350 973d 9ea8 86bd 7504 1abc 4a56 e83d
00000040: e06e 233c bb3b 83bc a084 b9bc d65d 74bd
00000050: 2fd1 1fbc af29 51bd 857f efbc 5bef 77bd
00000060: d24e e33d 6849 2c3d 5b68 5e3d 87ec fabc
00000070: 7fe2 813b 34e3 ec3d 7442 38bd 6c5f bc3d
00000080: c89d a73d 5385 bc3d 3d89 ae3d 6ac2 11bd
00000090: 7284 a1bd 5af5 37bd 420f dabb c884 0c39
000000a0: a914 633d b6ce 713d 790e 93bd a425 fc3b
000000b0: bcb0 c53d 0ce8 943d c01b abbd bfa3 943d
000000c0: 55eb bb3d fbaf f5bc 63e1 f23c 4f27 8dbd
000000d0: d3f7 5d3d 3715 813d 0b48 be3d b573 7dbd
000000e0: eb94 293d ffae 523d 6214 283e 1921 833d
000000f0: ac89 ab3c e050 b63d c915 e0bc ba00 dbbc
00000100: cd53 ec3d 4e12 ad3d a164 743d a82c e03d
00000110: d8a6 9fbd 82a0 33bd 9060 863d 004d b53d
00000120: c313 ea3c 79ee 6dbd c6cd 89bd 4068 af3d
00000130: 90fa 8e3d a431 4a3d 87be 78bd e718 88bd
00000140: 1a74 fbbb 8d2d bd3b 2b51 a83d 0017 36bd
00000150: 186f ef3b b547 78bd 1f2d 673d c59b 593d
00000160: 3359 793d a1ad 81bb d447 e43b 1b87 0d3e
00000170: b0d2 af3d 2034 443d 95e0 9abc f97d 40bd
00000180: 050e f93d 807b e93c 0eee 87bd 68d5 353d
00000190: 9881 41bd 74a6 56bc 1978 723d e61d 553d
000001a0: da2d d13c d362 513d ca74 30bd da46 b73d
000001b0: c37b 7c3d b499 b4ba 135a 8e3d 76c4 88bc
000001c0: e026 d23d 6246 d23d 6284 4f3d 6533 503d
000001d0: 994c 923b 0e06 a33d c768 1c3d 2e45 053c
000001e0: dd55 653a bead e83d 20d5 aa3d 5178 08bd
000001f0: 15bd 9f3d 63e9 68bc 711b 873d 5201 a53d
00000200: 62e1 9ebc a9df 8abc 254f 983d 7732 c4bd
00000210: a62a c03d 1620 a9bc 7d4a 1fbc 6d9d 743d
00000220: e5b3 913c 77a1 72bd f056 95bd 4fe4 61bd
00000230: 6c7b 373d 4d1c 533d 673f ea3c 4e1c c0bd
00000240: 9591 8ebd 20f0 bf3c 4f0d b23d 6a05 02bd
00000250: 74d1 0cbc 769f b73c 8a04 b13d 26cf 9d3d
00000260: aa41 f33c e9ad 1abd 78dc 9b3d 66e4 b03d
00000270: 78f8 a0bd a715 b43d ec2f a8bd 9b11 7f3d
00000280: af0b c2bc 28ff 173c e750 5e3d b236 bdbc
00000290: 2487 64bd 6006 96bd d3cc 993d bbde 75bd
000002a0: 81f9 893d 7500 f33b 78fe d1bd 008e 24bb
000002b0: 98bf b73b 2a7d 81bc 0c49 9fbc eca3 8bbb
000002c0: f1ee 353d cbc3 bebc 7638 96bd 4505 883d
000002d0: a6be 26bd 54a5 a83d 1e1b 923c f867 80bd
000002e0: c93a 28bd 8393 68bd 1783 26bd bd8b b83d
000002f0: 8ea3 3cbd cce0 02bc b6fb 1f3c 7c8c 4bbd
00000300: 38d0 9abd c304 0dbd a0d7 42bd 91af 44bc
00000310: 9d70 6abd 52d7 c1bd e059 ac3d 2272 183d
00000320: 795c f23c c524 89bb f5e2 fdbb aad3 d1bc
00000330: 21ee 923d 812f ae3c c35c 8cbd 80e4 56bc
00000340: 644b 843d 539d 2f3b 0907 9cbd 7ff7 06bd
00000350: 15ca 36bd a4d1 9dbd 2c14 853d c0dd 00bd
00000360: b758 00bc a702 6abd ab7d 913d 2829 593d
00000370: a4d1 6b3c 8536 06bb 3240 52bd f6f5 35bd
00000380: e6cd e33c 1061 2cbb 6c9b 7a3d d387 b73d
00000390: 43d7 a0bd 5bb2 a83d 3909 84bd f7ea abbd
000003a0: 8607 2a3c 5615 1e3c 0e95 ce3c 4a48 d0bc
000003b0: da8e debb 013e a0bd c310 91bd 4ebc 803c
000003c0: 07cc d5bc f283 2b3c c1ed 8b3d ae82 8bbd
000003d0: 2d51 18bd 2148 6ebb 98e2 383d c223 a63d
000003e0: e7dc 8f3d 1af0 10bd f9ab e2bb ec74 42bc
000003f0: fa82 32bc 7a8d 853c c571 4f3d 9098 073d
0.040948298 0.10421247 0.065071486 -0.067077674 -0.011036173 0.044475738 0.1475601 0.08714852
0.05404179 0.039644174 0.019816566 0.047285385 0.07388475 -0.0657513 -0.009400477 0.11344583
0.009975165 -0.016019693 -0.022646248 -0.0596598 -0.009754463 -0.051065143 -0.02923561 -0.060531
0.11099018 0.042062193 0.05429874 -0.030630363 0.003963768 0.11566773 -0.04498525 0.09197888
0.08184391 0.09205117 0.0852227 -0.0355858 -0.0788659 -0.04491172 -0.006654651 0.00013400905
0.055439625 0.059035026 -0.07180495 0.007694917 0.0965285 0.07270822 -0.08354902 0.072577946
0.091757454 -0.02999114 0.029648488 -0.06892263 0.05419142 0.063028745 0.09291085 -0.061877925
0.041401785 0.05143642 0.16414025 0.06402797 0.02093967 0.089021444 -0.027354138 -0.026733745
0.11539421 0.08450757 0.05966628 0.109460175 -0.07795495 -0.043854244 0.065613866 0.08852577
0.028573876 -0.058088753 -0.06728701 0.08564806 0.06981385 0.049363747 -0.060728576 -0.06645375
-0.0076737525 0.0057732523 0.082186066 -0.04445553 0.0073069446 -0.06061526 0.056439515 0.05312707
0.060876083 -0.0039574658 0.0069665704 0.1382107 0.08585107 0.047901273 -0.018905917 -0.046995137
0.12160877 0.028501272 -0.06637202 0.044392973 -0.04724273 -0.013101209 0.059196565 0.052030466
0.025534559 0.051119637 -0.04308013 0.08949061 0.061641466 -0.0013778717 0.06950774 -0.016695242
0.10261321 0.10267331 0.05066336 0.050830264 0.0044646976 0.07960139 0.03818586 0.0081341695
0.00087484514 0.11361264 0.083414316 -0.033317868 0.077997364 -0.0142158 0.06597031 0.080568925
-0.01939458 -0.016952353 0.074369706 -0.09579938 0.093831345 -0.020645183 -0.009722349 0.059720445
0.017785976 -0.059236016 -0.07291973 -0.055149373 0.04479544 0.05154066 0.028594686 -0.09380399
-0.06961361 0.02342993 0.08693945 -0.031743445 -0.008594859 0.022414904 0.08643444 0.07705526
0.029694397 -0.03776351 0.076104105 0.086373135 -0.07859892 0.08793192 -0.08212265 0.06227265
-0.023687212 0.009277143 0.054276373 -0.02309737 -0.055792943 -0.07325435 0.0750977 -0.060026865
0.06737042 0.007415826 -0.10253614 -0.0025109053 0.0056075566 -0.015806753 -0.019444011 -0.0042614844
0.044417325 -0.02328672 -0.07334988 0.0664163 -0.04070916 0.08234659 0.017835196 -0.062698305
-0.041071687 -0.056781303 -0.04065236 0.09011028 -0.046054415 -0.007988166 0.009764602 -0.049694523
-0.07559246 -0.03442837 -0.047568917 -0.012004749 -0.057236303 -0.09464897 0.0841558 0.03721822
0.02958511 -0.0041852915 -0.0077480027 -0.025613625 0.07174326 0.021262886 -0.068536304 -0.013116002
0.06459692 0.0026796653 -0.07618529 -0.032950874 -0.044626314 -0.077060014 0.06497988 -0.031461477
-0.007833651 -0.057131436 0.071040474 0.053017765 0.014393244 -0.0020479274 -0.051330753 -0.04442402
0.027808141 -0.002630297 0.061183378 0.08961453 -0.07853558 0.082371436 -0.064470716 -0.08394425
0.01037777 0.009648642 0.02521756 -0.025425095 -0.0067919316 -0.07824326 -0.07083275 0.01571479
-0.026098264 0.01046847 0.06832457 -0.068120345 -0.03718679 -0.003635891 0.04513797 0.08112289
0.07024556 -0.03538523 -0.0069174734 -0.011868697 -0.010895485 0.016302813 0.05064561 0.03310448

lstm.bias_hh_l0 f4 [512]
00000000: 77b8 183c 70b7 d33b c952 4e3d 11ea d9bc
00000010: f150 ca3d 04c4 b93d 1452 053e 97ef 483d
00000020: dc22 b93d 136f b03d 5ebe be3d fe87 c23d
00000030: 3bf0 b93c 8088 bbbc 0601 16bc e2e1 893d
00000040: ea5c 0a3d 95f8 a23d d96b 3bbd 8b11 023d
00000050: 7d7b 243d b4d7 03bc efdc 903d 7b9e 9abd
00000060: b12d de3c 124f 6c3c f832 9d3c 626c bebc
00000070: 3c72 8dbd 9210 8a3d ad66 24bd 9b9b 2dba
00000080: b4e7 abbd c557 01bd 8346 3e3c dd70 013e
00000090: 2c28 1f3c 277e 8bbd 8373 823c 58e4 1e3c
000000a0: e51f 6c3d a787 33bd 7797 283c 182c c83d
000000b0: 3101 243d 53d2 843c f4c6 763c ceab 263d
000000c0: 683e 6c3d 6551 523c d393 04bd 075a 823d
000000d0: f64d d83d c461 07bd a9fb 1dbd 2728 593d
000000e0: 17ea 933d 3aed b73d a434 333e 8f6e 9c3c
000000f0: 1e17 71bd ecb9 e13d 6f00 a63d bcc6 06bc
00000100: 2764 ee3b 7b5c cb3c d7f2 523d 872e 81bc
00000110: c819 9e3d f320 9d3d be21 42bc 94e5 0b3d
00000120: f413 77bd c7cb d23c 77e4 d93c 64e0 9b3d
00000130: 6b42 ae3d 4a8f bb3c 2de6 033d 9ae8 403d
00000140: 4387 be3d ff9a b33d f523 b5bb 241c bc3c
00000150: fc74 94bd 04b0 7bba 8bf5 38bc 32f0 b73c
00000160: 5dfa 46bd 017e 2a3d a759 833c 7094 eb3d
00000170: 18ca 9f3d fd15 21bd e69a c13c 3141 5a3d
00000180: 43b0 1a3e 30a0 1bbd c1d2 90bd c8de 6ebc
00000190: 5e4a bb3d 6820 e8bb 68a1 0dbd c165 00bd
000001a0: c348 253c 786f 853d d5e1 f4bc 74df 073d
000001b0: 43ed 78bd e247 5d3c 6246 d43d bd18 b83d
000001c0: 76c7 c23d 4417 a13d 579c 9a3d 262f 85bd
000001d0: ea97 d33d 3995 a5bc 7226 2fbd bfd0 48bd
000001e0: 5cbb bf3c 3cf7 e43d 9865 983d c6de e23c
000001f0: 1397 883d daf8 783d 48cb 9b3d 69c9 5cbd
00000200: d5dc 19bd ee5f 2e3d 16ad ad3c 3313 0dbd
00000210: 6de0 a4bc eea8 8e3d d6a7 213c 206a 91bc
00000220: 4014 803d 77d5 9abd b626 863d 7d3c 7dbd
00000230: 7e52 2abc 6127 04bd 8933 90bd c9ba d8bd
00000240: 4b60 573d e61c 70bc 4206 edbb 5e78 253d
00000250: 6a55 69bd df2a 983d 32fc c33d 6d39 b4bc
00000260: 43fa aabd df03 8b3d e923 303d da24 a83d
00000270: 457b a9bc 1185 bf3d 9bba 573c 32c2 b23d
00000280: b20b 31bd c799 9abc 819c 5f3d 9634 383d
00000290: b68f 1b3d ffca a3bd 0c8a 57bd 04ec 0c3d
000002a0: 54c1 b4bc 5553 523d 3500 763d 227e bf3d
000002b0: 6fc1 48b9 a07b 563d 93f5 d9bc 94a4 a8bd
000002c0: cd35 793d 3645 9f3b 9914 07bd 6295 363b
000002d0: f6a2 d2bd c58d ed3c 5025 a3bd 470c d8bc
000002e0: aa75 163c 8604 2dbd 6f79 7fbd 1029 5e3d
000002f0: 49c7 313d 0ba2 a83d 2f5e 9bbd 3b29 3a3d
00000300: e2db 37bb 719e 8cbd 8929 abbd d8b0 173d
00000310: 6d3e 86bd 713b 12bd bcee 8e3d d4ad 863d
00000320: d753 693d 16b5 503b 39fb b0bd c99e 10bc
00000330: fb48 a13d 5827 003d 194d e13c ea7d bfbd
00000340: 995b 8fbc 968d 10bd cedb 413d 5113 acbd
00000350: 7a36 85bd 9676 34bc 2627 8bbc f2a9 8b3d
00000360: af90 89bd 5958 fd3a ea73 243d 75b1 923c
00000370: 33a0 ed3b 0b4e f1bc 8fd6 1b3d 0ae2 273d
00000380: 95a7 8bbd b995 9abd 4ec0 23bc 19dd 47bd
00000390: d572 c8bc 7223 9fbd 5836 75bd e68d 25bc
000003a0: 5a50 623c c55c 16bd 9e62 21bd 2050 323d
000003b0: ea65 d23c 4d8c a2bd e18e 6bbd 3190 1fbd
000003c0: be9c b03b 239e 893d 3039 743d 46e3 4dbc
000003d0: 03d1 c83a 1b98 1c3c a869 813d cfea 3e3d
000003e0: 1957 4d3b c2ed f1bc da27 a23d ec48 083d
000003f0: 18f4 81bd 841b 8dbd 3883 853d b745 2e3d
0.009321324 0.0064610764 0.05037192 -0.02660087 0.098787196 0.0907059 0.13019592 0.049056616
0.09039852 0.08614936 0.093136534 0.09498595 0.022697559 -0.022892237 -0.009155517 0.06732537
0.033780016 0.079575695 -0.04575715 0.03175501 0.04015683 -0.008047033 0.0707339 -0.07549759
0.027121397 0.014423149 0.019189343 -0.02324504 -0.06906554 0.06741442 -0.04013698 -0.00066226133
-0.08393803 -0.031577844 0.011613491 0.1264071 0.009714168 -0.06811171 0.01592422 0.009697996
0.057647604 -0.04383054 0.010290018 0.09774035 0.0400402 0.016213572 0.015062083 0.04069119
0.057676703 0.012836789 -0.03236754 0.063648276 0.10561745 -0.03305222 -0.03857008 0.053016808
0.072223835 0.08980794 0.1750055 0.019095687 -0.058859937 0.1102179 0.081055515 -0.008226093
0.0072751227 0.024824372 0.05150112 -0.015769256 0.07719761 0.076723 -0.011848865 0.03415449
-0.060321763 0.025731934 0.026598198 0.076111585 0.08508762 0.022895474 0.032201935 0.047096826
0.09303143 0.087697975 -0.005527968 0.022962637 -0.072488755 -0.00096011185 -0.011289011 0.022453401
-0.04857861 0.041624073 0.01603396 0.115029216 0.07802218 -0.03932761 0.023633432 0.053284828
0.15106301 -0.037994564 -0.07071448 -0.014579482 0.09145044 -0.0070839413 -0.034577757 -0.03134704
0.0100881485 0.065154016 -0.029892841 0.033172086 -0.060773145 0.013505908 0.10364987 0.089890935
0.095107004 0.07865766 0.07549351 -0.065031335 0.1033171 -0.020212756 -0.042761274 -0.0490272
0.02340477 0.11179969 0.074412525 0.027694117 0.0666944 0.0607842 0.07607132 -0.053903017
-0.037564117 0.042571954 0.021200698 -0.034442138 -0.020126546 0.069658145 0.009866675 -0.0177508
0.062538624 -0.075602464 0.06550352 -0.061825264 -0.010395644 -0.032264117 -0.070410796 -0.105825014
0.052582067 -0.014655327 -0.007233412 0.040397994 -0.056966223 0.07430052 0.09569587 -0.022000039
-0.08348515 0.06787848 0.043002997 0.08210154 -0.020688662 0.09351552 0.013167049 0.08728446
-0.043224044 -0.018872155 0.054592613 0.044972025 0.03797885 -0.07997703 -0.052621886 0.03440477
-0.022064842 0.051349003 0.06005879 0.0935023 -0.00019145546 0.05236399 -0.026606357 -0.08234516
0.060842324 0.0048605455 -0.032978628 0.0027860035 -0.102849886 0.028998265 -0.07966101 -0.026373042
0.009183327 -0.042240642 -0.062371667 0.05423838 0.043402944 0.08234032 -0.075863235 0.045449477
-0.0028054644 -0.06866158 -0.083575316 0.037033886 -0.065548755 -0.03570122 0.06979129 0.06576124
0.05696472 0.0031846217 -0.08641667 -0.00882692 0.07875248 0.03128752 0.027502583 -0.09350188
-0.017499732 -0.035291277 0.047328763 -0.08402122 -0.06504531 -0.011014601 -0.01698644 0.06819524
-0.06717049 0.0019328698 0.040149607 0.017906884 0.0072517633 -0.02945616 0.038046416 0.040987052
-0.06819073 -0.075480886 -0.0099945795 -0.04879484 -0.024468819 -0.077704325 -0.05986628 -0.010104632
0.013813103 -0.036709566 -0.03940069 0.043533444 0.025683362 -0.079369165 -0.057509307 -0.03895587
0.005389779 0.06719615 0.05962485 -0.012566393 0.0015321079 0.009557749 0.063189805 0.04661065
0.0031332432 -0.029532317 0.07917757 0.03327267 -0.06345385 -0.06890014 0.065191686 0.042546954

lstm.weight_ih_l1 f4 [512, 128]
00000000: 22c2 813d bd60 30bd dd31 89bc e94b 65bc
00000010: fdcd b93c e887 20bc ab88 05bd 2175 853d
00000020: f960 213d a6b9 22bd 93cb 1abd 9a65 96bd
00000030: 1b4b b73d de99 5bbb 47db 5bbd 4e9b eebb
00000040: 090c 46bd 290b fc3a 1e70 7a3d 36be 933c
00000050: cb15 ff3c 6617 80bd f049 39bb 86f0 6f3d
00000060: 0ace 963c ef7e f13b e884 793d c473 463d
00000070: 336d 7a3d b875 943d c1e6 57bc bbf1 85bd
00000080: 6f21 b0bd 0662 5fbd 8324 acbc 122d 493d
00000090: 2b73 9bbd dce8 803c d932 bcbd 251c 893d
000000a0: 972f bf3c 435e b0bc fb49 4cbd 2548 77bc
000000b0: 8320 2e3d ba11 74bd f7fc 903d 1c34 86bd
000000c0: aeae 26bd 005b 75bc fac7 373d c8da 3f3d
000000d0: c498 943d cdb9 45bd 98f8 43bd 4c71 023c
000000e0: d54a 37bd da85 18bd cf8a 8ebd 9583 f33c
000000f0: 3eec 70bd 97bc bc3c 755b bdbc 773c c33c
00000100: 478b 9b3d 4c9e 3bbd 3c58 b23d 4462 dabc
00000110: c45c 93bc 4811 afbd 6015 3ebd bb53 9fbd
00000120: 5c19 dd3c 3c6a 30bd 833b 053c b65b 8a3d
00000130: 631e 103d 707d fa3c 5467 32bd dac7 2abc
00000140: d7cc 773d f023 503d 22af 003c 9886 acbd
00000150: 3dce 2a3d bd2f 8dbd 943f 6f3d bba2 7a3b
00000160: eecd 583d e26d 2a3d a424 18bd b25e 2bbd
00000170: 3eb6 613d 713e 923d a84f 17bd 3ae4 cdbc
00000180: 8e93 bfbc f85f 6b3d 13fe 683c 9838 9c3d
00000190: cfc9 dbbc 48e0 76bd 2231 b9bd 0eea 58bd
000001a0: d261 8c3d de0d 213d 4574 713d e9f2 c4bc
000001b0: d0e7 053d e3de e93c 9aa0 9cbd 7bcc 94bd
000001c0: 46df 503d 7368 463d 797c 02bc 37d9 9f3d
000001d0: 50b5 d33c e29f 823d 99c2 19bd b25e 0d3d
000001e0: 956f 863d a2cd b3bd aba7 603d 07f3 23bc
000001f0: e925 5bba f4da c9bc 44f0 6e3c 3c6d 8d3d
00000200: 56f2 183d 6e55 8e3d dced 58bd 0002 2e3c
00000210: fb87 913d 7ada c8bc 21d0 5cbd 7074 393b
00000220: c996 1abd f473 97bd f73d b6bd 6968 f33a
00000230: b13f ea3d 75eb a2bc 4001 bd3d c342 8b3d
00000240: 79ac 1e3d 8c4c 5cbd 4df3 a53d 3365 e3bc
00000250: 583f 043d 05ec 823d 4d4e 4c3d a5bf 993d
00000260: db75 cfbc 008b 86bd 9182 4c3d 4147 803d
00000270: 4062 04bc 0476 76bc 0b7b 183c 0e7d adbd
00000280: 4e31 a4bd 2eab 75bd 6655 e73c ae0a 2dbb
00000290: 4b80 abbd 3c30 963c 0314 c4bd 6178 2dbd
000002a0: 4a1e bf3c cc15 023d bcc0 ccb7 1519 8e3c
000002b0: a86e 16bd f29f ee3d 583e 70bd 2712 9eba
000002c0: e61d 46bc b49f 19bd 6e08 69bd cd25 3bbd
000002d0: 490b b13c 3bb3 5cbd 978c 3fbd b945 1b3d
000002e0: 984b 2bbd ce10 023c 9484 ad3c 3ba5 bebd
000002f0: ca41 dfbc 1a69 25bd 2e6a 2e3d aaad e1bc
00000300: 1d5a 88bd 576b 24bd c389 d33b 9ce7 b3bd
00000310: 14df 8f3d a427 39bd a5c5 89bd ffcf 6d3d
00000320: 393c 13bd d815 1abd f186 363d 4a07 773b
00000330: 6246 5dbd dcb2 e6bc a296 70bd d227 233d
00000340: 9639 603d 7098 033d d13f 8bbd 3ef1 4c3d
00000350: 4497 83bd 29db 61bd 21ef e5bd e963 223d
00000360: 7c86 0c3d 0cea 313d a085 f03c f985 9f3b
00000370: b864 dd3c 6915 943d d7fd c13d 33d4 203d
00000380: 8b2b 033e d874 843d 1bca e63c 0210 313d
00000390: ccdf c7bd f648 873d 941b 2b3c 439e e43c
000003a0: 1491 033c bdf9 c43d 230b 90bc eabb 1bbd
000003b0: eccb 413d e405 b83c 0d8e bc3c 4845 d3bd
000003c0: 74b2 d0bd 0298 58bc 3c8c 75bd 7077 c53d
000003d0: 647c 883d 5324 2a3d a38e 1e3d d058 953d
000003e0: 8975 733c 00df 93bc a5f2 4e3d c8ec 2a3d
000003f0: 79a0 4dbd 9421 8a3d 149b 503d a411 fe3c
0.06335856 -0.043061007 -0.01674741 -0.013995149 0.02268123 -0.009798028 -0.03260104 0.06516481
0.03939912 -0.03972783 -0.0377918 -0.07343598 0.08949872 -0.003350846 -0.053675916 -0.0072816974
-0.04835132 0.00192294 0.06114208 0.018035036 0.031138321 -0.06254463 -0.002827283 0.05857899
0.018408794 0.007369868 0.060917765 0.048450246 0.061139297 0.072490156 -0.013177575 -0.06540247
-0.08600127 -0.05453684 -0.021013504 0.049115248 -0.07590326 0.015736036 -0.09189386 0.06694821
0.023338122 -0.021529322 -0.04987524 -0.015092884 0.042511474 -0.059587218 0.07079499 -0.06552908
-0.04069393 -0.014975309 0.044868447 0.046839505 0.072557 -0.048272897 -0.0478445 0.007961582
-0.0447491 -0.037237026 -0.069600694 0.02972583 -0.058819048 0.023039145 -0.0231149 0.023832543
0.075949244 -0.04580526 0.087082356 -0.026658185 -0.01798857 -0.08548218 -0.046407104 -0.07779642
0.026989631 -0.043070063 0.0081318645 0.06755774 0.03518523 0.030577391 -0.043555573 -0.010423625
0.060498085 0.050815523 0.007854255 -0.08424109 0.04170059 -0.06893871 0.058410242 0.0038243968
0.052930765 0.0416087 -0.03714432 -0.041838355 0.05510544 0.07140816 -0.0369412 -0.025133241
-0.02338579 0.05746457 0.014220732 0.07627982 -0.026829628 -0.060272485 -0.090425745 -0.052957587
0.06854595 0.039319865 0.058948774 -0.02404161 0.032691777 0.028548663 -0.0764782 -0.07265564
0.05099418 0.048439454 -0.007964247 0.07805102 0.025843292 0.063781515 -0.0375391 0.034514137
0.06564251 -0.08779456 0.0548474 -0.010006673 -0.0008359836 -0.024640538 0.014583651 0.069056004
0.037340485 0.06949888 -0.052961215 0.010620594 0.07106014 -0.02451824 -0.053909425 0.0028298162
-0.037741456 -0.07395163 -0.088985376 0.0018570545 0.114379294 -0.019887665 0.09228754 0.06799843
0.0387387 -0.05378394 0.081030466 -0.027758216 0.03228697 0.063926734 0.04987936 0.075072564
-0.025324753 -0.06569481 0.049929205 0.062635906 -0.008080065 -0.015042786 0.0093066795 -0.08471118
-0.080172166 -0.059977703 0.028238963 -0.002640407 -0.08374079 0.018333547 -0.095741294 -0.04235113
0.023329873 0.03175907 -2.4408444e-05 0.017345944 -0.036726624 0.11651601 -0.058653206 -0.0012059853
-0.012092089 -0.03750582 -0.056892805 -0.045690347 0.021611826 -0.053881865 -0.046764936 0.03790829
-0.04182014 0.007938577 0.021181382 -0.09308859 -0.02725305 -0.040383436 0.04258173 -0.02754863
-0.06657813 -0.04014143 0.0064556315 -0.0878441 0.07024971 -0.04520382 -0.06727151 0.05805969
-0.035946105 -0.037618488 0.044562284 0.0037693554 -0.0540222 -0.028161459 -0.058737405 0.039832897
0.05474242 0.032127798 -0.067992814 0.050034754 -0.06425336 -0.055140648 -0.11227251 0.039646063
0.03430794 0.043436095 0.029360592 0.0048682657 0.027025566 0.07230646 0.09472244 0.03926487
0.12809579 0.06467599 0.028172543 0.043228157 -0.09759483 0.06605713 0.010443587 0.027907496
0.008030195 0.09617946 -0.017583435 -0.038021006 0.047313616 0.022463746 0.023016954 -0.10315949
-0.10190287 -0.013219835 -0.05994819 0.096419215 0.06664351 0.041538548 0.038710248 0.0729233
0.0148595655 -0.01805067 0.050524373 0.04172972 -0.050201867 0.06744686 0.050929144 0.031014271

lstm.weight_hh_l1 f4 [512, 128]
00000000: def6 2d3d 32c9 333c da44 473d 5e12 3dbd
00000010: 10dd 10bc 82ac fdbc 8573 cebc debd 813d
00000020: e3ae 993d 431c 653b 56f5 fbbc 27bb ad3d
00000030: 6aaf b2bc 1d9c 053d 8233 b5bd 1996 413d
00000040: ecd5 0bbc 4fd8 3e3c a8d3 84bd 8101 7c3d
00000050: 2f66 65bd 2c86 7c3c d5cd febc de64 713d
00000060: 3a6f 843d d8f2 8cbd 18e6 3abd d180 e8bc
00000070: 42c3 633d 7c1d 93bd 32df 81bc fe15 8cbd
00000080: 4509 cbbc fa4d 42bd eb8d c83c 4d78 343d
00000090: 7b80 90bb 5e15 6cbc 76ca 66bc 4480 3e3c
000000a0: 83d8 a9bd a029 163c 7557 7ebd dd73 a3bd
000000b0: 8119 90bd 97b9 64bd 3beb af3d 2b96 0d3d
000000c0: 546c 0a3a f4c9 c4bd fce6 ad3c c8b2 85bb
000000d0: 3e7f aabc 1608 a23a ba31 2fbd fd66 8c3c
000000e0: 59d2 aabd 63c5 3b3d 76ab 7abd 2251 a23d
000000f0: eeb3 b7bd 45f2 023c 1af7 a63d 5502 a23d
00000100: e5c5 253c 82a6 5bbc fb25 7ebd 1484 a93c
00000110: a7eb 753d 1334 08bd c439 b73b d861 31bd
00000120: 1dbf cbbd f0d3 9ebd b4cd f1bc 86a9 963c
00000130: 8060 11bd 6de1 afbd 12c5 343d 0b30 703d
00000140: 1ef2 dfbb a065 93bc 2557 0e3d e85c 90bc
00000150: d7c1 42bd 61b8 b03d 6698 adbb 5035 74bd
00000160: e0bc 923d f70f 923d e854 47bc befa 0a3d
00000170: d5f5 d03c 949c efbc 007b 82bd ba27 22bd
00000180: cd2a 933d e096 93bd 3630 583d 6d58 2bbd
00000190: 392c ae3c 46c9 783d df74 843d b0b2 243d
000001a0: 9606 a8bd 00e4 a23c ff95 b33d 3a75 ec3c
000001b0: f34a 653d 6109 99bd a183 39bd 7b70 e0ba
000001c0: 854a dabc a3f3 8f3d d8df d43b 501e 3e3d
000001d0: dd2f 0c3d db9c 95bc e5f9 4dbd c6c9 883d
000001e0: f08a 34bc a52a ae3c 12cc 2cbd 0bc2 68bd
000001f0: d0e3 a43d 5de0 aebd f4ae 273d 9c2e 963d
00000200: 052f 40bd da6f 593d 32d1 38bd b35b 0dbd
00000210: a108 4bbc 2689 7cbd 723a 86bd e553 0e3d
00000220: 8644 7a3d 370b 9c3d 24de 8b3c 21d8 c13d
00000230: b5bd cdbd 0f47 803b 19da 653d 89eb ccbd
00000240: 2aa5 493b 3333 00bd d0e9 75bd 9a3b c1bc
00000250: fd13 3a3b 014f b3bc 7c99 15bd 6055 083d
00000260: 9938 f43c c5b4 bd3d 1600 cfbd 9295 5ebd
00000270: e7f8 d5bd 7128 94bb 9702 b6bc 7696 9f3a
00000280: 3ffa 293d 0b27 333d 1756 a1bc 2dd4 333a
00000290: d706 14bd b63d 69bd 4866 38bd 8355 993d
000002a0: 387d 793a 8224 5ebd f669 16bb 5db4 e83a
000002b0: 6c4b 6b3c df49 2d3d 3a32 8dbc 9fe5 6b3d
000002c0: a889 903d 48b4 d5bc 4f17 403d 1866 413d
000002d0: e92e 213d ad56 c93c bdac 54bd 0fed 2dbd
000002e0: 568e 83bc 2897 92bd aa92 183d 99a3 053d
000002f0: 458a ebbc 6fe9 64bb bddb fcbc 53f9 6ebd
00000300: 2c49 98bc 71e9 6abd caa9 25bd b661 b7bd
00000310: ecee 8b3d 15e8 51bc dd34 853b a52f 70ba
00000320: cb81 8a3d de05 db3d 2ce1 29bd 9e10 633c
00000330: 21dc e0bd fd61 8a3d 149e 793d 02b8 ab3d
00000340: 12bd 9d3d 331c 7b3c c30f 4c3d 3612 e73c
00000350: 3cf6 8ebd 80ce 163d d50c 97bd 6e5e 58bc
00000360: e615 663c 5dec 78bc 5d2a 433c 4bc2 143d
00000370: 33c2 933d 8d02 9b3d 1e6b 1cbd c759 77bd
00000380: f888 a6bd e85f 513d da09 1f3d 7d2f 14bc
00000390: de02 683d 18ba 50bb 2c5b 4abd b01d c53c
000003a0: a9e9 af3d 1c44 d33c 14d9 f0bc 9e2c cabd
000003b0: f1b6 e63c f963 e73c 23ba 2ebc b576 a13d
000003c0: 2f66 473d 4020 cebd d789 b5bd 8085 f6bb
000003d0: d2c2 91bd 1cad b3bc 90e8 663d fced 983c
000003e0: efc1 9bbd a517 aa3c 0915 2cbd 4584 4bbc
000003f0: 639e 23bd a329 183d cd17 85bd 0899 98bd
0.04247176 0.010973262 0.048649646 -0.046160094 -0.008841768 -0.030966047 -0.025201568 0.063350424
0.0750406 0.0034959472 -0.030756634 0.08482962 -0.02181216 0.032619584 -0.08847715 0.047262285
-0.00853489 0.011648252 -0.06485683 0.06152487 -0.056005653 0.015412848 -0.031104008 0.058934085
0.06466527 -0.06882256 -0.04562959 -0.028381737 0.055606134 -0.07183358 -0.015853498 -0.06840132
-0.024784693 -0.047437645 0.024481734 0.04406004 -0.0044098473 -0.014409391 -0.014086356 0.011627261
-0.082932495 0.009165198 -0.062095124 -0.079810835 -0.070361145 -0.055841055 0.085897885 0.03456704
0.00052804244 -0.09608832 0.021228306 -0.0040801503 -0.020812627 0.0012362029 -0.042772032 0.017138952
-0.08340902 0.04584254 -0.061198674 0.07925631 -0.08969866 0.007992332 0.081526 0.07910601
0.0101179825 -0.013406398 -0.06204794 0.020692863 0.06003919 -0.033252787 0.005591603 -0.0433062
-0.09948561 -0.077552676 -0.029517032 0.018391382 -0.03549242 -0.085879184 0.044133253 0.058639567
-0.0068342825 -0.017992795 0.034751076 -0.017622426 -0.04754814 0.086289175 -0.0052977083 -0.059621155
0.07164931 0.07131951 -0.012166239 0.033930533 0.025507847 -0.029249467 -0.06371117 -0.039588667
0.07185898 -0.072065115 0.052780353 -0.041832376 0.021261321 0.060738824 0.06467604 0.040209472
-0.08204381 0.01988411 0.08768844 0.028864492 0.05597968 -0.07472492 -0.045291547 -0.0017123366
-0.026646862 0.07028892 0.006496411 0.046415627 0.034225333 -0.018263271 -0.050287146 0.0667911
-0.011019453 0.021260569 -0.042186804 -0.05682568 0.08051264 -0.08538888 0.040938333 0.07333109
-0.04691984 0.053085186 -0.04512138 -0.03451128 -0.012392194 -0.061654232 -0.06554116 0.034747977
0.061100505 0.076193266 0.017073698 0.094650514 -0.10045949 0.003914721 0.056116197 -0.10005862
0.0030768611 -0.031298827 -0.060037434 -0.02358799 0.0028393262 -0.021888258 -0.036523327 0.033284545
0.029812144 0.09262995 -0.10107438 -0.05434186 -0.10447865 -0.0045214226 -0.022218032 0.0012175578
0.04149842 0.043738406 -0.019694371 0.0006859925 -0.036139335 -0.056943618 -0.045019418 0.07487013
0.0009517255 -0.054234035 -0.0022951341 0.0017753948 0.014361244 0.042306777 -0.017235864 0.05759203
0.07057506 -0.026086941 0.04689723 0.047216505 0.039351378 0.024577463 -0.05192255 -0.042462405
-0.016059082 -0.07157737 0.037249245 0.032626722 -0.028752455 -0.0034929176 -0.030866498 -0.058343243
-0.018589579 -0.057351533 -0.040445127 -0.08954184 0.0683268 -0.01281168 0.0040651397 -0.0009162373
0.06763037 0.106944785 -0.041474506 0.013858942 -0.10979486 0.06756971 0.06094177 0.08384706
0.07702078 0.015326547 0.04981972 0.028206926 -0.06980559 0.036818027 -0.073754944 -0.013206108
0.014043307 -0.015193072 0.011911956 0.036318105 0.07214775 0.07568846 -0.038188092 -0.060388353
-0.081315935 0.051116854 0.038827755 -0.009044525 0.05664336 -0.0031849202 -0.049403355 0.024062008
0.08589489 0.025789313 -0.029400386 -0.09871791 0.028163405 0.028245913 -0.010664496 0.0788397
0.048681434 -0.10064745 -0.088641815 -0.0075232387 -0.07117237 -0.02193313 0.056374133 0.018668167
-0.07605349 0.020763228 -0.04201225 -0.012421672 -0.03994597 0.037149083 -0.0649868 -0.074510634

lstm.bias_ih_l1 f4 [512]
00000000: 6c4a 73bd d203 f7bc af18 83bd 3af1 9abc
00000010: 9220 58bd 2438 4a3d e970 763d 5221 aa3d
00000020: 8c93 48bd 62d9 58bc 45e8 adbd 8896 02bc
00000030: f9a2 3c3d 8417 23bc 328a 923d 8b66 2dbb
00000040: 6379 cb3d fed6 1cbd bf63 8536 fade 373d
00000050: e6e9 8f3c 1ffd 313c 6f84 a93c 6cd4 823c
00000060: 0f40 873d 9417 d1bc 2179 223e 9765 b83d
00000070: 202c acbd 5aa3 a03d 38e2 0a3d fa24 6b3d
00000080: 7454 9d3d d867 c13d 4b95 96bc f797 103c
00000090: b7f5 a6bd 90d3 90bd 903d 183d ddae 7b3d
000000a0: afd7 1dbc d549 00bd 1492 913d 75a4 c5bc
000000b0: fa25 b53d 04e4 0ebd 102b 10bc 8211 073c
000000c0: 79d7 d8bb e825 853c 65d1 c2bc d632 d93c
000000d0: b2fd 91bd b341 953d cef3 89bd df29 413d
000000e0: 7365 43bd 4285 d63d d9a6 e93d 6c99 533c
000000f0: e846 033e a477 3dbd 7a12 9d3c dbdf 583c
00000100: aba5 d7bb 8f59 3abd 8c4d e13d efe3 973b
00000110: 99b3 8ebc bb7a 80bd 2bca f53c 9d2e 03bd
00000120: ca6c 733d cba8 45bd 415c 16bd d334 67bd
00000130: 28c0 c8bc 877b f9bc 67e5 d63d 5320 de3d
00000140: 7481 013d ca4b c03d bf8e 84bd c2ac 913d
00000150: b83e 8b3d 41cf 2ebd b583 9d3c b551 373d
00000160: 85b7 86bd f562 473d b060 323d de63 16bd
00000170: f877 6a3d 01a3 d83c 22eb a23d 95d8 1b3d
00000180: 88f3 0bbc 5a65 e13d d793 ae3d 7108 af3d
00000190: db04 c13c e961 e73d 63d7 033d 53af 153d
000001a0: ab00 beba 62ee d93c 4573 5a3d dba1 1a3d
000001b0: 481d 02bc 913d 05bb 6d17 403c d4b9 85bc
000001c0: 1d31 23bd 2f62 9abc f88d 83bb 83c9 33bd
000001d0: 3f6f c6bc de13 0f3d 5e40 233c 8dec 73bd
000001e0: 9624 1d3d 7b5a 29bd 4fdc 2e3c 59ee 403d
000001f0: 129d f3bc 2a21 083e 6fe1 25bd b293 f0bc
00000200: 5e8b 9d3b d106 a2bd 5585 333c 7d0e b03c
00000210: 5f68 763d 0ff2 69bd 7c6a 1abc c0ed 063d
00000220: 116a 4cbc 49c0 803d 2e0f dcbd 6444 f13c
00000230: 6e64 bd3b 6aa5 21bd 869f 06bc cee7 903d
00000240: 0ffa 9abc 5928 af3d 4e45 fe3a ee90 1f3d
00000250: e3e7 76bc b4d6 8f3d d5c7 03bd 41d0 163d
00000260: e03f 83bd 5314 9abd b72e 26bd b391 46bd
00000270: f65e 993d 0605 463d e0cc 643d 9903 fcbc
00000280: 72f5 e43b 3390 803d a237 ff3b 25b0 a6bd
00000290: 437f 08bc 786c 653d 6382 11bd 1a8c 423d
000002a0: 5fea 73bc 4f77 babd 1e72 8b3c cbc3 7abd
000002b0: 1696 ee3a 90ad e03c 8621 80bd d423 7fbd
000002c0: 5160 81bd 804d 70bd f73a 873d ad26 4e3d
000002d0: b6e7 8ebd f1cb ad3c 129b c43d 7897 363c
000002e0: 7fcb 803d 5374 a03d 129a 1ebd 0244 50bd
000002f0: 94bd 1ebd 4d2f c4bc 0e7c 9bbd 538b 37bd
00000300: 0776 9dbb f1bd 143d 02f3 403d a01a 443d
00000310: 671a 503d 0911 db3a 324d 57bd 0536 243d
00000320: b966 74bc b28a 7c3c 19d1 8c3d ac4a e7bc
00000330: 7bd6 05bd 388a b6bc c367 8b3d c9b3 17bd
00000340: 541b 2a3d 29f6 c43c a2e9 e7bc 70e9 58bd
00000350: a14c 4dbd 6faf a73d 55e0 55bc 66e6 6fbd
00000360: 5bf9 53bd 9885 38bd b0cf 563d ce9f 95bd
00000370: 6817 22bc 97dd 46bd fab2 7ebd 8d9e 24bd
00000380: 0a17 6a3d 5d8c 343d 410a 773b dd76 753c
00000390: cd60 833d fb96 2abd 35d3 1fbd 1a11 62bd
000003a0: d0aa 143d 478e a8bd 407b 97bd a14d 053d
000003b0: 60ec 83bd c084 b23d 531f 83bd a09f cdbc
000003c0: 31ba 753d 7656 67bc 07d4 433d a74d 2e3d
000003d0: d226 b43d d24f a83c d02f 87bd 91d1 5f3d
000003e0: 5c87 943d 2108 9bbd 92f2 36bd 84dd 1b3c
000003f0: 3ed5 90bd 9540 0a3c 9cf7 0b3d 8cbd ae3c
-0.059397146 -0.030153189 -0.064011924 -0.018913854 -0.052765436 0.049369946 0.060166273 0.083071366
-0.048968837 -0.013235422 -0.084915675 -0.00797046 0.04605386 -0.009954337 0.07155265 -0.0026458825
0.09935262 -0.03829097 3.975321e-06 0.04489038 0.017567586 0.010863571 0.020693032 0.015970431
0.06604015 -0.025523938 0.1586652 0.09003752 -0.08406854 0.07843657 0.033907145 0.05740831
0.07682124 0.09443635 -0.018381735 0.008825294 -0.08152335 -0.07071602 0.037168086 0.06144606
-0.0096339425 -0.03132041 0.0710794 -0.02412627 0.08845134 -0.03488542 -0.008799329 0.00824392
-0.006617483 0.016253427 -0.023781488 0.026513498 -0.07128467 0.07287922 -0.06735955 0.047159072
-0.04770417 0.10474636 0.11408777 0.012914997 0.12820017 -0.046256676 0.01917385 0.013236965
-0.0065810285 -0.045495566 0.11001119 0.004635326 -0.017419623 -0.06273409 0.030003628 -0.032026876
0.05942992 -0.048256677 -0.036709074 -0.05644686 -0.02450569 -0.03045441 0.10492974 0.10846009
0.031617597 0.093894556 -0.06472539 0.07113029 0.06799072 -0.04267812 0.019227842 0.044755656
-0.06577972 0.048678357 0.04354924 -0.036716335 0.057243317 0.026444914 0.07955004 0.038048346
-0.008541949 0.110056594 0.08524292 0.08546532 0.023561886 0.11297972 0.03218783 0.036544155
-0.0014496049 0.026602928 0.053332586 0.037752014 -0.0079415515 -0.0020330886 0.011724335 -0.016323961
-0.03984176 -0.018845646 -0.0040147267 -0.04389335 -0.024222968 0.034931056 0.009964077 -0.059551764
0.03836497 -0.041346055 0.010672643 0.047102306 -0.029737983 0.13293901 -0.040498193 -0.029367302
0.0048078736 -0.079114564 0.010957082 0.021491284 0.06015813 -0.05711561 -0.009424802 0.03294158
-0.01247646 0.062866755 -0.10745083 0.029451557 0.0057797944 -0.03946439 -0.008216744 0.07075463
-0.018918065 0.085526176 0.0019399317 0.038956575 -0.015069935 0.07023373 -0.032172997 0.0368197
-0.064086676 -0.07523408 -0.040571894 -0.048478793 0.074888155 0.048344634 0.055859447 -0.030763434
0.006987267 0.06277504 0.0077886144 -0.08139066 -0.008331123 0.056011647 -0.035524737 0.047496893
-0.014887421 -0.091047876 0.017022189 -0.06122188 0.0018202688 0.027426511 -0.06256394 -0.062290028
-0.06317199 -0.05866766 0.066030435 0.050329853 -0.06977789 0.02121541 0.0959989 0.011144511
0.06288814 0.07834687 -0.03872115 -0.050846107 -0.038755015 -0.023948336 -0.07592021 -0.044810604
-0.0048053297 0.036313955 0.04710675 0.047876954 0.05080643 0.0016713451 -0.052563854 0.04009058
-0.014917069 0.015413927 0.0687582 -0.028233849 -0.032675248 -0.022282705 0.068069 -0.03703669
0.04152997 0.02404316 -0.028309647 -0.052957 -0.050121907 0.08187758 -0.013053973 -0.058569334
-0.051751476 -0.04504928 0.05244416 -0.07305871 -0.009893276 -0.04855117 -0.062182404 -0.04019027
0.057150878 0.044079173 0.003769532 0.0149819525 0.06414948 -0.041647892 -0.039019782 -0.05519209
0.036295712 -0.08230262 -0.07396555 0.032544736 -0.06441569 0.08716726 -0.06402459 -0.02510053
0.05999202 -0.014119735 0.047809627 0.042554524 0.08796467 0.020545874 -0.066009164 0.054643217
0.0725238 -0.0756991 -0.044664927 0.009513263 -0.07071923 0.008438249 0.034171686 0.021330617
