models/CCL model.pth (torch, 799650 bytes, 9 tensors)

lstm.weight_ih_l0 f4 [512, 1]
000000 b0 ab b9 3d 20 24 77 bc 6b 3d 5e 3d 75 e2 94 3d
       0.0906595 -0.015084296 0.05425779 0.07269756
000010 86 49 36 3c 1f 16 51 3d 59 9d f7 bd 76 22 a9 3d
       0.011125928 0.051046487 -0.120905586 0.08258526
000020 61 6b 4c 3c 05 4c 80 3d a6 b6 b4 3d a3 45 84 3c
       0.012476773 0.062644996 0.088239 0.016146487
000030 eb de 76 bd 19 4a fe bb 82 1e 98 3d 8b b2 28 3d
       -0.060271185 -0.007760298 0.07427694 0.041185897
000040 65 64 56 bd d0 6c 72 bc b7 dd 52 bd 3c 7c 68 3d
       -0.052341837 -0.014796451 -0.051480975 0.056759104
000050 5a 12 13 bd fb 5d 18 3c aa 36 8a 3d a5 81 25 3d
       -0.035906173 0.00929975 0.067487076 0.04040684
000060 0a 67 5e 3d f1 33 1c bd 4c 95 10 3c 9a 74 b5 3d
       0.054297484 -0.038135473 0.008824658 0.088601306
000070 2d 28 62 3d d6 89 c0 bd f2 3c 24 3d da be 66 3d
       0.055214096 -0.0940129 0.040097184 0.056334354
000080 33 67 1e 3d 4e 3f ab 3d 2f 46 c5 bd 07 0f 6a bc
       0.038672637 0.08361684 -0.09632527 -0.014285809
000090 80 12 6b bd b6 4b 17 3d 5b 4a 82 bc 3b 26 c8 3c
       -0.05739069 0.036937438 -0.015904596 0.024432292
0000a0 76 7b 75 bd 8e 4e 04 be 6f 54 24 3d 67 3e 7d bd
       -0.059932195 -0.12920591 0.040119585 -0.06182709
0000b0 0f c9 4a 3d 27 cd 07 bd 76 39 60 3d 74 b5 98 bc
       0.04950815 -0.033154633 0.0547423 -0.018641211
0000c0 ef ac f2 bc 3d b5 f5 bc fa a8 1e 3b 25 c6 2b 3d
       -0.029623477 -0.029993648 0.0024209605 0.041937012
0000d0 d5 7e 2f 3d 9a ac 7f bd 74 a2 1c bd b0 36 e7 bc
       0.042845566 -0.062420465 -0.038240865 -0.02822432
0000e0 5a 54 26 3d 05 5a b7 bc 78 6f a3 bd e8 f2 04 bd
       0.040607788 -0.022381792 -0.07980245 -0.032458216
0000f0 81 70 09 3d e8 08 41 be bc ec 98 bd 1b 34 cb bd
       0.033554558 -0.18851054 -0.074670285 -0.09922048
000100 04 5c 77 3c c4 52 96 bb 53 b6 83 3d 2d b6 0c 3e
       0.015097622 -0.004587503 0.0643126 0.1374137
000110 b2 72 7d bd 7e 41 21 3d 2a e1 8f 3d 95 fb 0c be
       -0.06187696 0.0393691 0.070253685 -0.13767846
000120 67 4c 31 bc 02 85 ad bd 00 b0 3b bd b4 33 85 bd
       -0.010821438 -0.08472635 -0.045822144 -0.06504002
000130 8f ba 7f bd 4e 13 fe bd 0c 6a df 3c c6 03 b3 bc
       -0.062433776 -0.12406026 0.027272247 -0.021852385
000140 c9 f2 12 3c 15 66 fb bb f1 73 29 3d 5d 89 b5 bd
       0.008969017 -0.0076720812 0.041370336 -0.088640906
000150 35 0d 8e bd e6 ba 81 bd 2f e5 aa 3c 5e d3 99 3d
       -0.06936113 -0.06334476 0.020861236 0.07511018
000160 a6 7a 2e be df 4c 9a 3d 61 5f 58 bc 34 38 16 bd
       -0.17038974 0.07534193 -0.013206334 -0.036674693
000170 ac 94 02 3e 01 76 1c 3c af 69 6c bc fb 00 07 be
       0.12752026 0.009549619 -0.014429494 -0.13183968
000180 9b e9 8d bc 08 b1 80 bd 5a 9c 46 bd b6 92 fc 3c
       -0.017323306 -0.06283766 -0.048488952 0.030831676
000190 a4 76 40 bd ba 96 f5 bc c3 a7 de bb c6 7f a7 bb
       -0.046988145 -0.029979099 -0.006794901 -0.0051116673
0001a0 56 25 8e 3d 54 f4 d4 bd 0c d8 0a bd a1 1d 38 3d
       0.06940715 -0.103981644 -0.033897445 0.04495013
0001b0 84 97 09 bc 21 c3 a8 bb a2 f6 c0 bc dc ac f1 3c
       -0.008397941 -0.0051502143 -0.023555104 0.029501371
0001c0 8a d7 00 3e c2 8c 63 bc 06 f2 eb bd b5 9a e7 bd
       0.12582222 -0.01388854 -0.11520772 -0.11308805
0001d0 8d 16 e1 bd 47 c9 f8 bc 24 4b a3 bd eb 57 5e bd
       -0.10990629 -0.030369414 -0.07973316 -0.054283064
0001e0 20 51 8f 3d bf 38 d9 3d 3c 7a c2 bd 15 55 96 bd
       0.06997895 0.106065266 -0.094959706 -0.07340447
0001f0 0b 58 33 bd da 9c d5 bc 51 db 6e 3b 57 eb 9f bd
       -0.043785136 -0.02607577 0.003644664 -0.078085594
000200 57 ec 08 bc 32 a3 05 3b aa 82 27 bb 8b 1e 9f 3d
       -0.008357129 0.0020391461 -0.002556006 0.077694975
000210 0c 8e ac bd 6d 7e 96 bd 8a 99 fa bd ab 90 e0 3d
       -0.08425531 -0.073483326 -0.122363165 0.10965093
000220 60 56 5e bd f2 cb fc 3d 70 b7 87 bc 4f 68 05 3d
       -0.054281592 0.12343587 -0.016566962 0.03257018
000230 56 a0 3e 3c 3f 73 b2 bb 8b 01 20 3d ca 1d 6d bd
       0.011634907 -0.0054458673 0.03906397 -0.057889737
000240 83 92 14 be 5d 6c b1 3c 81 ca 6c bd 41 53 84 3d
       -0.14509015 0.021658117 -0.05781031 0.06461192
000250 03 f6 88 bd a6 20 4b be 9e 72 ac 3d b5 5e af bd
       -0.06687548 -0.19836673 0.08420299 -0.08562986
000260 ee 0f 18 3d 23 91 d1 3d 94 97 16 3d ae 5c 96 3d
       0.037124567 0.10232761 0.03676565 0.07341896
000270 e5 1b 81 3d 76 45 73 bd 3d d6 2e 3d c6 b6 b7 bd
       0.063041486 -0.059392415 0.042684782 -0.08970408
000280 f2 1a b6 bc 4e 1e 11 bc a6 53 83 3b d8 a8 d9 bd
       -0.022229645 -0.008857323 0.0040077744 -0.106279075
000290 3d 77 88 bd 33 dd e8 bd 83 ad 85 bd 1c 49 33 bd
       -0.06663368 -0.113703154 -0.06527235 -0.043770894
0002a0 17 ec b6 3c 48 6b 02 be 2e 5d be bb 2a f4 67 3d
       0.022329373 -0.12736237 -0.0058094477 0.056629337
0002b0 9b 3d f9 39 b1 c9 3c bd 58 b0 73 bd 68 bd c3 3d
       0.0004753888 -0.046090785 -0.059494346 0.09557611
0002c0 a7 e1 c2 3d 9e 62 6f bd e7 c0 bb 3d 5c 10 4d bb
       0.09515696 -0.058443658 0.091676526 -0.0031290269
0002d0 7e b7 ee ba d2 00 a9 bd 03 11 a1 bd 4a 37 90 3c
       -0.0018212644 -0.082521096 -0.07864573 0.017604489
0002e0 71 b1 09 bd b3 49 10 bd 6b f4 82 bd bf 59 26 bd
       -0.033616487 -0.035226535 -0.06394275 -0.040612932
0002f0 6e 06 8c 3d de 7b 8a bd 25 48 92 3b 87 f6 da 3b
       0.06837164 -0.06761907 0.0044641667 0.0066822204
000300 55 69 83 bb 24 75 66 3d 5e 31 74 bd 71 16 b8 ba
       -0.0040103593 0.056264058 -0.059617393 -0.0014044774
000310 56 32 bc bd 4a f9 b2 3d 4e a6 c6 3d a3 0b 66 bc
       -0.09189288 0.08738954 0.09699689 -0.01404086
000320 bb fa 1b bd 14 8d 74 bc 59 19 0f 3d f9 74 a9 3c
       -0.038080912 -0.014926214 0.034936283 0.02068566
000330 f2 dc 27 bd df 9d f4 bd 43 a0 41 bd 96 78 4a 3d
       -0.040982194 -0.11944174 -0.047271978 0.049431406
000340 7a 24 92 bc f0 9c 97 bd 3a 2e b4 3d 11 eb ae 3c
       -0.017839659 -0.0740298 0.087978795 0.021352323
000350 33 6a 35 bd 09 63 1c bd 29 8b 1e ba 8b df ca 3d
       -0.044290733 -0.038180385 -0.0006047958 0.09905919
000360 ea 0c 1b be 7a 1e eb 3c 9e fc d7 3c da 0b ea 3c
       -0.15141645 0.028701056 0.026365574 0.028570104
000370 d9 66 d5 3c dd 65 8e 3d 82 d2 8b b9 fd 6a 01 be
       0.026050018 0.06953023 -0.00026668987 -0.12638469
000380 31 66 d9 bc e4 65 c7 bd 4d 15 ea bd 6f b5 55 bc
       -0.026537986 -0.09736231 -0.11429844 -0.013043745
000390 c8 01 e8 bd 89 f5 0c 3c dd cd af bd f7 96 0e 3d
       -0.11328465 0.008603462 -0.08584187 0.03481194
0003a0 ec ab eb 3d b5 71 a6 bd bc 41 8b 3c 4a 78 07 bd
       0.11507401 -0.08127157 0.016999118 -0.0330737
0003b0 7a d2 9b bd e1 e5 a6 3c 44 e4 b9 3d 73 0c d4 bd
       -0.076085046 0.020373287 0.09076741 -0.10353937
0003c0 2d a6 25 3c 9b 80 27 3d ae 02 1e bd 93 96 cd bd
       0.01011042 0.040894132 -0.038576774 -0.100384854
0003d0 36 82 6e bd 1e 13 3d bd 7d 53 c4 3b e2 b5 da bd
       -0.058229648 -0.04616081 0.005991398 -0.10679223
0003e0 c3 b3 7b 3d 21 a1 83 3d ee c1 13 bd b5 f1 d4 bd
       0.06145073 0.06427217 -0.036073618 -0.103976645
0003f0 0a 5b 3b 3d 93 ca 25 bb b6 b4 0b 3d e2 41 62 bd
       0.04574112 -0.0025297746 0.034107886 -0.055238612

lstm.weight_hh_l0 f4 [512, 128]
000000 14 a6 c3 3c c8 4a a1 3c 69 8b 69 bd 15 21 ad 3d
       0.023882903 0.019688979 -0.057017718 0.084535755
000010 17 18 49 bd 36 8d 0a bc cd 4b e6 bc 7b 5f 8c 3d
       -0.04909524 -0.008456519 -0.028112317 0.06854149
000020 ed f8 be bc f4 4b 87 3d 84 60 5c bc 5b 15 44 bd
       -0.023312056 0.06606284 -0.0134507455 -0.04787193
000030 c8 84 7d 3d f5 a7 bd 3d 9e 96 be 3c 15 e3 99 bd
       0.06189421 0.09260551 0.02326518 -0.075140156
000040 25 49 a2 bd 54 a2 27 3c ce 26 a3 3c d8 41 19 bd
       -0.079241075 0.010231573 0.019915964 -0.03741631
000050 3d f1 b3 3c 1d c9 86 bd 57 28 b0 bd 57 1b 4a bd
       0.021965617 -0.06581328 -0.08601444 -0.04934248
000060 d2 86 92 bb db 6d b7 3c d7 9f 55 3d 2a b8 03 bd
       -0.0044716382 0.02239125 0.05215439 -0.032158054
000070 ca fd 81 3d 29 6d 42 3c 8a a0 96 bd 68 7a 6a bd
       0.063472345 0.011866846 -0.07354839 -0.057245642
000080 d6 6a 29 3d bc d3 76 3c 23 19 2a 3d 6f e7 ea 3c
       0.041361652 0.01506513 0.04152788 0.02867481
000090 c1 f3 94 3d 93 16 8a 3c 02 41 31 bd fd 6f 31 bd
       0.07273055 0.016856467 -0.043274887 -0.04331969
0000a0 14 a9 b6 bd 01 bc 81 bd 09 22 15 3b d7 b2 b8 bd
       -0.08918968 -0.06334687 0.0022755882 -0.09018486
0000b0 17 c2 c8 bc 39 c5 ae bd be a0 d8 bc aa a1 77 bd
       -0.024506612 -0.08533711 -0.026443835 -0.06045691
0000c0 4e 08 6c bd a1 39 56 3d fe 1f 8e bd 0c 26 6a bd
       -0.057625107 0.052301053 -0.06939696 -0.05716519
0000d0 74 60 4e bc b2 a7 5e bd 9f 78 6b 3d 63 bf cd 3c
       -0.012596238 -0.054359145 0.05748808 0.025115674
0000e0 d9 66 54 3d 41 f8 b9 bd 26 42 95 bd c4 d3 6a bd
       0.051855896 -0.09080554 -0.072880074 -0.05733086
0000f0 a8 28 87 bc de a3 c7 3c c0 22 e2 bc 7e 94 c3 bd
       -0.016498879 0.02437013 -0.02760446 -0.09549807
000100 d5 39 a6 bb 41 20 9d 3d 6e 24 9f bd 46 af 94 bd
       -0.005072812 0.076721676 -0.0777062 -0.07259993
000110 f8 0f d5 bd 1a 33 87 ba 5f 9c eb bc 63 05 ad bc
       -0.104034364 -0.0010314912 -0.028761087 -0.021120733
000120 53 c4 39 3d 36 8c d2 bb c9 75 d8 3b 0b f6 34 3c
       0.045353245 -0.006425406 0.006605838 0.011044989
000130 48 0b a0 3d 80 1a 2a bd a9 7e 0a 3d ff 3a 9c bc
       0.07814652 -0.04152918 0.0338122 -0.0190711
000140 27 cd 82 3d c4 18 1c bd 21 78 2e 3d 81 8c cf 3c
       0.06386786 -0.038109556 0.042595033 0.025335552
000150 db c9 9e 39 85 54 b5 3d 5a 8d bf bc 5a 7e b6 3d
       0.00030286502 0.088540114 -0.023382831 0.089108184
000160 82 1c ac bd 22 9a 31 3d 5a 8a 24 3d 99 ee f2 3b
       -0.08403875 0.043359883 0.040171005 0.007413697
000170 8d 6b 63 3d c3 6a 7c bc 61 18 6d bc 59 da 9d 3c
       0.05552249 -0.015406313 -0.014471144 0.019269155
000180 89 27 85 bd 83 cb a9 3d ff 82 b2 3d 1a 34 9e bb
       -0.06501681 0.0829077 0.08716392 -0.0048279883
000190 1c 96 8b 3d e3 85 47 3d e0 ca 0e bd a0 93 ad 3c
       0.068157405 0.04871167 -0.034861445 0.021188557
0001a0 fe 8b 23 3c 02 de 2a bd 69 36 19 bd b7 27 8a 3d
       0.009982107 -0.04171563 -0.037405405 0.06745856
0001b0 68 55 4f bd 06 b8 9c 3d 9c c1 ad bd aa 9b cb 3c
       -0.05061856 0.07652287 -0.08484194 0.0248545
0001c0 f4 c8 b7 3c 2e ee 22 bb 91 fd 84 bb 0b c9 86 bd
       0.02243469 -0.0024861204 -0.004058548 -0.06581315
0001d0 2a 9d a6 3d 16 18 80 bc 7f 43 9a bb 14 0d 8a bc
       0.081354454 -0.015636485 -0.004707753 -0.01685194
0001e0 0c 9b ff bc 20 aa 8d 3c 73 f7 0b 3d c1 89 02 bc
       -0.031201862 0.017293036 0.034171533 -0.007967413
0001f0 be b0 bc 3c 62 77 c1 bd b7 16 9f 3c 42 2a 17 bd
       0.023033496 -0.094465986 0.019420011 -0.036905535
000200 68 01 83 3d 0d 2d 00 bb a9 31 dd bc 50 a7 bf 3c
       0.063967526 -0.0019558102 -0.027001219 0.02339521
000210 87 df 5c bd 53 9c 2b 3d 72 c2 53 bd b4 5c a5 bd
       -0.05392411 0.04189713 -0.05169911 -0.08074322
000220 2e ac 88 bd ef 98 13 3d 88 3e 8d 3c 11 33 74 bd
       -0.06673466 0.03603452 0.017241731 -0.059619013
000230 2c c6 64 3d 2a bc 74 bd 5b 72 67 bc c2 4c 8b 3d
       0.055853054 -0.05974976 -0.014126386 0.0680175
000240 33 3e 9c bd 80 ac e3 3c b7 db c2 bc 27 12 51 3d
       -0.07629051 0.027792215 -0.023786409 0.051042702
000250 dd f1 8c 3c 98 1c b8 bd 4e ab 9e bd 66 71 d8 3c
       0.017205173 -0.08989829 -0.077475175 0.02642126
000260 40 ee b5 3c 1b fa 43 3c 96 1c 50 3d 45 0d 9d 3d
       0.022208333 0.011961485 0.05080851 0.076685466
000270 22 59 e2 3c ff a1 d6 3d 01 7a 1e bd c2 1c 1b bc
       0.027630392 0.10480117 -0.03869057 -0.009467306
000280 0b fb ec bc 83 bf a6 bd 71 ea 4b 3d 5f cb 43 3d
       -0.0289283 -0.08141997 0.049784128 0.04780137
000290 6d 61 00 bd 81 d1 62 3d ef 26 4d 3b d5 fb 5b bd
       -0.031342912 0.05537558 0.0031303724 -0.053706963
0002a0 63 66 bc 3c 90 9d bc bc ef e2 97 bc d4 19 2c bd
       0.02299804 -0.02302435 -0.018540828 -0.04201682
0002b0 ff 6a 05 3d 7d 9a 17 bd dd 33 f0 bc 96 c4 85 bd
       0.032572743 -0.037012566 -0.029321605 -0.065316364
0002c0 fb b3 03 3c 2b 82 3b bd b5 e4 0d 3d 68 68 39 3d
       0.008038516 -0.045778435 0.03464194 0.045265585
0002d0 f1 39 64 3d 7c f9 a5 bd 9e 4b a1 3d 0e a9 0e bc
       0.05571932 -0.08104226 0.07875751 -0.008707298
0002e0 5d 11 2b 3d 85 52 55 3d f5 c6 29 3c f4 a1 ab 3d
       0.041764606 0.05208065 0.010362376 0.083804995
0002f0 ed c4 8b bd bb 5f 28 3d e3 f8 f5 bc 5e 97 a2 bd
       -0.0682467 0.04110692 -0.030025905 -0.07939027
000300 d5 67 fb 3a 8a 28 11 bd 27 16 0d 3d 20 ca cf 3c
       0.0019180725 -0.03543905 0.034444954 0.025364935
000310 49 ce 45 bd 07 34 af bd b5 2f 71 bd fe 6d 9a bd
       -0.048292432 -0.08554845 -0.058883388 -0.075405106
000320 1d af 2c bd 37 3c 0b bd b9 76 a9 3c e6 c7 43 bd
       -0.04215919 -0.033992972 0.020686494 -0.04779806
000330 cf e9 ad 3d a2 49 8c 3c 0a de 92 bd a4 bd 21 bd
       0.08491861 0.017124955 -0.07171257 -0.039487496
000340 38 0d 6e 3d ca 8b 2d bc b4 d6 0b 3d a4 61 06 bd
       0.058118075 -0.01059241 0.034140304 -0.03280796
000350 8d 79 50 3d cf 50 e2 bc 6f 5c 6e bd d0 b8 8e bd
       0.05089717 -0.027626423 -0.05819362 -0.06968844
000360 4b ef 4b 3d a5 2f 42 3d 89 4f ab bd 11 b6 09 bd
       0.049788754 0.04740872 -0.083647795 -0.033620898
000370 a8 be 0b 3d 7c 88 bc bd 8d f0 92 3c 00 a1 4b bd
       0.03411737 -0.0920572 0.01793697 -0.04971409
000380 66 4e 85 3d 2b 50 66 3d 2f d1 75 bd 6d 4e 84 3d
       0.06509094 0.056228798 -0.060013946 0.06460271
000390 1a 48 96 bd 9c 6a 9f bc c5 05 90 3c e3 79 b7 3d
       -0.07337971 -0.019460015 0.017580876 0.08958795
0003a0 8f 9a a5 bd bf 35 64 3c e4 ab 48 bd b6 93 2e bc
       -0.0808612 0.01392883 -0.048992053 -0.010655334
0003b0 83 97 4b bd f8 ef 74 bd 1d 62 a5 bc a0 a2 96 bd
       -0.04970504 -0.059799165 -0.020188386 -0.07355237
0003c0 a2 f5 38 3d b8 ee 71 bd d6 09 e0 bc b4 87 6f bd
       0.04515613 -0.05906555 -0.02734844 -0.058479026
0003d0 30 49 6d bc 99 3c f3 3b 92 ac 8e bd 9e 9e 84 3d
       -0.014482781 0.0074229953 -0.06966509 0.06475566
0003e0 85 62 89 bd 28 09 d8 bc aa 46 08 3d d3 a6 2c bb
       -0.06708244 -0.026371554 0.033270516 -0.0026344552
0003f0 56 16 43 3d 25 04 bf bd 14 3b 8b bd de 47 4f 3d
       0.047628723 -0.093269624 -0.06798378 0.050605647

lstm.bias_ih_l0 f4 [512]
000000 3c 7e 6e 3d e3 75 40 bd 6b f9 87 bd a5 3e 46 bd
       0.058225855 -0.046987426 -0.066393696 -0.048399586
000010 ab 64 75 3d 77 08 2f 3e 3c 45 48 bd 8d 8c 64 bd
       0.059910458 0.17093073 -0.048894152 -0.055798102
000020 f8 10 0e bd 39 3c 97 3c 54 de 8b bc 51 ef 5f bb
       -0.03468415 0.018461334 -0.017073788 -0.0034169743
000030 7b 4c d2 3c e1 b7 c7 bc aa f9 44 bd 70 53 40 3c
       0.025671234 -0.024379672 -0.04808966 0.011738643
000040 75 00 5b 3c 05 fb 0c bd fc 5d b5 bd 29 e0 17 3c
       0.013366808 -0.03441908 -0.08855817 0.009269753
000050 1a fd 50 bd 67 67 9f 3e 53 43 1b 3d 6e 9b 73 3a
       -0.051022626 0.31133577 0.037906002 0.0009292875
000060 3a c3 a9 3c 33 d2 77 3d c0 fc b5 3d aa df 38 3c
       0.020722974 0.060503196 0.08886099 0.011283794
000070 1e 8c 37 bd e2 73 f0 3d 16 f3 a6 3b 51 df 32 bd
       -0.04481136 0.11740853 0.005094896 -0.043670002
000080 2e 34 49 3d 23 9c 1e 3d 5d e2 7f bd 29 5e a9 3d
       0.049122028 0.038723122 -0.062471736 0.08269913
000090 ba 13 c0 3d e9 f9 97 3d 39 f1 b8 bc f2 76 92 bc
       0.093787625 0.074207135 -0.022575961 -0.017878983
0000a0 99 57 ca bc ed 8f b6 3d 3a 49 d5 3d 25 27 f4 3c
       -0.024699973 0.089141704 0.104143575 0.029803822
0000b0 00 3b 58 3d 99 b3 cb 3c 77 61 19 bd b4 78 63 3b
       0.05279064 0.024865912 -0.037446465 0.0034709396
0000c0 36 74 c0 bc 6c a6 82 3d 4c 83 06 3d 43 3a 8d bd
       -0.023492914 0.06379399 0.03284006 -0.06895878
0000d0 6c 3d 59 3d 16 3c 64 3d e1 5b 48 3d 2b a5 fd 3d
       0.053037092 0.055721365 0.048915748 0.12385019
0000e0 b1 c7 82 3d 58 e3 d8 3c 88 eb c1 3d dc 93 3f 3d
       0.06385744 0.026475593 0.09468752 0.04677187
0000f0 59 75 37 bd 48 b0 08 3d 30 12 a9 3c 13 61 c9 3d
       -0.044789646 0.03337124 0.020638555 0.098329686
000100 9d 2b b0 bc e7 2f ac 3c 39 4c 6d 3d 9e c1 7e 3d
       -0.021505171 0.021018935 0.05793402 0.062196366
000110 5a a3 1e 3d ef 55 be bc 52 85 08 bd 30 f9 b8 3d
       0.038730003 -0.023234336 -0.03333027 0.09031904
000120 6e 3e f1 3d 51 f4 6e bc 0f af 0c 3d b1 10 e9 bc
       0.11779486 -0.014584617 0.034346636 -0.028450342
000130 5d 42 36 3d 90 ca 3a 3b 94 d0 2d bd d8 45 0b 3d
       0.044496883 0.0028502084 -0.042435244 0.034002155
000140 95 e1 02 bc 96 8f b2 3d 99 42 aa bd 85 85 83 3d
       -0.007988353 0.08718793 -0.08313484 0.06421951
000150 72 e4 58 3e b9 1c bb 3d 1e 73 a6 bd 43 d7 ac 3b
       0.21180895 0.09136338 -0.081274256 0.0052746846
000160 3f c3 75 3d 68 e6 d3 bc 47 23 4f 3c 23 6d b1 3c
       0.060000654 -0.025866702 0.012642688 0.021658486
000170 47 09 b0 3c 5f e5 b3 3d fc 54 ab 3d 56 82 c6 3c
       0.021488799 0.087839834 0.08365819 0.02423207
000180 e8 eb 84 bd 7c 52 a8 bb 30 22 a6 bc 74 68 81 bd
       -0.06490308 -0.005136786 -0.020279974 -0.06318751
000190 c9 76 48 3c 4c 1d e9 bc e4 3e a0 3d 2c 60 7d 3d
       0.012235352 -0.028456353 0.078244954 0.061859295
0001a0 59 18 4f bc 1e 7a f5 3b 5f 85 13 bc 21 a5 23 bc
       -0.012640082 0.007491364 -0.009003966 -0.0099881
0001b0 eb 07 45 3d 8a 77 a4 bc a9 61 93 bd 2a 17 90 3b
       0.048103254 -0.020076532 -0.071963616 0.0043972926
0001c0 d0 28 5d bd 02 c0 9b 3d 20 98 81 bc 78 9f 63 3d
       -0.053994 0.07604982 -0.01581961 0.055572003
0001d0 07 4c bd bc a2 a0 b2 3d 23 83 c0 3c 97 49 6e bd
       -0.023107542 0.087220445 0.02350003 -0.05817565
0001e0 5a 47 1a bd fc 62 2a bd 69 73 78 bc a2 5a 9a 3c
       -0.037665702 -0.041598305 -0.015164235 0.018842045
0001f0 1e 4f a2 bd 6d 1c b5 3c 23 9b 46 3c 17 e0 14 3d
       -0.07925247 0.022108281 0.012121948 0.03634652
000200 85 0a 62 bd 17 c2 0c 3d 71 ac 2c bc 31 93 43 3d
       -0.055185813 0.034364786 -0.01053916 0.047747795
000210 5e 2f 4c bd 8b 6c 11 3d b2 b1 95 3d 44 42 0b bc
       -0.04984986 0.035503905 0.07309283 -0.008499686
000220 ee a5 98 bd 14 52 60 3c b0 84 69 3d 8a f2 24 3d
       -0.074535236 0.013691444 0.057011306 0.040270366
000230 9e dd ec bc f1 6e 56 3c 42 a6 94 3d dc c7 02 bd
       -0.028914269 0.013087974 0.07258274 -0.031928882
000240 c7 51 88 bd 5e 6c 48 bc 4d a1 04 3d dc a1 58 bd
       -0.06656223 -0.012232868 0.03238039 -0.052888736
000250 ef f2 85 bb 82 b2 1c be ec 64 0e bd 0e f9 36 3b
       -0.004087798 -0.1530247 -0.034764215 0.0027919444
000260 1d fc 44 3d eb 9c 95 bd 46 bd 42 bd 77 e5 22 bd
       0.048091996 -0.0730532 -0.047543786 -0.039769616
000270 c5 0a 39 bd 37 75 ab 3c 6f 0c 9c 3c 3a d6 38 bd
       -0.045176286 0.020929916 0.019048898 -0.045126177
000280 1a bb 73 3d 39 3c 9b bd 4a d2 9e 3c 45 4a b9 3d
       0.059504606 -0.07579846 0.019387383 0.09047369
000290 6c 81 6e bd 6f 37 8b 3d be d2 89 3d 2e 04 a5 3d
       -0.058228895 0.067976825 0.06729649 0.08057438
0002a0 d5 60 07 bd 2f 27 04 3c 73 a7 b0 3d 69 f8 71 3d
       -0.03305133 0.008065983 0.086256884 0.059074793
0002b0 83 06 fe bc 77 20 2d 3d 75 c7 09 3c f6 dd d5 bc
       -0.031008964 0.04226729 0.008409371 -0.026106816
0002c0 43 b1 5f 3d 5a e8 8e 3d 39 b4 65 3d 50 e4 a5 bd
       0.05461241 0.06977911 0.056080077 -0.08100188
0002d0 41 91 b3 3c 50 01 0f 3d a3 9f e3 bc db b6 d8 3c
       0.021919848 0.03491336 -0.027786082 0.02645438
0002e0 cd 06 bd 3d cb bc 4b bd b6 53 9a bc 7a 84 97 3d
       0.09229813 -0.049740594 -0.018838745 0.07398315
0002f0 06 55 a9 3d 09 90 46 bd b5 7c 17 3d 2b 41 8a 3d
       0.0826817 -0.048477206 0.036984164 0.06750711
000300 cf 1d aa bd b6 2f 8a bd f2 98 a5 bd b1 19 15 be
       -0.08306467 -0.067473814 -0.08085813 -0.14560582
000310 c0 6b b4 3d ec 9c 13 bd 83 0a c5 bb 7b ab 81 bd
       0.08809614 -0.036038324 -0.006013216 -0.063315354
000320 a0 6e 23 3c b1 d3 fb 3a c9 f3 04 bc 43 56 87 bd
       0.0099751055 0.0019212869 -0.008114764 -0.0660825
000330 c5 b2 1e 3d 9d 2d b3 3c 29 a2 19 bc 79 f6 d8 3c
       0.038744707 0.021872336 -0.009377041 0.026484715
000340 db ef 93 3d 40 16 58 3d 3d 91 38 bd a9 8a 5d bc
       0.07223483 0.052755594 -0.045060385 -0.013521829
000350 5c fb f9 bd 29 14 3c bc 79 35 a3 3c 38 ef 65 bd
       -0.12206146 -0.011479416 0.019922959 -0.05613634
000360 50 e8 b6 3c 34 ce ba bc 97 11 ce 39 2d 56 8b 3d
       0.022327572 -0.022803403 0.00039304487 0.06803546
000370 25 79 4f 3c 96 58 f9 bc 99 05 1f 3d 34 37 03 bd
       0.01266316 -0.030437749 0.038823698 -0.032035068
000380 7e 4f bd 3d a9 69 a4 3d 4e 6b 4b 3d 8f a2 31 3d
       0.092436776 0.080279656 0.04966288 0.04336792
000390 03 7c 96 bc 55 1f a9 bd d2 34 b3 3d d4 4c 66 3d
       -0.01836968 -0.08257929 0.08750309 0.056225613
0003a0 b9 2a b9 3d 88 03 cb 3b 7b e7 9c 3d 8e 41 55 3d
       0.09041352 0.0061954893 0.07661339 0.05206447
0003b0 5d e2 6f bd ed 7b e1 bc 1c b0 a2 bb 95 8a 49 bd
       -0.058565486 -0.027524913 -0.0049648415 -0.049204428
0003c0 12 61 b8 3d 3e d5 6b 3d ce 19 57 3d 79 de 6f 3d
       0.0900289 0.05757641 0.052514844 0.058561776
0003d0 77 3f 79 3d 84 c3 79 bd a6 d9 95 3d f8 c0 c3 3c
       0.06085154 -0.060977474 0.07316904 0.023895726
0003e0 be db 6a bd 81 29 8b bd 7f de ea 3c 3f dc 48 bd
       -0.05733847 -0.067950256 0.028670548 -0.049038168
0003f0 26 45 3e 3c 74 c8 cf 3c 2f 8e 23 3d 94 d7 95 bd
       0.011613166 0.025364138 0.03993052 -0.07316509

lstm.bias_hh_l0 f4 [512]
000000 a9 67 dd bb 9f 59 a5 3d 12 19 eb 3b 7b 9a 3b bc
       -0.006756742 0.080737345 0.0071746195 -0.011450405
000010 e4 bf 03 bd 75 bd 0a 3e 67 be 85 3d 5d e3 ba bc
       -0.032165423 0.13548835 0.06530457 -0.022813493
000020 fb a2 be 3c 0b fb 85 3c ee 59 c6 3b 27 a4 85 bd
       0.023271075 0.016355058 0.006053201 -0.0652545
000030 54 ec 1c 3d 5a 85 86 3d 5a ce 47 bc ee 16 1d bd
       0.038311318 0.065684035 -0.012195194 -0.038351946
000040 21 55 4d 3c d8 fa af 3d 32 25 29 bd 90 2b ff 3c
       0.012532503 0.085927665 -0.041295238 0.031148702
000050 6a 1f 80 3c 89 13 79 3e 98 17 54 3d 63 00 8d bd
       0.01563998 0.24323858 0.051780313 -0.068848394
000060 4d 24 b3 3d bf b0 00 3d 92 e0 d1 b9 21 a3 52 bd
       0.08747158 0.03141856 -0.00040030904 -0.051425103
000070 f7 54 49 bd 17 21 6a bc 4e 52 7a bc 02 66 dd 3d
       -0.049153294 -0.014290116 -0.015278412 0.10810472
000080 5b c8 a5 3c f2 d0 b3 bc fe f9 9a bd 24 81 df 3a
       0.020237138 -0.021950219 -0.075672135 0.0017052037
000090 96 da 47 bd e7 df 67 3d ad b6 35 bc 0d 09 35 bd
       -0.048792444 0.056610014 -0.011090917 -0.044198085
0000a0 d3 87 0a 3d 81 f2 60 3d d4 91 cf bc d1 fc 84 3d
       0.03382094 0.05491877 -0.025338091 0.064935334
0000b0 b6 ae ce ba 2c 3a 40 bd 3b e5 63 3d 96 7e c2 bc
       -0.0015768621 -0.046930477 0.055638533 -0.023742002
0000c0 ef d3 1e 3c 83 ee cc 3d 2c da c8 3d 1a 46 31 3d
       0.009694084 0.1000643 0.09807238 0.043279745
0000d0 2b db 25 3d 17 bb ea ba e9 ae 87 3c fe 30 b6 3d
       0.040492218 -0.001790854 0.016562896 0.08896063
0000e0 82 a2 21 bd 2d 37 80 3d fa 41 73 3d 7b cf 81 3c
       -0.03946162 0.06260524 0.059389092 0.015846005
0000f0 c2 7c 75 3d e8 8d 57 bd b5 f9 b5 3d fb d2 85 3d
       0.05993343 -0.052625567 0.088855185 0.06534382
000100 17 3c 7b 3c df f3 2e bd ce 55 9b bc 31 be 06 3e
       0.015334151 -0.042713042 -0.018961813 0.1315849
000110 77 ce 44 bb af 26 2e bd 3c fd 71 3d 50 f5 d8 39
       -0.003003029 -0.04251736 0.059079394 0.00041381503
000120 4d 0b 1f 3e f9 52 9e bc b3 88 85 3d 32 11 bf bc
       0.15531655 -0.019326674 0.06520214 -0.023323629
000130 23 2d 93 bc f8 13 cd 3c e2 46 d5 3c f9 3a da 3d
       -0.017965859 0.025033936 0.026034776 0.106557794
000140 6f 41 7c 3d 95 f7 7a bd 5e 2c 91 bd 13 99 44 3d
       0.06158584 -0.06127127 -0.070885405 0.047997545
000150 4e 2e c3 3d db 83 ab 3d a1 5a 99 3d 24 16 49 bd
       0.09530316 0.08374759 0.07487989 -0.04909338
000160 28 16 5b 3d f5 ce 27 bd e5 f1 89 3b 69 2e 68 3d
       0.053487927 -0.040968854 0.0042097443 0.056684885
000170 4f f2 b1 3c 94 25 25 3d 1a 15 45 3d 6e e4 b1 3d
       0.021721987 0.04031904 0.048115827 0.08686148
000180 6b 72 8f 3c e0 b8 b6 3c b2 25 50 bd 74 3d 5f bd
       0.017510613 0.022304952 -0.0508172 -0.054501966
000190 9e ac 0a 3e 74 30 1b bd 60 be b0 3b d5 76 af bc
       0.1354241 -0.037888005 0.005393788 -0.021418968
0001a0 86 47 8c 3d 76 e8 7b bd f9 2c 9f 3c 16 d6 4c 3d
       0.068495795 -0.06150099 0.019430624 0.050008856
0001b0 8a f6 33 3d 04 16 bf 3c a7 d7 b0 3d ba 33 b2 3d
       0.04393629 0.023325928 0.086348824 0.08701272
0001c0 46 e2 b0 3d cd 4c 64 bc 22 11 1c 3c 9b 59 95 3d
       0.08636908 -0.013934326 0.009525569 0.072924815
0001d0 b2 27 ee 3d 49 8b f9 bc 58 18 18 3d 5e a5 73 3d
       0.11628665 -0.030461924 0.03713259 0.05948388
0001e0 cf 8f 16 bd 80 3c ff 3c 44 52 9b 3c ec 86 80 3d
       -0.03675824 0.031156778 0.018960126 0.06275734
0001f0 23 a6 c0 3b 3b 56 94 3c cd 12 50 bc 68 ac a9 3d
       0.00587918 0.018107524 -0.012699795 0.08284837
000200 eb 3f f3 bc e2 54 5a bd 8a 51 42 bd 7b ec a1 bd
       -0.029693564 -0.053303607 -0.047441043 -0.07906433
000210 97 8f a7 bc d9 09 da 3b 76 96 2b bc 21 9f d0 3b
       -0.020454211 0.006654006 -0.010472884 0.006366626
000220 ff a0 85 3c 59 76 2f ba 8d a3 3e bc 0f 1f 97 bc
       0.01631212 -0.00066933554 -0.011635673 -0.018447427
000230 7b b9 2a bb 28 c2 8b 3d d2 04 0a bc 0f 6d 74 bd
       -0.0026050496 0.06824142 -0.008424001 -0.05967432
000240 01 1b ff bc 79 de 48 bd f9 bf cd bc 3d 5f a0 3d
       -0.031140806 -0.04904029 -0.025115954 0.07830665
000250 56 c0 b7 bc 10 18 50 be 9d 44 8f bc bc e2 70 bd
       -0.02243058 -0.20321679 -0.017488772 -0.05880998
000260 7a 8a 3c bd 8f dc 59 bd 66 bc 5c 3d e4 c0 d4 bb
       -0.0460305 -0.053188857 0.05389061 -0.006492721
000270 ae e6 1d 3d ac 2e 9d bd da 7d 04 bd b1 74 00 bd
       0.03855007 -0.076749176 -0.032346584 -0.031361286
000280 e2 3e 9a 3d 22 07 70 bc 1e 39 9f 3c c8 ef 7d bd
       0.07531525 -0.014650138 0.019436415 -0.06199625
000290 25 9d 96 3d 88 f9 ae 3d 81 82 f6 3c 09 1e 56 3d
       0.07354192 0.08543688 0.030091526 0.052274738
0002a0 54 99 57 bd 76 5f fe 3b ee 0c 5d bd b4 6e a9 bd
       -0.05263646 0.0077628447 -0.05396741 -0.08273068
0002b0 e6 0b c0 bc a5 c8 0d 3d 5f 82 a0 bc 6a c3 b7 3c
       -0.023443174 0.034615178 -0.019593416 0.022432048
0002c0 13 df 40 3d ce e5 b0 3d 17 11 bc bc 78 f2 d8 3c
       0.04708774 0.08637582 -0.022957368 0.026482806
0002d0 5a 6e 6e bc d8 25 6a 3b 47 a9 ea 3b 66 ba 66 3d
       -0.014552677 0.0035728123 0.0071612927 0.056330107
0002e0 bf 93 43 bd e3 06 3e 3d 21 0d b4 3d bf e1 91 3c
       -0.047748324 0.046393286 0.08791567 0.01780784
0002f0 99 ab c3 bb 76 b6 72 3c cf b9 11 bd 56 0b 48 3d
       -0.005971384 0.01481401 -0.03557759 0.048838936
000300 75 7a 7b 3d af 3d 0c 3d f1 0f 98 bd 0c dd 98 bd
       0.06139608 0.034238514 -0.074249156 -0.07464036
000310 6f 0d eb bc ce 10 74 3d 7e 2c 57 3d 37 42 ac 3d
       -0.02869293 0.05958634 0.052532665 0.08411067
000320 d7 16 5d bd bd 1a ae bd 8a af 83 bd 50 27 7f 3c
       -0.05397686 -0.08501194 -0.06429966 0.015573338
000330 7c 9b d1 3c 4c 63 c3 3d ec 62 95 3d bb e4 ab 3d
       0.025586836 0.09540424 0.072942585 0.08393236
000340 05 82 b8 3d 4f ae 00 3d a4 c3 9b bd 53 2f 48 3d
       0.09009174 0.031416234 -0.07605675 0.048873257
000350 6c 5d f3 bd e1 79 41 bd fa 0e f0 3c 31 07 64 bd
       -0.11883053 -0.047235373 0.029304016 -0.05567092
000360 ad 18 a6 3d 50 7b 89 3d c4 78 7f bd 09 12 76 3d
       0.08110175 0.06712973 -0.06237103 0.060075793
000370 f9 02 c6 3d 58 93 2d bc 32 8d 82 3d ea e6 1e bd
       0.09668536 -0.0105942115 0.06374587 -0.038794436
000380 52 d6 a8 3d c1 97 84 bd 84 c4 a5 3d 94 f7 48 bd
       0.08244003 -0.06474257 0.08094123 -0.049064234
000390 57 97 66 3d 9b 89 7a bd 0d 33 4b bb f0 84 13 3d
       0.056296673 -0.061166387 -0.003100577 0.03601545
0003a0 a5 4f 95 3d 1f d8 3d 3b c3 6e a6 3d cb ab 7c bd
       0.072905816 0.002896793 0.08126595 -0.061687272
0003b0 fc ba 13 3d e4 67 3c bc 75 2c 7d 3d fc f3 b7 bc
       0.036066994 -0.011499379 0.061809976 -0.022455208
0003c0 c3 0d 3b 3d 5e 4d 7d bd b4 bd be 3c 3d a4 b1 3d
       0.04566742 -0.06184136 0.023283817 0.08673904
0003d0 9d d7 87 bd 7a a9 f8 3c 05 90 65 bd 66 c9 c5 3c
       -0.06632922 0.03035425 -0.05604555 0.024143886
0003e0 24 0c e7 bc c7 78 30 3c d6 6e b9 3d a5 5e 81 bd
       -0.028204031 0.010770983 0.090543434 -0.0631688
0003f0 ec 2c f2 3c 69 f9 74 3c 51 fb b0 3d ae ca 1c 3d
       0.029562436 0.014952042 0.08641685 0.038279228

lstm.weight_ih_l1 f4 [512, 128]
000000 da e1 95 bd 15 bb cb bc d6 73 d6 3c 8b d4 67 bc
       -0.073184684 -0.024869481 0.026178282 -0.014149795
000010 85 9f b9 3d 41 11 06 3e 1a 81 a7 3c 0e e5 f4 3d
       0.09063629 0.1309252 0.020447303 0.11957751
000020 24 da 2e 3b 7f 9a 97 bd d3 f9 80 3d ac 10 ae bd
       0.0026680315 -0.07402515 0.0629765 -0.08499274
000030 6d 00 70 3d 5e 5a 17 3e ff 58 a9 bd ab 88 7a bd
       0.058594156 0.14780566 -0.08268928 -0.061165493
000040 87 4a 09 3e 72 87 74 3d 6c a1 23 3e 70 22 39 bd
       0.13407336 0.059699483 0.15979546 -0.045198858
000050 98 9e f3 bc fe f5 08 3e 0a f6 02 be 8b c9 24 bd
       -0.02973871 0.13375089 -0.12789169 -0.04023127
000060 73 78 ad 3c 2b a6 88 bc 80 8a ad 3d 4c 09 8b bc
       0.021175599 -0.016680798 0.084736824 -0.016972207
000070 78 33 ce bc 74 23 64 bd 35 13 8d bc 2a 4d d6 3b
       -0.025171027 -0.055697873 -0.017221073 0.0065399604
000080 17 57 92 bd cd 2e 2d 3b 2d c9 d7 3c 54 cf 80 3c
       -0.07145517 0.00264256 0.026341045 0.015723862
000090 eb ba 8e bc 60 dd 17 3d 4c 38 ee bc df 4a 30 bb
       -0.017423114 0.037076354 -0.029079579 -0.0026900095
0000a0 bc 63 8d bd 92 2c 19 3e 58 ed 80 3d a5 16 af bd
       -0.069037884 0.14958408 0.0629527 -0.08549241
0000b0 a1 01 11 3e 4f df fd 3d 8f f5 47 bd 8c bb ec 3d
       0.14160778 0.12396108 -0.048818167 0.11559209
0000c0 1a f1 ed 3c f1 7c aa ba e7 82 21 be 59 9b 53 bd
       0.02904563 -0.0013007206 -0.15772592 -0.051661823
0000d0 1a 8b cd bc 7c 4b ba bd 46 8d 84 bd 69 ae e3 bd
       -0.025090743 -0.09096429 -0.06472258 -0.111172505
0000e0 03 89 f8 bd 90 02 39 bd 54 2e b6 bd be db 65 3d
       -0.12135508 -0.04516846 -0.08895555 0.056117766
0000f0 fd e5 1e be 92 5c 0b bb 10 68 10 bc 90 25 00 be
       -0.15517421 -0.0021264893 -0.008813873 -0.12514329
000100 58 af a3 3d 22 32 4f 3d 82 05 bb 3c 16 f7 06 3e
       0.079924285 0.05058492 0.022829775 0.13180193
000110 92 18 c7 bc a7 ec 9c 3c b4 83 4e 3d 90 69 d6 3d
       -0.024303708 0.019155813 0.05041857 0.10469353
000120 61 44 5f 3d 41 54 21 3c ee 0b 9d bd 21 86 75 3d
       0.05450857 0.009846748 -0.07668291 0.05994237
000130 f2 d6 ef 3c 67 b5 93 bd 78 99 cc bc b8 81 4d 3d
       0.029277299 -0.07212334 -0.024975523 0.050172538
000140 ca 62 2b bc 11 a8 a6 bd 49 99 1b be a5 fc 10 bd
       -0.010460565 -0.08137525 -0.15195192 -0.03539719
000150 6a 47 cc bc bc 91 5b bd 3a a5 02 3e f9 33 ba 3d
       -0.024936397 -0.05360578 0.12758341 0.09091944
000160 6b 38 4f bd 8d 14 25 3d ed 7c aa bc 6f e5 0d be
       -0.050590914 0.040302802 -0.020811522 -0.13857053
000170 84 1a e3 bd fe 24 c7 bc a7 65 05 3d c8 df 8b bd
       -0.11089042 -0.024309631 0.032567646 -0.06829792
000180 f4 2f b2 3c 9b 84 94 3d 8b 53 b4 bd 59 5e 8a 3b
       0.021751381 0.07251855 -0.08804997 0.004222673
000190 92 74 55 3c 01 7c 01 3d 2c d4 40 bd 52 0f 07 3e
       0.013028281 0.0316124 -0.047077343 0.13189438
0001a0 8c 79 0e be 6f 03 b4 3d 47 40 ec bd ac f9 9e 3d
       -0.13913554 0.087897174 -0.115356974 0.07762465
0001b0 9e f9 ee bc c8 87 e8 bd 4f 2c cd 3d ff 9a 8f bd
       -0.029171761 -0.11354023 0.10018217 -0.07011985
0001c0 d4 96 33 3e 88 72 8d bd db a4 af 3c 6b 7a 11 bd
       0.17538005 -0.06906611 0.021440914 -0.035517137
0001d0 6f ea d3 b8 96 a0 10 3d be 37 18 3e 0a f0 f2 bd
       -0.00010104931 0.035309397 0.14865014 -0.1186219
0001e0 dd 63 d2 bc 73 56 ae bd f3 05 79 bd 2e ca c0 bd
       -0.025682384 -0.08512583 -0.06079669 -0.09413563
0001f0 47 0f a1 bd 9d 49 88 3c 8b ba d1 bd 61 b6 0e bc
       -0.07864242 0.016636664 -0.102406584 -0.008710475
000200 fc ae ab 3b b4 10 86 bb f3 57 2a bd 9d b1 00 bd
       0.0052393656 -0.0040913466 -0.04158778 -0.031419385
000210 df c2 f0 3b ff 74 8a 3d e0 00 f5 3c 35 75 d8 3d
       0.007347449 0.067605965 0.029907644 0.105692305
000220 ab 61 7f 3d 38 93 ec bd 70 24 99 3d 0e 40 a5 bc
       0.062349003 -0.11551517 0.07477653 -0.020172145
000230 42 f4 85 3d 7e 92 10 3d 96 dc e8 bc 9a 11 ac bd
       0.06540729 0.035295956 -0.028425496 -0.08401795
000240 69 83 a2 bd 90 75 e8 3d 73 16 3a 3c 47 e2 f3 3b
       -0.07935221 0.11350548 0.011357891 0.007442746
000250 32 44 1e 3d 17 2f 7b 3b 4f 30 37 bc 3a 8c 01 bd
       0.038639255 0.0038327628 -0.011180951 -0.03162787
000260 73 a4 08 3d 5d ee 9a bb 81 08 b9 3d f5 48 23 bd
       0.033359956 -0.004728122 0.09034825 -0.0398645
000270 5c cd 20 3d 46 82 8b bd b3 ce a2 3c b1 df 31 bc
       0.039258346 -0.06811957 0.019873952 -0.010856555
000280 f0 89 0c bd 38 44 89 bd 5a 2e 93 bd a1 33 a8 bc
       -0.034311235 -0.06702465 -0.07186575 -0.020532431
000290 d2 a5 c8 bc 4c e9 bd bc 39 d5 82 3d 99 c3 0a bd
       -0.024493132 -0.023182534 0.06388325 -0.033877943
0002a0 23 88 b6 bd 4c ba b8 3d 6a 3c 53 bc 76 da 8b 3d
       -0.08912685 0.09019908 -0.012892822 0.068287775
0002b0 70 70 57 bc 39 7b f9 bc 0b 03 5c bc 73 01 9d 3d
       -0.013149366 -0.030454265 -0.01342846 0.07666292
0002c0 e8 f9 4f bd fd 93 73 bd e0 e9 ca bd 4c 4e 5e bd
       -0.05077544 -0.059467304 -0.09907889 -0.05427389
0002d0 74 aa c5 3d a7 aa e6 3b ac 16 2c 3b c6 df ed bc
       0.09651652 0.0070393863 0.002625863 -0.029037368
0002e0 6e 51 08 bd b3 60 c5 3c 37 35 b8 3c e1 22 17 3d
       -0.033280782 0.024093961 0.022486312 0.036898497
0002f0 54 dc f4 bc c9 d0 74 3d 97 35 cc 3c b2 b4 71 3d
       -0.029890217 0.059769426 0.024927897 0.059010215
000300 3a 3d db bd e8 02 5b 3d 89 99 8b 3d 50 30 b5 bc
       -0.107050374 0.05346957 0.06816394 -0.022117764
000310 f1 79 42 bc 09 31 83 3c eb 8e ad 3c 9b b9 0b 3c
       -0.011869893 0.016014593 0.021186313 0.0085281385
000320 64 42 90 3c e2 8d 8b 3d 97 29 2d bd 2d e1 9c 3c
       0.017609783 0.068141714 -0.04227599 0.01915034
000330 26 2b 70 3d 0b 82 21 bd c7 eb 48 bd 10 b7 8c bd
       0.0586349 -0.03943066 -0.04905298 -0.06870854
000340 e2 dd 6a 3d c4 b8 cf 3b f6 4b bc bd ae a0 ff 3c
       0.05734051 0.0063391645 -0.09194176 0.031204548
000350 b3 a2 2a bd 17 a0 a4 bc 8f 81 4f 3d bb 30 9a 3d
       -0.04165907 -0.020095868 0.050660666 0.07528826
000360 57 6f ac bc 19 36 0e 3d ee 3b 42 3c d7 4c 27 bd
       -0.021049185 0.03471956 0.011855109 -0.040844765
000370 74 1d be bd 24 60 39 3d bb df 6e 3d 84 de 7e 3c
       -0.092829615 0.045257702 0.058318835 0.015555982
000380 a8 37 ba bd 46 87 df 3d b9 c6 bf bb 2b 08 a3 bc
       -0.09092647 0.10914473 -0.005852547 -0.019901356
000390 81 72 2d 3d cc 9c 6e bd 33 3c 7a 3d 0a d7 91 3c
       0.042345528 -0.058255002 0.061092567 0.017802734
0003a0 f5 eb d9 bc 8b 7e 4b bc 80 e9 e2 bb a8 05 9a 3d
       -0.02660177 -0.012420307 -0.006924808 0.0752061
0003b0 ed 08 dd 3d 0a 43 9f bd 7b 11 bd 3d cf e1 cd 3d
       0.10792718 -0.077764586 0.0923185 0.10052835
0003c0 2a 40 63 3d 1a 11 63 3d 69 a4 55 bd b3 64 cb 3d
       0.055481113 0.05543623 -0.052158747 0.09931316
0003d0 1c 4d 5e 3d fe 12 f4 bb cb c0 8a 3d 81 4d c7 bd
       0.054272756 -0.007448553 0.067750536 -0.097315796
0003e0 d6 7a 2a bd 17 3f cf bd 4f 89 7b bd 18 66 4f 3a
       -0.04162105 -0.10119455 -0.061410245 0.00079116365
0003f0 b2 43 e9 bc 04 2b 74 bd a9 a3 fd bc 7a 40 60 bd
       -0.028474662 -0.059611335 -0.030961828 -0.05474899

lstm.weight_hh_l1 f4 [512, 128]
000000 5a 25 a7 bd 0c 6c 44 3d 54 4d 42 bd 61 fb e3 3c
       -0.08161421 0.047954604 -0.047437027 0.027829828
000010 3b 2d 4f 3d ef e4 42 bd b4 11 d3 3d 9e c7 03 bd
       0.050580245 -0.04758161 0.10306111 -0.03217279
000020 a6 0e 66 bd 5a e5 5f bd f0 86 1d 3e c6 01 58 bd
       -0.056166314 -0.054662086 0.15383506 -0.052736066
000030 1f 17 a7 3c b9 7f 4b bd cc 5a 88 bd a7 96 0f be
       0.020396767 -0.049682353 -0.06657943 -0.14022313
000040 15 94 2e 3d 0f 7a 13 be 2a af 80 3d 53 5d f6 3c
       0.04262169 -0.1440203 0.0628341 0.030073797
000050 9f 3e 97 3d 5e 09 f5 bc 03 98 0d 3e b9 d4 41 bc
       0.07384991 -0.029911693 0.13827519 -0.011830502
000060 c3 1e 37 3d 29 7f 4e 3d 2a 42 bf bd 54 39 04 be
       0.04470707 0.050414238 -0.09338792 -0.12912494
000070 e8 12 4e be b5 f5 e2 bd 80 b3 0a be af 2a b4 bd
       -0.201244 -0.11082021 -0.13545036 -0.08797204
000080 c4 18 8d bd 7d 00 fa bd da 2c aa bd 25 92 51 3e
       -0.06889489 -0.122071244 -0.08309336 0.20465906
000090 8e 27 e8 3b 29 ea 35 be eb e5 bd 3a 53 65 09 be
       0.0070847934 -0.17765106 0.0014488077 -0.13417558
0000a0 c2 71 02 3d 81 48 ef bd a8 9a a5 bd af 54 8d 3d
       0.03184677 -0.11683751 -0.08086139 0.06900918
0000b0 81 90 8a bd 26 60 12 3d 93 41 83 3c 3f 80 3c bc
       -0.06765843 0.035736226 0.01602248 -0.011505186
0000c0 9e 56 05 3d 1b 03 40 3e ea 8e 0a 3e 5c 55 fd bd
       0.032553308 0.18751185 0.1353108 -0.12369797
0000d0 c5 34 1b bd 19 69 c4 3d 55 09 f0 bd 81 e3 42 bc
       -0.03789212 0.09590358 -0.1172053 -0.0118950615
0000e0 ef f6 a9 bc 4c d5 9b bc 35 ff 10 3d 08 8e 2c be
       -0.02074763 -0.019022606 0.035399634 -0.16851056
0000f0 03 7d f1 3d 2a 05 12 3d 09 96 f0 3c 64 bd 28 3d
       0.11791422 0.035649456 0.029368417 0.041196242
000100 ae fd 81 bd 53 36 f5 bd 97 dd 40 3d ca 27 bf 3d
       -0.06347214 -0.11973252 0.047086325 0.09333761
000110 33 d7 27 3e a0 c0 0a 3d 00 7f 81 bd c1 1f a0 bd
       0.16390686 0.033875108 -0.063230515 -0.078185566
000120 72 80 18 be 8f 6f 40 3d ee 5d 8c 3d f2 c5 18 3e
       -0.14892748 0.04698139 0.06853853 0.1491926
000130 dc 1a 23 bd 9e e7 f9 bc 3c 1b 2d be 32 20 4b 3d
       -0.039820537 -0.030505951 -0.1690492 0.04959125
000140 82 3c 6f bc f7 dc de bc 1b 25 13 be dd d9 83 3d
       -0.0146018285 -0.027204974 -0.14369623 0.064380385
000150 52 8d 9e 3d bc 6a a4 3d 17 03 34 3e d0 21 a3 bd
       0.077417985 0.080281705 0.17579304 -0.079654336
000160 c6 bf e7 ba c8 45 e5 bc 0f 30 d5 3d db 27 30 be
       -0.0017681054 -0.027987376 0.10409557 -0.17202704
000170 87 5e 13 be 35 22 30 be 9e b1 a3 3c cc 9a f6 bd
       -0.14391528 -0.17200549 0.019982155 -0.12041244
000180 57 f7 22 bd 98 0a 8d bc 9b c9 58 bd cd 25 30 3d
       -0.039786663 -0.017216966 -0.05292664 0.0430048
000190 61 24 b0 bc 32 31 95 bc 4d 9b aa bc b0 31 c3 3b
       -0.021501722 -0.018211935 -0.020826006 0.005956851
0001a0 68 34 1d 3e 62 9b 7d bd e4 66 af 3a 72 17 c7 3d
       0.15352023 -0.061915763 0.0013382104 0.09721269
0001b0 81 f5 f5 3d 5f 3e 20 3d d2 0e 8a 3c f1 85 09 3d
       0.12009717 0.03912198 0.01685277 0.033575002
0001c0 48 a7 48 bc 44 69 13 3e a0 39 59 3d 54 5b 12 be
       -0.012246914 0.14395624 0.05303347 -0.14292651
0001d0 f8 21 35 be 36 23 3e 3c 0d 2a 3b 3e 8c d7 ff 3d
       -0.1768874 0.011605075 0.1827776 0.12492284
0001e0 74 0c 82 bc 3f b1 7c 3d 2e eb 0c 3e 8e 2d e1 3d
       -0.015875079 0.061692473 0.13761589 0.10995017
0001f0 de 6b e0 bd e5 cf 37 3c 21 f3 03 be d8 a2 98 3d
       -0.10958074 0.0112189995 -0.12885715 0.07452935
000200 b1 79 cb 3d e3 4a 40 3d 18 4d 01 bd 1e fa 2c ba
       0.0993532 0.046946418 -0.031567663 -0.00065985497
000210 2f 37 7e 3c 2a a4 17 3c 3c e5 40 3d 98 2c e7 bd
       0.0155160865 0.009255448 0.047093615 -0.112878025
000220 01 14 b0 3b 73 5e da bd 11 e6 11 3d c8 c5 25 bd
       0.0053734784 -0.10662546 0.0356198 -0.040471822
000230 f7 0f ca bc 84 3e 8d bd 94 79 ef 3d 32 54 9a bb
       -0.024665816 -0.068966895 0.11693111 -0.004709744
000240 90 52 a1 3d 52 87 de bc 60 3e 30 bd aa 02 11 bd
       0.07877076 -0.027164135 -0.043028235 -0.03540293
000250 4f 39 a0 3d 6b dc a7 bd 0f 47 b1 bc 05 ab 12 bd
       0.07823431 -0.08196338 -0.021640329 -0.03580763
000260 9a b4 ed bc 09 2f e4 3c 76 8c 8b bd e5 1c b1 bd
       -0.029016782 0.02785446 -0.068139 -0.08648089
000270 81 7e e9 bd a2 97 19 3d e9 a9 a5 bd 95 bd 44 3d
       -0.11401082 0.037498124 -0.080890484 0.048032362
000280 88 0c 2a bd f1 66 d2 3d f4 af 6c bb 0f be ca bc
       -0.041515857 0.10273541 -0.0036115618 -0.02474883
000290 bf 5d a2 bb c3 dc 35 3b 64 4e 23 3d f0 86 b4 3c
       -0.004955023 0.0027749992 0.03986968 0.022037
0002a0 f0 af 37 bb 5c 37 de 3c 7a 8c 8f bd b2 eb 78 3d
       -0.002802845 0.027126007 -0.07009216 0.06077165
0002b0 5c d0 ef bd b3 80 cc bd 7a c6 d8 3c 02 e9 96 bc
       -0.11709663 -0.09985485 0.026461829 -0.018421654
0002c0 98 6d 8d bd e0 d1 7f bd 59 55 91 3b bd 5a a4 bb
       -0.06905669 -0.06245601 0.004435223 -0.0050156997
0002d0 a8 e3 1f bd 99 68 b4 3d d6 25 88 ba 0a 83 44 bd
       -0.03903547 0.08809013 -0.0010387253 -0.04797653
0002e0 fc 9d 59 3c fd ce 48 3d 27 4a d7 3d be ae 48 bd
       0.013282295 0.049025524 0.1051219 -0.048994772
0002f0 4f ad 91 3a 66 54 2e bd b8 f9 9d bc 24 6d df 3d
       0.0011114272 -0.042560957 -0.019284114 0.10909489
000300 ac 52 2f bc 62 be 92 bb 54 ec a7 3c 2d 7f 92 3d
       -0.010700863 -0.004478262 0.020498432 0.07153163
000310 0d 3d b6 3d 56 cd 80 3d 1e a0 10 bc b2 8d 63 bd
       0.08898363 0.06289165 -0.008827237 -0.055555053
000320 27 eb d8 bd 39 a5 5f bd 3b f5 40 bd 0f 53 48 bd
       -0.10591727 -0.054600928 -0.04710887 -0.048907336
000330 96 dc 5b bd 1d e7 26 bd af eb 30 3d c5 43 db bc
       -0.053677164 -0.04074775 0.043193515 -0.026765713
000340 de cb 88 3a 1a e5 0b 3d 3d 23 4d 3d de be b6 3d
       0.0010436734 0.034154035 0.050082434 0.08923124
000350 4d 86 1b bd b0 1d e9 3d 40 03 ee bc 19 0e 16 bd
       -0.037969876 0.113826156 -0.029054284 -0.03663454
000360 3d 7b 4f 3d b7 cf ac bd 09 e0 a6 3d 02 d6 1a bd
       0.05065464 -0.08438056 0.081482 -0.03780175
000370 ab 51 83 3d 89 3c c3 3c 45 de c4 bd 8f e9 d3 bd
       0.06412061 0.023832576 -0.09612707 -0.10347282
000380 eb 1e 2b bd 34 0b d4 3b 02 fa 13 ba fc 51 b9 bd
       -0.041777533 0.006471062 -0.0005644859 -0.090488404
000390 01 42 37 3d c0 06 19 bd 99 50 f1 3d fc 3c db 3d
       0.04474068 -0.037359953 0.11782951 0.10704991
0003a0 14 d6 b8 3c ac 7e 23 bb db 8a 4d bd e5 5e 52 3d
       0.022563018 -0.0024947328 -0.05018125 0.05136003
0003b0 68 03 68 3d 41 17 4c bd b1 52 56 3d bf 43 83 bc
       0.056643873 -0.049826864 0.052324954 -0.016023515
0003c0 54 2d e4 3c 1b 39 4a 3c 31 b3 e0 3b 8a 1a 10 3a
       0.027853645 0.012342717 0.006857299 0.00054971187
0003d0 9f d1 75 bd 72 24 aa 3c 05 6b 8b 3d 1b a5 e0 3d
       -0.060014363 0.020769332 0.06807522 0.10968991
0003e0 80 a2 39 bd 96 57 77 3d 05 c8 3c bd 04 5a e4 3d
       -0.045320988 0.060386263 -0.04608919 0.111499816
0003f0 69 49 77 bd fa a5 99 3d 2b 6f 40 ba dc c5 52 3d
       -0.060372744 0.07502361 -0.0007340784 0.051458225

lstm.bias_ih_l1 f4 [512]
000000 bd ee bc 3c 13 7c d9 bc f3 db e4 3d a0 30 75 3d
       0.023063058 -0.026548421 0.111747645 0.059860826
000010 31 e6 77 bd 62 08 8a 3d e4 81 a3 bc 1b 8e b1 3d
       -0.060522262 0.0673988 -0.019959398 0.086696826
000020 13 cd 7a bd e3 a7 60 bd 96 84 3d 3b a5 96 09 3d
       -0.06123073 -0.05484761 0.0028918139 0.03359093
000030 cb 2d 9a 3c 23 2a 27 bd ec 8e 34 3e 7e bd 84 bd
       0.018820664 -0.04081167 0.17632645 -0.06481455
000040 d4 58 bb bb 53 1e b7 bc 23 c9 a9 3d 41 f6 f3 bc
       -0.0057173762 -0.022353327 0.08290317 -0.029780509
000050 c8 d6 1a 3b 8b 3a ca bc 48 4a 9b 3d 02 02 10 3d
       0.0023626555 -0.024686119 0.075825274 0.035158165
000060 e2 88 c6 3d a7 8a ce bb cd 29 8f bc 85 e2 91 3d
       0.09694077 -0.0063031497 -0.017475987 0.07123283
000070 bb 20 32 3d c3 93 8d 3d 3a 90 b6 3d b7 23 68 3d
       0.043488245 0.06912949 0.08914228 0.056674685
000080 27 3e 79 3d 9f f7 70 bd 8c 66 48 bc 29 7f 73 3d
       0.06085029 -0.0588299 -0.01223148 0.05944744
000090 06 60 a6 3c 93 e0 8b 3c d1 68 6d 3d 0a a4 a8 bd
       0.02030946 0.017074859 0.05796129 -0.08234413
0000a0 56 49 eb 3d 0a 12 25 bb ea 04 9c 3d ee d6 53 3c
       0.11488597 -0.0025187754 0.07618125 0.012929661
0000b0 2a b7 37 3d 3a f9 a9 bc 20 0c 16 3c f3 c1 cc 3d
       0.044852413 -0.020748723 0.009158164 0.099979304
0000c0 ca 45 27 bb 79 6b 8c 3c ae 25 0a 3d 4b 2e e7 bc
       -0.0025523775 0.01714109 0.03372734 -0.028220316
0000d0 8e a6 b3 3d da 08 0e bd b0 6f a1 bd 0f cc ba 3d
       0.08772002 -0.03467641 -0.07882631 0.09120952
0000e0 f5 2a 5f 3c fa 38 09 bd 0c ba dd bc b9 da 8b 3d
       0.013621082 -0.033501603 -0.027066253 0.068288274
0000f0 97 dd 2b bc 87 fc 4f bd 27 11 60 3d 1e 3f 49 3e
       -0.010489843 -0.05077794 0.054703858 0.19652984
000100 39 56 42 bd 8c fa 9b bd 00 c5 8d 3d be 84 84 3c
       -0.04744551 -0.076161474 0.069223404 0.016176578
000110 b0 86 1c 3c c8 0e 94 bd 7a f8 6f 3c 12 7b e6 3d
       0.009553596 -0.07229382 0.014646644 0.112539425
000120 b7 68 2b bb c9 af be 3d e9 47 93 bd e2 34 28 bd
       -0.0026154944 0.09310872 -0.0719145 -0.041066058
000130 b8 ba d1 3d 37 e2 3d 3c 92 e9 9a bc cd e5 29 3d
       0.10240692 0.011589578 -0.018910203 0.04147892
000140 86 cc 3f bd 03 dc ca 3c fc c0 b0 bc 1e 48 d6 bc
       -0.046825908 0.024763113 -0.021576397 -0.026157435
000150 7a 6c 8f bd 9d f3 2b 3b da 84 f7 3d 8b 16 47 bd
       -0.07003112 0.0026237734 0.12085886 -0.048605483
000160 ca f4 4a 3c 39 c7 a1 3d 77 27 13 3d 48 fe 28 bc
       0.012387464 0.07899327 0.03592631 -0.010314532
000170 99 06 95 bd 25 71 c7 3d b7 01 56 3d a7 1d 9d 3c
       -0.07276649 0.097383775 0.05224773 0.019179178
000180 56 64 3d bd 7a 00 b0 bd 06 27 5e bd bd 05 63 3d
       -0.046238266 -0.08593841 -0.054236434 0.055425394
000190 58 22 6e 3d 68 b2 84 bd 76 b2 33 3b 4a 59 80 3c
       0.05813822 -0.06479341 0.0027419603 0.015667576
0001a0 c2 cf c4 3c 4d 74 80 3d 40 8b 32 bc d0 7f ed ba
       0.024024848 0.062721826 -0.010897458 -0.0018119756
0001b0 5f 1b 37 3d 11 ec 1d bd 8a f3 10 bc 15 e0 9b 3c
       0.044703837 -0.03855521 -0.008847127 0.01902775
0001c0 6e f7 e1 3d 4a f5 a6 3d 53 f9 6b bd bc a3 99 3d
       0.110335216 0.08152254 -0.05761082 0.07501933
0001d0 88 56 e8 3d de 28 c9 3c e7 93 06 3e 9e ac ba bc
       0.113446295 0.02455562 0.13142358 -0.022787388
0001e0 8a 7e 3e bb 81 f1 dd 3d 13 92 d1 3c 96 73 8b 3d
       -0.0029067122 0.10837079 0.025582349 0.06809156
0001f0 9a f6 3e 3d f5 21 db 3c f4 13 dc 39 0c 0d e8 3d
       0.046621896 0.02674959 0.00041976536 0.113306135
000200 9d dc 3e 3d 2b bb 89 bd d3 44 5a bd 6a 00 29 bd
       0.046597112 -0.067251526 -0.053288292 -0.04126016
000210 df 45 bd 3d 77 7d 6e bc 51 de c7 3d d7 be a0 bd
       0.092418425 -0.01455628 0.097592 -0.078489
000220 c2 16 31 bd c1 cf b8 bc 5b b9 75 3d d2 ab 0f bc
       -0.043234594 -0.022560002 0.059991222 -0.0087689925
000230 e0 6c ab bc 22 90 1a bc 82 74 dc bd 11 76 ae 3d
       -0.02092594 -0.009433778 -0.107644096 0.08518613
000240 7b e3 1f 3b 93 3c 65 3d f9 61 28 bd c2 bd 22 bd
       0.0024397064 0.05596597 -0.04110906 -0.03973175
000250 15 6e 2a bd 46 cc 63 bd eb 1a 0b ba 5e b9 31 3c
       -0.04160889 -0.055614732 -0.000530644 0.010847418
000260 a7 77 8a bd 54 1d 43 3d 80 88 f7 bb d9 96 c8 bc
       -0.06761103 0.04763539 -0.007554114 -0.024485992
000270 d6 9e 99 3a f1 ac ad 3d 52 44 46 bd 3c 0a 4c bb
       0.001172031 0.084802516 -0.048405 -0.003113403
000280 01 fa 22 3d 81 c8 12 bd 45 b9 e1 bc 2b 13 d8 bb
       0.039789204 -0.035835747 -0.027554164 -0.006594082
000290 29 50 1d bd 79 1a f4 3c 4f 2b 7b 3c a5 b3 80 3d
       -0.038406525 0.02979778 0.01533015 0.062842645
0002a0 a3 58 83 3c d4 2f 71 bd ce d3 5b bd d4 0c b1 3d
       0.016033476 -0.058883503 -0.05366879 0.08645025
0002b0 69 0e c4 bc 8e 27 7c 3d c0 31 5b 3d 1e 1c 50 bd
       -0.023932653 0.06156116 0.053514242 -0.050808065
0002c0 d0 51 5f 3c 9b cf 9b 3a 5b 8b 93 bd 05 ae 6d bd
       0.013630345 0.0011887433 -0.07204314 -0.058027286
0002d0 29 a7 5b 3c 08 48 c5 3c 28 7c 15 3d d2 06 ab 3d
       0.013406553 0.024082199 0.036495358 0.0835091
0002e0 f5 48 6a 3d 6d f4 57 bc 47 6f 25 3c a1 cd 3d 3d
       0.057198483 -0.013180834 0.010097331 0.04633868
0002f0 60 e2 f8 3b b3 16 c7 3c f7 21 6b bb 96 fe de bc
       0.0075953454 0.024302816 -0.00358784 -0.027221005
000300 37 1e 0e 3d 2f cc 99 bd dd 27 59 3e 07 bc bd 3c
       0.034696784 -0.07509648 0.21206613 0.023160947
000310 09 72 00 3c 77 f3 a8 bd 48 b1 0a 3d bb 6f ad bc
       0.007839688 -0.08249562 0.033860475 -0.021171441
000320 42 44 f0 bc b2 ca 72 3d 3a 09 65 3d d9 9c 9f bd
       -0.029329423 0.059275337 0.055917002 -0.07793588
000330 4b b5 13 3b 46 0f ad bb 88 c2 1c bd 0d ab 87 3d
       0.002253848 -0.0052813618 -0.038271457 0.06624422
000340 28 bc 01 bc 05 3b 80 bd 5a 41 a3 bd 8b a0 9c bd
       -0.007918395 -0.06261257 -0.07971449 -0.07647809
000350 1b 31 17 3d 68 25 36 3d 8f 97 57 bc 68 d1 07 3d
       0.036912065 0.044469267 -0.013158693 0.03315869
000360 10 ef 9f bd aa 8c 92 3d ce e5 0f 3b 69 c5 8e 3c
       -0.078092694 0.07155736 0.0021957043 0.017428117
000370 d4 78 37 3d 35 ed 71 bd df 09 93 bd 69 f7 8b bd
       0.044792965 -0.05906411 -0.07179617 -0.06834299
000380 83 08 31 bd 91 83 06 bd 5b fb 38 3d 16 2e 8c 3d
       -0.043221008 -0.032840315 0.045161586 0.06844728
000390 86 b1 9e 3c 7c 50 b9 bc 6a 12 af 3c 8b 81 10 3d
       0.01937176 -0.022621386 0.021371085 0.03527979
0003a0 5a b0 3c bd 76 ca 8f 3d 5e 18 8b 3c c0 a2 5d 3d
       -0.04606662 0.07021038 0.016979393 0.05411029
0003b0 5a 9d d6 3c cb 8f 1e 3d 05 62 93 bd 8c e8 54 3d
       0.026198078 0.03871135 -0.0719643 0.051979586
0003c0 5b a5 b0 3d f4 a5 df ba 4a b6 97 3c aa dc 95 bd
       0.08625289 -0.0017063008 0.01851954 -0.07317479
0003d0 23 5d 18 3d 8d 4a 91 3d 4d ce bc bc 74 23 82 3d
       0.037198197 0.070942976 -0.02304759 0.063544184
0003e0 36 10 76 3d d4 ba 56 3d 33 50 be 3d 45 84 9c 3c
       0.060074054 0.052424267 0.092926405 0.01910604
0003f0 8c 5d 80 3d 3d 77 7d 3d 30 4b 45 bd cf 2d 92 bd
       0.06267843 0.061881293 -0.048167408 -0.071376435
