models/CNC model.pth (torch, 799650 bytes, 9 tensors)

lstm.weight_ih_l0 f4 [512, 1]
-0.023414917 -0.025726184 0.13563642 -0.028567186 0.024022864 0.044579554 -0.10152859 -0.019122351
-0.114289306 0.008723227 -0.03894549 -0.08739454 -0.07899221 -0.052948266 0.07646726 -0.036940243
0.02649043 -0.06265851 -0.038124748 -0.047061823 -0.055240083 0.10096105 -0.03765209 0.039638545
-0.04553801 0.04745245 0.033142347 -0.05692841 0.05343135 0.07571959 0.059592973 -0.08602358
0.08347398 0.020968946 -0.005713998 -0.056159105 0.035815403 -0.067080125 0.00029218226 -0.0066905394
0.08156065 -0.06843211 -0.045704823 0.0070123076 -0.052800737 -0.104701206 0.016237896 -0.04268139
-0.029535081 -0.08464062 0.09201439 0.031656224 -0.113112085 -0.07673905 -0.0787371 0.025536241
-0.06451579 -0.006439785 0.026634049 0.035882972 -0.05095259 -0.025943736 -0.089771986 -0.03152592
0.053363517 -0.08051473 -0.0341068 -0.004648149 0.062138397 0.07059975 -0.06430097 0.02190225
0.019698823 0.08192846 -0.045579106 -0.091909505 0.068125255 0.0466909 0.05886022 0.061255712
0.01639314 0.092693664 0.03694116 -0.009796387 0.05525948 -0.05289041 -0.06199284 0.007966556
0.022840163 -0.07073343 -0.106396206 -0.049103025 -0.050078988 0.04242715 0.013675062 0.047777392
-0.057682395 -0.09309836 0.031289324 0.007688666 -0.097199626 -0.13595757 0.07241576 -0.072250105
0.054162882 -0.09433818 -0.02589202 0.02481244 0.059952952 0.05150993 -0.054876074 -0.0048546195
0.10996264 0.015470278 0.04695633 -0.099114336 -0.010834222 0.038126502 0.022432797 -0.04906194
-0.055595886 -0.08636615 0.071055084 0.0026433212 -0.034726024 0.060448397 -0.047775853 0.18041892
0.034996565 0.019444063 0.16823816 -0.099549204 -0.10317708 -0.029899985 -0.101336256 -0.08093083
-0.029564716 -0.017436437 -0.06201383 0.013375824 -0.016205369 -0.05510489 -0.03934483 -0.025159083
0.0701374 -0.033170562 0.0110681215 -0.08811581 -0.08328305 -0.0058931233 0.05259303 -0.0069167623
-0.05458272 0.16399263 -0.04601133 -0.015436152 -0.06570533 0.25785285 -0.082274884 0.030906834
0.022620458 0.016726488 0.0037076534 0.018471086 0.064425424 -0.11109909 0.06886043 0.02718816
0.15852267 -0.045124922 -0.0028767253 -0.0059865694 -0.088123456 -0.007888229 0.0032740473 -0.12218079
0.0938981 -0.013179431 -0.026927987 0.017340358 0.05155076 0.07067115 -0.049114257 -0.038550254
-0.0677511 -0.02780279 -0.006964627 -0.037118115 -0.061463714 -0.007838052 -0.08627047 0.022175169
0.017888902 -0.00078524486 -0.06972063 -0.04807495 0.03372051 -0.06621687 0.062460646 0.051690772
0.085119665 0.063669205 0.053104393 0.035375983 0.039657585 0.13148542 0.029474331 -0.0044086245
0.07053725 0.18944664 -0.046391316 -0.002517422 0.07053194 0.004834977 0.012373863 -0.052421186
0.07026166 -0.07393405 -0.06640643 -0.07818159 -0.11347686 -0.062475562 0.050645895 0.035806406
0.036445163 0.02191412 0.051740024 -0.1035131 -0.08959123 -0.0033724525 -0.095681556 -0.040495656
-0.00025948684 -0.08099363 -0.0062567387 -0.026848717 0.14243473 0.12384767 -0.0629097 0.088311955
0.02878887 -0.022799859 0.023671348 0.017340388 0.047289774 -0.03201103 0.031679668 0.052448478
-0.089348644 -0.045335762 0.17965046 -0.07817527 0.0023264564 0.00959224 0.057859607 0.32050973
00000000: a4d0 bfbc b8bf d2bc 46e4 0a3e bb05 eabc
00000010: 99cb c43c 0d99 363d 39ee cfbd 7aa6 9cbc
00000020: 8310 eabd deeb 0e3c 4e85 1fbd e9fb b2bd
00000030: abc6 a1bd 48e0 58bd de9a 9c3d a74e 17bd
00000040: 7502 d93c 1b53 80bd b228 1cbd e6c3 40bd
00000050: 6d43 62bd abc4 ce3d 1439 1abd 075c 223d
00000060: 1086 3abd 805d 423d 45c0 073d c42d 69bd
00000070: d5da 5a3d df12 9b3d c317 743d 212d b0bd
00000080: 68f4 aa3d 11c7 ab3c 7d3c bbbb 1707 66bd
00000090: 2cb3 123d 4e61 89bd 0a30 9939 503c dbbb
000000a0: 4509 a73d 2226 8cbd fb34 3bbd 80c7 e53b
000000b0: 9645 58bd 966d d6bd 5605 853c aed2 2ebd
000000c0: 8ef3 f1bc 1058 adbd 0a72 bc3d f5a9 013d
000000d0: 4fa7 e7bd 5d29 9dbd eb40 a1bd 6131 d13c
000000e0: db20 84bd d504 d3bb a62f da3c 06fa 123d
000000f0: aab3 50bd f587 d4bc 60da b7bd 5321 01bd
00000100: b493 5a3d e8e4 a4bd 92b3 0bbd 804f 98bb
00000110: d584 7e3d 9a96 903d 3ab0 83bd 596c b33c
00000120: 6d5f a13c 1cca a73d 28b1 3abd 0d3b bcbd
00000130: 4185 8b3d f53e 3f3d 6a17 713d 45e7 7a3d
00000140: e84a 863c 2dd6 bd3d 9d4f 173d 0681 20bc
00000150: c457 623d 9da3 58bd 34ec 7dbd 2886 023c
00000160: 4b1b bb3c b0dc 90bd 41e6 d9bd 4120 49bd
00000170: a01f 4dbd 17c8 2d3d 5e0d 603c 3ab2 433d
00000180: 6044 6cbd 5aaa bebd 3c29 003d 35f1 fb3b
00000190: 9910 c7bd 7638 0bbe b74e 943d ddf7 93bd
000001a0: e6d9 5d3d 6034 c1bd 801b d4bc 7543 cb3c
000001b0: 3a91 753d 14fc 523d bcc5 60bd 8013 9fbb
000001c0: 1834 e13d 0d77 7d3c 4855 403d 75fc cabd
000001d0: 0582 31bc 892a 1c3d fcc4 b73c 2cf5 48bd
000001e0: 83b8 63bd bce0 b0bd 5485 913d 923b 2d3b
000001f0: e03c 0ebd bd98 773d 9db0 43bd bdbf 383e
00000200: 8f58 0f3d 2849 9f3c a046 2c3e 74e0 cbbd
00000210: 814e d3bd d0f0 f4bc 6289 cfbd 10bf a5bd
00000220: b431 f2bc dcd6 8ebc 3702 7ebd 4626 5b3c
00000230: 1fc1 84bc aab5 61bd 0b28 21bd 6c1a cebc
00000240: 32a4 8f3d dbdd 07bd 1157 353c 1076 b4bd
00000250: 4e90 aabd 1a1b c1bb ca6b 573d 02a6 e2bb
00000260: 2192 5fbd afed 273e 6076 3cbd eae7 7cbc
00000270: 8490 86bd 4a05 843e bc7f a8bd 5430 fd3c
00000280: 8a4e b93c fd05 893c 1afc 723b ad50 973c
00000290: 7af1 833d eb87 e3bd b206 8d3d b4b9 de3c
000002a0: c453 223e e9d4 38bd 7187 3cbb fc2a c4bb
000002b0: 127a b4bd a13d 01bc 6691 563b ec39 fabd
000002c0: a64d c03d 8aee 57bc 1598 dcbc 5e0d 8e3c
000002d0: e426 533d 09bc 903d 082c 49bd dfe6 1dbd
000002e0: 17c1 8abd adc2 e3bc 8737 e4bb 2a09 18bd
000002f0: 60c1 7bbd 2c6b 00bc 92ae b0bd b3a8 b53c
00000300: bf8b 923c e4d8 4dba b1c9 8ebd 3dea 44bd
00000310: 841e 0a3d b69c 87bd bcd6 7f3d b4b9 533d
00000320: 3853 ae3d 0065 823d fe83 593d 68e6 103d
00000330: fe6f 223d 1da4 063e 2774 f13c 3976 90bb
00000340: d575 903d 4dfe 413e d204 3ebd 55fb 24bb
00000350: 0d73 903d ba6e 9e3b bebb 4a3c 99b7 56bd
00000360: 58e5 8f3d bc6a 97bd 1800 88bd ab1d a0bd
00000370: 8e66 e8bd 60e6 7fbd 1272 4f3d bda9 123d
00000380: 8647 153d 3e85 b33c 59ed 533d adfe d3bd
00000390: 9b7b b7bd 5d04 5dbb b1f4 c3bd c6de 25bd
000003a0: bc0b 88b9 fddf a5bd 5405 cdbb d7f1 dbbc
000003b0: 69da 113e d9a3 fd3d cdd6 80bd e6dc b43d
000003c0: a3d6 eb3c c5c6 babc 6aea c13c 6e0d 8e3c
000003d0: ecb2 413d ff1d 03bd 8ac2 013d 37d4 563d
000003e0: 6cfc b6bd feb1 39bd 4af6 373e 5b1a a0bd
000003f0: 7677 183b c528 1d3c 32fe 6c3d da19 a43e

lstm.weight_hh_l0 f4 [512, 128]
-0.04968542 -0.0031622865 -0.008474684 0.028704945 -0.0020145453 0.0737952 0.017114129 -0.0039360276
0.07110149 -0.033293635 0.0005225341 0.029857354 0.041195367 0.033679605 0.05162837 -0.036354456
-0.039383817 -0.04763653 0.0011408405 -0.06436607 0.050442323 0.009136786 0.012154705 0.019249247
-0.0026102879 -0.061053444 -0.08599159 0.03150924 -0.03245538 -0.0048367307 0.00035333663 0.08782128
-0.029437017 0.08105461 0.0781891 -0.011792546 -0.081609264 -0.010108497 0.06678651 -0.03122715
-0.027330067 -0.08311879 0.068779334 -0.08345385 -0.046810225 0.022106558 -0.025726538 0.022396173
-0.011253543 -0.071325056 0.056698605 -0.080267176 0.03771558 0.07860075 0.043717664 0.035659306
0.035916835 -0.03959755 -0.035587117 0.058097284 0.047181897 0.03070414 0.043418463 0.07142258
0.06338268 0.04591876 -0.03733958 -0.015727816 0.021543354 0.027068587 -0.092297785 0.040089507
0.09127966 -0.03826409 0.031064004 -0.02057464 0.020280031 -0.052516583 0.053934142 -0.03534328
0.047205523 0.05175134 0.028743887 -0.075225815 0.08019838 0.03878099 0.056396477 -0.015983198
0.017269213 0.03917827 0.0048410594 0.072227105 0.07377532 -0.05728508 -0.0667745 0.062372103
-0.012135376 -0.06508667 0.026741367 0.0727616 0.007451911 -0.046352554 -0.04648234 -0.053228643
-0.065791875 -0.0120927 -0.05941087 -0.061380215 0.016311461 0.06776192 -0.071757115 0.0504466
-0.012410423 0.06537157 0.0075521655 -0.087916456 -0.0011757715 -0.06951855 0.07462031 -0.036193773
-0.038831808 0.046264257 -0.026100675 -0.002906414 0.051072814 -0.04978456 0.042556107 -0.015853161
0.022794427 -0.004234358 -0.10338001 -0.069367535 -0.09371615 -0.01603949 0.042292614 0.06528875
0.011498354 0.05325341 -0.08811829 -0.05515795 -0.013458911 -0.04618662 0.030788315 -0.029193485
-0.09916587 -0.066829436 -0.047746584 0.021554928 -0.052090872 -0.030589882 0.07121106 -0.07643396
-0.009318793 0.0036846462 -0.07541402 -0.06598297 -0.053805996 -0.084509194 0.07090955 -0.06317116
-0.014145327 -0.033976886 0.07614569 -0.014415625 -0.04166422 -0.025018869 0.021879552 -0.09084959
0.052982498 -0.05195643 0.06305825 -0.065207064 0.030140849 0.0038140318 0.0045972085 -0.025640065
0.0053711617 0.06868516 0.079683065 -0.0045784875 0.017784862 0.025094632 0.0804124 0.03510884
-0.022327125 0.06054571 -0.08517182 0.09965832 0.040699326 -0.02566921 -0.0063561676 0.03575496
0.008203745 0.07541995 -0.08179938 -0.045499213 -0.0815043 -0.014142477 -0.03101771 0.056927618
0.030020023 -0.019778393 0.030131496 0.0369965 -0.010166568 0.029940216 0.08800841 0.008218078
0.0037895844 0.06555403 -0.005788071 -0.024212843 -0.043790758 0.015813388 -0.07584874 -0.10652508
-0.009984708 -0.102822915 0.0459364 -0.028334504 -0.05588968 -0.08642345 0.036880627 -0.03121393
0.00091803516 0.05938966 0.045795526 -0.063907735 -0.032525923 0.026157634 -0.022370225 -0.0037515352
-0.021072341 0.015666343 0.07248019 0.07256788 -0.031378083 -0.027433475 -0.013563949 0.035708778
0.017897407 -0.045192305 -0.008322289 0.0366383 -0.028448967 0.016110558 -0.011446907 -0.027600562
-0.030028911 -0.046422426 0.041794274 -0.026404556 -0.067344286 -0.022404429 -0.083592094 0.08729178
00000000: f082 4bbd 5d3e 4fbb 67d9 0abc a226 eb3c
00000010: 7606 04bb f021 973d ee32 8c3c cbf9 80bb
00000020: a89d 913d e85e 08bd abfa 083a 6997 f43c
00000030: 79bc 283d a0f3 093d 4578 533d 69e8 14bd
00000040: ed50 21bd 861e 43bd 4188 953a 5cd2 83bd
00000050: 9c9c 4e3d 75b2 153c 8724 473c 99b0 9d3c
00000060: 5d11 2bbb 2d13 7abd 5c1c b0bd d50f 013d
00000070: efef 04bd 707d 9ebb 0a40 b939 a5db b33d
00000080: e625 f1bc f6ff a53d 9b21 a03d 8635 41bc
00000090: c222 a7bd 1c9e 25bc 5ec7 883d 14d0 ffbc
000000a0: 4ee3 dfbc 2f3a aabd 2edc 8c3d dae9 aabd
000000b0: 14bc 3fbd d018 b53c 76c0 d2bc 2e78 b73c
000000c0: c860 38bc df12 92bd cc3c 683d 1e63 a4bd
000000d0: a77b 1a3d 6ef9 a03d 4b11 333d 7e0f 123d
000000e0: 881d 133d 0a31 22bd ccc3 11bd 6bf7 6d3d
000000f0: ce41 413d 4087 fb3c 8fd7 313d 0046 923d
00000100: c7ce 813d 4f15 3c3d 63f1 18bd 9fd7 80bc
00000110: b07b b03c f1be dd3c 9f06 bdbd e534 243d
00000120: d5f0 ba3d ceba 1cbd f079 fe3c 268c a8bc
00000130: 4f22 a63c a11b 57bd 0cea 5c3d 1dc4 10bd
00000140: 945a 413d 37f9 533d 4d78 eb3c fe0f 9abd
00000150: 0c3f a43d d1d8 1e3d feff 663d 32ef 82bc
00000160: 2a78 8d3c 6579 203d c0a1 9e3b ceeb 933d
00000170: 8417 973d c3a3 6abd 12c1 88bd e479 7f3d
00000180: 75d3 46bc 294c 85bd b610 db3c 0904 953d
00000190: 292f f43b 2ddc 3dbd 4464 3ebd 4706 5abd
000001a0: e4bd 86bd 7620 46bc d058 73bd d269 7bbd
000001b0: 9d9f 853c c3c6 8a3d 65f5 92bd 18a1 4e3d
000001c0: 1655 4bbc 88e1 853d 2878 f73b 8b0d b4bd
000001d0: 581c 9aba be5f 8ebd 88d2 983d ec3f 14bd
000001e0: 1a0e 1fbd 977f 3d3d 15d1 d5bc 8979 3ebb
000001f0: ba31 513d e5ea 4bbd 504f 2e3d 7dde 81bc
00000200: 61bb ba3c 5fc0 8abb e6b8 d3bd 9110 8ebd
00000210: 41ee bfbd 4065 83bc 053b 2d3d 1cb6 853d
00000220: 9863 3c3c 3f20 5a3d 5d77 b4bd 4ded 61bd
00000230: c482 5cbc 2e2e 3dbd c737 fc3c 2d27 efbc
00000240: 7a17 cbbd dfdd 88bd ec91 43bd f693 b03c
00000250: 3d5d 55bd a297 fabc 1bd7 913d 6889 9cbd
00000260: daad 18bc 1b7a 713b aa72 9abd 1422 87bd
00000270: ad63 5cbd 2813 adbd 0739 913d e25f 81bd
00000280: cdc1 67bc 592b 0bbd 46f2 9b3d 832f 6cbc
00000290: 1aa8 2abd 5ff4 ccbc bf3c b33c 5a0f babd
000002a0: 2d04 593d 44d0 54bd af24 813d 488b 85bd
000002b0: f1e9 f63c d6f4 793b 2ea4 963b 1d0b d2bc
000002c0: 9200 b03b ceaa 8c3d e030 a33d 2307 96bb
000002d0: 8fb1 913c 4293 cd3c 42af a43d 49ce 0f3d
000002e0: 60e7 b6bc c7fe 773d 906e aebd a919 cc3d
000002f0: 56b4 263d 3c48 d2bc 6647 d0bb cb73 123d
00000300: 0069 063c c675 9a3d 6f86 a7bd 625d 3abd
00000310: baeb a6bd d9b5 67bc da18 febc ef2c 693d
00000320: 8dec f53c 4c06 a2bc 54d6 f63c a489 173d
00000330: ad91 26bc 2f45 f53c c13d b43d 1ea5 063c
00000340: ad5a 783b 3141 863d dca9 bdbb 035a c6bc
00000350: f05d 33bd 148b 813c 9656 9bbd d229 dabd
00000360: e796 23bc d294 d2bd ce27 3c3d c31d e8bc
00000370: 94ec 64bd c7fe b0bd 2410 173d 5bb4 ffbc
00000380: 4ca8 703a 9242 733d 1794 3b3d 0fe2 82bd
00000390: e739 05bd 8948 d63c c341 b7bc 51dc 75bb
000003a0: e79f acbc b456 803c 7e70 943d 789e 943d
000003b0: 4e86 00bd 2bbc e0bc 533b 5ebc 5e43 123d
000003c0: 959d 923c 911b 39bd 365a 08bc 0b12 163d
000003d0: cf0d e9bc 4afa 833c cf8b 3bbc 931a e2bc
000003e0: 31ff f5bc 7125 3ebd 7930 2b3d 5e4e d8bc
000003f0: cdeb 89bd 7e89 b7bc 5532 abbd 08c6 b23d

lstm.bias_ih_l0 f4 [512]
-0.02921681 0.03432976 0.051096622 0.07858463 0.038863 0.07066275 0.0927502 0.045050073
-0.010951917 0.026485708 0.07149884 -0.027154054 -0.019657027 -0.07118019 -0.0027376004 -0.08701549
0.11327106 0.06894687 -0.04643654 -0.068144955 -0.022747029 0.054631457 -0.0050406326 -0.07666618
0.02984962 0.03801368 -0.0013355343 0.0794999 -0.03720968 0.09520589 -0.049171925 0.05273123
-0.038662735 -0.053376805 -0.048873525 0.04287683 0.11103292 0.11505613 -0.051212676 0.0010665975
0.0075587216 0.12346148 -0.03939171 0.084997684 0.034767453 0.046028137 0.05871344 -0.025388215
-0.04446597 0.09987418 0.0058716745 0.0693541 0.030930968 -0.012825521 0.04241285 -0.05401835
0.0036184671 -0.040702313 0.044730548 0.019680092 0.0667386 -0.024922049 0.07611827 -0.0082157655
-0.048861727 -0.03547025 0.10610614 -0.070966244 0.02340075 0.068443194 0.11237603 -0.06989689
-0.031721268 0.1208833 0.022842424 0.038944334 -0.0128994025 0.040192414 0.11214679 0.030926494
-0.023022069 0.0740936 0.06889229 -0.034978982 0.016614975 0.025009371 -0.07785921 0.056068603
-0.021309456 -0.016666092 0.03891143 0.073615916 0.037404835 -0.042890258 0.015633842 0.047988236
0.039805565 -0.073579624 0.021476874 0.02035212 0.048733983 0.05908896 0.013815785 0.06236804
0.05070909 0.06790863 0.12005108 0.03467772 0.041890737 0.042303205 0.04241972 -0.051530164
0.028580079 0.063015744 -0.056557216 -0.04714427 0.10394201 0.08992401 0.04408687 -0.023754654
-0.06607112 0.09559614 0.03709954 0.0441164 -0.050823882 -0.03718884 -0.0309433 0.035465896
-0.026912164 -0.074365295 0.10292119 0.02392939 0.09670164 0.017783022 0.051515244 0.099039175
0.025146844 0.030980209 0.06633401 0.08298601 0.01868019 0.046780195 0.003521625 0.034541927
-0.035325207 -0.061375707 0.072444364 -0.011483898 -0.05516121 -0.06716955 -0.07894249 -0.053990986
0.05805791 0.014693913 0.09035502 -0.078990206 -0.05333508 0.08771815 -0.07673817 0.08919143
0.050234497 0.08475357 -0.05990029 -0.06287533 -0.06686272 0.002496437 0.025856214 0.07441743
-0.07271349 -0.027951675 0.06605261 0.056312613 -0.075735524 0.008904251 -0.06136241 -0.05852477
0.052833293 -0.05513966 0.024626523 0.036667295 -0.06592187 -0.052287713 -0.052039042 -0.027310383
-0.016199015 0.09437904 -0.016876744 -0.005659082 0.07829344 -0.03935249 0.07327073 -0.011325561
-0.056299254 -0.027766572 0.03271001 -0.06980127 0.02484721 -0.06459311 0.059007294 0.027045634
0.0159482 0.028134245 0.006541122 -0.013216236 0.08029885 0.040505525 -0.06057748 0.08720125
0.0014091299 0.053602777 0.0874629 0.05500736 0.08264823 0.030997038 0.048639417 -0.02406919
-0.023438264 0.06050425 0.05722314 0.023713166 -0.009164507 0.03778407 -0.005303751 -0.035063647
-0.0443377 0.0011038833 -0.063396454 0.10537731 0.02197094 -0.06304517 0.08780679 -0.036382593
-0.023038045 0.003844114 0.022274924 -0.007914446 0.06419711 0.031718336 0.09457578 -0.040218793
-0.01119493 -0.068357125 0.062504314 0.010876134 -0.065524794 -0.054795027 -0.014326717 0.04568289
-0.007547011 -0.039778065 0.072341375 -0.057808798 0.07098277 0.033203825 0.036435325 -0.018945336
00000000: 1758 efbc 5d9d 0c3d b14a 513d faf0 a03d
00000010: cf2e 1f3d a2b7 903d d1f3 bd3d 6d86 383d
00000020: ab6f 33bc 8ef8 d83c fc6d 923d 2e72 debc
00000030: c607 a1bc ebc6 91bd 5069 33bb 2d35 b2bd
00000040: a8fa e73d 0434 8d3d 3e34 3ebd 958f 8bbd
00000050: fa57 babc 3cc5 5f3d e42b a5bb 2803 9dbd
00000060: 3187 f43c 3cb4 1b3d 180d afba d8d0 a23d
00000070: 2d69 18bd 4efb c23d 8068 49bd b4fc 573d
00000080: d15c 1ebd a3a1 5abd 9b2f 48bd 9d9f 2f3d
00000090: 3a65 e33d 8ca2 eb3d 62c4 51bd 13cd 8b3a
000000a0: 27af f73b 5fd9 fc3d 3459 21bd 4413 ae3d
000000b0: 5168 0e3d 0088 3c3d 817d 703d f2fa cfbc
000000c0: f321 36bd d68a cc3d 2d67 c03b 8609 8e3d
000000d0: f162 fd3c 2222 52bc 19b9 2d3d 5842 5dbd
000000e0: ce23 6d3b 78b7 26bd 6137 373d 2538 a13c
000000f0: 3fae 883d 5329 ccbc e5e3 9b3d 6b9b 06bc
00000100: 3c23 48bd 4149 11bd 2d4e d93d c056 91bd
00000110: eeb2 bf3c f22b 8c3d 6725 e63d 1a26 8fbd
00000120: 29ee 01bd aa91 f73d 0920 bb3c 1884 1f3d
00000130: 0458 53bc cda0 243d 37ad e53d 8f59 fd3c
00000140: c798 bcbc 63be 973d 6717 8d3d 1f46 0fbd
00000150: 211c 883c 74e0 cc3c a674 9fbd 31a8 653d
00000160: 2b91 aebc 5487 88bc 9761 1f3d f1c3 963d
00000170: d035 193d b2ad 2fbd 8b12 803c 508f 443d
00000180: 290b 233d eab0 96bd 45f0 af3c 7db9 a63c
00000190: 499d 473d 4407 723d 9a5b 623c a175 7f3d
000001a0: 56b4 4f3d ae13 8b3d 57dd f53d 3a0a 0e3d
000001b0: 9f95 2b3d 2046 2d3d 4dc0 2d3d 4b11 53bd
000001c0: c520 ea3c 660e 813d 8aa8 67bd 5a1a 41bd
000001d0: 8cdf d43d 142a b83d 6f94 343d 1f99 c2bc
000001e0: 4c50 87bd e9c7 c33d b0f5 173d 66b3 343d
000001f0: b42c 50bd 5353 18bd ce7c fdbc b044 113d
00000200: e676 dcbc d54c 98bd 58c8 d23d 9107 c43c
00000210: 820b c63d b3ad 913c a601 533d 0dd5 ca3d
00000220: c100 ce3c 35ca fd3c 20da 873d 92f4 a93d
00000230: 3307 993c 979c 3f3d 10cb 663b d67b 0d3d
00000240: 2ab1 10bd 1865 7bbd b65d 943d f626 3cbc
00000250: b9f0 61bd 3090 89bd 9aac a1bd a725 5dbd
00000260: 22ce 6d3d bdbe 703c 0d0c b93d 9ec5 a1bd
00000270: e375 5abd 93a5 b33d e728 9dbd ffa9 b63d
00000280: b0c2 4d3d 4893 ad3d 025a 75bd c8c4 80bd
00000290: 52ef 88bd 439b 233b 69d0 d33c 2a68 983d
000002a0: cfea 94bd e9fa e4bc 9746 873d 0ea8 663d
000002b0: 3a1b 9bbd 23e3 113c 2757 7bbd abb7 6fbd
000002c0: b967 583d 20da 61bd 90bd c93c 7230 163d
000002d0: 0c02 87bd a42b 56bd e426 55bd 06ba dfbc
000002e0: ccb3 84bc cc49 c13d 1941 8abc d26f b9bb
000002f0: 5058 a03d 1430 21bd f70e 963d d98e 39bc
00000300: 0c9a 66bd b976 e3bc eefa 053d f8f3 8ebd
00000310: 608c cb3c 6449 84bd a2b1 713d ce8e dd3c
00000320: cda5 823c ca79 e63c e956 d63b e988 58bc
00000330: b973 a43d 1fe9 253d 1720 78bd 9296 b23d
00000340: 8eb2 b83a 968e 5b3d c01f b33d 664f 613d
00000350: 7a43 a93d 80ed fd3c 203a 473d c02c c5bc
00000360: 9a01 c0bc 4ed3 773d d062 6a3d 1d42 c23c
00000370: ba26 16bc 78c3 1a3d 17cb adbb e69e 0fbd
00000380: 739b 35bd 2db0 903a 00d6 81bd 0fd0 d73d
00000390: 67fc b33c d31d 81bd 0cd4 b33d ea05 15bd
000003a0: 48ba bcbc 88ed 7b3b e779 b63c 98ab 01bc
000003b0: c679 833d 16eb 013d f2b0 c13d 76bc 24bd
000003c0: f16a 37bc d2fe 8bbd 4302 803d d031 323c
000003d0: dd31 86bd c070 60bd 9bba 6abc fb1d 3b3d
000003e0: eb4c f7bb 53ee 22bd b727 943d ebc8 6cbd
000003f0: 6a5f 913d bc00 083d 353d 153d 4033 9bbc

lstm.bias_hh_l0 f4 [512]
0.047807526 -0.009172898 0.13426453 -0.007966111 0.07636193 -0.023479505 -0.05753145 0.10749298
-0.07514947 0.06902552 -0.061507136 0.10268143 -0.06469998 -0.07302658 0.051998056 0.0069781137
0.083470896 0.04620267 0.080782324 -0.05893431 -0.02416901 0.0308138 -0.065717466 0.059508435
-0.03282637 -0.027860144 -0.027396655 0.01371614 0.04169147 0.25202906 -0.057129923 -0.00042559157
-0.04403563 -0.075360335 -0.08001704 0.08454063 -0.03954875 0.003256388 0.028997563 0.05893157
0.023349548 0.008592537 -0.024481094 -0.030403148 0.04474168 -0.058510717 -0.014941688 0.032943547
0.030839086 0.04206949 0.04119551 0.0414595 -0.06285606 0.08369987 0.081276596 0.0296052
0.007576893 0.01083131 0.066890374 0.04083249 -0.015389777 0.037105523 0.012928222 -0.028099695
0.1176291 0.03741434 0.11793592 0.066078514 0.035482466 -0.033150982 -0.026884872 -0.070358224
0.021536788 -0.04590741 -0.009501964 0.0708003 0.078387685 -0.07360291 0.11939237 -0.007594033
0.0358701 0.12626882 0.028465167 -0.090221204 0.044902515 0.025046488 -0.054192934 0.05945896
0.03192404 -0.032216642 0.06542363 -0.016122691 -0.06492066 0.06462252 0.06017301 0.030006358
-0.057887044 0.0888135 -0.05402554 0.09843883 0.044988845 0.053464457 -0.03419615 -0.032059163
0.023415413 0.09438047 0.015899248 0.10366894 0.046729866 -0.045397207 0.0070478315 0.10157407
0.018232122 -0.003980391 0.059498783 -0.078995295 0.04689066 0.09414686 0.08946313 -0.06563476
0.03893741 -0.01244368 0.13264969 -0.011867294 0.0058771167 0.04064973 0.010379609 0.18648918
-0.060315643 0.05783413 0.03078253 0.07984168 -0.006039474 0.016187392 0.05881364 0.08158528
0.08052265 -0.048173744 -0.04692888 0.06198682 0.06468027 0.07755082 0.071199656 -0.0153524
-0.0049854456 -0.05349902 0.038630333 0.07821423 -0.037872408 0.030310262 0.017872183 -0.044229124
0.05137343 0.08824265 0.030250758 0.0088368105 0.04336198 -0.012025108 -0.060884316 -0.040643707
0.038082153 -0.040847667 -0.076206855 0.033060443 0.045879364 0.07852877 -0.07458728 0.07000977
0.037664186 -0.034104202 0.043398768 0.030033331 0.013905213 -0.026711436 0.015860328 0.015581243
0.043032873 -0.06967991 0.04386253 -0.06921763 -0.034849733 -0.037107386 0.021136673 0.012952759
-0.017836068 0.017748088 0.10324991 -0.059034143 -0.068077855 -0.08482262 -0.005005299 0.022040803
0.10272719 -0.059936013 0.031274226 -0.06371081 0.024510868 0.09277571 -0.034028433 -0.01684412
0.04616642 -0.016240474 0.029322017 -0.005772648 0.014710514 -0.0687404 0.08334191 -0.078114085
0.07838421 0.018780489 -0.007366856 0.006375813 -0.04967137 0.097968236 -0.092141755 -0.0033954575
-0.05451466 -0.07707418 -0.031850267 -0.05230311 -0.039885018 -0.009668678 0.026673017 0.052663792
0.07128629 0.061784107 0.022799581 0.030149816 0.0007016895 -0.0022319786 0.080465786 -0.012004678
0.058403347 0.02151683 -0.020035349 -0.0054907934 -0.042881 -0.018154515 -0.053375416 -0.03064181
0.02603918 -0.06536255 -0.067539714 0.019666791 0.002592526 -0.026587835 -0.06236558 0.040562432
-0.0050650225 0.02149392 0.057518765 -0.006041358 0.08395347 0.04918237 0.051108595 0.07469596
00000000: d3d1 433d ec49 16bc a47c 093e 4b84 02bc
00000010: a563 9c3d 1758 c0bc 19a6 6bbd 4825 dc3d
00000020: f7e7 99bd 405d 8d3d e8ee 7bbd a44a d23d
00000030: 6c81 84bd f68e 95bd eafb 543d a9a8 e43b
00000040: caf2 aa3d 033f 3d3d 3471 a53d 1a65 71bd
00000050: 16fe c5bc 396d fc3c e196 86bd 1ebf 733d
00000060: f274 06bd f53a e4bc f36e e0bc a9b9 603c
00000070: adc4 2a3d f409 813e 1101 6abd ef21 dfb9
00000080: b45e 34bd 8556 9abd f9df a3bd a323 ad3d
00000090: dffd 21bd 2069 553b 4c8c ed3c 3b62 713d
000000a0: 8d47 bf3c b6c7 0c3c 938c c8bc 0610 f9bc
000000b0: 0d43 373d efa8 6fbd fbcd 74bc d0ef 063d
000000c0: 40a2 fc3c 0f51 2c3d a0bc 283d 70d1 293d
000000d0: aeba 80bd d66a ab3d 5874 a63d 9b86 f23c
000000e0: 9647 f83b cf75 313c d2fd 883d f83f 273d
000000f0: 6725 7cbc f6fb 173d e5d0 533c 5531 e6bc
00000100: 87e7 f03d c73f 193d 6388 f13d 2c54 873d
00000110: 1056 113d 53c9 07bd aa3d dcbc f917 90bd
00000120: eb6d b03c 6909 3cbd 20ae 1bbc bfff 903d
00000130: b989 a03d 1fbd 96bd fd83 f43d 5ed7 f8bb
00000140: 87ec 123d 9d4c 013e c82f e93c e5c5 b8bd
00000150: b3eb 373d 4b2e cd3c 69f9 5dbd 3d8b 733d
00000160: c8c2 023d 99f5 03bd d3fc 853d bc13 84bc
00000170: 1ff5 84bd d058 843d f977 763d e5cf f53c
00000180: f71a 6dbd dae3 b53d e249 5dbd 4c9a c93d
00000190: 3946 383d 8cfd 5a3d 4311 0cbd 7850 03bd
000001a0: aed1 bf3c 8c4a c13d 243f 823c 6250 d43d
000001b0: d167 3f3d 6cf2 39bd 7ff1 e63b 1106 d03d
000001c0: 885b 953c f16d 82bb ffb4 733d 49c8 a1bd
000001d0: 6c10 403d 12d0 c03d 7238 b73d 846b 86bd
000001e0: d57c 1f3d 94e0 4bbc 52d5 073e 0a6f 42bc
000001f0: d494 c03b 5580 263d 3c0f 2a3c 05f7 3e3e
00000200: 890d 77bd 7be3 6c3d a52b fc3c 0984 a33d
00000210: c8e6 c5bb 6c9b 843c 92e6 703d 2f16 a73d
00000220: 0fe9 a43d d551 45bd 7f38 40bd e4e5 7d3d
00000230: 1777 843d f7d2 9e3d 20d1 913d a288 7bbc
00000240: f35c a3bb ca21 5bbd d73a 1e3d c82e a03d
00000250: 1920 1bbd 3a4d f83c af68 923c 9929 35bd
00000260: f26c 523d 90b8 b43d 70d0 f73c 45c8 103c
00000270: 559c 313d f504 45bc d561 79bd 047a 26bd
00000280: 08fc 1b3d e24f 27bd 5712 9cbd 636a 073d
00000290: 00ec 3b3d b1d3 a03d 37c1 98bd 4861 8f3d
000002a0: c345 1a3d d9b0 0bbd e8c2 313d 7608 f63c
000002b0: b1d2 633c f1d1 dabc 85ed 813c 7848 7f3c
000002c0: 3d43 303d 57b4 8ebd 32a9 333d f9c1 8dbd
000002d0: 98be 0ebd eafd 17bd d126 ad3c cf37 543c
000002e0: f21c 92bc 7064 913c b074 d33d c9cd 71bd
000002f0: 676c 8bbd 7bb7 adbd 7e03 a4bb ea8e b43c
00000300: a262 d23d 777f 75bd 6719 003d d07a 82bd
00000310: 04cb c83c 3101 be3d 6661 0bbd aefc 89bc
00000320: 0019 3d3d be0a 85bc ba34 f03c 7b28 bdbb
00000330: 5e04 713c c4c7 8cbd 2aaf aa3d 47fa 9fbd
00000340: e787 a03d 8ad9 993c ab65 f1bb 32ec d03b
00000350: 3574 4bbd 92a3 c83d d1b4 bcbd 5386 5ebb
00000360: c44a 5fbd 11d9 9dbd 6d75 02bd c93b 56bd
00000370: 795e 23bd 6069 1ebc 5f81 da3c fdb5 573d
00000380: 8cfe 913d 5511 7d3d 30c6 ba3c bffc f63c
00000390: 96f1 373a 6346 12bb 3fcb a43d 45af 44bc
000003a0: 5938 6f3d 1044 b03c 2c21 a4bc 1dec b3bb
000003b0: fda3 2fbd c7b8 94bc 2ea0 5abd 8804 fbbc
000003c0: 1e50 d53c cddc 85bd 4352 8abd 401c a13c
000003d0: 5ee7 293b bbce d9bc 0d73 7fbd cb24 263d
000003e0: 7df8 a5bb 0414 b03c cc98 6b3d 96f6 c5bb
000003f0: ccef ab3d 7473 493d 3f57 513d 32fa 983d

lstm.weight_ih_l1 f4 [512, 128]
0.040838283 0.034362398 -0.027684586 -0.08544341 -0.08454581 -0.022872543 -0.017248468 0.09910736
-0.043793585 0.004771775 0.051631343 -0.036297955 0.009442432 -0.07407285 -0.03993023 0.08023037
0.028321866 -0.013786874 0.041050065 0.06529717 0.0077088424 -0.10077748 0.08426148 0.026877068
-0.09116891 0.06614314 -0.099789545 0.08622309 -0.069382034 -0.07536158 -0.084187664 0.00790272
-0.045003843 0.052789915 -0.06286773 -0.030020595 -0.026946807 -0.109402224 -0.075878486 0.035033956
0.05368318 -0.08289049 0.0177267 -0.039753273 -0.055986207 -0.07380923 -0.027191563 -0.04168113
0.008031677 0.07746214 0.048564985 -0.038562715 0.042656567 0.01923418 -0.026590634 0.051732685
0.04297713 0.055754095 -0.12051987 -0.016628712 -0.09104404 0.07019904 -0.103998914 -0.03856915
-0.0788124 -0.057600863 0.01222954 -0.013130235 0.006623628 0.051799368 -0.0029312556 0.017433977
0.04607669 -0.05738688 0.013246202 0.056699593 -0.040031675 0.0053710425 0.045896675 -0.09477969
0.07319181 -0.017755738 -0.034174226 -0.078677945 0.10106117 -0.08245395 -0.014252954 -0.02922786
-0.020182317 -0.0039557368 0.050147086 0.03613882 -0.03134501 -0.016658483 -0.08426967 0.07658926
-0.02442669 0.053160798 -0.03553602 0.08051747 0.028971553 -0.056688666 -0.04276501 -0.057187676
0.020982355 -0.030886248 -0.003078477 -0.009432756 -0.06942632 0.027263988 -0.06688356 0.006612989
-0.04671123 0.04483727 0.05077285 0.09230202 -0.057836402 0.0196276 0.0021064256 0.06626476
0.076868206 -0.048344467 0.053656712 -0.093623884 0.07815431 0.0764006 -0.0047798986 0.074654676
-0.050644692 0.018851908 -0.09394524 -0.035067074 0.019027269 0.06255461 -0.1168663 0.0026369737
-0.042524256 -0.0039732438 0.01240623 0.017941313 0.056436945 -0.06646973 0.07277188 0.05664343
-0.07781513 -0.01853208 -0.045959868 -0.010948141 0.096844144 -0.0125169605 0.044147775 -0.028152397
-0.06594336 0.016427943 0.058641907 0.017089017 0.038062662 -0.090459675 -0.07069431 -0.018045137
0.07214788 -0.04723065 -0.06577008 0.00375861 -0.07792947 -0.022767393 -0.044936802 -0.10239006
0.03285554 0.02001573 0.07201527 -0.015406993 -0.014413062 0.047226187 -0.05804451 0.028321136
-0.054215904 0.026464872 0.023805792 -0.05943978 -0.098840535 -0.083249934 0.02833983 -0.062576465
-0.02148244 0.059769053 -0.02691461 0.0021111292 -0.049063805 -0.019462593 0.02779247 0.027153507
0.019007063 0.0557282 0.0053688437 -0.0056820437 0.056343842 -0.06809463 0.031083355 -0.015569935
-0.001183273 0.052169107 -0.00036774232 0.023959257 -0.08673282 0.0038851763 0.042864896 -0.07506425
-0.06220076 0.020173732 -0.06646662 -0.02675373 -0.03148268 -0.056208175 0.07063165 -0.055759408
-0.07038257 0.0029742888 -0.068623364 -0.0856661 0.04851745 -0.009776616 -0.07043638 0.048292756
-0.03304829 0.049418647 -0.0613505 0.04458437 -0.0557579 -0.041101538 -0.0542439 -0.09602133
0.06542967 0.0993909 -0.037367947 0.03620959 0.009020371 0.072755255 0.053101487 0.042406738
-0.007702287 0.04071364 -0.096123956 -0.014257948 -0.0040845703 0.077189505 0.013439458 -0.04804201
-0.043974254 0.014538824 -0.012057788 0.050771963 0.052501876 -0.027028996 0.045491777 0.06602552
00000000: 0b46 273d 96bf 0c3d c9ca e2bc f4fc aebd
00000010: 5b26 adbd 335f bbbc a94c 8dbc cdf8 ca3d
00000020: e760 33bd 8d5c 9c3b 637b 533d 2aad 14bd
00000030: 6eb4 1a3c 82b3 97bd e18d 23bd d24f a43d
00000040: 4203 e83c 57e2 61bc 1d24 283d 86ba 853d
00000050: 759a fc3b 6c64 cebd 4891 ac3d 4c2d dc3c
00000060: c4b6 babd 0e76 873d 765e ccbd bb95 b03d
00000070: 2b18 8ebd 2c57 9abd 956a acbd 697a 013c
00000080: f355 38bd 3d3a 583d ccc0 80bd c0ed f5bc
00000090: 8dbf dcbc 460e e0bd 2e66 9bbd c47f 0f3d
000000a0: e5e2 5b3d 7dc2 a9bd 9637 913c 54d4 22bd
000000b0: cb51 65bd 4b29 97bd d7c0 debc d5b9 2abd
000000c0: 4c97 033c 78a4 9e3d 14ec 463d f0f3 1dbd
000000d0: a7b8 2e3d 0091 9d3c 9ad4 d9bc a7e5 533d
000000e0: c908 303d 685e 643d 1fd3 f6bd f038 88bc
000000f0: 4c75 babd 84c4 8f3d 62fd d4bd affa 1dbd
00000100: 6568 a1bd e2ee 6bbd 695e 483c 3220 57bc
00000110: 050b d93b 932b 543d 4f1a 40bb b3d1 8e3c
00000120: e9ba 3c3d 810e 6bbd 9906 593c d53d 683d
00000130: 41f8 23bd 92ff af3b 27fe 3b3d db1b c2bd
00000140: 96e5 953d 7b74 91bc 46fa 0bbd e721 a1bd
00000150: 29f9 ce3d 9edd a8bd 3985 69bc 446f efbc
00000160: 6355 a5bc 209f 81bb 0867 4d3d 4d06 143d
00000170: a063 00bd 5f77 88bc 9495 acbd d4da 9c3d
00000180: 7b1a c8bc 23bf 593d 388e 11bd 58e6 a43d
00000190: c055 ed3c 6032 68bd 5d2a 2fbd a03d 6abd
000001a0: 30e3 ab3c 2805 fdbc 46c0 49bb d98b 1abc
000001b0: 632f 8ebd ba58 df3c 3ffa 88bd c6b1 d83b
000001c0: 4654 3fbd 49a7 373d 31f7 4f3d d708 bd3d
000001d0: dde5 6cbd 10ca a03c f50b 0a3b d2b5 873d
000001e0: 146d 9d3d d904 46bd 24c7 5b3d e1bd bfbd
000001f0: 5e0f a03d eb77 9c3d b2a0 9cbb 8de4 983d
00000200: cf70 4fbd 516f 9a3c 5d66 c0bd 7ea2 0fbd
00000210: 13df 9b3c a21c 803d 9957 efbd 14d1 2c3b
00000220: ea2d 2ebd fc31 82bb 8043 4b3c a9f9 923c
00000230: 6d2a 673d 4821 88bd 6c09 953d f102 683d
00000240: 8a5d 9fbd 97d0 97bc 6a40 3cbd d55f 33bc
00000250: 3956 c63d f013 4dbc 4cd4 343d db9f e6bc
00000260: 500d 87bd e593 863c 7f32 703d 44fe 8b3c
00000270: 98e7 1b3d ec42 b9bd 2ec8 90bd 65d3 93bc
00000280: 45c2 933d ed74 41bd 77b2 86bd 0353 763b
00000290: 7c99 9fbd af82 babc a70f 38bd e1b1 d1bd
000002a0: 8893 063d 07f8 a33c be7c 933d 9d6d 7cbc
000002b0: c324 6cbc 3f70 413d 15c0 6dbd ba01 e83c
000002c0: 7f11 5ebd dccc d83c 5d04 c33c 2077 73bd
000002d0: e86c cabd f17e aabd ee28 e83c 1728 80bd
000002e0: f1fb afbc 65d0 743d 077c dcbc df5a 0a3b
000002f0: 21f7 48bd 0470 9fbc 09ad e33c 0871 de3c
00000300: b3b4 9b3c 4143 643d 20ed af3b 7030 babb
00000310: cdc8 663d 3375 8bbd 85a2 fe3c 0a19 7fbc
00000320: 0e18 9bba 46af 553d 8acd c0b9 3446 c43c
00000330: faa0 b1bd 719e 7e3b 1a93 2f3d 49bb 99bd
00000340: 39c6 7ebd 6243 a53c a71f 88bd a32a dbbc
00000350: fcf3 00bd 8b3a 66bd 54a7 903d fa63 64bd
00000360: bd24 90bd 49ec 423b 688a 8cbd b571 afbd
00000370: 3cba 463d 192e 20bc f340 90bd a0ce 453d
00000380: a55d 07bd 356b 4a3d a94a 7bbd 1a9e 363d
00000390: 6562 64bd 165a 28bd da2e 5ebd d5a6 c4bd
000003a0: feff 853d 758d cb3d 220f 19bd 8250 143d
000003b0: 2eca 133c b500 953d f280 593d b0b2 2d3d
000003c0: 7763 fcbb 59c3 263d a3dc c4bd 2b9a 69bc
000003d0: dcd7 85bb 8815 9e3d 2c31 5c3c b3c7 44bd
000003e0: 591e 34bd 3f34 6e3c 078e 45bc 43f6 4f3d
000003f0: 350c 573d ea6b ddbc 9655 3a3d 6338 873d

lstm.weight_hh_l1 f4 [512, 128]
-0.026690308 -0.05422745 0.037154686 -0.05806634 -0.06752119 -0.048552632 -0.059278756 -0.016402533
0.09833196 -0.06823269 0.06822566 -0.017500775 0.024640428 0.039856497 0.00063001935 0.019141596
0.050509743 0.053281683 0.041275587 0.045625307 -0.0051670764 0.18330595 0.01126807 -0.08923357
-0.009776673 -0.07882248 0.044724148 -0.080476604 0.032686546 0.08983213 0.025264587 -0.104860015
0.06862546 0.02117324 -0.015549968 -0.018965408 0.073972665 0.067116715 -0.02978177 0.06887024
-0.007475214 -0.07569989 0.057656 -0.031901725 0.083838716 -0.06224008 -0.06890543 -0.041196547
0.043730766 -0.055532522 -0.08191676 0.076777786 0.03467713 -0.056415018 -0.008103051 0.026475666
0.07184024 -0.004256655 0.084200144 -0.017722912 0.05790933 0.010223107 -0.025622357 -0.040691793
0.061024256 -0.035173398 0.00040525044 0.09788156 -0.04554151 0.00026969184 -0.033045392 0.06856013
0.064338796 -0.030871306 0.058241382 0.019763434 0.05411706 -0.016583549 0.03225481 -0.042647175
-0.040106453 -0.060504522 -0.057064954 -0.07256565 0.08769484 0.10718068 0.047432005 -0.010636043
-0.062103663 -0.034179468 -0.051953856 0.06553975 -0.06980247 -0.049863543 0.05920546 -0.0463388
-0.050706636 -0.081963494 0.09870625 -0.007095737 -0.085679546 0.101949975 -0.004783661 0.07184333
0.010214039 -0.07303296 0.07120039 -0.015539365 0.07923885 0.015116866 -0.07233528 0.040857613
0.004324368 0.045842607 0.13934663 -0.0062980563 0.0053995326 0.052000474 0.07187741 -0.039081763
0.009159762 -0.030047096 0.011968529 -0.019297473 0.046321955 0.069030404 0.038147416 -0.005640248
-0.06550194 0.080411814 0.06934681 -0.07575361 0.08998743 -0.037498984 0.039616413 0.058614578
0.05499186 -0.050653078 0.06933025 0.053701516 0.005057635 0.037375666 0.055190943 0.052387904
-0.03243744 0.039651934 -0.053449504 -0.016840987 -0.061537042 0.03145678 0.05871357 -0.0020311433
0.030899405 -0.03863692 0.08097854 -0.068768755 -0.015666885 -0.009522628 -0.07618172 -0.1093295
-0.04122881 -0.051419497 0.02200612 0.038916208 -0.013996045 -0.006138941 -0.048489686 -0.05815555
0.066484846 -0.081141226 0.022272946 -0.025544541 0.06246366 -0.08636925 0.0027790251 0.04113
0.075231746 0.02749399 0.04885317 -0.007414744 -0.032906298 0.07454961 0.089333214 0.031117389
0.09539275 -0.07417157 -0.019886674 -0.039327886 0.07887641 -0.04521457 0.08298116 -0.001596128
0.03170832 0.043246366 0.059873853 -0.0508593 0.008101156 -0.04428658 -0.06344484 -0.016417257
0.05965909 0.04103138 0.009225726 0.032128606 0.04907058 -0.07869745 -0.07118881 -0.09468572
-0.018450866 0.03817631 0.07206143 0.0006829386 -0.058536917 0.15296458 -0.07422972 0.04161546
-0.006521213 -0.111971855 -0.065303095 -0.064811684 0.0803047 0.086907655 -0.015226932 0.026069954
-0.04919993 -0.060802326 0.08741757 0.012931072 0.05651538 -0.044286318 0.029948255 0.05399414
-0.04783584 0.022467062 -0.076036066 0.040109575 -0.015275486 -0.09220605 -0.0069369907 0.03420302
0.06280154 -0.06598619 -0.020078495 0.007284917 -0.03518499 -0.049181048 0.10259337 -0.026774189
-0.07496364 0.09053249 0.06640564 -0.1724733 -0.0033457254 0.032849077 -0.104260914 -0.03616048
00000000: a2a5 dabc 9a1d 5ebd 832f 183d f8d6 6dbd
00000010: 8d48 8abd 20df 46bd 48ce 72bd 9b5e 86bc
00000020: 4462 c93d 95bd 8bbd e5b9 8b3d c95d 8fbc
00000030: b9da c93c 9140 233d e227 253a d6ce 9c3c
00000040: 4ee3 4e3d e53d 5a3d 9710 293d 9ae1 3a3d
00000050: 9450 a9bb 8eb4 3b3e b69d 383c 17c0 b6bd
00000060: 572e 20bc ae6d a1bd ab30 373d ebd0 a4bd
00000070: 54e2 053d e8f9 b73d aef7 ce3c d9c0 d6bd
00000080: 818b 8c3d 8173 ad3c 4bc5 7ebc 585d 9bbc
00000090: fb7e 973d 7d74 893d e6f8 f3bc d70b 8d3d
000000a0: a4f2 f4bb 8b08 9bbd b328 6c3d 62ab 02bd
000000b0: a2b3 ab3d 74ef 7ebd 4a1e 8dbd b6bd 28bd
000000c0: 081f 333d 1276 63bd f9c3 a7bd ac3d 9d3d
000000d0: 9b09 0e3d 6f13 67bd a9c2 04bc 7fe3 d83c
000000e0: fa20 933d 697b 8bbb 2071 ac3d a42f 91bc
000000f0: 5532 6d3d d27e 273c fae5 d1bc 70ac 26bd
00000100: 92f4 793d fb11 10bd cb77 d439 2176 c83d
00000110: bc89 3abd 6d65 8d39 9b5a 07bd 4169 8c3d
00000120: 0fc4 833d d2e5 fcbc 848e 6e3d ede6 a13c
00000130: daa9 5d3d 39da 87bc 9f1d 043d ceae 2ebd
00000140: aa46 24bd 97d3 77bd f1bc 69bd 4d9d 94bd
00000150: 5a99 b33d 8b81 db3d 1048 423d cc42 2ebc
00000160: 6960 7ebd c5ff 0bbd 91cd 54bd b439 863d
00000170: 99f4 8ebd b73d 4cbd 6d81 723d c1cd 3dbd
00000180: c3b1 4fbd 7adc a7bd 8126 ca3d 5b83 e8bb
00000190: c278 afbd 26cb d03d 42c0 9cbb 9922 933d
000001a0: c958 273c 4e92 95bd 83d1 913d d298 7ebc
000001b0: fa47 a23d bbac 773c 8524 94bd 505a 273d
000001c0: 6eb3 8d3b 75c5 3b3d e2b0 0e3e ed5f cebb
000001d0: 90ee b03b 73fe 543d 7734 933d 3314 20bd
000001e0: d412 163c 5425 f6bc a617 443c bc15 9ebc
000001f0: 17bc 3d3d d05f 8d3d 7740 1c3d d4d1 b8bb
00000200: e225 86bd f3ae a43d b305 8e3d b524 9bbd
00000210: 544b b83d 8998 19bd d244 223d d715 703d
00000220: 253f 613d 9a79 4fbd 05fd 8d3d 1ff6 5b3d
00000230: 84ba a53b 3a17 193d e60f 623d b394 563d
00000240: 1fdd 04bd 116a 223d deed 5abd 1cf6 89bc
00000250: 440e 7cbd d3d8 003d a47d 703d ee1c 05bb
00000260: c020 fd3c bf41 1ebd 14d8 a53d a2d6 8cbd
00000270: d757 80bc cc04 1cbc 2905 9cbd 25e8 dfbd
00000280: 8adf 28bd 409d 52bd 2e46 b43c 9a66 1f3d
00000290: ab4f 65bc 2b29 c9bb 1f9d 46bd 8434 6ebd
000002a0: 3529 883d 5f2d a6bd c175 b63c c942 d1bc
000002b0: e5d9 7f3d 5de2 b0bd 4e20 363b ee77 283d
000002c0: 1a13 9a3d 133b e13c 431a 483d 61f7 f2bb
000002d0: c1c8 06bd 77ad 983d 55f4 b63d e5e9 fe3c
000002e0: 465d c33d 44e7 97bd 61e9 a2bc 4716 21bd
000002f0: f589 a13d ea32 39bd 07f2 a93d 2b35 d1ba
00000300: 95e0 013d 1a23 313d 493e 753d d751 50bd
00000310: b6ba 043c d865 35bd 5eef 81bd 7c7d 86bc
00000320: 175d 743d 8510 283d 8027 173c 4999 033d
00000330: 3cfe 483d 212c a1bd 70cb 91bd 96ea c1bd
00000340: 4526 97bc c35e 1c3d f194 933d 3c07 333a
00000350: 68c4 6fbd bfa2 1c3e c005 98bd f974 2a3d
00000360: e6af d5bb 8051 e5bd a1bd 85bd fdbb 84bd
00000370: ca76 a43d a4fc b13d 627a 79bc a890 d53c
00000380: de85 49bd dc0b 79bd fc07 b33d d9dc 533c
00000390: ac7c 673d 9265 35bd 0b56 f53c f628 5d3d
000003a0: 84ef 43bd d80c b83c ccb8 9bbd f049 243d
000003b0: 0846 7abc 87d6 bcbd b24f e3bb 7718 0c3d
000003c0: 189e 803d c523 87bd a87b a4bc 50b6 ee3b
000003d0: 231e 10bd 1172 49bd 791c d23d 8b55 dbbc
000003e0: 8986 99bd 1969 b93d aeff 873d d79c 30be
000003f0: f543 5bbb c18c 063d bf86 d5bd 031d 14bd

lstm.bias_ih_l1 f4 [512]
0.041859772 0.10576788 -0.04217206 -0.009029854 0.046621453 0.027269395 -0.06943236 0.11812841
-0.024515294 0.09308221 -0.033916235 0.008293479 -0.032898746 -0.011217049 -0.07435253 0.039876033
-0.014040295 -0.05474106 -0.028065005 -0.038465597 0.07381428 0.15109612 0.08456177 0.051406886
0.023143597 -0.040038176 -0.03819092 0.09813952 0.07324687 -0.053080615 0.0113125 -0.05400584
0.025061326 0.03972927 0.15177901 -0.05131745 -0.018869316 -0.031827696 0.08174893 -0.02467254
0.040381026 0.021717208 0.07400115 0.055953898 -0.07006332 -0.06801204 -0.060481653 0.05374038
0.033853758 0.026889661 0.07062648 -0.037528265 0.0076621845 0.010371567 0.08408481 0.050306953
0.0713131 0.078171 -0.00749253 0.00092820683 -0.029478282 0.0967035 -0.0601593 0.13171011
0.034411427 -0.016394254 0.064346515 -0.07634006 -0.017167456 -0.038189016 -0.07680335 0.048275907
0.0926036 0.21107508 0.07086905 0.07422941 0.039200757 -0.06103387 0.056553442 0.021377873
-0.009620919 0.08320475 0.12556975 -0.022036362 0.0029873033 0.1107691 0.041302077 0.07928474
0.052765824 0.022828376 0.08043079 -0.024148505 0.103024155 -0.051829427 -0.06549278 0.13744277
-0.046780594 0.09672286 0.097624786 0.124653034 0.11736484 3.0722804e-05 0.024732135 0.069841206
-0.0019620366 0.05242741 0.13339277 0.040896725 0.07186091 -0.06375382 -0.074796595 0.13752581
0.04386617 -0.014942089 0.06699173 0.06957628 0.07060995 0.12724403 0.07574677 0.10018581
0.117583446 -0.019890212 -0.0721198 0.12990592 0.024428777 0.013705517 -0.032898348 0.17180297
-0.04799943 0.07373101 -0.0155310305 0.084499374 -0.038627077 -0.011422603 0.06792799 -0.05946957
-0.025170337 -0.056234863 -0.05070232 0.03387721 0.008078087 0.09150611 0.018733364 0.058781635
-0.021787386 0.009985969 0.010722576 -0.069685176 -0.003789835 0.06610404 -0.040202253 0.05153341
0.058421254 0.026510168 -0.010370186 0.021756489 -0.0015269335 0.070704415 0.027323235 0.081243925
-0.030396296 -0.057340477 0.05756549 -0.059141193 -0.069220595 0.039855003 -0.040607825 -0.0036221626
0.0022653155 0.061756223 0.05649804 -0.007632963 0.04419232 0.0013790632 0.082435176 0.020891983
-0.0343943 -0.04174119 0.06703239 0.011691434 0.08977063 0.0708469 0.015279508 0.03987566
-0.057840157 -0.033350512 -0.07851442 0.09283406 -0.059069082 0.080553584 0.047658592 0.050009258
-0.0067003933 -0.02004644 -0.044267602 0.06968655 -0.024987254 0.06116464 -0.06289042 0.061405774
0.06651647 -0.10722206 0.080212645 0.095900185 0.08420791 0.039394975 -0.010109123 0.08485617
0.043659203 0.046594143 -0.08830589 -0.08251569 0.023917174 -0.06746527 0.022902964 -0.016378487
0.021050535 0.052192867 -0.050686494 0.07471196 0.07717037 -0.02721264 0.052396815 -0.018850759
-0.08920111 -0.02246197 0.065442614 -0.06876874 0.121759504 0.059848696 0.019124102 0.07074491
-0.018557021 0.046872742 0.0977387 0.016219992 -0.023965139 0.014705364 -0.06716822 -0.018526526
0.033688657 -0.042115346 -0.07787925 -0.0016795864 -0.043248955 -0.032046445 0.08419247 0.028041985
0.047188275 0.021961275 -0.014309425 0.04295481 0.02482126 0.05103481 0.09616027 -0.0428812
00000000: 2775 2b3d d59c d83d 9cbc 2cbd f4f1 13bc
00000010: 23f6 3e3d 1164 df3c 8e32 8ebd 4fed f13d
00000020: 4cd4 c8bc e3a1 be3d c0eb 0abd 5fe1 073c
00000030: d6c0 06bd b7c7 37bc 2446 98bd 0d55 233d
00000040: 4409 66bc 2938 60bd 95e8 e5bc 1a8e 1dbd
00000050: f12b 973d f1b8 1a3e b92e ad3d 0790 523d
00000060: a497 bd3c 12ff 23bd 156e 1cbd 5ffd c83d
00000070: 7402 963d 0f6b 59bd 1058 393c 3a35 5dbd
00000080: 694d cd3c 29bb 223d f56b 1b3e 3f32 52bd
00000090: d393 9abc c25d 02bd fc6b a73d 111e cabc
000000a0: 9366 253d 49e8 b13c ea8d 973d ea2f 653d
000000b0: 5c7d 8fbd e549 8bbd 9cbb 77bd df1e 5c3d
000000c0: 3daa 0a3d b547 dc3c 9ea4 903d 3db7 19bd
000000d0: 1013 fb3b 81ed 293c a834 ac3d aa0e 4e3d
000000e0: 9a0c 923d 1e18 a03d e683 f5bb e852 733a
000000f0: 707c f1bc 7c0c c63d 9969 76bd 04df 063e
00000100: fff2 0c3d 3e4d 86bc 1bc8 833d 2d58 9cbd
00000110: c4a2 8cbc 166c 1cbd 134b 9dbd f5bc 453d
00000120: f5a6 bd3d 1124 583e cb23 913d 9705 983d
00000130: f990 203d a7fe 79bd 95a4 673d a620 af3c
00000140: 0fa1 1dbc 4167 aa3d 5b95 003e 9a85 b4bc
00000150: a2c6 433b e9da e23d 5e2c 293d 0a60 a23d
00000160: fa20 583d 9302 bb3c e6b8 a43d 16d3 c5bc
00000170: 54fe d23d 184b 54bd 1421 86bd ccbd 0c3e
00000180: 029d 3fbd a316 c63d 81ef c73d 174a ff3d
00000190: fa5c f03d 5cdc 0038 0c9b ca3c e808 8f3d
000001a0: 8395 00bb 20be 563d 1d98 083e 5383 273d
000001b0: d02b 933d 5d91 82bd f52e 99bd 91d3 0c3e
000001c0: 03ad 333d aacf 74bc f632 893d 027e 8e3d
000001d0: f39b 903d 424c 023e 1f21 9b3d 382e cd3d
000001e0: 97cf f03d ccf0 a2bc 8cb3 93bd 0f06 053e
000001f0: dc1e c83c 1b8d 603c 6bc0 06bd 1eed 2f3e
00000200: 0d9b 44bd 4900 973d dd75 7ebc 020e ad3d
00000210: 6d37 1ebd df25 3bbc d41d 8b3d 5d96 73bd
00000220: 0632 cebc 8756 66bd 3cad 4fbd d4c2 0a3d
00000230: f459 043c 8e67 bb3d b676 993c 03c5 703d
00000240: 767b b2bc 319c 233c bead 2f3c 1ab7 8ebd
00000250: e15e 78bb 8e61 873d 1eab 24bd b214 533d
00000260: 204b 6f3d da2b d93c b6e7 29bc aa3a b23c
00000270: 6323 c8ba 7acd 903d fad4 df3c 3763 a63d
00000280: a701 f9bc d9dd 6abd cbc9 6b3d 093e 72bd
00000290: 87c3 8dbd 003f 233d 6454 26bd ce61 6dbb
000002a0: b075 143b 18f4 7c3d 7d6a 673d ef1d fabb
000002b0: 0203 353d afc1 b43a c6d3 a83d aa25 ab3c
000002c0: 0ae1 0cbd cff8 2abd 4748 893d 6e8d 3f3c
000002d0: aad9 b73d 2e18 913d e756 7a3c a954 233d
000002e0: cde9 6cbd 8c9a 08bd 2bcc a0bd c91f be3d
000002f0: 6cf2 71bd 47f9 a43d a835 433d 82d6 4c3d
00000300: f98e dbbb 6f38 a4bc f251 35bd d2b7 8e3d
00000310: 12b2 ccbc c687 7a3d b1cc 80bd 9f84 7b3d
00000320: c939 883d 3d97 dbbd 8746 a43d 5167 c43d
00000330: 3275 ac3d a05c 213d bca0 25bc 12c9 ad3d
00000340: fed3 323d 80d9 3e3d b8d9 b4bd fcfd a8bd
00000350: f3ed c33c 3b2b 8abd ff9e bb3c 2d2c 86bc
00000360: 2c72 ac3c 30c8 553d a49c 4fbd 9602 993d
00000370: 800b 9e3d 0bed debc 0b9e 563d e86c 9abc
00000380: 12af b6bd 2a02 b8bc c706 863d a0d6 8cbd
00000390: 0c5d f93d e823 753d 26aa 9c3c b5e2 903d
000003a0: e504 98bc a2fd 3f3d 3a2b c83d cadf 843c
000003b0: 8a52 c4bc c4ee 703c 7e8f 89bd f1c4 97bc
000003c0: 1efd 093d 2481 2cbd 287f 9fbd 9125 dcba
000003d0: d125 31bd 2243 03bd 1a6d ac3d 4eb8 e53c
000003e0: 7e48 413d 22e8 b33c 1472 6abc 62f1 2f3d
000003f0: f455 cb3c e009 513d adef c43d 32a4 2fbd
