models/CRM model.pth (torch, 270882 bytes, 5 tensors)

lstm.weight_ih_l0 f4 [512, 1]
-0.070849665 -0.03571494 -0.09894938 -0.11074164 0.022311615 0.013766985 -0.022910632 -0.028939286
-0.047394753 0.12521093 -0.020183608 -0.05334052 -0.03393754 0.048419718 -0.051522955 -0.040603865
-0.02433909 0.11536694 0.016451877 -0.009088132 0.04781781 0.037331577 -0.10109462 -0.044394784
-0.00970383 -0.0045868424 0.02360391 0.094526924 -0.032691438 -0.08546179 -0.015532946 -0.101903304
-0.04633339 -0.06670667 -0.03898145 -0.020002924 -0.054412104 0.09741567 0.010133811 -0.01469074
-0.048647836 -0.014997193 0.013692998 -0.07800134 -0.013347551 -0.041761115 0.060702965 0.0033115386
0.04035174 0.13386644 0.060584918 -0.09914401 -0.051776394 0.042658105 0.055031545 -0.11654176
-0.03323214 -0.011906347 -0.014582297 0.01442182 -0.03860732 -0.041749 0.06778062 0.04177028
0.0016529777 0.0061945342 0.02347792 0.02115014 -0.10233941 -0.027440958 -0.012210078 0.040804554
0.061519545 -0.046052072 0.05055329 -0.021049561 0.08455268 0.09550914 0.031659577 -0.021519734
-0.092949465 -0.005870421 -0.03188506 -0.045188304 0.094713815 0.08787959 -0.01599345 -0.027082065
-0.10666741 0.025541289 0.010128316 0.0927614 -0.030603768 0.053174105 0.10797008 0.02744053
0.018321915 0.013991012 0.12751225 -0.067807734 -0.0836067 0.0050730393 -0.050161503 0.08036184
0.12949617 0.037907124 0.10573643 0.059902217 -0.11753295 -0.0006627824 0.019808017 0.04777705
-0.10615516 0.06413556 0.04470083 0.030513152 -0.041834876 0.11176206 -0.012712652 -0.006645608
0.09661438 0.057907306 -0.061295293 -0.12115027 0.02686238 -0.03241396 -0.02927142 -0.11938987
-0.0016239436 -0.072206564 -0.01937165 -0.014187312 -0.017139517 -0.05250865 0.04933058 -0.0026616554
0.04046089 0.017622372 0.08308312 0.05799823 -0.15231875 0.098153494 0.08309177 -0.029120788
-0.008108492 -0.03682176 0.03715493 0.013286984 0.019642284 0.13397743 -0.1001602 0.07174994
0.07599873 0.04904332 0.06015414 -0.02292144 -0.081588775 0.031168068 -0.030485967 -0.093644634
0.086316526 0.044133577 0.107071765 -0.038671497 -0.048027627 0.09787132 0.039462734 0.03691705
0.03103388 0.0037784146 0.05924271 -0.030616041 -0.09016807 0.029912153 0.006153438 0.038314708
0.027286844 0.114655726 -0.0076009617 -0.011289197 -0.060279023 -0.024731962 -0.06657872 0.014633115
-0.1124128 -0.0708256 0.11008624 -0.015270559 -0.06972208 0.06620328 0.12434965 -0.023598526
0.0059629995 0.02089341 -0.034367718 0.12508082 -0.013628496 -0.09615755 0.07076251 -0.06952424
-0.09259214 0.1169678 0.03411042 -0.054056335 -0.012280186 -0.04399889 0.0008379808 -0.05316305
-0.09307636 -0.02069564 0.026157869 0.123654105 0.03790093 0.017073685 0.035970464 0.093221255
-0.09040845 -0.010946999 0.06455971 0.08611071 0.11734645 -0.113167875 0.04353924 0.07226215
-0.014734649 0.10465877 -0.03322898 -0.0051884055 -0.067804106 -0.11136244 -0.074801706 0.04299646
0.07981037 0.037958212 -0.015863817 0.014469141 -0.030818932 0.10376931 -0.036145803 -0.024660055
-0.014364658 -0.01971855 0.020294458 -0.049819313 -0.07424291 0.086606205 -0.050786026 0.036270797
-0.054389343 0.123620644 -0.087897524 -0.07162099 -0.025425768 -0.0051588025 0.027917245 -0.03214984
00000000: a119 91bd d449 12bd f9a5 cabd 83cc e2bd
00000010: d9c6 b63c ec8e 613c 14af bbbc 1512 edbc
00000020: 0021 42bd 4b37 003e 1858 a5bc 977b 5abd
00000030: 1702 0bbd c153 463d bc09 53bd 3d50 26bd
00000040: c562 c7bc 8145 ec3d 16c6 863c 63e6 14bc
00000050: 9cdc 433d ffe8 183d b20a cfbd 4ed7 35bd
00000060: d0fc 1ebc 394d 96bb fd5c c13c 5597 c13d
00000070: 75e7 05bd 9706 afbd e67d 7ebc aeb2 d0bd
00000080: 15c8 3dbd 829d 88bd 03ab 1fbd 2cdd a3bc
00000090: 3adf 5ebd de81 c73d 4908 263c 6eb1 70bc
000000a0: f442 47bd c9b6 75bc 9958 603c 2bbf 9fbd
000000b0: b0af 5abc b40d 2bbd aca3 783d 6606 593b
000000c0: de47 253d 4914 093e e427 783d 040c cbbd
000000d0: 7c13 54bd 44ba 2e3d c268 613d 72ad eebd
000000e0: 6d1e 08bd d712 43bc 96ea 6ebc 7f49 6c3c
000000f0: b622 1ebd 0001 2bbd 91d0 8a3d 5017 2b3d
00000100: baa8 d83a 85fb ca3b c454 c03c 0f43 ad3c
00000110: 5397 d1bd dccb e0bc c70c 48bc ad22 273d
00000120: ebfb 7b3d 19a1 3cbd f710 4f3d 2170 acbc
00000130: f529 ad3d 4c9a c33d 79ad 013d 274a b0bc
00000140: 4a5c bebd a95c c0bb e999 02bd 5f17 39bd
00000150: 51f9 c13d 37fa b33d b204 83bc 35db ddbc
00000160: 7174 dabd f73b d13c 3cf1 253c b0f9 bd3d
00000170: c1b4 fabc 17cd 593d 6b1f dd3d f6ca e03c
00000180: d717 963c 8f3a 653c 9292 023e c8de 8abd
00000190: fd39 abbd bd3b a63b 2676 4dbd c094 a43d
000001a0: a59a 043e 8044 1b3d 578c d83d 075c 753d
000001b0: 1eb5 f0bd 93be 2dba 6c44 a23c deb1 433d
000001c0: e067 d9bd 8159 833d 3818 373d b8f6 f93c
000001d0: 0c5b 2bbd 82e3 e43d ba48 50bc 67c3 d9bb
000001e0: c3dd c53d 3630 6d3d c610 7bbd a21d f8bd
000001f0: 7e0e dc3c 80c4 04bd 9eca efbc ad82 f4bd
00000200: 81da d4ba 09e1 93bd 4bb1 9ebc e671 68bc
00000210: 2c68 8cbc 4f13 57bd dd0e 4a3d 2b6f 2ebb
00000220: 51ba 253d cb5c 903c 7c27 aa3d 8d8f 6d3d
00000230: 72f9 1bbe b304 c93d 052c aa3d b88e eebc
00000240: 7bd9 04bc 6ad2 16bd c52f 183d a6b1 593c
00000250: dbe8 a03c 6131 093e ca20 cdbd a2f1 923d
00000260: 39a5 9b3d a6e1 483d 3064 763d bec5 bbbc
00000270: 0418 a7bd 2d54 ff3c b5bd f9bc c2c8 bfbd
00000280: b8c6 b03d 69c5 343d 7148 db3d 0166 1ebd
00000290: 9eb8 44bd c270 c83d ada3 213d 5536 173d
000002a0: c33a fe3c 479f 773b 7ca8 723d 7ece fabc
000002b0: 09aa b8bd 550a f53c c7a2 c93b e2ef 1c3d
000002c0: a988 df3c 9fd0 ea3d 7d11 f9bb 53f6 38bc
000002d0: 23e7 76bd af9a cabc 6d5a 88bd bcbf 6f3c
000002e0: af38 e6bd 030d 91bd e574 e13d 5e31 7abc
000002f0: 73ca 8ebd 9695 873d 08ab fe3d b251 c1bc
00000300: 4465 c33b a828 ab3c 2ac5 0cbd 3015 003e
00000310: 0e4a 5fbc 40ee c4bd efeb 903d ba62 8ebd
00000320: f3a0 bdbd d08c ef3d 5eb7 0b3d 2d6a 5dbd
00000330: d532 49bc 2e38 34bd f1ab 5b3a 80c1 59bd
00000340: d29e bebd e789 a9bc 0749 d63c 5d3e fd3d
00000350: 013e 1b3d 1dde 8b3c c455 133d c9ea be3d
00000360: 1128 b9bd 0b5b 33bc e237 843d d05a b03d
00000370: 5653 f03d 8fc4 e7bd 3456 323d 2efe 933d
00000380: 9969 71bc 5657 d63d 1c1b 08bd 8003 aabb
00000390: e1dc 8abd fe11 e4bd a331 99bd 0e1d 303d
000003a0: 9f73 a33d 127a 1b3d d6f4 81bc fa0f 6d3c
000003b0: fc77 fcbc 0185 d43d 9f0d 14bd e203 cabc
000003c0: be59 6bbc cc88 a1bc 9040 a63c 560f 4cbd
000003d0: ab0c 98bd 985e b13d 0205 50bd b090 143d
000003e0: 5cc7 5ebd d22c fd3d 9e03 b4bd 07ae 92bd
000003f0: b349 d0bc 2c0b a9bb b5b2 e43c 8daf 03bd

lstm.weight_hh_l0 f4 [512, 128]
-0.05989331 0.04426278 0.02800544 0.047815923 -0.036960274 -0.023833636 0.10362699 -0.09763544
-0.09160921 -0.041843027 0.07343394 -0.079467624 -0.070691235 -0.08401769 0.022888964 0.0016925839
0.029188057 -0.08436734 -0.028707292 -0.0051164553 0.05418616 -0.011419518 -0.041875444 -0.05488811
0.05081495 -0.0345604 -0.009788657 -0.080583856 -0.04238836 -0.060975723 -0.027950916 -0.013795082
0.022056986 -0.009762234 0.0115869045 0.06638276 0.01753983 -0.073933154 -0.051455706 -0.0031931936
-0.0009885163 -0.0013073424 -0.0056861844 0.011666383 0.054595023 -0.08666211 -0.079203695 0.0058611357
-0.050484642 -0.049694993 -0.07191784 -0.0025774548 -0.017527698 0.0068063177 0.022005726 0.06521494
-0.09380556 -0.02083828 -0.06995418 0.07337366 -0.018570915 0.052462548 0.02414844 -0.059808884
0.07345464 -0.06727078 -0.09549879 -0.02461105 0.054200925 -0.0035376023 -0.002078244 0.040661965
0.08611172 -0.101992026 0.06778768 -0.042002644 0.046925098 0.0044663637 0.06902049 0.07407306
-0.027285531 -0.024933718 0.093717985 -0.05354334 -0.050797854 0.05768322 -0.034811206 -0.09346514
-0.015711278 -0.053989124 0.099601775 0.06910298 0.039084867 -0.0058595967 -0.08693559 -0.005028
0.07143944 -0.011120536 0.01794448 -0.08296692 0.031798698 -0.061495766 0.06698532 -0.0088122105
-0.070629396 0.025483651 -0.027357763 0.007778836 0.08706574 -0.023014039 -0.010597264 -0.005954931
-0.019398527 0.063276075 0.00731325 0.024277031 -0.025479864 -0.09385321 0.0862627 -0.08635378
-0.0008748891 0.03716682 0.0016603599 -0.085013054 0.065162964 0.047181167 -0.033682033 0.07839343
0.018896641 -0.05642427 0.05827733 -0.03695249 0.039506763 -0.031775463 -0.09355016 0.09239244
0.06611716 -0.048097435 -0.08106695 -0.035071094 0.03962045 -0.02492545 -0.03798365 -0.01370324
-0.0835974 -0.008834941 0.029112438 -0.00710821 0.008993049 0.006706001 -0.025994195 -0.09300842
-0.029918058 0.09178683 -0.091224544 0.029255113 0.06879194 0.06128032 0.028051164 -0.09438701
-0.022384284 0.05495277 -0.041541677 0.09734793 -0.048738368 0.061047688 -0.036084566 -0.018224375
0.06701049 -0.08151429 0.045924347 -0.05651326 0.08083678 0.091445215 0.006788722 0.08496687
-0.06077705 0.057420366 -0.058976702 0.08117513 0.08500065 -0.035110474 0.048738156 0.090991005
0.0074739316 0.04086817 -0.046149235 0.026250618 0.05821516 0.043769643 -0.024138829 -0.022375474
6.0749753e-05 -0.04883192 -0.040331803 0.09714042 -0.0566926 0.06291272 -0.055172563 0.0738364
0.016994312 0.07922015 0.060924117 0.03758198 0.057600245 0.0060857423 0.08186121 0.0072678346
-0.017393552 -0.044929337 0.04621662 0.106510565 0.0037201545 0.078034334 0.06623553 -0.051635943
-0.055659343 -0.063765384 0.09567085 -0.069180004 0.04149525 -0.050496895 0.054897316 -0.08574115
0.03437881 0.077994935 0.079758056 -0.07672926 0.082090124 -0.035551056 0.02757433 0.062519476
-0.08438079 -0.042168934 0.035976466 -0.021592617 -0.049092263 -0.05142677 -0.0723697 0.009737167
-0.03162791 -0.08898918 -0.004652064 -0.076879576 -0.08913736 -0.01962851 -0.07485671 0.05746691
0.076987766 -0.042343896 -0.030572113 -0.08526915 -0.08160024 0.094654046 -0.09642478 0.02663221
00000000: b052 75bd e44c 353d aa6b e53c a1da 433d
00000010: a863 17bd c23e c3bc 633a d43d 17f5 c7bd
00000020: 9c9d bbbd 9863 2bbd 8964 963d ecbf a2bd
00000030: 91c6 90bd 7711 acbd a381 bb3c b1d9 dd3a
00000040: cb1b ef3c c9c8 acbd 8e2b ebbc f0a7 a7bb
00000050: 4ff2 5d3d ee18 3bbc 9685 2bbd 5bd2 60bd
00000060: 5623 503d 358f 0dbd 9a60 20bc 2609 a5bd
00000070: 6b9f 2dbd aec1 79bd 52f9 e4bc c504 62bc
00000080: dab0 b43c c7f1 1fbc 00d7 3d3c aff3 873d
00000090: b1af 8f3c 446a 97bd 38c3 52bd e644 51bb
000000a0: 1a91 81ba 225b abba 2c53 babb 5b24 3f3c
000000b0: 089f 5f3d e87b b1bd 8c35 a2bd c50e c03b
000000c0: fcc8 4ebd fa8c 4bbd a949 93bd 84ea 28bb
000000d0: 3f96 8fbc 8807 df3b 5a45 b43c 698f 853d
000000e0: 211d c0bd 0ab5 aabc 2344 8fbd ee44 963d
000000f0: 0822 98bc f8e2 563d f3d2 c53c 29fa 74bd
00000100: 636f 963d 43c5 89bd df94 c3bd 1d9d c9bc
00000110: ca01 5e3d 1ed7 67bb 2633 08bb 298d 263d
00000120: 575b b03d 32e1 d0bd 44d4 8a3d f70a 2cbd
00000130: 8834 403d 935a 923b 9d5a 8d3d 9eb3 973d
00000140: e885 dfbc cc41 ccbc 37ef bf3d 4350 5bbd
00000150: 6911 50bd 3d45 6c3d 3296 0ebd a76a bfbd
00000160: f0b4 80bc b323 5dbd 04fc cb3d dd85 8d3d
00000170: 7417 203d dc01 c0bb 490b b2bd ecc1 a4bb
00000180: d74e 923d e932 36bc 4d00 933c 90ea a9bd
00000190: 5a3f 023d fce2 7bbd 992f 893d 1761 10bc
000001a0: 25a6 90bd 17c3 d03c 631d e0bc 9be5 fe3b
000001b0: 864f b23d f087 bcbc 26a0 2dbc 9521 c3bb
000001c0: a9e9 9ebc e396 813d fda3 ef3b a0e0 c63c
000001d0: 26bb d0bc 1d36 c0bd 80aa b03d 40da b0bd
000001e0: d058 65ba 3c3c 183d 6fa0 d93a 531b aebd
000001f0: 2974 853d 0a41 413d 2cf6 09bd bc8c a03d
00000200: 21cd 9a3c 231d 67bd 36b4 6e3d 7f5b 17bd
00000210: d8d1 213d fd26 02bd 3a97 bfbd 3f38 bd3d
00000220: 6f68 873d d101 45bd 6e06 a6bd b5a6 0fbd
00000230: 0e49 223d 7530 ccbc be94 1bbd 8e83 60bc
00000240: 1d35 abbd 6ec0 10bc 357d ee3c fdeb e8bb
00000250: 9557 133c 03be db3b c7f1 d4bc 337b bebd
00000260: b716 f5bc bcfa bb3d efd3 babd 6ba8 ef3c
00000270: cae2 8c3d 1301 7b3d 8ecb e53c fa4d c1bd
00000280: 3f5f b7bc 2816 613d 9b27 2abd 5a5e c73d
00000290: e2a1 47bd 240d 7a3d 69cd 13bd 494b 95bc
000002a0: cc3c 893d f7f0 a6bd 2b1b 3c3d 737a 67bd
000002b0: c18d a53d a147 bb3d ed73 de3b 1c03 ae3d
000002c0: 5bf1 78bd 9e31 6b3d 8e91 71bd 263f a63d
000002d0: d214 ae3d 00d0 0fbd a9a1 473d 7e59 ba3d
000002e0: e2e7 f43b 6265 273d fb06 3dbd 890b d73c
000002f0: 0573 6e3d cc47 333d cbbe c5bc c54c b7bc
00000300: 8dcd 7e38 fb03 48bd f632 25bd 8ef1 c63d
00000310: 8036 68bd 62d8 803d a0fc 61bd 8a37 973d
00000320: a837 8b3c 2d3e a23d 918b 793d 90ef 193d
00000330: 3cee 6b3d e86a c73b daa6 a73d 0427 ee3b
00000340: ec7c 8ebc d307 38bd a34d 3d3d 3622 da3d
00000350: d6cd 733b 77d0 9f3d 7ea6 873d 3680 53bd
00000360: 0dfb 63bd 6d97 82bd 14ef c33d 3fae 8dbd
00000370: ecf6 293d d5d5 4ebd 02dc 603d 0e99 afbd
00000380: ccd0 0c3d cfbb 9f3d 3158 a33d 3b24 9dbd
00000390: de1e a83d fc9d 11bd 90e3 e13c 360a 803d
000003a0: d6cf acbd 55b9 2cbd 0f5c 133d 00e3 b0bc
000003b0: f814 49bd e0a4 52bd 9136 94bd a388 1f3c
000003c0: 448c 01bd f63f b6bd 5770 98bb 0a73 9dbd
000003d0: a68d b6bd f8cb a0bc 7a4e 99bd 6c62 6b3d
000003e0: c3ab 9d3d cb70 2dbd 5e72 fabc 98a1 aebd
000003f0: 071e a7bd fbd9 c13d 5b7a c5bd cb2b da3c

lstm.bias_ih_l0 f4 [512]
-0.04994685 0.10698711 0.02087917 0.036986634 0.07270733 -0.05036215 0.07374311 0.04693478
0.09902715 0.08112615 -0.044458 0.07174767 0.00931138 0.03238228 0.04208773 0.06982818
0.020876251 0.09833688 -0.046219233 -0.0315015 -0.040585097 0.030583933 -0.01044037 0.04613541
0.007688436 -0.04138635 0.1073342 0.042287808 0.09017773 0.02228715 0.019487506 -0.072545156
0.0006450572 0.08454722 0.08159221 0.018999098 0.02444381 0.025980512 0.005856909 0.050079085
-0.01418789 0.08120347 0.03592519 -0.06517082 -0.015570867 0.06640057 0.023940098 0.072703406
-0.024540568 0.014628965 0.08470617 0.079040326 -0.023784507 -0.046309117 0.06863197 0.1260232
0.07995021 -0.026662504 0.06997683 0.105253026 0.10295484 0.0032748017 0.00505403 -0.042230166
-0.05179743 0.09903577 0.07893551 0.105441034 0.0069647827 0.08948407 0.07433211 -0.053306844
0.098792635 0.03658498 -0.03318722 0.0777489 0.03462914 -0.03522807 -0.048115503 0.07355309
0.044675905 0.06354886 0.065976545 0.035949748 -0.028746562 -0.039573703 -0.0020600678 0.038667824
0.08234352 0.043760207 -0.005244343 0.009771323 -0.037653875 -0.05225379 -0.065532655 -0.04160835
-0.052365858 0.06018617 -0.034068167 -0.021373603 0.059726883 0.087464534 -0.044760514 0.044532042
0.033179626 -0.046652023 0.060484532 0.11328268 0.003921701 -0.03719611 -0.045261998 -0.0026286917
0.08135126 0.06830413 0.05955731 0.006256518 -0.0493592 0.08799842 0.11792004 -0.062265716
0.03969593 0.115197316 0.09738141 -0.047259945 -0.0456614 0.07763134 -0.019049961 -0.08513655
-0.04152986 0.013595048 0.10408401 0.08069801 0.08996232 -0.051558632 -0.02532723 -0.018301802
-0.025864828 0.07204572 0.0829056 0.059692733 0.06787624 0.061346304 -0.046396535 0.03142644
-0.07239457 0.09210041 0.060930327 -0.022262193 0.005064552 -0.04645274 0.022241237 0.07768579
0.04967937 0.023030475 -0.0067420495 -0.009743726 -0.080066435 0.016167024 -0.05379927 -0.008583345
0.076868415 -0.060193095 0.070966795 0.04853635 -0.019222979 0.037528932 0.04826717 -0.022266105
-0.02660384 0.08900079 0.028058344 0.015093888 0.049762975 -0.036524747 0.047598477 0.09777426
0.07383244 -0.02065745 -0.014252316 -0.06253632 0.030897466 -0.08651061 0.05832696 0.06562814
0.08836624 0.09226553 0.049834304 -0.00060256146 -0.011358272 0.08396568 -0.017129598 0.055679463
-0.010923729 0.08213765 0.08723703 -0.027516186 -0.012088912 0.015401337 0.0405879 -0.061522145
0.055073366 0.08743061 0.06232813 -0.0048044347 -0.013188547 -0.04773193 0.031338528 -0.04423782
0.067544624 0.036442034 -0.052729476 -0.04231058 -0.013387576 -0.068355486 -0.060975615 0.018149583
-0.06891933 -0.03729358 -0.023268323 0.024595125 0.06917266 0.05162448 -0.09356892 0.0372472
0.068009034 0.080843054 -0.023013642 -0.06911616 0.0868643 -0.019799609 0.07563148 0.009995361
-0.052283976 -0.02258892 0.008427282 -0.015074057 0.010699893 0.058730554 0.031501196 -0.09247812
0.09239876 -0.07079137 0.07590218 0.08622763 -0.048278462 0.08639696 0.03801188 0.028748618
0.04924075 -0.032716136 0.10106588 0.027108438 0.068117306 -0.06679887 0.050213918 0.06812955
00000000: 1195 4cbd 0f1c db3d cb0a ab3c 4c7f 173d
00000010: 95e7 943d 8b48 4ebd a106 973d af3e 403d
00000020: bfce ca3d 7825 a63d 9819 36bd 71f0 923d
00000030: c28e 183c 48a3 043d 2f64 2c3d 1402 8f3d
00000040: ac04 ab3c d964 c93d 6150 3dbd b807 01bd
00000050: 8f3c 26bd 288b fa3c 160e 2bbc 7cf8 3c3d
00000060: 47ef fb3b bc84 29bd 08d2 db3d fb35 2d3d
00000070: 1aaf b83d 8b93 b63c 43a4 9f3c 8e92 94bd
00000080: 0e19 293a 1827 ad3d d119 a73d ffa3 9b3c
00000090: 633e c83c 15d5 d43c 50eb bf3b ba1f 4d3d
000000a0: 5374 68bc 014e a63d 4b26 133d 4778 85bd
000000b0: f31c 7fbc 06fd 873d 061e c43c 86e5 943d
000000c0: 4d09 c9bc 54ae 6f3c 6e7a ad3d e5df a13d
000000d0: bad7 c2bc a1ae 3dbd eb8e 8c3d 3a0c 013e
000000e0: f0bc a33d 536b dabc 0350 8f3d e68e d73d
000000f0: fdd9 d23d 0e9e 563b 479c a53b 8af9 2cbd
00000100: 8b29 54bd 44d3 ca3d f1a8 a13d 78f1 d73d
00000110: d538 e43b 6d43 b73d 6f3b 983d 4758 5abd
00000120: cb53 ca3d 22da 153d 53ef 07bd d13a 9f3d
00000130: 49d7 0d3d 4f4b 10bd c314 45bd 01a3 963d
00000140: 15fe 363d e825 823d b61e 873d 0b40 133d
00000150: e97d ebbc 0918 22bd 3402 07bb 2762 1e3d
00000160: b8a3 a83d e73d 333d bdd8 abbb e617 203c
00000170: f33a 1abd 1208 56bd fc35 86bd 846d 2abd
00000180: 957d 56bd c685 763d 108b 0bbd b217 afbc
00000190: 2da4 743d 9b20 b33d cd56 37bd 3b67 363d
000001a0: 5ce7 073d 3116 3fbd a1be 773d c000 e83d
000001b0: 9d81 803b f35a 18bd a564 39bd 2146 2cbb
000001c0: 7d9b a63d 09e3 8b3d 5ef2 733d 7a03 cd3b
000001d0: df2c 4abd 8438 b43d 1080 f13d 560a 7fbd
000001e0: 3398 223d 92ec eb3d e86f c73d a593 41bd
000001f0: 7307 3bbd 2efd 9e3d aa0e 9cbc 125c aebd
00000200: 371b 2abd c4bd 5e3c ff29 d53d 0045 a53d
00000210: 2a3e b83d 252f 53bd 0d7b cfbc a9ed 95bc
00000220: 7ae2 d3bc b58c 933d 69ca a93d 5e80 743d
00000230: b302 8b3d 4346 7b3d 4b0a 3ebd 03b9 003d
00000240: 9b43 94bd 249f bc3d 1492 793d 345f b6bc
00000250: 8bf4 a53b 3a45 3ebd 4133 b63c ba19 9f3d
00000260: 987c 4b3d 68aa bc3c 69ec dcbb 26a4 1fbc
00000270: dff9 a3bd b570 843c a05c 5cbd 29a1 0cbc
00000280: 306d 9d3d 098d 76bd 0a57 913d 0dce 463d
00000290: 8279 9dbc f0b7 193d ccb3 453d 6867 b6bc
000002a0: 4cf0 d9bc 0c46 b63d 9dda e53c 5b4c 773c
000002b0: 43d4 4b3d f99a 15bd 9ff6 423d df3d c83d
000002c0: 7635 973d d039 a9bc 8c82 69bc 0b13 80bd
000002d0: af1c fd3c 7a2c b1bd 40e8 6e3d 0c68 863d
000002e0: 5cf9 b43d b6f5 bc3d 0e1f 4c3d 37f5 1dba
000002f0: 0c18 3abc 33f6 ab3d 5f53 8cbc 2610 643d
00000300: 71f9 32bc c937 a83d 54a9 b23d a069 e1bc
00000310: 9210 46bc e455 7c3c 7f3f 263d a5fe 7bbd
00000320: 9c94 613d d20e b33d c84b 7f3d 856e 9dbb
00000330: c714 58bc 8e82 43bd d45c 003d b732 35bd
00000340: d654 8a3d 3e44 153d ddfa 57bd dc4d 2dbd
00000350: 9057 5bbc f6fd 8bbd 91c1 79bd 6fae 943c
00000360: 9425 8dbd 27c1 18bd 369d bebc b77b c93c
00000370: 65aa 8d3d 3174 533d 10a1 bfbd 8590 183d
00000380: 5248 8b3d 0b91 a53d 1b87 bcbc c68c 8dbd
00000390: e9e5 b13d ca32 a2bc ade4 9a3d 95c3 233c
000003a0: b927 56bd 660c b9bc 9512 0a3c 2df9 76bc
000003b0: 9b4e 2f3c 738f 703d 6607 013d 2b65 bdbd
000003c0: 903b bd3d 11fb 90bd 9a72 9b3d 1d98 b03d
000003d0: a3bf 45bd e4f0 b03d 58b2 1b3d 3982 eb3c
000003e0: abb0 493d 5b01 06bd a1fb ce3d 8412 de3c
000003f0: 1681 8b3d d9cd 88bd 1cad 4d3d 8187 8b3d

lstm.bias_hh_l0 f4 [512]
0.02509496 0.0032498275 -0.030602591 0.04034085 0.08915875 -0.009698187 1.8488632e-05 0.049737554
0.06960709 0.10667975 0.036262542 0.08418215 -0.020594183 0.039533947 0.11676953 0.07477143
0.024847802 0.10517592 0.0718804 0.012739336 -0.038987126 0.04768316 0.051060732 0.123297445
0.038593486 -0.03360978 -0.054944504 -0.08468922 0.038730934 -0.081806384 0.012323437 -0.0649814
0.041678227 0.044778578 0.025162043 0.050877236 0.0581012 -0.05694121 0.05470781 0.023041455
0.0884782 0.013604807 -0.016872298 0.04399246 -0.016600715 0.07793599 -0.042978812 0.007762231
0.08692475 -0.015160062 0.029576236 0.026731268 -0.0014827158 -0.006984224 0.023978693 0.03650839
0.09497501 -0.04756474 0.078701146 -0.010564026 0.0019628815 -0.013962953 0.00269416 0.074172825
-0.058079217 -0.03425802 -0.018638369 0.092265174 0.051170964 0.0373999 0.03347179 -0.007313175
0.117667355 0.11549308 -0.0047170804 -0.03017851 0.0048719854 0.023584742 0.051875178 -0.0737516
-0.05815913 -0.03845363 -0.03031175 0.028084464 -0.039841283 0.049294226 -0.046156235 0.022965696
0.030236015 -0.05978083 0.04553195 0.053618427 -0.03463145 -0.049678795 -0.07717627 -0.039804526
0.06114831 0.046273258 -0.012067093 0.06976366 0.008382772 0.06318772 0.053196374 -0.020882232
0.046620663 -0.0014828022 0.09687131 0.0433808 0.004194251 0.0004039126 0.0511005 0.031482805
-0.003560956 0.06259847 -0.091930225 -0.01612693 0.06219926 -0.03223202 0.017516507 -0.08927901
0.020238865 0.054030783 0.09163645 -0.02130223 -0.031266205 0.024983976 0.019187491 -0.08399915
0.041368198 0.091340035 0.098596044 0.06907784 0.008672351 -0.045067172 0.04242001 -0.01046482
-0.016529068 0.042710673 0.087290145 0.002775239 -0.036770903 -0.06542869 0.00469872 -0.06485786
0.055057447 -0.06483206 -0.07086829 -0.03943084 0.055985264 0.0009872052 -0.020869358 0.08512053
-0.041766737 0.07040013 -0.023718776 0.02438861 0.084954984 -0.055240884 -0.09479856 0.04379051
-0.038474523 0.103337094 0.046509728 -0.048204638 0.075711474 0.02210799 0.050413884 0.09462529
0.086714625 -0.012216959 -0.048963655 -0.033705596 0.054506388 0.054197636 -0.06034321 -0.00704979
0.075860426 0.095724784 0.027690569 0.05292949 -0.0535371 -0.03102182 -0.026641568 -0.04134805
-0.016493151 0.071343094 -0.0753314 0.0056429114 0.06260141 0.09972339 0.10472898 -0.08525399
0.046485405 0.018854493 -0.052151322 0.028500497 -0.036187973 -0.052023273 0.031742066 -0.08510834
0.0022733537 0.051911 -0.056810204 0.06648843 0.05987333 0.028047586 0.05902904 0.030263431
0.010813396 -0.011587167 0.069029674 -0.046116833 0.05701236 0.0427151 0.004124221 -0.04507505
0.04204495 -0.037030436 -0.047975224 0.07976736 0.0636063 -0.005362125 -0.07011315 0.056513425
-0.0087609 -0.02136355 0.06854181 0.03703675 0.060072698 -0.0038066416 0.051128335 -0.066491574
0.018464908 -0.071922414 -0.0042933337 0.0016662463 0.09709502 -0.048285417 -0.038313277 0.05869209
-0.05457291 0.049671482 -0.087706335 -0.021258341 0.08367451 0.05008432 -0.00038134036 -0.0035491579
-0.06469216 0.10675734 0.027162626 -0.0036596383 -0.0011233966 -0.04557859 0.034371722 -0.022897936
00000000: f293 cd3c 0ffb 543b 49b2 fabc 723c 253d
00000010: dd98 b63d 25e5 1ebc 0918 9b37 9bb9 4b3d
00000020: 298e 8e3d ea7a da3d 0888 143d b167 ac3d
00000030: 22b5 a8bc 59ee 213d dd24 ef3d c321 993d
00000040: 9e8d cb3c 7966 d73d 0836 933d a6b8 503c
00000050: f7b0 1fbd 6b4f 433d 0f25 513d 5f83 fc3d
00000060: 3414 1e3d 69aa 09bd 7d0d 61bd 8b71 adbd
00000070: 54a4 1e3d 1b8a a7bd 3ee8 493c f814 85bd
00000080: cab6 2a3d be69 373d a120 ce3c a664 503d
00000090: 86fb 6d3d 303b 69bd 4c15 603d 6fc1 bc3c
000000a0: 0f34 b53d b2e6 5e3c c637 8abc 7031 343d
000000b0: 39fe 87bc e89c 9f3d 8d0a 30bd 505a fe3b
000000c0: 9a05 b23d e961 78bc dd49 f23c 88fb da3c
000000d0: b057 c2ba ebdb e4bb f76e c43c d289 153d
000000e0: 4282 c23d 3fd3 42bd 112e a13d bd14 2dbc
000000f0: b0a3 003b dfc4 64bc 8190 303b ece7 973d
00000100: 79e4 6dbd 2352 0cbd 7eaf 98bc 86f5 bc3d
00000110: a598 513d a330 193d b719 093d 5ca3 efbb
00000120: 95fb f03d a387 ec3d bd91 9abb ec38 f7bc
00000130: 2da5 9f3b ca34 c13c 117b 543d 140b 97bd
00000140: 4538 6ebd 8e81 1dbd 5950 f8bc 6411 e63c
00000150: 9d30 23bd bee8 493d 520e 3dbd 8e22 bc3c
00000160: 85b1 f73c bedc 74bd b67f 3a3d ff9e 5b3d
00000170: b5d9 0dbd fe7b 4bbd 980e 9ebd 120a 23bd
00000180: a676 7a3d 0789 3d3d 0eb5 45bc 40e0 8e3d
00000190: e557 093c 9068 813d 71e4 593d 3711 abbc
000001a0: 4ff5 3e3d 965a c2ba 7764 c63d 11b0 313d
000001b0: ed6f 893b 3bc4 d339 c24e 513d 1df4 003d
000001c0: ee5e 69bb a033 803d ea45 bcbd a01c 84bc
000001d0: a7c4 7e3d b905 04bd c77e 8f3c ead7 b6bd
000001e0: facb a53c 624f 5d3d e4ab bb3d 0482 aebc
000001f0: fe10 00bd 32ab cc3c 162f 9d3c bf07 acbd
00000200: b371 293d 7c10 bb3d b9ec c93d af78 8d3d
00000210: 7a16 0e3c 5b98 38bd 9bc0 2d3d a374 2bbc
00000220: f867 87bc 63f1 2e3d 2dc5 b23d c9e0 353b
00000230: 169d 16bd 7aff 85bd b8f7 993b 33d4 84bd
00000240: eb83 613d acc6 84bd 6523 91bd 3c82 21bd
00000250: ce50 653d 1c65 813a 37f6 aabc ac53 ae3d
00000260: 9913 2bbd f12d 903d e14d c2bc 9fca c73c
00000270: e1fc ad3d 4444 62bd bf25 c2bd ae5d 333d
00000280: 7697 1dbd 66a2 d33d fc80 3e3d 3a72 45bd
00000290: 9e0e 9b3d d11b b53c ca7e 4e3d e7ca c13d
000002a0: 7097 b13d a429 48bc 1d8e 48bd e10e 0abd
000002b0: 1742 5f3d 57fe 5d3d 712a 77bd ed01 e7bb
000002c0: b65c 9b3d 5b0b c43d 55d7 e23c 98cc 583d
000002d0: b849 5bbd 7921 febc 6b3f dabc 935c 29bd
000002e0: a51c 87bc 541c 923d 5947 9abd 2ce8 b83b
000002f0: 2b35 803d c73b cc3d 267c d63d a599 aebd
00000300: 7b67 3e3d bd74 9a3c a09c 55bd e079 e93c
00000310: d739 14bd 5b16 55bd f803 023d 484d aebd
00000320: 8cfc 143b a1a0 543d d1b1 68bd 162b 883d
00000330: bd3d 753d 0dc4 e53c 6fc8 713d 04eb f73c
00000340: ac2a 313c 1ad8 3dbc 6e5f 8d3d 01e5 3cbd
00000350: cb85 693d 07f6 2e3d 7924 873b 9ea0 38bd
00000360: 5337 2c3d 3aad 17bd ab81 44bd 125d a33d
00000370: 0544 823d c4b4 afbb 7c97 8fbd 9f7a 673d
00000380: e189 0fbc 9d02 afbc a65f 8c3d d9b3 173d
00000390: ca0e 763d d978 79bb f26b 513d bc2c 88bd
000003a0: b843 973c 0f4c 93bd 18af 8cbb f365 da3a
000003b0: c1d9 c63d eec6 45bd 62ee 1cbd 1e67 703d
000003c0: d887 5fbd 5374 4b3d 619f b3bd f925 aebc
000003d0: 8b5d ab3d 3725 4d3d a3ee c7b9 fd98 68bb
000003e0: 537d 84bd 98a3 da3d 2884 de3c 8bd6 6fbb
000003f0: ef3e 93ba 9eb0 3abd 5dc9 0c3d 7494 bbbc

fc.weight f4 [1, 128]
0.06966514 -0.10856132 -0.113355525 -0.12213432 0.11530469 0.11464135 0.029596629 0.030857084
0.05012846 -0.11392906 -0.08058514 0.091118775 -0.06834505 0.09139315 -0.05919267 -0.09024582
0.084332146 0.09703077 0.03276734 0.033884425 -0.11756127 0.06498517 -0.063855 0.10895568
-0.03579035 0.13217035 -0.11538484 -0.04891741 -0.022997148 -0.023242764 -0.05540513 0.060975127
-0.033994704 0.05397705 0.0023197094 -0.096847616 0.031142987 -0.07603907 0.1027494 0.1084868
0.11931486 0.11486314 0.00039475158 0.085803926 -0.04448184 0.061929207 0.1303042 -0.09555258
0.086734265 0.07554164 -0.01964063 -0.08240512 -0.07209867 -0.06769496 0.11951577 -0.18411486
0.07338239 0.09530621 -0.04523256 -0.07883897 0.046860214 -0.06935071 0.10316769 0.06627405
0.08154554 -0.12449538 0.10208094 0.12754211 -0.06583774 0.08671652 0.017943477 -0.05573925
-0.091389224 0.08358841 0.12350967 -0.034052208 0.1026678 0.06704514 -0.06058801 0.05754226
-0.0017207928 0.065834455 -0.090771444 0.06801724 -0.054575957 -0.08889234 -0.06781888 0.107580245
-0.052577805 0.07034884 0.033889577 -0.014131959 -0.08303967 0.07554786 -0.050485518 0.007445989
-0.031052796 0.03649947 0.03662564 -0.026610829 -0.051015303 0.044461526 0.00801075 0.029720685
-0.08768722 -0.054645594 -0.0721029 -0.111613944 -0.08971397 0.07310261 -0.07258531 -0.09355803
0.08246306 0.0068603703 -0.0201179 0.093622945 0.12198001 0.075970955 -0.05952662 -0.0039856643
0.039740186 -0.123107806 -0.107554115 0.061330374 0.13603516 -0.12473708 -0.046787135 0.08470658
00000000: 99ac 8e3d 6655 debd f126 e8bd 8f21 fabd
00000010: de24 ec3d 16c9 ea3d a174 f23c ffc7 fc3c
00000020: 8053 4d3d a453 e9bd d209 a5bd 7b9c ba3d
00000030: 7df8 8bbd 552c bb3d 0374 72bd cdd2 b8bd
00000040: 55b6 ac3d 11b8 c63d 0c37 063d 65ca 0a3d
00000050: f7c3 f0bd f216 853d 69c6 82bd 2824 df3d
00000060: e798 12bd aa57 073e e34e ecbd 9f5d 48bd
00000070: 8464 bcbc 9c67 bebc 7df0 62bd 0ec1 793d
00000080: 083e 0bbd 0a17 5d3d 4406 183b 0b58 c6bd
00000090: 941f ff3c 5fba 9bbd 476e d23d 542e de3d
000000a0: 595b f43d 5e3d eb3d a9f6 ce39 f8b9 af3d
000000b0: 9732 36bd 7ba9 7d3d 776e 053e 12b1 c3bd
000000c0: bca1 b13d 93b5 9a3d 63e5 a0bc 04c4 a8bd
000000d0: 78a8 93bd a8a3 8abd afc4 f43d 9b88 3cbe
000000e0: 8249 963d e72f c33d c745 39bd 5376 a1bd
000000f0: 7ff0 3f3d bf07 8ebd 9549 d33d b0ba 873d
00000100: 5901 a73d 6ff7 febd d00f d13d 669a 023e
00000110: f0d5 86bd 6e98 b13d 33fe 923c d74e 64bd
00000120: 462a bbbd 6630 ab3d a3f2 fc3d 547a 0bbd
00000130: 7f43 d23d f64e 893d 222b 78bd 6fb1 6b3d
00000140: 3a8c e1ba 37d4 863d 61e6 b9bd 9f4c 8b3d
00000150: 0a8b 5fbd 300d b6bd a0e4 8abd 0853 dc3d
00000160: d35b 57bd 0d13 903d cccf 0a3d bb89 67bc
00000170: b410 aabd d6b8 9a3d e7c9 4ebd 7cfd f33b
00000180: 6f62 febc 7880 153d c404 163d f4fe d9bc
00000190: 6cf5 50bd 4a1d 363d 853f 033c cb78 f33c
000001a0: 5b95 b3bd 0fd4 5fbd afaa 93bd da95 e4bd
000001b0: f5bb b7bd d2b6 953d 9ba7 94bd 5a9b bfbd
000001c0: 65e2 a83d f5cc e03b 4bce a4bc 63bd bf3d
000001d0: a8d0 f93d a996 9b3d 2fd2 73bd 2d9a 82bb
000001e0: 9bc6 223d f21f fcbd 5545 dcbd 8f35 7b3d
000001f0: cd4c 0b3e 2776 ffbd dea3 3fbd a57a ad3d
