models/ES model.pth (torch, 799643 bytes, 9 tensors)

lstm.weight_ih_l0 f4 [512, 1]
-0.020768944 0.008576454 -0.104190536 -0.0659691 -0.059791394 0.08246281 -0.11317287 -0.11239787
-0.12282296 0.13521571 -0.033761527 0.01972465 0.00018048819 -0.027507309 0.10464777 0.029787496
-0.09574129 0.05544653 0.04405717 -0.08131793 -0.09839764 -0.09002272 0.050318785 -0.01970609
0.0024006143 -0.1194318 -0.11654349 -0.062910184 0.011291852 -0.045419056 0.070908 -0.037807595
0.011400558 0.032334603 0.043596156 -0.035157524 -0.07780904 0.14978199 0.0048148013 0.044562515
0.09476575 0.0835615 0.039722413 -0.07293765 0.034275174 0.04472319 0.020704165 0.003991051
-0.090234935 -0.076468386 -0.0704941 0.016594354 0.114178985 0.14802378 -0.057248484 -0.023582436
-0.017404025 0.029424867 0.035801794 0.013658297 -0.12633389 0.015149378 -0.1169203 -0.105837606
-0.073025174 0.04007014 -0.023450041 -0.11862411 -0.1038504 0.050497293 -0.10686092 -0.026666217
0.04608623 -0.110191904 -0.04365135 0.0053669387 0.0155591555 -0.021267096 0.019249212 -0.07941207
-0.041150693 0.034026142 -0.036284678 -0.050805718 0.0321373 0.0056477324 -0.002174632 0.032357555
0.045508467 0.010721879 0.055055697 0.017463055 -0.08123881 -0.050501656 0.04467659 0.06352423
0.030899435 0.056076583 -0.0048894365 -0.102641605 -0.036079243 -0.045281004 -0.042165753 -0.17727992
0.022419717 -0.045062702 -0.10661168 -0.13890974 0.017132105 -0.07003302 -0.1102017 -0.009712474
-0.04503678 -0.085411675 -0.07314844 0.013357191 0.014266234 -0.02462205 -0.0035327831 0.026787583
0.08215326 0.010689966 -0.012240207 -0.021332603 -0.10485223 0.016321763 -0.09906395 0.07482816
-0.12254719 -0.11332537 -0.077639826 -0.047118094 -0.07725944 0.03938067 -0.05479793 -0.06604867
-0.0002646745 0.13243857 0.041049566 0.010634217 -0.031200789 0.030153502 0.11552916 0.035567958
-0.04510927 -0.018888198 0.05722418 0.043081354 -0.079856575 0.05049444 -0.08958422 0.0033227552
-0.024768142 -0.11907398 0.050944038 0.027021747 -0.028077917 -0.040462844 0.030437779 0.023498455
-0.07721074 -0.08680071 0.12284849 -0.0943801 -0.036538146 0.07388117 0.06470328 -0.041446697
0.064160176 0.095418096 -0.03285125 -0.07533776 -0.055325825 -0.0008176918 0.00906417 0.14565903
0.0075678285 0.008672271 -0.052319072 -0.011325667 0.08907593 0.09650881 -0.041836772 -0.032150604
0.022890894 0.005675253 -0.051013578 0.047315743 -0.08047193 0.011361182 0.013330284 -0.032164995
0.11969858 0.15135023 0.018029774 -0.06870786 0.075378075 -0.050393183 -0.013583652 -0.10333546
0.061098874 -0.0031266469 0.059758365 -0.026122453 0.037705045 0.09488787 0.035093907 0.032037728
-0.11976613 0.016667014 0.11030124 -0.031059407 -0.062113237 -0.044082507 -0.045312297 0.042707898
-0.10872176 0.042014953 -0.0958051 0.06143337 -0.086508825 0.06939829 -0.08497072 0.014847655
0.0005876069 0.04994688 -0.036115073 -0.040422875 -0.038816992 -0.027179219 -0.07307355 -0.0457728
-0.03649123 0.03950214 0.008412716 -0.061630733 0.04602138 0.043066226 0.007877888 -0.03340459
-0.07139378 0.029354304 0.031010805 -0.067802764 -0.06911907 -0.048496798 0.04182176 -0.022300407
0.04547716 0.0049246983 -0.07902346 -0.07741021 0.003026722 -0.09488871 0.055394582 0.10468629
00000000: a223 aabc 4184 0c3c d961 d5bd cf1a 87bd
00000010: d2e7 74bd 43e2 a83d 2dc7 e7bd db30 e6bd
00000020: 9b8a fbbd fd75 0a3e 8749 0abd 9795 a13c
00000030: 6e41 3d39 0257 e1bc 9251 d63d e804 f43c
00000040: 0214 c4bd e71b 633d 4b75 343d 048a a6bd
00000050: b484 c9bd d55d b8bd 121b 4e3d ab6e a1bc
00000060: a053 1d3b a998 f4bd 5aae eebd 0ed7 80bd
00000070: 7601 393c 5509 3abd 3738 913d 23dc 1abd
00000080: 68c9 3a3c 4a71 043d e291 323d 5601 10bd
00000090: 595a 9fbd 7360 193e 7bc5 9d3b 2f87 363d
000000a0: 8c14 c23d 4b22 ab3d f8b3 223d 5660 95bd
000000b0: 2064 0c3d aa2f 373d c89b a93c 5dc7 823b
000000c0: 18cd b8bd 759b 9cbd 365f 90bd e2f0 873c
000000d0: acd6 e93d 8c93 173e 637d 6abd f42f c1bc
000000e0: e392 8ebc 6b0c f13c e7a4 123d 0dc7 5f3c
000000f0: ac5d 01be 1935 783c e973 efbd 63c1 d8bd
00000100: 398e 95bd 9620 243d 4d1a c0bc 33f1 f2bd
00000110: 85af d4bd 40d6 4e3d e6d9 dabd 1c73 dabc
00000120: eac4 3c3d 4bac e1bd c2cb 32bd 25dd af3b
00000130: d4eb 7e3c 5538 aebc 86b0 9d3c cca2 a2bd
00000140: a18d 28bd ff5e 0b3d 3e9f 14bd a819 50bd
00000150: 67a2 033d 9d10 b93b 4584 0ebb 5b89 043d
00000160: 1667 3a3d d2aa 2f3c 1582 613d ae0e 8f3c
00000170: 8960 a6bd d3da 4ebd cdfe 363d fe18 823d
00000180: d020 fd3c 8fb0 653d 9137 a0bb c335 d2bd
00000190: d4c7 13bd 9378 39bd ffb5 2cbd de88 35be
000001a0: 8ea9 b73c ab93 38bd 3957 dabd 5b3e 0ebe
000001b0: a158 8c3c 796d 8fbd 6eb1 e1bd 1221 1fbc
000001c0: 7d78 38bd 51ec aebd d9ce 95bd 1fd8 5a3c
000001d0: ecbc 693c 2eb4 c9bc 4486 67bb a271 db3c
000001e0: f83f a83d f824 2f3c 268b 48bc b6c1 aebc
000001f0: c4bc d6bd 38b5 853c 0ae2 cabd 823f 993d
00000200: 05fa fabd 2217 e8bd a101 9fbd e7fe 40bd
00000210: 333a 9ebd a04d 213d cb73 60bd 8644 87bd
00000220: 03c4 8ab9 fa9d 073e 9723 283d 243b 2e3c
00000230: cc98 ffbc 7a04 f73c 8d9a ec3d b5af 113d
00000240: 7fc4 38bd 6cbb 9abc e763 6a3d 1376 303d
00000250: d88b a3bd 42d3 4e3d ee77 b7bd 95c2 593b
00000260: 8fe6 cabc 0fdd f3bd b2aa 503d b65c dd3c
00000270: a903 e6bc 5ebc 25bd a658 f93c d57f c03c
00000280: aa20 9ebd 92c4 b1bd fd97 fb3d 5b4a c1bd
00000290: 06a9 15bd 034f 973d 2783 843d 03c4 29bd
000002a0: 6966 833d 906a c33d 088f 06bd af4a 9abd
000002b0: 559d 62bd 5e5a 56ba e281 143c a427 153e
000002c0: 8cfb f73b 2416 0e3c 864c 56bd 4a8f 39bc
000002d0: 716d b63d 69a6 c53d 095d 2bbd 5ab0 03bd
000002e0: af85 bb3c 79f7 b93b 9df3 50bd 27ce 413d
000002f0: 78ce a4bd 4024 3a3c 4367 5a3c 71bf 03bd
00000300: 8724 f53d 8efb 1a3e 2db3 933c b5b6 8cbd
00000310: d25f 9a3d 1569 4ebd f78d 5ebc 8ba1 d3bd
00000320: d042 7a3d 6ee8 4cbb 30c5 743d c1fe d5bc
00000330: 9b70 1a3d 9254 c23d a1be 0f3d fe39 033d
00000340: f247 f5bd 4389 883c 9ee5 e13d 4c70 febc
00000350: 736a 7ebd dc8f 34bd 6399 39bd 7aee 2e3d
00000360: 84a9 debd df17 2c3d 7735 c4bd 8fa1 7b3d
00000370: 8a2b b1bd b120 8e3d 2105 aebd 9443 733c
00000380: a209 1a3a 1a95 4c3d 66ed 13bd 7592 25bd
00000390: 91fe 1ebd f4a6 debc 96a7 95bd 427c 3bbd
000003a0: d477 15bd ffcc 213d 7dd5 093c 8270 7cbd
000003b0: ea80 3c3d 3666 303d 4212 013c 40d3 08bd
000003c0: e736 92bd 7078 f03c 5f0a fe3c 2ddc 8abd
000003d0: 4d8e 8dbd 94a4 46bd 4b4d 2b3d 58af b6bc
000003e0: 4246 3a3d 5d5f a13b 0dd7 a1bd 3f89 9ebd
000003f0: f85b 463b 0355 c2bd 6ee5 623d c465 d63d

lstm.weight_hh_l0 f4 [512, 128]
-0.082702406 -0.03427699 0.051528785 0.061872315 -0.0824 -0.009437782 -0.025400449 -0.08307694
-0.007865241 0.06251884 0.007001114 -0.064397 -0.04635332 -0.06764363 -0.051904242 -0.08097724
-0.0682129 0.043273754 -0.047940284 -0.008988989 0.010296744 0.031101357 -0.034512118 0.0344872
-0.045477197 -0.053851515 0.07342632 -0.036187164 -0.06069053 -0.043152735 0.010482143 -0.027824152
0.020180507 -0.07345216 0.030601306 -0.08396616 0.048050765 -0.07478323 -0.018394796 -0.05101937
-0.07693738 -0.09263965 0.071594514 -0.070987456 0.006064408 -0.03255303 -0.0029095497 -0.032015707
-0.039895408 -0.06099401 -0.03743168 0.038377732 0.001113247 -0.03477643 0.08997943 -0.05941848
0.010213641 -0.06143019 0.0846644 0.05845191 -0.07211286 -0.0271588 0.034733627 -0.07531632
0.004744266 -0.010742062 -0.0024287081 -0.07098951 0.035302617 0.037734404 0.085058026 0.02054843
0.033933293 0.07768984 0.031146308 -0.0064674458 0.007391215 0.022987204 0.058868133 -0.00065877434
-0.084574446 -0.023596194 -0.08259325 0.072941445 0.011342119 0.07978862 0.030856349 -0.04761309
0.048610043 0.03685994 -0.011705821 -0.012139832 0.056996323 -0.03982057 -0.07937866 -0.012839478
0.07468474 0.02331537 -0.06957105 -0.05107075 0.066639304 -0.06874197 0.058554236 0.08645406
0.020898143 -0.0420259 0.06817383 0.034090284 -0.01470821 -0.073888205 -0.07875223 0.0579825
-0.0251919 0.0058004907 -0.053649694 0.042682867 -0.06686701 -0.043936472 -0.029116265 0.041221034
0.06412571 0.037803486 -0.029608924 0.051754605 0.01984503 -0.030894909 0.029654082 0.019392826
0.07899254 -0.03978498 -0.020521369 0.0079528475 -0.07571631 0.015723271 -0.04939064 0.07721541
0.01560208 0.066015296 0.054867093 -0.013003802 -0.055924557 -0.037378147 -0.07858183 0.026660688
-0.08782959 0.034425754 -0.0092727225 0.055504676 0.03945304 -0.034007985 0.01777028 0.060496174
-0.015008975 -0.03995399 0.076999255 0.0003775451 -0.067509174 0.071235016 -0.02143174 -0.03156888
-0.068694025 0.023381552 -0.082879 0.005648212 -0.06291835 0.08480165 -0.027602497 0.05938832
0.02510749 0.079412445 0.06121215 -0.05104815 -0.060984727 -0.06843971 0.0985041 -0.024855666
0.09289175 0.070054375 -0.08794556 0.0084098885 0.059157327 -0.06432528 -0.07097537 -0.045682993
-0.07513597 -0.05661818 0.028816361 -0.055769444 0.054123413 0.07920763 0.00992008 -0.053203676
0.109207414 0.034211352 -0.010632606 -0.015681772 -0.020497335 -0.05800769 0.060692716 -0.050003815
0.017724928 0.008973667 -0.015618892 -0.06701192 0.047382995 -0.08052272 0.07917035 0.038375758
-0.06293388 0.08986798 -0.044109497 0.044802815 -0.08099394 -0.0663685 -0.073502004 -0.07948091
0.05579309 0.10204441 -0.074319825 -0.06761962 0.009617604 -0.026456187 -0.0523104 0.013757017
-0.02666951 0.0064918483 -0.07825741 -0.077114075 0.06748695 -0.0032038952 -0.0033352026 -0.0045706793
-0.0686166 0.041825354 -0.023985995 -0.009598465 -0.08695372 -0.07539251 0.029090205 -0.019057717
-0.028293706 0.063340224 -0.015913628 0.0667489 0.038731884 -0.018662717 0.01023635 -0.055188224
0.07024224 -0.09758089 -0.0055684093 -0.020890113 -0.037385426 -0.072048776 -0.011797785 0.1151527
00000000: e15f a9bd 0766 0cbd d90f 533d d36d 7d3d
00000010: 55c1 a8bd eda0 1abc 9a14 d0bc 3e24 aabd
00000020: 36dd 00bc e109 803d 9a69 e53b 93e2 83bd
00000030: fbdc 3dbd be88 8abd 8b99 54bd 65d7 a5bd
00000040: 34b3 8bbd d23f 313d 085d 44bd 8d46 13bc
00000050: adb3 283c 46c8 fe3c 945c 0dbd 7342 0d3d
00000060: 4c46 3abd 6893 5cbd 8a60 963d fe38 14bd
00000070: a296 78bd ecc0 30bd 4bbd 2b3c 7aef e3bc
00000080: 9751 a53c 166e 96bd 97af fa3c 73f6 abbd
00000090: e1d0 443d f327 99bd afb0 96bc b0f9 50bd
000000a0: 5891 9dbd dbb9 bdbd 25a0 923d df61 91bd
000000b0: f1b7 c63b 5356 05bd 25ae 3ebb e722 03bd
000000c0: 5e69 23bd dbd4 79bd f651 19bd f831 1d3d
000000d0: 5fea 913a bb71 0ebd 2347 b83d cb60 73bd
000000e0: 1e57 273c 399e 7bbd 8764 ad3d 456b 6f3d
000000f0: e8af 93bd 227c debc d944 0e3d 713f 9abd
00000100: ca75 9b3b 79ff 2fbc f62a 1fbb f362 91bd
00000110: 7a99 103d 648f 1a3d e732 ae3d 2e55 a83c
00000120: a3fd 0a3d da1b 9f3d 8b26 ff3c deec d3bb
00000130: 0132 f23b a94f bc3c b61f 713d 99b1 2cba
00000140: 5e35 adbd ce4c c1bc a626 a9bd 5362 953d
00000150: 4cd4 393c 3768 a33d 74c6 fc3c f205 43bd
00000160: 531b 473d 73fa 163d c6c9 3fbc 25e6 46bc
00000170: fa74 693d e51a 23bd 4791 a2bd ad5c 52bc
00000180: 50f4 983d e0ff be3c 447b 8ebd 902f 51bd
00000190: 307a 883d 97c8 8cbd 91d6 6f3d d40e b13d
000001a0: 9532 ab3c 5a23 2cbd b99e 8b3d 41a2 0b3d
000001b0: b4fa 70bc b352 97bd d948 a1bd 0f7f 6d3d
000001c0: 3e5f cebc 0b12 be3b c8bf 5bbd 3bd4 2e3d
000001d0: 92f1 88bd bbf6 33bd 3c85 eebc 63d7 283d
000001e0: 5754 833d d4d7 1a3d 6a8e f2bc a3fc 533d
000001f0: 0b92 a23c 5217 fdbc 1eed f23c b4dd 9e3c
00000200: d7c6 a13d 93f5 22bd 6e1c a8bc a94c 023c
00000210: 2711 9bbd 17ce 803c d74d 4abd 1d23 9e3d
00000220: de9f 7f3c 0733 873d 51bc 603d e60d 55bc
00000230: 2611 65bd d419 19bd 83ef a0bd 8467 da3c
00000240: 00e0 b3bd 0502 0d3d 9eec 17bc df58 633d
00000250: 8399 213d f54b 0bbd fa92 913c d6ca 773d
00000260: 34e8 75bc cca6 23bd c9b1 9d3d 3ff1 c539
00000270: 4042 8abd aae3 913d 9e91 afbc 5f4e 01bd
00000280: 74af 8cbd ab8a bf3c 77bc a9bd a314 b93b
00000290: 56db 80bd 7dac ad3d a21e e2bc 2b41 733d
000002a0: 39ae cd3c fea2 a23d 97b9 7a3d dd17 51bd
000002b0: 1fcb 79bd 1e2a 8cbd 85bc c93d 1c9e cbbc
000002c0: 083e be3d ab78 8f3d cd1c b4bd a1c9 093c
000002d0: f44e 723d f9bc 83bd 895b 91bd 171e 3bbd
000002e0: e3e0 99bd 77e8 67bd 4a10 ec3c 806e 64bd
000002f0: 83b0 5d3d 9c37 a23d d587 223c 19ec 59bd
00000300: 23a8 df3d 3421 0c3d 6234 2ebc 0f77 80bc
00000310: 07ea a7bc 7999 6dbd ed98 783d cdd0 4cbd
00000320: de33 913c 4a06 133c 62e6 7fbc 8c3d 89bd
00000330: ac14 423d 19e9 a4bd 1124 a23d e62f 1d3d
00000340: 7ae3 80bd b40c b83d 29ac 34bd 2883 373d
00000350: 27e0 a5bd 35ec 87bd 3888 96bd e3c6 a2bd
00000360: 4c87 643d a9fc d03d fe34 98bd 287c 8abd
00000370: 2893 1d3c a5ba d8bc 6e43 56bd 1d65 613c
00000380: 047a dabc 92b9 d43b 6c45 a0bd fced 9dbd
00000390: 9936 8a3d 71f8 51bb 6a93 5abb a3c5 95bb
000003a0: dc86 8cbd 1051 2b3d 477e c4bc e142 1dbc
000003b0: cb14 b2bd 6367 9abd 954e ee3c ee1e 9cbc
000003c0: 34c8 e7bc 85b8 813d 4c5d 82bc a6b3 883d
000003d0: 53a5 1e3d 8ee2 98bc 5db6 273c 0c0d 62bd
000003e0: 2adb 8f3d 7dd8 c7bd 3477 b6bb be21 abbc
000003f0: 7621 19bd 4f8e 93bd 7f4b 41bc 2ed5 eb3d

lstm.bias_ih_l0 f4 [512]
-0.023536056 0.08211932 0.06487337 0.02865411 0.013178241 0.012543849 0.07355292 0.02430614
0.020083725 0.11519111 -0.0053274683 0.079753794 0.10199537 0.04963495 0.07465227 0.040468235
0.028324826 -0.053750437 0.11219171 -0.06109628 0.03175186 -0.04592096 0.054209895 0.09897413
0.0015810886 0.10609455 0.051610503 -0.03402593 -0.0036892998 0.10969161 -0.0037619895 0.07193661
-0.024904504 0.06558579 0.14229189 0.085475005 -0.041514814 0.10007399 -0.029728279 0.02678725
-0.07878065 0.083197124 0.07947344 0.093691766 0.09816166 0.06197021 0.011591204 0.15579948
0.05261935 0.034447506 -0.020411251 -0.0342209 -0.006091425 0.018082298 0.008824421 0.08278963
0.118281335 -0.05680471 -0.05546975 0.0057600136 0.07453037 0.082599245 0.041141145 -0.01241625
0.037204236 -0.03185486 0.08579799 0.06563972 0.04734983 0.058744125 0.070426255 0.06789748
0.06542974 -0.02575921 0.11081892 0.073095776 -0.07195732 0.03824597 -0.01257777 0.081126794
0.05876619 0.087432824 0.09925784 -0.030263823 -0.06941573 0.04324387 0.09939497 -0.039816927
-0.0061988938 -0.02716819 -0.088315226 0.047833607 0.027887428 0.040698934 -0.00525842 0.056840066
-0.028398275 -0.036311388 -0.036049366 0.0037828612 0.064880565 0.08230702 0.035785645 0.08994797
-0.032619912 0.020495836 -0.040329076 -0.062464 -0.030988533 -0.025408754 0.040738147 0.006125516
0.04481994 -9.433962e-05 0.05607851 -0.05585362 -0.037168313 -0.07668334 0.09498196 -0.00370342
-0.06551867 0.007909681 0.058081456 -0.056856822 0.055002492 -0.021071894 -0.042185273 0.11572657
0.013728558 0.07932303 -0.015461436 0.0593841 -0.06543715 -0.076569185 -0.015799103 0.018835587
0.049379706 -0.039256606 -0.021457683 -0.020433059 0.05536113 0.01653202 0.0640858 0.071935706
-0.03928651 0.06936722 -0.07464795 -0.07441636 0.014645613 0.031202586 -0.010920119 -0.06316062
-0.05136282 -0.011131981 -0.05330112 -0.024208965 0.03698735 0.09243639 0.073665336 0.026604343
0.081957825 0.090616375 0.07432917 0.07610398 -0.03722112 0.058962278 0.07868538 0.07569713
-0.10136368 0.06494556 0.04994502 -0.06897754 0.06835706 -0.036538623 0.021237992 0.017696286
-0.047534928 -0.0072161714 0.0027627524 0.0039489437 -0.00813988 -0.0681175 -0.0015097556 0.03030162
0.009557949 0.029208343 -0.006578528 0.070431635 -0.028171077 0.015840255 0.058389883 0.012989402
-0.048131272 -0.00080075226 0.013521695 0.086434186 0.0615051 -0.00610593 -0.012656452 0.0048070825
0.020067511 0.049653877 -0.032629464 0.011222294 0.075834766 0.034029 -0.06926433 0.016433638
-0.019991409 -0.046479154 -0.012026708 -0.06406196 0.03038063 -0.0026443272 0.034681886 -0.024165502
-0.06484353 -0.087663434 0.0758455 -0.018943444 -0.051290043 -0.04453993 0.08767102 -0.07697985
0.08755131 -0.035032827 -0.03726181 0.020795904 0.03734687 -0.010737356 0.09808182 0.015703198
0.0515492 -0.020908577 0.09329003 -0.035435945 0.0019309655 -0.07825689 -0.07201426 0.07553185
-0.0034379936 0.06603013 -0.07243353 -0.046159364 -0.008457567 -0.0047679157 0.05883264 -0.00903554
0.008019444 -0.008393031 -0.030496463 0.04505261 0.030164082 -0.018453257 0.049662024 -0.0667365
00000000: b0ce c0bc 2d2e a83d 54dc 843d 06bc ea3c
00000010: 8de9 573c b784 4d3c eaa2 963d ac1d c73c
00000020: a086 a43c 51e9 eb3d 0b92 aebb f555 a33d
00000030: f3e2 d03d 044e 4b3d 4ae3 983d 05c2 253d
00000040: 7709 e83c 6b29 5cbd c4c4 e53d 1840 7abd
00000050: 3d0e 023d 9e17 3cbd 320b 5e3d f3b2 ca3d
00000060: 883c cf3a 1948 d93d 8965 533d c65e 0bbd
00000070: 2ec8 71bb ffa5 e03d b68b 76bb 8053 933d
00000080: 8804 ccbc d851 863d f7b4 113e 850d af3d
00000090: 700b 2abd 98f3 cc3d b888 f3bc ef70 db3c
000000a0: c057 a1bd 4163 aa3d f9c2 a23d 78e1 bf3d
000000b0: fb08 c93d 7ad4 7d3d 09e9 3d3c e689 1f3e
000000c0: 6387 573d d418 0d3d 7f35 a7bc 372b 0cbd
000000d0: 949a c7bb 5421 943c 4e94 103c 9c8d a93d
000000e0: 7c3d f23d 0eac 68bd 4034 63bd 7fbe bc3b
000000f0: 61a3 983d cb29 a93d 9e83 283d 876d 4bbc
00000100: 7863 183d 3e7a 02bd dbb6 af3d 1e6e 863d
00000110: e5f1 413d ae9d 703d a43b 903d d60d 8b3d
00000120: 0700 863d fb04 d3bc 08f5 e23d 3db3 953d
00000130: 5c5e 93bd cea7 1c3d fe12 4ebc ce25 a63d
00000140: d1b4 703d fb0f b33d b247 cb3d d6eb f7bc
00000150: d629 8ebd 7c20 313d 978f cb3d 1317 23bd
00000160: 1720 cbbb d38f debc 9dde b4bd 2ced 433d
00000170: 2d74 e43c edb3 263d d34e acbb 21d1 683d
00000180: 80a3 e8bc 40bb 14bd 80a8 13bd e1e9 773b
00000190: 1ae0 843d 9590 a83d f893 123d a436 b83d
000001a0: 759c 05bd e2e6 a73c 1a30 25bd 40da 7fbd
000001b0: aadb fdbc 0526 d0bc 0bdd 263d 8db8 c83b
000001c0: 1d95 373d 33d8 c5b8 94b2 653d c4c6 64bd
000001d0: cd3d 18bd 280c 9dbd e785 c23d 14b5 72bb
000001e0: a72e 86bd 9b97 013c d2e6 6d3d b3e2 68bd
000001f0: 4b4a 613d f79e acbc 77ca 2cbd 0d02 ed3d
00000200: bfed 603c 1d74 a23d f651 7dbc be3c 733d
00000210: ea03 86bd 4ed0 9cbd 1f6d 81bc 174d 9a3c
00000220: 6042 4a3d 89cb 20bd 06c8 afbc 3b63 a7bc
00000230: 5ac2 623d 296e 873c 6a3f 833d 0753 933d
00000240: e4ea 20bd 6710 8e3d 06e1 98bd 9b67 98bd
00000250: 27f4 6f3c 919c ff3c 4cea 32bc 5b5a 81bd
00000260: d261 52bd ea62 36bc 4652 5abd e151 c6bc
00000270: 0c80 173d 4a4f bd3d dadd 963d 5af1 d93c
00000280: 81d9 a73d 1495 b93d e439 983d 67dc 9b3d
00000290: 2c75 18bd 6e82 713d cd25 a13d 1907 9b3d
000002a0: c397 cfbd 2e02 853d 2693 4c3d 1944 8dbd
000002b0: c9fe 8b3d 86a9 15bd 4cfb ad3c cdf7 903c
000002c0: fcb3 42bd a275 ecbb 4b0f 353b 2466 813b
000002d0: 225d 05bc 3081 8bbd fee2 c5ba 1a3b f83c
000002e0: f298 1c3c 5646 ef3c b190 d7bb 763e 903d
000002f0: 08c7 e6bc 6cc3 813c 3b2a 6f3d 80d1 543c
00000300: 4c25 45bd 93e9 51ba 198a 5d3c 6804 b13d
00000310: c6ec 7b3d 4114 c8bb 025d 4fbc bb84 9d3b
00000320: 9f64 a43c dd61 4b3d 79a6 05bd b6dd 373c
00000330: 424f 9b3d fe61 0b3d 75da 8dbd d69f 863c
00000340: 06c5 a3bc ed60 3ebd ab0b 45bc eb32 83bd
00000350: cde0 f83c 734c 2dbb 980e 0e3d bbf6 c5bc
00000360: afcc 84bd e388 b3bd e354 9b3d 482f 9bbc
00000370: 8215 52bd 806f 36bd dd8c b33d 9da7 9dbd
00000380: 1a4e b33d 957e 0fbd d79f 18bd 2c5c aa3c
00000390: 08f9 183d bceb 2fbc 1fdf c83d fea3 803c
000003a0: 4125 533d 7748 abbc d80e bf3d 4825 11bd
000003b0: 7318 fd3a 2645 a0bd 367c 93bd 71b0 9a3d
000003c0: f64f 61bb ce3a 873d 0858 94bd 9a11 3dbd
000003d0: 9b91 0abc 2d3c 9cbb 7ffa 703d cd09 14bc
000003e0: fc63 033c ec82 09bc b8d3 f9bc 1689 383d
000003f0: aa1a f73c 492b 97bc 686a 4b3d 25ad 88bd

lstm.bias_hh_l0 f4 [512]
-0.025050161 -0.037423138 0.11552884 0.04772245 0.061681803 0.10717499 0.02453046 0.07268255
0.022671238 0.08028482 0.101113856 -0.069331616 -0.014496752 0.062441446 -0.008430675 0.10134676
0.03838766 -0.007976261 0.11214049 -0.023698265 -0.0556187 0.023845559 -0.034792263 0.04119781
-0.06940944 0.0115613965 0.010962312 -0.048607167 0.09180541 0.10482331 0.04920837 -0.05348366
0.07676418 0.04473105 -0.014487778 0.0473577 -0.030139625 0.06640413 0.040512655 -0.038547587
-0.03128379 0.073767014 0.01690498 0.0772768 0.08610786 0.03494364 -0.044045366 0.1098027
0.07169065 0.08053095 -0.029386397 -0.02689176 0.028413137 -0.010826841 -0.017351089 0.07613073
-0.042204034 0.10851684 0.016752468 -0.03323886 0.030693293 0.027036874 0.0053349254 -0.0507081
0.12837695 0.0041622138 0.046862353 0.0867139 -0.007910551 0.03171781 0.0038358306 -0.0335091
0.017585581 0.051442444 0.044354893 0.009367759 0.04524616 -0.0092522595 0.017585307 0.08085875
0.019909779 0.03477178 0.06291401 0.11089326 0.042605747 0.06151646 -0.035045605 0.009051071
-0.009252219 0.05369695 -0.01554265 0.061211444 -0.044423074 0.08103827 0.08941897 -0.054685075
0.0809152 -0.017871518 0.056363896 0.06399369 -0.021138526 -0.05595492 0.027564747 0.1526393
0.046456974 -0.063963935 0.098541684 0.036370013 0.06982767 0.038468886 -0.0569653 -0.06593249
-0.069959514 0.014031944 0.062415972 -0.034520216 -0.05756464 0.07801054 0.021235842 -0.028371759
-0.03532935 0.11130438 -0.041538764 0.0018038383 -0.05671834 -0.059168402 -0.025812022 0.06571449
-0.013790159 -0.020804843 0.06723099 0.0577131 -0.009784948 0.050912 0.06313849 -0.02938195
-0.06872773 0.08198525 -0.008205105 0.06338348 -0.04615868 -0.029915933 0.013761744 -0.009789325
-0.0028746652 -0.028818876 -0.08509905 0.034970246 -0.01081075 -0.07758097 0.04169161 0.021729069
0.053418234 0.06947457 -0.03678532 0.0123777455 0.07267381 -0.043556478 -0.07324815 0.057116825
-0.071638 -0.06829104 0.026591377 -0.045136217 -0.033842914 0.11680433 0.028772257 0.0023674113
0.04175938 -0.076085076 -0.01647206 0.01769616 -0.020712 0.051502466 0.008033008 -0.059172954
-0.049133297 -0.066758364 0.046455726 -0.014761453 0.004676299 -0.0661366 -0.06777696 -0.059226338
-0.087022 0.07295231 -0.027482145 0.04963799 0.03012889 -0.07430451 -0.037903436 0.06870988
0.0010324522 0.0009950005 -0.046652526 0.08004461 0.014355019 -0.01606656 -0.07775937 0.079121746
-0.039942145 0.069393516 0.011558649 0.016306937 0.013762807 0.025108851 0.023749432 0.08738296
-0.065423526 0.045378525 -0.029977443 -0.045136146 0.0008846698 -0.060264293 -0.03527952 -0.07614741
0.08308375 0.0600937 -0.023123357 -0.051500723 -0.022014776 -0.07937977 0.0065862658 -0.04502268
0.01618893 -0.023954235 -0.05477001 -0.08322728 0.07651328 -0.06625356 0.088437535 0.032164
0.039675627 0.035987467 -0.061601736 0.046980705 -0.035013292 -0.0140829105 0.044415243 0.07200808
0.03032126 0.07439033 0.077334054 -0.036084194 0.0037848416 0.030172307 -0.03171156 0.009006618
0.03750344 -0.055310924 -0.036098354 0.018470295 0.009097531 0.07915478 0.010751054 0.06951642
00000000: ff35 cdbc 0149 19bd 629a ec3d 9e78 433d
00000010: 0fa6 7c3d 907e db3d 1af4 c83c 97da 943d
00000020: 08b9 b93c 5e6c a43d c814 cf3d bcfd 8dbd
00000030: c983 6dbc 9ac2 7f3d d020 0abc e48e cf3d
00000040: 613c 1d3d ddae 02bc eaa9 e53d dd22 c2bc
00000050: 6fd0 63bd c357 c33c 5582 0ebd 09bf 283d
00000060: 8926 8ebd 036c 3d3c 459b 333c 4f18 47bd
00000070: 7a04 bc3d 9bad d63d b78e 493d af11 5bbd
00000080: 8a36 9d3d e837 373d 255e 6dbc 26fa 413d
00000090: 60e7 f6bc e3fe 873d 99f0 253d 13e4 1dbd
000000a0: 6e23 00bd 2913 973d 507c 8a3c 4d43 9e3d
000000b0: 5159 b03d 1021 0f3d ea68 34bd 3de0 e03d
000000c0: 8cd2 923d 69ed a43d bebb f0bc 1c4c dcbc
000000d0: abc2 e83c 1063 31bc df23 8ebc 6eea 9b3d
000000e0: 23de 2cbd 143e de3d 793c 893c 7925 08bd
000000f0: 8070 fb3c 6f7c dd3c 99d0 ae3b 4cb3 4fbd
00000100: 3f75 033e 2e63 883b bdf2 3f3d 0f97 b13d
00000110: 419b 01bc 89ea 013d 8f62 7b3b d740 09bd
00000120: a30f 903c 50b5 523d 7aad 353d 3b7b 193c
00000130: 0a54 393d ca96 17bc 100f 903c 4699 a53d
00000140: d519 a33c db6c 0e3d 0fd9 803d 011c e33d
00000150: 5d83 2e3d aff8 7b3d fb8b 0fbd f14a 143c
00000160: 9f96 17bc 55f1 5b3d 99a6 7ebc dab8 7a3d
00000170: f8f4 35bd 64f7 a53d 4b21 b73d 75fd 5fbd
00000180: deb6 a53d 4a67 92bc d4dd 663d 200f 833d
00000190: b42a adbc fc30 65bd 77cf e13c 7a4d 1c3e
000001a0: ab49 3e3d 86ff 82bd 39d0 c93d b9f8 143d
000001b0: cf01 8f3d 8d91 1d3d 7254 69bd 9d07 87bd
000001c0: ef46 8fbd 3de6 653c e4a7 7f3d 1265 0dbd
000001d0: e6c8 6bbd fdc3 9f3d caf6 ad3c e46b e8bc
000001e0: 82b5 10bd 8df3 e33d 8d24 2abd c56e ec3a
000001f0: 7d51 68bd 915a 72bd bc73 d3bc 5295 863d
00000200: 1ef0 61bc eb6e aabc 67b0 893d 9264 6c3d
00000210: 0c51 20bc 1a89 503d c14e 813d 6ab2 f0bc
00000220: 20c1 8cbd e2e7 a73d b46e 06bc 33cf 813d
00000230: e210 3dbd 4212 f5bc f078 613c 6863 20bc
00000240: e164 3cbb 9015 ecbc 6948 aebd f63c 0f3d
00000250: 921f 31bc c6e2 9ebd d2c4 2a3d 2901 b23c
00000260: 14cd 5a3d af48 8e3d 34ac 16bd 07cc 4a3c
00000270: 02d6 943d 4768 32bd 2003 96bd 55f3 693d
00000280: f2b6 92bd 2cdc 8bbd 29d6 d93c c1e0 38bd
00000290: de9e 0abd 1c37 ef3d ccb3 eb3c 9226 1b3b
000002a0: e20b 2b3d 7ed2 9bbd 6af0 86bc 8af7 903c
000002b0: 36ac a9bc 40f4 523d e19c 033c 575f 72bd
000002c0: ff3f 49bd 9cb8 88bd 5c48 3e3d 05da 71bc
000002d0: a43b 993b a072 87bd a6ce 8abd 5197 72bd
000002e0: 9738 b2bd 0568 953d 3c22 e1bc 3451 4b3d
000002f0: ddd0 f63c f72c 98bd a240 1bbd c4b7 8c3d
00000300: 5953 873a ad6a 823a b816 3fbd 6eee a33d
00000310: 5031 6b3c 059e 83bc 4e40 9fbd 950a a23d
00000320: 609a 23bd 301e 8e3d 7d60 3d3c 2096 853c
00000330: 657d 613c 14b1 cd3c 2b8e c23c d6f5 b23d
00000340: c5fc 85bd d5de 393d 4193 f5bc aee0 38bd
00000350: 2fe9 673a b1d7 76bd 4281 10bd 2cf3 9bbd
00000360: d027 aa3d d024 763d 326d bdbc 6cf2 52bd
00000370: 5558 b4bc dc91 a2bd 9ad1 d73b b469 38bd
00000380: a69e 843c ac3b c4bc 8556 60bd 1073 aabd
00000390: ffb2 9c3d f2af 87bd bd1e b53d 66be 033d
000003a0: e982 223d 9867 133d 1a52 7cbd d76e 403d
000003b0: 196a 0fbd 02bc 66bc c2ec 353d f978 933d
000003c0: 4b64 f83c f559 983d 5161 9e3d 05cd 13bd
000003d0: 1b0b 783b ea2b f73c fbe3 01bd 7e90 133c
000003e0: 359d 193d b58d 62bd dedb 13bd 044f 973c
000003f0: d00d 153c e71b a23d 3025 303c a05e 8e3d

lstm.weight_ih_l1 f4 [512, 128]
0.015981337 -0.041014716 0.024319934 0.01281755 0.05177472 -0.035553824 -0.025214668 0.038211722
0.090356514 -0.21284962 0.023448437 0.08658457 0.0117188925 0.021034122 0.18553233 0.05053758
-0.06762142 -0.12313874 -0.016761463 0.050191812 0.012778444 0.03966736 -0.057404097 0.12393357
0.026915485 0.019150613 -0.12080376 -0.01094739 -0.05834684 0.10936625 -0.010313256 0.0010950194
-0.039998744 0.0395603 0.14261007 -0.011721898 -0.072640635 0.10491693 -0.024382599 0.08004495
0.0905089 0.16209243 0.06257471 0.012641777 0.092870094 0.10123872 -0.046389673 -0.050640497
0.031920306 0.025418764 0.038157273 -0.047229897 -0.008866251 -0.19185989 -0.07228638 0.08775178
-0.04087029 -0.07813276 0.008958224 -0.034944803 0.017268056 -0.048954155 0.036710694 0.02298373
-0.060080867 -0.12921365 0.07826334 0.069127485 0.017911192 -0.06131473 0.05242921 -0.08479951
-0.03537562 0.06733541 0.06140846 -0.033139624 0.08590833 0.06781154 -0.07799368 0.08293865
-0.028404374 -0.0963091 0.02908145 0.0820121 0.14240952 -0.104260474 0.012858087 0.012682136
0.06282718 0.010597716 -0.045728337 -0.03311898 0.109609686 -0.0055306484 0.10178618 0.0006325329
-0.05251745 0.0038071978 0.039944407 0.09600481 0.07430768 -0.1232416 0.039592322 0.015816951
-0.02061713 0.107428595 -0.024635917 -0.051062007 -0.03143298 0.048633076 -0.04197453 -0.009506795
-0.0055226306 -0.052827716 -0.010231729 0.06109862 0.072462656 0.031023748 0.020696016 -0.054922733
0.104696155 0.103098325 0.080451 -0.07200334 0.014556498 0.03863733 -0.023920696 0.08079112
-0.084618226 -0.07384106 0.018064838 0.04978572 -0.08615637 -0.035901826 0.058610156 0.018988691
-0.014948589 0.099525824 -0.02818602 0.01290351 -0.06987849 0.058959737 0.06317217 -0.02071687
0.003990384 0.038429696 -0.10840604 0.024551896 0.038687367 0.07270176 0.038577385 0.028331459
-0.049033772 0.1061099 0.018943705 -0.014638223 -0.055032507 -0.08109452 0.013849082 0.0697844
0.059271984 0.045082115 -0.09793176 0.04259001 -0.004632098 -0.07201217 0.067048326 -0.05322734
0.085855514 0.039743107 -0.016393332 -0.030775618 -0.0076918593 -0.0943993 0.05106436 0.10851707
-0.012706573 -0.039146293 -0.06899443 -0.06224426 0.08548272 0.082454495 -0.009459544 -0.0069538453
0.044996116 -0.024193035 0.10333622 -0.032999843 0.050087843 -0.05272835 0.03274313 0.030756252
0.12350319 -0.056373328 0.024536932 0.06009873 -0.04748513 0.0056522028 0.06320488 -0.027034644
-0.055077232 0.049763605 0.055040997 0.015369572 -0.068849064 -0.050404713 -0.011956289 -0.04571707
-0.08218159 -0.068154484 -0.0065843672 -0.036915727 -0.044391323 0.092240706 -0.04242611 0.0041132825
0.063865826 -0.01825495 -0.02438333 0.021164088 0.016710067 0.055330653 0.022670321 -0.09314991
0.061995074 0.045098543 0.080017194 0.046000358 0.020890974 0.07861075 -0.041125674 0.102843694
0.05057003 0.102522425 0.061339017 -0.067218006 -0.0349559 -0.088345386 -0.08614198 0.072414204
-0.0073151835 0.0020780384 0.017032903 -0.009670249 -0.08654443 0.08175921 -0.08065028 -0.030110568
0.02684955 -0.1119073 0.033258762 0.0002155749 0.039122045 0.08923103 -0.05403847 0.08725901
00000000: 4beb 823c 0cff 27bd 993a c73c b400 523c
00000010: bb11 543d e3a0 11bd fe8e cebc e583 1c3d
00000020: d60c b93d 40f5 59be f016 c03c 4053 b13d
00000030: 9900 403c c04f ac3c 30fc 3d3e 7e00 4f3d
00000040: 197d 8abd 2a30 fcbd 564f 89bc ee95 4d3d
00000050: ae5c 513c 3e7a 223d 8f20 6bbd e2d0 fd3d
00000060: dd7d dc3c bfe1 9c3c f667 f7bd af5c 33bc
00000070: 19fd 6ebd 6afb df3d eef8 28bc c186 8f3a
00000080: b9d5 23bd fb09 223d 6008 123e 340d 40bc
00000090: 9dc4 94bd b0de d63d 04be c7bc 9bee a33d
000000a0: bb5c b93d 8ffb 253e 2b27 803d 751f 4f3c
000000b0: ad32 be3d 3f56 cf3d 1903 3ebd 696c 4fbd
000000c0: debe 023d 033b d03c cd4a 1c3d 2374 41bd
000000d0: c143 11bc eb76 44be e20a 94bd 35b7 b33d
000000e0: 9b67 27bd 1204 a0bd 84c5 123c 4822 0fbd
000000f0: bd75 8d3c 2784 48bd f45d 163d 6048 bc3c
00000100: 5b17 76bd 9550 04be 8848 a03d b692 8d3d
00000110: 7eba 923c 2825 7bbd 03c0 563d 5eab adbd
00000120: 07e6 10bd 26e7 893d 7087 7b3d 6abd 07bd
00000130: b5f0 af3d c7e0 8a3d 27bb 9fbd bddb a93d
00000140: 4ab0 e8bc b53d c5bd 393c ee3c f6f5 a73d
00000150: cdd3 113e 8486 d5bd baaa 523c bcc8 4f3c
00000160: 89ab 803d 0ba2 2d3c a34d 3bbd c4a7 07bd
00000170: 0b7b e03d 713a b5bb 4675 d03d 90d0 253a
00000180: 8a1c 57bd 2e82 793b bf9c 233d 2b9e c43d
00000190: a02e 983d 1866 fcbd 8f2b 223d 8d92 813c
000001a0: 41e5 a8bc 8603 dc3d 43d1 c9bc 6526 51bd
000001b0: debf 00bd 7a33 473d 7ced 2bbd 63c2 1bbc
000001c0: 2ff7 b4bb e061 58bd fba2 27bc 8c42 7a3d
000001d0: 4d67 943d 8425 fe3c b18a a93c a9f6 60bd
000001e0: f06a d63d 3725 d33d 7ec3 a43d 7d76 93bd
000001f0: 617e 6e3c 2d42 1e3d 56f5 c3bc d175 a53d
00000200: 524c adbd fb39 97bd b6fc 933c 1cec 4b3d
00000210: c072 b0bd cb0d 13bd 3411 703d 2c8e 9b3c
00000220: edea 74bc 32d4 cb3d 5ee6 e6bc 3e69 533c
00000230: 741c 8fbd c47f 713d 6960 813d 6db6 a9bc
00000240: c4c1 823b 7568 1d3d fc03 debd 0f21 c93c
00000250: a576 1e3d a9e4 943d 5203 1e3d 6017 e83c
00000260: a3d7 48bd 2650 d93d d42f 9b3c 28d5 6fbc
00000270: c469 61bd e214 a6bd 43e7 623c 20eb 8e3d
00000280: 2ec7 723d 06a8 383d 7290 c8bd dd72 2e3d
00000290: dbc8 97bb 1e7b 93bd a250 893d e904 5abd
000002a0: 04d5 af3d abc9 223d 4f4b 86bc 261d fcbc
000002b0: fe0b fcbb 6c54 c1bd dd28 513d 333e de3d
000002c0: 3b2f 50bc dd57 20bd f44c 8dbd d6f3 7ebd
000002d0: 9011 af3d e7dd a83d 34fc 1abc 15dd e3bb
000002e0: d94d 383d 7930 c6bc f1a1 d33d d82a 07bd
000002f0: e928 4d3d aff9 57bd a91d 063d 89f4 fb3c
00000300: 3eef fc3d b8e7 66bd ad01 c93c 162a 763d
00000310: c57f 42bd 1d36 b93b 8f71 813d c277 ddbc
00000320: aa98 61bd ecd4 4b3d ab72 613d a8d0 7b3c
00000330: bd00 8dbd 2c75 4ebd 50e4 43bc d341 3bbd
00000340: d24e a8bd 9494 8bbd adc1 d7bb f234 17bd
00000350: add3 35bd b2e8 bc3d 00c7 2dbd b7c8 863b
00000360: 16cc 823d 688b 95bc 8dbf c7bc 4f60 ad3c
00000370: 8de3 883c 65a2 623d 1cb7 b93c 61c5 bebd
00000380: 8cee 7d3d 40b9 383d 0ee0 a33d df6a 3c3d
00000390: 8c23 ab3c acfe a03d 6573 28bd b79f d23d
000003a0: 8522 4f3d 47f7 d13d 9f3e 7b3d 98a9 89bd
000003b0: eb2d 0fbd 6dee b4bd 356b b0bd e64d 943d
000003c0: 35b4 efbb b32f 083b 9688 8b3c f76f 1ebc
000003d0: 353e b1bd 5f71 a73d f92b a5bd 70aa f6bc
000003e0: 96f3 db3c a82f e5bd 573a 083d f20b 6239
000003f0: 703e 203d c2be b63d 7157 5dbd dab4 b23d

lstm.weight_hh_l1 f4 [512, 128]
-0.17185391 -0.053829204 -0.020100517 -0.013445722 0.0021693343 -0.0979549 0.01825801 0.077219985
0.05261896 0.019140776 0.10575176 -0.0033621143 -0.22784571 -0.032078918 -0.14764832 0.05683265
-0.0692656 -0.05813872 0.020142423 -0.059269734 -0.10616359 -0.09668105 0.009482702 -0.104506575
0.04775768 -0.064248584 -0.076025255 0.11610025 -0.0769844 -0.075713 0.057312317 -0.090458125
0.010169824 0.029208396 0.06035247 -0.060682703 0.003774674 -0.07933461 0.11710259 0.02833216
-0.044050384 0.016101537 -0.047111895 -0.00097237766 -0.015851319 0.014082347 -0.017627355 -0.05440961
-0.062097162 -0.008037023 0.09523854 -0.058986112 0.014238299 0.05012492 0.08667269 -0.14192368
-0.103811435 -0.046287242 -0.11532581 0.024096655 -0.015692618 -0.06123247 0.117572255 0.06574708
-0.10702957 0.0648561 -0.04119424 -0.105098985 -0.079954095 -0.04554543 -0.13404617 -0.10834109
0.075308405 -0.048610732 0.08157246 -0.073881686 0.079304464 0.08481944 -0.032619238 0.0795915
0.01213309 0.021615928 -0.0424045 0.1327497 0.028511196 -0.018888755 -0.26397312 -0.092899285
-0.0133864265 -0.08287311 0.040412128 0.31240407 -0.012410072 -0.19426599 0.10657963 0.05502272
0.11403882 0.11253327 0.13530724 0.118430376 -0.053052947 -0.13501327 -0.03530304 0.19802092
-0.008118752 0.038386367 -0.0095011825 -0.27110788 -0.0069364673 -0.0038929943 0.06411344 0.14151229
-0.09757507 -0.06293695 -0.044359986 -0.39880127 0.071483456 0.009240655 -0.003123933 -0.008921915
-0.120505795 0.015459162 -0.022883384 -0.048103638 0.01073994 -0.06996122 0.02177776 -0.047673494
0.050070506 0.07999621 0.0061661643 -0.058341656 -0.013651737 0.057335198 -0.04048394 -0.07398612
0.047951907 -0.025107425 -0.0032745844 0.087971665 -0.037201073 -0.08229477 -0.022467759 -0.09789864
-0.040218443 -0.047196336 -0.023099208 0.010561295 -0.057656266 0.018213589 0.033832226 -0.05125721
0.006809093 0.0808948 -0.07057228 -0.06290487 0.05388672 -0.058446333 0.03518574 -0.0928315
-0.051392183 -0.06380202 0.08491934 0.08178143 -0.09086143 -0.012413463 0.045262177 0.026766224
0.014796473 -0.047927737 -0.038307708 -0.05090651 0.02236426 0.0070084645 0.010414535 -0.057134997
-0.033730958 -0.046938274 0.016132947 0.088402554 -0.051531944 0.010677378 -0.0073391134 -0.0058519216
0.03808678 0.0024018849 0.060029797 -0.007192932 0.03197594 0.016250074 0.01873448 0.026836367
-0.00044649234 -0.082818896 0.07970752 -0.054629005 -0.023051256 0.06220517 -0.027246341 -0.05899629
0.06029807 0.06461488 0.106137685 -0.009552917 0.04292819 0.09459868 0.018511534 -0.07280744
-0.0625493 0.047307614 -0.04993401 -0.011742192 -0.017728522 0.083652675 -0.026650613 -0.016209666
0.025898648 0.062075842 0.0787409 0.020679222 -0.027301393 0.0059571327 -0.03673851 -0.07367697
0.042098727 -0.061591104 0.044184662 0.03050428 0.0759534 -0.08140284 -0.09133629 0.04792657
-0.1210624 0.016980818 -0.056685217 -0.06932177 0.08853057 0.0024540934 0.012360441 0.052949667
-0.017858054 -0.06170958 0.022753606 -0.03749741 0.03509246 0.063874364 0.046083204 0.09130899
0.0071872286 -0.065759525 -0.03385352 0.03697207 0.054066744 0.040210903 0.030417832 -0.016152103
00000000: 79fa 2fbe 037c 5cbd d7a9 a4bc 724b 5cbc
00000010: 642b 0e3b 949c c8bd d291 953c 8325 9e3d
00000020: fb86 573d 1ecd 9c3c 6194 d83d eb56 5cbb
00000030: 6350 69be 2f65 03bd 1f31 17be 5ac9 683d
00000040: 1fdb 8dbd de22 6ebd b901 a53c d2c4 72bd
00000050: 4c6c d9bd b700 c6bd 565d 1b3c 8b07 d6bd
00000060: 8f9d 433d c394 83bd 21b3 9bbd f8c5 ed3d
00000070: ffa9 9dbd 6b0f 9bbd 52c0 6a3d 1c42 b9bd
00000080: 559f 263c 7246 ef3c 2734 773d 6d8e 78bd
00000090: 8560 773b 2f7a a2bd 7cd3 ef3d d918 e83c
000000a0: 2d6e 34bd 5fe7 833c 67f8 40bd 29e7 7eba
000000b0: a0da 81bc a5b9 663c 3e67 90bc 9cdc 5ebd
000000c0: 9859 7ebd b8ad 03bc 6c0c c33d 6c9b 71bd
000000d0: c147 693c ca4f 4d3d 7481 b13d 7154 11be
000000e0: 179b d4bd b197 3dbd f02f ecbd 5966 c53c
000000f0: ce8d 80bc e6ce 7abd b9c9 f03d 68a6 863d
00000100: 5232 dbbd 46d3 843d 4bbb 28bd 233e d7bd
00000110: f9be a3bd d88d 3abd 6643 09be efe1 ddbd
00000120: 4b3b 9a3d 0c1c 47bd 760f a73d 484f 97bd
00000130: 616a a23d d1b5 ad3d c09b 05bd de00 a33d
00000140: dec9 463c e313 b13c 57b0 2dbd 8aef 073e
00000150: 5090 e93c 97bc 9abc 7c27 87be fb41 bebd
00000160: be52 5bbc 61b9 a9bd 3087 253d 6df3 9f3e
00000170: 9d53 4bbc aaed 46be 6c46 da3d 815f 613d
00000180: 2f8d e93d d877 e63d fb8d 0a3e a08b f23d
00000190: 0c4e 59bd eb40 0abe ec99 10bd ffc5 4a3e
000001a0: 8404 05bc 063b 1d3d d9aa 1bbc a7ce 8abe
000001b0: 4e4b e3bb 9b21 7fbb e84d 833d 99e8 103e
000001c0: 70d5 c7bd 16e5 80bd d1b2 35bd ae2f ccbe
000001d0: eb65 923d 1e66 173c e6ba 4cbb 392d 12bc
000001e0: becb f6bd 6d48 7d3c ef75 bbbc 5208 45bd
000001f0: 93f6 2f3c d447 8fbd 4667 b23c 4845 43bd
00000200: bb16 4d3d 0ed5 a33d 890d ca3b a9f7 6ebd
00000210: 89ab 5fbc 50d8 6a3d 7dd2 25bd 0986 97bd
00000220: 3869 443d 16ae cdbc 699a 56bb 7d2a b43d
00000230: 2760 18bd 298a a8bd 4e0e b8bc 157f c8bd
00000240: 18bc 24bd f250 41bd 8d3a bdbc 4809 2d3c
00000250: fa28 6cbd aa34 953c a993 0a3d 15f3 51bd
00000260: d01e df3b 2cac a53d 3388 90bd 45d4 80bd
00000270: 52b8 5c3d 6c65 6fbd ec1e 103d 711e bebd
00000280: 9c80 52bd a2aa 82bd 31ea ad3d 067d a73d
00000290: 8f15 babd d661 4bbc d564 393d d744 db3c
000002a0: e86c 723c e04f 44bd 8be8 1cbd 5883 50bd
000002b0: 4135 b73c 43a7 e53b baa1 2a3c 6306 6abd
000002c0: 7929 0abd 5942 40bd 3e29 843c 660c b53d
000002d0: 2913 53bd 2bf0 2e3c f27c f0bb 7ac1 bfbb
000002e0: e200 1c3d f168 1d3b cee1 753d b0b2 ebbb
000002f0: 34f9 023d e01e 853c 0d79 993c f1d7 db3c
00000300: 3017 eab9 f49c a9bd b23d a33d aac2 5fbd
00000310: fdd5 bcbc d9ca 7e3d b833 dfbc 18a6 71bd
00000320: 1cfb 763d ce54 843d b75e d93d d783 1cbc
00000330: 78d5 2f3d f4bc c13d 80a5 973c 111c 95bd
00000340: d919 80bd a1c5 413d 9b87 4cbd 5362 40bc
00000350: 683b 91bc 1852 ab3d 6352 dabc 22ca 84bc
00000360: 6729 d43c 3d43 7e3d e942 a13d 7967 a93c
00000370: 2ca7 dfbc 0d34 c33b 1f7b 16bd f4e3 96bd
00000380: b76f 2c3d f446 7cbd fafa 343d 1de4 f93c
00000390: 758d 9b3d 88b6 a6bd 850e bbbd a74e 443d
000003a0: 90ef f7bd 5b1b 8b3c c22e 68bd 92f8 8dbd
000003b0: 844f b53d dbd4 203b 7283 4a3c c0e1 583d
000003c0: 0e4b 92bc 2fc3 7cbd c565 ba3c e296 19bd
000003d0: 1dbd 0f3d 90d0 823d bec1 3c3d 3500 bb3d
000003e0: d882 eb3b eeac 86bd fda9 0abd 0670 173d
000003f0: 1775 5d3d 30b4 243d d12e f93c 6a51 84bc

lstm.bias_ih_l1 f4 [512]
0.00025231697 -0.04415337 -0.029548528 0.006205829 0.018816862 -0.040222764 0.088622294 -0.068280526
0.121287175 0.002525957 -0.057094898 -0.04451419 -0.038571976 0.010599641 0.045011435 0.0024900553
0.04309591 0.027475279 -0.016448326 0.043953087 0.05811242 0.045404933 0.008802373 0.07318496
0.095833644 -0.021689571 0.092889085 0.034086235 -0.016434247 -0.051864058 -0.04239779 0.062073454
0.05897515 0.0023636417 -0.080122724 0.024078907 -0.08363265 0.0020241647 -0.034701873 -0.015661933
0.14107893 0.060823523 -0.022857642 0.034743614 0.02381202 -0.010153905 -0.023186438 0.07832504
0.08810706 0.012324299 0.01028955 -0.027602514 -0.004177168 -0.013503459 -0.0076877936 -0.066631064
0.060097903 -0.071227476 0.01260506 -0.0020881528 -0.016323917 0.101649866 0.029286921 0.028158655
-0.043180205 0.003715571 0.04954461 0.10190163 0.028024945 -0.03176699 -0.043659024 -0.03339119
-0.009075591 0.008962 0.063335255 0.050668683 0.037542183 0.10119252 -0.062752545 0.15221786
0.052900333 -0.006560072 0.00887849 -0.0012194988 0.06280193 -0.0070318747 0.07826998 0.08531155
0.08382975 -0.038001433 0.097481824 0.06005097 0.06675225 0.0031705622 -0.008572866 -0.04149624
0.07685474 0.08200542 0.08555421 0.0072823744 -0.042203642 -0.0068785646 0.12904853 0.14596215
0.065656416 0.06816539 -0.0065481947 0.07397028 0.02484523 0.07764078 0.12417935 0.2255117
0.08021485 -0.056816533 0.038642775 0.16197702 -0.084764905 0.093227066 -0.023637064 0.09848552
0.06452087 -0.03702538 0.101970695 -0.05777204 0.11578108 0.017343832 -0.054753345 0.011706837
-0.048216093 0.047510415 0.06839666 0.08376142 0.095712714 0.071759254 0.03058254 0.07171249
0.024873447 -0.039058574 -0.09321623 -0.082594395 0.09125143 0.05793647 -0.03137241 -0.022478491
-0.052880954 0.026273962 -0.044496737 0.02606396 0.0035811833 0.06756176 0.033030737 -0.07522756
-0.02869387 0.05133041 0.03800173 -0.051923465 -0.038228452 0.0064639864 -0.06963629 0.041683894
-0.061868407 0.034182273 0.06418213 -0.060575865 -0.064756244 0.023345653 -0.058038827 0.061358195
0.064163424 -0.058067326 -0.016156241 0.0759608 0.008516727 0.083867915 0.015590412 0.05565728
0.030361174 -0.034773238 -0.049992632 -0.043454118 0.048929945 -0.07523157 -0.08024273 0.017921275
-0.02041307 -0.08288465 -0.080853954 -0.031201538 0.08008017 0.050141893 -0.014286466 0.06785785
0.03632607 -0.0044627097 -0.040122636 -0.08921996 -0.052055914 0.078368455 -0.06288627 -0.07495086
-0.06390966 0.058536276 -0.063105315 0.042998325 0.0011901505 -0.022389406 0.06883915 -0.0005264216
0.034454037 0.017723337 0.083689995 -0.040434275 0.049139496 0.07946828 0.03016874 -0.019775234
0.05395432 -0.041047014 -0.020164497 -0.05218365 0.07194476 0.11763646 -0.083315715 0.08102855
0.0796923 0.09107798 0.04475321 0.024388611 0.080367446 -0.02773852 -0.07006218 -0.026109576
-0.023055874 0.026614983 -0.040724214 0.08095241 0.08917021 0.05140062 0.06380104 -0.08794493
-0.0024124733 -0.054975886 0.069795 0.09056129 0.06837803 0.038177475 -0.059329845 -0.090277694
-0.048155207 -0.06210887 0.053875994 0.028327584 -0.07486245 -0.0032637515 0.0050796894 -0.045368794
00000000: 6949 8439 2ada 34bd c10f f2bc 445a cb3b
00000010: d225 9a3c a0c0 24bd 9b7f b53d a9d6 8bbd
00000020: 6965 f83d 878a 253b 57dc 69bd 8354 36bd
00000030: a6fd 1dbd 1eaa 2d3c e95d 383d 3230 233b
00000040: 5685 303d d613 e13c a4be 86bc 2708 343d
00000050: 4a07 6e3d 86fa 393d d437 103c ffe1 953d
00000060: 6e44 c43d 54ae b1bc a23c be3d 029e 0b3d
00000070: 1da1 86bc 686f 54bd 4ea9 2dbd bc40 7e3d
00000080: ed8f 713d 54e7 1a3b 6217 a4bd 2141 c53c
00000090: 9847 abbd d9a7 043b 8d23 0ebd 744d 80bc
000000a0: ff76 103e 1622 793d f33f bbbc 524f 0e3d
000000b0: 6d11 c33c 905c 26bc 7cf1 bdbc e168 a03d
000000c0: 7971 b43d dbeb 493c 8095 283c ab1e e2bc
000000d0: a0e0 88bb 9d3d 5dbc e3e9 fbbb de75 88bd
000000e0: 3829 763d b6df 91bd 7485 4e3c 64d9 08bb
000000f0: bcb9 85bc ce2d d03d 20eb ef3c fbac e63c
00000100: badd 30bd f080 733b 4aef 4a3d cdb1 d03d
00000110: 9294 e53c 1a1e 02bd ced3 32bd 33c5 08bd
00000120: cab1 14bc 5ad5 123c eab5 813d f789 4f3d
00000130: d5c5 193d 063e cf3d 6884 80bd 00df 1b3e
00000140: 05ae 583d dff5 d6bb 1677 113c 97d7 9fba
00000150: 4c9e 803d a46b e6bb 034c a03d d2b7 ae3d
00000160: efae ab3d 64a7 1bbd 8da4 c73d 02f8 753d
00000170: 67b5 883d 35c9 4f3b 3575 0cbc f6f7 29bd
00000180: 0566 9d3d 75f2 a73d 0c37 af3d fca0 ee3b
00000190: badd 2cbd 9565 e1bb 4c25 043e 1a77 153e
000001a0: df76 863d 4c9a 8b3d 3d92 d6bb bb7d 973d
000001b0: 3988 cb3c 2102 9f3d be51 fe3d 8aec 663e
000001c0: af47 a43d 74b8 68bd e347 1e3d 4edd 253e
000001d0: 3999 adbd d5ed be3d 84a2 c1bc c7b2 c93d
000001e0: 8523 843d eda7 17bd 03d6 d03d 60a2 6cbd
000001f0: a21e ed3d a714 8e3c 0b45 60bd 09ce 3f3c
00000200: 3d7e 45bd 489a 423d 8c13 8c3d 1b8b ab3d
00000210: 0705 c43d 84f6 923d 3c88 fa3c ffdd 923d
00000220: 66c3 cb3c e2fb 1fbd 27e8 bebd 4027 a9bd
00000230: 08e2 ba3d cb4e 6d3d 5b80 00bd d024 b8bc
00000240: b399 58bd 7e3c d73c 3642 36bd 1684 d53c
00000250: 49b2 6a3b d25d 8a3d 3d4b 073d e810 9abd
00000260: 680f ebbc d63f 523d b4a7 1b3d b3ad 54bd
00000270: 7095 1cbd d9cf d33b 799d 8ebd bbbc 2a3d
00000280: ba69 7dbd b602 0c3d ec71 833d 661e 78bd
00000290: ec9e 84bd 623f bf3c 1fba 6dbd bb52 7b3d
000002a0: 1d68 833d 01d8 6dbd 185a 84bc 5691 9b3d
000002b0: be89 0b3c f1c2 ab3d ed6e 7f3c e3f8 633d
000002c0: ffb7 f83c 626e 0ebd 13c5 4cbd f2fc 31bd
000002d0: c46a 483d 0213 9abd 4d56 a4bd a3cf 923c
000002e0: 5039 a7bc 6dbf a9bd c296 a5bd 5e9a ffbc
000002f0: 1201 a43d 9661 4d3d c811 6abc 0ef9 8a3d
00000300: a5ca 143d ec3b 92bb a257 24bd f4b8 b6bd
00000310: 9538 55bd a47f a03d 84ca 80bd d67f 99bd
00000320: 11e3 82bd bcc3 6f3d 5c3d 81bd 031f 303d
00000330: d3fe 9b3a fd69 b7bc 8afb 8c3d 8eff 09ba
00000340: ad1f 0d3d 8830 913c a965 ab3d 699e 25bd
00000350: 7f46 493d 44c0 a23d 6f24 f73c acff a1bc
00000360: 34ff 5c3d ea20 28bd 0430 a5bc 86be 55bd
00000370: c657 933d 62eb f03d 6ea1 aabd 4cf2 a53d
00000380: b735 a33d 1887 ba3d 244f 373d a0ca c73c
00000390: b097 a43d e53b e3bc c37c 8fbd c0e3 d5bc
000003a0: acdf bcbc aa07 da3c 6fce 26bd 61ca a53d
000003b0: df9e b63d 7589 523d 1faa 823d 791c b4bd
000003c0: 961a 1ebb 652e 61bd aef0 8e3d 3378 b93d
000003d0: c809 8c3d fc5f 1c3d da03 73bd 83e3 b8bd
000003e0: 653e 45bd df65 7ebd 13ad 5c3d 400f e83c
000003f0: 7c51 99bd aae4 55bb 8673 a63b a1d4 39bd
