models/FCX model.pth (torch, 270882 bytes, 5 tensors)

lstm.weight_ih_l0 f4 [512, 1]
000000 ce 9d 3c 3d 42 76 f7 bd b6 24 55 bd cc c0 be 3c
       0.04604893 -0.12083103 -0.052036963 0.023285292
000010 d6 46 7d 3d 77 e6 08 3d ef f0 d7 bc b3 0d de 3d
       0.061835133 0.033422913 -0.026360003 0.10842457
000020 cd 87 9c bd 50 9d f3 3c 92 16 f7 bc 67 7d 28 bd
       -0.076430894 0.029738098 -0.03016213 -0.041135218
000030 cf 7e 60 bc e4 c5 67 3d 07 b7 d0 3d ed f2 3e bd
       -0.0137021085 0.056585208 0.1019116 -0.04661839
000040 24 16 1d bc 80 f3 97 3d 01 e5 d0 3c 7d 9b 07 bd
       -0.009587798 0.07419491 0.025499823 -0.03310727
000050 30 65 9f 3d ad 39 be 3d a4 31 18 bb 50 36 0a 3e
       0.07782972 0.092883445 -0.0023222947 0.13497281
000060 6c a2 d6 3c ad cb 0a 3d 9c 5f 6d 3d 77 9b 62 bd
       0.026200496 0.033885647 0.05795251 -0.055324044
000070 cf d4 9a bb f9 8f 9b bb 1b cd 3c 3d 37 09 56 3b
       -0.004725076 -0.0047473875 0.04609404 0.00326593
000080 7f 77 7b 3d 3c fc 8b bd 42 0a f5 3d a3 f0 07 3e
       0.061393257 -0.06835219 0.11964847 0.1327539
000090 3e 6d 7d 3c ac cc c6 3d 7d 55 5a bd ab 00 0a be
       0.01546794 0.09707007 -0.053304184 -0.13476817
0000a0 36 d8 54 bd ae eb 08 3e 43 a7 a7 bc 29 39 40 bd
       -0.051964007 0.13371155 -0.020465499 -0.046929512
0000b0 7c 18 cf 3d c1 fe 92 bd e1 af b1 3d 82 a0 05 be
       0.10112092 -0.07177497 0.08676124 -0.1304951
0000c0 aa 46 24 bd 74 94 97 3d da 1d dd 3d c2 16 16 bd
       -0.040106453 0.07401362 0.10796709 -0.036642797
0000d0 55 81 f6 bc 73 a9 09 bd dd a2 23 bc 32 62 16 3e
       -0.030090967 -0.033608865 -0.00998756 0.14685896
0000e0 b1 09 b0 bd 36 5e d7 3b 3d da 46 bd cb da 6e bc
       -0.085955985 0.00657251 -0.048547972 -0.0145785315
0000f0 d8 cb db bc 47 51 9d 3b 1c cd a2 3d d7 bd 10 bc
       -0.026830599 0.004800949 0.07949278 -0.008834324
000100 aa 03 1c 3d 4a ef 49 3d 69 a3 f6 3d 28 4c c0 3c
       0.03808943 0.04930047 0.12042887 0.023473814
000110 87 98 a9 3d cf 07 52 3d ee c5 c3 3d a8 2c 27 3e
       0.082810454 0.051276978 0.095592365 0.16325629
000120 bd d7 0f 3d bc 92 b0 3c cd 44 01 3d d9 0b cf 3d
       0.035117853 0.021554343 0.031559754 0.10109682
000130 50 f0 d1 3c 47 07 fc 3c aa 22 8d 3b aa 5e fb 3c
       0.025627285 0.030765189 0.004307111 0.030684788
000140 15 69 f7 3b 42 30 bb bc 66 76 e3 3d 98 1b 53 bb
       0.0075503686 -0.02285016 0.11106567 -0.0032212492
000150 96 61 b5 bd 9e 43 d2 3d 84 c4 fb 3d e3 50 78 bd
       -0.08856504 0.10266803 0.12293342 -0.060624015
000160 15 7d 7b 3d 33 4a 29 3c cb 8f 35 bb a0 ed 0c 3d
       0.061398584 0.010332632 -0.0027704115 0.034406304
000170 03 be 92 3d bd 7d c9 3c f6 5b 80 3d 0c a6 ff bc
       0.07165148 0.02459609 0.0626754 -0.031207107
000180 30 c4 7c 3d 22 27 75 bc 59 c6 80 3d 7e 0d f2 3c
       0.061710536 -0.014962943 0.06287832 0.02954745
000190 77 98 cd bc 90 40 80 bb 71 b4 c3 3d d2 68 76 3b
       -0.025097115 -0.0039139464 0.09555901 0.00375991
0001a0 be 83 a1 3d 7c 15 68 bb fb 04 0e 3e d2 d8 28 3d
       0.07886456 -0.0035413196 0.13869087 0.0412224
0001b0 2a 66 c2 3d 92 e3 5a 3d 75 1c e3 3d df df 9d bc
       0.094921425 0.053439684 0.11089412 -0.01927179
0001c0 2c e4 53 bd 42 5c 46 b9 77 99 89 3d a3 7a 81 3d
       -0.051731274 -0.0001891712 0.06718724 0.06322219
0001d0 ca 9b e9 3d d3 95 26 bd 97 c8 1d 3c 20 b7 72 3d
       0.114066675 -0.040670227 0.009630344 0.059256673
0001e0 3e d5 35 3d 33 22 0d 3e 06 be b9 3d 59 6f c4 bc
       0.044392817 0.13782577 0.09069447 -0.023978876
0001f0 de 89 87 bc 35 2e ee bc 7d e0 f4 3c 75 3a 05 3e
       -0.016545232 -0.029074768 0.0298922 0.13010581
000200 46 dc c3 3d 89 13 c5 bd c1 94 60 3d ce 3d 95 bc
       0.09563498 -0.09622867 0.054829363 -0.018217947
000210 bf b4 62 3d 9d eb 19 3d 9a 44 87 bb 74 3c 9f 3d
       0.055348154 0.037578214 -0.004128051 0.077752024
000220 c8 90 18 3d b6 91 c4 3d f9 61 5b 3d c9 88 f0 bc
       0.03724745 0.09598105 0.05356023 -0.0293621
000230 84 0f 01 bd eb da d3 3d 14 23 d8 3d 77 ff 25 3d
       -0.031508937 0.1034449 0.105535656 0.040526833
000240 d4 a4 1d 3d 03 9d 1a 3d f1 af 17 3d d2 1f 90 bd
       0.03848727 0.037747394 0.037033025 -0.07037319
000250 01 93 06 3e e3 be 31 3d fa 20 04 be 42 d9 ad 3d
       0.13142015 0.043394934 -0.12903205 0.08488704
000260 95 40 00 3e 75 4c 9c 3d de 18 c2 3d c3 1e 78 bd
       0.12524636 0.076317705 0.09477399 -0.06057621
000270 7d f6 82 3c 84 72 cd ba 31 72 29 3d 3e b4 0c 3e
       0.015986675 -0.0015674387 0.041368667 0.13740632
000280 34 8c ef bc 8d e2 46 3c 07 21 1f 3c b2 63 17 3e
       -0.029241659 0.012138975 0.009712464 0.14784124
000290 7f 66 10 bd 41 d9 e6 bc b2 14 89 3d 83 06 93 be
       -0.035253998 -0.028179767 0.066934004 -0.28715906
0002a0 fb e8 df 3c 50 88 10 3e f4 7e 70 bd f7 56 19 3c
       0.027332773 0.14114499 -0.058714822 0.009359113
0002b0 73 2f c0 3d ca e1 ef bd 2f 58 84 bc 79 2d 1b be
       0.0938405 -0.11712988 -0.01615533 -0.15154065
0002c0 21 6f d1 3c a0 c4 95 3c fd 65 e2 3d bf d0 81 bc
       0.025565686 0.018282235 0.11054609 -0.015846608
0002d0 7b 46 1f be 93 18 3a bd 77 42 bb 3d 0b 45 b9 3d
       -0.1555423 -0.045433592 0.091435365 0.09046372
0002e0 bf a8 f6 bd 6a d4 7e 3d 24 d1 07 be 93 18 05 bd
       -0.120439045 0.062214293 -0.13263375 -0.03249414
0002f0 6c c9 03 3e 66 02 9d 3c b5 3e 1e 3e 75 18 71 bd
       0.12869805 0.019166183 0.15453608 -0.058861215
000300 16 7e ad 3d d7 6d b6 3d 5e 8e 92 3d e2 39 04 be
       0.084713146 0.08907669 0.07156061 -0.12912706
000310 c9 ff 2b bd 36 ae 01 3c 7b c5 86 bd 18 e1 9d 3d
       -0.041991983 0.00791507 -0.06580635 0.07708949
000320 f4 90 05 3e dd 35 04 3e ea c4 36 3d 72 e8 98 3c
       0.13043576 0.12911172 0.044621386 0.018665526
000330 91 41 6c 3d 2c 53 bc 3d 12 c9 e4 3d 15 e9 92 3d
       0.057679716 0.09195551 0.111711636 0.07173363
000340 e3 6c c9 3d 47 e6 07 3e 72 52 07 3d cf 91 a2 bb
       0.098352216 0.13271438 0.03303761 -0.0049612294
000350 1f 03 1a 3d 12 af c9 3d ea bc 5e 3d 66 d7 48 3a
       0.037600633 0.09847845 0.05437938 0.00076614914
000360 49 68 49 bc 68 05 af bd 69 e8 b1 3d 39 80 5c bb
       -0.01229293 -0.08545953 0.08686907 -0.0033645763
000370 89 2f a4 3d 02 28 9c bc 60 97 5a 3d 03 60 4a bd
       0.08016879 -0.019062046 0.05336702 -0.04940797
000380 65 85 c0 3c ef 3d 74 bd 6f 88 30 3d 5f 74 d0 bb
       0.023501107 -0.059629377 0.043098863 -0.0063615288
000390 9f ac 2f bd 82 1f 88 3d b2 87 cc bc 8b 49 5a 3d
       -0.042889234 0.06646635 -0.024967048 0.053292792
0003a0 d3 3b f9 bc 06 46 76 3d 30 ef 8b 3d b3 ca d1 3c
       -0.030424034 0.060125373 0.06832731 0.02560935
0003b0 4b 9b c5 bc e3 6c 86 3d 15 43 45 bc 22 9c be 3d
       -0.024121901 0.06563737 -0.012039919 0.09307124
0003c0 8e 4b f6 3c f0 94 bc 3c 23 6d 93 3d b0 e7 06 3c
       0.030065324 0.023020238 0.071985506 0.00823395
0003d0 2c de 82 3d e1 ea e5 bb 6c 4f ea bd 2f 7c 91 ba
       0.06390032 -0.007016525 -0.1144093 -0.0011099632
0003e0 68 62 85 3d 56 08 ae 3d a7 e5 63 bc cc 82 ed 3b
       0.0651291 0.08497684 -0.013909734 0.007248258
0003f0 01 bc 36 bb a6 de e4 3d 68 bd 08 bd c4 b7 78 3d
       -0.0027883055 0.11175279 -0.033383757 0.060722128

lstm.weight_hh_l0 f4 [512, 128]
000000 9e d0 f2 3c 83 26 a4 3d 17 b8 29 bd 6c f0 83 bd
       0.029640492 0.08015158 -0.041435327 -0.06442341
000010 5b fc 41 bd a9 e6 61 3d b1 2e cd bd ed 6b aa bd
       -0.047359806 0.055151615 -0.10018671 -0.083213665
000020 bb 2a 14 bd 91 a1 d2 3d 0d 8b 25 3d a1 2d ec bc
       -0.036173563 0.102847226 0.040415812 -0.028830351
000030 96 d7 f4 3b 6f 1a 86 3d e0 06 87 bd 13 73 c4 bc
       0.007471989 0.065480106 -0.06593108 -0.023980653
000040 3f 82 9d bd 9b 09 93 3c 80 27 aa 3d f1 ef a3 bc
       -0.07690858 0.017948916 0.08308315 -0.020011874
000050 0e 9a 49 3d c6 78 86 bc 5a f9 96 bd 9c 38 86 3d
       0.049219184 -0.016415011 -0.07371779 0.06553766
000060 87 b8 89 3d f1 ee e0 bc 19 23 1e bd d5 28 26 3d
       0.06724649 -0.027457686 -0.03860769 0.040566284
000070 05 93 ba bd 66 95 47 bd 31 6e 4c bd e3 6c 9d bd
       -0.09110073 -0.04872646 -0.049909774 -0.07686784
000080 51 eb ad bd f5 cd 05 3d 05 55 e4 b9 4f a7 88 3d
       -0.08492149 0.03266712 -0.00043550893 0.066725366
000090 e4 1a 2d bc 0d 05 5d bd c7 55 d4 bc 59 00 6f 3e
       -0.010565493 -0.053959895 -0.025919808 0.23339976
0000a0 a9 8a 9a 3c e3 1a 03 bd 46 e2 33 3d fe d8 d9 3d
       0.018864946 -0.032008063 0.043916963 0.10637091
0000b0 eb 11 af bd 6c 4e 60 bc be 02 0d 3d 1c 1f 0b be
       -0.085483395 -0.013690572 0.034426443 -0.13586086
0000c0 72 de 4c 3d 94 55 68 bd 28 6a 61 3d 3a d2 d1 bd
       0.050016828 -0.05672224 0.05503288 -0.10245176
0000d0 81 bf ca bd 70 22 ad 3b 7a 74 31 bc d2 d7 08 3d
       -0.09899808 0.0052836463 -0.010830993 0.033408947
0000e0 94 81 c3 3d a2 2f 65 3d 6d 2e 7c bc 20 30 a2 3d
       0.095461994 0.05595363 -0.015391928 0.07919335
0000f0 19 7b 23 3d a4 eb 04 bd cc ca e8 bc a4 08 3c 3d
       0.039912317 -0.032451287 -0.028417014 0.045906678
000100 e7 84 b0 bc 8f e7 a9 bd 7b 0c 88 bd a9 22 c2 3b
       -0.021547748 -0.082961194 -0.066430055 0.005924542
000110 69 3c a5 bc 62 93 95 bc 59 14 ca bc 61 92 c2 bd
       -0.020170407 -0.018258754 -0.024667906 -0.09500576
000120 f9 27 4e 3c a9 33 8b bb a4 8d 78 3d 15 e1 81 3b
       0.012582772 -0.0042481017 0.060681954 0.0039635994
000130 c4 c2 d5 3b 94 4b 95 bc a9 4c 8e bd e9 fc 63 3d
       0.006523462 -0.018224515 -0.069482155 0.055661116
000140 58 2e a7 bd 02 51 91 3d 11 37 a5 bc 7d 5c d1 bb
       -0.08163136 0.07095529 -0.02016786 -0.0063891993
000150 ad 45 1f bd a4 eb ad bd 99 e8 e6 3c f7 e9 be 3b
       -0.038884807 -0.084922105 0.028187083 0.0058262306
000160 17 bc 64 bb ad 70 1d be 52 84 69 bc 7b c1 1a 3d
       -0.003490215 -0.15375014 -0.014252739 0.037782174
000170 2e d8 8f bc 0f aa c8 3c c7 0f 3d 3d aa ce 38 bd
       -0.017559137 0.024495153 0.046157625 -0.045118965
000180 94 87 b4 bc 32 e5 a6 bc 84 65 bc 3b ec e1 55 bd
       -0.022037305 -0.02037296 0.0057494063 -0.05221741
000190 74 64 ea bd 0e 61 7b 3d f9 0f 63 3d 37 3f 9d bd
       -0.11444941 0.061371855 0.055435155 -0.07678073
0001a0 b4 8a 8c bc 32 df 90 bd c2 ad ae 3d c2 b7 22 bd
       -0.017155983 -0.07073821 0.085292354 -0.039726026
0001b0 98 99 92 bd e1 74 e8 ba 0e 70 00 bd 33 66 f2 3c
       -0.07158202 -0.0017735028 -0.031356864 0.029589748
0001c0 1f 40 90 bd 6e 7c 2a bd 54 43 5e 3d 01 d3 1f bd
       -0.0704348 -0.04162257 0.054263428 -0.03901959
0001d0 81 39 32 bd 5e 16 17 bd 73 37 81 3c 42 e1 10 bd
       -0.04351187 -0.036886565 0.01577351 -0.035371073
0001e0 26 4c 85 3d 2f 57 df bc 0b ab 7b 3b 9e 68 5e 3d
       0.06508665 -0.027263252 0.003840151 0.05429899
0001f0 92 a4 8e bd de 9e 22 3d c2 5d 8d 3d 31 c2 8e bd
       -0.06964983 0.03970229 0.069026485 -0.06970633
000200 35 2d 5f bc be 62 4e 3c cc 2f 0e bd 64 65 90 bd
       -0.013621618 0.012596784 -0.03471355 -0.07050589
000210 3e 0a e0 bd f3 13 a2 bb 13 d0 f7 bd bd 48 a4 3d
       -0.109394535 -0.004946226 -0.12100234 0.08021686
000220 dc de 47 bd 4b 26 c8 3d fc 5b 43 bd 06 92 1c bc
       -0.04879652 0.09772929 -0.047695145 -0.009556299
000230 57 d9 2e bd b6 36 8b 3d e8 fd 5b bc d6 bb 81 3c
       -0.04268774 0.06797545 -0.013427235 0.015836637
000240 3b 86 1a 3d d3 c7 b5 3c cf 5a 1b 3e d4 08 a0 bb
       0.03772567 0.02219001 0.1517136 -0.004883865
000250 61 e7 dd 3d cd 6f 91 bc e9 d9 e8 bd be 69 9b bc
       0.10835148 -0.017753506 -0.11369688 -0.01897132
000260 17 ce 68 bd 8a cb 13 3d a7 68 87 3d 22 57 6b 3d
       -0.056837168 0.03608278 0.06611758 0.057456143
000270 42 08 bf bd 80 51 ef bd d2 b3 3f 3d 0e 2c 69 bd
       -0.09327747 -0.11685467 0.04680235 -0.05692678
000280 73 94 45 bd 43 a3 82 3d 60 15 07 bc 3b a7 48 bd
       -0.048237275 0.06378796 -0.008244842 -0.04898761
000290 8b 36 ff bd 76 66 cc 3c 8f 4e f4 3b 4f 57 ba 3e
       -0.12461575 0.024951201 0.007455654 0.36394736
0002a0 31 7b ca 3d ab 38 c6 3d 51 f6 c9 bd 11 f2 d3 3d
       0.09886778 0.09678777 -0.09861434 0.10348905
0002b0 0d 3e d4 bd 6a c8 ab 3c b1 17 f6 3c f5 55 6c bd
       -0.10363398 0.020969588 0.030040594 -0.057699163
0002c0 35 0f 81 bd d7 2e 54 bd 95 03 0c 3d eb 5d df bd
       -0.06301729 -0.051802482 0.034183104 -0.10906585
0002d0 24 19 ea bc 2f 16 91 bd c6 7f 1d bc bf 6d 43 bd
       -0.028576441 -0.07084309 -0.009612983 -0.047712084
0002e0 16 53 f6 3d 25 e7 a7 3d 39 7e d1 3c b5 9d bf 3c
       0.12027566 0.08198384 0.025572883 0.02339063
0002f0 07 6b b6 bd ce 61 f1 bd 74 ce 09 be 4b c1 0b 3d
       -0.089071326 -0.11786233 -0.13457662 0.034119885
000300 61 24 eb bc 41 52 2e 3c b3 64 c5 bd 65 2c 20 bc
       -0.02870387 0.010639728 -0.096383475 -0.0097762095
000310 9a 84 b3 bc 76 6e b8 3b f0 e2 ed 3c ee 19 a3 bd
       -0.021913815 0.0056284023 0.029038876 -0.0796393
000320 0b 95 5a bd 9f 23 bf bd a1 cf 89 bd 8a e7 3f bd
       -0.053364795 -0.09332966 -0.06729055 -0.046851672
000330 eb b9 ab bd bd 04 96 bd 95 b2 82 bd 25 6c 96 3d
       -0.083850704 -0.073251225 -0.06381718 0.07344846
000340 96 f7 89 bd 51 30 2d 3b 78 a1 78 bd fc 98 2f bd
       -0.067366764 0.0026426504 -0.060700864 -0.042870507
000350 52 72 11 3e 3e d5 ce bd 3d db d1 bc 65 2b 95 bd
       0.14203766 -0.100992665 -0.025617236 -0.072836675
000360 17 fe 44 bd ab 0f 71 bd 4f ae 88 bc 08 90 95 3d
       -0.04809388 -0.058852833 -0.01668468 0.073028624
000370 17 a5 be 3a ba 57 34 3d 3a a5 ad 3d 77 00 cf 3d
       0.001454505 0.044028975 0.0847878 0.101075105
000380 7b a1 56 bb d4 3d dc bc bf 85 36 bd b6 57 2b bd
       -0.0032750058 -0.02688495 -0.044561144 -0.041831695
000390 fa cd 42 be 95 75 35 3d c5 83 e9 bd b4 3e 04 3d
       -0.19023886 0.044301588 -0.11402086 0.03228636
0003a0 51 8f e4 bc 29 7f 21 bd 5b fa 21 bd a7 eb 4f bb
       -0.02790037 -0.03942791 -0.0395454 -0.0031726153
0003b0 97 aa 82 bd 69 af 11 be c5 93 b1 bc 6a 23 b5 3c
       -0.06380194 -0.1422707 -0.021676907 0.022111613
0003c0 ad f3 49 bc e9 6c f1 bb e1 be b0 bd 65 c7 c8 bb
       -0.012326163 -0.0073677194 -0.08630157 -0.0061272853
0003d0 78 b8 26 bc a0 ab 0f 3e f1 0d f2 bd 01 da c9 3d
       -0.010175817 0.14030313 -0.11819065 0.09856034
0003e0 1a 57 1f bd 78 94 18 bd 5d 4b d7 bd f9 0e 32 3e
       -0.038901426 -0.037250966 -0.10512421 0.17388524
0003f0 3a e2 49 3d 93 ed bd bd be f4 aa bc fa 4a 24 bd
       0.049288012 -0.09273829 -0.020868655 -0.040110566

lstm.bias_ih_l0 f4 [512]
000000 ea ce d5 bc ee ec ce 3d 6e 69 0d bc 96 ee d2 bc
       -0.02609964 0.101037845 -0.008631093 -0.025748532
000010 f9 a3 02 bd 45 af 3b bc d8 e1 97 3d 17 c1 aa bb
       -0.031894658 -0.011455362 0.07416123 -0.0052110064
000020 aa 2c 5b 3b 6e fe 01 3e 2d e6 b9 3c 46 c9 b1 38
       0.003344337 0.12694713 0.022692764 8.477508e-05
000030 2a 4d f5 3c 22 97 06 3e 13 d0 5a 3d a2 61 0c 3e
       0.029944021 0.1314359 0.05342109 0.13709119
000040 fc ed 71 3d 2c 96 f2 bc 95 62 9d bc 58 ba 91 3d
       0.05906485 -0.029612623 -0.019212047 0.071156204
000050 f1 7b ca bb c8 cf c9 bc 1f 77 bd 3c f7 13 7b 3c
       -0.0061793257 -0.02463521 0.02312809 0.015324584
000060 d4 16 6b 3d ff 27 d5 bc 3e 4c 03 3d a0 03 72 bd
       0.057394817 -0.026020048 0.032055132 -0.05908549
000070 01 a8 26 3d e1 56 62 3c cf 81 cb 3c ab 4c cd 3d
       0.040687565 0.013814659 0.024842171 0.10024389
000080 ff c9 60 3d ad 7b 19 3d e8 5e ac 3d 34 f0 f6 3d
       0.05488014 0.037471462 0.084165394 0.12057534
000090 2d b2 ae 3b b7 20 7b bd a5 c7 41 bc 26 99 4d 3e
       0.005331299 -0.061310496 -0.011827384 0.20077953
0000a0 07 09 83 3c e4 c1 89 3c e5 29 1c 3c 64 07 71 3d
       0.015995516 0.016816087 0.009531473 0.05884494
0000b0 48 7e 15 3d 40 dd 0d 3d 26 fc 40 3d ce f0 6f bd
       0.036497384 0.03463483 0.047115467 -0.05857926
0000c0 fa ee 2c bc 7b 9d 2c bd 16 5b d7 3d 38 e3 b6 3d
       -0.010555023 -0.042142373 0.1051542 0.08930057
0000d0 86 9c 27 bd 4b 27 14 bd dd 53 4c bd 08 3c 61 bb
       -0.040920757 -0.036170285 -0.049884666 -0.0034368057
0000e0 a0 a4 90 3d 06 a4 d1 3d aa 4e c2 3b e7 18 43 bd
       0.0706265 0.10236363 0.0059297876 -0.04763117
0000f0 18 a1 86 3c ef d6 8c 3c 87 15 bc 3d 83 98 3c bd
       0.016434237 0.017192332 0.091837935 -0.046043884
000100 05 82 bc 3d 50 a4 19 3d 43 9e 09 bd 66 f5 84 3d
       0.09204487 0.037510216 -0.033598196 0.064921185
000110 21 6a 8a 3d 28 08 10 bc 0a 3a 1a 3e 07 4f 36 3d
       0.06758524 -0.008791007 0.15061203 0.04450896
000120 11 e7 1a 3d f5 b2 78 3b 38 a7 8a 3d 29 10 ba 3d
       0.03781802 0.0037948464 0.06770176 0.090851136
000130 c6 e6 ff bb 12 fa b0 3d 5b d0 aa 3d f5 08 eb 3c
       -0.0078094928 0.08641447 0.08340522 0.028690794
000140 48 89 46 3c 8d 97 1a 3d eb 2e ad 3d 37 f1 94 3c
       0.012117691 0.037742186 0.084562145 0.018181426
000150 8c 3a 39 3b 47 b3 43 3c de 26 7a 3d 46 d4 76 3d
       0.0028263656 0.0119445985 0.061072223 0.060261033
000160 ff 24 8b bc d9 9d 84 bd f8 5a fa 3c 93 8b e3 3c
       -0.016985415 -0.064754196 0.030560955 0.027776515
000170 8e 14 eb 3c 44 19 e9 3d 39 6d 2e 3d d8 4c a6 3d
       0.028696325 0.11381772 0.04258463 0.081201255
000180 4f f0 38 3b ab e2 f9 3d 33 25 ed 3c 91 e7 10 3d
       0.0028219407 0.122014366 0.028948402 0.03537709
000190 70 2f 11 3b 9d 8c 14 3e 9c 15 62 3d 13 dc 46 3d
       0.002215352 0.14506765 0.05519639 0.048549723
0001a0 df c4 64 bd 18 e7 a6 3c 7f 4b c5 3d dc 13 30 bd
       -0.055851813 0.020373866 0.0963354 -0.04298769
0001b0 eb 51 e2 bc cd a0 3c 3c b1 66 a2 3c 53 7e 94 3d
       -0.027626952 0.011512947 0.019824358 0.07250657
0001c0 b4 86 91 bd 6a b4 81 bb 4e 06 c4 3d 6a 63 a3 3d
       -0.07105771 -0.0039582746 0.09571515 0.07977946
0001d0 57 8f 3d 3d 03 18 73 bd fe f5 7c 3d 63 97 c8 bc
       0.046279278 -0.05934907 0.061758034 -0.02448625
0001e0 af 3f 7c 3d 55 27 09 3d 68 3f 84 bc 05 3a ac 3d
       0.06158417 0.033484776 -0.016143516 0.08409504
0001f0 5a 03 31 bd 2d d8 b2 bc 0c 35 01 bd 10 02 01 3c
       -0.043216087 -0.021831596 -0.03154473 0.007874027
000200 41 08 59 3d bf 3a a8 3d f8 11 c2 bd 02 ba e4 3c
       0.052986387 0.0821433 -0.094760835 0.027920727
000210 3b 95 37 3d c2 2f 23 3d 61 03 93 bd 28 f2 fb 3c
       0.04482005 0.039840467 -0.07178379 0.030755118
000220 96 6a 88 3d d4 be 42 bd df 55 c5 bc d8 b9 ae bd
       0.06660955 -0.04754527 -0.024088798 -0.08531541
000230 c9 29 88 bd d5 ac 8d bb 09 87 85 ba d9 7e ed 3c
       -0.06648595 -0.0043235817 -0.0010187338 0.02899115
000240 2b b3 dd bc 08 46 3d bc d4 c0 b0 bd 8b ae 0f bc
       -0.027062973 -0.011552341 -0.08630529 -0.008769642
000250 fe a7 a2 3c 35 bc d8 3c 68 cb 3d bd 06 bf c4 3d
       0.019855496 0.026456932 -0.04633656 0.09606747
000260 c1 b6 51 bd 59 a0 00 bc 30 3a db bb ef af 5e 3c
       -0.05119968 -0.00785073 -0.006690286 0.0135917505
000270 ff 18 a0 bd c2 76 8f bd ef 44 2a 3d 76 a1 48 bb
       -0.078172676 -0.07005073 0.041569646 -0.0030613816
000280 89 24 b9 3d 2f 89 9f bd 97 85 0f 3d 87 b5 0b bd
       0.09040172 -0.077898376 0.03503951 -0.034108665
000290 f1 20 a9 bc e8 11 5e bd d1 af 5f 3d 20 9b 71 3d
       -0.02064559 -0.054216295 0.05461103 0.05898583
0002a0 0b de 9e 3d a4 53 aa 3d 6d 6b 17 bd 96 23 c1 3d
       0.07757195 0.083167344 -0.036967684 0.094306156
0002b0 5d 7e 8d 3c 4c bf e8 3b 11 a0 6d 3d 85 2e b9 3c
       0.017272169 0.0071028825 0.05801398 0.02260519
0002c0 ce 92 2b bd c7 02 a6 bd a4 18 91 3c 10 d6 40 3d
       -0.04188805 -0.081059985 0.017711945 0.047079146
0002d0 c8 5c 9f 3c 66 e1 ae bc f3 4d a9 3d 30 a4 d1 3c
       0.019453421 -0.021347713 0.08266821 0.025590986
0002e0 b0 8f 85 3c be 4a a1 3d c9 ec 81 bd ca c6 05 3d
       0.016303867 0.07875584 -0.06343991 0.032660283
0002f0 a4 91 b4 3d d3 68 f2 3b 7d 9c ef b9 38 1d bf bd
       0.08816841 0.00739775 -0.00045702225 -0.09331745
000300 54 db b6 bb 91 8d 91 3d ab 26 f5 3c 2b b2 92 bd
       -0.005580345 0.0710708 0.029925665 -0.07162889
000310 17 0b 43 ba 39 3e 65 3d c7 47 60 bd 86 51 03 3b
       -0.0007440312 0.055967543 -0.054755952 0.0020037605
000320 63 c1 84 bc f4 c5 15 bb c0 f1 0a 3d 5f f8 16 bd
       -0.016205495 -0.0022853585 0.033921957 -0.03685796
000330 4c 02 84 3d 59 f3 a1 3d d6 df 86 bc 64 b6 79 bd
       0.064457506 0.07907743 -0.016464155 -0.060964957
000340 0d 0f 8c 3d fd bf 4b bd 8a 9f 5f bd 25 16 8a 3d
       0.06838808 -0.04974364 -0.054595508 0.06742505
000350 5e db 99 bd 2e 2f a0 3d 2c 22 80 3d b2 92 86 3d
       -0.07512544 0.07821499 0.06256518 0.06570949
000360 3c e3 17 bd de 0b 33 bd a4 52 94 3d e8 a2 70 bd
       -0.037081942 -0.04371249 0.07242325 -0.05874911
000370 f7 0d 7a 3c 69 ff f7 bc b6 10 8a 3d 65 f9 56 3c
       0.015262119 -0.030273156 0.067414686 0.013120984
000380 91 6c 82 bd 53 fc 15 bd ea 0c 6f 3d 63 fb 99 bb
       -0.06368364 -0.03661759 0.058361925 -0.004699157
000390 c4 88 7e 3d 3e 0a ff 3c 10 ea 04 bd 8e b7 49 bd
       0.06214215 0.031132814 -0.032449782 -0.049247317
0003a0 71 40 c0 bd 01 15 48 bc ad 67 24 3d 6c e3 c0 3c
       -0.09387291 -0.012212039 0.040137935 0.023545943
0003b0 85 3c 31 3d 6a f1 97 3d 1c 32 4b 3d 7a e5 0d bc
       0.043270607 0.07419093 0.049608335 -0.0086606685
0003c0 d6 2b 91 3d 54 cf 79 bd 21 00 6a bd 4d fe 86 3d
       0.07088439 -0.06098874 -0.05712903 0.06591473
0003d0 4b d8 40 3d e9 30 c8 3c 37 63 92 3d 61 02 43 3a
       0.047081273 0.024437385 0.0714783 0.0007439014
0003e0 53 64 4e 3d 91 53 3a 3d 44 49 b7 3d da 57 88 3d
       0.050388645 0.04548985 0.08949521 0.06657381
0003f0 f2 e2 70 3d 41 8a 8b 3d c4 2e da bc be ef 3a 3d
       0.058810182 0.06813479 -0.026633628 0.045638792

lstm.bias_hh_l0 f4 [512]
000000 29 5d 88 3d 80 34 0a 3e 87 22 83 3d 66 b5 c5 3d
       0.06658394 0.1349659 0.0640307 0.0965374
000010 66 bd ca 3c ce 16 e5 bc e5 91 0f bd a0 a2 58 bd
       0.024748515 -0.027964976 -0.035051245 -0.052889466
000020 60 bf 7f 3c 40 06 07 bc d7 dc b9 3d aa 2a 8b bc
       0.015609592 -0.008241236 0.09075325 -0.016988117
000030 d7 2a 05 bd bb c8 03 3e 1f a3 4f 3c ef 1d 1d 3e
       -0.03251156 0.12869541 0.012673168 0.1534345
000040 c7 73 9a bd 0d 4b 99 bd 56 be 1f 3d ff 2f 63 bc
       -0.07541614 -0.07485018 0.038999878 -0.013866424
000050 9e a4 e0 bc 13 e9 57 bd 09 99 25 3e 0d 11 c6 3d
       -0.027422246 -0.05271251 0.1617166 0.09671221
000060 77 48 b8 3d c9 aa 68 3c 67 05 99 bb 4c 15 ad bc
       0.089981966 0.014200875 -0.0046698335 -0.02112832
000070 37 dc dc 3d 67 eb 8e bd 3e ea e1 3d 53 7f 4a bd
       0.1078419 -0.06978493 0.11031006 -0.049437832
000080 0d ac c9 3d b8 82 c5 3d 8b 58 2a bc 21 5a 0e 3d
       0.09847269 0.09644073 -0.010397087 0.034753922
000090 3d fd 47 3d fc 98 d0 bc ed 0c 60 bd ca e4 5d 3e
       0.04882549 -0.025463574 -0.054699827 0.21669307
0000a0 4d 56 c2 3d 93 32 f9 3d 77 a6 4c 3d 42 ad ec bb
       0.09489117 0.121678494 0.04996344 -0.0072228024
0000b0 ad 2a 09 3d ae cb bd 3d 11 b2 ae bc 34 ab 5c bc
       0.033487964 0.092673644 -0.021325143 -0.013468552
0000c0 1e c2 d8 3d f8 4c 3e 3c 5a 5b 9a 3c 46 78 09 3e
       0.105839 0.0116150305 0.018842388 0.13424787
0000d0 0a 82 79 bd b8 ef c4 bc 64 c3 53 bd ad b9 ad 3d
       -0.06091503 -0.024040088 -0.05170001 0.084826805
0000e0 c9 7e f2 3c bc a7 38 3d b7 02 85 3d e4 67 cb bc
       0.029601471 0.04508184 0.064946584 -0.024829812
0000f0 ee b8 d7 3b b7 46 dd 3c 73 bd ce 3d 2b 6e 1b 3d
       0.0065833246 0.027011259 0.10094728 0.03794686
000100 83 90 d8 bc 26 0c 84 3d 8a f3 75 3a ac 0a 39 3c
       -0.026436096 0.0644763 0.00093822984 0.011294048
000110 30 e2 23 3c a2 39 2b bd f5 de 77 3d ff 04 90 3d
       0.010002658 -0.04180301 0.060515363 0.07032203
000120 b6 57 0f 3c 4f c6 04 bd 37 77 c6 3d 0c 05 21 3d
       0.008748939 -0.032415684 0.09690707 0.039311454
000130 ed f9 cb ba fd d0 8a bd d4 6e 56 3c 6a 08 6b 3d
       -0.0015562155 -0.067781426 0.013087947 0.05738107
000140 e4 24 5a 3d 30 5e f6 3c b8 63 34 3d 26 13 b0 3d
       0.053257838 0.030074209 0.04404041 0.08597402
000150 96 72 03 bd 1c 94 8c bb c7 94 34 3d 10 72 8e bd
       -0.0320917 -0.004290117 0.044087198 -0.069553494
000160 14 73 f2 bc b4 3b fa bc a0 96 aa 3d 41 91 97 3d
       -0.02959589 -0.030546047 0.08329511 0.07400752
000170 7d 53 ab bc 6f d9 ad 3d b8 e8 06 3d b8 14 c0 3d
       -0.020913834 0.08488738 0.03293678 0.09378952
000180 03 f4 ee bc 3a 09 92 3c a9 b9 05 3d f5 aa 95 3d
       -0.029169088 0.017826665 0.032647762 0.07307998
000190 1b d2 87 3c 3f 5a 18 3e e6 2c 95 bb ca db 8a 3d
       0.016579678 0.14878176 -0.0045524715 0.06780203
0001a0 c4 ef 1c bd da 3c fe bc e9 2a e5 3d 2a cd ba bc
       -0.038314596 -0.031034876 0.11189825 -0.022802908
0001b0 b4 dc 32 bc 20 47 5f bd 88 95 41 3d 86 85 44 3d
       -0.010916878 -0.05451119 0.047261745 0.0479789
0001c0 a5 30 e6 3c 1c dd ec 3d 2e 24 8c 3d fc 52 61 3d
       0.028099367 0.11565611 0.06842838 0.05501078
0001d0 eb 14 98 3d a4 40 1c 3d d1 05 b1 3d 24 2f cf 3d
       0.07425865 0.038147584 0.086436875 0.10116413
0001e0 b3 3d f0 3d 4d 63 88 3d f0 3d 21 3c f0 60 e2 3b
       0.11730518 0.06659565 0.009841427 0.0069085285
0001f0 3c 1f 06 bd 3e 3d 13 3d 5f fa 30 3d 45 32 86 bd
       -0.03274463 0.035947077 0.043207522 -0.06552557
000200 d1 64 1d 3d 92 b2 48 bd 53 70 b9 bd 66 a4 8f bc
       0.038426224 -0.048998423 -0.09054627 -0.017534446
000210 95 b1 94 bb 05 88 f7 bc 97 5d 95 bd 62 cc 0e 3d
       -0.004537771 -0.030216226 -0.072932415 0.034862883
000220 e3 0a fc 3c e2 b5 c9 3d fe 5f a8 bd 5b 2b 0f 3d
       0.03076691 0.098491445 -0.08221434 0.034953456
000230 43 57 03 bb 26 cc 4c bd 3b 9b 87 bc 25 2f 8b 3d
       -0.0020041026 -0.04999938 -0.016553512 0.067961015
000240 c6 1d 79 bd 3e b1 84 3d bb 96 92 bd 31 ef c8 bd
       -0.06081941 0.06479119 -0.07157656 -0.09811247
000250 95 56 89 3d 81 24 86 bd 11 ab 33 bd 24 39 b8 3d
       0.06705967 -0.06549931 -0.043864314 0.08995274
000260 3d 2b 44 3d fc 4d 57 3d fe 0f 69 3d 80 e6 24 3d
       0.047892798 0.052564606 0.056900017 0.040258884
000270 b2 8f 3a 3d a3 a6 0c 3d 90 2b d6 3d b6 e6 9d bd
       0.045547195 0.034338605 0.10457528 -0.0771002
000280 99 3a 7e 3d e1 d9 af bd 11 65 8f 3d 4d 65 ab 3b
       0.0620676 -0.08586479 0.07001699 0.005230582
000290 78 21 7a 3d c7 55 be 3d 02 b1 b2 bc f4 e3 82 3d
       0.061067075 0.092937045 -0.02181292 0.06391135
0002a0 f5 f8 55 3d ed d3 6d bd d2 8f 31 3c 23 85 45 bd
       0.052239377 -0.058063436 0.010837512 -0.048222672
0002b0 2c 30 44 3c 94 53 88 3d 9e 71 54 bc e1 60 b4 bb
       0.011974376 0.06656566 -0.012966542 -0.005504713
0002c0 ce 38 a1 3c fe 2f 83 3d ea 0c d1 3d e5 ae 40 bc
       0.019680407 0.06405638 0.10207541 -0.011760448
0002d0 69 6e 0b bd af 78 d9 3c df 89 bb 3c d2 f9 d9 3d
       -0.034040842 0.026546804 0.02289289 0.106433526
0002e0 56 c1 42 bd 25 05 53 3d 32 40 54 3d 45 44 9d bc
       -0.04754766 0.051518578 0.051819034 -0.019197593
0002f0 31 58 b8 3b 48 1b 52 3d f6 c9 87 3d 3f 54 45 bd
       0.0056257476 0.05129555 0.06630318 -0.048176046
000300 11 90 17 3d 4e 98 39 bd 1d 40 dc 3b bb f8 b8 bd
       0.037002627 -0.045311265 0.00672151 -0.090318166
000310 39 50 c8 bd 34 c4 b1 bd 00 5f b4 3c 8d c6 a2 3c
       -0.09780926 -0.08680001 0.022017956 0.019870067
000320 a1 08 7c bc 12 2c 9e bd 82 6b 2f bd 35 0f 4d 3d
       -0.015382917 -0.077232495 -0.042827137 0.05006333
000330 74 29 eb bb fd 3b 86 bd 2f 25 11 3c 08 b7 5c 3d
       -0.0071765725 -0.065544106 0.008858963 0.05388549
000340 3e 33 9d bd b4 63 8b bd 1d e9 90 3d 01 c7 84 3d
       -0.07675789 -0.06806126 0.07075713 0.064832695
000350 07 e2 54 3d f0 27 0e bd 85 64 72 b8 ca ce 8a bd
       0.05197337 -0.034706056 -5.7790912e-05 -0.06777723
000360 f7 e2 70 bd f9 d7 0d bc 55 51 a8 3c 3e 8a 0a bd
       -0.0588102 -0.008657449 0.020546595 -0.033823244
000370 de f9 14 3d 70 4f 48 bd e8 d3 75 3d d7 9c 88 3d
       0.036371104 -0.048903883 0.060016543 0.0667054
000380 94 eb b2 3d e1 10 a1 3d 20 a4 56 bd 5a c2 a8 3d
       0.08736339 0.078645475 -0.052402616 0.082401946
000390 c8 0b b2 bd 4d 59 12 bd a9 e8 b0 3d 47 14 99 bc
       -0.08693653 -0.035729695 0.086381264 -0.018686427
0003a0 9c 57 5c 3c b9 4a 99 3d 5f 04 88 bc d2 72 04 bc
       0.013448622 0.07484955 -0.016603647 -0.008084016
0003b0 6e 21 98 3d e6 e9 ad 3d 22 fa 05 bd e9 ad 18 bc
       0.07428251 0.08491878 -0.03270925 -0.009318807
0003c0 53 ab d4 bc 50 43 8e bd 8c 62 d1 bc fc 55 b8 3c
       -0.0259606 -0.069464326 -0.025559686 0.022501938
0003d0 bc c2 69 3d 71 7b 06 3d cf 1e 03 3d c7 0b 65 3d
       0.05707048 0.032832567 0.032011803 0.055919435
0003e0 5e 0b 7a 3d b3 00 32 bd d6 0d 07 bc 87 be 60 bd
       0.061045997 -0.043457698 -0.008243045 -0.0548692
0003f0 ca 66 ca 3c c0 83 74 3d dc e1 ed bc 1b 67 69 3c
       0.024707217 0.05969596 -0.029038362 0.014245774

fc.weight f4 [1, 128]
000000 51 a4 dc 3d 70 4a ff bd c2 98 30 bd 2b f2 cf bc
       0.10773528 -0.1246537 -0.04311443 -0.02538403
000010 98 17 d4 bd 39 fc 0b bc cd 6a 29 bd 58 9f cb 3d
       -0.10356063 -0.008544021 -0.04136162 0.09942502
000020 e5 60 0e bd f9 3a 1d be 34 9e 70 bd 98 1d a2 bd
       -0.034760375 -0.15354528 -0.058744624 -0.07915801
000030 6c 12 b6 bd d0 6d e0 3d 9d c7 4f bd 93 61 d0 bd
       -0.088902324 0.10958445 -0.050727475 -0.10174861
000040 95 f6 0b bd 92 a4 c5 3c b2 e9 7c bc 03 81 86 3d
       -0.034170706 0.024126325 -0.015436577 0.06567576
000050 03 a4 4c 3d 08 73 89 3d 99 ea ef 3d 2f 12 ee bc
       0.0499611 0.067113936 0.11714668 -0.029061405
000060 db de af 3d f8 e1 20 bd b9 11 a9 bd 05 ed 64 3d
       0.08587428 -0.039278 -0.082553335 0.055890102
000070 d9 16 1a 3e 51 94 1b bd 48 40 fe bd 0f b7 93 bd
       0.15047778 -0.037983242 -0.124146044 -0.0721265
000080 cb fa 03 bd be 76 83 bd 30 42 59 3d 0c 3b d2 3d
       -0.032221597 -0.06419133 0.053041637 0.102651685
000090 b1 e5 97 bc af 79 cf bd 68 50 9d bd 28 ba 26 be
       -0.018542143 -0.10130631 -0.07681352 -0.1628195
0000a0 fc f1 2f bd 3b c9 07 3e 66 9d 81 3c b6 5b bb bd
       -0.042955384 0.13260357 0.015822124 -0.09148352
0000b0 e7 6e 7b bd 4e 25 9e bd 1d 4c dc bd 37 18 ad 3d
       -0.06138506 -0.07721959 -0.10756705 0.08451884
0000c0 a2 98 76 bd 11 a9 48 bd e1 42 c3 3d 84 59 e6 3d
       -0.060204156 -0.04898936 0.095342405 0.112475425
0000d0 b1 d4 13 3d c4 af 75 bd 7a 72 a7 3d 00 33 f7 bd
       0.03609151 -0.059982076 0.081761315 -0.12070274
0000e0 a2 0a 0d be 6e 8b b9 3d 60 bf 09 be fa e5 9c bc
       -0.13773587 0.09059797 -0.1345191 -0.01915263
0000f0 da c0 ec bd 92 c7 9b 3b 33 f0 39 be d6 17 a5 bc
       -0.11560221 0.0047540152 -0.18158035 -0.020152967
000100 a3 ba fb bb 28 9a d4 3d d4 9b b0 bb 4b 02 c7 ba
       -0.007682161 0.103809655 -0.00538967 -0.0015183178
000110 fd 20 16 3c 7f bc 97 3d c0 9d 5a be 19 2c 10 bd
       0.009163138 0.07409 -0.2134924 -0.035198305
000120 b6 e2 df 3d e4 64 55 bd ac 46 cd bd 59 92 f6 3d
       0.109319136 -0.05209817 -0.10023245 0.12039632
000130 6f f7 13 3e d3 10 c2 bd b2 12 7f 3d 56 d0 b6 bd
       0.14449857 -0.09475865 0.06227369 -0.08926456
000140 a4 25 96 bd 6b d9 87 3d 28 c0 16 be 84 42 6a 3a
       -0.07331398 0.06633266 -0.1472174 0.0008936303
000150 cd 60 cf bc 2e 81 d2 bc 67 43 f5 bd 5f 85 6b 3c
       -0.025314713 -0.025696363 -0.119757466 0.01437506
000160 2d 2d db 3c 65 c3 7b 3c 20 0e b7 3d 33 dd 16 be
       0.02675494 0.01536641 0.08938241 -0.14732818
000170 86 91 af bd 5d f1 77 bd 21 e8 02 be 5d e3 33 bd
       -0.08572678 -0.060532916 -0.12783863 -0.043918002
000180 43 bf e7 bc db 8b 29 be 95 10 59 bd 84 c7 33 bd
       -0.028289443 -0.16557257 -0.05299433 -0.043891445
000190 0c 1e 75 3c ae 76 45 3e f7 69 b3 bd 91 67 be 3d
       0.014960777 0.19283554 -0.087604456 0.092970975
0001a0 7b 85 a0 ba c8 65 6b bd a6 6a 72 3d 3d f1 bf 3c
       -0.0012246812 -0.057470113 0.05918374 0.023430461
0001b0 d1 42 90 bd dc bb 35 bd d6 d1 a3 bd f0 1c 42 3d
       -0.07043994 -0.04436861 -0.079990074 0.04739088
0001c0 fb dc 3d 3d a5 2c c7 3d f2 9e 80 bd 2b 46 ff bd
       0.04635332 0.09725312 -0.062803164 -0.12464555
0001d0 6e f2 31 bd 6f 26 39 bc 94 60 b4 3c 28 92 85 bd
       -0.04344409 -0.011300667 0.022018708 -0.06522018
0001e0 53 e9 80 bd 8a 4c f8 bd ca 04 a9 bd c9 86 16 bd
       -0.06294503 -0.12123974 -0.082528666 -0.036749635
0001f0 9d 8e 7c bd f3 cb de bd 4c e0 62 3d 61 a1 8e bd
       -0.061659444 -0.10878744 0.055389687 -0.06964374
