models/FITB model.pth (torch, 270889 bytes, 5 tensors)

lstm.weight_ih_l0 f4 [512, 1]
000000 4a de f4 3c 02 26 a7 3d 76 15 d2 3b a4 ac d3 3d
       0.029891152 0.08161546 0.0064112497 0.10335663
000010 11 a6 f8 ba 18 38 c1 bd 6e 95 71 bc 13 44 f6 3c
       -0.001897039 -0.09434527 -0.0147450995 0.030061757
000020 79 97 dd 3d b0 8b 13 3d ab a8 b1 bd 06 a4 5e bd
       0.10819907 0.03602189 -0.08674749 -0.054355644
000030 93 ef 21 be 55 6d 78 bd c7 cb 4c bd 7f 29 03 3e
       -0.15814047 -0.060651142 -0.049999025 0.12808798
000040 c6 38 24 bc 9a f9 a9 bc 59 4f d0 bd 98 c3 bf 3c
       -0.0100233015 -0.020748902 -0.10171384 0.023408696
000050 08 76 2b 3d 92 4f 31 bd 41 6c 31 3d 1b 5e d4 ba
       0.04186061 -0.043288775 0.04331613 -0.0016202362
000060 e4 fd f7 bd 99 bd 3d 3d a1 ff 74 3e f9 3d d4 3d
       -0.12108973 0.046323393 0.2392564 0.10363383
000070 ea e4 2f 3d da 96 13 bd 0b 67 40 bb dd 55 a3 3d
       0.04294292 -0.036032535 -0.0029358293 0.079753615
000080 b2 98 bf bd 9a a7 b8 bd 09 4e 54 3d e3 ae 98 3d
       -0.09355296 -0.090163425 0.051832233 0.07455232
000090 80 a9 fa bd 9d cc b7 bc ef 1c 23 3d 76 88 f4 bd
       -0.12239361 -0.022436434 0.039822515 -0.1194009
0000a0 aa 98 9c 3d f5 f3 c0 3d 58 63 73 bc 1d 62 c5 bc
       0.07646306 0.09421531 -0.014855228 -0.024094636
0000b0 87 de 4e 3d e4 bc 34 bc 44 16 16 bd 98 ee 28 3c
       0.050505187 -0.011031363 -0.036642328 0.010310791
0000c0 22 ce 39 3d 01 21 96 39 de 0e ca bd 0a fa c9 bc
       0.0453626 0.0002863482 -0.09866117 -0.02465536
0000d0 c3 03 6f bd 16 b5 d1 bb 0a e4 c1 bd 59 01 d0 3d
       -0.058353197 -0.006399761 -0.09467323 0.10156507
0000e0 db b3 36 bd ba bc 02 bd b5 64 00 3d 53 a3 28 bd
       -0.044605117 -0.031918265 0.03134604 -0.041171383
0000f0 e6 ce 78 3c 69 7d 5a 3c e8 bb 3c bc 16 11 ff 3d
       0.015186047 0.013335564 -0.01151941 0.12454431
000100 9f 3a a1 bd 34 45 cd 3c 14 13 92 3d 26 85 e3 bc
       -0.07872509 0.025057413 0.07132545 -0.027773451
000110 d7 96 d2 3d e3 6c 86 3c 39 4d 08 be 94 2e 9c 3d
       0.10282677 0.016409343 -0.13310708 0.076260716
000120 c0 ea 1f be 23 57 23 3c e0 0c 9c 3d 04 13 8d 3d
       -0.15616894 0.0099695055 0.07619643 0.068883926
000130 62 c1 fd 3d ba 32 1a 3c 27 81 9b 3d fa 72 8f bd
       0.123904005 0.009411508 0.07592993 -0.07004352
000140 cc ac b6 3c 44 bb f2 bc 1f fd 8f bd c7 bb c9 3d
       0.022299193 -0.02963031 -0.07030701 0.09850269
000150 a9 60 b4 3c ab 76 f5 bc f6 98 70 bd 84 fc d3 3b
       0.022018747 -0.029963812 -0.058739625 0.006469311
000160 0f 68 9a 3b 81 38 22 3b 19 cd 30 3c aa e2 46 bb
       0.004712112 0.0024752917 0.010791087 -0.0030347505
000170 93 21 26 3c 4c 45 f2 bc 25 76 d2 bc 6a 73 ee 3d
       0.010139841 -0.029574059 -0.025691101 0.11643107
000180 1c 62 19 be a5 47 05 bc 1d 2b 51 bd f1 92 ac 3d
       -0.14978832 -0.008134757 -0.051066507 0.08426464
000190 7c 4f b4 3d fb e4 3e 3d 9f 8a e0 3d f7 18 44 bd
       0.08804223 0.04660509 0.1096394 -0.04787537
0001a0 a5 ae 05 bd 69 fb 83 3d d7 0e 2e 3d 8a dd 73 3e
       -0.032637257 0.06444437 0.04249462 0.23814979
0001b0 1b 36 db 3c 17 27 b4 bc 3c f3 de bd 90 5a 08 3d
       0.026759198 -0.021991296 -0.10886237 0.033289492
0001c0 64 f0 86 3c 19 77 37 3d 87 d0 98 3d d2 75 bc 3b
       0.016472049 0.044791315 0.074616484 0.00575135
0001d0 03 17 a5 3d 64 b4 d3 bc d1 71 be 3d 9e 5a f4 bc
       0.0806103 -0.025842853 0.092990525 -0.029828366
0001e0 4a a3 a0 3d 88 6f e3 3c 9c 80 1f bb 21 83 c1 bc
       0.07843645 0.027763143 -0.0024338132 -0.023622097
0001f0 84 3b dd bd 84 58 84 3b 8f 29 25 3d 26 04 b2 bd
       -0.10802367 0.004038872 0.040322836 -0.086921975
000200 86 57 47 bd fa 84 82 bd 2e fe bc bc 76 8b f2 3c
       -0.048667453 -0.063730195 -0.023070421 0.029607516
000210 f8 4e ba 3b c7 54 aa bd 69 98 13 3d 41 8c 8b 3d
       0.0056856833 -0.08316951 0.03603402 0.06813861
000220 c7 55 b1 3d 74 97 d8 bc f9 3c bc bd 2f 87 30 bd
       0.08658939 -0.026439406 -0.09191317 -0.04309767
000230 75 48 be bd 16 c2 c9 ba 12 59 02 bd 33 57 13 3c
       -0.09291164 -0.0015392925 -0.031823225 0.008992958
000240 4e a6 83 3d 8b 4a ba bd 55 41 97 bc 0c ae a2 3d
       0.064282045 -0.09096249 -0.01846377 0.07943353
000250 e3 71 12 3e e3 58 0c be 79 4e 11 be b9 10 d5 bd
       0.14301257 -0.13705783 -0.14190091 -0.1040358
000260 d8 f1 1f be 62 83 5a 3d 5b b1 41 3e 08 3f ca 3c
       -0.156196 0.053347953 0.18915312 0.024688259
000270 82 77 7a 3d 25 4b 87 3d fc 6e 0b be 81 6d 95 3d
       0.061149128 0.066061296 -0.13616556 0.07296277
000280 fa 97 99 3c 2d 83 d4 bc ed 4e 30 bd 23 e4 49 3d
       0.018749226 -0.025941456 -0.04304402 0.049289834
000290 9b 56 e2 bd 7d 79 ae 3d 09 b5 87 3d 4d 74 a0 bc
       -0.11051675 0.08519266 0.066263266 -0.019586707
0002a0 1f a9 b9 3c 07 c9 44 3d db 7a 0c be 6b c1 6e 3d
       0.022663651 0.048043277 -0.1371874 0.058289926
0002b0 4a 3e b0 3d ea ec 5d bc aa 9d 17 be 56 09 95 3d
       0.08605631 -0.013545254 -0.14806238 0.07277171
0002c0 ce e1 cf 3c 33 22 d3 3c bb b6 04 be 6b 21 f8 3d
       0.025376227 0.025773143 -0.12960331 0.12115749
0002d0 77 ed 80 3d c3 04 85 bd a5 3e 07 bd 83 ac 0d bd
       0.06295293 -0.06495049 -0.033018727 -0.034588348
0002e0 05 24 36 bd 25 0f 8b 3c af 62 2c bd 2f 3e 2f bd
       -0.044467945 0.016974995 -0.0420863 -0.042783912
0002f0 cc 7a 07 3d 3f f6 34 3d 16 1f fd bc 45 bb a2 bc
       0.033076093 0.04418015 -0.030898612 -0.019864688
000300 26 5a 88 bd f4 3d 9c 3c dd bb c1 3d c9 6e 83 bd
       -0.066578194 0.01907251 0.0945966 -0.06417615
000310 a2 68 de 3d 93 af e3 bc 93 97 f1 bd f6 75 67 3c
       0.10859801 -0.027793681 -0.117964886 0.014127245
000320 96 f0 17 be 27 3f f3 3d 65 fa dd 3d d6 e0 ca 3d
       -0.1483787 0.1187728 0.108387746 0.09906165
000330 b3 7b fc 3d 74 8a f5 3b 67 a6 ea bc 0a 27 d4 bd
       0.12328281 0.0074933115 -0.0286438 -0.103590086
000340 c7 ad 4f 3d c0 f6 dd bc 8b 36 73 3d 71 44 1c bd
       0.050702836 -0.027095199 0.059378188 -0.03815121
000350 66 d2 5b 3c 7f 36 fa 3d 65 70 8c 3c 57 25 0a bc
       0.013416862 0.122174256 0.017143438 -0.008431754
000360 48 64 5d bd 16 e4 96 3b 9b 52 27 3c 4c 65 35 3d
       -0.054050714 0.0046048267 0.010212566 0.044286057
000370 8f 4c 3d bc 4b 6e 15 be a9 71 05 3e 08 13 91 3d
       -0.0115538975 -0.14592855 0.13031639 0.07083708
000380 cb 8b 92 bd 46 30 59 bc e0 9d b7 bd 1a ef b7 3c
       -0.0715557 -0.013256138 -0.08965659 0.02245288
000390 57 2e 30 3d 8d 83 87 3d 27 8c f8 bc fb 87 9b 3d
       0.043012943 0.06616888 -0.030340267 0.075942956
0003a0 ce 10 5d bd 47 31 3c 3e ba bf da 3c a6 e1 94 3e
       -0.053971104 0.18378173 0.02670275 0.29078406
0003b0 49 dd 24 3b ce 15 a1 bd f3 62 4a bc e6 d1 5b bd
       0.002515631 -0.07865487 -0.012352693 -0.05366697
0003c0 49 9f e9 bc fa 9d d3 3d da cb dd bc 65 9c ef bd
       -0.028518336 0.10332866 -0.027074743 -0.11699752
0003d0 8f 11 d4 3b 3b ca 3f bc ce 7c f4 3d 7d f5 2a 3d
       0.0064718197 -0.01170593 0.11937867 0.041738022
0003e0 a3 11 ae ba ac 97 63 bd 45 79 16 3c f1 5f 90 3d
       -0.0013280403 -0.055564567 0.009184186 0.07049549
0003f0 db e0 dd bd 8a 68 d8 3d a9 ab 0b bd 3b f9 16 bd
       -0.108339034 0.10566814 -0.034099255 -0.03685878

lstm.weight_hh_l0 f4 [512, 128]
000000 23 dc 0d 3c b3 f4 33 bd 7c a0 74 bc 04 52 99 bd
       0.008658442 -0.043934535 -0.014930841 -0.07486346
000010 f1 60 8a 3d a5 f9 d8 bb 42 57 b0 3b 24 cd 94 3d
       0.06756771 -0.006621557 0.0053814957 0.0726569
000020 70 c8 71 3d 07 13 05 3c 7b df 49 bd 9c 67 c4 bc
       0.059029043 0.008122212 -0.049285393 -0.023975186
000030 64 be a5 bd e1 09 8c bd 25 73 97 3d 1a 7a 8b 3b
       -0.08092955 -0.06837822 0.07395009 0.004256499
000040 54 69 a9 bd 60 74 b1 3b 5b ad 9f 3c f7 b4 f5 bc
       -0.08272043 0.0054154843 0.019491842 -0.029993517
000050 fb bf ad bd 6e fc 47 3d fb 7d 6e bc ed 8d 8b 3d
       -0.08483883 0.04882472 -0.014556403 0.068141796
000060 e8 80 0d 3d 53 10 bd 3d 89 a4 b4 bd fd 25 52 bd
       0.034546763 0.09231629 -0.08820445 -0.05130576
000070 8c ce 0c 3d 6d a9 a7 3d 74 5b 99 bd 91 37 12 3d
       0.034376666 0.08186612 -0.074881464 0.035697524
000080 18 7d 9c 3d 2b 5b f2 b8 34 c0 ee 3c 59 9d a0 3d
       0.07641047 -0.000115564406 0.029144384 0.07842512
000090 6e 69 0b 3d 81 d0 a3 3c c1 59 57 bd 46 9b ba 3c
       0.034036092 0.019996883 -0.05257583 0.022779118
0000a0 62 17 a5 3b b4 33 e8 bc 0b 8c aa bc 95 4c bb 3c
       0.005038188 -0.028344966 -0.02081873 0.022863666
0000b0 bf 0b ff 3c c0 33 8b 3d 0b 1e 3e bd 1b e0 8e 3c
       0.03113353 0.0679698 -0.04641537 0.017440846
0000c0 8a e2 87 ba 1f b3 12 3c b1 1e 42 3d 4f 3d 44 3d
       -0.0010367197 0.008953839 0.04739255 0.04791003
0000d0 00 ae a3 3d a3 6e c8 3c 53 65 16 bd 1a 7e ac 3d
       0.07992172 0.024466818 -0.036717724 0.084224895
0000e0 a6 fb 0b 3d 72 2c 71 bd 99 85 52 3d 75 8a 7c 3d
       0.034175538 -0.058880277 0.05139694 0.06165548
0000f0 47 9a 44 bb 5c ba 32 3d 85 dd 12 3c 7a c3 9c 3d
       -0.0029999183 0.043634757 0.008963947 0.07654472
000100 b8 cd 93 bd 2b 6f b3 bd b3 e2 62 bb 7a 51 8e 3d
       -0.07216972 -0.08761438 -0.0034619987 0.06949134
000110 09 a3 54 3d 09 76 b5 bc 3f 75 68 3d 32 de 9b 3d
       0.051913295 -0.02215101 0.05675244 0.0761074
000120 1b 6c 4a 3d 31 89 57 bc e9 b0 b6 bd 52 7e 2e bd
       0.049419504 -0.013155268 -0.08920462 -0.042600937
000130 51 42 8f bd 88 7d 97 bd 46 d8 29 3d 92 f8 c5 bc
       -0.06995071 -0.0739699 0.04146602 -0.02416638
000140 46 f4 33 bc 6a 58 78 bb 4b 72 ab 3d fb 48 da 3a
       -0.010983532 -0.0037894496 0.08371409 0.001665383
000150 d7 a7 8a bd e6 53 db 3c bb c2 80 3d 35 15 8f 3d
       -0.06770294 0.026773404 0.06287142 0.06986467
000160 4a b5 9c bd d8 f4 3a bd 9e 83 03 3d fa 8a 92 3d
       -0.07651766 -0.045643657 0.03210794 0.07155414
000170 e1 6a a2 3c 9c 49 45 bd 24 c5 4a bd 50 63 71 bd
       0.019826354 -0.048165902 -0.049504414 -0.058932602
000180 f4 27 5a bc bb 5c 87 3d 16 38 24 bd 25 68 86 bd
       -0.01331519 0.06609484 -0.04009255 -0.06562833
000190 2d 59 a2 bd 77 ae 79 bd 9b 9a 9e bb 7d 6d 8a bd
       -0.07927165 -0.0609574 -0.0048402078 -0.067591645
0001a0 d1 53 ac 3d 8a fa 78 bd ec c1 39 3d 19 83 0c 3d
       0.08414424 -0.060785808 0.045350954 0.034304712
0001b0 ae 1f 93 3d e4 7a 63 3c 5a 0c 1e bd 2a 2e a7 3d
       0.07183777 0.01388428 -0.038585998 0.08163102
0001c0 5b d7 8f 3c 46 c6 56 3d e0 ae 74 bd 42 03 49 bd
       0.017558744 0.052435182 -0.059737086 -0.049075373
0001d0 1b 9a af 3d 40 ff ed bc 83 a8 f9 3c 97 40 72 bc
       0.08574315 -0.029052377 0.03047586 -0.014785907
0001e0 f9 01 e4 3c 09 82 d3 3c 70 d3 92 bd 30 2f 9c bd
       0.027832972 0.025818842 -0.07169235 -0.07626188
0001f0 82 4f af 3d 18 62 33 3d 39 c8 85 3d 60 6e 9f 3d
       0.08560087 0.04379472 0.0653233 0.07784724
000200 33 ef 51 3d 6a 55 2f bd af 2d 95 bd b9 21 ac 3c
       0.05125351 -0.042806067 -0.07284104 0.021012174
000210 ed a8 8e bd 36 a7 c4 bd 0f c8 0e bc 9c 40 61 3d
       -0.06965814 -0.096022055 -0.00871469 0.054993257
000220 64 f1 79 3c ad 20 b4 3d fe 45 b5 3d 1b 24 c2 bd
       0.015255306 0.08795295 0.088512406 -0.09479543
000230 67 96 c5 3d be 67 09 3d 58 e2 6f 3d b8 f6 96 bd
       0.096478276 0.033546202 0.058565468 -0.073712766
000240 09 34 31 bd ed 1d cd bd 47 8e c7 3c af 4e 1a 3b
       -0.043262515 -0.100154735 0.024359835 0.0023545434
000250 3a c6 89 3c 76 10 0e 3d d2 12 9a 3d a8 c7 ad bc
       0.016818155 0.034683667 0.07523121 -0.021213368
000260 4e c9 c7 bd fd b2 27 bd 38 b3 77 3d 75 bd 6c bd
       -0.09755193 -0.04094218 0.06047365 -0.057797868
000270 a9 2f 7b bd d7 7d 20 3d 79 76 70 bc e9 bd b8 3d
       -0.06132475 0.03918251 -0.014676684 0.090205975
000280 20 dd 90 bb a1 5a 95 bd 8f 14 76 bd 33 6c ca bd
       -0.0044208914 -0.07292677 -0.0600782 -0.098839186
000290 77 d4 5b bd 72 bd 1b bd 52 3e bb 3d 7e 47 29 3d
       -0.05366942 -0.038022466 0.09142746 0.041327946
0002a0 2c c7 84 3d e8 20 6c 3d 36 0d 59 3d 6f 21 af 3d
       0.064833015 0.05764857 0.052991115 0.08551299
0002b0 a5 cf 07 3d 88 64 74 bd de c5 a8 bd dd b1 b7 bd
       0.03315701 -0.059666187 -0.08240865 -0.089694716
0002c0 1d 31 a4 3b 86 1b 23 3d 95 06 76 bd f6 e2 b2 bd
       0.0050107376 0.03982117 -0.06006487 -0.087346956
0002d0 0d 47 9e bd 38 8f f6 3c 1b 70 2d b9 b0 f6 87 3d
       -0.077283956 0.030097589 -0.00016540328 0.06638849
0002e0 fa 7f b5 bd d3 5f 38 3d 8e 9b b6 bd 32 5e f0 ba
       -0.088623 0.04501326 -0.089163885 -0.0018338619
0002f0 3d 52 32 3c bc 56 86 bd dc 12 9f 3d 47 f8 85 3d
       0.010883865 -0.06559512 0.07767269 0.06541496
000300 00 84 db bc 1d 1c b4 bd 7c 24 50 bd c3 ee d3 bc
       -0.026796341 -0.08794425 -0.050816044 -0.025870686
000310 fb f7 ad 3c e7 64 c9 3c a7 22 cc 3d 99 ef ad 3d
       0.02123641 0.024584247 0.09967547 0.08492965
000320 20 81 f1 bc 72 aa d1 bc f5 72 0a bd 56 b6 96 3d
       -0.029480517 -0.02559397 -0.033801038 0.073589966
000330 79 45 1b 3d 5f 6b e6 bc b4 48 8e bd 83 aa 9d 3c
       0.03790805 -0.02812737 -0.06947461 0.019246345
000340 56 e1 b9 bd 73 52 21 3c 8c 1a 8c 3d 1d 0b ae bc
       -0.090761825 0.009846318 0.06841001 -0.021245534
000350 84 f6 bd 3d 69 3a 16 bd 31 0e 80 3d 50 9c b8 3d
       0.09275535 -0.036676798 0.06252707 0.09014189
000360 54 61 68 bd ff fc 41 bd ff 63 0d bd d4 bc 07 3d
       -0.056733444 -0.047360417 -0.03451919 0.033139065
000370 a3 51 ad bb 2f c7 86 bd 81 69 75 3b 73 57 c0 bc
       -0.005289273 -0.0658096 0.0037446918 -0.023479199
000380 00 28 78 3d 52 b6 a5 3d 8a 48 c0 3b 91 1d a2 3d
       0.060585022 0.080914155 0.0058680223 0.079157956
000390 42 e8 a0 3c e7 cd 31 3d 06 b3 70 bd 6b b7 88 3d
       0.019642 0.043409254 -0.05876448 0.06675609
0003a0 8a e0 94 3d 8e 75 9f 3d 16 c7 c4 3c 66 84 17 bd
       0.0726939 0.07786094 0.024020713 -0.0369915
0003b0 cb 2b 3f bc 40 49 21 3d 20 5a 80 bd d6 21 aa 3d
       -0.011668156 0.039376497 -0.0626719 0.08307235
0003c0 95 5f 1e 3c 2e 7f 14 3d ad 15 29 3d d1 77 2b bb
       0.009666343 0.0362541 0.041280437 -0.0026163945
0003d0 ee 55 9e bd 0d e9 32 3d 31 8a af bd f9 eb 99 bd
       -0.077312335 0.043679286 -0.0857128 -0.07515711
0003e0 89 8b 82 bd 8c 05 97 bd 80 ec 82 bd 4f a1 73 3d
       -0.063742705 -0.07374105 -0.06392765 0.059480008
0003f0 e6 3b e4 bb ea f2 86 3d 53 f1 ce 3b 87 57 79 bd
       -0.0069651483 0.06589301 0.006315389 -0.06087449

lstm.bias_ih_l0 f4 [512]
000000 79 0f 1e bc a5 08 57 bd f7 67 9a bc 7a 9c 04 bc
       -0.009647244 -0.05249848 -0.018848402 -0.008093948
000010 d1 68 54 3c 59 2c 98 bd 44 d8 8d 3d 38 2b 50 3a
       0.012964443 -0.07430334 0.06926015 0.00079410104
000020 39 39 dc bc fb 49 cf bc d8 b7 a9 3d 48 f4 8a bd
       -0.026882755 -0.025303831 0.082870185 -0.06784874
000030 70 db 2e bd 50 f0 a5 3d d4 d3 30 3c fc 31 e6 3c
       -0.04268974 0.081024766 0.010792691 0.028100006
000040 57 ca 42 bd c5 44 14 3d 0a 09 80 3d 09 cb 07 3e
       -0.047556248 0.036198396 0.06251724 0.13261046
000050 55 31 69 bb 22 49 87 3d 51 b3 f9 3b 63 2e 82 3d
       -0.0035582383 0.06605746 0.007620253 0.06356504
000060 1a e3 35 3c 9e 69 a5 3c b2 a0 ed 3c af 5a 2e bd
       0.0111015085 0.020191964 0.02900729 -0.04256695
000070 ed 4a 8f 3d e0 42 9c 3d 9c f9 af bb 97 0b 92 3b
       0.06996713 0.07629943 -0.005370332 0.004456948
000080 8b a9 62 3c d0 75 4d bd 67 82 4c 3d 4a 77 49 bd
       0.0138343675 -0.050161183 0.04992905 -0.04918603
000090 75 53 b0 3d b4 3e ec 3d f8 02 13 bd 03 8f 8a bd
       0.08609668 0.11535397 -0.035891503 -0.067655586
0000a0 44 92 2a 3d 3c 63 9b 3d bd 27 7a 3c b9 82 0c 3c
       0.041643396 0.07587287 0.015268263 0.008576089
0000b0 f6 94 59 3d 0a bd 08 bd e5 9c b7 bc 2b 44 5b bb
       0.053120576 -0.033383407 -0.02241368 -0.003345738
0000c0 e5 7b 7c 3d 69 cc 71 3c 4e e9 8a bd b2 ab 23 3d
       0.061641593 0.014758208 -0.067827806 0.039958663
0000d0 c9 51 39 bd e4 ea db 3c eb a3 d8 3c 74 d6 ea 3c
       -0.045244012 0.026845403 0.02644535 0.028666712
0000e0 43 71 a0 3c f5 01 cc 3d 71 1a 32 3c f4 6f 0b bc
       0.019585257 0.09961311 0.010870562 -0.008510578
0000f0 8c 22 76 3a 55 d4 a5 3d 17 a1 3a ba e7 b3 6a 3b
       0.0009389303 0.0809714 -0.0007119341 0.0035812797
000100 fa f9 92 bd da db 34 3e ec 29 8d 3c 2a 31 82 3d
       -0.071765855 0.17661992 0.017231904 0.063570336
000110 42 ea 4d bd 0d 89 18 bd 15 9a e4 3b dd 45 29 3c
       -0.050272234 -0.037240077 0.006976376 0.010331598
000120 e9 0f 10 bc c4 28 dd bc 3d ba 1a bd ca 10 1d 3d
       -0.008792856 -0.026996978 -0.037775267 0.03834609
000130 09 bf 72 bd 52 57 33 bd c3 fb 87 3d 64 4c c3 3c
       -0.059264217 -0.043784447 0.066398166 0.023840137
000140 00 2b 83 3d 26 7d df 3c 07 9d 8e 39 00 e2 1f 3d
       0.06404686 0.027281355 0.00027201345 0.03903389
000150 d6 0e 65 3d 92 0b 6b bd c1 ab 56 3d 19 9e 57 bd
       0.05592235 -0.05738408 0.05240989 -0.052641008
000160 a8 5b 17 bd fc d6 b9 3c 9d f5 85 3d 47 65 10 3d
       -0.036952645 0.02268552 0.06540988 0.035252836
000170 3f 41 34 3d d0 60 37 3d 88 1a 78 bd 44 e2 15 bd
       0.044007536 0.044770062 -0.060572177 -0.036592737
000180 c6 f1 d6 bc 59 42 9f 3d 2a fa 90 bd 64 32 9b 3c
       -0.026238333 0.07776327 -0.07078965 0.018944927
000190 4b 66 64 bd 8b ed a8 3d 0f ef a3 3c 22 cb 3a 3d
       -0.055761617 0.08248433 0.020011453 0.04560388
0001a0 fa 23 22 3d 6d 52 27 bd 68 a0 1a 3d 56 ef 8a 3c
       0.03958509 -0.04085009 0.03775063 0.016959827
0001b0 ad e5 d1 3d 75 67 86 3d 1c 08 24 3d 4a 80 0c 3d
       0.10248885 0.065627016 0.040046796 0.034302033
0001c0 9f e7 aa 3c 7c de 51 3d da 0b 61 bc d1 89 76 bd
       0.020862399 0.05123757 -0.013735736 -0.060190026
0001d0 81 88 f1 3d 96 e8 ec 3d ce 13 e5 3d 58 e3 d2 3d
       0.11793614 0.115678 0.11185418 0.10297269
0001e0 78 4d b3 3b a1 9f 70 bc ba 68 a0 3d 85 99 ba bc
       0.0054718815 -0.014686496 0.07832475 -0.022778282
0001f0 75 d3 80 3c 91 a0 88 bd 98 26 cd 3c a7 9a 46 3d
       0.01572583 -0.066712506 0.025042817 0.04848733
000200 58 da 80 bd 34 96 64 bd 24 9c ba 3c 79 5e a3 3d
       -0.06291646 -0.055807307 0.022779532 0.079770036
000210 34 e4 e8 bc f3 da 8f 3d 9e 51 21 bd 25 d7 19 3d
       -0.028429128 0.07024183 -0.039384477 0.037558693
000220 40 64 fc bc 98 5c ab bd a3 d2 a3 3d 44 40 34 bc
       -0.030809522 -0.0836727 0.0799916 -0.01100165
000230 80 2c 15 bd 75 da 28 bd 00 dd 97 3c 88 26 78 3d
       -0.03641939 -0.04122396 0.018537998 0.06058362
000240 64 85 0e bd 99 0d 92 bc 1f 06 6d 3d 09 f7 97 bd
       -0.03479518 -0.01782875 0.057867166 -0.07420165
000250 9f 62 91 3d dc 76 7f bd 67 94 db bd 2a 7f 4d bd
       0.070988886 -0.062369213 -0.10721665 -0.0501701
000260 ac 67 43 3d 65 5f a9 bc 06 6f dc bd 9f e5 94 bd
       0.04770629 -0.02067537 -0.107633635 -0.07270359
000270 68 e3 97 bb b5 8c 16 3d ac 7d a5 3b ce 72 79 3d
       -0.0046352632 0.036755282 0.0050503816 0.060900502
000280 e8 a0 a7 3d 28 e7 67 3d 8c 9c 83 3d a2 d2 9b bd
       0.08184987 0.056616932 0.06426343 -0.076085344
000290 71 78 8d bd 1a 27 b7 3c 68 8b 2a bc f6 59 a9 3c
       -0.06907738 0.022357512 -0.010409214 0.02067278
0002a0 ce b3 1d bd 05 eb 6f 3c c4 8c e3 3b 0e 7c ae bd
       -0.038501553 0.014643435 0.006944271 -0.08519755
0002b0 5f e8 2e 3c 30 35 ed 3c 4c 39 6b 3c 82 bc 67 3d
       0.010675519 0.028956026 0.014356922 0.05657626
0002c0 4e 15 9f bc 15 a6 aa 3c f6 35 bc bd 20 5b 89 bd
       -0.019419339 0.020831147 -0.0918998 -0.06706834
0002d0 d4 ce c5 bc 30 70 19 bd 0e de bd 3d 36 bf 8f 3d
       -0.024146475 -0.037460506 0.09270869 0.070188925
0002e0 1e 58 31 3d 0a 8f a5 3d b6 cb 04 3d 63 69 13 bc
       0.043296926 0.08083923 0.032420836 -0.008997294
0002f0 dc 37 1f bd b3 e3 47 3c a9 7e 55 3a dc a9 00 3d
       -0.03887163 0.012200284 0.0008144179 0.03141199
000300 15 4c 21 3d fa 76 95 bd b1 60 12 bc 72 bc 2e bc
       0.039379198 -0.072980836 -0.008934186 -0.010665046
000310 77 b8 f2 bc 49 94 d5 bb bd ab 29 3d 10 f4 95 3c
       -0.029628975 -0.006517921 0.041423548 0.018304855
000320 1d e2 0a 3d 1f 03 c1 bc 2b b9 30 bc e5 f9 dc 3c
       0.033907045 -0.023561059 -0.010786335 0.026974628
000330 d5 ac 8d bd a3 53 2a 3c 02 f4 a5 3d ee 00 1a 3d
       -0.06917731 0.010395917 0.081031814 0.037598543
000340 54 b8 1a 3b c0 34 7c bb a9 7b 4e bd 63 ab 13 bd
       0.0023608403 -0.003848359 -0.0504109 -0.03605212
000350 a4 73 3d 3d a6 72 b7 3d 49 b8 08 bd b1 fe 68 3d
       0.04625286 0.08957414 -0.033378873 0.056883518
000360 12 8a 29 3d 61 bd 8e 3c c3 ac 08 bc fd a4 85 3d
       0.04139144 0.017424287 -0.008341971 0.0652561
000370 e3 7d 87 3c 31 55 f8 bc 22 ca 71 3d 15 dd 67 bd
       0.01653952 -0.03031406 0.05903066 -0.056607325
000380 6d 8b b6 3d 78 00 07 3d 76 b7 57 3d 9c 55 1f bd
       0.08913312 0.03295943 0.052665196 -0.038900003
000390 ea 82 8a bd e8 9e 99 3c 03 cf 28 3d f0 a4 b4 3d
       -0.06763251 0.01875253 0.041213047 0.08820522
0003a0 ea 03 eb bc 7a 7b 2e 3d e6 d3 91 bd 3b 35 49 3d
       -0.02868839 0.042598225 -0.071204945 0.04912303
0003b0 d0 d5 29 3d 08 81 e5 3d c4 18 78 bc 73 af 19 bd
       0.041463673 0.112062514 -0.015142623 -0.037520837
0003c0 74 ac c6 bd 79 e6 ad bb 05 42 21 3d 05 ad 40 bd
       -0.097008616 -0.0053070155 0.0393696 -0.047040004
0003d0 43 68 d9 bb a3 7b 24 bc ec f6 b4 3d be 77 96 3d
       -0.0066347434 -0.010039243 0.08836159 0.07347058
0003e0 1c 23 ad bd 76 f8 63 3b 23 64 c1 3c aa 08 18 bd
       -0.08453962 0.0034785545 0.02360732 -0.037117638
0003f0 85 e2 13 bd b0 48 56 3a 94 17 d0 3d 20 c6 b0 bd
       -0.036104698 0.00081742834 0.10160747 -0.08631539

lstm.bias_hh_l0 f4 [512]
000000 87 d7 9e 3b f5 ea ab bd 53 e4 c6 3d 59 17 a3 3c
       0.00484747 -0.08394424 0.09711518 0.019908594
000010 ca 57 28 3d e4 ae 82 bd b8 6e 8f 3d bf 8d c7 3c
       0.041099347 -0.06381014 0.0700354 0.024359582
000020 11 e6 5d 3d fd 5c 8d 3d 3c e5 e5 3b 7b 69 8f bd
       0.054174487 0.06902502 0.0070158523 -0.07002541
000030 6c 95 dc 3d ce b0 91 3d ec 21 c8 3d 49 73 03 bc
       0.107706875 0.07113801 0.09772095 -0.008023092
000040 dc ad d2 3d 78 04 4d 3d 7a 30 aa 3d d8 7c 84 3d
       0.10287067 0.05005309 0.083100274 0.064691246
000050 e1 72 8e 3d 1b 8e d3 3d d3 01 21 3c b9 37 22 bb
       0.06955505 0.10329839 0.009827095 -0.0024752452
000060 98 b4 07 3e fe ba d0 3d 8c ea 97 3d 74 98 c5 3c
       0.13252485 0.10191916 0.07417783 0.024120547
000070 15 f7 af bd 78 5a 99 bc 17 d6 71 3c d1 76 2c 3c
       -0.08592049 -0.018719897 0.014760516 0.010526375
000080 66 17 4f 3d bf 2f 34 bd 1a 97 42 bd 04 a9 3a 3d
       0.050559424 -0.043990847 -0.047507383 0.045571342
000090 df 1a 66 3e 33 3c 9d 3d c9 06 5e 3d 60 a2 2c 3c
       0.22471188 0.07677498 0.05420569 0.01053676
0000a0 47 5d 89 bd c0 2d 03 3e 7f 8b 6f bc 78 d8 67 3d
       -0.06707244 0.12810421 -0.014620661 0.056602925
0000b0 54 3a fe 3c 52 15 40 3d 4d 0d 76 bc 8f b1 9c 3c
       0.031033672 0.046895333 -0.01501782 0.019127635
0000c0 11 3b e9 bc 4b 41 85 3d ea 6e 71 bd 79 d5 1b bd
       -0.028470548 0.06506594 -0.058943667 -0.03804538
0000d0 03 9d 77 3d 40 10 d5 3d 74 ff ed 3c 0b 96 98 3d
       0.060452472 0.1040349 0.029052474 0.074504934
0000e0 a3 67 eb 3d 0e 1a a1 3a d6 92 c2 3d 45 68 ef 3d
       0.114943765 0.001229109 0.09500663 0.1168981
0000f0 bd 25 23 3d 24 0c 8a bb ea 67 f8 3d 71 9f 8c bd
       0.039830912 -0.004212873 0.12129195 -0.068663485
000100 c1 05 7f 3c 3e 73 08 3e e3 51 07 3e 65 f9 06 bc
       0.015565337 0.13325211 0.13214831 -0.008238171
000110 ed c9 06 bc e2 00 b1 3d a2 04 b9 3d 76 44 b3 3d
       -0.008226854 0.086427465 0.09034087 0.08753292
000120 14 6e 0d 3d 0a 7f 54 bc 38 ac 7b 3c 11 58 42 3d
       0.034528807 -0.012969742 0.015360884 0.047447268
000130 53 28 03 3d c2 f8 c9 3d c6 12 b7 3d 5b 37 f8 bc
       0.032020878 0.098619 0.089391276 -0.030299833
000140 46 3a eb bc ed ff 8e 3d f6 d2 f3 3c ed 04 71 bd
       -0.02871431 0.06982408 0.02976368 -0.05884259
000150 96 36 58 bc 4e fa 05 bd 0c 30 0c bd c0 83 39 bd
       -0.013196608 -0.032709412 -0.03422551 -0.045291662
000160 e8 a8 c6 3d 8d 7f 02 3e c3 57 96 bc 75 87 a7 3c
       0.09700185 0.1274397 -0.018352395 0.020450333
000170 c9 41 52 bd 66 5f c2 bb 66 ec 8a 3c 81 90 5b 3d
       -0.05133227 -0.0059317825 0.016958427 0.053604607
000180 78 26 ff 3d 41 a8 04 bd cb cf 77 3a 34 0f 0c bd
       0.12458509 -0.032387022 0.0009453266 -0.034194186
000190 1a 83 7b bc e5 19 09 3d 45 99 00 3e 59 1e b5 3d
       -0.015351081 0.03347196 0.12558468 0.08843679
0001a0 9b e8 2a bd e6 cd 6f 3d b1 dc 24 3c d3 12 20 3e
       -0.041725736 0.05854597 0.010062383 0.15632181
0001b0 8a d2 f2 b7 d8 47 fd 3d 27 fa c2 3d 7e 98 23 3d
       -2.8946688e-05 0.12367219 0.09520369 0.03994035
0001c0 58 3e 89 3d c2 a0 fb bc f6 12 b3 3d 8e 61 b9 b9
       0.06701344 -0.030716304 0.08743851 -0.00035358634
0001d0 a3 99 12 3d d0 f0 f2 3d 96 a7 de bc 37 ec 02 bd
       0.03579105 0.118623376 -0.02717952 -0.031963553
0001e0 73 82 aa bd d2 d0 71 bc 3a 2a 2c bd 76 39 d9 3d
       -0.083256625 -0.014759259 -0.042032458 0.10606663
0001f0 42 82 81 3c ae 72 b7 3d ef 5a 06 3c d8 3b 2c 3d
       0.015809182 0.0895742 0.008200391 0.04204926
000200 4a 47 85 3d 99 a1 9d bd ac 2f a5 3d 76 e1 2f bd
       0.06507738 -0.07696838 0.08065733 -0.042939626
000210 23 8b 54 39 15 de 87 3d a7 47 d1 3c 5a 3c 91 3b
       0.00020269728 0.06634156 0.025546862 0.0044322433
000220 63 7c ab 3d 4a ff 15 bd 2f ac 50 3d e3 88 81 bd
       0.08373334 -0.036620416 0.050945457 -0.06324937
000230 f2 7b 28 3d 82 47 a6 3d a2 d2 17 bd 03 a5 26 bd
       0.04113383 0.08119108 -0.03706611 -0.04068471
000240 46 9a 86 bd cd 4a 98 bc bf d8 24 bd a5 57 cc bb
       -0.06572394 -0.018590355 -0.040245768 -0.006236034
000250 a9 98 b1 bc c2 86 35 3d a0 ec df bd 60 61 13 bc
       -0.02167924 0.04431797 -0.109338045 -0.008995384
000260 7f 3e 12 3d 7e 68 73 3c 0c ab 2f 3d 52 1c 2c bd
       0.035704132 0.014856456 0.042887732 -0.042019196
000270 e8 c2 ee bb 44 05 8a bd 62 60 29 bd 7f 2e 68 bd
       -0.007286418 -0.067392856 -0.041351683 -0.056684967
000280 48 06 ad 3c 40 72 7c bd bb 4c 0d 3d e5 6e 9c bd
       0.02112116 -0.061632395 0.034497004 -0.07638339
000290 bb ec 2d bc 6d 2b 97 3d e3 c5 2b bd 7b 65 89 bc
       -0.010615523 0.0738133 -0.041936766 -0.016772022
0002a0 a4 bd 9e 3c 95 a7 42 3d 13 35 aa 3c e6 0f 85 bd
       0.019377537 0.0475231 0.02077726 -0.06497173
0002b0 c0 89 8c bc 07 b5 92 bd a0 56 1a bd 83 45 a7 bd
       -0.017155528 -0.071634345 -0.03768027 -0.08167555
0002c0 f2 2e 37 bd 01 2b 1c bd 63 93 45 bc 7a 3c 9c bc
       -0.044722505 -0.03812695 -0.0120590655 -0.019071806
0002d0 e7 d4 60 3d b4 e7 4a 3d 53 f4 35 3c ac 72 9f 3d
       0.05489054 0.049537376 0.011105615 0.07785544
0002e0 96 ec 3f bd f6 43 33 3d b1 5d 8c 3d 7f a4 9e 3d
       -0.046856485 0.043765984 0.06853808 0.07746219
0002f0 89 fb 61 bd 82 cf 19 bd b4 be 8e 3d 4c 04 51 3d
       -0.055171523 -0.03755141 0.069699675 0.05102949
000300 23 de 5a 3d 04 73 87 bd 4b 00 5c 3d f7 59 11 3d
       0.053434502 -0.06613734 0.053711217 0.035486188
000310 8f ec a2 3d e8 76 ca bc 78 8a 90 3c ba cd 77 3b
       0.07955276 -0.024714902 0.017644152 0.0037811832
000320 64 9e 96 3d e1 fd ba 3c f0 c8 c2 3d bf c4 8a 3d
       0.07354429 0.022826137 0.09510982 0.067758076
000330 79 3f 38 bd 54 0e 04 3c 2c ff 76 bd 83 59 8d 3d
       -0.044982407 0.008060057 -0.060301945 0.06901839
000340 e0 09 62 bd 0e e5 2d 3d 68 ad 51 bc f1 6f 88 3d
       -0.0551852 0.04245477 -0.012797691 0.06661976
000350 0c 3c 08 3d 50 d2 8d bc 64 a1 7a 3d 1c 55 7d bc
       0.03326039 -0.017312199 0.06118907 -0.015462186
000360 44 55 3e 3d 81 fe a6 bd 2e a0 8c bc ff 67 86 3d
       0.046468034 -0.081540115 -0.017166223 0.065628044
000370 e0 c0 48 3c 3e 0f 11 bd 66 9f 74 bd 53 9e 0c 3d
       0.012253016 -0.035414927 -0.059722327 0.034330677
000380 a1 46 a1 3d f6 3e 5d bc 97 0e 01 bd 90 c4 85 3d
       0.078747995 -0.013503781 -0.031508055 0.06531632
000390 5b 0c fa bb 1c 92 25 bd 57 77 26 3d 40 b6 bd 3d
       -0.0076308674 -0.040422544 0.040641155 0.09263277
0003a0 2d 43 c0 3d 50 5e 73 3b 0e bf 4e 3d 4b 58 bc bd
       0.09387813 0.0037135072 0.050475173 -0.09196528
0003b0 06 64 3f 3c cf 13 b0 3d 55 16 9d 3d 44 b4 6b bd
       0.011681562 0.08597528 0.07670275 -0.05754496
0003c0 1e 6f bb bd a3 f3 28 bd 95 f6 18 bd 91 69 a8 bd
       -0.09152053 -0.041247975 -0.037344534 -0.0822326
0003d0 ae 12 d2 3d e3 a0 ac 3b dc a3 1b bd b2 aa 9b 3d
       0.10257469 0.0052682026 -0.037998065 0.07600917
0003e0 ff 57 5a 3d 6a 8b 44 3d 10 71 83 bd 06 fc c9 bb
       0.053306576 0.047984518 -0.06418049 -0.0061640767
0003f0 0d 06 bc 3d cb 02 c8 3c 59 20 83 3d 8c 0e b3 bd
       0.091808416 0.024415394 0.06402654 -0.08743009

fc.weight f4 [1, 128]
000000 fd 0c e0 bc ad 19 3d bc 5c 4b a5 bd 20 f9 d7 3d
       -0.027349943 -0.011541766 -0.08071014 0.10545564
000010 b5 54 6d 3d 2d ed ce 3d 0d 02 22 3e 5d ba 8c 3d
       0.05794211 0.101038314 0.15821095 0.068714835
000020 3f 7d 97 3d 7c 5a 06 bd bc 96 f4 bd e6 8d d8 3c
       0.07396936 -0.032801136 -0.11942813 0.02643485
000030 73 58 c7 bd e5 3f 81 3d bf e0 93 bd c7 eb 0e be
       -0.09733667 0.06311015 -0.07220601 -0.1395713
000040 67 e7 ec bd da 82 c1 3d bb 8d c3 bd 24 54 ca bd
       -0.11567574 0.09448786 -0.09548517 -0.0987933
000050 8b 16 20 3e 8f ac e7 3d ae 88 79 bd ce b2 c6 3b
       0.156336 0.1131221 -0.060921364 0.0060637956
000060 02 13 98 3d f9 05 98 bd 69 08 bc bd ce 47 b6 bd
       0.074255005 -0.07423014 -0.091812916 -0.089004144
000070 56 50 e6 bc 08 ef ce 3d 2b cd 8e bd 2f a1 a4 bd
       -0.028114479 0.10104185 -0.069727264 -0.08038556
000080 5f 37 d4 bd f2 a5 f8 bd 1a 2f 02 be 7a 9d 94 bc
       -0.10362124 -0.121410266 -0.1271328 -0.018141497
000090 48 dc fb bd 04 b3 99 bd b1 17 be bc 35 e7 8e bd
       -0.12297875 -0.07504848 -0.023204656 -0.06977693
0000a0 81 33 5c bd a5 41 15 3e 8d 1a f8 3c 29 dd d3 bc
       -0.053760055 0.14575823 0.030286098 -0.025862293
0000b0 91 13 42 3d 55 bc 91 3d f6 7e 08 3e 4c eb be 3d
       0.04738194 0.071159996 0.13329682 0.09322223
0000c0 54 98 a7 bd 1b da de 3d ac 8a ab 3d 3a 1c 6e 3d
       -0.08183351 0.10881444 0.08376059 0.058132388
0000d0 30 09 d0 bd 88 17 dc bd 4b 28 1c 3d b8 f2 b8 3d
       -0.101580024 -0.10746676 0.038124364 0.0903067
0000e0 ce 0f 19 3e c8 50 79 3d 4d ad e2 3d 85 78 db 3d
       0.14947435 0.060868055 0.11068211 0.10716347
0000f0 ab 01 a6 3d 53 9e 13 be eb a1 05 3e 86 0d 8c 3c
       0.08105787 -0.14415865 0.13050048 0.017096292
000100 00 d7 2f 3c 7d 4a ef bd 75 5f 01 3e 50 e8 c2 3d
       0.010732412 -0.116841294 0.1263407 0.09516966
000110 33 e1 88 bd 3d c4 e9 3d bd 21 fa bd 45 47 c4 bd
       -0.06683578 0.114143826 -0.12213466 -0.09583906
000120 0b 5c b9 bd 45 2b fe 3d c5 bc fc 3d e9 63 06 3e
       -0.09050759 0.12410597 0.123406924 0.1312405
000130 49 31 80 bd e5 7a f4 bd ff 87 13 be c7 2f 37 bc
       -0.062594004 -0.11937503 -0.14407347 -0.011180825
000140 1f a0 fb 3d 42 14 e9 bd be 71 03 3d cb 7e a4 3d
       0.122864 -0.11380817 0.032090895 0.08031996
000150 bd 57 e1 bd 77 9b ac bd f0 6f 0f 3e 14 59 80 bd
       -0.11003063 -0.0842809 0.14007545 -0.0626699
000160 eb 8c 37 3d be a7 e8 3d 25 ef f4 bd d1 09 f3 bd
       0.044812124 0.11360119 -0.11959676 -0.11867107
000170 9f db e6 3a 8c e7 15 3e e3 cc 92 3d 77 b2 ac bd
       0.001761306 0.1463911 0.07167985 -0.08432477
000180 60 e5 b3 bd 4e 16 12 bd 74 6c 8f 3b 9e 12 9b 3d
       -0.08783984 -0.035665803 0.0043769423 0.0757191
000190 40 4d 7a 3d 01 9f 48 bd b5 f3 ce bd 23 75 01 3e
       0.061108828 -0.048979763 -0.10105077 0.1264234
0001a0 23 52 b5 bd dd b1 a7 3d 31 cc ee 3c 32 ac d9 bd
       -0.08853557 0.081882216 0.0291501 -0.10628547
0001b0 4b 9d e2 3d 33 e6 0d 3e 2d 7e 1d 3d 6f c7 d0 bc
       0.110651575 0.13857345 0.03845041 -0.025485722
0001c0 e8 87 dd bd 6a 3a 55 3d 96 e1 b0 bd 60 38 aa bd
       -0.10816938 0.05205766 -0.08636777 -0.08311534
0001d0 64 70 e3 bd 19 c0 0b 3e f6 88 d9 3d f4 ae 77 3d
       -0.11105421 0.13647498 0.10621826 0.060469583
0001e0 14 29 28 3d 4e 97 f2 bd aa 19 02 be 97 7a e6 3d
       0.0410548 -0.11845265 -0.12705103 0.11253851
0001f0 4f ca 87 bd 15 7a 69 3d 28 e4 18 be 96 81 bb bc
       -0.06630384 0.057001192 -0.14930785 -0.02288894
