models/GLW model.pth (torch, 270882 bytes, 5 tensors)

lstm.weight_ih_l0 f4 [512, 1]
00000000: 690c 25bb 44ff 9e3a 2271 713d 2152 44bd
00000010: 7c8c f5bd 0769 19be d3fa 723d bc65 c4bd
00000020: 8ba8 343b eb75 473d 2d4c 433d 7bbc 9f3c
00000030: f7b4 0f3e c6b6 f9bd e164 c43d 4791 bdbd
00000040: 1378 c63c b012 c73c 9000 a6bd e866 23be
00000050: a802 cb3d 581c 08bb cdd8 d23d d6d7 0fbe
00000060: 573a 9a3c 4454 4ebb 2352 69bd 80e5 6cbc
00000070: 4dc0 073d 32e3 583d f8d4 6f3d 8354 abbd
00000080: c15e 7a3d 975b 863d 08c6 93bd b2e4 bebc
00000090: 22fb 5cbd 0f07 8cbd 6760 a0bd 6138 31be
000000a0: d1bd cb3d 826d 8bbd 4a28 1f3d b793 183d
000000b0: c2c1 d1bc bbb9 1d3c 2243 d33d 03ce 033c
000000c0: bca0 583d 158c 8cbc 3008 b2bd 52e2 f93d
000000d0: 6e48 26bd 4e11 803c 16e4 863c c68d 633d
000000e0: 4394 3dbc 9ccf d2bd 6981 763e 9d82 6b3b
000000f0: 35ac e43c a90c 293d f468 84bd 8bf0 d03c
00000100: 9305 6f3d 776d e33c 26b3 6f3c 0b8f 593d
00000110: 6545 10bd 6ff5 dfbd a2fd c93d cfa3 74bd
00000120: 8069 55bd 3c31 a03d c6dc 0b3d 8994 043d
00000130: ff0d 363c 6b8e 263d 9e2a 3ebd ecd8 16bd
00000140: adb8 f9bc 6d9f e1b9 2aab 003e 849a 30bd
00000150: 6ef5 f63d 2ba8 3e3b 44cb c83d fd82 cb3d
00000160: 813e c5bd faf0 ba3d 28b5 0bba b28c a43b
00000170: 08c6 2dbd be14 b1bd ae32 313d 019a 58bd
00000180: e50c 46bc d8b0 22bd 7a96 02bc 7489 e53c
00000190: 865b 373d 915c 973d d19d 95ba 0ab4 013e
000001a0: 5c8c e23d a5ba d2bc 12ff 9f3c 1e92 2dbe
000001b0: fc79 97bd 347c 343e aed0 c23d 5556 43bd
000001c0: 6cb7 023e 06c5 3cbe 55ea 9e3d 1f04 5cbd
000001d0: a9ef f3bd af3f 2cbd 962e 7fbd 5f71 b33d
000001e0: 027b de3c 98d0 903d 9055 ffbc 8b54 6e3d
000001f0: 4781 bdbb 478e 553d 73ee 213b 55dc 023e
00000200: 775f c7bc c59f 123d 2f00 f43d b598 cd3d
00000210: e669 81bd ede5 debd 1061 0a3e 8837 93bd
00000220: f1e8 dfbd 3d24 fa3d 2a41 2d3d 3bb2 3e3d
00000230: c605 c93d 6151 37be 11f5 d53c a68c fb3c
00000240: 3c95 063c e181 f6bc bbb7 c4bd 0776 4bbe
00000250: dc8f fc3d 31af a63d 2d9f b83d fbc3 62bd
00000260: 35c6 ef3d fc0e ac3c f614 4bbd 8c0b b93d
00000270: 8138 85bd b219 f73d f761 703d e9f4 f1bd
00000280: f81d a43d fe7f 563d 170a f8bc f587 d33d
00000290: 7fe8 e43d b826 463d 4517 a53c 6249 6dbd
000002a0: ddc7 2f3d 014c 03be 3c6b 2bbd 2d5a da3c
000002b0: c11e c33d d932 30bd 93b0 aa3d 2ede e23d
000002c0: ccef 30bd 5b1a 82bd 62d4 a6bd fa84 893d
000002d0: 26c1 b4bd 31b8 113d 99a9 df3c ddc0 943b
000002e0: e2e9 853d b3ec 40be ca51 333e 6629 973d
000002f0: 0046 5d3d 1c97 d3bc 6b13 8dbd da58 693d
00000300: 4c68 1a3d c3bf 25bd f678 c33c 8bc0 5bbd
00000310: 3d80 5dbd 6842 2a3a 1bfb 4d3d 15d2 20bd
00000320: 71fe 92bd fb23 d23b e653 dc3c 1da7 c4bd
00000330: 4b3e 96bd e2e4 c9bb 2a67 d7bc f0e4 ccbb
00000340: e19b f23d 08ce 273d 1d99 a43b a9ed cebd
00000350: c61d ff3c 9699 a53c 135d a23d acde 943d
00000360: cd4e e0bd d3b6 bc3d 56c5 efbd ec30 cd3c
00000370: b6d7 46bd 2edd 32bc 81d4 35bb 1cc9 0f3d
00000380: 28cc 1d3d 34fe 00be 5147 01be c379 1bbd
00000390: 08ca 54bd 9056 3a3d 5669 79bd 5122 f23d
000003a0: b631 1f3e d049 c4bd e792 803d 8f5d 5cbe
000003b0: aa36 1d3d ef29 173e f6ac c93d d3f4 2fbd
000003c0: c501 f33d e363 c3bd 81ae 77bc aeac 9fbd
000003d0: af6d e8bc 9268 3bbb 9361 6ebc 849c c53d
000003e0: e4a8 703d b3b4 273d 9e72 dc39 2e1e 673a
000003f0: 5b82 323d 1e89 e03d 9570 88bc 2b0d 25bd
-0.00251844 0.0012130518 0.058945782 -0.047929887 -0.11989686 -0.14981471 0.059321236 -0.09589717
0.002756628 0.04869644 0.04768007 0.019499054 0.14033876 -0.121930644 0.095895536 -0.09256225
0.024227178 0.024300903 -0.08105576 -0.15957224 0.09912616 -0.0020768847 0.10295258 -0.14047179
0.018826647 -0.0031483332 -0.056963097 -0.014459014 0.033142377 0.052951045 0.058552712 -0.08365729
0.06112552 0.06560438 -0.07215506 -0.02330241 -0.053950436 -0.06837284 -0.07830887 -0.17306663
0.09948314 -0.06807996 0.038856782 0.037250247 -0.025605086 0.009626801 0.10315539 0.0080447225
0.052887663 -0.01715664 -0.08692968 0.1220137 -0.040596418 0.015633252 0.016466182 0.055555128
-0.011570993 -0.102935046 0.24072804 0.0035936006 0.027914146 0.04127184 -0.06465331 0.025505325
0.058354925 0.027762158 0.014630115 0.053114932 -0.03522243 -0.109354846 0.0986283 -0.059726533
-0.052102566 0.07821891 0.034146093 0.032368217 0.011111735 0.040663164 -0.04642736 -0.036827967
-0.030483568 -0.00043034126 0.12565294 -0.043116108 0.12058531 0.0029091935 0.09804395 0.099370934
-0.09631062 0.09127994 -0.00053294236 0.005021655 -0.042425185 -0.086465344 0.043261223 -0.052881245
-0.012088035 -0.039719433 -0.007970447 0.028019644 0.044765018 0.073907025 -0.0011414831 0.12666336
0.11061928 -0.025723765 0.019530807 -0.1695027 -0.073963135 0.17625505 0.09512459 -0.047689755
0.12765282 -0.18434533 0.07759539 -0.053714868 -0.11910946 -0.04205292 -0.062300287 0.08761858
0.027158264 0.07071036 -0.031168729 0.058186095 -0.0057832333 0.05213764 0.0024708777 0.12779362
-0.024337513 0.0357969 0.119140975 0.10038892 -0.06319027 -0.108836986 0.13513589 -0.07188326
-0.10933102 0.12213943 0.042298473 0.046556693 0.09815554 -0.17902137 0.026117833 0.030706715
0.008214291 -0.030091228 -0.09605356 -0.19869243 0.123321265 0.08138884 0.09014735 -0.055362683
0.11707727 0.021003239 -0.049580537 0.090354055 -0.06504918 0.12065448 0.058687177 -0.11814291
0.080135286 0.052368157 -0.030278249 0.10328666 0.111771576 0.04837677 0.020152697 -0.05793131
0.042915214 -0.12821962 -0.041850314 0.026654327 0.0952735 -0.043017242 0.0833446 0.11077534
-0.043197438 -0.06352683 -0.081459776 0.067148164 -0.08825903 0.03557605 0.02730255 0.0045395927
0.0653875 -0.18840294 0.17511669 0.07380943 0.054021835 -0.02582889 -0.06888469 0.0569695
0.03769712 -0.04046608 0.02386139 -0.05365042 -0.054077376 0.00064948807 0.0502883 -0.03926285
-0.07177437 0.0064129806 0.026895475 -0.09602187 -0.073361 -0.006161318 -0.02629431 -0.0062528774
0.11846138 0.04096797 0.0050231353 -0.10103924 0.031142127 0.020214837 0.07927909 0.07269034
-0.1095253 0.092145585 -0.11707561 0.025047742 -0.04854556 -0.010916991 -0.002774507 0.035103902
0.038524777 -0.12596971 -0.12624861 -0.037957918 -0.051950485 0.04549271 -0.06089147 0.118229516
0.15546307 -0.09584391 0.062780194 -0.21520065 0.03838221 0.1476209 0.09847443 -0.042958092
0.11865572 -0.09540536 -0.015117289 -0.07796608 -0.028372614 -0.0028596264 -0.014549631 0.096489936
0.058754817 0.040943813 0.00042047066 0.0008816448 0.043581348 0.10963653 -0.016655246 -0.04029576

lstm.weight_hh_l0 f4 [512, 128]
00000000: 4e31 9c3d 6722 4abc ef0e 30bd 77e0 a4bd
00000010: ea00 25bd 4143 da3d da2c 013b 155a dbbc
00000020: c520 d5bb 5186 133d 63a8 13bd da28 11bd
00000030: 2281 903d 9b8f d63d ab66 87bd 44f0 053c
00000040: 5946 c33d 52c0 8cbd 4891 53bd f763 d9bd
00000050: 8894 1f3d e7a4 b83d 2aae 90bb d5eb edbb
00000060: 3515 22bd 5afb 82bd 6266 583d 40d3 95bd
00000070: be73 a0bd 7fb9 a93c bac9 ae3c 540c d9bd
00000080: fdff f13c e094 01be ddee e33d 6a80 88bd
00000090: 6d86 df3d 0971 c43c 7a9e 9b3d 8b88 fcbc
000000a0: c072 d9bd a387 9d3d 86e9 b1bd 4ace bd3c
000000b0: 2912 723d 24d3 b93b ae26 313d 2be6 53bc
000000c0: 6165 3ebd d310 71bd 4b05 1fbc 7f0e f83c
000000d0: 9d19 db3b 30bb 17bd 1843 00bd 581b a53d
000000e0: 3ed4 8f3d a290 37bd b44b 343c bc25 7a3d
000000f0: 1288 c13d c5e1 b2bc 9d95 603c 2443 bebc
00000100: 86dc b6bd dfb5 d9bd 0f86 d23c c340 a73c
00000110: 2bcd b23b 65ce 0fbd 9756 323d 5e75 bbbc
00000120: f30e 9d3d dcd0 fcbd 5183 933d f233 5e3d
00000130: 38f7 a33d 36cb 88bb f249 cebd baf9 c1bc
00000140: 97a9 593d e74e f8bc bbbd b9bd 2512 55bc
00000150: 1925 1f3c 572b fdbd bb27 a4bd 3939 183d
00000160: 5dc2 53bd f441 be3c ee69 e5bd b2b8 debd
00000170: 80b7 863d 9d06 863d 9cd9 c3bb 6091 c7bd
00000180: 2d17 c53d 9287 b8bc 6c48 a0bc b11a d23b
00000190: 220e f33c 4fc5 f3bd 4696 293d ece0 993d
000001a0: 44c0 04be 8296 673b eaa7 6dbc f8b2 213d
000001b0: 2af0 36bd 46e6 953c 85c9 7dbc cfc3 fa3a
000001c0: e885 e23c e89d 6a3c 851b 633d eb78 c93c
000001d0: a6a6 db3d 79e9 993d 4d0b 1fbd fd66 e5bd
000001e0: 905d b43d 46a0 38bd c2b1 073c e22c 99bd
000001f0: dfee a03c df38 86bd 419d ec3c 31a8 423c
00000200: a200 a13d c959 cf3c 918f 15bd 62d2 78bd
00000210: 2fa1 593c 5a2c 6cbc c287 0abd 6557 c0bc
00000220: c930 cabc b9ec a7bd cdeb 95bd 869c 40bd
00000230: d9e7 9f3c 2808 ea3c 8cad b6bc 4c03 87bd
00000240: c124 f1bc 7cd2 a43d 50bb 733d c80d 5bbd
00000250: e5d9 66bd a723 053d e1e1 52bd a0da 9bbd
00000260: 70d1 29bb 7c17 1dbd 40fb 33bd 5201 1a3d
00000270: d312 b73c 5e34 863d 026e 8c3d 00fc babc
00000280: 53e4 20bd eacb 133d 8496 313c 0575 34bd
00000290: 2a17 c9bc 915d 0fbc 9351 b73d a8ef ddbc
000002a0: 9aa5 643d e851 803d adda 39bc 8e58 81bd
000002b0: 1895 3fbd 929e b0bd 9be1 9e3d 670b 2c3d
000002c0: 5ea3 c73c 6673 16bd 4135 babd f535 a0bd
000002d0: 2872 8e3c 35b6 ddbb 6cd7 6a3d 8a6e 98bd
000002e0: 59fc 83bd 00af 313d 04f4 833d 92f7 02bd
000002f0: 350f 30bc 066d 96bb 01ec a33d 4a54 043d
00000300: 1b3b 6cbd 4151 46bd b45f 7cbd 3f42 9f3d
00000310: e9cc 10bc e092 01bd ba70 bf3d 9c61 b1bc
00000320: 894e 86bc 3771 83bd 9fce 813d 2fe0 30bd
00000330: 63d8 b7bd 5299 c7bc ebd4 ac3d 3ccf 48bd
00000340: df42 2f3d 78e4 b5bb 7749 313d f3f2 43bd
00000350: bf35 dd3c bb31 653d 2de9 863d 8d8f 993b
00000360: e49b b2bd 4f02 663d 073d 0fbd d121 81bd
00000370: 4fa8 ba3d b56a 173d d692 af3c 8503 4c3d
00000380: 5eed 3abd e21a 293d ec7f cd3d 6aec 883d
00000390: 36ba bbbd becd 143d d2e4 5fbd 0d09 843d
000003a0: 6685 67bd f05b 10bd bd4b aebc 66d5 a83c
000003b0: 829a 2f3d c7ae c53d fca8 3bbd f17a a3bd
000003c0: 37a8 90bd 8f7b 96bd b352 ebbc 2e44 29bd
000003d0: 491b 723d 045c 6fbc d5d7 5e3d aef8 823d
000003e0: 5661 b53c 2916 44bc e42c f6bc 1573 27bd
000003f0: 69ab 7d3d 8a82 d73c 3893 42bd b153 e3bb
0.076265916 -0.012337304 -0.04298299 -0.08050626 -0.040284075 0.10657359 0.0019710572 -0.026776353
-0.0065041506 0.036016766 -0.036049258 -0.03543935 0.0705588 0.10476609 -0.06611379 0.00817496
0.09534902 -0.0687262 -0.051652223 -0.1061477 0.03896001 0.090158276 -0.004415293 -0.0072607794
-0.039571006 -0.06395598 0.052832015 -0.07315683 -0.07834576 0.020718334 0.021336425 -0.105980545
0.02954101 -0.12654448 0.11129544 -0.06665118 0.109143116 0.02397968 0.075985864 -0.030826828
-0.1061759 0.07691886 -0.08687119 0.023169655 0.05909935 0.005670922 0.04324978 -0.012933294
-0.0464834 -0.058853935 -0.009705852 0.03028035 0.006686403 -0.03704375 -0.031313986 0.08061856
0.07022904 -0.044815667 0.011004377 0.061071143 0.094497815 -0.02183617 0.013707546 -0.023225375
-0.0892878 -0.10630392 0.02569869 0.020416623 0.005456587 -0.035108943 0.04353961 -0.022883113
0.07668867 -0.12344524 0.07202781 0.054248758 0.080061376 -0.0041746153 -0.10072698 -0.02367865
0.05314025 -0.030311061 -0.09069391 -0.013004814 0.009713435 -0.12361782 -0.080153905 0.037163947
-0.05169903 0.023224808 -0.11201845 -0.108750716 0.065779686 0.0654423 -0.005976869 -0.09744525
0.09623561 -0.022525582 -0.019565783 0.0064118733 0.029669825 -0.11902868 0.041403078 0.075136036
-0.12963969 0.0035337512 -0.014505366 0.03947732 -0.044662632 0.01829828 -0.0154899405 0.0019131842
0.027651742 0.014319874 0.055446167 0.024593791 0.10725145 0.075152345 -0.038829137 -0.11201284
0.08806908 -0.045074724 0.008282127 -0.07479264 0.019645153 -0.06553816 0.028883578 0.01188092
0.07861449 0.025311368 -0.03651387 -0.06074751 0.013283058 -0.014414871 -0.033820875 -0.023479173
-0.024681466 -0.08199448 -0.07320366 -0.047024272 0.019519733 0.028568342 -0.02229955 -0.06592426
-0.029436471 0.08047959 0.059504807 -0.05347994 -0.056360144 0.032504704 -0.051484946 -0.07610059
-0.0025912188 -0.038352475 -0.043940783 0.037598915 0.022347843 0.06552957 0.0685692 -0.022825241
-0.039280247 0.03608314 0.010839108 -0.04405691 -0.024547178 -0.008750335 0.08951106 -0.027091816
0.055821992 0.062656224 -0.01134364 -0.063157186 -0.046773046 -0.08623995 0.077578746 0.04200306
0.024369892 -0.036731146 -0.090921886 -0.078227915 0.017388418 -0.0067661055 0.05733435 -0.07442959
-0.06444616 0.043379784 0.06443027 -0.031974383 -0.010745813 -0.0045906333 0.080039985 0.032306947
-0.057673555 -0.048417334 -0.061614707 0.07776307 -0.008837917 -0.03163421 0.09347673 -0.02165299
-0.01639487 -0.064180784 0.06338238 -0.043182548 -0.08976819 -0.024365101 0.084390484 -0.04902576
0.042788383 -0.0055509172 0.043282952 -0.047839116 0.027003167 0.05595563 0.065874435 0.004686302
-0.0872114 0.056154545 -0.03497031 -0.06305278 0.091141336 0.036966998 0.021432322 0.049808044
-0.045636527 0.041285403 0.10034165 0.066857174 -0.09166376 0.036329024 -0.05466158 0.06447039
-0.056523703 -0.03524393 -0.02127635 0.020609569 0.04287196 0.09652477 -0.045815453 -0.079824336
-0.070633344 -0.07347786 -0.028725957 -0.041324787 0.059108052 -0.014609341 0.054405052 0.06395088
0.02214114 -0.011968174 -0.030050702 -0.040881235 0.061931048 0.026307363 -0.04750368 -0.006937467

lstm.bias_ih_l0 f4 [512]
00000000: 3b85 48bd 5a76 aebc 917d 25ba fc7a c43d
00000010: 46b6 2d3d faff 1a3d c4a3 d63d ab65 77bc
00000020: a26b ddb8 af0e 753d ed63 3d3d a05b 52bd
00000030: 5136 633d a1be 44bc a321 1e3d 6702 70bd
00000040: 4da7 023d f88c f6bb 44f1 a1bc 5451 963c
00000050: 1d66 dc3d eb80 aa3d 302e 2a3d 964b 2dbd
00000060: a7be a83a 28cb 82bd fb0c c2ba fe1f fd3d
00000070: 3a86 0c3d 95d7 533d c40d 903d 41d4 ba3d
00000080: 2df4 9b3d c2f7 ce3c 148a aabd ff5a c23d
00000090: 9b74 cd3d acee 0bbd ac27 d33d c161 6ebb
000000a0: a111 30bd d24f 35bd e534 b93d 0a93 28bc
000000b0: c033 373d 42f7 863c 6e06 b43c 8c12 c13d
000000c0: 1516 753c 2175 843b b851 b0bc 7595 67bd
000000d0: 68b0 193c 5c59 f03d 910e 45bd 9861 edbc
000000e0: 23a7 973d 5b80 0b3c 786e 9c3b f1e3 393d
000000f0: 976b 46bd b578 51bd 2491 d33d 78fb 993d
00000100: 88f2 8bbd aa93 05bd 0d30 6c3c 78f6 823c
00000110: 9e49 25bd 8fea 85bd 5a70 19bd e6da 4ebd
00000120: 7240 573b 7801 90bd 7b0f 5e3d a762 853d
00000130: 4516 893d 6424 023e 9b44 d63d 7609 733d
00000140: bffe 503d 1aca 5c3d 03d5 27bd 7159 6bbd
00000150: be85 b63b d1da ad3d 5f2c 6f3b dcf8 b5bc
00000160: 48a7 633d 6a5b d93c 011d 2abd 854b 94bd
00000170: 719a 9ebc 8fc9 36bd 3b35 233d 23cc 81bd
00000180: 58f3 833d d2ec deba b5a4 033d 6326 993d
00000190: ff72 3a3d 85fc c4bc d8a5 cf3d 84c1 4fbd
000001a0: 16a8 533d b49e 003c 1d62 ec3c 9701 ef3d
000001b0: acc0 22bc afc4 fb3d 4a84 66bd 6bed 11bd
000001c0: cd07 803d c606 9cbc 5764 12bd fc6b ba3d
000001d0: 2ae2 933d c291 663c 48b6 5a3d ac41 943c
000001e0: 8f74 693d f630 e83d b777 28bd 479b 8cbd
000001f0: 8aad 3ebd 9e6c ae3d 0963 8cbc 1606 853c
00000200: 304b debc 63e4 313d 513f 86bd f268 c13d
00000210: 3a10 b83c eb4f a3bc fa27 59bd a11b c0bc
00000220: d492 8cbd 9f19 cf3c fd45 03bc 1f97 93bd
00000230: 2521 cd3c ce21 413d 281d e33c a9ff cb3b
00000240: 33c1 a1bc a8e9 233d d9bd dfbc f976 a73d
00000250: 8502 c63d 7b68 c93d 10b6 8c3d a61e 80bc
00000260: 137f 4b3c 13fd d7bc c6d7 23bd 4a1b 90bd
00000270: 698d 883c c9df 71bd fffb 90bc 8873 4c3d
00000280: 5cda ba3d 9529 a6bd ae69 be3c 8c5b 583d
00000290: 94ef 1cbb 5a0c 9abd ce95 eabc d24d 783d
000002a0: 893c ef3c 7a55 033b d488 f93c 98c2 d1bc
000002b0: e2b7 0cbc 538b 0bbd a433 e43c 4632 93bd
000002c0: a478 9abd 8c3b 80bd a5c6 c23c fc53 bb3d
000002d0: 3130 6abd ef6e c2bc a90f 96bd 7820 c3bb
000002e0: 5ee8 f33c b96a bdbb 3708 313d 4954 943d
000002f0: ff31 d2bd 0a52 3ebd 75e8 dabc 9768 8fba
00000300: 3584 59bd ba66 083d 620e 84bc 8215 b53d
00000310: 4131 9e3c 7887 0a3d b31d 143d ae8b 6bbd
00000320: eff6 783c ab75 29bd e8f7 763d 07af 573d
00000330: ad48 763b 4e6f 54bd c674 843d bb30 bbbc
00000340: 37fa f33c 67c8 1a3d c778 d23c d86a 853d
00000350: f185 e1bb d83d c23d 198d c13d 4aa9 8fbd
00000360: 9a43 843d 6285 97bd da5e 90bd b4b2 17bb
00000370: fbfa c4bb a51f 433d b2a2 a13c 27d4 8abd
00000380: e9cb 7c3d 64db 36bc d149 d13d a8e7 f93c
00000390: 8045 c13c 1e2b 6a3d bd4d 383d a8e4 8bbd
000003a0: 76ea 883c 0e69 593d cf4e b3bc 365e 91bd
000003b0: ce16 b83a ef45 e33d 2005 b03d a657 a23d
000003c0: 490a 65bd ed6a 5d3d b920 1ebd be1e aebd
000003d0: eb66 b13c 4d9b 6abd fadd d6ba 05c7 c53d
000003e0: 1836 f13c 38f2 47bc 812c 863d 6955 81bd
000003f0: 4778 26bd 4533 f03c c064 3fbc f9eb d5bd
-0.048955183 -0.021296669 -0.00063129613 0.0959377 0.042410158 0.037841775 0.104804546 -0.015099923
-0.000105581494 0.059828456 0.046237875 -0.05135691 0.055471722 -0.01200834 0.038606297 -0.05859604
0.03189783 -0.007524129 -0.019768365 0.018349327 0.10761664 0.083253704 0.041547954 -0.042308412
0.0012874202 -0.06386405 -0.0014804894 0.12359618 0.034307696 0.051719267 0.070338756 0.091225155
0.07614932 0.025264625 -0.083271176 0.094900124 0.10032006 -0.034163162 0.10310301 -0.0036374184
-0.042985562 -0.044265576 0.09043292 -0.010288963 0.044727087 0.016475324 0.021975722 0.09427366
0.014958878 0.004042283 -0.021523342 -0.056539018 0.009380437 0.11735794 -0.048109595 -0.0289772
0.07404926 0.008514489 0.004773911 0.045383397 -0.04844245 -0.051140506 0.10330418 0.07518667
-0.068333685 -0.032611527 0.014415753 0.015986666 -0.04035341 -0.06538879 -0.037460662 -0.050501727
0.003284481 -0.0703153 0.054213982 0.06512957 0.06693701 0.12709194 0.10462304 0.059335195
0.051024195 0.053903677 -0.04097463 -0.057458345 0.0055701425 0.084890015 0.0036494953 -0.022213392
0.055579454 0.026532847 -0.041531567 -0.07240967 -0.019360753 -0.044625815 0.039845686 -0.06337764
0.064428985 -0.0017007834 0.0321395 0.07478025 0.045519825 -0.024046192 0.10139054 -0.05072166
0.05167397 0.007850338 0.028855378 0.11670225 -0.009933632 0.12293374 -0.056278504 -0.03562681
0.06251488 -0.019046199 -0.035740223 0.09102628 0.07220872 0.014072837 0.053396493 0.018097721
0.056995925 0.113374636 -0.041129794 -0.06865554 -0.04655222 0.08516811 -0.017137067 0.016238254
-0.027135462 0.043430697 -0.065550454 0.09443845 0.022468675 -0.019935569 -0.05301664 -0.023450674
-0.06863943 0.025280772 -0.008012292 -0.072065584 0.025040219 0.04715138 0.027723864 0.0062255454
-0.019745445 0.040017754 -0.027312206 0.08176989 0.09668449 0.09834381 0.06870663 -0.015639614
0.012420434 -0.026365792 -0.0400007 -0.07036455 0.016668992 -0.05905131 -0.017698286 0.049914867
0.0912368 -0.081134 0.023243751 0.05282168 -0.002394651 -0.07521887 -0.028635886 0.06062109
0.02920367 0.0020039962 0.030460753 -0.025605485 -0.008588763 -0.034068417 0.027856655 -0.07187323
-0.075425416 -0.06261358 0.023776362 0.09146878 -0.057174865 -0.023734538 -0.07327206 -0.0059547983
0.029773887 -0.0057805446 0.043220725 0.072426386 -0.10263442 -0.046464957 -0.026722172 -0.0010941204
-0.053104598 0.033301093 -0.01612014 0.08841993 0.019310595 0.0338206 0.036161136 -0.057506256
0.015195592 -0.041371983 0.060295016 0.052657153 0.003757994 -0.05186396 0.06467585 -0.022850385
0.029782398 0.037788775 0.025692357 0.065145195 -0.006882422 0.09484452 0.0945074 -0.07014711
0.064582065 -0.07398488 -0.070493415 -0.0023147287 -0.0060113645 0.0476376 0.0197309 -0.06778746
0.0617179 -0.011160705 0.102191575 0.03050597 0.02359271 0.057170026 0.044996012 -0.06830722
0.016713362 0.053078704 -0.021888165 -0.070980474 0.0014044882 0.11097323 0.085947275 0.07926874
-0.05591801 0.05405705 -0.038605426 -0.08501957 0.02165552 -0.057277013 -0.0016393058 0.096571006
0.02944474 -0.012203746 0.06551457 -0.06315119 -0.04064205 0.029321322 -0.0116817355 -0.10445399

lstm.bias_hh_l0 f4 [512]
00000000: c8e5 3abd 3cc3 823c 07d5 c63c 8f87 1b3d
00000010: ca6c 04bd 213f 463d 2c52 de3d 805e 05bd
00000020: c621 4f3d 442c 853d a547 593c b5e0 203d
00000030: 2d80 413c 5ef7 ddbc e5b4 b03d 0e76 a4bc
00000040: b478 83bb 1625 10bd aed8 2e3d b474 e03c
00000050: d611 dd3c 91b3 b6bc 7299 533c 3800 c43d
00000060: 77eb 1c3d b86e b93d 9ec7 c43d a0d3 a53d
00000070: 8c1b c63d 18cc b23d c2e4 143d cda6 9dbd
00000080: 198b 603d a5bb 6cbd 0f66 32bc ecb1 273d
00000090: 8d2d 9e3d 92c0 023e 8b22 393d 8e1d 82bc
000000a0: ea2d 01bc 86b6 eebb 7859 fcbc 84d0 713d
000000b0: 78d8 e33d e503 a5ba 0d52 89bc a042 c23d
000000c0: c341 913c 3a82 843d 824d 02bd 536c 943d
000000d0: d319 463b eb5a 57bd e7c3 00bd f7ab 213d
000000e0: 978c 80bd 6c54 0f3d df0f 8f3d 699a 4d3d
000000f0: 782f 30bd 7fc4 c83d 0dc8 ff3d 138d 153d
00000100: aa61 b83c 897c 1bbd 48cf c33c 8d18 0cbd
00000110: b80b 003c fd09 37bc 1ec9 8d3d 749f 86bb
00000120: f571 923d 7c21 6cbd fd8a aa3d 24eb e2bc
00000130: 06e3 ad3c c433 693d 1b2a 2b3d c9df 0fbc
00000140: 3fde f83c be01 023d e6f6 2b3d 9b7d 2d3d
00000150: d79d c23c df97 313c 9d85 6bbc 253a a43d
00000160: a873 313d 5d4e 693d 402f be3d 95e7 c0bb
00000170: 5103 8abd ed61 80bd 0724 b83d e972 2ebc
00000180: 7c59 633d 84c7 5dbd 2eac 33bd 0ce3 a63d
00000190: 7899 253d 4d3e 83bd 7b57 013e 8f30 c93d
000001a0: 6d56 9c39 20b4 c83d f7b3 4a3d f442 ea3c
000001b0: c3b1 363d baaf ad3d c0bb 9e3d 1575 83bc
000001c0: 1705 2f3d aad4 083e 3a42 1fbc 6b00 363b
000001d0: 55a5 46bd e7f3 893d 7ecf 333d 13da bb3d
000001e0: 9ba7 9a3d 1004 f23d 4198 19bd 8b03 8a3d
000001f0: e861 db3d 8ac6 ba3d 48c6 8c3d bb5a f63c
00000200: 26a8 713b 03d6 623d 7f16 723d 4365 093d
00000210: e09f 013d 0ac4 50bd 4b49 4fbb af45 8d3c
00000220: 2fe9 4ebd 9291 2b3d 0b83 453d 0a10 3ebb
00000230: 1d88 7f3d 147d 663d 5c9b 77bd cd7a 50bd
00000240: 1da4 533c 63af 983d 4d8b 053d fcd4 88bc
00000250: 211d 9a3c 4137 973c c163 28bb dbb5 61bd
00000260: a7b1 9c3d 5caf 9d3d 7453 b03c b465 263c
00000270: 2854 71bc ef57 3e3d bf04 7e3d 0468 383d
00000280: 78dd 943d f62b 923d 578f 30bb 35f9 953d
00000290: 718d a03d d88a 903c 736d 883d d927 3db8
000002a0: 76a1 8b3d 67aa 1dbc 2746 703d ca01 613d
000002b0: 8ebe e8bc b9d9 bb3d b344 59bd 76f0 c43d
000002c0: 3ec1 91bd 57eb 94bc 56e5 7abd f247 ab3d
000002d0: 8667 9c3c 347b c03c d5d4 07bd b8fb fcbc
000002e0: bbcd 9f3d 24da 143d fa63 c6bd 52fd 8bbd
000002f0: c5b1 e5bc 0ba2 95bd 485e 9f3b 32c3 06bd
00000300: 6e0d fb3c 2dfb 85bd f83d 5abd 4c54 b83d
00000310: 2eda 64bd bdcf c33d 3af9 50bd cd7c 633b
00000320: e085 a9bc b096 cbbb 6e4c 643d 5b7f 2d3d
00000330: f987 2bbc 15ee 57bd c84d 6d3d d64f 57bd
00000340: 69c4 1d3d b9c4 103d e25a 61bd 8920 90bd
00000350: a9e1 333d 498c 41bd 17ee e1bc 7389 1fbd
00000360: 7aac 8cbd 3a8c 2dbd bf77 613c 88c3 993d
00000370: 2d97 e1bb 9a1e 4ebd 967d 34bd 342a 5a3d
00000380: 8276 ff3c f5e5 943d d58a c73d 7dab 613c
00000390: 0052 bebb 3abc 473d 2e73 2b3d b478 a33b
000003a0: e295 bd3d 4626 5b3d 3abd 3abd 6b90 40bb
000003b0: fe6d b5bd 77b3 583d 636e b83c 320b 063d
000003c0: deeb 5cbd 9b06 c23d 21d5 97bc 3a77 cebc
000003d0: a0b5 2a3a bbc2 9b3d 18ce 88bd 2890 b5bc
000003e0: 62ee ddbc 4ef6 b8bc 24ac 87bd 07f2 883c
000003f0: 68c8 603d ca2b 453d 7ce9 ddbc c531 eabd
-0.045629293 0.015962236 0.024271501 0.037971076 -0.03233031 0.04840005 0.10855517 -0.032560825
0.05056932 0.065025836 0.01326171 0.039276797 0.011810345 -0.027095493 0.08628253 -0.020075824
-0.0040121917 -0.035191618 0.04268711 0.027399398 0.026986044 -0.02230242 0.012915002 0.09570354
0.038310494 0.09054321 0.096083865 0.08097005 0.09673223 0.08730334 0.036350973 -0.0769783
0.054820154 -0.05779614 -0.0108885905 0.040941164 0.07723532 0.12768772 0.04519896 -0.015883233
-0.007884482 -0.007284942 -0.03080438 0.059036747 0.111252725 -0.0012589662 -0.016762758 0.09485364
0.017731553 0.06470151 -0.0318122 0.07247224 0.0030227795 -0.05257694 -0.031436827 0.03947064
-0.062768154 0.03499262 0.06985449 0.050196085 -0.04301402 0.09803104 0.124893285 0.036511492
0.022507507 -0.037960563 0.02390255 -0.0342031 0.007815294 -0.011171815 0.06923126 -0.0041083638
0.07150642 -0.05764912 0.08327291 -0.027700014 0.021226417 0.056934133 0.0417882 -0.008781382
0.030379413 0.031739943 0.041983508 0.042356115 0.023756905 0.010839432 -0.014375118 0.08018903
0.04332319 0.0569595 0.09286356 -0.0058869817 -0.06738914 -0.06268678 0.08991247 -0.010647514
0.05550526 -0.05414535 -0.043865375 0.081487745 0.040429562 -0.06408367 0.12631027 0.09823715
0.0002981903 0.09799981 0.049488034 0.028596379 0.04460312 0.08480783 0.07750654 -0.01604704
0.042729463 0.13362375 -0.0097203795 0.0027771245 -0.048497517 0.06735974 0.04389905 0.09172454
0.075514995 0.11817181 -0.037498716 0.06738957 0.107120335 0.091198996 0.06873757 0.03007256
0.0036873906 0.05537988 0.059103485 0.033543836 0.03164661 -0.050968207 -0.003162938 0.017245142
-0.05051535 0.041886874 0.048220675 -0.002900126 0.062385667 0.056271628 -0.060450897 -0.050898362
0.012917546 0.07455327 0.03260355 -0.016703121 0.018812718 0.018458964 -0.0025694224 -0.05510507
0.07651072 0.07699463 0.021524169 0.010156084 -0.014729537 0.04647058 0.062016245 0.045021072
0.07268804 0.07137291 -0.0026940906 0.07322923 0.07839478 0.01764433 0.06661501 -4.5098222e-05
0.068179056 -0.009623147 0.058660652 0.054933347 -0.028411176 0.09172387 -0.053044032 0.09616177
-0.07116936 -0.018178625 -0.061253868 0.08363332 0.019092333 0.023496248 -0.033161957 -0.030881748
0.07802912 0.036340848 -0.09687038 -0.068354264 -0.028038869 -0.07306298 0.004863534 -0.032900997
0.030646052 -0.065420486 -0.053281754 0.09000453 -0.055872135 0.09561107 -0.05101893 0.0034711838
-0.02069372 -0.0062130317 0.05573695 0.042357784 -0.01046943 -0.052717287 0.057935506 -0.05256637
0.03851739 0.03534386 -0.055018313 -0.070374556 0.04391638 -0.047252927 -0.02757935 -0.03894944
-0.06868835 -0.04237006 0.01376146 0.07507998 -0.0068844766 -0.050322153 -0.04406508 0.053262904
0.031184439 0.07270423 0.09743277 0.013773796 -0.005808115 0.04876349 0.04185789 0.004988754
0.092571035 0.053503297 -0.045590617 -0.0029382955 -0.0885887 0.052905526 0.022513574 0.03272552
-0.053935878 0.09473916 -0.018534245 -0.025203336 0.00065120496 0.07605501 -0.06679934 -0.022163466
-0.027091209 -0.022578385 -0.0662463 0.01671697 0.054878622 0.048137464 -0.027088873 -0.11435274

fc.weight f4 [1, 128]
00000000: 6c66 d8bd 1859 2bbd 7341 093e 2b5a 8ebd
00000010: a44f fcbd 070d c8bd 9385 9f3d 2f7b 2fbd
00000020: 437d cc3d 5490 ff3d 58db c6bd e650 e73d
00000030: e68e e43d 5614 dbbd c0e4 b7bd c6df e13d
00000040: 78c7 d13d f4d4 08be 1638 c3bd 2a5a 0a3e
00000050: d1ff da3d 4b08 e23d bec6 be3d b8f9 d8bd
00000060: dd33 d73d 208b d43d ff0e afbd c3a7 f5bd
00000070: 082f 983d a075 94bd 4ff2 e73d d3f5 c13d
00000080: bddf 0cbb 0b31 9abc eb87 2f3c d1bc 10bc
00000090: f3a2 5a3d 76aa 953c 1ad5 0bbe bac2 6f3d
000000a0: 2f40 94bd bea3 5bbd 50d5 033e 308c f93d
000000b0: c988 e53d 9c6d bc3d b5db 8fbd f912 f4bd
000000c0: d915 043d febe 9cbd 9829 043e 0e56 ef3d
000000d0: ac44 17be 7c6d debd 2f96 89bd 5597 a3bd
000000e0: 4b3a eb3d fb45 28be 590c 883d 1070 0a3e
000000f0: a4ea 233c a7f0 d53d 632b 09bd e8c0 8fbc
00000100: 5393 80bd 4e15 a53d 1b9b 7dbd c877 8f3d
00000110: 74ac fdbd faff bb3d eb5f fb3d 2fd3 d8bd
00000120: ba60 9f3c 5d10 e3b9 9d1b 0c3e 875c 1d3d
00000130: 9799 d5ba 2e04 c83d 5b23 b03d b9ff aabd
00000140: 9583 173e f821 0a3e 16b5 f3bd 089a f83d
00000150: 8df4 3cbd a797 05be e902 f23d 7007 04be
00000160: 2d92 0cbe a7fe 273d 3211 b63c 4eb0 d0bb
00000170: 0c9c d5bc b244 fcbd 40c4 233d 6832 1ebd
00000180: c24e b4bd ae07 2ebd 9c3d 47bc 3da3 d23d
00000190: e75d aabc 7b3b adbb 2005 c73d e812 fa3d
000001a0: 98e1 bdbd 7b1e 96bd 2b39 a53d 4012 e8bd
000001b0: 9e8a 623d 3088 773d 5b51 6a3d d3e3 62bd
000001c0: 7333 0f3e 76aa ec3d d60d b63d 7bf3 c43d
000001d0: 72e9 4dbd a266 7d3b 2d56 a9bd 1034 11bd
000001e0: be60 dcbd 9364 f53d cbd8 b8bd 9f4a 67bd
000001f0: 5e87 f13d 2e5f 1bbd 05b4 8dbd 8825 5c3d
-0.105664104 -0.041833013 0.13403873 -0.06950792 -0.12319878 -0.0976811 0.07789149 -0.042842086
0.09984829 0.124787 -0.09709805 0.11294727 0.11160068 -0.10697238 -0.089791775 0.110290095
0.10243124 -0.13362485 -0.09532182 0.13510957 0.10693324 0.11036738 0.09315251 -0.10594505
0.10507939 0.103780985 -0.08547782 -0.11994889 0.074308455 -0.07248998 0.113255136 0.094707154
-0.0021495663 -0.018822214 0.010713558 -0.00883408 0.053378057 0.018269759 -0.1365551 0.058535315
-0.072388045 -0.053622954 0.12874341 0.12184942 0.1120773 0.09200594 -0.07024328 -0.11917681
0.032247398 -0.07653616 0.12906492 0.116863355 -0.1477229 -0.10860726 -0.06718098 -0.07987849
0.11485728 -0.16432945 0.0664298 0.13519311 0.010004673 0.104462914 -0.033488642 -0.01754804
-0.062781 0.08060704 -0.0619155 0.07005268 -0.123864084 0.09179683 0.12274154 -0.10587155
0.019455303 -0.00043309006 0.13682409 0.03841832 -0.0016296384 0.09766422 0.086004935 -0.083495565
0.14796288 0.1348952 -0.11899774 0.12138754 -0.04613166 -0.13046132 0.11816961 -0.12893462
-0.13727637 0.04101434 0.022224996 -0.0063686734 -0.026075386 -0.1231779 0.03998208 -0.03862229
-0.08804084 -0.042487793 -0.012160685 0.102850415 -0.02079673 -0.0052866316 0.097177744 0.12210637
-0.09271544 -0.073300324 0.080675445 -0.11331606 0.055307977 0.060432613 0.057206493 -0.05539305
0.1398447 0.1155595 0.08889358 0.09616753 -0.05027146 0.003866591 -0.0826839 -0.03545004
-0.107606396 0.11982074 -0.09025725 -0.05646765 0.11793397 -0.037932567 -0.069191016 0.05374673
