models/LH model.pth (torch, 799643 bytes, 9 tensors)

lstm.weight_ih_l0 f4 [512, 1]
00000000: 7765 b23c e6d0 f23c 4470 3f3d 7949 19bc
00000010: 7c01 54bd fd5c 263d a3af 5cbd 2460 eabd
00000020: 186d ca3d 794c debc 022a 913d cfec c73b
00000030: 7b66 33bc 02ff 46bd 6226 46bd 7fe7 d9bd
00000040: 86e2 9abd cbae 3f3a 7689 32bd a44d d9bc
00000050: dbcf d33d 9708 61bd 5b6a ccbd 9feb a83c
00000060: 54f5 ab3c da89 d1bc 2e93 5fbc 90a3 26bd
00000070: 6576 d03d 1909 53bd f4a3 3abd f6f6 20bb
00000080: 7b4d 8a3d 33ed 163b d61a 42b9 8532 85bc
00000090: 9464 323d 8326 ccbd f7f6 38bd 740b 21bd
000000a0: ff71 b73d 55ab 8a3d 8793 883d 3a28 f03d
000000b0: 4654 d6bc 1fe3 cebd 2e8f 9c3d a23f 51bd
000000c0: bc17 f9bd 2737 efbd 6756 cebd 7e9f 9f3d
000000d0: 2689 d43d 6f7b 863a 7b75 2abd ea9b 00bb
000000e0: e59d 47bd c634 a93c f21f d3bd acea 61bd
000000f0: 8f16 fabc 6b74 e23d 71be 433d 2391 493d
00000100: 03df edbd 2d91 763d ac7a c1bd 06f4 02bd
00000110: e47b 9fbd c249 a8bc 3bd5 3e3c 34a3 69bd
00000120: 5876 15be 5d00 143d 4af0 e2bc ab9f 4cbd
00000130: 78dc fcbd db3f 233c be8d e9ba 6b84 36bd
00000140: 5cb0 0c3d 37aa c23d acda 19bd 1d98 4abd
00000150: 63e0 b13d 2340 8d3d ca73 663d 2bd8 f9bc
00000160: 228a 803d f8be 7ebc 4765 d93d aa2d b8bd
00000170: 9355 d23d d7df c43c f1c3 963c eb0b 11bc
00000180: 3491 a9bd 8960 12bd 6fa2 7bbd f282 693d
00000190: 32a6 b6bd 75ff 453d c00a 293d 8b63 acbd
000001a0: 9e8c 703d 2811 843d a74d 153c 2650 243c
000001b0: 81ae 703c 4219 2abd 869d dabd 3945 70bd
000001c0: 8a28 9f3c 985d 40be b3ae e9bd 9b8b 89bd
000001d0: 2ca1 dcbc 628a d33d 142d fe3d 1bc0 893d
000001e0: e72e b33d 45d4 cfbc 2ade 49bc 58ae dabd
000001f0: 08b7 e63b e877 8f3d 9964 5a3d f559 743d
00000200: fb4e ae3d d3d1 50bd d01c a03c d321 afbd
00000210: 7a0f 3fbd 217d f43a 09c5 94bd fda7 edbd
00000220: 7e01 cd3c adff 95bc 5055 d83d c34e d0bd
00000230: e756 7d3d 76e1 d3bd f086 90bd dcf5 39bc
00000240: 0b7e 54bd ea2a a1bd 2342 ad3d 140e a6bc
00000250: abfd d03d 7f3a f53c 040b 8bbc 1b66 d2bd
00000260: 934b 2d3d 447e 4c3d dc4c e2bd 8a67 a5bd
00000270: 9f37 08bd c226 c83d 0c3d a5bd befb cf3d
00000280: 13bf 2c3d 96e5 5bbd 5755 843d 75ba b8bd
00000290: b8a4 543c 3a18 553d 3d84 bfbd 69dc 16bc
000002a0: 327e 9e3d c41e 9a3d 1bb6 4cbc 7663 0b3e
000002b0: d764 48bd 09a9 57bc 2343 343d dad0 cdbc
000002c0: 76ee aabb 3024 85bd fad4 f73c e217 e63d
000002d0: f86f 013e 590f f9ba 8730 a4bd 902b 5f3c
000002e0: 081b 77bb ef4c 53bd 4c10 97bc 1472 a5bd
000002f0: 7d2d 09bd 7aa7 093e 6306 473d 64a5 d43d
00000300: cedb 7a3c 40be 07bd 9d82 40bd 3404 cebd
00000310: 2608 703d a2b8 97bd ad3d c93c 43b6 51bd
00000320: a375 63bd 0433 e03c 0da8 67bd 2761 5ebc
00000330: 2525 0abc 0286 0c3d de0f f73b 54f8 9bbd
00000340: cfc0 7e3d ab1d 073d 7d98 aa3d 7b9d 113d
00000350: f072 d03c 7dcb e93d db4e 003d 28af 19bd
00000360: 042e 5c3c f5ae 73bc cd9a b1bb 1847 17bd
00000370: cd32 a43d db1d 36bd aa46 5d3d 6683 b5bb
00000380: 9eed b2bc af86 143d baea e1bd 4327 52bd
00000390: 0055 c6bd f66d 853d ad64 debd c3be 9dbd
000003a0: b5c4 a03d d425 e13d 3ec1 f4bd c7e7 e03d
000003b0: 3726 c3bd 344a 9f3c a42d 57bd e1c8 d23b
000003c0: 6315 81bd 2a5b 90bd a169 aebc 5de8 493d
000003d0: 6c4b 8abd 4aaa dc3d 3f8b 093d 9e58 a73d
000003e0: 4704 c83d 26ed ae3c d1fe 2abb 363c 83bd
000003f0: 4a21 b4bd 122e a6bd 9283 d7bd 3a4d 4bbd
0.021776898 0.029640626 0.046737924 -0.009355896 -0.051759228 0.040616024 -0.053878438 -0.114441186
0.09884089 -0.027136074 0.070880905 0.006101228 -0.010949726 -0.04858304 -0.04837645 -0.106398575
-0.07562737 0.0007312118 -0.043588124 -0.02652628 0.1034238 -0.054939833 -0.09981223 0.020620165
0.020991005 -0.025578428 -0.01364593 -0.04068333 0.10178832 -0.051522348 -0.045566514 -0.0024561263
0.067530595 0.0023029565 -0.00018511279 -0.016259441 0.04355295 -0.09968283 -0.0451574 -0.039317563
0.0895729 0.0677096 0.066687636 0.117264226 -0.026163232 -0.10101914 0.07644497 -0.051086076
-0.1216273 -0.11680441 -0.10075074 0.077940926 0.103777215 0.0010260175 -0.041615944 -0.0019624182
-0.048734564 0.020655047 -0.103088275 -0.05515544 -0.030528335 0.11057361 0.04778904 0.04921068
-0.11614802 0.060197044 -0.09447226 -0.031971 -0.07787302 -0.020542983 0.011647518 -0.05704041
-0.14595926 0.03613316 -0.02770247 -0.04995696 -0.123467386 0.009963955 -0.0017818732 -0.044559877
0.034347877 0.09505122 -0.037562057 -0.049461473 0.086853765 0.06896999 0.05626277 -0.030498585
0.06276347 -0.01554846 0.1061502 -0.08993085 0.10270228 0.024032516 0.018403979 -0.008852939
-0.082796484 -0.035736594 -0.061434206 0.057009645 -0.08918418 0.048339326 0.041270018 -0.08417424
0.058727853 0.06448585 0.009112752 0.0100288745 0.0146900425 -0.041527994 -0.106745765 -0.058659766
0.01942851 -0.18785703 -0.11410274 -0.06716081 -0.026932321 0.10329129 0.12410942 0.06726094
0.0874918 -0.025369773 -0.012321034 -0.10677785 0.007040862 0.07005292 0.053318594 0.059656102
0.08511158 -0.050981354 0.019544989 -0.08551373 -0.04664562 0.0018653014 -0.07264144 -0.11604307
0.025025126 -0.018310392 0.10563147 -0.101712726 0.061850455 -0.10345738 -0.07056987 -0.011350121
-0.051878016 -0.07869513 0.0845988 -0.020270385 0.10204633 0.02993512 -0.016973026 -0.10273381
0.0423084 0.049925104 -0.11049816 -0.08076389 -0.03325617 0.097730175 -0.080682844 0.10155438
0.04217441 -0.053685747 0.0646159 -0.09019939 0.012978725 0.052025057 -0.09351394 -0.009207823
0.077389136 0.07525399 -0.012494589 0.1361216 -0.048924293 -0.01316286 0.04400934 -0.025124002
-0.005216415 -0.06501043 0.030252922 0.11235024 0.12640369 -0.0019001766 -0.08017068 0.013621226
-0.003770532 -0.05158704 -0.018440388 -0.08078399 -0.033490647 0.13442793 0.048590075 0.10383108
0.015311195 -0.03314042 -0.046999563 -0.100593954 0.05860152 -0.07408263 0.024565542 -0.05119921
-0.05553211 0.027368076 -0.05655675 -0.013572968 -0.0084317075 0.034307487 0.0075397333 -0.07615724
0.062195595 0.032987278 0.08329866 0.035550576 0.025445431 0.114157654 0.031325202 -0.037520558
0.013438705 -0.014873256 -0.005420065 -0.036933035 0.08017502 -0.044462066 0.05402247 -0.0055393456
-0.02184182 0.036261257 -0.11031099 -0.051306974 -0.09684181 0.06515114 -0.10859046 -0.077024005
0.07850019 0.10993543 -0.119509205 0.10981708 -0.09528773 0.019444562 -0.05253376 0.006432638
-0.06302907 -0.07048638 -0.021290602 0.049293865 -0.06752667 0.107746676 0.03358006 0.08171199
0.09766441 0.021353316 -0.0026091824 -0.06407969 -0.08795412 -0.08114256 -0.10523142 -0.049634196

lstm.weight_hh_l0 f4 [512, 128]
00000000: 9af1 cd3d 37b0 6a3c 5a43 a9bc 999c 453d
00000010: c219 993d bc3b df3c 38e7 58bc 7bf3 bcbc
00000020: b080 bbbd c8b8 5fbd 6fa5 043c b0d5 84be
00000030: 23a6 363d f08d ddbd fb38 48bd fd6e e5bc
00000040: 7a0d 1d3c 4c31 eb3d b6f5 9ebd 0dfa 7bbd
00000050: 58d7 e439 28f1 ca3d df7b 6c3d 7bab 863d
00000060: d880 2e3d 6575 233c 7de8 a8bd e2d0 9c3d
00000070: 9dde debd d60c 9d3c 8eaa 26bd 35d6 0f3d
00000080: 7f18 2cbd 498e 96bd a988 763d 221e 66bd
00000090: c800 75bd c95d df3d b61e 243d 9d24 213d
000000a0: 7d9c 393d 84c5 573c 21f8 68bb b4de 09be
000000b0: 2739 11be aae6 a83d e71d 5f3d 5f39 35bd
000000c0: c4c3 813d dd07 e7bc 0470 67bd 9f62 9d3c
000000d0: 75c4 3f3d ecab e0ba fd6a cf3d 9b18 de3d
000000e0: 63cc 7cbb 7b48 513c 57bc 7e3d 9258 773d
000000f0: d35c ecbc 9495 cd3d 91ef f33c 24ab dd3d
00000100: a17a 353e 967f 603d 10c2 a0bd 0bea 54bc
00000110: af0b 16bd ac54 aa3c db65 6cbd 94d9 213d
00000120: e0d4 0cbb 01b8 8cbd 73bd 283b 762b 993d
00000130: f261 19bc bd8a 173d 9a5d 033e b4b3 133d
00000140: e30f edbc 7324 ce3d 093b a0bb b4c2 d13c
00000150: 2743 56bd d757 113e a830 003e 9d9a 20bd
00000160: 0447 d6bc 802b 17bd 227b 243c 2a46 07be
00000170: be79 27bc 3e64 883d 334d d2bd a333 d23d
00000180: 1de9 e3bb 5ac8 723d 2f40 833d 994c 9fbd
00000190: 6afb 13bd 4aa7 9abd ab8c 5ebd fca7 2ebd
000001a0: 316b dd3c e9bc 05be 1dc4 c3bd 142c 7bbd
000001b0: ea60 fc3d d01b 1dbd ed3f 093d 1c29 49bd
000001c0: 9546 3b3d f55b e4bd bd41 d5bc 2453 c9bb
000001d0: b6b0 2d3d 115c 05be 625c 983a cc74 1d3c
000001e0: 2f67 e63c 9417 9e3d 921d 9abd 4110 ad3d
000001f0: c68c 5e3d 4aa2 88bb 0faf ed3d 93f7 89bd
00000200: c5e3 263d a001 63bd 4db1 03bd 0d20 983d
00000210: cf8c 6f3d 6e3a 7b3d ca56 263d 15a8 80bd
00000220: b016 023c de7c 5b3d 2ead aabd d2dc 89bd
00000230: 5370 32bc e663 a9bb ea04 793d 7416 9abd
00000240: b5db 8abd 63d4 a93d 7660 ccbc 40d7 1c3d
00000250: 7717 9d3d b8ec 1cbd b38f 3c3d 17ae a7bd
00000260: d87b 5bbc 15c7 ab3d d254 53bd 3913 7f3d
00000270: 2815 a93d afaf 113d 415e 8d3d fc76 20bd
00000280: 53eb cd3b 0091 1b3d 1f2e acbc e1d4 993d
00000290: afc8 533d 2800 11bd 0ab7 0cbd ea73 5c3b
000002a0: 6bb4 993d a77e a33d e8eb a3bd 5f9f 9d3d
000002b0: 7143 80bd 68f2 183d 9b03 733d 216e 32bd
000002c0: 7300 34bd 7e03 473d d3c3 0c37 b736 5cbd
000002d0: bada eb3c 5f97 a0bd 0afb 803d 546b bb3d
000002e0: ff4c ac3b 07c8 f33b e00c 59bd cb52 52bd
000002f0: 2f01 0c3d bb8d 863d 92b7 3dbd 95d2 993d
00000300: 19cf 943d 41a6 a63d eaab a4bd 6bcf 09bd
00000310: 8f6f ebbc eb0c 2bbd 8c34 debc ec5a 693d
00000320: f36e 253d ec54 4e3d 9b4d 833d 894a e2bc
00000330: fece 9b3d 8c0b 85bc bf97 a43d c246 4bbd
00000340: 803f 9b3d 2910 0b3d 9040 30bd e94f 853d
00000350: 9f2f e6bc 4e62 7abd 21a7 a1bd 482e 97bd
00000360: ae62 a9bd faa0 76bd 8fcc 73bd 0b54 2b3d
00000370: 061f babc 0d24 7e3d bfb5 ad3d 607d b33c
00000380: 56f5 e2bc b4e8 cebc 607e 81bd bfde 6ebd
00000390: 0633 9dbd 10a0 68bc 002a 9dbd 8781 5b3d
000003a0: 5ac2 d1bc 155d a7bc dc64 503b 80a0 9bbc
000003b0: 373f 19bc 9dcc 053d d634 91bc 6bae b8bd
000003c0: 8663 5f3d 637f 5ebd 973d 3c3d 1c86 bb3d
000003d0: 7396 96bd cd19 55bc 9985 9c3d 350b 9f3d
000003e0: 594c 1e3c 859d 1e3d f58b 24bc c49b b33d
000003f0: 0949 003d ac51 9fbd 78a7 d23c 4311 96bd
0.100558475 0.014324239 -0.020661999 0.048245046 0.07475616 0.027250163 -0.013238721 -0.02306532
-0.091554046 -0.05461958 0.008096083 -0.2594428 0.044592034 -0.10818088 -0.048882466 -0.028007025
0.009585733 0.11484012 -0.077617094 -0.061517764 0.00043647992 0.09909278 0.05773532 0.06575676
0.042603344 0.0099767195 -0.082474686 0.07657029 -0.10882304 0.01917116 -0.040689997 0.035116393
-0.04201555 -0.073513575 0.060188923 -0.05618108 -0.0598152 0.1090656 0.04006835 0.039341558
0.045315254 0.01316965 -0.0035548287 -0.13463861 -0.14181958 0.08247121 0.054471876 -0.044244166
0.063361675 -0.028201992 -0.05650331 0.019212065 0.046818215 -0.001714108 0.10127828 0.10844537
-0.0038573972 0.012773628 0.062191334 0.0603872 -0.028852856 0.100382954 0.02977732 0.10823658
0.1772256 0.054809175 -0.078495145 -0.012995253 -0.036632236 0.020792328 -0.057714324 0.03951414
-0.0021489188 -0.068710335 0.0025747686 0.07478993 -0.009361731 0.036997546 0.12828675 0.03606005
-0.02893824 0.10065546 -0.00488985 0.025605537 -0.052310135 0.14193664 0.12518561 -0.03920995
-0.02615691 -0.03690672 0.010039123 -0.13210359 -0.010221897 0.06659745 -0.10268631 0.10263755
-0.0069552795 0.0592731 0.064087264 -0.07778282 -0.03612844 -0.07551439 -0.05433337 -0.04264067
0.027028652 -0.13060345 -0.0955889 -0.061321333 0.123231724 -0.038356602 0.03350823 -0.04911147
0.04572161 -0.11150352 -0.026032323 -0.0061439443 0.042404853 -0.13023402 0.0011624212 0.009610366
0.028125374 0.07719341 -0.07525171 0.08450366 0.05433347 -0.004169737 0.116056554 -0.06736674
0.04074456 -0.05542147 -0.03215151 0.07427988 0.058483895 0.06133502 0.040610112 -0.06282059
0.007939979 0.05358588 -0.08333813 -0.06731571 -0.010891038 -0.0051693795 0.060795702 -0.07523814
-0.06780187 0.08292463 -0.02494834 0.038291216 0.07670491 -0.03831169 0.04603548 -0.08187502
-0.013396226 0.08387581 -0.051594563 0.06227419 0.08255988 0.035567936 0.06902743 -0.039175972
0.0062841563 0.03798008 -0.021018086 0.075113066 0.05170506 -0.03540054 -0.034354247 0.0033638426
0.07505115 0.079831414 -0.0800398 0.07696413 -0.062628634 0.03734055 0.05932961 -0.04356206
-0.04394574 0.048587315 8.390244e-06 -0.053763118 0.02879082 -0.07841372 0.06297882 0.091513306
0.005258202 0.0074396166 -0.052990794 -0.05134849 0.034180816 0.06570002 -0.046317644 0.075108685
0.07266063 0.08137179 -0.080406025 -0.033645075 -0.028739719 -0.041760366 -0.027124666 0.056971475
0.040389013 0.050373957 0.064112864 -0.027623432 0.0760784 -0.016240858 0.08036756 -0.049628027
0.07580471 0.03395096 -0.04303032 0.06509382 -0.02809888 -0.061128907 -0.078932054 -0.07381874
-0.08270775 -0.060212113 -0.059521254 0.041828196 -0.022719871 0.0620461 0.08481931 0.02191037
-0.027704876 -0.025257446 -0.06322932 -0.058317896 -0.076757476 -0.014198318 -0.076740265 0.053590324
-0.02560537 -0.020430127 0.0031798398 -0.01899743 -0.0093534505 0.032665838 -0.01772539 -0.090176426
0.054538272 -0.054320704 0.045957174 0.09156439 -0.07352915 -0.01300664 0.07642669 0.077658094
0.009661757 0.03872444 -0.010043134 0.08769944 0.03131965 -0.077792495 0.025714621 -0.07327511

lstm.bias_ih_l0 f4 [512]
00000000: 1f3c d03d ed12 5bbc 7460 85bc f038 71bd
00000010: 0c08 8d3d 7897 ca3b 23e0 ae3d a8fa dbbb
00000020: 5197 6f3d d14f a13d 95c9 0e3e d355 893d
00000030: d831 45bd de93 b3bc b244 cb3d f057 c23d
00000040: 1524 8cbc d30c a33d 3c97 b9bb 019e 72bd
00000050: 7fa4 be3d ce86 203b 3c0f 303d 1162 97bd
00000060: 7884 263d a9cc 843d 6896 963d 670d 6a3d
00000070: 4c43 e9bc acfd 783d 316f c5bc c772 44bd
00000080: 915f a03d 5a0e 923d 1055 b2ba 6be5 933c
00000090: 8780 b63d 7935 45bc f0e6 753d 152a 2a3c
000000a0: d386 483d 4078 be3d 8e7e c8bc e84b 243c
000000b0: 8816 3b3e 91b7 54bd 1aab e13a 45c4 95bd
000000c0: b85a d4bc a408 a2bd 3e85 4b3d a24c 8d3d
000000d0: 2b77 46bd 1fdc b9bc 9dde cfbb 0957 dbbc
000000e0: bf42 4f3c dfd3 a53d 4b40 83bd 6d75 be3c
000000f0: 2590 aa3c 938f 92bd 1332 943d 4bfa 63bb
00000100: 36c7 c03d 8d19 9d3c 457c 87bc 5c29 b63c
00000110: 1043 a2bd b423 00bd d53e c63b 5276 073e
00000120: 268f ee3d e6ad d23c 22b8 a73d e93e 323e
00000130: 2648 923b 7c90 eb3c c72f 8cbd 85ae b53d
00000140: fd80 323d 49f5 16bd f9b1 923d 2bf1 d7bc
00000150: 9cac 8fbc 655a 5abd 8a0b 633d 717b 25bd
00000160: b742 cf3b 722d 87bd d000 2f3d 0aea d13d
00000170: ea5b a63d 15b7 a93d 74b4 b9bc 080c a9bd
00000180: 2838 4fb9 7c24 1abd a24d 8dbd 8af6 31bb
00000190: 7ac1 623d ff5e cf3d 3b67 bb3d 44a1 ad3d
000001a0: 558e bb3d f3d2 1ebd b727 873d bb39 6c3d
000001b0: 5c76 193d 1d9e b53d cb07 48bd 3f00 56bd
000001c0: 9fcb 7ebc 950b 493e 15fc e83d baa3 943d
000001d0: 5b2b a53a 94af 853d 3f9a aa3d 0395 3a3d
000001e0: e909 b13d b6a0 21bd cc7d ac3d 549a 4cbd
000001f0: 6672 6bbc 2f7f c93d 4092 98bd 6e45 6e3d
00000200: 8968 d4ba 3b37 7bbd 1d81 3cbd c756 7cbc
00000210: 0c09 2a3d e1a8 8abd 50df d9ba ca14 97bd
00000220: c915 8c3d 0ca6 42bc 3f76 883c 292c 1abd
00000230: 1f29 863d e59f 09bc c89c 903d 2dcf 093d
00000240: 98da 643c 675c 68bd 7cb0 493d 465e 89bb
00000250: 322a 813b 5d59 953d f7a9 2a3d deea 99bc
00000260: f4a4 c23d a9ad c03c 5c66 ab3d eb2a e8bc
00000270: 330e e5bc cfe5 c03d e99a d53c c00d 79bd
00000280: e2fd 5abd 4e1a 7ebd 63a9 103d 0824 ba3b
00000290: 97f9 aabd b936 d5bc eb72 56bb bffc e1bc
000002a0: 9cf8 3c3c 0d8e a13d 8930 76bd 6393 c2bc
000002b0: 9f4a e53c 1b26 163d 475a a2bd 9fc5 273d
000002c0: f675 8a3c e800 873d 4c56 a93d fc74 6fbb
000002d0: a924 703d 59a6 30bd d1f8 433c f715 5e3d
000002e0: 595b ee3c 20f1 9fbd a425 013c 7b43 48bc
000002f0: 2f1b 1ebd 66f0 273c 84d4 463c b36b 5c3c
00000300: 3f58 ad3c acf0 7c3d 0b13 893d 8530 b63d
00000310: 10aa 703d 326d 763c d5bd 8a3d 63a3 b23d
00000320: b123 6d3c 46b0 29bd e398 b43d 0b58 573c
00000330: b587 1d3d 5438 833d 880a 683c 4853 7dbc
00000340: e6a8 483c 56c1 2f3d 2a48 733d bd13 bc3d
00000350: 01b3 023c e607 393d 7987 f0bc 34cf 743d
00000360: 3260 90bd 11d1 9f3c 6791 5cbd 5d27 ba3d
00000370: daca 7a3d 1440 35bc c52a 383d 30be bc3b
00000380: 1410 4a3d 97be dabc abd4 ac3d 403a 953d
00000390: 430b ebbc be0e b0bd 8190 a3bb 211b 803d
000003a0: 14ba 8c3d 9735 c23d 53bf 6cbd 2297 f53c
000003b0: 77c3 243c b81b 453d 882d 9e3c 303e e83c
000003c0: f567 bbbd 606d 1bbd 8b89 a23d 75b9 b2bd
000003d0: 465c f9b9 c42c a7bb 212a 85bd 0126 243d
000003e0: 95b7 ce3c c728 40bd 5866 853d 5192 eebc
000003f0: bd69 c3bb b73b 90bd 6fe0 84bc 043c 78bd
0.10167717 -0.0133712115 -0.016281344 -0.05889219 0.068863004 0.0061826073 0.085388444 -0.00671323
0.058493916 0.07876552 0.13944085 0.06705823 -0.048143238 -0.021921095 0.09925212 0.09489429
-0.017107049 0.079614304 -0.0056637805 -0.059232716 0.09308719 0.0024494412 0.04298328 -0.073917516
0.040653676 0.06484348 0.073529065 0.057141688 -0.028474472 0.060788795 -0.024100872 -0.047961023
0.07830728 0.071316436 -0.0013605673 0.018053731 0.089112334 -0.012036675 0.060034692 0.01038601
0.048956703 0.093002796 -0.024474408 0.010027863 0.18270314 -0.051932875 0.001721713 -0.07312826
-0.025922164 -0.07911804 0.049687617 0.06899382 -0.04845349 -0.02268797 -0.0063436762 -0.0267749
0.012650191 0.08097052 -0.06408747 0.023249352 0.020820687 -0.07156291 0.072361134 -0.0034786637
0.094129965 0.019177223 -0.016538749 0.022236519 -0.079229474 -0.03128405 0.0060499706 0.1322873
0.11648397 0.025717687 0.081894174 0.17406811 0.004464167 0.028755419 -0.0684505 0.088711776
0.043580044 -0.036855016 0.07162852 -0.026360115 -0.017538361 -0.053308863 0.055430926 -0.040400926
0.0063250917 -0.06600465 0.042725384 0.102497175 0.08123 0.08286873 -0.022669055 -0.08254248
-0.00019761978 -0.03763245 -0.06899573 -0.0027155005 0.055360295 0.10125541 0.09150549 0.084780246
0.09158007 -0.038775396 0.06599372 0.057672244 0.037466392 0.08868048 -0.048835557 -0.05224633
-0.015551477 0.19633324 0.11376206 0.07257791 0.0012601422 0.065276295 0.08330201 0.045552265
0.08644468 -0.039459907 0.08422431 -0.049951866 -0.014370536 0.098387115 -0.0744977 0.058171682
-0.001620547 -0.06133197 -0.04602157 -0.015401549 0.041512534 -0.06770492 -0.0016622338 -0.07377012
0.06840093 -0.011880409 0.016657947 -0.03763977 0.06550812 -0.008399938 0.07061154 0.033644844
0.013968132 -0.056728747 0.049240574 -0.0041921465 0.0039417977 0.07292435 0.041665997 -0.018788751
0.095041186 0.023520308 0.08369133 -0.028340777 -0.027960872 0.094188325 0.026074843 -0.06080413
-0.053464778 -0.062036805 0.03531779 0.005680565 -0.08348387 -0.02602707 -0.0032722305 -0.027586339
0.0115338825 0.07888422 -0.06010488 -0.02375192 0.027989684 0.036657434 -0.07927375 0.04095995
0.016901951 0.0659197 0.08268413 -0.0036538234 0.05862871 -0.04312739 0.011961178 0.054220166
0.029096292 -0.07809663 0.007882509 -0.01222312 -0.038600143 0.010250187 0.012135629 0.013453412
0.021160243 0.06175296 0.06693085 0.08895973 0.058755934 0.015040683 0.06774489 0.0872257
0.0144738415 -0.041427873 0.08818223 0.01314355 0.0384595 0.06407228 0.014162667 -0.01546175
0.0122473 0.04290899 0.059394993 0.09183452 0.007977248 0.04517355 -0.029361473 0.059767917
-0.07049598 0.01950887 -0.053849604 0.09089539 0.06122861 -0.011062641 0.044962663 0.005759977
0.04933174 -0.026702208 0.08439001 0.07286501 -0.028691893 -0.08596562 -0.0049915914 0.062551744
0.06871429 0.09482878 -0.05779965 0.029979292 0.010056368 0.048122138 0.01930882 0.028349966
-0.091506876 -0.037946105 0.079363905 -0.08726779 -0.0004756173 -0.005101772 -0.06502176 0.040075306
0.025234023 -0.04691389 0.06513661 -0.029122503 -0.0059635327 -0.0704264 -0.0162203 -0.06060411

lstm.bias_hh_l0 f4 [512]
00000000: 8a53 c83d 17ff 1fbd 5dc8 b43d abb2 a63d
00000010: a297 e13d d8d4 313d 76d8 de3d 9622 5ebb
00000020: 39fd bf3d f6bf b53d 3a49 b9bb 579f a13d
00000030: 67e3 d7bc 5518 9ebc 185c 583c ab38 e6bc
00000040: 1f2d d43d 3472 1ebd 8ec8 8b3d 8ca2 be3c
00000050: 699d 7b3c 6193 a73d baf0 bb3c cc3b 7cbd
00000060: 7400 a43d 1534 21bc fd37 493c 48fd 22bd
00000070: afb1 f03c 45da 5e3c eba8 ab3d 0791 893d
00000080: a354 07bd 3aca 0bbd df45 053d d906 d4bb
00000090: 312e c23d 0003 ae3d 69cb 8abc c676 6c3c
000000a0: 2580 b13d aa1a 843d 5670 b1bb 6f8d af3c
000000b0: e7e5 543d 514b a13d 420d 1b3e 238f ca3c
000000c0: 36ae 1abc 125a 813c 544d 3dbd b0ff ca3d
000000d0: f534 373c 2549 2b3c 3d0e 843d c539 b33d
000000e0: f05e 5ebd 09f9 72ba dcce 46bd acc8 843c
000000f0: 3ce9 093d d4fb 3a3d 5b65 bb3d 7604 99b9
00000100: 2781 a7bd 1997 d83d 4306 773d bf4e 83bc
00000110: 79a5 4bbd ef9e 14bd 30b0 3c3d 4071 d33d
00000120: 98af a63c 5943 663d f12e 4d3d 8154 cc3d
00000130: 7741 9bbd 6b19 533d 766f 4abd 0b64 763d
00000140: b971 983d 4c41 6d3d 413c 13bc 0072 8c3d
00000150: 18a1 adbd 6b77 9f3d 389c 1fbd 54a6 373d
00000160: ea35 d7bb 8320 10bc 8cc7 6a3b 7dd7 283d
00000170: dc4b bc3d 5a9f b53c 7493 bb3d 76ae 34bc
00000180: 1c09 8f3d 7868 1cbc 8abe a3ba dc29 913c
00000190: 4e6d 0b3d 72d7 2d3d 4190 44bd 1309 aa3c
000001a0: 2f41 8f3d 0107 4abd df26 cdbc e08d 933d
000001b0: 3310 83bd 5597 673d 13e8 b93c 6ff2 1e3c
000001c0: b211 793d c511 1d3e 7b45 4dbb ce98 243d
000001d0: 0b6c ebbb d2b3 063d 7fbe b73a f9a5 f1bc
000001e0: a71c 663d 9b30 38bc 94dc de3c 0126 e93c
000001f0: 9054 c93d e553 a63d 4732 983d b81d 4c3d
00000200: 1785 a03c 60aa 843d ca9a 9b3c cab0 45bd
00000210: 40dc bd3d f50d 81bd 172a a2bd 32dd d93b
00000220: aa63 a1bd 7182 8c3c b4db 8d3d b8b0 af3b
00000230: 909b af3d 6027 953d 5126 a6bd f6e5 6a3d
00000240: 9c7c 803d ab73 923d 24c3 463d 629c 903c
00000250: 9042 5a3c c316 b33d b2bf 553d 2b66 253d
00000260: b952 a1bd 204f a5bd 94e2 63bc e9a8 39bd
00000270: aed2 ac3d 8b22 ab3d 56b3 8cbd e61d 82bd
00000280: fbf6 0ebc 0e4b 483d 86e1 e53a daa3 dabc
00000290: 39dd 993d 8a5a 3c3c b04f 263d 8c3c 3b3c
000002a0: 579d 8e3d 8f68 33bd 0345 6abd 330b 873d
000002b0: 5b00 f3bc 17b2 8cbd 35ea a1bc 4b2f bb3d
000002c0: 96bb 943c 1907 a53d cae4 1a3d cfb7 4b3d
000002d0: aa5d a73d bb58 5dbd a661 0b3d 4df5 5e3b
000002e0: 93ed 353d f1b2 6ebd 4bf8 833d b62e 013d
000002f0: 75c5 163d aa7c 8dbd 64cc b9bc 4d36 1abd
00000300: 0163 7cbd 0bcf 5cbd 1b86 39bc 096a 19bd
00000310: 2bc5 e4bc 1139 4dbd ce20 91bd 2aa4 a8bc
00000320: 1e0b 1c3d e523 a93c ccd2 a1bd b8ce 94bb
00000330: a087 a0bd a64e b63d c059 8ebd dfbe 5fbd
00000340: 9ea7 003b 6296 9cbc 77d7 b4bd b475 043d
00000350: e746 69bd cd28 34bd 46d4 43bd aa01 52bd
00000360: 6d6d 3b3d d7b9 99bd ebe5 2dbc 5859 86bd
00000370: 224c 6b3d ea35 65bd 4de5 a53d 81eb 083d
00000380: be21 003c 883d 423d 893f 32bd d6e0 bebd
00000390: bcb6 d73c 48e9 993c 140b 2a3d c632 45bd
000003a0: 36f1 dfbc 96c0 5d3d 5569 573d 0202 b0bc
000003b0: f3c7 80bd 3212 8dbd fba1 e2bc 6a41 353d
000003c0: b116 de3c 963d a8bd 2f02 17bb 5870 37bd
000003d0: e122 a33d 062e 8b3d 4f69 c53d ffa1 413d
000003e0: b35d d1bc 8e66 763c b7d1 0cbd 8087 683c
000003f0: 4d0f 4dbd 995d 1c3d 250b 943b 09f0 c23c
0.09781559 -0.039061632 0.08827279 0.08139547 0.1101525 0.043415874 0.108811304 -0.0033895127
0.0937447 0.08874504 -0.0056544812 0.0789172 -0.026353551 -0.019298712 0.013205551 -0.028103193
0.10360169 -0.03868313 0.06825362 0.023270868 0.015357354 0.08182407 0.022941936 -0.061580464
0.08007899 -0.0098390775 0.012281415 -0.03979233 0.029381601 0.013601844 0.08381828 0.06717115
-0.0330397 -0.034128405 0.032537337 -0.006470543 0.094814666 0.08496666 -0.016942697 0.014432615
0.0866702 0.06450398 -0.005415003 0.021429745 0.051977064 0.078756936 0.15141776 0.024726456
-0.009440949 0.01579002 -0.046216324 0.0991205 0.0111820595 0.010454451 0.06448028 0.08751253
-0.05428976 -0.00092686765 -0.04853712 0.016208969 0.033669695 0.04565032 0.091501914 -0.00029185758
-0.08178931 0.105756946 0.060308706 -0.01602876 -0.049718354 -0.036284383 0.046066463 0.10324335
0.020347401 0.05621657 0.050093595 0.09977055 -0.07580846 0.051537912 -0.049422704 0.060154002
0.07443566 0.0579236 -0.008986534 0.06857681 -0.08477992 0.07786449 -0.03896734 0.044836357
-0.0065677064 -0.008796814 0.0035824506 0.04122113 0.091941565 0.022170711 0.09158984 -0.011027923
0.06984159 -0.009546392 -0.0012492698 0.017720155 0.034039788 0.042441793 -0.047989134 0.02075628
0.06994855 -0.049323086 -0.02504295 0.07204795 -0.06399574 0.056540806 0.02269367 0.009701355
0.06080789 0.1533881 -0.0031321931 0.04018479 -0.0071845106 0.032886334 0.0014018564 -0.029498087
0.05617967 -0.011242057 0.02720479 0.028460504 0.09830582 0.0812147 0.07431465 0.04983303
0.019594712 0.06477809 0.018994708 -0.048264302 0.09270525 -0.0630149 -0.07918184 0.006648683
-0.078803375 0.017152043 0.06926671 0.0053616427 0.08574593 0.07282901 -0.08112777 0.057348214
0.06273767 0.07150968 0.048525944 0.017652694 0.013321534 0.08744576 0.052184768 0.040380638
-0.07877106 -0.080717325 -0.013909001 -0.0453271 0.084386215 0.08356198 -0.06870143 -0.06353359
-0.008725877 0.048899703 0.0017538525 -0.026689459 0.07512898 0.011496196 0.04060334 0.01142801
0.06963604 -0.043800887 -0.05719472 0.06593933 -0.029663255 -0.068699054 -0.019764999 0.0913988
0.018155854 0.080579944 0.037815847 0.04973584 0.08172162 -0.054039698 0.03402867 0.0034020722
0.04441602 -0.05827612 0.064438425 0.031538688 0.036809403 -0.069085434 -0.022680469 -0.03764944
-0.061617855 -0.05390839 -0.011323477 -0.03745464 -0.027926048 -0.05010325 -0.07086335 -0.020586092
0.03809654 0.020646999 -0.079015344 -0.0045412444 -0.078383684 0.0890172 -0.06950712 -0.05462539
0.0019631158 -0.019114677 -0.08830159 0.032338813 -0.056952383 -0.043984223 -0.04780986 -0.05127112
0.045758653 -0.07506149 -0.010613899 -0.0656001 0.057445653 -0.05595962 0.08100376 0.03342772
0.007820545 0.047421962 -0.043517623 -0.09320228 0.026332252 0.018787995 0.04151447 -0.048144124
-0.027336698 0.054138742 0.052590687 -0.021485332 -0.06288137 -0.06888236 -0.027665129 0.044251837
0.02711043 -0.082148716 -0.0023042073 -0.044784874 0.07965637 0.06795888 0.09639227 0.047273632
-0.025557375 0.015039099 -0.034379687 0.014192462 -0.05006342 0.0381752 0.00451793 0.023796098

lstm.weight_ih_l1 f4 [512, 128]
00000000: 0921 4cbd 4423 d53d 03ad 97bd 57a9 893c
00000010: d1b6 d5bb 1b9c bb3d 319e 01bc dc8a 6c3b
00000020: 28da 623c 2415 90bd 226e 643d 455d c03d
00000030: 6b52 513d 8928 48bd 3564 f4bc 88ed e13c
00000040: 360a d43b be66 0b3d 3b29 213d bfa6 8f3d
00000050: 0c3a cdbc e4b9 7bbd c76f a23d f639 8d3d
00000060: 6277 b63c 4d04 f23c 6a95 a63d 62cf 5e3d
00000070: e8e3 c4bc 4d02 52bd 8def 983d 37e8 853d
00000080: 7306 07bd a542 1b3d 14a0 7cbd 9598 033b
00000090: 19b6 8ebc bb2a 9cbc 8f9f c9bc 9297 1a3d
000000a0: d1a9 9e3d 3eaf 1d3d 696e eebc 7161 453c
000000b0: 53e3 8ebc d8a4 d93a c2e4 25bd bf80 5bbc
000000c0: c181 b43b de3f ad3c 86d5 bf3c 26df 52bd
000000d0: 5c58 99bb f72b fe3c 9ee4 dcbc 8898 d93c
000000e0: 0636 473d c2c4 853d 383a 77bc 37bb cabd
000000f0: 72f5 703d 6c12 b73d 8b7d d53d ceff 393d
00000100: 9c74 69bd d7ab 933d 0be6 11bd c3a4 1d3d
00000110: 0fa2 b93c ae39 8e3d 2609 b93d 5cbb ff3c
00000120: b72b 723d 1cd7 8bbd 7a95 88bc d3cc 623d
00000130: accd 78bd 88dc f73c 2ee2 00bc 0e68 4cbc
00000140: 7a1a 8c3d 01ee 31bc 28f4 bb3c 9e46 a93c
00000150: 0d7f a3bc ed6c 883d 5dab 09bd 337e 943d
00000160: 0e6e 9dbd 0bc8 99bd 37e5 c93d f69a fb3c
00000170: b3db 52bd f4e0 d0bc f47d b53b a912 a6bd
00000180: 15c2 0a3d a461 a03d 502e 17bd 33b8 213d
00000190: f6f2 a13c cbfa 58bd 18c5 873c 2f54 bb3d
000001a0: 913e 6c3a cd28 9cbd b537 823d 34a9 623c
000001b0: 713c 3cbd f3f2 4b3d 5323 7a3d e53a 893d
000001c0: 61aa 003d d645 8dbd 66a6 d03d bde3 94bd
000001d0: 9fdd 38bd 52a9 80bd 0bba febb ed0a 6c3d
000001e0: ae6c 9ebc 00d1 2a3d 6192 0fbd ca5e a93d
000001f0: 40fa f7bc b8ba a6bd 7cb7 893d 97ce 8ebd
00000200: bef5 fe3b ddce 39bd d0eb 5cbc 6ac8 3fbd
00000210: effb ca3d 20be 9bbd a7a0 873d 9865 a43b
00000220: b792 a2bc 6e4a b2bd d135 25bd c06e dfbd
00000230: af05 90bd 57a3 a6bd 4058 a43c 73a4 dcbd
00000240: 38f1 533d 6a08 f3bc 236d 84bc c569 83bd
00000250: e107 bbbd a55e e7bc e53f 873c f629 8cbb
00000260: 302d 63bd 753f 183d 6905 34bd d5aa 24bd
00000270: 19cf 863d 6ea6 783d bbd8 5ebd 50d1 4c3d
00000280: 1f2d 963d 1a19 993d 5aee debc 6265 88bd
00000290: 0d17 4b3d 99be b03c 06d3 07bd d43c f6bc
000002a0: ba0f 853d 37e5 9e3c e039 a03b 02b3 2bbd
000002b0: ba95 7a3d cc1f 213d 0421 22bc c983 013d
000002c0: 6482 f73d 9c7b 8bbd ed60 51bd 09ff 323d
000002d0: 90f3 033c 515d 683d 4a17 9c3a e546 9e3c
000002e0: 6833 06bd a7c1 05bd d82b 3d3d a289 d83d
000002f0: d7aa 2f3d 7db4 3e3d ab79 b73d eaaa c73d
00000300: 3aca 43bd 3c7d 2d3d 8765 c2bd 9c43 f3bc
00000310: 75e7 303d 8158 9c3d 85e3 bfbc fcdd dcbc
00000320: ffc1 46bd 1f19 97bd f574 f83c c997 723d
00000330: 884a 083d 1b1a a33d 1b72 763d b981 7f3d
00000340: 3de7 24bd ff65 8e3c e14f 723d ab02 133d
00000350: 00e7 6dbd 9569 d9bc eea5 46bd 1eb0 cfbd
00000360: a471 813d 5c25 913d ea19 6f3d 4751 cebd
00000370: a4fc c0bd d48d 29bd 1b70 78bd 2760 973c
00000380: aec2 44bc de9b e8b8 cd60 af3c 9afb 043d
00000390: 8b7c d03c f731 c03b 9972 3fbd f430 e9bd
000003a0: 9abe 923b d0a8 4fbd 9c63 a5bd 6110 a33c
000003b0: ea41 eb3d a490 26bc fc96 e43c 2ece b6bd
000003c0: ad6f 9bbd 7927 e23c b354 f4bb a98f d23d
000003d0: 4158 453d 16b8 8fba 3b25 4e3d 92e2 b23d
000003e0: 9889 3bbc 592f 6ebd d9f3 40bd 4703 c53d
000003f0: 888e 82ba ac4c a13d cf0d ceba 96f1 3cbd
-0.049836192 0.10407117 -0.07406046 0.01680438 -0.0065220376 0.09160634 -0.007911251 0.0036093509
0.013845958 -0.07035282 0.055769093 0.0939279 0.05110399 -0.048866782 -0.029832939 0.027579084
0.006470944 0.03403353 0.03934596 0.07014226 -0.025052093 -0.061456576 0.07931476 0.06895821
0.022273723 0.029543066 0.08133967 0.054396994 -0.024034455 -0.051271725 0.07467566 0.06538432
-0.032965135 0.037905354 -0.0616761 0.002007996 -0.017420815 -0.019063344 -0.024612216 0.037742205
0.07747234 0.038497202 -0.029105382 0.012047158 -0.017442381 0.0016604913 -0.040501364 -0.013397395
0.005508632 0.021148618 0.023417246 -0.051482342 -0.0046797227 0.031026823 -0.026964482 0.02656199
0.048635505 0.06531669 -0.015089564 -0.0989899 0.058827825 0.089390606 0.10424336 0.04540997
-0.056995973 0.0721051 -0.035619777 0.038487207 0.022660283 0.06944595 0.09034948 0.03121727
0.05912372 -0.06828138 -0.016672838 0.055371117 -0.06074302 0.030256525 -0.007866425 -0.01247598
0.068409875 -0.010859967 0.022943571 0.020663556 -0.019958043 0.06661401 -0.03361069 0.07250633
-0.07687007 -0.07508858 0.098581724 0.03071354 -0.051479053 -0.025497891 0.0055386964 -0.08109028
0.033876497 0.078311235 -0.0369094 0.039482307 0.019769173 -0.05297355 0.016573474 0.09146916
0.00090120087 -0.0762497 0.063582815 0.0138342865 -0.04595608 0.04979224 0.061068844 0.06700686
0.031412486 -0.06898086 0.10187988 -0.0727 -0.04513323 -0.06282295 -0.007773643 0.057627607
-0.019338932 0.041703224 -0.035051707 0.08270033 -0.030270696 -0.081410825 0.0672445 -0.06972998
0.0077807596 -0.045363296 -0.013483956 -0.04682199 0.09911334 -0.07604623 0.06622439 0.0050169937
-0.01984535 -0.087056026 -0.040334526 -0.10909796 -0.07032334 -0.08136623 0.020061612 -0.10773554
0.051743716 -0.029667098 -0.016165322 -0.06416658 -0.09132362 -0.028243372 0.01650996 -0.004277463
-0.055463016 0.037169892 -0.043950472 -0.04020198 0.065824695 0.060705595 -0.05440591 0.050004303
0.07332825 0.07475491 -0.027213264 -0.06659962 0.04958253 0.021575259 -0.033160232 -0.030058302
0.0649714 0.019396408 0.0048897117 -0.041918762 0.061177947 0.039336964 -0.009895567 0.03161982
0.12085417 -0.06810686 -0.051117826 0.04370025 0.008053675 0.05672962 0.0011908796 0.019320915
-0.03276387 -0.032655384 0.04618439 0.105731264 0.042887535 0.046558846 0.08958753 0.09749396
-0.04780028 0.04235576 -0.09492021 -0.029695325 0.043189485 0.07634068 -0.02342392 -0.02696132
-0.048524853 -0.07377838 0.030329207 0.059226785 0.033274204 0.079639636 0.060167413 0.062379573
-0.04025959 0.01738262 0.05915821 0.035891216 -0.058081627 -0.026539603 -0.048498087 -0.101410136
0.06320503 0.07087204 0.058374323 -0.10074096 -0.094231874 -0.041395023 -0.060653787 0.018478466
-0.012009306 -0.000110916546 0.021408463 0.03246651 0.025450012 0.0058653313 -0.04674015 -0.1138629
0.004478288 -0.0506981 -0.080756396 0.019905271 0.114871815 -0.010166321 0.027904026 -0.089260444
-0.0758966 0.027606713 -0.007456386 0.10281307 0.04817987 -0.0010964896 0.050328474 0.08734621
-0.011446379 -0.058150623 -0.04710755 0.09619766 -0.000996069 0.07875952 -0.0015720668 -0.04612883

lstm.weight_hh_l1 f4 [512, 128]
00000000: f1aa 6f3d 7424 b13d cc2d 1e3d ccce cbbd
00000010: 81c4 143d f104 6fbc e971 893d 01d8 4c3d
00000020: 8dd8 86bd 403d f5bd 1825 463d 43ea 423d
00000030: 82c2 f93c 89eb 93bd 1ee2 2bbd ba6f 6b3d
00000040: 5194 9dbc 5de6 dabc 3998 423d 8af7 a03d
00000050: a7de bfbd 9bfa 8dbd 3082 2c3d ba30 a8bd
00000060: 5c68 6e3d 4770 083a 52a1 2c3d f934 b03c
00000070: 15f2 a23d 72ae c6bd ee62 42bd 23ff 173c
00000080: 6c3c 173d cff1 813c f9a2 95bd b02d 98bd
00000090: 5247 8ebc 3c31 2cbd 303b 97bd de52 64bd
000000a0: 80a8 9bbd 492d fabb acea a43d 911c 2e3d
000000b0: bbdf bd3d ab08 88bb d3c0 9cbc bece 3a3d
000000c0: 8cd7 b3bd c815 76bd c029 a33d e69a a9bd
000000d0: bd00 593d b590 5a3d 935e 85bd 7f42 09bd
000000e0: 656a 133d 8497 89bd 8ff7 a93b 637a c1bc
000000f0: f87f 0fbd 36d2 603b a13d 293d a701 2abd
00000100: a021 b9bd c4f1 df3c d7f9 01bd 4f8b 453d
00000110: e782 95bd 6482 253c 0695 a8bd e0b1 59bd
00000120: 1772 8b3d 82f2 81bd af36 8fbd ed64 3e3d
00000130: 2e1e bb3b da8e 893d bd75 8fbd f9a1 1abd
00000140: 8cbe 2b3d dd02 e6bd b4e9 783d aadc bfbd
00000150: 76b2 5d3b dee8 0fbd 723f e03b 16b0 17bd
00000160: 0786 57bd 1964 1f3d f912 46bd 5024 363d
00000170: 72a8 3ebd 2eda 7e3b 4aa8 16bd 855e 753d
00000180: 50b9 a8bd ac3f 413c f27e 92bd 0e68 df3c
00000190: bd7e 253d e306 51bd d43f b3bd 48d3 5bbd
000001a0: 4452 99bc 7fe1 66bd 612a b93d f918 d23d
000001b0: 03c0 bd3b 2071 023e 44d8 4fbc 5edb e1bc
000001c0: 7057 c6bc c23d 333d 6d39 43bd 94fa a83d
000001d0: 1672 d4bb 09af a2bc 9ced 6bbb efaf f9bc
000001e0: e3bc 973d 78b0 33bd ad95 b03c e72b b0bb
000001f0: 941b 90bc ec3d 34bd 88f0 193d 6264 adbd
00000200: ab31 203d 521b 39ba d523 36bd 614a b9bc
00000210: 446f 4d3d 88db c2bd 8d9d 0e3d 5a5e 523d
00000220: f7fd 8dbc 0cbf afbb 0efe f2bc 5f74 c6bd
00000230: dec5 a63d 7802 c9bc 49ae c2bd 6323 39bd
00000240: 4009 5b3d 6cec 173d 2e6a adbc 45e6 bebd
00000250: eda8 2b3d 7c67 a1bb d729 90bd 5805 2e3d
00000260: 9bdd 22bd b768 3a3d 38b0 5cbc 3f4b 65bd
00000270: 99e1 61bd e756 d7bc 47cd a8bd cd9d 893d
00000280: 34e7 88bd 4531 c8bc 3917 893d 5162 43bc
00000290: 4f5b 72bb 8935 553d 5c35 a6bd 446d 9fbd
000002a0: afef 183d 0be1 3cbc 6f92 7f3c 0c81 bb3d
000002b0: bfb3 6dbc 3e39 27bb 4ccf a33d bfbc a1bd
000002c0: 8762 18bd 74a3 47bc 8e0a c93d 63ad e8bc
000002d0: 7e5a 2b3d 3f19 87bc 3b95 ccbd 976a b3bc
000002e0: 2202 54bd bd75 823d b91d 9d3d d0f0 2d3d
000002f0: dd30 acbd a989 703d 3a0c 0bbd 59b1 893c
00000300: 0ce0 cfbd 6328 253d b332 9c3d cc1f 663d
00000310: 9d47 53bd b6d9 a8bd d8dc 9ebd 260f 8d3d
00000320: 3ae9 d93d 2210 9d3d f56b 38bd b983 ca3c
00000330: ce49 683d 7aa2 6d3d de33 3e3c e77e 713d
00000340: 4961 75bd 1377 243d 5616 543d 1564 9cbd
00000350: f367 583c d62a 04bd f70d 8a3d bdb2 903c
00000360: 2b70 9ebd fc36 be3d 2eb9 023d 33b2 633d
00000370: baf2 0b3d a9a1 13bc 7ed4 243d ab03 0a3d
00000380: f5b2 cf3c ff90 2cbd afc2 99bd 0836 a53d
00000390: e782 673c e9d3 d0bc 55c7 95bd 5d6b 4e3d
000003a0: 18b9 603d ce91 92bd 82b2 e53d 1630 543b
000003b0: b98b cdbc be94 ce3d ee75 333d 516c b83c
000003c0: 03eb 643c 59fa 143c e085 c13c 8e37 fa3c
000003d0: 8594 b0bc ece3 16bc ac5f da3b 7b9b f13c
000003e0: 6c6b 2ebd 6cc9 8f3d 2b6f fdbc 5083 bb3d
000003f0: d471 833d dd30 6cbd 9c2a 6fbc f783 63bd
0.05851263 0.08649531 0.038617894 -0.09951553 0.036320213 -0.0145885805 0.0671118 0.050010685
-0.065842725 -0.11974573 0.04837522 0.04758669 0.030488256 -0.07222659 -0.04196369 0.057479598
-0.019235762 -0.026721174 0.047508452 0.07859714 -0.093686394 -0.06932565 0.042116344 -0.08212419
0.058204994 0.0005204719 0.042146035 0.021509634 0.0795633 -0.097012416 -0.047457628 0.009277138
0.036922857 0.015862374 -0.07306475 -0.07430589 -0.017367993 -0.04203914 -0.07384336 -0.05574309
-0.07600498 -0.007634793 0.080525726 0.04250771 0.09271189 -0.004151424 -0.019134915 0.04560732
-0.08781347 -0.060079366 0.079669476 -0.08281498 0.05297922 0.05336066 -0.06512179 -0.03351068
0.035990138 -0.067183524 0.005186982 -0.023617929 -0.03503415 0.0034304983 0.04131854 -0.041505482
-0.090396166 0.027336963 -0.031732406 0.04822856 -0.07300358 0.010101888 -0.08231549 -0.05314815
0.0680887 -0.06345083 -0.06992852 0.04648297 0.005710385 0.067167 -0.07004879 -0.037752125
0.041929767 -0.11231015 0.06076975 -0.0936826 0.0033828295 -0.03513419 0.006843501 -0.037033163
-0.052618053 0.03891382 -0.048357937 0.044468224 -0.04654736 0.003888737 -0.036781587 0.059904594
-0.082384706 0.011794966 -0.07153119 0.027271297 0.04040407 -0.05103196 -0.087524086 -0.05366829
-0.018715985 -0.056367394 0.09041286 0.102586694 0.005790712 0.12738466 -0.012685839 -0.027570423
-0.024211615 0.04376007 -0.047662187 0.08250919 -0.0064833267 -0.019858854 -0.003599978 -0.0304794
0.07409074 -0.043869466 0.021555746 -0.0053763273 -0.017591275 -0.044004366 0.037582904 -0.08466412
0.039109867 -0.0007061261 -0.044467766 -0.022618474 0.05015494 -0.095145285 0.03481822 0.051359512
-0.017333014 -0.0053633507 -0.029662158 -0.09690165 0.08143209 -0.02453731 -0.095058985 -0.045199763
0.05347562 0.037090704 -0.021168794 -0.09321264 0.041909147 -0.0049256664 -0.0703923 0.042485565
-0.03976212 0.04551002 -0.013469748 -0.055979963 -0.055146787 -0.026286555 -0.082422785 0.06719551
-0.066847235 -0.024437556 0.066938825 -0.011925296 -0.0036980694 0.05205301 -0.08115646 -0.07784513
0.037337955 -0.011528264 0.015598877 0.09155473 -0.014508187 -0.0025516297 0.07998523 -0.078973286
-0.037203338 -0.012184966 0.09816466 -0.02840299 0.041834347 -0.01649153 -0.09989401 -0.021901412
-0.051759847 0.06370113 0.07671685 0.042465985 -0.084077574 0.058725033 -0.033947207 0.016808199
-0.101501554 0.04032172 0.076268576 0.056182668 -0.051581968 -0.0824465 -0.07756966 0.06887655
0.106401876 0.07669093 -0.04502483 0.024721013 0.05671101 0.058016278 0.011609046 0.058958914
-0.05990723 0.04015262 0.051779114 -0.07636277 0.013208377 -0.032267414 0.06740945 0.017663354
-0.07736238 0.09287831 0.031914882 0.055589866 0.03416703 -0.009010711 0.04024171 0.033694904
0.025353888 -0.042130467 -0.07507836 0.08066946 0.014130331 -0.025491672 -0.0731341 0.05039536
0.05486402 -0.07156716 0.11215688 0.0032377294 -0.025091039 0.10086964 0.04381364 0.022512587
0.013972047 0.009092891 0.023623407 0.030544069 -0.021555195 -0.009209614 0.006664237 0.029493084
-0.042582914 0.0702084 -0.030936798 0.09155905 0.06418195 -0.057663787 -0.014597561 -0.055545773

lstm.bias_ih_l1 f4 [512]
00000000: 5d46 363d 4a3f d53c 9174 c43d 63a3 193d
00000010: 44e3 833d 32b3 a2bc f4b4 d83b c238 89bd
00000020: 4b52 1f3d 19f1 213d 08fa 3c3d 32d0 8d3d
00000030: c7b1 7b3d 4de9 193d 7c74 a43d d276 833c
00000040: 00c0 7aba d86e 87bd d6f3 bdbc e9c8 9dbd
00000050: 7e64 49bd a182 ca3d b9b3 ab3d 1225 30bd
00000060: ea28 823c 6bc1 d33c 67b6 ce3d 4317 013c
00000070: 710b c93d ee9e 353d e25d b93d 4bb9 f53d
00000080: 92cd 10bd 5401 5c3e d481 52bd 81c9 45bd
00000090: cb9e 8f3c 2cd5 7b3d b8fb 263d a0e8 04bc
000000a0: cad1 17bd 5e75 423c 5121 97ba 9df7 afbc
000000b0: ead5 65bb 1cd5 933d 7bf5 5cbd baa4 043d
000000c0: 25e0 c43d f4e9 933d cdca 90bc bb53 81bc
000000d0: 7e59 323c fc51 f83c c6e9 313e 6525 583d
000000e0: c0f2 863a ab3b b23d cd78 273d 451b 23bd
000000f0: 14bc bd3d 3ff5 9d3c aa89 ca3d 72a8 57bd
00000100: c757 a2bd 4280 223d c722 2a3e 3315 30bd
00000110: decf c13d b048 833d b228 003d 3232 8e3d
00000120: c633 d4bc a172 79bd 36e3 d33d 4c4b 3c3d
00000130: 7c57 6a3d 2c4d b63d 4e06 06bd 5664 533c
00000140: 2b4e 9c3d b484 823d 0bb8 763d 1f45 41bb
00000150: 4b72 55bd fa71 e03b d863 8b3d 7b24 96bb
00000160: 562f 9fbd 7f78 75bd 423f 89bc 47f5 e73d
00000170: 3ddc 913d 388d b0bc 32c2 a2bb 304c 6c3d
00000180: 2a8b f3bc f841 82bc f8c3 0c3e 0636 d73c
00000190: 1936 a93d c94b 1ebd d4e0 e7bb ea58 4e3c
000001a0: 89f3 34bc 8885 b83d 931a 01bd b6f5 cabc
000001b0: bdad 98bd d812 ca3c 45e3 be3d cbbe 053d
000001c0: 674d e23c 0ac5 283d fede 9e3d d20c 8d3d
000001d0: 8fae a93d e8a0 1dbc 3af4 823d c071 9e3d
000001e0: ff78 123d cac1 473d a9d8 0d3e d311 a139
000001f0: 3eb3 673d 496c 27bc 4b78 0b3d acc6 efbb
00000200: 1a6b 68bd cd32 203c dddf 893c f47e b6bc
00000210: 9636 683c 0428 973d e989 a43d 8542 ebbc
00000220: ba9b 5d3d cda9 523d 0a12 293d 0bbc 2abd
00000230: 3b7b 30bd baf4 7dbd 70b7 b0bd 5751 b63d
00000240: aa8c 5fbc 5e11 adbd 5d3d e3bc 1d98 5cbd
00000250: 4f6a 00bd 3f6e 903c bb00 613d fd7d f0bc
00000260: d9d8 d13c 4fe2 70bd 071c 223c 135d 983d
00000270: d2aa 6b3d 4e8c 88bc cd0e 91bc a335 a23d
00000280: 54cd 20ba 8498 89bc a5b5 2e3d f7ee 6a3d
00000290: 973c c93c 001a 13bd 38e8 4d3d aa5e d63b
000002a0: d123 6b3d a5a7 893d 0d88 00bd 282f 533d
000002b0: 661a 32bc d7de 38bd ec49 93bb ad57 8abd
000002c0: 2305 f5bb 23b5 073d 3afa 633c 627f 2dbd
000002d0: 200a 353d 4d18 95bd 35dd 3ebe bc7f a5bd
000002e0: 4ea6 2fbd 871e a5bc 4791 6ebd 59e0 b1bd
000002f0: ce46 1dbd 69ac 773d dc74 993c e04f db3c
00000300: 1383 5a3b 634e a23d a766 433d dadc 25bd
00000310: f525 41bd 9e24 8cbd ef3c a53d 7b21 b3bc
00000320: 7bfd 5d3c 76ba 0f3d 2b26 103d 3c9a be3d
00000330: 7fe9 7dbd 616f 843c f085 363d f90d a03b
00000340: c553 7e3c d193 393d dbe4 3d3d d200 003d
00000350: 16ee bbbd 118f 9c3c b730 513d 4d35 873d
00000360: 6c0e da3b 142d 1c3d 0436 02bc f1c4 a83d
00000370: 20a2 f73c 96a4 5a3b 256d a73d b1cf 9dbc
00000380: 5541 60bb 68e4 b0bc f5c2 6cbd fbad d7bc
00000390: e1ca 12bc 669b 9e3c b8d2 3f3c 5976 763c
000003a0: e0bf dcbc 491a 09bc 73f5 113c eb35 4e3d
000003b0: 8f03 aebd 8910 883d 3ee1 293c 4f4b 59bd
000003c0: 49f9 5c3d ea4a 86bd 46d8 983d 8730 dbbb
000003d0: 0c8d 92bc d8b9 243d 4073 f6ba 6aed 9fbc
000003e0: 682e 1f3d 055e 833d 6817 60bd 8957 aa3d
000003f0: ff4c 7ebd 751b 633d a1e2 303d d6f2 683d
0.044500697 0.026031155 0.09592546 0.037509333 0.06439832 -0.019860838 0.006613368 -0.06700279
0.03889684 0.03953657 0.046136886 0.06924476 0.06144884 0.03757601 0.0803003 0.016047869
-0.00095653534 -0.06612939 -0.02318756 -0.07704336 -0.049168102 0.09888197 0.08383889 -0.043004103
0.01588865 0.025849065 0.10093384 0.007879081 0.098166354 0.04434102 0.0905111 0.119982325
-0.035352297 0.21484882 -0.051393345 -0.048287872 0.017531773 0.061482593 0.0407674 -0.008112103
-0.037065305 0.011868803 -0.0011530315 -0.021480376 -0.003507013 0.07218382 -0.053945046 0.032383658
0.09613065 0.072223574 -0.017674828 -0.015786996 0.010885594 0.03031253 0.17374334 0.052770037
0.0010295734 0.08702787 0.04088669 -0.039820928 0.09264389 0.019281982 0.098895386 -0.052650876
-0.079268984 0.039673097 0.16614829 -0.042988967 0.09463476 0.064103484 0.03128881 0.06943168
-0.025903594 -0.060900334 0.103460714 0.045970246 0.057212338 0.08901438 -0.032720856 0.01290234
0.07632097 0.06372967 0.06023411 -0.0029490662 -0.05211095 0.0068495246 0.06806153 -0.0045819855
-0.077727005 -0.059929367 -0.016753796 0.1132608 0.07122085 -0.021551713 -0.0049669975 0.057689846
-0.029729445 -0.015900597 0.13746631 0.026270878 0.082622714 -0.038646493 -0.007076362 0.012594441
-0.011044391 0.09009844 -0.031519484 -0.024775367 -0.07455013 0.024667189 0.09320692 0.032652657
0.027624799 0.041203536 0.07757376 0.06887211 0.082852475 -0.009620883 0.06394239 0.0773654
0.035759922 0.048768796 0.1385218 0.00030721593 0.056567423 -0.010218688 0.034050267 -0.0073173847
-0.056742765 0.009777737 0.01683038 -0.022277333 0.014173171 0.07380679 0.08034117 -0.028718242
0.05410359 0.051431466 0.04127697 -0.041683238 -0.04308627 -0.062000968 -0.08628738 0.08902233
-0.013644377 -0.08450578 -0.027739221 -0.053856004 -0.031351384 0.017630694 0.054932337 -0.02935695
0.025616096 -0.058809575 0.009894378 0.074396275 0.057535954 -0.016668465 -0.017707253 0.07920387
-0.0006134112 -0.016796358 0.0426537 0.0573568 0.024565024 -0.035913467 0.05027029 0.0065420466
0.057407204 0.06721429 -0.031379748 0.051558644 -0.010870552 -0.04513439 -0.004494896 -0.06755004
-0.007477419 0.03313173 0.013914639 -0.04235781 0.04419911 -0.07280026 -0.18639071 -0.08081004
-0.04288321 -0.020156158 -0.058244016 -0.08685369 -0.038397603 0.060467158 0.01873248 0.026771486
0.0033342286 0.07925107 0.04770532 -0.040493824 -0.04715534 -0.06842922 0.08068263 -0.02186655
0.013549204 0.035089932 0.03519265 0.093067616 -0.061990257 0.01616639 0.044561327 0.004884478
0.015522902 0.045306984 0.04636083 0.031250782 -0.09176271 0.019111188 0.05107185 0.06601963
0.0066545513 0.038128927 -0.007947449 0.082406886 0.030228674 0.003336226 0.081751145 -0.019264074
-0.0034218628 -0.021593288 -0.057803113 -0.026328078 -0.008959503 0.01936121 0.011707954 0.015042865
-0.026946962 -0.008368083 0.008908617 0.05034439 -0.084967725 0.06643779 0.010368643 -0.053050335
0.053948674 -0.065572575 0.07463126 -0.0066891345 -0.017889522 0.040216297 -0.0018802658 -0.019522388
0.038862616 0.06414417 -0.054709822 0.08317477 -0.062085148 0.055446107 0.04318488 0.05687221
