models/LHX model.pth (torch, 270882 bytes, 5 tensors)

lstm.weight_ih_l0 f4 [512, 1]
00000000: 039b c939 dab1 2bbc a376 b2bc 0881 a7bd
00000010: 8325 99bd 1915 e73d acf6 7d3d 404e e3bd
00000020: be42 d43d bab4 fe3d 48ec e83d bc40 883d
00000030: 1b1e 9abd 802c da3c 26ac d93d 2d4e 233d
00000040: 6098 f33d 6d54 363d 3fc3 213d 6e4c bf3d
00000050: 971e 80bd 74bf 73bd e2a4 ee3b e2bc d33c
00000060: 3ed4 c2bd c15f ef3d c921 4c3d c2a7 283e
00000070: 4094 cfbc bcff 14bd cdd4 9e3d 84d4 47bb
00000080: 83e9 163a 4e54 c13d 7667 16be 2553 e9bd
00000090: b0ce 7f3d 2793 523d 287c c5bd 0592 2e3c
000000a0: f520 9cbd 9c38 8f3d 97eb be3c 449f f53d
000000b0: 48e4 adbd d925 6dbd 67ce b23d 9977 b53d
000000c0: 0336 e6bd cefb a7bc 5305 0e3e e53d f53d
000000d0: f5ee 6abd 9225 40bd c180 84bb 1e68 b8bb
000000e0: c1ad d5ba 7d9b 673c d752 b03d 5ead 8a3d
000000f0: c9b3 21bd 9f17 20bd 0e43 bd3b 2118 0a3d
00000100: 268f a93d 21c7 19bd 4be6 ea3d c0b1 9a3d
00000110: 799d bc3c 4ccd 113c 5fae 96ba 958d ffbc
00000120: 3b9b b33d 504d edbc b332 cdbc 7fa7 1d3e
00000130: 636e debd 5bb3 06be a944 afbd 227f 753d
00000140: 7aee 3c3d c271 bebc 8bfc 5bbd 5e55 4db9
00000150: 4e2d f53d 6de3 0bbe a283 b93c 1426 6f3d
00000160: e7a2 de3d f2f3 2ebc 0b45 97bd ae08 1b3d
00000170: 9f71 823d 14cd a53d 062c 9d3d 77e8 c6bd
00000180: 5b8d a73c d0ec ba3d f406 1bbd 7646 2b3e
00000190: 9aaa dfbd 0b20 383c 4651 163e 3b7a 18be
000001a0: 326a e8bd fa45 b13d 1586 273b 75a1 203d
000001b0: 435f 3f3d 8d04 a33d 77ce c9bd 25c6 973d
000001c0: 1401 8abd 876f a23d f18d 273e adfe a93d
000001d0: 0afc fd3c 2cf6 1f3d 1b93 98bd a882 983d
000001e0: 8f78 d63d 282f ecbd 4a6b e13d 085c 013e
000001f0: 5c39 a2bd 7831 eabd 2b74 32bd 8f66 b73d
00000200: c7c5 29bd 353e be3d af65 203d 5a36 16be
00000210: 8e17 cdbd 3f87 8e3d ca2c bb3d be4b 04be
00000220: 8559 8b3e 1530 1e3d dc25 3cbd e76a 253e
00000230: b3ad 993b 89be 4b3d 9fd3 f03d fb13 bbbd
00000240: 390d cf3d 20d1 833d de99 bc3d c3c3 243e
00000250: 4a38 d6bd 7276 baba 0dd0 593d 9335 febd
00000260: 4636 9b3a b0d0 c33c 843e 393c 49f7 633d
00000270: 4938 033d 1266 a93c b778 f73d dba0 cb3d
00000280: 2f91 93bb a2d9 0abd a4a8 44bd 7d40 09be
00000290: f34f 9b3d 6160 3dbc e7e1 c0bd e0bf 9f3d
000002a0: 783e ddbd 1500 563d d8be ac3c 550d 473c
000002b0: 16d7 69bd f4a5 e6bd 93df b73a 3cd5 68bd
000002c0: f379 40bd 39c2 edbc 78c0 1b3e fa6b 103e
000002d0: 3525 efbb bdc3 10bd 51e3 83bd e9df 34bd
000002e0: b0bc c0bd af16 d3bd a0bf 69bd a251 d73d
000002f0: e208 17be 2ab1 06bd a2c7 dabd 2239 89bc
00000300: 84a3 253e ba5e 233d 36ee e23d 9ce2 753d
00000310: 2bf2 33bd efab 7a3d 5484 083e 182c 993c
00000320: 646a b43c e2af 27bd 83b3 f23a c9c7 683d
00000330: 60f5 13be 7539 0fbe f761 c9bd a859 a2bd
00000340: c951 e53d a43b e7bd eb5f 453d 3fa3 b6bc
00000350: 093d 313e aef7 50be 2080 723d c344 26bc
00000360: 2b46 b13d e644 d83c 20e2 0abe 4823 5abd
00000370: d8e3 20bd 4896 3a3e face 1d3c 0eb4 82bd
00000380: 5773 d03b 8189 153e ebc7 88bd 3b9d c33d
00000390: 1843 18be 5573 a3bd 1e27 0f3e 10c0 eebd
000003a0: 9573 2abe 63fc 113e 93ec ac3d c28a 91bd
000003b0: d169 8fbb 2164 a83d 7706 9abd ea80 163e
000003c0: bc00 04bd cadb eebd f7c3 da3d 053e 64bd
000003d0: ac86 46bb 6da6 4bbc 044c 1bbe ccb9 2b3e
000003e0: 45d9 093e b44a 07be b3e5 1dbd c1fe 213e
000003f0: 6ce5 62bd 7e95 77bd b9ce b6bc 7b29 d73c
0.000384532 -0.010479415 -0.021785086 -0.08178908 -0.07477858 0.11283321 0.062002823 -0.110989094
0.103642926 0.124368146 0.11373192 0.06652972 -0.075252734 0.026632547 0.10628538 0.039869476
0.118942976 0.04451411 0.03949284 0.0934075 -0.062558345 -0.059508756 0.007282839 0.025846902
-0.09513138 0.116881855 0.049836908 0.16470245 -0.025339246 -0.0363767 0.07755432 -0.003049166
0.0005756842 0.09439908 -0.14687905 -0.11392812 0.062452972 0.051409867 -0.096428216 0.010654931
-0.076234736 0.06993219 0.023305697 0.11993268 -0.08490807 -0.057897422 0.087307744 0.08860702
-0.11240771 -0.020505812 0.13869219 0.11974696 -0.057356793 -0.04691083 -0.004043669 -0.005627646
-0.0016302393 0.014136192 0.086095504 0.067713484 -0.039478097 -0.039085027 0.005775816 0.033714417
0.082792565 -0.03754342 0.11469706 0.07553434 0.023024308 0.008899044 -0.0011496058 -0.031195441
0.08769842 -0.02896753 -0.02504859 0.15395926 -0.10860898 -0.13154356 -0.08558018 0.059935696
0.046125866 -0.023247603 -0.05370764 -0.00019582125 0.11971532 -0.13660975 0.022645775 0.058385924
0.10870915 -0.010678278 -0.07386216 0.037850074 0.06369328 0.08095756 0.076744124 -0.09712308
0.020453146 0.091272 -0.037848428 0.16726097 -0.109212115 0.011238108 0.14679441 -0.14890377
-0.1134838 0.08655925 0.0025562097 0.039216477 0.046721708 0.07959852 -0.09853833 0.0741084
-0.06738487 0.079314284 0.1636274 0.08300529 0.03100397 0.039053127 -0.07449933 0.07446796
0.104722135 -0.11532432 0.11006792 0.12632763 -0.07921097 -0.11435217 -0.043567818 0.089551084
-0.04144838 0.09289209 0.039159473 -0.14669171 -0.10014258 0.0695939 0.09139402 -0.12919518
0.27216735 0.038620073 -0.045934543 0.16154061 0.004689896 0.049742255 0.117591135 -0.0913467
0.10109944 0.06436372 0.09209035 0.16090302 -0.10459955 -0.0014225973 0.05317693 -0.12412562
0.0011841736 0.02390322 0.011306409 0.05565575 0.0320361 0.020678554 0.120835714 0.0994279
-0.004503391 -0.033898957 -0.04801239 -0.13403507 0.075836085 -0.011558623 -0.094180875 0.07800269
-0.108029306 0.052246172 0.021087095 0.012149175 -0.057089888 -0.11262122 0.0014028422 -0.05684398
-0.0469913 -0.029023277 0.1521014 0.1410369 -0.0072981366 -0.03534292 -0.064398415 -0.04415885
-0.09410989 -0.10307061 -0.057067513 0.10513617 -0.14749482 -0.0328838 -0.10682608 -0.016750876
0.16175658 0.03988526 0.110805914 0.060030565 -0.04393212 0.061199125 0.13331729 0.018697783
0.022023387 -0.04093922 0.0018516633 0.056831155 -0.14449072 -0.13986762 -0.098331384 -0.07927257
0.1119724 -0.112906724 0.048187178 -0.022294639 0.1730844 -0.20406982 0.05920422 -0.01014823
0.086559616 0.02640004 -0.13562822 -0.053256303 -0.03927979 0.1822139 0.009631867 -0.06381999
0.006361406 0.14603235 -0.06678756 0.09551474 -0.14869344 -0.07980982 0.13979766 -0.11657727
-0.16645654 0.14256434 0.084435605 -0.07106544 -0.004376628 0.08222223 -0.07520764 0.14697614
-0.032227263 -0.11663015 0.106819086 -0.05572321 -0.0030292673 -0.012429816 -0.15165716 0.16770095
0.13461788 -0.1321209 -0.038549136 0.15819837 -0.055394575 -0.0604453 -0.02231537 0.026264897

lstm.weight_hh_l0 f4 [512, 128]
00000000: f01e cc3c a766 903d f662 cdbd f90c b23d
00000010: bb5f d93b 47d7 ebbc b669 b0bc abe6 313c
00000020: 0892 a03d dc91 90bc 4047 223d 84ea 423d
00000030: 2333 993d 9435 5b3d d795 0cbd f143 643d
00000040: 7ea8 1b3d 18ca 833c f5e9 89bd b358 d23d
00000050: e4e4 9a3d 2037 9e3d b568 453d 931f ec3b
00000060: 5995 89bd 3c0c 243d cebb 803d 8c7c 423d
00000070: fb82 a7bd 196f e6b9 90cd 87bc bf2b 333c
00000080: a7a8 303c 0c1d 983d aac7 a23d 4ce6 a03c
00000090: 1482 4b3d 2a96 5e3c 788f 943d 749b 7ebd
000000a0: 76b2 5bbd dc03 a13d 1d3f 9f3d 169b 1ebd
000000b0: 6f82 7fbd 74bb 9e3d e03d a9bc 9874 81bd
000000c0: f151 a7bd 78bd 31bd 9a04 cbbc 084b 893d
000000d0: 60ea 64bd 8d47 77bc 0dd9 86bd 1eaf 68bd
000000e0: 1f54 5d3d 07a5 38bd ba04 7e3d 3a37 aebc
000000f0: b301 ec3c 324e cf3c 1ca2 6a3d 7766 533d
00000100: ab45 08bd a224 8f3d e38c 98bd 708d 0c3c
00000110: 3678 b1bd d91c 1cbd 6859 c0bd 7ca9 08bd
00000120: 2571 783d 0f2e 91bd cc2b 423d b797 19bc
00000130: 2a55 743d a570 5e3d 2c8d 27bc 4676 f0bc
00000140: 0f3b be3c 8686 7f3d 1406 b9bc 1ee4 48bd
00000150: f9bd cd3b ec02 bb3d bfd1 28bc 3ec1 963d
00000160: e5a3 f13c d3f6 cd3d ba80 a03d be7e 883d
00000170: 8746 01bc 7c78 a6bc 9a7a e2bc 84c6 123c
00000180: 5682 a93d a726 14bd aaca eebc 7f5e 05bc
00000190: ad13 a5bd 306c 623d 295a c83b 115f 853b
000001a0: c046 843d 0824 8abc f0f4 ce3d d19b 8abd
000001b0: 242b 9a3d 50e0 673d 5a13 9abb 60a2 60bd
000001c0: 2e7c 1d3d dd45 633d d4c4 1abc 7abf edbc
000001d0: 4aee 203d 2e2a cb3c ef6d 77bd bd4a 07bd
000001e0: 9cf9 07bd c38b a23d 3609 923d 1e71 20bd
000001f0: c6a2 9fbc 640f 853b d4ed 413d 3906 783b
00000200: 6fc1 11bc 5b6f ab3d 0860 263d 9d60 52bd
00000210: 35e0 3cbd c99f 4a3d 004c 1a3d 8816 283c
00000220: 05d1 b1bb 9d50 d43d ff29 733c 4201 00be
00000230: 17a8 1cbd 65f9 413d 8563 7cbc 2369 b0bd
00000240: 3c9b 703d e3e4 22bd dd17 b9ba e350 b9bd
00000250: 36df 96bd 78c4 803d 7318 843d d306 f9bc
00000260: 866a 143d 259f a5bd acd1 923c 1edc bb3c
00000270: 3f2d 23bc 14ec 9b3c c286 b53b 5a3a c6bd
00000280: d727 00bd 577f 333d 179b acbd c842 3dbc
00000290: 144a 543d fbdd 12bd a8ba f33c a1e8 20bd
000002a0: a2ca e7bd 8c0d 4fbd 3023 75bc 13b6 823d
000002b0: c419 4abd 6df3 e2bd 64aa 8bbd ba0e 493c
000002c0: 8dcf d7bd 80a6 04bd f761 99bc ac38 f03d
000002d0: e4d7 ae3d 0878 0cbd 4014 443d cbe6 3d3d
000002e0: ba9b 53bd 6360 e83d 6359 c0bd a8c9 16bd
000002f0: 31ed 89bd 3627 b23c 7af2 6abc cf88 683c
00000300: 855b c5bd 16fe 3e3c ebcc 4fbc c047 2cbd
00000310: 080b 61bc 9237 e4bc 3d47 4bbd 0ca1 e1bd
00000320: 9bbe 8d3d b76d 923c 83ed 5e3c 0a56 7bbd
00000330: 867e ddbc b484 03bc 53fe 673d b0c5 c5bd
00000340: c415 453d c02c ee3d 9b85 3dbd f5a1 b23c
00000350: d3b0 d9bd 063a c43d 60b7 22bb 0803 33bd
00000360: 28e1 b23c 362d d6bd a840 0e3d 4927 9b3a
00000370: 9962 b2bd 8c1b a93d 50d1 d1bd 2b88 9e3d
00000380: 010a 733d bea4 083d 7eeb e6bd 152b 62bd
00000390: 6a23 84bd 1dd8 6ebd c3ca 5dbd 9977 913d
000003a0: e05e 66bd 7481 083b 306f 063d 5f93 14bd
000003b0: 47ed 5c3d 937c 49bd aa01 e43b b847 7a3d
000003c0: a7e1 f13c b63b 473d 4175 eabd 3508 1f3c
000003d0: dcad 8d3d 949d cd3d da9a 2e3d 64c6 dbbd
000003e0: 8aca 11bc b839 a13c 26b1 39bc bb35 aaba
000003f0: 9573 cabd d1e4 db3c 828b e73d 9b2b 5fbc
0.024917096 0.070508294 -0.10028641 0.086938806 0.0066337264 -0.028789176 -0.021534782 0.010858218
0.07840353 -0.017647676 0.03961873 0.047586933 0.07480457 0.053517893 -0.034322586 0.055728856
0.038002484 0.016087577 -0.06734077 0.10270824 0.07563189 0.07725358 0.04819556 0.0072059124
-0.06717939 0.04005073 0.06285821 0.04748206 -0.081792794 -0.00043951793 -0.016577512 0.010935723
0.010782397 0.07427415 0.07948239 0.019641064 0.0496846 0.013585607 0.07253927 -0.06215997
-0.05363699 0.07862064 0.0777571 -0.03872212 -0.06238025 0.077505976 -0.020659387 -0.063210666
-0.08169926 -0.043393582 -0.024782468 0.06703764 -0.05588758 -0.015092743 -0.06584368 -0.05680763
0.054035302 -0.045079257 0.062016226 -0.021266568 0.028809404 0.025305841 0.057283506 0.05161139
-0.033269566 0.06989409 -0.07448747 0.008578643 -0.086655065 -0.03811345 -0.09392053 -0.033364758
0.060654778 -0.07088863 0.04740505 -0.009374551 0.05965153 0.054306645 -0.010226529 -0.029353272
0.02322152 0.06238415 -0.022585906 -0.049045675 0.00627875 0.09131417 -0.010303914 0.07361077
0.029497096 0.100568436 0.07837053 0.06664799 -0.00789035 -0.020321123 -0.027646352 0.008958463
0.08276813 -0.036169674 -0.029149372 -0.008140205 -0.080603935 0.055278957 0.0061142636 0.0040701707
0.06458807 -0.016862884 0.10105312 -0.06768001 0.0752776 0.056610405 -0.004702014 -0.054842353
0.038448505 0.05548655 -0.009446342 -0.029021967 0.03928975 0.024800386 -0.060407575 -0.03303026
-0.03319703 0.07936814 0.07130663 -0.039170377 -0.019486796 0.0040606726 0.04734595 0.0037845506
-0.008896216 0.08370849 0.040618926 -0.05136167 -0.046112258 0.04946879 0.037670135 0.010259278
-0.0054265284 0.10366938 0.014841556 -0.1250048 -0.03824624 0.04735698 -0.015404587 -0.08613803
0.058741793 -0.039769065 -0.0014121492 -0.09048631 -0.07366793 0.062874734 0.06449976 -0.030398762
0.0362344 -0.08086995 0.017922245 0.022932108 -0.009959518 0.01903347 0.005539746 -0.096790984
-0.031287994 0.043822613 -0.084280185 -0.011551566 0.05182846 -0.03585623 0.02975209 -0.039284352
-0.11317946 -0.05055003 -0.014962003 0.06382384 -0.04934098 -0.11081586 -0.06819609 0.0122715775
-0.10537634 -0.03238535 -0.018723471 0.11729559 0.085372716 -0.03429416 0.047870874 0.04636268
-0.051662184 0.11346509 -0.09392049 -0.036813408 -0.06734694 0.021747213 -0.0143400375 0.014192774
-0.096365966 0.0116572585 -0.012683134 -0.042060614 -0.01373554 -0.02785853 -0.049628485 -0.110170454
0.06921121 0.017874582 0.013606432 -0.06136135 -0.02703787 -0.008027244 0.056639027 -0.096568465
0.04811646 0.11629629 -0.046269994 0.021805743 -0.1062943 0.095813796 -0.0024828538 -0.043704063
0.021835878 -0.10457842 0.03472963 0.0011837269 -0.08710212 0.08257207 -0.10245001 0.07740816
0.059335712 0.033360235 -0.11275385 -0.055216867 -0.06452067 -0.05831157 -0.054148447 0.071028896
-0.056242824 0.0020829113 0.03282088 -0.036273357 0.053937223 -0.04919107 0.006958206 0.061103553
0.029526545 0.04864093 -0.11448146 0.009706547 0.06917927 0.10039821 0.042628147 -0.107311994
-0.008898387 0.019680843 -0.011333739 -0.0012985984 -0.09885327 0.026842507 0.11305906 -0.013621236

lstm.bias_ih_l0 f4 [512]
00000000: 35b9 b1bc a053 003e d63b 0b3d 27d4 273d
00000010: 1ed1 8e3d 39b5 e53d e260 0cbd b53d 70bc
00000020: 1968 d53d cf59 013d a20d b43d 9078 963d
00000030: 72db b6bd 0e35 fbbc 541d 023e 0eac af3d
00000040: df06 48bd b2ca 9fbc eda6 c6ba 0685 72bd
00000050: d06c eabb 5f50 173d e8a2 76bc dc7a dc3c
00000060: 8998 89bc 3f9b b13d a9eb d23d 3df1 bdbc
00000070: 5f5b 8f3d 0207 a23d bdac 86bc cb39 be3d
00000080: 6a30 7f3d 396f f03d 761c 973c 8712 583d
00000090: 8ca4 373a 2f14 00bd c661 2c3c 57af 21bc
000000a0: 7b69 723d 349d 2cbd 6bbd d73d e7e1 a9ba
000000b0: 6c91 bfbc 30b4 353d 240d b7bc 889b 253d
000000c0: aa27 22bd 51dd 48bd 71d9 693c 165a 95bc
000000d0: 3ecf 1e3d 3298 52bd 6fb2 a2bc 6c03 af3d
000000e0: 40fe c3bb fc8b 993d aef6 943d 31b5 eaba
000000f0: eb47 8bbb 1a7d 30bd 52be cf3c 4070 b33c
00000100: e3b3 71bd 6a18 7f3d f367 523d 215d 413d
00000110: 8b13 ec3c 4459 14bd 5ad0 9f3c 3bdc a03d
00000120: ef3d 88bb 3a84 033d ed35 cabb 85cf 7ebd
00000130: e52e c1bb f477 c73c 9d0f 233c 1f9b 38bc
00000140: c714 143d fabf 563d 8685 873d bba7 9a3c
00000150: 2b1b 3dbd 0563 4d3d 0866 dd3c 2757 263d
00000160: 1670 36bd a7b8 2b3d 640d 753d dc01 473d
00000170: 6e96 22bd 2a55 163d 5b2c 9e3d 0256 c73d
00000180: ec2c a73c c6d5 ffbc 5a2d 883b 6739 f6bb
00000190: 5f78 ad3c 7542 f63c 97b3 84bd 65ec 813c
000001a0: 5f33 a43c 588c 913d e96c 8c3d 83c9 0a3d
000001b0: 5abe 9d3d 8b21 973d 4dc3 2ebd 7466 703d
000001c0: eb41 8cbd 9cca a03d a8d6 7b3d 9ca4 3c3c
000001d0: b1b2 223d 7fea b23d bc52 e43d 76a6 813d
000001e0: c3b0 9fbc 8a2c c03c f3f3 953d 286d 3d3c
000001f0: 0943 1dbb 3503 e83c 4713 663d 4935 9fbb
00000200: 5e05 05bd 81ac b83c 20a1 823d 9c6e 64bd
00000210: c986 af3b 8567 1cbd 8af2 4dbd 6f6d 373d
00000220: 2193 8ebd 5648 303d ad95 6fbd 7312 b73d
00000230: 90e1 86bd d2ca c63d 84c7 cdbc 59a6 803d
00000240: 82b2 863c cdac bc3d 4dd6 53bd cb18 9abc
00000250: d8ae 263d 9c0c b7bd cad3 9cbd ea89 3b3d
00000260: b54a bb3d 32b4 853d a086 4b3d de1c 12bd
00000270: fea7 6dbd bdd0 95bd d1fc cabc e5a4 b93c
00000280: 8bb7 2d3d 6eee fc3c a2f3 adbc b660 fcbc
00000290: 6c99 c13b 33f3 72bd 8e5b be3c d57d a93d
000002a0: 8f00 c83d 204f 073d 34ff 543d b1bc 9d3d
000002b0: 0cf0 2cbd d0cb 683c a85f 103d 6c84 8e3c
000002c0: e56d 893b b924 95bd bd53 5d3d 6f71 e73d
000002d0: 87af 303d ce0f be3d 5f7d f7bc ffe6 073c
000002e0: edfa c5bb 25fe 533d 30b1 94bd 71cf f43c
000002f0: 7a31 d9bc 4a5d 5fbd 4553 1ebc 2e3c b13c
00000300: 3cb4 ef3b f0c5 3c3d 3a3d 1f3d 0c8c a53d
00000310: 53c6 3c3b 363d f73c cf5f 15bd b8c9 9abc
00000320: dde5 4cbc 72be 0a3d 8a4d cf3c 60a3 e53c
00000330: 4c49 963d 48ff b3bc 8693 aa3c b45b 82bb
00000340: 6306 0ebb 468d 843d ba46 ef3b df9a 50bc
00000350: 8e0d e6bc 611f 4a3b d4f7 bcbd b8de 223d
00000360: 9f07 a73d 9d6f 95bd c511 ba3d 440b 9a3b
00000370: 8cf5 d03c ce8c 453d a70f c0bd 9ce1 0a3d
00000380: 8e7a a63d 751c 843d e1a9 1f3d f55f 803d
00000390: 2749 9dbc bbdb 9a3d 7723 84bd d38f aabb
000003a0: a756 c33d e879 5cbd 4823 d6bc 5825 a8bb
000003b0: a2d3 85bc 40e6 473d baa1 02bd b57d 553d
000003c0: 9a4d f2bc f78b 37bc 8158 5ebd af34 983c
000003d0: d29a 55bd aba9 b63c 3966 b83d 50a2 313c
000003e0: 84b6 703b 36cf 9d3d 5b04 5d3d 7395 9a3b
000003f0: a452 5b3d e53f 60bd eb6f 303d d22c 573d
-0.021694759 0.125319 0.03399261 0.04097381 0.0697348 0.11216206 -0.034272082 -0.01466315
0.10420246 0.03157979 0.08791663 0.07347214 -0.089285746 -0.030664947 0.127065 0.08577739
-0.048834678 -0.019505832 -0.0015155949 -0.059208892 -0.0071540847 0.036941882 -0.015053488 0.026914053
-0.016796367 0.08672189 0.10298855 -0.02318632 0.069998495 0.07911493 -0.01643979 0.09288367
0.06230203 0.11739964 0.018446188 0.052752044 0.00070054154 -0.03126925 0.010521358 -0.009868464
0.059182625 -0.042142108 0.105341755 -0.0012961001 -0.023384772 0.044361293 -0.022345133 0.04043153
-0.039588608 -0.04903919 0.0142730335 -0.018231433 0.03877186 -0.051414676 -0.019860474 0.085455745
-0.0059812367 0.07497403 0.07273613 -0.0017906782 -0.0042505166 -0.043088056 0.025359306 0.02190411
-0.059009444 0.062279142 0.051368665 0.047207955 0.028817913 -0.036217943 0.01950853 0.07854506
-0.0041577737 0.032108523 -0.0061709792 -0.062209625 -0.005895483 0.02434919 0.009952453 -0.0112674525
0.036152627 0.052429177 0.066172644 0.018878808 -0.046168488 0.05014326 0.027026191 0.04061046
-0.044540487 0.041924145 0.059827223 0.048585758 -0.039694242 0.036702313 0.07723304 0.097332016
0.020407163 -0.031229865 0.004155797 -0.007514167 0.021175561 0.030060986 -0.064795665 0.015859792
0.020044027 0.071068466 0.068567105 0.033883583 0.07702322 0.07379445 -0.042666722 0.058691457
-0.0684851 0.07851145 0.06148401 0.011513855 0.039721195 0.08736133 0.11148593 0.06330578
-0.019493466 0.023458738 0.0732192 0.011561669 -0.0023996255 0.028321842 0.056170728 -0.004858647
-0.03247582 0.022543194 0.063783884 -0.055769548 0.005356644 -0.03818466 -0.05028013 0.0447821
-0.06961656 0.043037735 -0.05849235 0.08939066 -0.065859914 0.09706654 -0.02511955 0.06281728
0.016442541 0.09212647 -0.051718045 -0.01881065 0.040694088 -0.08937952 -0.07657583 0.045785822
0.091451086 0.0652851 0.049688935 -0.03567206 -0.058021538 -0.07315204 -0.024778755 0.022661636
0.04241137 0.03087541 -0.021234337 -0.030807834 0.005908182 -0.059313964 0.023237016 0.08275954
0.097657315 0.033034444 0.052001193 0.07702006 -0.042221114 0.014208749 0.035247475 0.017397128
0.0041940087 -0.07282395 0.054034937 0.113009326 0.043136146 0.09280358 -0.030211149 0.00829482
-0.0060418756 0.051756043 -0.07260358 0.029884072 -0.02651285 -0.054532327 -0.009663408 0.021635141
0.007315187 0.046087205 0.03887675 0.080833524 0.0028804734 0.030180555 -0.036468323 -0.018895015
-0.012505976 0.03387303 0.025305528 0.028032005 0.07338199 -0.021972314 0.020822298 -0.003978217
-0.0021671287 0.06472258 0.0073021324 -0.012732237 -0.028082635 0.0030841457 -0.09226957 0.039763182
0.081557505 -0.07296679 0.090854205 0.00470105 0.02550771 0.048229985 -0.093779854 0.033906564
0.08128844 0.0645074 0.03898037 0.06268302 -0.01919992 0.075614415 -0.06452077 -0.0052051335
0.09538012 -0.053827196 -0.02613987 -0.005131405 -0.016336266 0.048803568 -0.031892516 0.052121837
-0.029578019 -0.011202804 -0.054283623 0.018579809 -0.0521496 0.0222977 0.090038724 0.010841921
0.0036729882 0.07705538 0.05395923 0.0047175228 0.05354561 -0.054748435 0.043075483 0.05253298

lstm.bias_hh_l0 f4 [512]
00000000: 7456 aabd 7bfc c93d d95d 9e3d 05fb 823d
00000010: abfd 9e3d 26b8 0c3e a314 cb3c 555e a33c
00000020: 538c 07bd 76e5 353d 849e 973a 4137 23bc
00000030: f1f2 313d 1f31 14bd 0ebb 1ebd b031 fc3c
00000040: 6183 90bc eea8 fe3c 34d0 d63c 4dfa 393d
00000050: a2bc 393d 9cc0 46bd 0209 283d 881c 373d
00000060: 0b88 aabb 45ae 0b3d fd11 cc3d 73df 20bc
00000070: 6d56 863d 60b8 8bbd 6100 2ebb 2398 da3c
00000080: 7ce7 043e 17b1 233d 16e6 77bd bfa2 88bc
00000090: 3ba8 593d 8912 683c cadc 893d 7ef3 0d3d
000000a0: 8f35 663d 8c36 603c 592a dc3d 2203 e33c
000000b0: f922 27bb d73c d03d 9136 833d 0a7a 76bb
000000c0: a8b1 823d 2444 63bd 165d 05bb 55f2 683d
000000d0: 8bde 3fbd 20a0 453d ed7d b43d 08d2 ea3d
000000e0: 1c9d 653d 60ae 823b c9ee 503d 3582 d13d
000000f0: e727 a0bc 4207 723d 66ac d73d 72be 823d
00000100: 3697 3abd 2861 3abb 3b46 8dbd 5748 df3d
00000110: fbcb d23d 4e82 783d 647b 8f3c b294 be3c
00000120: bff5 813b 2c46 eabc 9216 b83d 57e2 643d
00000130: ffde 5abd a599 083d 59b6 6b3d 55c9 c83c
00000140: a8d1 8bbc 0137 b0b8 3eaa 0fbd 03f1 88bb
00000150: 8dd4 e63d 2ca6 1cbd eef7 77ba 4f15 ad3d
00000160: b209 e13a 1c72 b8bc 548f 8ebc a9a4 9e3d
00000170: fb8d 5cbd 6507 3c3c 54be 603d 7544 0abb
00000180: 895d 083d 7dd4 3abd 8eae d9bc bcbf 2a3d
00000190: 1cda 903c 250d aebc daae ac3d b566 05bd
000001a0: c49d 86bc 4d1b 01bd 3dd9 7a3d a972 9e3d
000001b0: 4a33 363d 2bf4 a33d 2e95 743c befb ca3d
000001c0: a6a9 1abd ab6a b63d 7009 38bd 4289 b13d
000001d0: 8628 df3d ab6d e03d 9961 773d 025e 4a3d
000001e0: d461 2fbc b1b3 d1bc 34ea 1b3d 1dc9 8d3d
000001f0: 5de6 3e3d 4f00 dd3d 0bb2 9cbc 697b a73d
00000200: 8249 90bd 15fe a13d fb51 aa3c a4d4 8cbd
00000210: 7173 a43d 1e52 b63d 007d 68bd 7c93 c53d
00000220: 5557 35bd ea23 823d df1b 033d 6e8c 90bd
00000230: 2157 46bc 72e3 0d3d 57bc 8dbd ff51 5a3c
00000240: 64db b3bb 5283 d73c 20dc 92bd 1d86 3dbd
00000250: 197c 84bc c394 90bc e101 4cbd 5341 ae3d
00000260: b4d4 1bbd d9e6 003b 3ca8 4abd c266 9fbd
00000270: 229f b13c f175 86bc 828c e23c dc0a d63d
00000280: dcc7 163d 0f7d 6d3d 076a c4bc fa72 4a3b
00000290: 2012 e8bb e98b b6bd b8c6 26bd 7751 873d
000002a0: 5d6b b13d 4d28 9e3d 85da 97bd 7ed6 43bd
000002b0: 58bf 39bd 0c99 3ebd 8ae0 8ebd d8d4 d6bd
000002c0: bbc5 c73d 3bd4 83bc 51be 96bb bee9 01bd
000002d0: c4cb c2bc dcb2 bdbc b138 793d 1b05 103d
000002e0: 0c0b b03d 49ff d13d bc41 2d3d 8c10 b53d
000002f0: 79b5 21bd a3f8 b93d e8a2 c1ba d350 38bc
00000300: aed1 a9bd 9bf3 febc a151 95bd 7484 a33d
00000310: c3ea 8b3d 0dca bc3d 8d3c 47bd 63d4 68bd
00000320: 28e6 3ebd f83d 1b3d 4a2a a8bc 14a5 54bc
00000330: 8639 8abd b6d9 d7bc a184 d03d d173 c73c
00000340: 890e 923c 34da a33d 0556 c73b 141c 9d3d
00000350: 8d49 863d 9592 013d 7aa7 343d c544 b43c
00000360: 2183 22bd dd58 983d f7ab d23d 0f38 76bc
00000370: 2a09 0bbd 8fda 163d 2719 9bbd 31b2 2fbd
00000380: 58b0 3abc 5d81 1a39 b999 c63c 3408 88bc
00000390: e42b 893d 4968 363c 0b5c 88bc bd1f 0fbc
000003a0: 3419 f3bc 54bb 963c 7374 74bd e3c0 053c
000003b0: 45df 473d 9c55 ca3d eb7f bc3c 33ed 43bc
000003c0: f582 873d 6ecf 70bd 5a71 3a39 370d acbd
000003d0: ebf0 e3bc cd40 9939 df2d 9abd 1d6f 86bd
000003e0: 95e0 1fbd f76b 783d 04b4 b3bc 882d 3fbd
000003f0: 430e 8d3d 2343 bfbc 1172 c83d f68a 23bd
-0.08317271 0.0986261 0.07732744 0.063955344 0.07763227 0.13742122 0.024790114 0.019942442
-0.033092808 0.044408284 0.0011567627 -0.009961904 0.043444578 -0.036179658 -0.038752608 0.030785412
-0.017640771 0.031086411 0.026222326 0.04540472 0.04534591 -0.04852353 0.041024216 0.044704944
-0.005204206 0.034101743 0.099643685 -0.009818899 0.06559453 -0.06822276 -0.0026550519 0.026683873
0.1297893 0.039963808 -0.06052216 -0.016679166 0.053138953 0.014164575 0.06731565 0.03465604
0.05620342 0.01368488 0.10750265 0.027711455 -0.0025503023 0.10167854 0.06406892 -0.0037609362
0.063815415 -0.055484906 -0.0020349673 0.05687173 -0.046843093 0.04824841 0.08813081 0.114658415
0.056058034 0.0039880723 0.051008973 0.10229913 -0.019550277 0.059088953 0.10530929 0.06383981
-0.045554362 -0.0028439257 -0.06898161 0.109024696 0.102928124 0.060671143 0.017514892 0.023264263
0.003966063 -0.028597914 0.0898868 0.055879917 -0.053435322 0.03334965 0.057546947 0.024510065
-0.017067745 -8.402579e-05 -0.035074465 -0.0041791215 0.112710096 -0.03824441 -0.00094592466 0.0845133
0.0017169027 -0.02251535 -0.017402329 0.0774625 -0.05384634 0.011476372 0.05486901 -0.0021097932
0.033292327 -0.0456128 -0.026572492 0.04168676 0.017682128 -0.021246502 0.08431788 -0.032568652
-0.01643265 -0.031520177 0.06124233 0.077367134 0.044482507 0.08005556 0.014928145 0.09911297
-0.037759446 0.08907064 -0.044930875 0.08668758 0.10896401 0.109584175 0.06039581 0.04940606
-0.010704476 -0.025598379 0.03806515 0.06923125 0.04660641 0.107910745 -0.019127866 0.081778355
-0.070452705 0.079097904 0.020791044 -0.068764955 0.08029831 0.08902381 -0.056759834 0.09647271
-0.04427274 0.06354506 0.032009 -0.07058035 -0.012105734 0.034640737 -0.069206886 0.013325213
-0.0054888 0.026307736 -0.07170892 -0.04627048 -0.016172456 -0.01764906 -0.04980648 0.08508553
-0.038044646 0.0019668846 -0.049476847 -0.07783271 0.021682326 -0.01641366 0.02765489 0.1045129
0.036811695 0.057980593 -0.023976339 0.0030891285 -0.007082239 -0.089134045 -0.040716857 0.06607335
0.08663056 0.077225305 -0.07414726 -0.047811978 -0.045348495 -0.046532676 -0.06976421 -0.104898155
0.09754511 -0.01609241 -0.004600324 -0.031717055 -0.023778804 -0.023156576 0.06084508 0.03516112
0.08595857 0.1025377 0.042299017 0.08841047 -0.039479706 0.09080627 -0.0014773281 -0.011249739
-0.08291946 -0.03112202 -0.0729096 0.07984248 0.068318866 0.09218226 -0.04864173 -0.056843173
-0.046606213 0.037900895 -0.020527977 -0.012978811 -0.06749253 -0.02634893 0.10181547 0.024347218
0.017829197 0.08000603 0.0060832524 0.07671371 0.065569974 0.031633932 0.04410503 0.022005448
-0.039675836 0.07438824 0.10286706 -0.015028014 -0.033944286 0.036829527 -0.07573157 -0.042894546
-0.011394583 0.00014734776 0.024243223 -0.016605474 0.066978246 0.011133262 -0.016645452 -0.008735594
-0.029675104 0.018399872 -0.059681367 0.008163664 0.04879691 0.0987961 0.023010215 -0.011958408
0.06616775 -0.05879157 0.00017780569 -0.08400958 -0.02782484 0.00029230714 -0.075282805 -0.06564162
-0.039032537 0.06064984 -0.021936424 -0.04667428 0.06887486 -0.023347443 0.097873814 -0.039927445

fc.weight f4 [1, 128]
00000000: acfe ca3b 1081 e8bd 1b12 7f3d 2103 b63d
00000010: 286b 44bd d8f1 4a3e ed1e 23be a99f 0d3e
00000020: 29e2 b0bd ff33 1d3e 4e07 a23d 3266 a0bd
00000030: 34e0 00bc f03d 1bbe 413a 233e d7d3 b33d
00000040: eb94 e43d b07c 52bd 1a38 a5bd 21f4 d0bd
00000050: 2a8c d93d 5a72 d3bc c376 80bc 60a9 c03d
00000060: dd5c e4bd 0d1b 31be 1a3d ad3d 7763 423d
00000070: aaff 233e 3d58 913d 2f88 a7bd 7eda fabd
00000080: f555 27be 4062 10be 05fc be3c 67da 3e3d
00000090: 710d eebd 3ce0 7c3e 4b16 f5bc e5f7 743d
000000a0: a8d6 103e 95e5 d6bd 0ae6 d0bd bfc6 3abd
000000b0: c7ea 0abe 9242 f63d 79e0 ddbd 44db aebd
000000c0: b785 a53d 4e18 f93c dff9 b3bd 1aa6 063e
000000d0: 469a 18be 1a0b 323d b725 67bd 272c 83bd
000000e0: 989d ac3d 6cdc 1cbe 29bc f3bc f665 0bbe
000000f0: d542 843c 5e04 afbd f48c 97bd 2219 9fba
00000100: 3506 0ebd c0c7 073e aa96 a3bd af7a ad3d
00000110: c4c7 3b3d 041e 913d cf97 a43d 1e64 023e
00000120: e648 d53d dcd6 97bd 67bd 60bd 0ddf a23d
00000130: 676f df3d 30bb 01be 5b6f e83d 33a5 7a3a
00000140: 2ddb 1c3e a85c d9bc 61b8 d6bd 410f 7a3c
00000150: 7088 b8bd fb30 53bd b9c7 d6bd 708b 00bc
00000160: 94ec a3bd 4eb8 97bd 9d7f 093e 0d31 f63d
00000170: dea1 04bd 4aad 1b3d 6a30 fc3d 9c30 50bd
00000180: 7200 cd3d 64a3 8c3d af4b 853d 00e7 c1bd
00000190: f93d 703d a225 30bd b49a 8fbd bec2 a4bd
000001a0: 66d4 fe3d 08de b73d 875e 823d 1e89 333b
000001b0: 28e3 a53d 57f5 bc3d 8e31 08bc 50ed ea3c
000001c0: 3cb1 96bd e55d a9bd 0ddb 17bd 88d0 3f3d
000001d0: 32a1 eabd fbd3 ae3d 17bf 993d c701 0ebe
000001e0: f0f1 503e d4f8 f3bd 6ec4 d53d 0b1b 6bbd
000001f0: f372 ac3d 2d90 b1bd 4e93 303b 549a e1bd
0.00619491 -0.11352742 0.062273126 0.088873155 -0.047953755 0.19818819 -0.15929766 0.13830437
-0.086368866 0.15351866 0.079115495 -0.07831992 -0.007865954 -0.15160346 0.15940191 0.087806396
0.11161216 -0.051388443 -0.08067341 -0.10202814 0.10622437 -0.025811363 -0.01568163 0.09407306
-0.11150525 -0.17295475 0.0845892 0.04745814 0.16015497 0.07096908 -0.08180272 -0.12248705
-0.16341384 -0.1409998 0.023313532 0.046595003 -0.116236575 0.24694914 -0.029917857 0.059806723
0.14144385 -0.10493008 -0.102001265 -0.045599695 -0.13566123 0.12024416 -0.108338304 -0.08537915
0.08082145 0.030407097 -0.087878935 0.131493 -0.149026 0.04346762 -0.056432452 -0.06404906
0.08428496 -0.1531846 -0.029752808 -0.13613114 0.01614515 -0.08545755 -0.073999316 -0.0012138227
-0.03467389 0.13259792 -0.07987721 0.08470666 0.04584481 0.07085803 0.08036768 0.12733504
0.10414295 -0.07414028 -0.05486813 0.079527 0.1090992 -0.12669063 0.11349364 0.000956136
0.15317984 -0.02653344 -0.10484386 0.015262426 -0.090103984 -0.051560383 -0.10487313 -0.0078457445
-0.08004108 -0.074082 0.13427587 0.120210744 -0.03238093 0.03800706 0.12313922 -0.050827608
0.100098506 0.06867102 0.06508576 -0.09467888 0.05865285 -0.04300464 -0.07011929 -0.080449566
0.124428555 0.08977896 0.06365686 0.002739496 0.08099967 0.09226482 -0.008312596 0.028677613
-0.073580235 -0.08269862 -0.037074137 0.04682973 -0.11456527 0.08536526 0.075071506 -0.13867866
0.20404792 -0.119126946 0.104378566 -0.057398837 0.08420362 -0.086700775 0.002694327 -0.11015764
