models/LOW model.pth (torch, 799650 bytes, 9 tensors)

lstm.weight_ih_l0 f4 [512, 1]
00000000: dd0b b4bc 9b8f 39bd f97b 90bd 5f5d 7cbb
00000010: 1e46 8e3d 4a3f 053b 85bb 80bd 34e5 c3bc
00000020: c410 2dbc 396b ac3d 3707 0d3d d95e de3d
00000030: 8145 b7bc 9bbc 9f3d aa67 cdbd d638 aabd
00000040: 1187 bf3c 6d42 893d a445 c3bd 3ac9 1abd
00000050: fae5 ce3d f81c 85bd a44c 5bbd 462f 403d
00000060: f4cc 4ebd cb31 6ebd e540 17bd f432 6cbd
00000070: 6f69 23bc ec32 d8bd da39 80bd 5e0c 86bd
00000080: be34 183d e985 a23d 07a5 933d 78b2 88bb
00000090: 6770 adbc a59f acbd 7086 703d cd04 af3d
000000a0: d692 a93d 53f2 713b ee42 82bd 961f f63d
000000b0: 8ab5 8dbc 04ef 083c e2c3 f23b 902b b23d
000000c0: f517 c3bd d16f 58bd 81ff 56bd b994 b1bc
000000d0: efb0 9e3d 3313 b33d b0a2 a83d 0c7b 6dbd
000000e0: 67a1 e0bd 5fbd 6f3d b562 a2bd 5d0b c6bd
000000f0: 1bba ef3d 6554 c7bd df2e 85bc 744a 9e3c
00000100: 0de7 edbc 882a 7e3d dfdf 3dbc a8fb 9d3c
00000110: f9d3 04bc a2a3 35bd 30a9 a9bd 2fdf 88bc
00000120: dd20 82bc 296a 77bc 5381 9abc eed1 823d
00000130: 96a8 c73d 3c81 433d 56ad e4bc a31b aa3d
00000140: b4cb d83c dbf3 103c 6f2a dd3c 08fc ff3c
00000150: 384d 51bc 5767 c43d 99cf 723d 72d1 4f3d
00000160: b1ca a33d b004 9dbd e1b2 943d 0d19 c7bc
00000170: 84a8 97bc e77a b93d 23dd 5c3d 0144 8abd
00000180: b899 69bd 4de8 5b3d 8d5d 0b3c 87ce 89ba
00000190: a1e1 4cbd 5ad3 553e 693a d83d c1a8 123d
000001a0: 2e3f d0bd 8d99 a43d 5384 753d ade0 373c
000001b0: 4923 053e 421e 133c da4c 90bb ec76 0c3c
000001c0: 663c 08bd 5be4 04bd 70d5 1cbd fe7a 6b3b
000001d0: a9dc 8abc 36e8 d4bd 2dfc cabd 7474 1f3b
000001e0: 1cf9 a8bd d92d 5abd f265 0c3d 13cf 68bd
000001f0: b9e6 00bd be81 21bc e33c 683c 1c9a 42bb
00000200: ddcb 933c cf0a 623c 4f13 08bd a002 2bbd
00000210: 024b ab3c f291 b23c 4208 c73b f093 28bd
00000220: 3222 d73c e4d6 173b fbae 03bc 81a0 e43b
00000230: 6d35 b5bd 48ec 033d 8b43 ddbd e28e 52bd
00000240: de48 23bd 1aec 3fbd ef51 7d3c d45a 3fbc
00000250: eb2a 853d e486 d8bd 0466 06bd 4d2e dabd
00000260: e6d3 babd ecef a8bd 3e97 b6bd 6888 e0bd
00000270: 9c36 543d 52d1 c1bd b8a1 9bbd 2633 01bd
00000280: cd19 72bc 3040 373d 6a02 a83d df70 00bd
00000290: 95b8 0c3e 59b2 4abd 5dec 3cbd 6b51 713c
000002a0: 597f a3bc 92fd 1abd 9488 0d3d 68c3 983d
000002b0: 84bf a43c 9be7 273d 1e38 9abb 34ab 963c
000002c0: e267 a5bd 6a24 66bd f1d4 fdbc 6dac b3bb
000002d0: 72e1 723d 0bb7 773d ed83 5e3d 8611 d53d
000002e0: 0083 543c f92f cf3d 755c 9c3c dd98 11bd
000002f0: 16ec 863b 3049 5abd b0fd 4ebc 8912 2ebd
00000300: fde6 96bd 9910 84bd 35a6 bf3d 8f34 d0bd
00000310: 2ff5 bd3d 60de e4bc 5e2e ff3c 17fe 96bc
00000320: e519 63bc 6bfb 383d be29 02bd 69a0 9a3d
00000330: a195 5c3d 9764 8d3b 4ccb 2b3d 6a95 c23d
00000340: e52d dc3c 2ad2 85bc 2c2e b03b 6ce6 9b3c
00000350: 7e2d 1d3d d08e d23c 043f d4bd 178d 92bc
00000360: 6d76 f43d 832e 113c 52fa 733d 8eb3 36bd
00000370: caf5 aabc 4efe 333c 6801 9dbd 0b28 ccbb
00000380: c733 00bd 469e fb3c 7ba0 77bc a2fe 333d
00000390: b4bb 12bd 3d2e 773e 9047 0bbd 2007 513d
000003a0: 9d5c e7bd f7a3 a83d 5c23 583d e525 30bc
000003b0: f252 3c3e 9937 c83c 7c19 5b3c 4caf f53d
000003c0: 5b15 cfbc 3ffe 69bd 0345 39bd aa1c 663c
000003d0: 0b11 96bd 41b0 5bbc a818 49bc 38c4 5f3d
000003e0: f05c 1cbd 5ce5 29bc 758c 7ebd c5bf 903d
000003f0: 8091 b3bd d8e4 923c 353c 5bbd 6270 eebc
-0.021978313 -0.04530297 -0.07054896 -0.0038507802 0.069469675 0.0020331913 -0.062857665 -0.023913004
-0.010563079 0.084188886 0.03443071 0.108579345 -0.02237201 0.077996455 -0.10029538 -0.08311622
0.023379834 0.06702123 -0.09534767 -0.03778956 0.10102458 -0.06499666 -0.053539887 0.046920083
-0.050488427 -0.058152955 -0.036927123 -0.05766578 -0.009973868 -0.105565876 -0.06261034 -0.065453276
0.037159674 0.079356976 0.07209211 -0.0041716658 -0.021171762 -0.08428887 0.05872196 0.085458376
0.0827996 0.0036918118 -0.06360422 0.12017743 -0.017298479 0.008357767 0.007408605 0.08699715
-0.09526054 -0.05284101 -0.05248976 -0.021677362 0.07748591 0.08743896 0.08234155 -0.057978675
-0.10968285 0.058530208 -0.07928983 -0.09670136 0.11705419 -0.09732894 -0.016257701 0.019322611
-0.029040838 0.06205228 -0.01158902 0.019285038 -0.008107179 -0.044345506 -0.08284223 -0.016707985
-0.015884811 -0.015100994 -0.018860495 0.06387697 0.09748952 0.04773067 -0.027914684 0.083060525
0.02646432 0.008847202 0.026997773 0.031248108 -0.012774758 0.09590023 0.05928001 0.050736852
0.07997645 -0.0766691 0.07260681 -0.024303937 -0.018512972 0.09056645 0.05392183 -0.06751252
-0.057031363 0.053688336 0.008506191 -0.001051382 -0.050019864 0.20881405 0.10558016 0.035805468
-0.101683006 0.080371 0.059940647 0.0112230005 0.13001741 0.008979382 -0.0044036927 0.008573275
-0.033260725 -0.03244434 -0.038289487 0.0035931463 -0.016950922 -0.10395853 -0.0991138 0.0024330886
-0.08250639 -0.05326638 0.03427691 -0.056838106 -0.031470034 -0.009857593 0.014174673 -0.0029693907
0.018041546 0.013796522 -0.03322154 -0.04175055 0.02090979 0.021798108 0.0060739825 -0.04115671
0.026261423 0.0023168856 -0.008037324 0.0069771414 -0.08848081 0.032207757 -0.108038984 -0.051405795
-0.039864413 -0.046856023 0.015461429 -0.01167937 0.065023266 -0.10572603 -0.032812133 -0.106533624
-0.09122448 -0.082488865 -0.08915566 -0.109635174 0.051809892 -0.09463753 -0.07599205 -0.03154292
-0.014776659 0.04473895 0.082035854 -0.031357642 0.13742287 -0.04948649 -0.04612385 0.014728884
-0.019958185 -0.03783948 0.03455408 0.07459146 0.020110853 0.04099236 -0.0047063967 0.018392183
-0.08076455 -0.05618707 -0.030985327 -0.0054832012 0.059297033 0.060477298 0.054325033 0.10403733
0.012970686 0.10116572 0.019087056 -0.035546172 0.004117499 -0.053292453 -0.012633726 -0.042498145
-0.07368276 -0.06448478 0.09357873 -0.10166275 0.09275281 -0.027938068 0.03115004 -0.018431706
-0.013861154 0.045161646 -0.03177809 0.07550127 0.053853635 0.0043149698 0.041941926 0.09501155
0.026877353 -0.016335566 0.005376598 0.019030772 0.038373463 0.025702864 -0.10363582 -0.017889543
0.119366504 0.008861187 0.059564896 -0.04460483 -0.020869154 0.010985924 -0.07666284 -0.0062303594
-0.03129938 0.03071512 -0.015113945 0.04394401 -0.03582354 0.24138732 -0.034003794 0.051032186
-0.112969615 0.08234399 0.052768096 -0.010751222 0.18391016 0.024440574 0.013372775 0.11996326
-0.025278738 -0.057127234 -0.04523183 0.01404492 -0.073274694 -0.013408721 -0.012273945 0.05463049
-0.03817457 -0.010369625 -0.06214567 0.07067827 -0.08767986 0.017931387 -0.053524215 -0.029106323

lstm.weight_hh_l0 f4 [512, 128]
00000000: 29d4 cebd 28f9 473c 79f9 b9bd 6c9a 023d
00000010: 1192 77bc 229b b4bc 64d7 303d 3b9a 94bd
00000020: ad03 babd 9d0b 8cbd 2d08 9dbd a414 d43d
00000030: 27e4 2a3d 3512 d33d 80c7 4b3d 24a2 1c3c
00000040: 7919 eb3d b14c b4bc fb74 4ebc f89b 7ebd
00000050: 771f b83d 7dff 563b 20a1 67bc 582e 46bd
00000060: b0ef ccbd a784 3e39 c448 b4bd 6cfd 75bd
00000070: efbc c5bd 1c73 e03c 1d5b 0a3d 270c a83d
00000080: 30fe a9bd abad 783b cb9c febc 65e4 35bd
00000090: 99b7 83bc feb1 90bd 8899 7bbc 5d80 d63d
000000a0: 3e62 5b3d e687 92bc 08bf 4c3b dd89 433d
000000b0: ccd5 323d 0916 f53b bd2b b63d 7ec5 663d
000000c0: 8623 53bd 80fb 003d bc3a 45bd 8402 bf3d
000000d0: d922 dbbc f496 463d fdad a43d feb7 e8bc
000000e0: 9e07 073e 15de d3bd af35 b1bd c603 5abd
000000f0: 42cc 5a3d 82cd 1e3d fbb7 733d 3c8e 6a3d
00000100: b4f4 5e3d 4407 a2bd 6e7d 3d3d 563f a03d
00000110: 3bdd 9e3c a8dc b8bd db36 9d3d 1f9c d93b
00000120: 6bfe 183d 052d 5e3d 18a5 63bd 2b7c 07bd
00000130: 38cc 92bd d924 ce3b 1811 32bd ad98 73bd
00000140: 9714 283d f188 543c 8d69 3a3d 23ef 043d
00000150: 1ba6 c13d eb48 12bd 5f20 8c3d f415 bcbd
00000160: 584f 2e3d 2e2a 583d 11cb 503c 5dec 8cbc
00000170: e4ca 4bbc 167c 56bd 22f0 54bd f785 fc3b
00000180: f503 793d 363a b5bc eb82 50bd b97e fb3c
00000190: 2f02 a73d 14d6 e4bc c63d abbd ca13 40bc
000001a0: d693 c03a 0b90 41bd d2f8 7f3d af18 413d
000001b0: 0b7a 53bd a79c 0e3d 10ad 173d 0c24 943d
000001c0: a21b b93c 59c1 dcba e816 0cbd 77cb 3c3c
000001d0: 583a d23d 3fd9 c7bd a35c 8abd 07d0 9e3c
000001e0: e4e0 5dbb 33ac de3d 1a03 32bc 3344 80bc
000001f0: 0c18 c83d 52d7 55bd 58c3 823c 8113 643d
00000200: 32f9 a63d 7ae9 25bd 8250 833b 53aa f2bc
00000210: 86d6 00bd 9909 7a3d 6109 863d 8e9a 293d
00000220: 335a debc 095c 9a3d 5229 75bd 2c3a de3c
00000230: eaed e53b 3c64 69bd 956c 30bd c867 35bd
00000240: ec75 37bc d492 8a3d 9f6f 46bd c037 96bd
00000250: a6b6 093c 7e63 10bd b852 823d 7fb7 d6bc
00000260: f5b7 543c dc02 6d3d 0eda bb3d 3041 ce3c
00000270: 9ba8 83bd d16c b93d 5b22 01bd fa9d a6bc
00000280: 6def 97bd 2350 a4bb d6f5 db3c 6247 18bc
00000290: 9066 a13d 4fca 7bbd 58f4 8fbd 3746 a5bd
000002a0: 76f8 d6bc 5baf 16bd 3abe 89bd 71cd 31bc
000002b0: 8fec 9cbb d384 483d 61b5 bd3d 21ed 7c3d
000002c0: ca3c a23d c1c5 96bc 2bf8 133d 083b 98bd
000002d0: 4a9f 36bd b1ea c8bd 4785 ecbb bf33 15bc
000002e0: 5f90 9cbd 3636 2fbd 4a68 1bbd 1c5d 833c
000002f0: d569 87bd 90cc b13d 857d 13bd 12bb 45bc
00000300: a488 ea3c a0c7 9ebd bcd4 64bd 5af6 b5bd
00000310: 7342 4cbc 3586 303d a7aa 653d b3ce a7bd
00000320: 9249 b0bd d86d 31bd 8da2 e1bc 9a50 08bd
00000330: f28b af3d a8af 083a d8ec 453d 88fa 9bbd
00000340: bd25 a23c 8f7e 173d dfff aa3c b99f 93bd
00000350: a8a2 d73c ec31 663d ed5e 663d cd2b 7abd
00000360: 0049 8bbd c7de fc3b 512d afbb e470 e5bc
00000370: a900 9e3d 1e81 563d 0236 9d3d e7fc 203d
00000380: 17c9 47bd 80a2 5dbd 69d7 ac3d 1684 2e3d
00000390: 5a98 783d 5c1f 9dbd f59e 7fbc 334c 953d
000003a0: 0528 933d e595 8bbd 5e29 08bc ce0b 93bc
000003b0: f424 56bb 1e5e 87bb 9d3d ab3d fa98 e53c
000003c0: 08b9 d23c 47e6 13bd 66db 3abd 0ebd 96bd
000003d0: 595a 093d 5dd0 4cbd 70ea 363d 01a3 eebc
000003e0: eab4 8c3c 811b 19bd 4098 7a3d 6c8e 99bd
000003f0: 3878 853c ba8f 12bb 27cb 1b3d ec0e 123d
-0.1009906 0.0122054 -0.09080786 0.03188555 -0.015110509 -0.02204663 0.043174163 -0.072559796
-0.09082732 -0.068381526 -0.07667575 0.103554994 0.04172149 0.10306207 0.049750805 0.009560142
0.11479468 -0.022009226 -0.0126011325 -0.062160462 0.089903764 0.0032806091 -0.014137536 -0.04838404
-0.10006654 0.00018169229 -0.088029414 -0.060056135 -0.09655177 0.027398638 0.0337783 0.08205443
-0.083004355 0.003794531 -0.031080624 -0.044407267 -0.016078757 -0.07065199 -0.015356429 0.10473702
0.053560488 -0.017887067 0.0031241793 0.0477389 0.043660924 0.0074794334 0.08895061 0.056340687
-0.05154755 0.03148985 -0.048151717 0.09326652 -0.026750015 0.048483804 0.08040998 -0.028408047
0.131865 -0.10345093 -0.086528175 -0.053226255 0.05341745 0.038770206 0.05950163 0.05726455
0.054432586 -0.07911542 0.046262197 0.0782458 0.0193926 -0.09026462 0.076764785 0.0066409255
0.037352007 0.054242153 -0.055577368 -0.0330774 -0.07167858 0.0062910137 -0.043473333 -0.059471775
0.04103526 0.0129721025 0.045510817 0.03245462 0.0945551 -0.03571407 0.06842112 -0.09183875
0.042556137 0.0527746 0.012743727 -0.01720255 -0.01243851 -0.05236443 -0.05198682 0.0077063995
0.06079479 -0.022122484 -0.050906103 0.030700075 0.08154713 -0.027934112 -0.08361392 -0.011723468
0.0014692496 -0.04725651 0.062493153 0.04714268 -0.05163006 0.034817364 0.03703028 0.07233438
0.022596184 -0.001684229 -0.034201533 0.011523119 0.102650344 -0.09758233 -0.0675595 0.019386305
-0.003385597 0.10872688 -0.010864997 -0.01565752 0.097702116 -0.0522073 0.015962288 0.055682663
0.08152999 -0.040505864 0.0040074 -0.029622233 -0.031454585 0.06104431 0.06544758 0.04140716
-0.02714262 0.075370856 -0.05985386 0.027127348 0.007016887 -0.056980357 -0.043072302 -0.044288427
-0.011197548 0.067662865 -0.048446294 -0.07334852 0.008405363 -0.035251133 0.063634336 -0.026210545
0.012983312 0.057864055 0.0917245 0.025177568 -0.06428643 0.09053958 -0.031526905 -0.020339001
-0.07418714 -0.005014436 0.026850622 -0.009294363 0.0788089 -0.061472233 -0.07029027 -0.08070033
-0.026241522 -0.036788326 -0.06725736 -0.010852204 -0.004788942 0.048954796 0.09263111 0.06174958
0.07921751 -0.018404843 0.036125343 -0.07433134 -0.044585504 -0.09810389 -0.0072180363 -0.0091065755
-0.07644724 -0.04277631 -0.037941255 0.016035609 -0.06611983 0.08681595 -0.036008377 -0.012068527
0.028629608 -0.07752919 -0.05586694 -0.088848785 -0.012467015 0.04309674 0.05607095 -0.081937216
-0.086077824 -0.043317646 -0.02754333 -0.033279993 0.08571614 0.0005214163 0.048321575 -0.076161444
0.019793386 0.03698593 0.020873962 -0.07208199 0.026322678 0.056199953 0.056242872 -0.061076928
-0.06801033 0.007716987 -0.0053459783 -0.028007932 0.0771497 0.05236923 0.07676317 0.039303686
-0.04877576 -0.05411005 0.08439524 0.042606436 0.06069217 -0.07671997 -0.015601863 0.072899245
0.071853675 -0.068156995 -0.008310644 -0.017949965 -0.0032675834 -0.0041310927 0.08361361 0.028027046
0.025722995 -0.03610828 -0.04561939 -0.07360278 0.033533428 -0.0500034 0.04465717 -0.02913046
0.01717611 -0.037379745 0.061180353 -0.07497868 0.016292676 -0.00223635 0.038035538 0.03565876

lstm.bias_ih_l0 f4 [512]
00000000: 2d16 b33d 73ef 6fbd a5b4 4aba 12e2 363d
00000010: 922b f43c a708 953d 0eec 14bd c947 81bd
00000020: 0435 e3b9 1f37 a13c 4c5e 313d d08c 043a
00000030: ab68 88bd e32b c73d 24a0 bd3d 53ed 5d3d
00000040: 0c58 a73d 997b a3bb 7d36 cdbc 9e4c b23d
00000050: f19a 8d3d 5142 993d 548f e73c e0af 743d
00000060: 59e8 89bd 38e5 3cbb 73be da3d a5c6 c439
00000070: dc99 8a3d a5c5 a5bd 56a2 69bd 6cac ec3c
00000080: 8b06 9abd 2f1a 833d 2036 a6bc fced 6b3d
00000090: 6cd1 bc3d 0813 e03d db95 5bbd 2297 3c3c
000000a0: f924 8abd 04cc f93c 5cda 9abc 645c f73d
000000b0: c590 843d fb26 ca3d 254b 2a3d 64bb 50bd
000000c0: 37ad 93bd b0c3 71bd 63ba a63d 7b8e 29bc
000000d0: 8b6b 48bc 9d7a b83d 4a4e 98bc 8a33 9b3d
000000e0: 90f4 233d ac99 343d ec24 913d 6fb2 9c3d
000000f0: eebb 9b3d 1c71 873d db26 70bd 40f7 8137
00000100: 3885 88bd acbf a53c c8a8 8c3d fde5 2cbd
00000110: 9a2c 37bd eec6 cf3d a45d 993d 99d0 3cbd
00000120: 22dd 4c3e 9d66 1bbb 31ed 7cbc ea55 733d
00000130: bea0 be3d ec6d 11bc d9f0 af3d 1d9f 073e
00000140: 5960 c53d 6fba 5e3d 78ce 0cbd bff5 633d
00000150: 952d 553c 72de c53c b712 f7bc ad20 ba3c
00000160: a9e3 963c fef5 f13c 7053 343d 2382 aa3c
00000170: 98e5 7d3b 96ab c23d 79e9 3f3d 4d57 d93d
00000180: 7818 b23d 61c8 d73b 52cd 88bd 13e9 bb3a
00000190: eb2f c6bc fbed a3ba d14f efbc 2010 293d
000001a0: 049c 2f3d 183b bb3d c8f8 593d 12e5 32bd
000001b0: efc8 8f3c fbe0 293d 1c05 5b3d 3ac8 b63d
000001c0: 61aa 15bc 8e23 b7bc 1111 a5bd 0ab7 a43d
000001d0: 9ed1 9ebc 11c9 8d3d d471 023d ce17 39bd
000001e0: 5146 73bd 4527 89bd 7b84 cc3d 476e a9bd
000001f0: 80e5 753c ba39 ee3d 2ad9 ae3d 0921 a83d
00000200: 0088 8abd ade5 0f3d ff3d 33bd 7a1b 80bd
00000210: d373 6e3d bbc3 4abd 976b 7bbd 4bc1 69bd
00000220: c990 8f3d 6bca 3ebd c08a bf3c c8e9 773d
00000230: 7f45 8ebc 8859 b23d 313e 2dbd 8918 103d
00000240: c60b 43bd bd75 91bd 6696 69bd 3f14 77bc
00000250: 261c b93b 6016 83bd dcf2 303d 7943 483d
00000260: 1010 c6bb 47ab b7bd 74be 34bd 3f1a d93a
00000270: 3163 833d b7b0 db3c 7131 7fbd 2100 85bd
00000280: 715c a83c 4086 03bd 7133 24bd 98cd be3d
00000290: fb1a 83bd a4a1 8cbd 879d 183c d5b3 3bbd
000002a0: 2d4c 803d 73a6 cd3b 3338 70bd 9f84 f8bc
000002b0: 8f9f 893d 4709 713d 40f4 833d d609 56bc
000002c0: b161 23bd 113d 22bc 8270 96bd 80bf 74bd
000002d0: 1a63 bbbd c595 c33d b01b 52bd 060e 5bbd
000002e0: 3df5 4fbd 3e31 1cbd 321e c0bc cd58 273d
000002f0: 4879 543d 2e7a 043b b327 7ebd 1d20 bfbc
00000300: cccc 4d3d 1450 af3c 4af6 ebbb 42eb c53d
00000310: e50b 5cbc 6a59 aabd ec54 bb3d ed4a 64bd
00000320: f10d a4bd 0def a83c 04d4 87bb 503c edb9
00000330: 1dcf cb3c 1a89 493d 881f 8d3d 1751 99bd
00000340: 1427 b63d bca6 62bd a767 a73c 164d 4fbd
00000350: 48a8 243d f1ff a7bc b455 243d cb1e 253d
00000360: 2b1a 393d a4b8 ab3d 44bd 83bc 08a2 8ebd
00000370: ebf0 68bd 4dee e6bb f33e 8abc 5858 95bd
00000380: 5337 9a3d fe7d 7dbc f662 5a3b 59be fdbc
00000390: cd0b 923d b5fe 51bd 0d2c 87bd 4076 a03d
000003a0: b1d2 7c3d 396a c93d 7d4a 94bd a197 923c
000003b0: 8bd4 30bc bbdd 043c 9fb7 dd3c e91e 88bd
000003c0: 48d8 7e3d 0033 da3c a715 f83c 6bb7 093d
000003d0: 40ea 16bb 5ca1 a3bd 438e 6dbb cd0d 063c
000003e0: a52a 5a3d 1495 3bbd 45f4 b13d ee5d 42bd
000003f0: 0cc4 94bd 7cc4 323d 8feb 4b3d 2854 983d
0.08744464 -0.058577966 -0.00077326066 0.04464919 0.029805932 0.07277041 -0.03635793 -0.0631252
-0.00043336314 0.019679604 0.04330282 0.0005056383 -0.06660589 0.097251676 0.0925906 0.054181408
0.081710905 -0.004989099 -0.025050396 0.0870602 0.06914318 0.07483352 0.028266586 0.05973804
-0.0673377 -0.0028823148 0.106808566 0.00037532035 0.067676276 -0.08094338 -0.05703958 0.02889081
-0.07520779 0.064014785 -0.02028948 0.057600006 0.092196316 0.1094113 -0.05360971 0.011510642
-0.06745333 0.03049279 -0.01890295 0.12078169 0.06472925 0.09870716 0.04157557 -0.05095996
-0.072107725 -0.059024513 0.08141019 -0.010348911 -0.0122326715 0.090077616 -0.018592019 0.0757819
0.040028155 0.044091865 0.070871204 0.07651221 0.07604204 0.06613371 -0.058630805 1.5493133e-05
-0.066660345 0.020232998 0.0686813 -0.04221152 -0.04472027 0.10145365 0.07488564 -0.04609737
0.2000623 -0.0023712285 -0.01543741 0.059408106 0.09308003 -0.008876305 0.0859086 0.1324429
0.096375175 0.054377016 -0.03437659 0.055654284 0.013011356 0.024153922 -0.030160291 0.02272066
0.018419104 0.029536244 0.044024885 0.020814007 0.0038741585 0.09505384 0.046853516 0.106123544
0.08696073 0.0065851663 -0.06679787 0.0014336429 -0.024192771 -0.0012506837 -0.029212864 0.041275144
0.042873397 0.091421306 0.053215772 -0.04367549 0.017551867 0.041474324 0.05347167 0.08924909
-0.00913486 -0.022355821 -0.08059896 0.080427244 -0.019387063 0.06923116 0.031846836 -0.045188718
-0.05939323 -0.06696943 0.09986206 -0.08272987 0.01500833 0.11632104 0.085375145 0.08209426
-0.06764221 0.035131145 -0.043760296 -0.06255241 0.058215927 -0.04950307 -0.061381903 -0.057069104
0.070100375 -0.04657976 0.02338159 0.060525686 -0.017367123 0.08708483 -0.04229564 0.03517965
-0.04761865 -0.07102535 -0.057028197 -0.015080511 0.0056491075 -0.06400752 0.04320036 0.048892472
-0.0060443953 -0.089682154 -0.044126943 0.0016563608 0.06415404 0.026817663 -0.06230301 -0.06494165
0.020551892 -0.032110453 -0.04008812 0.09316558 -0.064016305 -0.06866768 0.009314901 -0.045825798
0.062645294 0.006275946 -0.058647346 -0.030336676 0.067198865 0.05884674 0.06443071 -0.0130638685
-0.039888088 -0.009902255 -0.07345678 -0.05975294 -0.091497615 0.09550051 -0.051295936 -0.05348017
-0.050770987 -0.0381329 -0.023451898 0.04085617 0.051873475 0.0020214426 -0.06204958 -0.023330742
0.050244138 0.021400489 -0.007200991 0.096640125 -0.01343057 -0.08317836 0.09147057 -0.055735517
-0.080104716 0.0206218 -0.0041451473 -0.000452491 0.024879033 0.049203016 0.0689078 -0.0748617
0.08894172 -0.05533479 0.020435167 -0.050610624 0.040199548 -0.020507785 0.040120795 0.04031257
0.04519097 0.08384827 -0.01608146 -0.06964499 -0.056870382 -0.0070474506 -0.01687572 -0.07292241
0.075300835 -0.015471933 0.0033323145 -0.030974554 0.07131157 -0.0512683 -0.06600199 0.078350544
0.06172437 0.098347135 -0.0724077 0.017894568 -0.010792862 0.008109505 0.027065096 -0.06646521
0.06221798 0.026635647 0.030283762 0.033622187 -0.0023027807 -0.07989761 -0.0036248125 0.008182001
0.053263325 -0.04579647 0.08689169 -0.04745286 -0.072639555 0.043644413 0.049785193 0.074379265

lstm.bias_hh_l0 f4 [512]
00000000: 022b 86bc 3e77 313d c15b 4fbd 866e 21bd
00000010: 6a60 2ebd 3d74 9e3d 101b 26bc 5f7d d63d
00000020: 0d16 523d 28bb 933d c5a9 96bd 99f6 0fbc
00000030: 870b 803b 9ad9 b33b a4f8 b63d be62 66bd
00000040: 5a5a b73d c3b9 173d 5229 69bd cd67 f0bc
00000050: 252c 913d 88a3 84bd de05 ecbc 5b4f 923d
00000060: 0843 1bbd 24cb 833d d21c 4b3e 82ea d63d
00000070: cce3 603d 5dd2 97bc 3f77 0e3d c98f de3d
00000080: fbe2 3e3d 7fc1 f8bc 8efb 273d 1e93 343d
00000090: 3b32 193e ebc1 e43d 37e5 383d b5e4 ebbc
000000a0: d97f 563d c541 9f3d c1e3 20bd 6ed2 2fbd
000000b0: 130c 77bb e7ee cb3d 5dd9 febc f023 463c
000000c0: 1115 2abd 9564 8abc 1b7b f5bb cc46 1a3d
000000d0: 74d2 f83a ca9a 813d d0a3 003d 94fc 873c
000000e0: f096 403c 58c6 01bd 78a8 aabc 0580 8dbd
000000f0: 88d5 f1bb 0cac 89bd f23f e0bc 06f4 66bd
00000100: 5da7 26bd 45d2 803c 8e2e 5d3d ecf5 4fbd
00000110: 7be7 8fbb bfc6 b53d 4c0c 873d 5d1b ef3d
00000120: 92d4 703e 8c9c c73d 5bca e93d d949 c13d
00000130: c85e 813d 3268 37bc a45e 473d 6fb2 e93d
00000140: 7716 b43d 0915 d9bc f20b a13d ec0f 19bd
00000150: 37f9 80bd 6bc2 03bb f0e0 313d 0159 d2bc
00000160: 04a3 31bd e226 943c 46f9 603d 60ee 583d
00000170: 2704 723d adcc dcbc 10b9 0fbd a0b3 ad3c
00000180: 1908 0bbc a368 0a3d 65bd ab3c a1f3 ad3d
00000190: 055f d7bc 4046 4d3d 8542 d53d 632d 9abc
000001a0: daa8 623d dee4 023d 5b58 0bbd 6350 c2bc
000001b0: 679a 913d 8164 843d f2f0 723c 1865 1e3d
000001c0: 15f5 083c 3238 a53d e1bd 113b 93cc da3d
000001d0: d741 47bb cb89 1bbd 72c1 bb3d aec6 e6bc
000001e0: 3e6d a63d ae9d dfbc 8494 be3c c8f2 853d
000001f0: 7239 433d fa9e 173c 8e38 30bd 2b4b 6cbd
00000200: b3a0 263b e8aa 883d 0414 5c3c 8fcb f43c
00000210: 004b 103d 95fe ea3b 563f 8a3d 2045 88bc
00000220: 60e2 66bd 4c32 fbbc eb70 33bc b94c be3d
00000230: 08df 693c eac5 a13d 7d78 bb3d 48f7 95bd
00000240: 5730 803d f751 8e3c b69d 3d3b 4cf4 863d
00000250: 4d4b f6bc 91dd bbbb 61e2 8f3d f583 bc3d
00000260: 8ed2 cfbc e13f 1dbd 678c ddbb 7ff9 ab3d
00000270: 1d4a 11bd 1322 a9bd 4fca dbbc 30e6 97bd
00000280: e9ba 473d e7f7 8abd b6bc 913b 2085 a63d
00000290: a315 5a3c 7d0e 333d 2359 5ebd 6b53 bbbc
000002a0: a5e2 38bd fa99 1a3d e767 90bd 1a5e 143d
000002b0: ae39 59bd c72e 293d f3d5 8f3c f6aa 9bbc
000002c0: 3136 8f3d 013a debc 57a4 613c 1fa5 84bd
000002d0: 13f0 f1bc b38c fb3b 76d6 9fbd ab21 03bc
000002e0: 70cb ac3d d47b 87bd 74cd ad3c 017d 893c
000002f0: 94df 433d bfc0 8dbd a5f0 3cbd 3497 3dbd
00000300: fc56 94bd 4168 403d a495 363c 70f3 b13d
00000310: cffc 3fbd d4a7 7cbc de52 c0bc a28e 87bd
00000320: 22c8 a53c 97ce 91bc 337b 283d 04a5 853d
00000330: a8c8 70bd 3803 8f3d d59f 3abd 3704 033d
00000340: a577 95bc e736 fd3c 7cf5 41bd 46af d93c
00000350: b87f 263d a12e 9d3d bc94 49bd 61aa 293d
00000360: c0d0 7dbd 559b 68bd abd2 9ebc cc13 833d
00000370: d1db c0bc 35bd b23c 6129 803b 89b7 863d
00000380: b142 b23d 3cf9 7ebd cf5f aa3d a155 0abd
00000390: 18b8 8abd 45ee 54bd 8123 b83d a416 63bd
000003a0: 9b14 6d3b 4a8c 90bd cff2 7c3d 65de bc3c
000003b0: 4c8f 88bd b921 46bd f79b aa3d 0897 b4bc
000003c0: ae0d 46bd 3b79 373d 89b3 853d 55b2 bd3d
000003d0: cff7 923c db2c afbc 312c 653d d558 3a3a
000003e0: 5145 203d 9aa3 683d 20d0 5abd fde7 4c3d
000003f0: 218c 26bd a8f4 733d a11d 35bd 8653 67bc
-0.01637793 0.04332661 -0.050624613 -0.039412044 -0.042572416 0.077370144 -0.010138288 0.104731314
0.05129056 0.072134316 -0.073566 -0.008786821 0.003907624 0.0054885866 0.08934143 -0.05624651
0.0895278 0.03704239 -0.05692417 -0.029346371 0.07088498 -0.064765036 -0.028811391 0.07144042
-0.037905723 0.064352304 0.19835213 0.104939476 0.054904744 -0.018532926 0.03478169 0.108672686
0.046603184 -0.030365704 0.041011386 0.044085614 0.14960568 0.111697994 0.04514047 -0.02879558
0.05236802 0.077762164 -0.039279703 -0.04292529 -0.0037696406 0.099576764 -0.031109506 0.012093529
-0.041523997 -0.016893664 -0.007491482 0.037665173 0.0018983618 0.06328352 0.031406224 0.01659993
0.011754736 -0.031683296 -0.020832285 -0.069091834 -0.0073801912 -0.067222685 -0.027374242 -0.056385063
-0.040686954 0.015725264 0.053999476 -0.05077164 -0.0043916083 0.088757984 0.06594142 0.11675141
0.23518589 0.09746656 0.11415549 0.094379134 0.06316906 -0.011194276 0.04867424 0.11410987
0.08793347 -0.026499288 0.078636065 -0.0373687 -0.06297534 -0.0020104896 0.043427408 -0.025677206
-0.043368354 0.018084947 0.054925226 0.052961707 0.05908599 -0.026953066 -0.0350886 0.021203816
-0.008485817 0.033791196 0.020964334 0.08493734 -0.026290426 0.050115824 0.10413078 -0.01882047
0.05533681 0.031956546 -0.03401981 -0.023719972 0.07109528 0.06464482 0.014827954 0.03867063
0.008359213 0.08067359 0.002223842 0.10683551 -0.0030404234 -0.037973206 0.09167756 -0.02817091
0.08126305 -0.027296867 0.023264177 0.065404475 0.047662206 0.009254212 -0.043022685 -0.057688873
0.0025425374 0.06673223 0.0134325065 0.02988222 0.035227776 0.007171462 0.067503616 -0.016634524
-0.05636823 -0.030663632 -0.010952215 0.092919774 0.014274366 0.07899077 0.09153841 -0.07322556
0.0625922 0.017373068 0.0028933114 0.06589565 -0.030065203 -0.0057332 0.070256 0.09204856
-0.025368955 -0.038390998 -0.006761122 0.08397197 -0.03547107 -0.08258452 -0.026829867 -0.07416952
0.048762236 -0.06785565 0.004447545 0.0813086 0.013310823 0.04371499 -0.054284226 -0.022866925
-0.04513802 0.0377445 -0.07051068 0.036222555 -0.053033523 0.041304376 0.017558074 -0.019002419
0.06992758 -0.027127268 0.013772092 -0.06476807 -0.029533422 0.0076766848 -0.07804577 -0.008003633
0.0843724 -0.06615415 0.021216132 0.01678324 0.047820643 -0.06921529 -0.046127934 -0.046286777
-0.072431535 0.046974424 0.011144076 0.0868901 -0.046871956 -0.015420873 -0.023477014 -0.06619002
0.020237032 -0.017798705 0.041133117 0.06525615 -0.05878511 0.06983036 -0.045562584 0.03198644
-0.018245528 0.030909969 -0.047353253 0.026572835 0.040649146 0.076749094 -0.04921411 0.04142225
-0.061966658 -0.05678876 -0.019387564 0.0640026 -0.023542317 0.021818737 0.0039111828 0.06577975
0.087041266 -0.062249407 0.08319055 -0.03377307 -0.06773394 -0.051985044 0.08991147 -0.055441514
0.0036175612 -0.07058008 0.061754998 0.023055265 -0.06667957 -0.048372004 0.08330529 -0.022044674
-0.04835289 0.04479335 0.06528384 0.0926253 0.01794043 -0.021383693 0.055950347 0.0007108574
0.039128605 0.056796648 -0.05342114 0.05002593 -0.04066098 0.059559494 -0.04421771 -0.014119035

lstm.weight_ih_l1 f4 [512, 128]
00000000: eb7c 8b3d 48ba 74bd 21f8 01bd 6306 e2bd
00000010: 919e 5c3d 4ba7 903c f52f 0dbc 0d22 823d
00000020: 14f8 b33d 821a a03d 89ba 17bd ee3e 31bd
00000030: 670b 453c 6faa a4bd 0532 cfbd 0d09 d0bc
00000040: 7924 37bd 16ff d7bb 4202 b83b 00dd 693d
00000050: f2a2 aebd 5fbd 52ba b913 45bd 80ad 37bd
00000060: 8cc1 0b3d 1209 d9bd f482 873d 8820 86bd
00000070: 40f9 1f3d 4e7b 903b ca9a 8d3d e67b 75bd
00000080: 0e84 283d 329c 04bd 23a1 89bd a68a 433d
00000090: 741a 78bc e803 033e d7e1 c73c d087 353d
000000a0: ba20 a0bd d0ec 0ebd 1218 97bd 7d15 9e3d
000000b0: 4b5a 90bd dfff 3e3d 0906 df3d 492f 12bd
000000c0: 78ae f3bb 5ae8 03bd 865e 98bc 7c64 9dbd
000000d0: 7ccd 893d 6355 86bd c9f9 0dbb 74e8 f13b
000000e0: 069f b53d 69fb 8abd 0d5a f23c 560c 603d
000000f0: 4142 c4bd 171c 433d a3e5 64bd e012 84bc
00000100: f823 273d ac5f 7ebc d1da 013d 6a96 b4bd
00000110: fab9 d3bd c628 edbb 7230 6b3c e857 a0bd
00000120: 6d68 ea3d 0885 9e3d dd52 cabd 7100 3e3d
00000130: 4df7 97bc 14ef 423c 653c a13d 60c7 25bd
00000140: 65ef 9bbd 9328 10bd b2f4 cb3c 406d bd3d
00000150: 9ee1 be3d 7171 9ebb 5140 963d e46b 8a3d
00000160: 4556 2e3d 8434 5d3c 5403 bebd 1d7a 8a3b
00000170: 446a 4a3d 255b b83d 2529 87bd fc8c e1bb
00000180: 99fb b9bc 0ae4 dd3c 8da1 9c3d 7b2c 063c
00000190: e4f3 9abb 9667 943c 4cb6 0b3d e5cc 41bd
000001a0: 41df 713d c2f1 c6bb 0ac1 8ebc 76ef e53c
000001b0: 082e fd3b 5282 cb3d 273b bf3d a3a4 99bc
000001c0: 846a 5f3d 9e7c 8a3d f443 3e3d 7514 653d
000001d0: d8aa aa3a f0af 9ebd 0e2f bebd d15e 9d3d
000001e0: 7460 14bd be57 77bd 8909 eabd 6564 fd3c
000001f0: 52ff 113c 6f39 00bd 8fcb ad3c d3c1 8f3d
00000200: f8ac d43c c037 7b3d fe30 973d 8f73 0fbd
00000210: 4ce6 653c 4d58 b7bb d23a a23d 1b63 35bc
00000220: 661f ddbd f75d 04bd 066d b33d 7690 ae3d
00000230: abb4 273d 7474 253c 9919 96b9 df59 9db8
00000240: a99e 0d3d 2af2 4e3d 547e 3abd 1e57 00bd
00000250: 5eca cb3c efdd 033d dd28 913d 9827 d03d
00000260: 41a3 3abd 3e1f 3d3d 1c9a 93bd 1757 a63c
00000270: 9703 823d 1d56 993d f5b3 dcbb 9b68 15bd
00000280: b9d8 c3bd fd1b 063d a9e1 893d a89e 6cbd
00000290: 1ff4 b6bb 7811 b7bd 8aaa 233d d508 ca3d
000002a0: 31b7 b83c 1f52 8abd 6d02 9f3c 7d36 18bc
000002b0: 62df a53b 27f3 943d 2265 82bd fc26 d13d
000002c0: 8eea 893b a5d0 74bd e331 e9bc 6444 ee3b
000002d0: 89b7 76bd f445 ce3d e8e8 2fbd 21c1 f4bc
000002e0: 015d c4bd d9a1 543d 8559 cc3c 1dad 813d
000002f0: f8a7 40bb a7db 21bd 1feb b93c d1a8 f93c
00000300: ab51 7d3d 0e53 b7ba d8de 1c3d 65ca 88bd
00000310: 2b63 773d c398 63bd 719e e0bd 3c52 c73d
00000320: c6db ebbd 53f5 ccbd e2eb e3bc bc33 6fbd
00000330: 86f5 c9bc 29ef e33d d008 ddbd da66 cd3c
00000340: 7ef2 043d 2f7d d83c 0ff2 be3a 47bf b3bd
00000350: 2867 98bc 62bf a13d 48d4 0abc 752d 9bbc
00000360: 0d65 a0bd 0406 5cbd 92c7 553d e6dd 70bb
00000370: 7f27 c9bd ab1d 803c eb33 d23d ed74 553d
00000380: bda5 86bc 3fc3 df3d 4b41 1ebd 6f0a e8bd
00000390: 7760 1dbd 95d5 85bd 81cc c5bd 92b2 183d
000003a0: 2d23 3fbc 14df 9cba ab58 a23c c0e5 513d
000003b0: ccc9 6abd 9c57 323c 1dd4 deba 7490 773d
000003c0: bf2a bcbd e6fe 80bd bd44 8ab9 7e24 a0ba
000003d0: ccad a7bc 636a 263d 64ad 923d 2ebf bf3d
000003e0: c347 b0bd 42aa 61bd 1dae c13d a9af 033d
000003f0: f922 45bd 46f4 04bc 0e1f 4d3b b5aa 553c
0.068109356 -0.059747964 -0.031730775 -0.110363744 0.05386216 0.017657897 -0.008617391 0.06354151
0.087875515 0.07817556 -0.03704313 -0.043272905 0.012026644 -0.0804032 -0.10116962 -0.02539494
-0.044712517 -0.006591688 0.0056155035 0.057095528 -0.08527173 -0.0008039083 -0.048114512 -0.044843197
0.034120128 -0.10597433 0.06616774 -0.065491736 0.039056063 0.0044092303 0.06914289 -0.059932612
0.041141562 -0.032375522 -0.067201875 0.047739647 -0.015143026 0.12794459 0.024399681 0.044318974
-0.07818742 -0.03489381 -0.07377638 0.07718942 -0.07048472 0.046630736 0.10889823 -0.035689626
-0.00743657 -0.03220401 -0.01859976 -0.076851815 0.06728646 -0.06559255 -0.0021663776 0.007382447
0.08868222 -0.06786234 0.029583955 0.054699264 -0.095829494 0.04763421 -0.05588306 -0.016122282
0.040805787 -0.01552574 0.03170282 -0.08817752 -0.103382066 -0.0072375266 0.014354812 -0.07829267
0.11445699 0.077402174 -0.09879086 0.04638714 -0.01855054 0.011897821 0.078728475 -0.040473342
-0.0761402 -0.035194945 0.024896953 0.092493534 0.09320377 -0.0048353006 0.07336486 0.0675886
0.04256274 0.01350129 -0.092779785 0.004225983 0.04941775 0.090017594 -0.065996446 -0.0068832617
-0.022702979 0.027086277 0.07648001 0.008189316 -0.004728781 0.0181158 0.0341094 -0.047314543
0.059050802 -0.0060713002 -0.017426033 0.028068285 0.0077264346 0.09936966 0.09337454 -0.018755263
0.05454494 0.0676205 0.046451524 0.055927712 0.0013020886 -0.07748401 -0.09286319 0.076841004
-0.036224797 -0.06038641 -0.114276 0.03093166 0.008910971 -0.031304773 0.021215228 0.07019391
0.025961384 0.061332464 0.073823914 -0.035022315 0.014031958 -0.005595243 0.07921375 -0.011070992
-0.107970044 -0.032316174 0.08761029 0.085236475 0.040943783 0.010098565 -0.000286293 -7.503083e-05
0.03457514 0.050523914 -0.045530632 -0.03133308 0.02487677 0.032194074 0.07087872 0.10163802
-0.045565847 0.046172373 -0.072071284 0.0203052 0.06348341 0.07487128 -0.0067353197 -0.036476713
-0.09562821 0.032741535 0.067324944 -0.057768494 -0.0055833007 -0.08938879 0.03995756 0.09864966
0.02254829 -0.067539446 0.019410336 -0.009290335 0.0050620297 0.0727294 -0.06366946 0.10212514
0.0042088693 -0.05976929 -0.02846617 0.0072713364 -0.060233627 0.10071936 -0.042946726 -0.029877247
-0.095880516 0.051912162 0.02494503 0.06331847 -0.0029396992 -0.039516117 0.022695122 0.030476006
0.061845463 -0.0013986544 0.038298458 -0.06679229 0.06039731 -0.055565607 -0.1096772 0.09732482
-0.11516528 -0.100077294 -0.027822439 -0.058398947 -0.024653208 0.111296006 -0.107926965 0.025073458
0.03245782 0.02642688 0.0014567989 -0.08776718 -0.018603876 0.078978315 -0.008473463 -0.018942574
-0.07831774 -0.053716674 0.05219228 -0.0036753356 -0.098219864 0.015639147 0.10263809 0.052113462
-0.016436452 0.10925912 -0.038636487 -0.11330115 -0.038422074 -0.06534878 -0.09658147 0.037279673
-0.011666101 -0.0011968338 0.01981767 0.051244497 -0.057321355 0.0108851455 -0.001700047 0.060440496
-0.09187841 -0.06298618 -0.00026372625 -0.0012217907 -0.020468615 0.040628802 0.07161978 0.093626365
-0.086074375 -0.05509401 0.094570376 0.032149944 -0.048129056 -0.00811488 0.0031299028 0.013041188

lstm.weight_hh_l1 f4 [512, 128]
00000000: 4620 893d f86a 073d 9a92 3e3d 10ba 25bc
00000010: 198e fd3c 7778 8d3d d8e2 9a3c 0f06 a7bc
00000020: 7288 b43c f014 7ebc d9c0 333d 25a8 913d
00000030: 6b83 803b 2e05 4f3d cc9f 763d be68 943d
00000040: 22bb aa3d ece3 893d 2627 a1bd b288 a63d
00000050: 9e57 e5bc d766 f9bd 8042 a13d af07 8abd
00000060: 30b2 273c 70f7 273b 6628 8f3c a2af 11bc
00000070: 1e52 77bd 64a6 823d a725 afbc 5508 73bd
00000080: 0d67 3abd d3f1 223c f44d 6c3c 1b79 d13c
00000090: c37d 2f3d fbf4 553d ba8d d03d 58c3 043b
000000a0: 7a85 d2bc 81a6 2a3d 9f71 b53d 432a b43c
000000b0: cc3c bebc d8b4 cabc d6d5 883c a1bb 44bc
000000c0: 429a 30bd 6793 0c3d 7c9b 20bd 15d1 0a3d
000000d0: cca7 3e3d 57bd c63b 4f62 793d 9b3e 23bd
000000e0: cbc8 26bd 20ed 25bd b3ea 6d3d 75f6 ed3d
000000f0: acd0 6bbd 927a 7fbd e95f 013d 5e8e a23d
00000100: 8f28 8d3d 6054 cdba ba21 123d 3446 fb3c
00000110: a36b a73d 435e 563c 45b8 0d3d dcaf 26bc
00000120: 86a0 bbbc 0395 bb3c 4fd3 1fbd ef36 1d3d
00000130: fe7b 99bd 7b12 8e3d 855c 42bc 6501 b43d
00000140: 05c6 9bbc 6545 c6bd f325 1d3d 82d9 993d
00000150: 8f09 21ba b201 f4bc 9b1c ba3c cbf7 86bd
00000160: 25e7 963d faa4 ef3c 9bd0 96bd 0f0a acbd
00000170: ebd2 5cbd 4aa4 46bd 9bb1 0ab9 29b5 8cbd
00000180: 9334 8e3d 1559 4c3d 55b6 ddbc 971a 9f3d
00000190: c65b a3bd d069 1cbd 5343 b7bd ddbf 37bd
000001a0: 9ed6 083c f395 c43c 0431 8cbd 43ef 0dbd
000001b0: f749 87bd 02bc 05bd cf59 af3b 0081 913d
000001c0: d4b1 8d3c e115 903d 4ffb b53c 402b 10bc
000001d0: 02db 10bc 27f4 de3d 82b9 1a3d 4fc3 f33d
000001e0: 5c8d 90bd 53a7 903d 4995 cc3c 3ac0 1abd
000001f0: 6bcd 673c 2216 e5bc 5374 bdbd 8927 c5bd
00000200: 9b45 c6bc e2fd d9bc 0670 483c d7e0 42bd
00000210: 212a 5b3d 4fde ac3d 16e0 e5bc ec85 83bd
00000220: 5f8b 60bd d07a c53c 2885 363d 8ff9 86bd
00000230: 2656 5b3d 9452 79bd 7bf1 90bd 9cf2 983d
00000240: 04ed a43d ceaf 973d 80dc 6fbd 32f6 ab3d
00000250: e034 723c dcff c03b 558b 97bd 5220 9a3d
00000260: 70ec cf3c 51f2 acbd f07b 8dbd bd7c 663d
00000270: f1cf 6c3d b173 ad3d d52d 383d 3fd1 88bc
00000280: c9f3 1e3d 634b 25bd a100 c6bd 0e7f 10bd
00000290: b769 98bb 7f7d 20bc 97fa c33d 09bf 6c3c
000002a0: 2c48 1f3d fe5a fa3c 888d dabc efad c83c
000002b0: fa09 f7bc 11af c8bd 309a 863c 5878 ffbb
000002c0: df36 6a3b 47c7 8fbd 969e 8bbd d4d9 85bd
000002d0: 5120 aebd cbac 71bd cdfc 64bc 3c0f 9bbc
000002e0: 8bf2 563d 9779 883d a65a 71bc 2dbb 983c
000002f0: 52b8 103d 2e84 61bd ddf4 b3bc ccd4 233c
00000300: a039 4fbd 9ca5 763d a24d 16bd 613f 09bb
00000310: f67e 053d 89a4 973d e827 a3bc c624 02bd
00000320: a3cb bbbd d365 0abd 2491 c2bc fbee 9a3d
00000330: 9c52 003c 6419 60bd 6bbd 0abd b5ad bfbb
00000340: 3c2b 99bd 4419 683d b50c 56bd 4b67 623d
00000350: 51ae 67bc ece8 dfbc 0a85 233d d116 bb3c
00000360: e89d ab3d 0085 40bc 352a c0bb f1b0 f5bc
00000370: 14f9 13bc aa67 7e3d 7785 a63a da05 d4bb
00000380: bf56 7abd a166 7b3d ceb9 8c3d eaa9 08bd
00000390: 20df f43c 4a9a 4f3d 0de3 78bd c8c9 6abb
000003a0: c032 2cbc 61fa 01bd e9b7 643d e6c3 3e3c
000003b0: 68f9 0bbd 1385 39bd 04e4 8fbd 792f 35bd
000003c0: 047b bb3d c82e ee3d 3479 1fbd 845e 6c3d
000003d0: 0be6 44bd a6fd 90bd ab2f d5bb b325 94bd
000003e0: 4a55 93bc d2da a83d 214a 8b3d ae7d f1bb
000003f0: b865 a6bd 9fb6 493d 661b b93b 945e 88bd
0.06695609 0.033060998 0.04652653 -0.010115162 0.030951547 0.069077425 0.018906996 -0.020388631
0.022037718 -0.015507922 0.043885086 0.07112149 0.0039219162 0.05054205 0.060210988 0.072465405
0.08336474 0.06732926 -0.07868795 0.08131541 -0.02799588 -0.12177818 0.07874012 -0.06739747
0.010235354 0.0025629662 0.017475318 -0.008891972 -0.060381047 0.06379393 -0.021380259 -0.059334118
-0.045508433 0.009945351 0.014422882 0.025570443 0.042844545 0.052235585 0.10183282 0.0020258036
-0.025698412 0.041662697 0.08859562 0.021992808 -0.02322235 -0.024744436 0.016703527 -0.012007625
-0.04311586 0.03432026 -0.03921078 0.033890802 0.046546742 0.0060650515 0.06088477 -0.039854627
-0.040718835 -0.040509343 0.058085155 0.116192736 -0.057572052 -0.06237275 0.031585608 0.07937311
0.068925016 -0.0015665404 0.035676695 0.030673124 0.08174827 0.013083997 0.03459956 -0.010173764
-0.022903692 0.022898203 -0.03901988 0.038382467 -0.07494353 0.069371186 -0.011862879 0.087893285
-0.019015322 -0.09681205 0.03836627 0.075121894 -0.0006143087 -0.029785965 0.022718718 -0.065902315
0.07368306 0.029253472 -0.07364007 -0.08400356 -0.053912085 -0.048496522 -0.00013226869 -0.06870491
0.069436215 0.049889643 -0.027064482 0.077687435 -0.07976489 -0.03818685 -0.08948388 -0.04486071
0.00835195 0.023997283 -0.068452865 -0.034652006 -0.066059045 -0.03265 0.005351282 0.07104683
0.01729671 0.07035423 0.02221456 -0.008799374 -0.008841278 0.10886412 0.03777457 0.119024865
-0.07058212 0.070631646 0.024973528 -0.037780978 0.014148097 -0.027964655 -0.09250703 -0.09626681
-0.024203112 -0.026610319 0.01223374 -0.047577705 0.053506974 0.084408395 -0.028060954 -0.06422028
-0.054820415 0.024106413 0.04456058 -0.06590568 0.053548954 -0.06086977 -0.07077309 0.07468149
0.0805302 0.07406579 -0.058559895 0.083965674 0.014783114 0.005889876 -0.07399622 0.07525696
0.025381297 -0.08444656 -0.06908405 0.056271303 0.057815496 0.08469332 0.044965584 -0.016701339
0.03880671 -0.040355098 -0.09668089 -0.03527742 -0.004651274 -0.009795546 0.095692806 0.014449843
0.038887188 0.030560967 -0.026678815 0.024497 -0.030156124 -0.09799016 0.016430944 -0.0077963285
0.0035738272 -0.07020431 -0.06817357 -0.06535688 -0.085022576 -0.05900268 -0.013976288 -0.018928163
0.0524774 0.066638164 -0.014731085 0.01864394 0.03533203 -0.055057697 -0.021967346 0.009999465
-0.050592065 0.06021653 -0.03669513 -0.0020942318 0.032591783 0.074044295 -0.01991649 -0.03177335
-0.091697 -0.033788513 -0.023750849 0.07565113 0.007832196 -0.054711714 -0.03387205 -0.005849565
-0.074789494 0.05666472 -0.052258212 0.05527429 -0.014140681 -0.027332745 0.039921798 0.022838028
0.083797276 -0.01175046 -0.0058644065 -0.029991599 -0.009031553 0.06211058 0.001270457 -0.006470424
-0.061117884 0.06137717 0.06871377 -0.033365168 0.02989155 0.05068425 -0.060763407 -0.0035825837
-0.010510147 -0.03173292 0.055839453 0.0116433855 -0.0341734 -0.045292925 -0.070259124 -0.044234727
0.09154323 0.116300166 -0.038933948 0.057707325 -0.04807095 -0.070796296 -0.0065059266 -0.07233753
-0.017985005 0.08244862 0.06801248 -0.0073697185 -0.0812487 0.049246427 0.005649018 -0.06658664

lstm.bias_ih_l1 f4 [512]
00000000: 6890 943d 1545 01bd d5da 9bbc 3e2d 8dba
00000010: 5fd7 a1bd c32f 843d b0f4 933d bce6 143b
00000020: 7189 47bd 4dfd 633c 3d94 313d 7b5d b83c
00000030: da11 7c3c 0a47 393d 38c9 ce3c b542 beba
00000040: 507d 9cbd 6078 1f3d 2551 cc3d 5d5d 003d
00000050: 0968 0fbc 6162 0e3e 5b46 ab3d 429d 813c
00000060: e407 943c b07c 833d 2f97 893d dbdb a13d
00000070: c836 d5bc c6c9 82ba c807 173d 07ae e13d
00000080: 17e2 2abd 1bc8 3bbd 05f1 8d3d 5adf f63a
00000090: b4d5 74bd f28a aa3b f9b9 dd3d 259d ab3d
000000a0: 9f88 da3c 74bf e8bc 16c0 3d3d 912c f3bc
000000b0: f811 16bd 056e 4cbd fcc1 97bd 762f de3c
000000c0: dd32 febc e9bf 7dbd a94d 55bd f420 113d
000000d0: 2fb1 bcba 1109 01bd fea0 71bc a935 a5bc
000000e0: cd81 483d 7f30 3d3d 6155 8e3c a8d1 253d
000000f0: 7836 fcbc 1cc7 383c 3f45 d73d dbe3 4ebd
00000100: 78db 53bd b293 8f3d 8c53 22bd b9d2 523d
00000110: ad76 b23c 175a aabd 7322 ed3d cbbf 53bc
00000120: 5978 dabc 6566 fd3c bd87 1e3c e082 903d
00000130: 2085 373d cf9e a2bd 4410 003d 4e50 aa3c
00000140: 90f1 43bd 9d19 98bd 8b9e b63d d4f1 9e3d
00000150: 4836 6d3d ad85 8bbd 00c3 c63d ce62 183d
00000160: b39e cc3d 2136 363d 9a8f b03d 4b97 373d
00000170: 2061 45bd 504e b03d 8cc9 8bbd 2e82 1abd
00000180: 0e32 9e3d 681f 133c 4c9f 803d 9cd2 c33d
00000190: 8f4d e93c 434f 153d bc9e 39bd 278b 933d
000001a0: b686 23bc d66d 783c 909d c23d 4d03 bd3d
000001b0: 96f0 ea3c 2c24 cebb 4570 923c 8afe 6fbd
000001c0: efa9 bdbb 45b2 f3bc 0a33 8abc febd 5bbd
000001d0: 7fd5 6b3c 8636 a13d e005 a63b dd02 813c
000001e0: ccbf 113e de9d d13d b491 7ebc f329 0f3e
000001f0: d4c8 a83d 3622 fd3c 5063 f9bc 0424 9c3d
00000200: c8b4 f5bb c977 1ebd 3121 65bd 90d1 85bd
00000210: f7f7 56bc 0395 60bc 4ade a2bd 62dc 92bd
00000220: 0c1b 9d3d 8ab6 503d fdef ab3d 6695 a4bd
00000230: 5dd6 ddbc bcd3 e33c ddff a03b b768 b3bc
00000240: f0de 0e3d 7f8c 623c b925 50bd d7bc c0bb
00000250: be4a a93d cb1d 29bd 4344 ac3b cf13 873d
00000260: 332a 223d ff75 913d a543 4abd a8fd 07bd
00000270: c3f7 57bd 6244 6e3d 3600 2f3c dfc2 0c3e
00000280: e25f 693d 09f6 79bd 3f35 483b 954e 5fbc
00000290: d5b2 c13b 5635 573c a8b4 8a3d 688a 823d
000002a0: 47f9 23bd 637d 913d 91c4 70bd 474b 03bb
000002b0: 74c6 4a3d aae6 68bc 3484 02bd 81a9 92bd
000002c0: 1853 1dbd d59e 803d 11ee c23b 568f ae3d
000002d0: be35 2c3d 4a82 903d bc58 873c 7c60 34bd
000002e0: 6f14 e5bc 4f1e 44bd 9395 83bd b5fe b33d
000002f0: a0ca 963d 180d b0bd 5ce5 6e3d f676 aa3d
00000300: 1988 89bd e2c0 d23d f4e4 703d 790f a1bd
00000310: a03d 8fbd 5766 cfbc 0d5d c93c a4f7 3dbd
00000320: b8a3 2c3d 041c ee3c ce17 683d dedf 2ebc
00000330: 6a50 cf3c cbb8 5f3d 8ba4 88bc fa94 e03c
00000340: 9d4f 26bb 77b8 5e3d aeb1 3a3d 7217 9fbc
00000350: 09d7 70bd 46fe 7e3d 7d40 693d a991 adbd
00000360: 9fd9 b43d a43e 8fbd 90eb 2f3d da38 ad3c
00000370: 1d1a 07bc 1075 5cbd a7aa a23d 4eff 86bd
00000380: 4464 c73c a50c 92bd 460a 91bd 15c3 783d
00000390: 22c4 7a3d 70ea b23d a35b 20bd 23ee abbc
000003a0: 0beb 893d 058d 5d3d d802 8cbd 4d93 87bd
000003b0: 748e 64bc c821 ab3d 1b86 77bd e221 cbbc
000003c0: 9e85 213d 3955 4cbc aca8 e23c 4605 ec3b
000003d0: 71fb 803d 60ac 92bd 5b70 2fbd 9d2d ba3d
000003e0: 5a25 003e c589 243d 22ad 39bd 5b42 7ebd
000003f0: d3c6 76bd 1249 d1bc c877 a5bd dc04 d1bc
0.07254106 -0.031560022 -0.019025246 -0.001077093 -0.07902407 0.06454422 0.07224405 0.0022720536
-0.04871506 0.013915372 0.04335426 0.022505512 0.0153851155 0.045233764 0.025242433 -0.001451573
-0.07641089 0.038933158 0.099764146 0.03133904 -0.008752831 0.13904716 0.083630286 0.015822057
0.018070169 0.06420267 0.06718289 0.07903262 -0.026027098 -0.0009978346 0.036872655 0.11019521
-0.041719522 -0.045845132 0.069307365 0.0018834874 -0.059774116 0.005204552 0.10826487 0.08379582
0.026676474 -0.028411604 0.046325766 -0.029684337 -0.03663823 -0.04990961 -0.074100465 0.02712224
-0.031030113 -0.061950598 -0.052076016 0.035431817 -0.0014396067 -0.031502787 -0.014747856 -0.020167189
0.048951913 0.046188828 0.017374696 0.040483147 -0.030787691 0.01127794 0.105112545 -0.05051027
-0.051722974 0.070105925 -0.039630458 0.051470492 0.021785105 -0.083179645 0.11578836 -0.012924145
-0.026668714 0.030932615 0.009675917 0.070562124 0.044804692 -0.079404466 0.031265512 0.020790245
-0.047837794 -0.0742676 0.089169584 0.07760969 0.057913095 -0.06812606 0.09705162 0.037203602
0.09991207 0.044485215 0.0862114 0.04482202 -0.04818833 0.08608687 -0.068255514 -0.037721805
0.07724391 0.008979656 0.062803835 0.09561655 0.028479366 0.036452543 -0.045317397 0.072042756
-0.009980848 0.015162906 0.09502709 0.09229145 0.028679173 -0.006290933 0.0178758 -0.058592357
-0.00578808 -0.029748091 -0.01687004 -0.053647988 0.014394163 0.07871728 0.0050666183 0.015748436
0.14233321 0.10235189 -0.015537668 0.13980846 0.0824143 0.030900102 -0.030442864 0.07624057
-0.0074983574 -0.038688455 -0.055939857 -0.065341115 -0.013120643 -0.013707402 -0.079525545 -0.07170941
0.076711744 0.050955333 0.083953835 -0.08036308 -0.027079755 0.027810924 0.004913314 -0.021900518
0.03488058 0.013827442 -0.050817225 -0.0058818865 0.08266209 -0.04128818 0.005257161 0.06595575
0.039591026 0.07102584 -0.049380917 -0.03320089 -0.05272652 0.058170684 0.010681203 0.13746212
0.056976207 -0.061025653 0.0030549315 -0.013629575 0.005911211 0.013135275 0.06772739 0.06374055
-0.04003265 0.07103994 -0.05878121 -0.0020033882 0.049505666 -0.014215151 -0.03186436 -0.071612366
-0.038409323 0.06280295 0.00594879 0.08523433 0.04204344 0.07056101 0.016521804 -0.044037327
-0.027963845 -0.047880467 -0.064250134 0.08788816 0.073628664 -0.085962474 0.058324203 0.08323471
-0.06715412 0.10290696 0.058812097 -0.07864279 -0.06994176 -0.025317354 0.024580503 -0.046378747
0.042148322 0.029066093 0.056663327 -0.010673491 0.0253069 0.05461959 -0.016680023 0.027414788
-0.0025377043 0.054375138 0.045579605 -0.01942036 -0.058798824 0.062254213 0.056946266 -0.08475048
0.088305704 -0.069943696 0.04294926 0.021145273 -0.008245972 -0.053822577 0.079427056 -0.06591664
0.024339803 -0.07131318 -0.07082038 0.06073292 0.061222203 0.08736122 -0.03914989 -0.020987576
0.06734284 0.054089565 -0.0683648 -0.06619892 -0.013949979 0.08356053 -0.060430627 -0.02479643
0.039434068 -0.012471491 0.02766832 0.007202777 0.06297959 -0.07161784 -0.04283176 0.09090731
0.12514248 0.04017045 -0.045331128 -0.062075 -0.060248207 -0.025547538 -0.08079487 -0.025515012
