models/MDLZ model.pth (torch, 270889 bytes, 5 tensors)

lstm.weight_ih_l0 f4 [512, 1]
00000000: 5ec7 debc 171a a53d 58bd ba3d 0887 54bd
00000010: 1260 56bc b91c b2bd 9054 ab3c 6bde 083e
00000020: 287d afbd 3547 a2bc b1a9 41bd 5ed3 ac3c
00000030: e1d4 b23d e6e7 a6bd 4430 39be 6c13 f1bc
00000040: 7597 04bd 9944 d43d 59ce 433d f85e b0bd
00000050: 0c80 5b3d 5c17 933c 2b07 bfbb e589 a0bd
00000060: a6be d8bd 9a68 01be cfd6 11bd f075 8f3d
00000070: b8d9 f6bc e902 8cbc f764 433d ebaf bf3b
00000080: 6cae 8b3a fac7 f2bd 05cd 3c3d caf1 96bd
00000090: 45bb fe3b 9d7f 8e3d 20dd fcbc e2df aa3d
000000a0: 4d66 373d a2c0 1c3c d56b 753d f487 a23b
000000b0: d56a d53d 747d 803b 525d 92bd 8d11 913d
000000c0: d57f d93b c633 d5bd 062d 01bc 146f 903c
000000d0: 6c24 503d 1123 b9bd 6fd4 783c ebf7 9b3d
000000e0: b523 fe3c 70c2 e33c 26c9 433d 1d86 2dbd
000000f0: cabd d43c 4b4d 71bd c899 d13d 38d7 7fbd
00000100: 99fd be3d ae5a 87bd 6073 f8bd 4367 c1bc
00000110: 7665 bb3d b2cc 763d b064 863c 4864 09bd
00000120: 5bb6 8cbd e0d1 8cb8 1a2f 213d b82a a63d
00000130: 5d40 38bb 48ae 35bd d9dc b0bd d09d 5d3e
00000140: 4429 ba3c 1d20 dbbc 0546 04bb 3f20 c73d
00000150: dc80 bbbc f627 ae3d aa3e 633d 58a5 c33c
00000160: 491f c03d 28fe f6bc 01db c2bd 4245 b83d
00000170: d944 81bd f549 95bd 7399 9ebd 1b90 793d
00000180: d4f7 c53d 6266 0ebe 9b02 d6bd 529f 29bc
00000190: dc84 bf3d 6ef6 fb3d 44e4 dbbd 0393 bb3d
000001a0: 0057 9f3d 4df8 c9bb 93b6 bd3c 8f2b 123d
000001b0: 787e d4bc 7676 c0bd 0f56 e5bd 57a5 a5b6
000001c0: 2607 a6bd 96a6 9ebb 3b7d 5f3d a2bd d73c
000001d0: 7140 653b b1e7 b83c 8c27 6bbd cfe2 8ebd
000001e0: 2f38 853d 9e26 eabd 35d2 3b3c ead2 9fbd
000001f0: 891f db3c 21ed 163d 86c5 67bc 7473 3f3d
00000200: 3f5a 023d 5316 18bd c357 943d 8508 7dbd
00000210: 3e77 f83d 50eb 1abd bf2c 42bd 12ba 813d
00000220: cf5c a3bd aaa6 72ba 785e bbbd 3811 a93d
00000230: 1126 84bd 32cc fbbd 2fc1 4dbe 558a a73b
00000240: 32dc 1ebd 8fb2 163d b515 8ebc 632c 6f3b
00000250: 8640 d03c 76c0 263d 534a 053e eda5 8ebd
00000260: c4ed c3bd 3a22 1dbe d876 6f3d 9c2d 1c3c
00000270: 3e2e c13c 0914 d7bd 1c01 8ebd 814a e5bb
00000280: 1255 04be 3bdf bfbc 1e3d 94bd 87bb 05be
00000290: 77c6 e23d 406c e93d 59c6 74bc 2d24 033e
000002a0: 687a 393d 0002 81bc c0b8 263d 7e8f be3d
000002b0: 6293 003e 7260 0abe 83fe 80bd 78bb 92bc
000002c0: 482b ffbd c11b 02be ac1b cc3a d785 443c
000002d0: 8562 0abd f99f 453c 8a6e d33b ef74 3e3d
000002e0: 7ca0 143d 99e0 8dbd 02f7 d6bc 922f 08bd
000002f0: 631f 51bc 6b68 35bd 8e36 48bd 1678 f3bd
00000300: 0eee a03d ba02 bc3c 98a4 83bd 1017 e2bd
00000310: 690a da3d ac97 973d f0ce f6bd 8558 c6bd
00000320: dedb 7d3d c65b 043d 7ffb b13b cc72 7b3d
00000330: 67e9 b83c bea4 353c f42e a8bb 1404 1a3e
00000340: 4348 fc3b 1212 f83b e6e9 3a3d 1c7a 8d3d
00000350: ba2b 9d3b a7a8 4c3d 0480 683d 4e9e 84bd
00000360: 4893 8f3d fb77 32bd 8cd1 1e3d 3f9b 953d
00000370: 86ad 8b3d 9a13 803b de30 f83b a401 eb3d
00000380: ea9b 6e3a 68b9 7dbd d652 d53c ba66 863d
00000390: 906d de3d 9caf a43c 38e4 143d 1eda 5abc
000003a0: 4cc8 e23d f970 973c 048d 403d 7746 49bc
000003b0: 97be 193d 77d9 e8bd f7df 69bd 86cf ec3d
000003c0: d274 b9bc 8217 64bd 04f1 06bd 2543 2b3d
000003d0: 07e6 623c 9639 eabd 4e84 b5bd 30e6 81bd
000003e0: a0ac cb3b d045 a8bd a291 f23b 8419 823d
000003f0: c4d5 483d 9b67 643c cec7 86bc 6b4b 82bd
-0.027194675 0.08061617 0.09118146 -0.05188659 -0.013084428 -0.08696885 0.020914346 0.13366096
-0.085687935 -0.019809345 -0.04728097 0.021096881 0.0873201 -0.081497 -0.18084818 -0.029428206
-0.032371003 0.103646465 0.04780421 -0.08611864 0.053588912 0.017955475 -0.005829712 -0.07838801
-0.10583238 -0.12637559 -0.035605248 0.07004917 -0.030133113 -0.017091231 0.04770371 0.0058498285
0.001065684 -0.11854549 0.04609396 -0.07370336 0.007773789 0.06957934 -0.03086716 0.083434835
0.044775296 0.009567412 0.05991729 0.0049600545 0.10420767 0.003921205 -0.07146706 0.07083426
0.006637553 -0.104102656 -0.00788427 0.017631091 0.050815985 -0.090398915 0.015187367 0.07615646
0.031022886 0.027802676 0.047799252 -0.04236423 0.025969405 -0.058911603 0.102344096 -0.062461108
0.09325714 -0.06609093 -0.12131381 -0.02360881 0.091502115 0.060253806 0.016405433 -0.0335429
-0.06870719 -6.7148125e-05 0.03935156 0.08113617 -0.0028114535 -0.04435566 -0.08635873 0.21642232
0.022724755 -0.026748711 -0.0020183336 0.09722947 -0.022888593 0.08503716 0.055479683 0.023882553
0.09380967 -0.030150488 -0.09514428 0.08997585 -0.0631196 -0.07289497 -0.07744112 0.060928445
0.0966641 -0.13906243 -0.10449716 -0.010352926 0.09351513 0.12302862 -0.107368976 0.091589
0.07780266 -0.006163633 0.023158347 0.035686072 -0.025939211 -0.09397595 -0.11198055 -4.9366313e-06
-0.08106832 -0.004841636 0.05456279 0.026335541 0.0034981037 0.022571417 -0.05741076 -0.06976854
0.06504857 -0.11433147 0.0114636915 -0.078039005 0.026748436 0.036847237 -0.014146214 0.046740964
0.031824347 -0.037130665 0.07243302 -0.061775703 0.12132119 -0.037822068 -0.047405954 0.06334318
-0.07976686 -0.0009256402 -0.09148878 0.08255237 -0.06452573 -0.122948065 -0.20093225 0.005112926
-0.038784213 0.03679138 -0.017344335 0.0036494962 0.025421392 0.04071089 0.13016634 -0.069652416
-0.095668346 -0.15345088 0.058462948 0.0095323585 0.02358162 -0.10501868 -0.06933805 -0.006997407
-0.12923077 -0.023421874 -0.0723822 -0.13059817 0.110730104 0.113976 -0.014939868 0.12806769
0.04528275 -0.015748024 0.040703535 0.09304713 0.12556222 -0.13513353 -0.06298544 -0.017911658
-0.12459427 -0.127059 0.0015572212 0.0119948005 -0.03378536 0.012062066 0.0064523863 0.046498235
0.036285862 -0.06927604 -0.02624083 -0.03324849 -0.012763831 -0.044289034 -0.048880152 -0.11888139
0.07857905 0.022950519 -0.06427878 -0.11039555 0.10646517 0.07401976 -0.12051189 -0.096848525
0.06197726 0.032314084 0.005431592 0.061388776 0.022572232 0.011086641 -0.0051325504 0.15040618
0.007699044 0.0075705135 0.04563322 0.06908056 0.0047964724 0.049965527 0.05676271 -0.06475507
0.070105135 -0.043571454 0.03877406 0.073050015 0.06820206 0.0039085867 0.007574185 0.11474922
0.00091022125 -0.061944395 0.026040476 0.06562562 0.10860741 0.020103268 0.03635046 -0.013357667
0.1107336 0.018486487 0.047009483 -0.0122848665 0.037535276 -0.11369603 -0.057098355 0.115630195
-0.022638712 -0.05568648 -0.032944694 0.04181208 0.013848788 -0.11436765 -0.08863126 -0.06342733
0.006215647 -0.08216441 0.0074026147 0.06352523 0.049031988 0.013940717 -0.016452696 -0.06362041

lstm.weight_hh_l0 f4 [512, 128]
00000000: 48a7 90bd 596b a13c be1f 3dbd e8fb 883d
00000010: fbb5 95bd e79f 9f3c 7369 25bd bf1c dfbd
00000020: a9cc c1bd 11ad 1b3d 77f4 45bb 23af 4cbd
00000030: 27da 56bb 9ad5 c3bd 27de 0a3c 9e7e 533d
00000040: a1d9 08bc 8460 7d3d 62f5 1d3c 883a 803c
00000050: d97d f8bc c65d 1f3d 88e1 adbd e176 68bc
00000060: d3c2 4f3d bb41 6abd 0510 a83d 2cc6 d53c
00000070: e3d5 cebb 6ed8 a3bd 6fcd 1ebd 853d 0ebd
00000080: 2f92 b4bd 363f c33d 7c1e 2ebd ac64 f2bc
00000090: b30d 213d fb10 073d fdd5 b73d 4245 9cbd
000000a0: bbfc 99bd e469 0ebd 6b2a 5c3c e084 8c3d
000000b0: d94e 00bd cc2c c2bd 5bc5 fdbd 43f7 693d
000000c0: ff3b 49bd 088c d03c c444 1dbc bfb6 e23d
000000d0: 65e6 403d 02fa 7fbd 718b 6ebd 2e56 733d
000000e0: 96e3 c4bc 0a8b 06bd 979c 5fbd 082d 6cbb
000000f0: a1ee 93bc ee31 56bc 3d07 f2bc 0b7b 95bc
00000100: f959 f03c 77bd 4abd 1bbf edbc a590 b93d
00000110: 869d 47bd ecb5 c63d 0e4d 8e3d daef 063d
00000120: efba e53b 4bdf e33c 685b 1e3d 404d e23d
00000130: c686 fbbc 90d7 853d 6fb6 b53d 716a 303d
00000140: e9df 393c a77c fc3b 981a 09bd f6ef e4bb
00000150: 6c7c 68bd 16a8 6dbd b3c9 453d 273e e8bc
00000160: 81ab 61bc 7157 c5bd c0f7 e0bd 1da3 583c
00000170: 0ed7 403d c7d2 dbbd 135a e9bc 69d4 8ebc
00000180: 475e 983d 4b60 adbd 4423 0b3d 5870 8f3d
00000190: c76d 9cbd d529 d7bc d34a bfb9 fc04 303d
000001a0: 9e02 f83c 0f11 59bd 30b9 06bd 3c3e dabd
000001b0: 81aa 213d cf2a 843d bae6 c23c 4dca 2bbd
000001c0: 533e 65bc 8b2f 903c 14e8 c7bd fc45 e03c
000001d0: c37b b73c 7c34 553d 27d2 9f3c 4fab 463d
000001e0: 5208 16bd 4232 c03b 9e51 cfbd 41dd 33bd
000001f0: 4143 60bb 9002 c0bb 0715 b4bd b11c 24bd
00000200: 453e a13a 89de 3cbd fc46 b3bd 9cac 733d
00000210: 7fcd d0bc f903 7f3d 6ebd 8e3d 0b51 7b3d
00000220: 6a49 543d 95a9 2d3d 6431 433d 86db 59bd
00000230: 8cf2 94bd 627a 893d 03c4 15bd 1f54 a53d
00000240: d563 473d e775 94bd ac03 863d 95c6 923d
00000250: e803 433d feeb 403d fd0c 673c 9096 8f3d
00000260: 0dc2 bb3c 35f4 8fbc 1198 64bc 66eb 983d
00000270: ba9b d33d 6d6d c8bd 9876 a33d 78d4 7ebd
00000280: 6bee 8d3d 2139 b0bc dbae 4f3b 049c 34bc
00000290: 620f 12bd 5860 953d 5ce6 78bc 6c0f 7a3d
000002a0: d602 64bd ec32 ad3c 1056 9c3d 1f22 28bd
000002b0: a883 58bd 4ac3 91bd 1702 51bc b263 9b3d
000002c0: 29e6 d63d c52c d2bd 8860 30bd 39f7 06bd
000002d0: 40e8 65bd 9405 5fbd 1a52 723d 7968 a33d
000002e0: 73bb 0cbd 5103 653d 58fe 393b 4c61 a63d
000002f0: 0837 90bd a75b 3fbd fb62 f9bc 92b1 2f3d
00000300: eda3 343d ec67 85bc 499c 49bc b58e 883d
00000310: 197d 7e3d 021d 3bbd 2530 19bc 7ef9 dc3c
00000320: d7b6 c7bd 34bf 823d 5d28 8c3d 9e4e 8d3b
00000330: 1a4d f9bc 09b1 27bc 6661 933d 0111 b5bc
00000340: d2db b3bd 84be 923d a3af 37bd f916 423d
00000350: 0045 5b3d 98c9 2d3d c4f2 4e3c 5f2d 42bd
00000360: 9666 8c3d 51c8 84bd e4db af3c 80e2 8d3b
00000370: 2a4c 92bd dd3a e43c bddb be3b 02a3 77bc
00000380: d235 1fbd eb23 2b3b 2a81 dcbb 32de abbd
00000390: 7f7b 5fbd 005e 60bd adf2 b63c e926 adbd
000003a0: 8813 023d 65a2 42bd bed2 bfbd dd8b a8bd
000003b0: 830e 523d 4f27 c0bc 7376 ecbb d47b 0f3d
000003c0: 0f08 833d 39ec 2abd 19f6 543c 8c94 013d
000003d0: 920a 4fbd 571e 623d 1da1 aabc 76b5 cbbd
000003e0: b47f 583d fd8e 3a3d 1002 1abd fd75 75bd
000003f0: 9510 6d3d 1950 2a3d e203 91bd 7ffc 933b
-0.07063156 0.019704508 -0.04617285 0.06688672 -0.07310101 0.019485427 -0.040383767 -0.10894155
-0.09462864 0.038006846 -0.0030205527 -0.04997171 -0.0032783838 -0.09562226 0.008475817 0.051634423
-0.008352668 0.061859623 0.009641023 0.01565291 -0.030333446 0.03890779 -0.08490282 -0.014188499
0.05072291 -0.05719159 0.082061805 0.026095472 -0.0063121184 -0.08000265 -0.038770135 -0.03472664
-0.08816945 0.09533541 -0.04250954 -0.02958902 0.039319705 0.03297518 0.08976362 -0.076303974
-0.07518908 -0.034768954 0.013437848 0.068612814 -0.031325195 -0.094812006 -0.12391158 0.057120573
-0.049129482 0.025457397 -0.0095989145 0.11070012 0.04709472 -0.062494285 -0.05823845 0.05940836
-0.024034303 -0.03284744 -0.054592695 -0.0036037583 -0.018058123 -0.013073428 -0.029544467 -0.018247148
0.029339777 -0.049497094 -0.02902179 0.09060792 -0.04873421 0.097026676 0.06948291 0.032943584
0.0070108096 0.027816435 0.03866139 0.110498905 -0.030703913 0.06535256 0.08872687 0.04307026
0.011344888 0.0077052894 -0.033472627 -0.0069866134 -0.056759283 -0.058021627 0.04828806 -0.028349949
-0.0137738 -0.09635819 -0.109847546 0.013222483 0.047080092 -0.10733562 -0.028485334 -0.01743527
0.07439857 -0.08465632 0.03396918 0.0700385 -0.07638126 -0.026265064 -0.00036486107 0.042973503
0.030274685 -0.052994784 -0.032891452 -0.106564015 0.039469246 0.064534776 0.02379166 -0.041940976
-0.01399191 0.017600795 -0.09761062 0.027377121 0.022397881 0.052052006 0.019509388 0.048503216
-0.03662903 0.005865366 -0.10122989 -0.043912176 -0.0034219774 -0.0058596805 -0.08793073 -0.040066425
0.0012301883 -0.046110664 -0.087537736 0.059490785 -0.025488613 0.062259648 0.069697246 0.061356585
0.051827826 0.042398054 0.047654524 -0.05318787 -0.07272825 0.06712796 -0.036563884 0.080726855
0.04867919 -0.072490506 0.06543669 0.07166783 0.047611147 0.04710006 0.014102218 0.070111394
0.022919679 -0.017572502 -0.013952271 0.07466774 0.10332437 -0.09786496 0.07981604 -0.062214345
0.0693024 -0.021511616 0.0031689915 -0.011023525 -0.0356592 0.07293767 -0.015191641 0.061049864
-0.055666767 0.021142446 0.076336026 -0.041048165 -0.052859932 -0.071173266 -0.012756846 0.07587375
0.10493118 -0.10262445 -0.04306081 -0.032950614 -0.056129694 -0.05444868 0.05916033 0.07978911
-0.034358453 0.055911366 0.002838036 0.08124027 -0.070417464 -0.046718266 -0.030442705 0.042893954
0.044101644 -0.016284905 -0.012305328 0.06667844 0.06213102 -0.04568196 -0.009349857 0.026974436
-0.09751671 0.06384125 0.06843636 0.0043123504 -0.030432273 -0.01023508 0.07196312 -0.022102835
-0.08782162 0.07165244 -0.044845235 0.04738519 0.0535326 0.042428583 0.012631122 -0.04740655
0.06855504 -0.0648352 0.021467157 0.0043299794 -0.071434334 0.0278601 0.0058245347 -0.015114548
-0.038869686 0.0026113938 -0.0067292647 -0.0839199 -0.054561134 -0.054777145 0.022332514 -0.08454687
0.031756908 -0.047518153 -0.09366368 -0.08229802 0.05128337 -0.023456244 -0.0072162687 0.0350302
0.063980214 -0.041729186 0.012998127 0.031635806 -0.05054719 0.055204716 -0.020828778 -0.0994672
0.052856162 0.04554652 -0.037599623 -0.059926976 0.057877142 0.041580293 -0.07080819 0.004516184

lstm.bias_ih_l0 f4 [512]
00000000: ad40 f83d eb60 233d c87d ccbc 111e 813d
00000010: 1121 89bd a096 d7bc 5acc b63d 6373 413c
00000020: 2dd5 92bc 833f a93c 1362 873d 4de1 b4bc
00000030: 7e2c 6e3d 1c68 21bd 7710 d23c d2c6 673d
00000040: 46fe 81bd 0e7d ec3c 5945 6c3c 8172 30bc
00000050: 404d 9f3d 249d aa3d b9e2 dabc 5f9c d33d
00000060: 4e5a 0fbd c983 063d 8757 323c eb26 9b3d
00000070: 8540 813c e51a 433d da0a 7d3c 1a95 d33d
00000080: 9186 62bd 5085 7fbd e587 213d 93c2 a53c
00000090: fa40 9ebc 4c9f c8bc d760 4abd 4c8b c83c
000000a0: 4d6e 883c b476 80bc b3f6 fc3c 9ae1 be3c
000000b0: e4df 3f3d 09cd 523c cbf3 4abd bca7 cb3d
000000c0: a5d4 e9bc fb30 0fbd 1065 8b3c b69a 35bc
000000d0: 00ef 6fbd ecbb 43bd 011c 513c 88f6 da3d
000000e0: 6d32 a43d f120 0a3c b443 8c3d 1c78 9a3d
000000f0: b49b 473b 6bf5 963b d560 aa3d 88d8 c83d
00000100: a70d 05bb d96e c63d 1679 553d 4bfc 28bc
00000110: d912 2a3d 1799 883d 2bc4 813d 1b1b 37bb
00000120: 24fe 203d 6290 83bd ee7b 8e3c 09f2 80bc
00000130: 50e7 b0bc 2f2b 283d 908e df3d 5e1d 843d
00000140: 3939 2f3d 71ad 523d d981 c0bc 32de a2bb
00000150: cd73 f63d a815 52bd 491f f23c a017 5fbd
00000160: 3531 973d 97a2 87bd f273 acbb 1f55 4c3d
00000170: cc0d b03d e6d9 b63c e2c6 a4bd 2f8c 9ebc
00000180: 2f86 e83a 7d82 b63c 159a a63d 527d f93d
00000190: d4cc ff3c 0637 8b3d c303 813d bff7 48bb
000001a0: 1f65 043d f5d7 b13d ad2b 363a 714b 9a3c
000001b0: d36c ed3c 6743 a3bc 3dc8 aa3d e090 d83c
000001c0: 3dae 87bc f0b9 97bd 862c 1a3d 34df 283d
000001d0: b0fb b4bd 417a c73d f386 03bd b9be 90bd
000001e0: 787b b73c 6c42 8bbd f38a 5a3d 94db 333d
000001f0: 635c 813d 0291 19bc 00a9 f6bb c001 a23d
00000200: 7311 a33d 212b 8d3d 9418 703d 6944 0ebd
00000210: 85b5 8b3c 0f78 853d 74ac 5fbd 959d 40bc
00000220: 8d86 c53d b096 5fbd 9491 953d 4a23 d53c
00000230: 6dfe a03d 2dc3 95bc c664 a7bd 496f 8f3c
00000240: be71 9c3d 0f51 02bd 46dc cebd 23c1 6ebd
00000250: cced c53d 4402 5e3d e1c1 853d 3b3a 5d3d
00000260: 2658 a2bd 7cd8 d6bd 567b 33bb 8b73 1cbd
00000270: 9c13 67bd 0df4 13bd 28a1 63bd e290 1dbd
00000280: a8c4 a6bd a15a 68bc fa31 a73d 40f6 3bbd
00000290: 0e3c c53c 8581 ff3c e0c2 1bbd 1485 fdbc
000002a0: 2690 59bd e758 6c3d 1130 953d 50ac c93d
000002b0: d45c 66bd d80a b53d 5b8f f33b 038e 6cbd
000002c0: ed20 a63c 3b93 233d 03b0 f53c 0af6 693c
000002d0: 7bf5 613d c888 aa3c 5d86 963d 2741 aa3d
000002e0: e78b c3bc 5fd6 6b3d 7206 67bd 385e 3cbd
000002f0: ade6 99bd 4516 a03c 61a7 d53d b95d 623c
00000300: 6945 47bd 0598 c9ba 103f 9f3c 07c9 5cbd
00000310: 975d 78bd dd58 9d3d 9151 173d d2c4 af3c
00000320: 353b 6e3d 6177 16bc 2a6a a73d 7cde 21bd
00000330: 68b6 893c 4a86 3d3d 5406 323d a238 cfbd
00000340: a43b 4fbd e5f3 563d 372b 473d 5e97 d3bc
00000350: 84c8 ca3d 676f ca3d 0814 45bd 8355 9fbb
00000360: 5c90 76bd 7bbe 353d 483c ac3d 7f32 633c
00000370: dc72 cf3c 2fd5 ac3c a8b3 d9bd 3522 d33c
00000380: b4dd 8abd de5c 523d 8e05 a5bc 3fbc 94bc
00000390: 6a80 4d3d aaea a73d 55da 0f3d 8a2d aa3d
000003a0: 0b9c 4e3d cea2 8f3b a658 6e3d bd38 a0bd
000003b0: 3614 b13c 219c ab3d 2576 d73d 8216 9d3d
000003c0: 6b7d 89bd c79c 6a3c a481 5abb 6e2b 683d
000003d0: 86ac c7bc ab51 d1bc d7fb 91bd 17ea adbd
000003e0: 3ded 703c eeb6 623d 2492 a13d e590 7d3d
000003f0: 9a6c dd3c 397f 1e3d 9ec5 c6bc ecb5 95bb
0.12121711 0.03988735 -0.02496232 0.06304563 -0.0669576 -0.02631694 0.08925696 0.0118072955
-0.017923916 0.020660168 0.06610503 -0.022080088 0.0581479 -0.039405927 0.025642617 0.056586094
-0.06347327 0.028868224 0.014420831 -0.010769487 0.07778406 0.083307534 -0.026719438 0.1033256
-0.03499823 0.032840524 0.010885126 0.075757824 0.015777836 0.04763307 0.015444482 0.10331173
-0.055304114 -0.062382996 0.03943624 0.020234382 -0.019318093 -0.024490021 -0.04940876 0.024480484
0.016654158 -0.015681602 0.030879354 0.023300935 0.046844378 0.012866267 -0.049548905 0.09944102
-0.02854378 -0.03495882 0.017015964 -0.011084249 -0.058577538 -0.04778664 0.012763024 0.10691553
0.080174305 0.008430705 0.06848851 0.0754244 0.0030457797 0.004606893 0.083192505 0.09806925
-0.0020302327 0.09689111 0.05211743 -0.010314058 0.04152188 0.066698246 0.06336244 -0.002793974
0.039304867 -0.06424023 0.017393079 -0.015740411 -0.021594673 0.041056808 0.109158635 0.06450914
0.04277918 0.051434938 -0.023499416 -0.0049703354 0.12033806 -0.051290184 0.029555934 -0.05446589
0.07382432 -0.066228084 -0.005262845 0.049885865 0.085963815 0.022320699 -0.080457464 -0.019353954
0.0017740185 0.022279019 0.081348576 0.12182106 0.0312256 0.06797604 0.062995456 -0.0030665246
0.032323 0.08683769 0.0006949257 0.018834801 0.028982555 -0.0199296 0.08338974 0.02643627
-0.016562575 -0.07408512 0.037640117 0.041228488 -0.08837068 0.09740115 -0.03211112 -0.070676275
0.022397742 -0.06799778 0.05335517 0.043910578 0.063164495 -0.009372951 -0.0075274706 0.0791049
0.079623125 0.06892992 0.05861719 -0.03473321 0.017054329 0.0651704 -0.054607823 -0.0117563205
0.09644804 -0.054587066 0.073031574 0.026017804 0.07861028 -0.018281544 -0.08173518 0.01750912
0.07638882 -0.031815585 -0.101006076 -0.05828966 0.09664497 0.05420138 0.0653112 0.05401061
-0.07926969 -0.1049051 -0.0027386746 -0.038196128 -0.056415185 -0.036121417 -0.055573612 -0.03846825
-0.08142978 -0.014181764 0.08163829 -0.04588914 0.024076488 0.03118969 -0.038027644 -0.030947246
-0.053115986 0.05770197 0.072845586 0.09847319 -0.05624087 0.08839959 0.007432861 -0.05775262
0.020279372 0.03993533 0.029991155 0.014279852 0.05516575 0.020817176 0.073498465 0.08313208
-0.023870422 0.057577487 -0.05640263 -0.04598829 -0.07514701 0.019541869 0.104323156 0.013816291
-0.04865018 -0.0015380388 0.01943925 -0.053902652 -0.06063613 0.07682965 0.036943022 0.021456156
0.058161933 -0.009183736 0.08174546 -0.03951882 0.01681061 0.046270646 0.043463066 -0.10118224
-0.050593987 0.05247869 0.048625197 -0.025829013 0.099015266 0.098845296 -0.048114806 -0.0048624887
-0.060196266 0.04437111 0.08409935 0.01386702 0.025323324 0.021097748 -0.1062997 0.025773147
-0.06780568 0.051358096 -0.02014425 -0.018156169 0.050171293 0.081990555 0.035120327 0.08309467
0.050441783 0.0043834215 0.05819001 -0.07823322 0.021616083 0.083793886 0.10520581 0.07670309
-0.06713375 0.014319605 -0.0033341432 0.056682043 -0.024374258 -0.025551638 -0.07128113 -0.08491915
0.0147049995 0.055350237 0.07889202 0.06190576 0.027029324 0.038695548 -0.024264153 -0.004568806

lstm.bias_hh_l0 f4 [512]
00000000: 4061 b03d 538a 023d 611c df3d d4af 603d
00000010: 4531 263d d0d8 8bbc 964b c23d 696e 66bd
00000020: 262e d03d 0429 4fbd d175 80bd ed28 10bd
00000030: ea41 793d 37a5 153c 2508 2b3d ff9a ba3d
00000040: bd9b 8a3d e327 02bc d617 81bd 2e2b a13d
00000050: 8ad0 173d ee20 023e 127d cb3d a3de af3d
00000060: 5652 c4bb f16f 6d3c 4d90 a73c 486a 233d
00000070: f995 e73c f1f6 2cbc c76a 333d df8f ce3c
00000080: e469 973d 9b54 573d bb66 04bd eeb1 bb3c
00000090: c35b 02bd 850b 323c 1531 38bd c711 6e3d
000000a0: f5a6 003b b509 9f3c deec aa3d 313c 9d3d
000000b0: 3461 903c 3134 6e3d 7c86 6fbd f2fe be3d
000000c0: 4191 833c 9b5f 703d 396b c23c 75f3 ef3c
000000d0: d0ae 1bbd 0d34 393b 7373 ad3d 2a31 acbb
000000e0: 699f f2bb 4ca0 b33d 9e7d 24bd c202 ba3d
000000f0: 73c3 31bc 4cab 91bd 5bc6 303d 62a8 3dbb
00000100: 3129 d0bc 56f3 d0bc d255 263c 28ce 8fbc
00000110: f348 83bd e85f b93c 9107 063d ab39 413d
00000120: 021a 9dbb 1130 0cbd e443 78bd 19d4 0abd
00000130: ad6f 893d 1107 e8bc f945 993d a724 3f3d
00000140: 16df 643c d63d 30bd 43cf 8f3d 1f17 1c3d
00000150: 0812 0fbd 0c4b 5fbd 9058 d93c 7177 183c
00000160: 7223 fcbc 5072 3d3d b361 123d dbba e73c
00000170: d904 803d 5b5e dbbc a111 d3bc f797 5d3d
00000180: 2379 8e3d 1920 fb3c bce3 6bbb d323 433d
00000190: 2629 853c 8363 23bd ec6f b6bb 599f 483b
000001a0: 72b2 4dbd 88a3 e93d ba6b a7bb 8a5c 8c3a
000001b0: c322 843d 2d67 223c 0707 b6bc a5d4 0f3b
000001c0: 8a96 fa3d 0170 80bd fe57 0d3d 5500 1dbc
000001d0: dedc 02bd 83e9 bc3d 2e07 743c 7d88 7dbd
000001e0: 2a21 6bbd 04e3 12bd 23e2 553d 478a 36bd
000001f0: e552 683d e8a0 1c3d 598e 883c 9809 3e3d
00000200: f3f1 173d 50c9 8fbd 58c6 e43a 1b8c 5dbd
00000210: 684a 9f3d ae9e c6bd de4d 1abd f163 f3bc
00000220: 07d8 c03d 6047 c8bb cf4e 583d 120a 523d
00000230: 4f20 933c f234 25bd 66dc bebd a63e 25bd
00000240: ecfd 36bc e3a8 b4bd 29c2 dbbd d791 8cbd
00000250: 9f26 f6bc c2bb 7abc e6ea 72bd 718d 58bb
00000260: a602 bbbd 569d 63bd 86c1 153d e560 5ebd
00000270: 9826 34bc 7432 7a3d b35a 8a3b 7b4c 87bd
00000280: 3dd6 51bd cc3e b6bc 4b04 30bd ce47 7ebc
00000290: 589d 1e3d c46a 1cbd 70eb 1a3d d515 9fbd
000002a0: 5596 983d 3687 223d a60b 91bd 39ac 0dbd
000002b0: 0e52 f3bb 62be a73c d8a7 f53c 92e2 af3d
000002c0: e747 54bd b867 29bc 7fe1 503d 4681 a83d
000002d0: 2f30 cc3c 5393 b93c 0bdb 08bd e69e dd3c
000002e0: f2cd bf3d 5019 063d d8a2 d13d 4e6b f43c
000002f0: 7dd9 0f3d b7ec a0bd f97b 113d 32e9 66bd
00000300: f3f0 c63b f688 f9bc acc6 0cbd 972c 563d
00000310: 344f 07bd c1bb ba3d 44a7 9a3d ed8e a9bc
00000320: aee0 813d 5399 b53c 0fce 92bd be23 823d
00000330: d570 48bd 23b0 9f3c f5c0 4fbd d826 d9bb
00000340: 3674 20bd 78df 21bc 83cc 623d d698 97bc
00000350: 5156 a43d bd69 cc3c 28fd 7d3c 1cf4 a8bd
00000360: 0279 75bd 17a7 fd3c 1374 1e3d 263f dc39
00000370: 581b 493d 5c15 acbd 6e93 bcbd 0797 cd3d
00000380: 94f2 9dbd a244 b4bd f274 86bd fb44 bb3c
00000390: ee6d ec3c b7cc 04bc 0362 e03d 6dcb e13c
000003a0: c6b5 38bd 1192 b73c c204 a8bd f258 9e3d
000003b0: 3508 c73d 874f 37bd e21f a9bc c62d d33c
000003c0: f4d4 bd3c e486 593d 8e22 1ebb 9266 893d
000003d0: 2b3d 453d b41a 7bbd a24b 283d c3f7 3f3a
000003e0: f066 d53c 7adb c9bc 4bf9 d03b 6fdb cebd
000003f0: 51f6 5abc 1f2e 933d f371 37bc 7160 d2bc
0.08612299 0.031870198 0.10894085 0.054855183 0.04057433 -0.017071158 0.09487073 -0.05625764
0.10165052 -0.050576225 -0.06272472 -0.03519528 0.060853876 0.009133629 0.041755814 0.091115944
0.06767986 -0.00794408 -0.063033745 0.07869564 0.037064113 0.12707874 0.09935965 0.085873865
-0.0059912605 0.014492021 0.02045455 0.03989628 0.028269755 -0.010556922 0.043803003 0.025215087
0.07393244 0.05257092 -0.032324534 0.022911992 -0.031825792 0.010867004 -0.044968683 0.058122423
0.0019630764 0.019413808 0.0834596 0.07677496 0.017624475 0.058155242 -0.058477864 0.09325971
0.016060473 0.058684926 0.023732768 0.029290894 -0.03800851 0.0028259784 0.08469286 -0.0052548843
-0.007404257 0.087708086 -0.04015886 0.09082557 -0.010849821 -0.071127504 0.043157917 -0.0028939475
-0.025410267 -0.025506657 0.010152297 -0.017554358 -0.06410398 0.02262874 0.03272206 0.047174137
-0.00479436 -0.034225527 -0.06061162 -0.03389368 0.067107536 -0.028323682 0.07484049 0.046665814
0.013969203 -0.04302772 0.07021954 0.038107987 -0.034929305 -0.05451493 0.026531488 0.009305821
-0.03077862 0.046251595 0.035737704 0.028287342 0.062509246 -0.02677839 -0.025765242 0.054100003
0.06956699 0.030654954 -0.0035993895 0.047641587 0.016254973 -0.039889824 -0.0055675413 0.0030612557
-0.050219007 0.11408144 -0.0051092776 0.0010708731 0.06451943 0.009912294 -0.022220148 0.0021946814
0.12235744 -0.06271363 0.034507744 -0.009582599 -0.031948917 0.09224226 0.01489429 -0.061897743
-0.057404675 -0.03586103 0.052217614 -0.044565465 0.05671968 0.03823939 0.01666944 0.046395868
0.037095975 -0.07020819 0.001745413 -0.054088693 0.07777864 -0.096982345 -0.037671916 -0.029710742
0.09416204 -0.006112024 0.052809533 0.051279135 0.017959742 -0.040333696 -0.093193814 -0.04034295
-0.011168938 -0.08821275 -0.107303925 -0.06863754 -0.030047713 -0.015303554 -0.059306048 -0.003304329
-0.091313645 -0.05556997 0.03656151 -0.054291625 -0.01099553 0.061083272 0.004222238 -0.06606384
-0.051229704 -0.02224674 -0.042972844 -0.015520049 0.038724273 -0.038187757 0.037822187 -0.07767836
0.074505486 0.03967973 -0.070823 -0.034588072 -0.007425553 0.020476524 0.02998726 0.08588137
-0.051826384 -0.01033967 0.0509963 0.08227782 0.02492532 0.022653257 -0.03341202 0.027053308
0.09365453 0.032738984 0.10236138 0.029836323 0.035119522 -0.0785765 0.03551862 -0.056374736
0.006071204 -0.030460816 -0.034369156 0.052288618 -0.03303452 0.091178425 0.07551435 -0.020698035
0.063416824 0.022167837 -0.07168209 0.063544735 -0.04893573 0.019493168 -0.050721128 -0.006626945
-0.039173327 -0.009879939 0.05537082 -0.018505495 0.08024276 0.024952764 0.015502252 -0.08249685
-0.059929855 0.030963464 0.038684916 0.0004200872 0.049098343 -0.084025115 -0.092078075 0.10038572
-0.07712284 -0.08802153 -0.06565274 0.02286004 0.028861012 -0.008105448 0.10956194 0.027562821
-0.045095228 0.022408517 -0.082040325 0.07731809 0.09718362 -0.044753578 -0.020645086 0.025778662
0.023172833 0.053107157 -0.0024129483 0.06709017 0.048154037 -0.061304763 0.041087754 0.0007322991
0.026050061 -0.024640787 0.0063773743 -0.101004474 -0.0133643905 0.07186531 -0.011196601 -0.025680752

fc.weight f4 [1, 128]
00000000: f907 f93d c9e6 a6bd 60c2 09be 2270 f9bd
00000010: 904a aabd 2ce2 babd 3c9f cc3d f185 fcbd
00000020: ee51 fd3d a7f2 1cbd f1bb 953d c484 803d
00000030: d51b 85bd 4974 093e acae ee3d 1350 153d
00000040: d1f0 a33c b3be a3bb 71cd 9abd 56e7 ddbd
00000050: 207b 093e 19b0 c4bd 251d 84bd d58e b3bd
00000060: 5188 5cbd 89d7 9abd 9342 133d 50f2 c7bd
00000070: a2fe 9b3d 0af6 f43d 201a 15bd cc34 073e
00000080: 94c6 8c3d f404 4fbd cfac 9a3d a22b 103e
00000090: 4820 d73d 157c 54bd a348 733d 1d39 d3bd
000000a0: 0c37 bcbd 12d0 8f3d 7752 9d3d 0e64 e4bc
000000b0: e177 ed3d f7bb 0b3e fae7 b93c 58cf d83d
000000c0: 9299 8fbd 1821 653d 89a7 50bd 74fa a53d
000000d0: 6f6e b03d 162d 6fbd e2c3 a2bd d753 4e3d
000000e0: 72d3 7b3d 03ca cfbd 5615 dfbd 371e 8ebd
000000f0: bbfe dabc c03f 9c3c aea4 d03d 014b 803d
00000100: fcdf 07be b6fc d0bd 5215 62bd 808a 09bd
00000110: cc7a cc3d cf40 9d3d 1eb3 fdbd c1a3 b93d
00000120: a74e 463c 8b4d d03c 42ff 58bd ebcc b53d
00000130: 9864 f33c 5cfe adbc dc18 f5bd b92a aabd
00000140: 150d 87bc b205 233d e958 88bd 1dd9 bfbd
00000150: 1f37 ebbd d0f0 30bd c3d4 63bd b619 23bb
00000160: 1b2f 37bd 8b51 6c3d dad2 5e3d 6a96 f6bd
00000170: 9929 8f3d 051d 5dbb d67b 873c 2510 26bd
00000180: c83a 583d 7de6 b43d cb69 c8bd e8f0 bf3d
00000190: 1926 ebbd 7c57 c93d 27ad fbbd d80a e8bd
000001a0: 05bf 813d 1f2a f9bd f8ca 20bd 78a9 d7bc
000001b0: 36de a6bd 607d 4fbd 04ac ccbd 2304 693d
000001c0: bbb9 bdbd 4d5f 93bd 63ce 08be 549c 513d
000001d0: 5a80 a2bd e0bc d6bd 132d 843d a061 21bd
000001e0: e134 783c 4de7 ffbc 50fb 8bbd 984f 603d
000001f0: 9e2c ddbd 4059 0cbe 8933 ed3c 5cf3 fd3d
0.12159724 -0.081494875 -0.13453054 -0.12179591 -0.08315003 -0.0912517 0.09991309 -0.12330235
0.123691425 -0.03831735 0.073112376 0.06275323 -0.06499449 0.13423266 0.1165441 0.036453318
0.020012291 -0.0049970984 -0.07558716 -0.108351395 0.13425875 -0.096039005 -0.064508714 -0.087674774
-0.05384094 -0.07560641 0.035952162 -0.09763014 0.07616927 0.11960991 -0.036401868 0.13203734
0.06873813 -0.050541833 0.07552492 0.14079145 0.10504204 -0.051876146 0.059395444 -0.10313628
-0.09190187 0.07022108 0.076817445 -0.027879741 0.11595131 0.13645922 0.022693623 0.10586423
-0.07011713 0.055939764 -0.050941024 0.08104411 0.086148135 -0.058392607 -0.07947518 0.050372925
0.061480947 -0.101459526 -0.108927414 -0.06939357 -0.026732793 0.019073367 0.1018766 0.06264306
-0.13269037 -0.10204451 -0.055196114 -0.03357935 0.09984359 0.07678377 -0.123876795 0.09064437
0.012103713 0.0254276 -0.052977808 0.088769756 0.029711053 -0.021239452 -0.11967632 -0.0830893
-0.01648573 0.039800353 -0.06657583 -0.09367583 -0.11485123 -0.043198407 -0.055622827 -0.002488715
-0.044722658 0.057694953 0.054400302 -0.12040408 0.06990356 -0.003373922 0.016538542 -0.04054274
0.052790433 0.08833025 -0.097858034 0.09372121 -0.11481876 0.098311394 -0.122888856 -0.11330193
0.06335262 -0.12166237 -0.039256066 -0.026325926 -0.08147852 -0.050656676 -0.09993747 0.05688871
-0.09263941 -0.071959116 -0.1335998 0.051174477 -0.07934637 -0.10485244 0.0645391 -0.039399743
0.015149326 -0.031238222 -0.068350434 0.054763407 -0.10799526 -0.13705921 0.028955238 0.12399933
