models/RVTY model.pth (torch, 799657 bytes, 9 tensors)

lstm.weight_ih_l0 f4 [512, 1]
00000000: bb2b d2bd 8205 e83c b3d5 49bd cda2 433d
00000010: 750c c93b f37c e13c 5b1e b8bd f871 1c3d
00000020: f294 91bc 2da6 fd3c b52e 7b3a 1e9e a9bd
00000030: 91fa 9a3d 5a72 623d 0d5d 003c dc37 eebd
00000040: 114a bcbd a0b7 933c 2f40 143d 79b6 9f3d
00000050: f240 7abb a275 9dbd b9c0 7c3d fbe5 843c
00000060: c5e4 a7bd 8b7f 2ebd 1014 af3d f765 063b
00000070: 1374 05bd 5263 0e3d 0268 a7bd 8de3 0dbd
00000080: c882 e5bd f3bf e3bd 889f 9bbd 9a03 04bd
00000090: 3f7b 20bd 4dfa 593c 5ffa 113c 7ae3 89bd
000000a0: 17eb 59bd 2728 c7bd f26e 793d c766 04bc
000000b0: 3c6c bcbd 9a9b c5bd 3e8e 4b3d 3dbd 18bd
000000c0: 0a88 f1bd 62a0 babd ee38 6ebd 79db 163d
000000d0: 0633 88bd d3b8 cfbd daf9 cabd 0365 0a3c
000000e0: 3f50 cb3c ceee 4ebd 81fa 20bd d6e7 a63a
000000f0: cd3f 50bc 9141 95bc 4215 d0ba 7680 cfbd
00000100: d534 223d 33d1 aebd 05d1 593e c611 d33c
00000110: 4d40 853d 56fb c83a 6642 2c3d c5cc 2a3d
00000120: 1fbf 9dbd 773b 93bd e103 dd3c aae4 e2bd
00000130: 093c ef3c 99ca c6bd fc35 09be 8ffa e83d
00000140: 1e11 3e3d 083a 3a3d 4b76 49bc cf1c 34bd
00000150: 45dc 1fbc 2dbb 6fbd c88d 8bbd fc2a 97bd
00000160: 7a2d 1a3d d600 60bb 1228 1b3c 3589 97bd
00000170: 3f27 02be 12aa 1fbd 188f df3b 57c3 3d3c
00000180: 9f8f 533d 682d 403d 862f 133d f34b 2a3c
00000190: b74b 87bd da14 b4bd 4998 583d e0d8 c63d
000001a0: f397 d33d 5d8d afbd 2f12 ed3c 72c5 e1ba
000001b0: 70fb 7d3c 9e60 003d 7e1b f4ba ef62 143d
000001c0: 3c72 933a 76b8 223c 3135 dcbd 7ac3 b63b
000001d0: 0505 283d b2fc aebd 24a1 d3bd f2e2 97bd
000001e0: a731 2a3d ca0f d5bd 032b bfbd 1deb a3bd
000001f0: 9b12 29bd f2c3 4dbd e86f 0e3c 6f91 15bb
00000200: 1ca2 633d 645a 6e3d edc9 3c3d 99ce 313c
00000210: ae5b 9bbd 954f 0e3c 2dcf ffbc 2e0c d53d
00000220: 5dfb 0c3d 4861 063e bef2 903d 2d76 90bc
00000230: fafe 9fbd 005f 8ebc d817 d2bc 1bbe ccbd
00000240: 6595 b2bc cc7e cbbc 56b9 37bc 4234 733c
00000250: 9b07 f1bd fa02 afbd 4a84 313d 71a9 43bd
00000260: 0994 6dbd 3869 353d dadd 44bd a08e e93c
00000270: 8139 9bbd c7f7 7fbd 7d26 92bc 8f6d 7dbc
00000280: 7bae 84bd e80e 7abd 6c71 28bc f249 eebb
00000290: 290d 043d 140d 65bd 02bd 18bc 9676 ecbd
000002a0: 0a62 a23b 81a9 83bd cc5e a2bd 9a87 49bd
000002b0: 6f6b 02be 5555 96bc 8bd6 293d f6ca 2cbd
000002c0: a212 e7bd a857 7b3d 3fd4 acbd e381 f4bb
000002d0: 67ad a5bd 1cb3 84bd 1fb0 3c3d 3adb 503b
000002e0: 7d3d d43d 0430 4cbc 787c ee3c fb0e 9e3c
000002f0: 89b6 e73c 8ac2 05bd 26ab 0dbd 99d8 d0bd
00000300: b9cf 33bd 3f52 e4bd c550 8b3e dd5a 8dbd
00000310: e28e 143e 58ba 8ebd f35c 943d a80f 303c
00000320: 53e9 a9bd f129 8c3c bcff 0c3d 1652 d9bd
00000330: c048 dc3d 0e6f b4bd 8e66 90bd 7c53 ddbc
00000340: a328 dabd a349 cf3d 382d 53bd 80f8 df3d
00000350: 56b7 a53c 4b8c 6fbd 4d9d c03c 95c6 b3bd
00000360: 079c e4bc ebe4 cf3b 98c7 563d 025d 6bbd
00000370: 4138 9a3c 4458 0bbd eaa1 f13d 8a5b 01bd
00000380: ad21 1dbd 9361 b2bd a557 5abd 5285 9d3d
00000390: 752e aabd c4c0 6f3c 3ee2 373d eb0a 353d
000003a0: 0456 073d dd0a 79bc b937 61bd 9fea 7f3c
000003b0: 1203 0cbd 9f4e f63d 5e13 3a3d adb6 a9bd
000003c0: 6653 3e3d aecb 9fbc 3881 04be 189d 90bd
000003d0: 36de 3e3d cdec 1ebd 35eb 943c cb8c 603d
000003e0: 1118 b6bd 4e74 c7bd b12f 87bd d39b cbbd
000003f0: 5be5 abbd 4046 10bd 7fe1 1c3d 304d 0dbd
-0.10262247 0.028322939 -0.049276065 0.04776268 0.006135518 0.0275254 -0.08990165 0.038194627
-0.017771218 0.030963028 0.000958185 -0.082821116 0.07567323 0.055284835 0.007834685 -0.11631748
-0.091938145 0.018031895 0.036194023 0.07798476 -0.0038185683 -0.07688452 0.061707232 0.016222944
-0.08197931 -0.042602103 0.085487485 0.0020507553 -0.0325814 0.034762688 -0.08174135 -0.034640837
-0.11206585 -0.11120596 -0.075987875 -0.032229997 -0.039180037 0.013304305 0.008909791 -0.06732841
-0.053202715 -0.09724455 0.06089682 -0.008081145 -0.092003316 -0.09648819 0.0496962 -0.037289847
-0.117935255 -0.09112622 -0.05815976 0.0368304 -0.06650357 -0.10142674 -0.09910937 0.008446935
0.024818538 -0.05052071 -0.0393014 0.0012733887 -0.012710524 -0.018219741 -0.0015875476 -0.10131924
0.039601166 -0.08535995 0.21271141 0.025765311 0.06506405 0.0015333693 0.04205551 0.04169919
-0.07702469 -0.071890764 0.026979389 -0.110787705 0.029203432 -0.09706611 -0.133995 0.11375915
0.046403043 0.0454655 -0.01229627 -0.043972787 -0.009757106 -0.058528114 -0.06814152 -0.073812455
0.037641026 -0.0034180186 0.009470003 -0.07399217 -0.12710284 -0.03898055 0.006822478 0.011582217
0.05165064 0.046918303 0.035933994 0.010394084 -0.06606238 -0.087930396 0.052879605 0.097093344
0.103317164 -0.08571885 0.028939335 -0.0017224981 0.015501842 0.03134214 -0.0018623916 0.036227163
0.0011249254 0.009931674 -0.10752333 0.005577502 0.041020412 -0.085442916 -0.103334695 -0.07416333
0.04155126 -0.10403402 -0.09334376 -0.08003829 -0.04127751 -0.050235696 0.008693673 -0.002282228
0.05557452 0.058191672 0.04609101 0.010852479 -0.07585846 0.008685966 -0.031226719 0.10402714
0.034419406 0.13123047 0.070775494 -0.017634476 -0.07812305 -0.017379284 -0.025646135 -0.09997197
-0.021799752 -0.024840735 -0.011213621 0.014844002 -0.11769029 -0.085454896 0.04333905 -0.047769014
-0.058002505 0.044289798 -0.048063137 0.028510392 -0.075793274 -0.06249216 -0.017840618 -0.015468015
-0.06478592 -0.061049372 -0.010280948 -0.0072719986 0.032239113 -0.055920675 -0.009322407 -0.11546056
0.004955535 -0.06428815 -0.07928237 -0.049201585 -0.12736295 -0.018351236 0.04146437 -0.042185746
-0.11282851 0.061362892 -0.0843892 -0.0074617728 -0.080897145 -0.06479475 0.0460664 0.003186895
0.103632905 -0.01246262 0.029112086 0.019294253 0.028285282 -0.03265623 -0.034587048 -0.10197563
-0.04389927 -0.111485 0.2721006 -0.069020964 0.1450763 -0.06969136 0.07244291 0.01074592
-0.08296456 0.017109843 0.034423575 -0.1061136 0.107560635 -0.088102445 -0.07050811 -0.027017348
-0.10652282 0.10121467 -0.051556796 0.109360695 0.020229023 -0.058483403 0.023512507 -0.08778111
-0.02790643 0.006344428 0.05243644 -0.057461746 0.018825652 -0.034019724 0.11798461 -0.03158144
-0.038362194 -0.08710017 -0.05330624 0.076914445 -0.08309642 0.014633361 0.044893496 0.044199865
0.033041015 -0.015200344 -0.054984782 0.015619903 -0.034182616 0.120267145 0.045428626 -0.08286796
0.046466254 -0.019506302 -0.12939918 -0.07061213 0.046598636 -0.03880005 0.018178562 0.05482177
-0.08891309 -0.0973898 -0.06600893 -0.099418305 -0.083933555 -0.035223246 0.038300987 -0.03449744

lstm.weight_hh_l0 f4 [512, 128]
00000000: 3ce8 d93a faea 233d 2d1a 5abd 0ed1 4f3c
00000010: f65b 93bd 8ec7 c13d 8a2e 56bd 104e b2bd
00000020: 1f91 553d 9044 b4bd 98b2 ab3d b7e3 41bb
00000030: 50d9 db3c 86c1 d6bc ee26 95bd 40fe 25bd
00000040: 312e df3b a1c4 81bd 336f 193d 02b6 15bd
00000050: dc88 bdbb 4391 33bd e868 8abc 7a3b 28bd
00000060: aa64 b7bd 1531 b23d 36d2 f8ba a714 7dbd
00000070: d73b 17bc 3796 623b da31 c3bc 49a4 d03c
00000080: 34fd 9fbd 478c c7bd a670 f2bc b70f c53c
00000090: 59ef 8d3d 5088 bb3c 1005 e0bc 70f9 163d
000000a0: 6924 b0bd 723e 4fbd c31f c43d 4ea6 8ebd
000000b0: 038c 6c3d 5de5 7a3c 6615 743d 7cc1 3cbd
000000c0: 4010 a3bd 6694 9dbd 1000 9cbd 3cac 3dbd
000000d0: a083 b4bc fca5 06bd c00e acbd 4933 243d
000000e0: bf67 e73c c29e be3d 7aaf 9dbd 2dcc 853d
000000f0: 9c42 e93c a891 493d 4200 82bd 9548 ecbc
00000100: f160 f53b 3a90 163d 8305 013e 4d44 2e3d
00000110: af37 f2bd a0ee 803d 0268 9e3d 53c2 d23d
00000120: aece 263c bf0b 4b3d 5504 423d 61e8 8e3d
00000130: d526 90bd 80c5 af3d d828 ca3c fc4a a0bd
00000140: 94fb 863c 43d3 473c 89e9 09bc 2d4c 853c
00000150: a9ec 163d 4477 30bd faaf 8f3d dc75 763d
00000160: 339a 4cbd 6ba4 b23a fcbc 503d 2521 2fbd
00000170: 7d6a 253d 18dc d7bc b280 6abc e36a be3d
00000180: 99b9 b43c c851 87bd ac10 92bd b2c5 a8bd
00000190: 7ec1 c73c 1999 9ebd e621 953d 2334 a13d
000001a0: c92c 613d 45de 1cbd 6ca4 a1bc 3fb9 943c
000001b0: faef b03d aefa 963d 3d3a c4bc b5f2 4f3c
000001c0: 94b1 72bc fb44 adbc 5f5d 04bc 635b eb3c
000001d0: ed8f 9cbd d7da 693d b7ad 9cbd 53f0 89bd
000001e0: f158 6f3c 674c 133c 435d a03c 19de c33d
000001f0: f956 2ebd a0ef 41bd 424a dd3b e595 a93d
00000200: 564c 7fbc 528b 3f3d 17c2 df3b 7c1a 50bd
00000210: b658 c6ba 966e 4b3b 2327 10bc 3627 8f3d
00000220: 056c 2abd 8598 0b3c 6815 073d 4944 b9bd
00000230: 9f98 273c 7426 3cba 947c 5dbc 406c 053d
00000240: a59b 033d a2b6 8dbd 6150 f23c 3df8 a53d
00000250: 3dac 31bd 4d1e 53bd 1c47 cebc a486 89bd
00000260: db0e 7b3d d3c4 bebc 2dbc ad3d 8abc 333c
00000270: 47f8 d23c 06aa 7d3d 2011 b8bd f531 3d39
00000280: a332 6b3d 0dce 3d3b ca7f 15be 0b58 6b3d
00000290: 245c 51bd f3ad 013d 9b7e 14bd d6c5 6fbc
000002a0: 1017 07bb 2646 473d 18bf 443d 8ce6 953d
000002b0: 87d9 4fbd 8429 023d 32a1 903d dbc3 543d
000002c0: 9548 aabb 1f12 19bc a5a7 9e3d 959e 8bbd
000002d0: 8423 ac3d 7e6b df3c 3f29 36bd ee89 393d
000002e0: b4f8 4fbd f873 60bd e298 8abd cd55 8e3b
000002f0: 6ba4 0ebd 336d 6abd abc8 2dbc 0e61 b33c
00000300: 7288 dc3c 1517 aebd 9899 ef3d 8398 a53c
00000310: b1f3 bf3c dd45 a4bd 9409 883d bf0b 083d
00000320: 4a3b 83bd 6018 04bd efbc aa3d 16c3 9b3b
00000330: 16c3 7e3d 4f23 8fbd 0141 38bc defe 7aba
00000340: d876 c9bd 2dc7 4bbc bea8 8b3d 26ff 9cbd
00000350: 6960 34bd 7011 8bbd e676 57bd 08da 05bd
00000360: 834c 763d ff1d ab3c a225 303d cb6e ba3c
00000370: 3fbf ec3d 8d35 0a3d 0780 153c 4a1d 743d
00000380: 5517 8c3c 9442 473d bc30 fabc 2ab7 813d
00000390: f5b9 7e3d f0fb 773d eec9 12bd 0782 ab3d
000003a0: f45b dc3d f37a 8e3d 3c4f 0a3c 6812 cf3c
000003b0: dddd adbd 8793 c53d 5f06 913d 5dbe c1bc
000003c0: d0f7 0b3c 8021 613d 4eb7 a2bd 9329 953d
000003d0: 185d 97bd 2021 703d 8dda aabd a652 cf3c
000003e0: d447 823d d75c 5f3d c22f 963b 93fa 8e3c
000003f0: 4641 d43c 15fc 2fbd afdc dd3d dae0 d9bb
0.0016624997 0.040019013 -0.05324762 0.01268412 -0.071952745 0.0946189 -0.052290477 -0.087062955
0.05214035 -0.0880214 0.083836734 -0.0029585192 0.026837021 -0.026215326 -0.07282816 -0.040525675
0.0068109264 -0.06336332 0.037459563 -0.03655053 -0.005784137 -0.043839704 -0.016895726 -0.041072346
-0.08954747 0.08700768 -0.0018983546 -0.061787274 -0.0092305755 0.0034574398 -0.023827482 0.025468962
-0.078119665 -0.09743553 -0.02959473 0.024055345 0.069304176 0.022892147 -0.027346164 0.036858976
-0.08600695 -0.050596662 0.095763706 -0.06965314 0.057750713 0.0153134735 0.05959072 -0.04608296
-0.07962084 -0.076943204 -0.076171994 -0.046306834 -0.02203542 -0.03287314 -0.08401251 0.04008797
0.028247712 0.093076244 -0.07699485 0.06533084 0.028474145 0.049211174 -0.063477054 -0.028843204
0.007488363 0.03675864 0.12599759 0.042545605 -0.11827027 0.06295514 0.07734682 0.10290971
0.010181112 0.04957175 0.047367413 0.069779165 -0.070386566 0.08582592 0.024677679 -0.07826802
0.016477384 0.012196365 -0.0084174955 0.016271675 0.03684679 -0.04308249 0.07015987 0.060170993
-0.049951743 0.0013629323 0.05096148 -0.04275622 0.04038476 -0.026350066 -0.01431291 0.09297731
0.022061156 -0.066073954 -0.07132086 -0.082408324 0.024384256 -0.07744045 0.07281856 0.078712724
0.05497435 -0.03829791 -0.019731723 0.018154738 0.08639522 0.07372032 -0.023953551 0.012692143
-0.014812846 -0.021151057 -0.008078902 0.0287301 -0.07644639 0.057093468 -0.07650321 -0.06735291
0.014608608 0.008990384 0.01957572 0.09563846 -0.042563412 -0.047347665 0.006753237 0.08280543
-0.015582165 0.046763726 0.0068285572 -0.050806507 -0.0015132639 0.0031041256 -0.008798393 0.06989901
-0.04160692 0.00852025 0.0329794 -0.090462275 0.010229259 -0.0007177361 -0.013518471 0.03257394
0.032130856 -0.069196 0.029579343 0.08103988 -0.04337715 -0.05154257 -0.025180392 -0.06715134
0.061293464 -0.023287212 0.08483157 0.010970244 0.025753153 0.061929725 -0.08987641 0.00018043055
0.057421338 0.0028961927 -0.14599529 0.05745701 -0.051113263 0.03166003 -0.036253553 -0.01463457
-0.0020613112 0.048650883 0.048033804 0.07319364 -0.05074456 0.031777874 0.070619956 0.051944595
-0.0051966407 -0.009342699 0.077468194 -0.068173565 0.084052116 0.027272936 -0.04447293 0.045297556
-0.05077429 -0.054798096 -0.06767441 0.0043437243 -0.03482477 -0.057233047 -0.010606925 0.021896865
0.026920531 -0.08500496 0.116992176 0.020214325 0.02343163 -0.08021138 0.06642452 0.033214327
-0.06407793 -0.03224981 0.083368175 0.0047534807 0.062197767 -0.069891565 -0.011245967 -0.00095747213
-0.09837121 -0.012437624 0.068192944 -0.07665853 -0.044037256 -0.06790435 -0.052603625 -0.032678634
0.06013156 0.020888327 0.04300464 0.022757908 0.11559915 0.033742476 0.009124762 0.059598245
0.01710097 0.04864748 -0.030540816 0.06333764 0.06218906 0.060543 -0.035837106 0.0837441
0.10759726 0.069570445 0.0084417425 0.025277331 -0.08489583 0.09647279 0.07081293 -0.023650343
0.00854297 0.05496359 -0.07945119 0.0728332 -0.07390803 0.05862534 -0.083424665 0.025307965
0.063613564 0.0545319 0.00458333 0.017453467 0.025910031 -0.042965014 0.10833108 -0.006649119

lstm.bias_ih_l0 f4 [512]
00000000: 9b9e aa3d 7738 49bd e19d 573d d7f4 0abc
00000010: eacb 873d adfd 5bbc bdc6 8fbd 02e4 b33c
00000020: 5cd5 7cbd 669d a23d 4342 f43c f8c5 673d
00000030: 0261 33bd 1801 31bc d132 88bc c830 8c3c
00000040: f8ac 22bc f70f d53c c8ee 9e3d 3681 98bd
00000050: 302a 06bd f17f cb3d 5192 9e3c f329 253d
00000060: aa77 2e3d abc3 fe3d f1b4 593d bbae d0bb
00000070: 4cf2 8e3d becd ab3d 990e 53bd b93e 383b
00000080: 4f12 b23d 76ad 323e 0efa 433e 144b ea3b
00000090: f310 fa3d 0858 293d c78c bc3d add5 803d
000000a0: 8dc3 a6bd 6885 82bc bf9a 44bd 83fe 9ebd
000000b0: 9a8b 11bc a130 2c3d b50e 42bb 7b5c 0f3c
000000c0: cbb5 1dbd f768 173e 99b9 8a3d 92f0 36bc
000000d0: 2c08 e43d 1427 f73a 7b64 ab3c f73d 563d
000000e0: 01d3 4d3c c385 8bbd f0ad 69bd 4884 99bc
000000f0: f7e7 843c 725a bb3c ae3b 593d 7785 b5bc
00000100: b663 43bd 879e 863d f954 6a3e c8b2 cfbc
00000110: 0327 3d3c 2dfd 80bc 2442 88bd ef03 003d
00000120: a892 c13d 4dce 833c 3898 3bbc 8d79 ba39
00000130: 570b 2d3d b95b 0e3d 71cf ca3d b454 49bd
00000140: 5d25 a8bd 2a4c b33c 3211 0fbb e8d7 bcbd
00000150: 2ce4 3f3d e1dc 333d 4e3f 6c3d 8bca a43d
00000160: 3918 05bd 4f46 923d eba2 073d 8ba1 4b3c
00000170: 338d 703d 7369 c23c 0f4d 283d 845c f9bc
00000180: 44b8 b8bc 7919 653d a14a 0abc 09b1 38bd
00000190: 1ba2 703d 803b 20bd bab7 fa3d acdd 69bd
000001a0: e059 7e3d d655 00bd a1bd c03d c0d6 87ba
000001b0: 218d 763c 3df5 123e 6aba eebc d685 823d
000001c0: 7bc0 43bd f64e e53c 8090 8d3d 5f09 913d
000001d0: d477 aebd e7f2 6e3d 49fe 073c f663 a73d
000001e0: d094 5ebd 8c75 603b e0b2 eb3c 6463 af3d
000001f0: 70fd 323d 4e87 1fbc 8931 ddbc fb89 353d
00000200: a185 a13c 4a02 a9bd 148a f73c d54f 99bd
00000210: c0b0 553d 6395 2ebd be23 49bc ff8d ee3c
00000220: 90e4 f13b c41c ae3d 5bef 91bd b1b2 d93d
00000230: b1c2 cc3c 9c10 713d d8ce 6c3d 8285 34bd
00000240: e7d0 0abd b820 493d 8d5b 1cbd b492 62bd
00000250: 1672 51bd 62ca 3abd cca7 8dbd 9d04 d8bc
00000260: 9bcd 463d c0f6 d93c 9737 cebd f224 a43b
00000270: d01f 883b c24b 8bbd ace4 e1bc 4e4a 82bd
00000280: dbdc 253c 5720 44bd c925 dcbd 98eb f43b
00000290: 9a89 a3bc ff48 473d ffa9 17bd 0c0c 3cbd
000002a0: fde5 823d 2270 86bd 9917 f0bb a099 f5ba
000002b0: c19e bf3c 89cf c4bb 3e41 16bc b830 94bd
000002c0: e76c 2d3d b166 bd3b 3d67 a93d 57fa da3c
000002d0: 85f5 a03d 4084 ca3c 68fc 493d 3651 9bbd
000002e0: fe17 8d3d cd09 833d dd89 aa3d 528a 8cbc
000002f0: e8fc 6cbd 6062 3a3c 4a35 853c 17e3 8f3d
00000300: a4e1 d9bc 419f 04bc 997a b33d b270 3cbd
00000310: 3b72 b93d 68b1 8cbd 1aba ef39 2e6b d2bc
00000320: 6142 243d dcb8 473c dfa0 aa3d 93df 423c
00000330: fed4 d73b 47ce 43bd a1f8 d5bc aa72 9a3d
00000340: d210 9cbd 2fdf 6c3d 1399 ebbc d50e b4bd
00000350: 6467 763d 2918 893d 71f3 553d f390 c6bc
00000360: d062 733c 0269 19bd acb1 3cbd 5842 b13d
00000370: 2339 05bd 5ef5 46bc 0b9b 823d e25f cebc
00000380: 40ef 39bd 19e6 68bd 457b f93c 9aed e73c
00000390: a30e e8bc a3ff 8bbd 9680 503c eb5a 03bd
000003a0: b772 bf3d 12bb 80bc a3e1 f03c 118c 7dbd
000003b0: 065f d2bc 3e66 823c e33c 4e3c dccb 04bd
000003c0: 20c1 a4bd 0cad 8fbd bebb d6bc f5ca c43b
000003d0: f9ee 7ebc 8305 55bd bcaa 8fbc 478c 68bd
000003e0: 8816 a7bd 79a6 ed3c 66c7 1bbd 9cc6 ad3d
000003f0: 20a6 1e3d 82f3 7abd 0e7b aebd 29e4 943d
0.08331033 -0.049126115 0.0526408 -0.008481226 0.066306904 -0.01342718 -0.07020328 0.021959309
-0.061726913 0.079401776 0.029816752 0.056585282 -0.043793686 -0.010803483 -0.016625794 0.017113104
-0.009928934 0.02600859 0.07760388 -0.0744652 -0.032755077 0.09936512 0.019356878 0.04032321
0.04259459 0.124396645 0.053151075 -0.0063684857 0.06979808 0.083888516 -0.051527593 0.0028113557
0.08694898 0.17448983 0.19138357 0.0071500633 0.12210264 0.04134372 0.09206539 0.062907554
-0.08142767 -0.015932754 -0.04799914 -0.07763388 -0.008883381 0.042038564 -0.0029610817 0.008750076
-0.03850345 0.14786135 0.06773681 -0.011165755 0.11134371 0.0018856251 0.020921936 0.052305188
0.012562514 -0.068126224 -0.057050645 -0.018739834 0.01622389 0.022870276 0.05303543 -0.022158368
-0.047702514 0.065732054 0.22883977 -0.025353804 0.011544946 -0.015745724 -0.0665324 0.03125375
0.094518006 0.016089583 -0.011449866 0.00035567247 0.042247143 0.034755442 0.099028476 -0.049153045
-0.082102515 0.021886904 -0.0021830318 -0.09220868 0.04684846 0.04391182 0.05767756 0.080464445
-0.032493804 0.071423166 0.033114355 0.012428652 0.058728408 0.023731923 0.041089114 -0.030439623
-0.022548802 0.055932496 -0.0084406445 -0.04509071 0.058748346 -0.039119244 0.12242074 -0.05709617
0.06209743 -0.03133186 0.09411169 -0.0010363683 0.015048296 0.14351363 -0.029141624 0.063731834
-0.047790986 0.027991753 0.06912327 0.070818655 -0.08518949 0.05833712 0.008300372 0.08173363
-0.054341137 0.003424975 0.028771818 0.08563879 0.043698728 -0.009736849 -0.02700116 0.04432104
0.01971704 -0.0825239 0.030217208 -0.0748593 0.052170515 -0.042622935 -0.012276588 0.029120443
0.007381983 0.0850158 -0.071257316 0.10629786 0.02499518 0.05885373 0.05781445 -0.044072635
-0.03389063 0.04910347 -0.038173247 -0.05531569 -0.05113419 -0.045603164 -0.0691677 -0.026369387
0.048535924 0.026606917 -0.10069197 0.005009287 0.004154183 -0.06801559 -0.02757486 -0.06361829
0.010123457 -0.047882404 -0.107493944 0.007474374 -0.019963074 0.0486536 -0.037027355 -0.045909926
0.06391523 -0.065643564 -0.007327032 -0.00187378 0.02339113 -0.0060061854 -0.009170828 -0.07235855
0.042340185 0.005780064 0.08271644 0.0267307 0.07859329 0.024721265 0.04931298 -0.07583849
0.06889342 0.06398354 0.083270766 -0.0171558 -0.057858378 0.0113759935 0.016260762 0.07025736
-0.026596852 -0.00809461 0.08763618 -0.046005912 0.09054991 -0.06869775 0.0004572429 -0.025685873
0.040102366 0.01219007 0.08331465 0.011894125 0.00658667 -0.047804143 -0.026119532 0.07541402
-0.07620396 0.057830032 -0.028759515 -0.087918915 0.060157195 0.06694061 0.052234117 -0.024239039
0.014855102 -0.03745366 -0.04606788 0.08655232 -0.032525193 -0.012143461 0.06377228 -0.025192205
-0.045394182 -0.056860063 0.030454287 0.02831154 -0.028327292 -0.06835868 0.01272597 -0.032069128
0.09348052 -0.015714202 0.029404467 -0.061901156 -0.025680076 0.015917893 0.012587759 -0.032420978
-0.08044648 -0.07015428 -0.02621257 0.0060056397 -0.015559905 -0.05200721 -0.017537467 -0.056774404
-0.08158594 0.029010044 -0.038031958 0.08485147 0.038732648 -0.061267383 -0.085195646 0.072700806

lstm.bias_hh_l0 f4 [512]
00000000: ee95 383d f64f a13d 3daa 9cbd 0aba 033c
00000010: ba2b d93b 70e6 183d 3179 7f3d 3462 8b3d
00000020: 11a9 c3bc 07c2 2e3e d4da 703d a3b1 de3d
00000030: 21c5 aabd aed1 823d df99 1ebd 50cf d2bc
00000040: 4819 07bd 42bf 44bd ebbe 8cbd a410 87bd
00000050: 9334 8bbd fda2 963d 473e 09bb 90d4 4b3d
00000060: 7395 9c3d 5781 25bb a513 253d f546 b73d
00000070: a7d3 a53d 6371 58bc a108 5dbc 23fb a73d
00000080: 6d97 dd3d e508 1f3e 35fa 9c3d 5c77 da3c
00000090: a66a c0bb 03d9 0d3d ed2e 7a3d 7141 5a3d
000000a0: ebb5 bb3c c0ac b93d aa90 063c 83b0 c4bc
000000b0: bbb6 e03d afc4 403d 6c24 63bd 82c8 88bd
000000c0: 71ae 7f3c f5f5 0f3e b9cf 67bc 0928 f4bc
000000d0: 2186 bf3d 9c89 cabc bcb8 ecbb 6c6d 90bc
000000e0: 952e cd3d 6c3c a93c 771c af3c ec68 78bb
000000f0: 9191 633d a4ba 81bd 2d0a 5fbb 6459 33bd
00000100: f8be d7bc ed9f c23d 3d3e 653e 77c2 b13c
00000110: 5f0d 9d3d dd30 95bc 15d2 57bd 0222 0c3d
00000120: 29ad 7f3d 9252 473c 4e66 b23b 23e1 773d
00000130: 7e92 e33d 4f0e 023d 5138 dc3d 8844 78bc
00000140: a79d 103d 940b b13c 39cf ea3d 175f 773c
00000150: 9b8f 913c 3f74 8cbd ed09 ad3d cd69 903d
00000160: f7d5 913d 578e 2bbd 7f2c 333d f657 1c3d
00000170: 6cd1 ca3c a439 b93c 4c32 373d 0bbf 03bd
00000180: f8a3 793c d9fc 22bc 8b1e 613d 9e06 c73d
00000190: 6aed 973d ae8a 1d3c eca6 2d3e 0111 873d
000001a0: 7710 d33d 5343 c9bc 1477 8dbc fd89 c03a
000001b0: d905 95bc ba1e 413d 5407 7bbc bb7b d03c
000001c0: 9966 b13d ff0a b53c 0fb8 ddbc e406 10bd
000001d0: 7736 30bd ec50 b13d 78c8 42bb cc91 6d3d
000001e0: 8265 c13d 49a7 1fbd 6086 aebb 7331 23bd
000001f0: d774 ac3c 371f bc3d 1c1d a63d 17a5 0a3d
00000200: 483d 933c 0897 43bd 8350 2cbc dc62 4dbd
00000210: a8f8 543d a3eb 4abd 6a0d c03d 0979 94bd
00000220: bcc0 c03d b52e 973d 8d59 5d3d 2fff 523d
00000230: abd0 cfbc 22f5 793d dcbb 46bc daf1 a93d
00000240: 89a3 543d 3e8f 91bd 127e 49bc 250f 303c
00000250: 1b6e 95bd bb52 cabc 60aa 103d d018 69bd
00000260: e854 7d3d 8bc6 80bd f78b 1c3d 39a6 03bd
00000270: e1bc c0bc a641 95bd 457e 203d 046f 873d
00000280: 7551 5c3d 77bf a7bd f37e 0dbe 03e5 7e3c
00000290: 1658 b43d 3ae4 8c3d 7be3 0a3d cd40 a2bc
000002a0: 945c 583d b06d 9cbc 2252 aebd 422f 3dbc
000002b0: f711 af3d 4865 14bc 41a9 563d 664c a4bd
000002c0: 5e90 9dbd b886 ed3b 4b4d 5f3d 9592 1e3c
000002d0: 7d3f b03d d645 e638 df56 2ebd 79c9 f6bc
000002e0: 85e9 4ebd f23d 073d 535e 8f3d a18b 4d3d
000002f0: 77f1 3ebd d18b 413d e069 113d 0857 083d
00000300: e366 a0bc 2dc2 d4bc d50c 173e 3aaa 8abd
00000310: bfef 10bd 2835 6ebd 65ad a83d dba3 c83c
00000320: d1ff 953d d4ec 6fbd 32cb 7abd 0f86 5a3d
00000330: 99bd cdbd be34 8fbd 9440 23bd 1f08 73bd
00000340: 17e4 143d 7b1c 543d e172 12bd b774 053d
00000350: f5f5 b0bd f88c 2d3d 05d6 84bd 2616 f43c
00000360: 0b8d 883d baef e33a 580f bb3d dc1e 09bd
00000370: 87b8 55bd 90f2 6dbd 33c5 40bd d878 023d
00000380: cc8e 823d c7ed c63b 853a 26bc dc39 7dbb
00000390: 1921 9cbd 87c9 813c 1618 18be a32e 13bc
000003a0: 6ad0 443d 5c62 c3bc 59f4 b83c 104a 93bd
000003b0: a171 39bd e812 8b3c 1ebd c0bc d6ef f0bc
000003c0: eafc 473d 851c a23c 0e98 64bb e97c 79bd
000003d0: 9fb1 6fbd 6cbd 733d e79e 643d 3f5d 803d
000003e0: 3f79 41bc 9ef9 3b3d a60c 94bd fcc5 12bc
000003f0: 3bcb 8ebd dc73 5f3d feab 853d 91d0 72bd
0.04506486 0.078765795 -0.07649658 0.008039961 0.006627527 0.037329137 0.062371437 0.0680584
-0.023884328 0.17066203 0.05880244 0.10873725 -0.083383806 0.063876495 -0.03872096 -0.02573362
-0.032983094 -0.04803396 -0.06872352 -0.06594971 -0.06797137 0.07355306 -0.0020941661 0.049763262
0.07645693 -0.0025254095 0.040301938 0.08949081 0.0809701 -0.013210627 -0.013490827 0.082021974
0.10819898 0.15530737 0.07664911 0.026668243 -0.0058720885 0.034630787 0.06107991 0.053285066
0.022913894 0.090661526 0.008213202 -0.024009949 0.10972353 0.047062572 -0.055454656 -0.06678869
0.015605555 0.14058669 -0.014148646 -0.029804247 0.09351755 -0.02472382 -0.0072241705 -0.017630301
0.100186504 0.020658694 0.021375878 -0.0037904335 0.055558745 -0.06334427 -0.0034033165 -0.04378642
-0.026336178 0.0950316 0.22387023 0.021699173 0.07668566 -0.018211776 -0.052690584 0.03421212
0.062420998 0.012165682 0.0054443246 0.06051744 0.111119255 0.031751927 0.10752929 -0.015153058
0.0353066 0.021611966 0.11465306 0.015098355 0.017768672 -0.0685811 0.08449159 0.0705143
0.07120889 -0.041883793 0.043743607 0.038169824 0.024758063 0.022610493 0.0447257 -0.032164615
0.015236847 -0.009947979 0.05496077 0.09718059 0.0741833 0.009615583 0.16958207 0.0659504
0.10305875 -0.024568236 -0.017268695 0.0014689561 -0.018191265 0.047148444 -0.015321571 0.025449624
0.08662147 0.02209997 -0.027065305 -0.03516282 -0.04302069 0.08658013 -0.002972154 0.05800037
0.09443189 -0.038977895 -0.0053260773 -0.03984208 0.021051807 0.09185641 0.08111021 0.03384885
0.017973557 -0.047751456 -0.010517242 -0.050143108 0.05199495 -0.049541127 0.093775585 -0.07249648
0.09411761 0.073819555 0.05404048 0.051512893 -0.025368055 0.061024792 -0.01212975 0.08298083
0.05191377 -0.071073994 -0.012298124 0.010745798 -0.072963916 -0.024697652 0.035318732 -0.05690843
0.06184855 -0.06287869 0.03821942 -0.032140944 -0.023527564 -0.07287912 0.03918292 0.066129714
0.05378862 -0.08190816 -0.13817959 0.01555753 0.088058636 0.06879468 0.03390835 -0.01980629
0.052822664 -0.019095272 -0.08511759 -0.011546912 0.085483484 -0.00905735 0.052407507 -0.08022384
-0.076935515 0.0072487257 0.05451707 0.009678503 0.086058594 0.000109802626 -0.042563315 -0.030125367
-0.05051567 0.03301806 0.07000413 0.05018199 -0.046616998 0.04725248 0.03550136 0.033286124
-0.01958031 -0.025971496 0.14750989 -0.067707494 -0.03538489 -0.058156163 0.082361974 0.024492195
0.07324184 -0.058575466 -0.06122894 0.053350504 -0.100459285 -0.06992482 -0.03985651 -0.059333917
0.036350336 0.051784974 -0.03575409 0.03258201 -0.086406626 0.042370766 -0.064861335 0.029795717
0.06667527 0.001739017 0.09133786 -0.033476695 -0.052177932 -0.058092654 -0.047063064 0.031853527
0.063748926 0.0060708257 -0.010145788 -0.0038639223 -0.076235004 0.015843166 -0.14852938 -0.008983287
0.04805032 -0.023850612 0.022577452 -0.07191861 -0.04527438 0.016976789 -0.023527678 -0.029411238
0.048825182 0.01978899 -0.003488067 -0.06091014 -0.058519002 0.05950682 0.055815604 0.06267785
-0.0118086925 0.04589235 -0.07228975 -0.008958336 -0.06972357 0.05455385 0.065269455 -0.059280936

lstm.weight_ih_l1 f4 [512, 128]
00000000: 0d28 4c3d 51f2 5f3d 46a9 af3d a6df ba3c
00000010: af48 cfbc 08d1 803d d05a 42bd 8ad4 cbbd
00000020: 559a c1bd c7a7 f23c 976f 613d 9d40 503c
00000030: ecc3 973d e5f7 adbd c9bc febb 3b92 6dbd
00000040: 39ec a53d d8a8 96bc 1c87 06bc 2c02 743c
00000050: c6c1 13bd 9f90 4f3b 3e3c ac3d 00ad c33d
00000060: 74b7 48bd e412 85bd 63e6 fa3c 910b 7d3d
00000070: cc9f a43c 7b47 703d 6608 f83b 4785 5abd
00000080: a535 3cbd 3018 bebc 9ff5 7cbb 158d 2bbd
00000090: 95dc 9ebd 3db9 31bd a38e 893d e61b 21bd
000000a0: 6635 64bc 1983 06bc c765 3a3d 62fb 19bd
000000b0: b0cf 09bc 9756 d63d 233a 903d 25bf 07bd
000000c0: a7f6 2fbd f70d fcbd c209 a4bc ad99 8c3a
000000d0: e53e 7e3c 3c3c 9ebd bfce e1bd 0815 96bd
000000e0: f083 64bd 04af 06bd cb31 d2bd 34dc 22bd
000000f0: 49a1 bd3d ab37 ca3d fe11 b53c 0deb a43d
00000100: c44e 3fbd cd11 a7bd 587c bc3d 9247 92bd
00000110: c1a3 14bd ae58 9bbc 84ce 9a3d e7ee 99bd
00000120: 9958 16bd 3a88 43bd 3f40 e13c ec6c d8ba
00000130: a9d7 c8bc 42ba b03d 86a9 20bd 11e7 313d
00000140: de16 1a3c 8e24 2dbd f9f5 4dbd ff4f 333d
00000150: 9386 1c3d 8c13 dc3c f7d7 333d ad8d 2e3c
00000160: be77 a13d e4ed a0bd 3b6e 7d3b a853 fb3a
00000170: bc24 2f3d 21bf 833d ac19 b63c 3dc7 1cbd
00000180: eddd ae3d fcb7 f53b 9602 a5bd b01a 9ebd
00000190: 950b 3b3d 7dfe d23d a3b5 1f3d ed26 32bd
000001a0: fa8d 603d b334 0839 b425 4f3c 1ff1 f3bc
000001b0: b773 8dbd 095b 83bd c17f 393d 6d6a 613d
000001c0: badb aebd 69bd ce3d 2bb0 cfbd f104 733d
000001d0: 1c7d 49bc b3f5 32bd 598f c6bc ff63 d3bb
000001e0: 1ad8 55bd 74de 5d3d c870 443d de89 aebb
000001f0: bbf6 0cbc 2103 0f3d 973b 45bd f150 8fbd
00000200: b5ca 7fbc b4e9 4bbd 076e 15bd 9b00 ed3d
00000210: 2a80 ddbc 78a1 dbbc 4265 643d 38a8 18bd
00000220: 3b9b b7bd 7420 f23d 5f72 da3d efa2 94bb
00000230: df8b 953d 9533 d5bd c147 02bd 4354 973d
00000240: 3b5b 54bd 702f 81bc 0bb7 883d ae7a febd
00000250: caa5 c5bc 9b58 013c 58ad 823c 5dc5 b83d
00000260: 4912 05bd 064d 173d 1e93 abbd 0c51 a33c
00000270: 742c c63a 16f6 843d c4ba 363d 74f0 2dbc
00000280: ec48 7d3d 1dc1 f23c 59a9 1dbe f649 703d
00000290: b6bb b13c 0f32 3d3d 7e7f 78bd 0138 d93d
000002a0: 4939 9dbc 3954 713d a8c7 993d 522d f6bc
000002b0: 1377 58bd a945 33bd a56f 3b3d 0ac5 c53c
000002c0: 41be d5bd 2552 00be b721 5dbd 3eeb a73d
000002d0: 5107 84bd 9083 ae3c 4d56 ddbd 3391 3ebd
000002e0: 2cf8 65bc 9bba 943d 6953 eabd 24b9 b8bc
000002f0: b93b 813d f4e3 373d e3ec be3c f47b a13d
00000300: 8d77 863d a8c9 b1bd b59c 973c 2b3d e6b8
00000310: 02da 023e 34db 2bbd dc83 8b3d f526 8cbd
00000320: 6695 d23d bc9f 8fbc 80cd bf3d 804a f03d
00000330: b214 6f3d 3640 1bbd e9bf d0bb 1c87 97bd
00000340: 3c0a 09bd 3fbf 01bd b949 d5bb 4311 39bd
00000350: 6ef0 cdbb 0781 65bc bc1c 783d f8f0 323d
00000360: b571 8c3c 2eae 3e3d 5eaf d3bc a5c9 6abc
00000370: 8653 c13d a061 513d bc2d b53c d3f7 9d3d
00000380: c765 93bd 0fd0 3abd c4a1 1a3c 8e34 0d3d
00000390: 1aa6 323c 5821 ee3a ecfe 2e3d a651 1d3d
000003a0: f8da e8bd 6a8b 8e3d fcb9 8fbd c708 4ebc
000003b0: 66b8 cc39 d532 2d3d 4274 e0bd 67d6 b7bb
000003c0: 6df2 c5bc a0f3 01bd 0fdf 81bd c28c ce3c
000003d0: 3044 41bd e708 82bd 66ad 13bd ace7 0e3d
000003e0: 76a6 793d 03ef 26bd 404e 833b e17e 493d
000003f0: 7999 fdbd dfcb 6f3d ade5 5dbd d66b 31bd
0.049842883 0.05467445 0.08577208 0.022811722 -0.025303213 0.062898695 -0.047449887 -0.09952648
-0.094532646 0.029621018 0.05503806 0.0127107175 0.07410416 -0.08494548 -0.00777397 -0.058000784
0.081016965 -0.018391058 -0.0082109235 0.014893096 -0.03607347 0.0031671894 0.08409928 0.095544815
-0.04900308 -0.06497744 0.030627435 0.06177861 0.020095728 0.05866192 0.0075693605 -0.05334976
-0.045949597 -0.023204893 -0.003859855 -0.041882593 -0.077569164 -0.043389548 0.06716659 -0.039333247
-0.013928747 -0.008209967 0.04550722 -0.037593253 -0.008411333 0.104657345 0.07042339 -0.033141274
-0.042959835 -0.12307351 -0.020024184 0.0010726951 0.015517925 -0.077263325 -0.11025762 -0.0732823
-0.055789888 -0.03288175 -0.102634035 -0.039760783 0.09259278 0.09873899 0.022103306 0.08052645
-0.046705976 -0.08157692 0.09203404 -0.07142557 -0.03628898 -0.018963184 0.07558921 -0.0751627
-0.036705587 -0.047737338 0.027496455 -0.0016511953 -0.024516897 0.08629276 -0.03922417 0.043433253
0.009404866 -0.04227119 -0.050283406 0.043777462 0.038214277 0.02686479 0.043907132 0.010653895
0.07884167 -0.07857874 0.0038670439 0.0019174712 0.042759642 0.06432939 0.022229038 -0.038275946
0.08538423 0.0074987393 -0.08057134 -0.07719934 0.045665342 0.10302446 0.03899158 -0.043494154
0.0548229 0.00012989603 0.0126432665 -0.029778061 -0.069068365 -0.06413848 0.04528785 0.055033136
-0.08538003 0.10094721 -0.10141023 0.059330884 -0.012297895 -0.04369135 -0.024238275 -0.0064511294
-0.052208044 0.054167226 0.04795912 -0.0053264936 -0.008603747 0.034915093 -0.048152532 -0.0699786
-0.015612294 -0.049783424 -0.036481883 0.11572381 -0.027038652 -0.026810393 0.05576063 -0.0372698
-0.08965155 0.11822596 0.10666346 -0.0045360248 0.07302069 -0.10410229 -0.03180671 0.073891185
-0.051844817 -0.01576969 0.06675538 -0.12425743 -0.024126906 0.00789466 0.015951797 0.09022019
-0.03248814 0.03693869 -0.0837767 0.019936107 0.0015119449 0.0649225 0.044611707 -0.0106164105
0.06183712 0.0296331 -0.15396632 0.058664285 0.021695953 0.046190318 -0.06066846 0.10606385
-0.019192355 0.05891821 0.075087845 -0.030050907 -0.052847933 -0.043767605 0.04576077 0.024141807
-0.10436679 -0.12531336 -0.05398723 0.08199166 -0.06446708 0.021302968 -0.10807476 -0.04652519
-0.01403622 0.07262155 -0.114416905 -0.02254922 0.06310219 0.044895127 0.023306316 0.0788497
0.06565771 -0.08681041 0.01850734 -0.00010978648 0.12778476 -0.041957095 0.068122596 -0.06843368
0.10282402 -0.017532222 0.09365368 0.1173296 0.058369346 -0.037903033 -0.0063705337 -0.07398817
-0.033457026 -0.031676527 -0.0065090326 -0.045182478 -0.006284765 -0.014007813 0.06057428 0.043686837
0.017144063 0.04655283 -0.025840458 -0.014330302 0.09439759 0.051118493 0.022116534 0.07713284
-0.07197147 -0.045608576 0.009437982 0.03447395 0.0109038595 0.0018167896 0.04272358 0.038407944
-0.1136989 0.06960185 -0.070178956 -0.012575335 0.000390473 0.042284805 -0.109596744 -0.0056102755
-0.02416345 -0.03172648 -0.06341373 0.025213603 -0.04718417 -0.06349354 -0.036054038 0.03488891
0.060949765 -0.040755283 0.004007131 0.049193267 -0.12382788 0.058544036 -0.054174114 -0.04331573

lstm.weight_hh_l1 f4 [512, 128]
00000000: cb56 31bc cc30 66bd 0715 c03d e864 23bd
00000010: 76ee 5c3d cea8 5a3d 654a e93c 9ef6 39bd
00000020: d116 423d b876 2cbd cfed eebc a47d 8fbd
00000030: 743b 7f3d 3785 8cbd 64ba 8dbc e4c6 c43d
00000040: 9c64 423d fec7 40bd 1226 91bc f042 87bc
00000050: 81b2 ab3d 5cc7 ffbc 51ee ee3c b443 c9bc
00000060: 623e 9d3d 6edd eb3b 23be 933b 4e61 b1bb
00000070: 67a8 84bd 2d9f 483d 32ec 0a3d 33fe cf3c
00000080: f822 d2bd 16a8 05bd 4266 b73d 9036 a93d
00000090: f34e 02bc bad6 a6bd a919 9bbd 55d5 3dbd
000000a0: 0a87 f7bb 0e65 983c cde4 82bd 8282 67bd
000000b0: 36bd 773c c1bc 913d 0a4d 2bbd 6e78 ab3c
000000c0: 791f 153d 474e a33d e005 7d3c 153c b03d
000000d0: d902 62bd a321 9e3d 0e97 eebc 308b 5c3d
000000e0: 74cf 5cbd 6b93 a23d 8adb 9cbc 0776 8d3d
000000f0: 6852 fbbc b951 163d 3571 8bbd c88e 92bd
00000100: ae4d 183c 1f46 60bd 4f55 e8bc e552 f53c
00000110: 5171 78bd 5cad c93b 21c1 a13c 401e 8f3d
00000120: c44d afbc b061 d1bc 7582 8cbd 80d1 74bc
00000130: 7082 43bd 8a1d c83d 3f17 263d 7092 86bd
00000140: b111 dabc ad3e c0bd 0ca1 0bbd 13f6 4ebd
00000150: 00d2 823c 1f8c 733d 16d8 8c3d c063 d8bb
00000160: f5d6 c4bc 57f0 aa3d 9bb1 db3c 52d3 5a3b
00000170: e491 603c f29d e73b 4723 9b3c 400e 57bd
00000180: e33e 0cbd 63f0 5a3c 7fe0 323b 8afa 38bd
00000190: a17e 433c ac29 703d 787a 953c 3e83 813d
000001a0: 54da 233c 9274 903d da52 9f3d 0255 32bd
000001b0: b9a8 90bd 9bc4 853d 8d47 e6bc 21a5 21bc
000001c0: c76f 80bd 95bc 1f3d 2928 fb3c 34b6 de3c
000001d0: a423 dd3d 2178 c7bc 1840 3a3c 58d2 353d
000001e0: 1184 a3bd 1186 483c 6c4c dd3c 9cf0 943c
000001f0: 46bd bf3c e7f4 4bbd 9ba2 053d 5ed2 9c3d
00000200: 642f 8c3d 4400 87bd b100 4fbd 822f 7d3c
00000210: 9e80 d83c 8dac 853d 53a3 d63c 6866 3dbd
00000220: 80dc b5bd 8055 133d 898d b0bd d95b b3bd
00000230: f19c 003c d8c0 893c 7a1c bebd 959e 8a3c
00000240: 869f 033d 369d 16bd e41d d6bc e7bc c23d
00000250: d83f 5abd 2bdd 54bd 83e7 be3c ecb2 963a
00000260: ec08 91bc 6ead af3d be1f 49bc b77b 873d
00000270: 9415 6d3d b14c 703d fb7b 97bd 6f42 9bbd
00000280: 9353 73bb e3ef 59bd 0bef 443d 7d7f 87bd
00000290: 4fbe 683a a302 8bbd 75f7 54bd fed6 113d
000002a0: fd2f 923b a485 a13d f2c7 9cbc bbf3 a73d
000002b0: d934 933d 5dcc 103d 9b8a 263c f01e 353c
000002c0: ce5d bbbc 40c6 a8bd 2a34 3e3c dff1 a03d
000002d0: 3749 0fbd f2c4 b0bd 2d20 7fbb 8b47 ba3b
000002e0: 48c4 9a3d b035 8fbd 96d2 3f3d 532f 3cbd
000002f0: 635e 3a3d b13c 733c fc77 83bd 00db 00bd
00000300: 6d08 9c3d c47f 9abd fe78 7bbd 56bf 53bd
00000310: 0662 533d 0ebf c13c d49c 30bd 3689 adbd
00000320: b942 9c3d 03fd 323d 756c 953d 282d 013d
00000330: d718 97bd 603f fabb fd3d 9a3d 4952 ee3b
00000340: 5cab 86bd 2ded 45bd dc14 06bd 2d4d 263d
00000350: c78c bd3d d83f 72bc 6f10 3fbc 5582 f03c
00000360: 4b1d 213c 6102 01bd f050 4dbd da71 983d
00000370: d322 1cbd 66ca b4bc d7fd 60bc 892b 033d
00000380: 455e 703d bea3 6f3a 9ee6 b3bb 02ef 6e3d
00000390: 7c0f 18bd 24e0 fb3a acb2 a73d 5f00 8fbd
000003a0: be5d 9b3d 09f7 503d 945d 7dbd 681d 3ebd
000003b0: 01fb 8dbd 38d2 cebc ffc0 cc3b c013 f3bc
000003c0: 3564 7abd f4d8 39ba 9abc d2bc 837c 8c3c
000003d0: cbb0 383b e4cc 5dbd 8fd9 bcbd e524 963d
000003e0: 2d36 2e3d cc25 be3d d925 693d 010f c03c
000003f0: 0506 a63d 6251 18bd e8fe 6a3d c8c7 503d
-0.010823916 -0.05619888 0.09379011 -0.039891154 0.05393835 0.05338364 0.028477857 -0.045401208
0.04738504 -0.042105407 -0.02916613 -0.07006386 0.06231256 -0.06861346 -0.017300792 0.09608248
0.04745923 -0.047065727 -0.017718349 -0.01651141 0.08383656 -0.031222992 0.029166372 -0.024568416
0.07677914 0.0071980273 0.00450875 -0.005413211 -0.06477433 0.048979927 0.03391666 0.025389766
-0.10260576 -0.032631002 0.08955051 0.0826236 -0.007953393 -0.081464246 -0.07573254 -0.046346027
-0.0075539397 0.018602874 -0.063912965 -0.056520946 0.015120795 0.0711608 -0.041821517 0.020931449
0.036406968 0.079739146 0.015443295 0.0860521 -0.055178497 0.077212594 -0.029124763 0.053843677
-0.05390878 0.07938274 -0.019147653 0.069072776 -0.030678943 0.03669903 -0.06808702 -0.071561396
0.009295864 -0.054754373 -0.02836099 0.029946754 -0.060654942 0.0061546993 0.019745411 0.069881916
-0.021399386 -0.025559276 -0.0686082 -0.014942527 -0.047731817 0.09771259 0.040549513 -0.065708995
-0.026619764 -0.093869545 -0.034089133 -0.050527643 0.015969276 0.0594598 0.068771526 -0.006603688
-0.02402828 0.083466224 0.026818087 0.0033390117 0.013706658 0.007068389 0.01893772 -0.052503824
-0.03423966 0.013362977 0.0027294455 -0.045160808 0.011932046 0.05863349 0.018246874 0.063238606
0.010000784 0.07053484 0.077794746 -0.0435381 -0.07063431 0.0653164 -0.02811029 -0.00986603
-0.0627132 0.038998205 0.030658798 0.02718649 0.107978135 -0.024349274 0.01136782 0.044390053
-0.07984174 0.012238995 0.02701398 0.018181138 0.023405682 -0.049794104 0.032625776 0.07657312
0.068449765 -0.065918475 -0.05053777 0.015453221 0.026428517 0.06527052 0.026200926 -0.04624024
-0.08879948 0.03597021 -0.08620746 -0.08757753 0.007849918 0.016815588 -0.09282775 0.01692132
0.032134555 -0.03677102 -0.0261373 0.095086865 -0.053283542 -0.051968735 0.023303753 0.0011497415
-0.01770445 0.08578001 -0.012275634 0.066153936 0.057881907 0.05866689 -0.07396694 -0.075810306
-0.0037128672 -0.05320729 0.04807953 -0.06616113 0.0008878456 -0.06787612 -0.051993806 0.035605423
0.004461287 0.07886818 -0.01913831 0.08200785 0.07187814 0.035351146 0.010164882 0.011054739
-0.022871878 -0.08240938 0.011609117 0.07858633 -0.034981932 -0.08631314 -0.003892909 0.005684798
0.07556969 -0.06992662 0.04683169 -0.04594357 0.04550017 0.014846013 -0.064193696 -0.031458855
0.076187946 -0.075439006 -0.061394684 -0.051696144 0.051607154 0.023650672 -0.043118313 -0.084734365
0.07629914 0.043698322 0.07296077 0.031537205 -0.07377785 -0.0076369494 0.075313546 0.0072729927
-0.06575653 -0.04832189 -0.032734737 0.040600944 0.09255367 -0.014785729 -0.011661633 0.029359022
0.009833644 -0.03149641 -0.050126016 0.074435905 -0.03811915 -0.022069167 -0.013732395 0.03202394
0.058683652 0.0009141526 -0.005490138 0.058333404 -0.037124142 0.0019216579 0.08188376 -0.06982493
0.07586239 0.05101684 -0.06185682 -0.046414763 -0.06932641 -0.025246724 0.006248593 -0.029672503
-0.06113072 -0.00070895185 -0.025724698 0.017149216 0.0028181549 -0.054150477 -0.092211835 0.07331256
0.042532135 0.09284553 0.05692086 0.023444654 0.08106617 -0.037186988 0.057372004 0.050971776

lstm.bias_ih_l1 f4 [512]
00000000: 01b9 843d e04d 9a3d 2415 623b 8d6c 203d
00000010: 3298 b2bc ca6a 97bb c672 943d b73b 05bc
00000020: b6e8 cb3d 1117 3f3c 552a f03b 7c2a 0fbd
00000030: c1fb 5c3d 2ba7 0ebd e348 953d 8357 2fbd
00000040: e89e 633d 75b5 26bb bb5e f7bb 8889 c23d
00000050: ca03 243e bf36 89bc bc62 00bd f433 a23c
00000060: 01f9 09bd 4378 b93d 27fe f33c f016 57bd
00000070: 0b52 953c 0faa 463c 83a0 c63d 32d1 d6ba
00000080: 3260 6a3c f8f0 903d 6e8f a73d ad34 22ba
00000090: 445f ac3d 25b1 863c 57c6 cd3c 9ce6 543d
000000a0: 3de0 92bd 7ae6 043e 2d36 b23d 78bc 6e3d
000000b0: b8f5 ce3c e192 85bc 3402 eb3d d6f6 123d
000000c0: d27c 04bb 0950 56bd aab5 873d 2eed a4bd
000000d0: c861 5fbd 9a04 35bd db2a dfbc 6c23 5b3d
000000e0: 4c13 d73d 75cc 843c 7b0a ebbc 9299 d0bc
000000f0: 22f7 863c 0dd7 b3bc 6910 24bd 2f2f 24bd
00000100: 679a 2e3d 315e f83c 5a97 0abd fb88 173d
00000110: 0d78 e5bb 311a 37bc 4be3 a73c e87d d33d
00000120: f5a4 f8bb 7bde 0cbc 657f 7abd f718 963d
00000130: 06ea 4e3d 6bb3 a4bd 2797 ed3c 94cd 02bc
00000140: cdc9 3b3d eece eb3c 2b77 5cbc ebab 57bd
00000150: 1a77 903d f594 993d f79b 00bd 4769 57bd
00000160: 893f 843d 5237 193c 63c7 ed3d 43e2 9f3d
00000170: 3776 163d f3e9 703c d4f4 0e3d ea0a 2c3d
00000180: f4b8 993d eb33 bf3d c2d6 8dbd cb45 e93b
00000190: b932 873e c759 473d aff6 423e 98f5 593d
000001a0: 6f61 1fbd 6582 743d 29ed 853a e2da 6c3e
000001b0: 35fd a83d 0bf8 01bd 2f2e d0bc 9666 a33d
000001c0: 7190 b0bb 57c5 f33c db9e bd3c fe0e dc3d
000001d0: 8f6c fbbc 4564 903c d7a1 a4bd 7ddd 133d
000001e0: c8bd 5c3d 118a c03b 7bb1 43bc e0ce 1d3d
000001f0: 509c 713c 6275 f83d 7ca1 403c 27aa fb3d
00000200: deaa 81bd 5839 9bbd b06a 9b3c ffb6 0e3d
00000210: a414 89bd 4fa6 4dbd 5282 6f3d 0010 953c
00000220: e03a 65bd 16d6 27bc 2daf 4abc ff16 583d
00000230: b523 8dbc b6da 8d3d e2ef 9a3b 150d 24bd
00000240: 6b9d b53c de69 32bd db93 e53c 7948 a23d
00000250: 2c53 c93d 3833 abbc 6fc2 c3bc a4eb 67bd
00000260: b785 88bc e2b0 9b3d 0d50 b2bc 28b7 563d
00000270: d0ff 84bd 12d8 e6bc 8264 81bc bd63 4a3c
00000280: c7e4 8bbd bbd6 8f3d d2dc 0ebd 6c79 a63b
00000290: 21f0 d63c cfa5 86bd 81af 033d 3f0e 6dbc
000002a0: 050a 1fbd 5d31 553c d0b3 5a3d e581 33bc
000002b0: 7064 dcbc 0b76 71b9 4ea5 78bb 955b b13d
000002c0: be2a bb3c a152 263d 60ca 403c 70b2 c0bd
000002d0: b14a 1dbd b1ed da3c ffc4 b93c 3462 a63d
000002e0: 8538 823d db07 983c 396c 92bd 41e2 e3b9
000002f0: a412 38bd d534 873d cd21 8f3c 8a55 543b
00000300: 9488 fcbc b818 f1bc cf86 31bd 44dc 85bd
00000310: bb3b a83d 221d 0a3d f063 c5bb 84a1 e63d
00000320: 46b2 7ebc 3326 5fbd b1d6 b4bd e61a 55bc
00000330: c9c2 943d f8db d8bc a8d0 29bd 4b2f bc3d
00000340: 958a 6abd c0f8 a0bd 9f47 833d 6799 c5ba
00000350: 1a5b 643d c5a0 163d 9957 0f3c 3541 ea3c
00000360: 79a1 9ebc a099 b13c 348c 8a3d d114 a13d
00000370: a6f1 49bd fdae 15bc 9e6e d8bc bfb4 a6bd
00000380: c246 38bd d768 4fb8 122e 64bd c043 99bd
00000390: 42ba 8b3d b106 62bd 2289 d63d 86dd bc3c
000003a0: 3337 6cbd 4d5b 383d edb4 62bd be2e 0b3d
000003b0: 45ef 2e3d 0608 b03d d8a0 413d 176d b2bd
000003c0: 194c b23d 390d 1fbb 1f10 333d 4a40 8dbc
000003d0: e783 64bd c374 2d3d ef37 efbc 8203 c23c
000003e0: 1f47 883d adcb bd3b 805a 07bd 3f8b 25bd
000003f0: c6e0 983d 200b acbc 706b 843d e517 13bd
0.06480599 0.07534385 0.0034497464 0.039166022 -0.021801088 -0.0046208845 0.07248454 -0.008131913
0.099564955 0.011663214 0.007329265 -0.034952626 0.05395103 -0.034827393 0.07289293 -0.042808067
0.055571467 -0.0025437747 -0.0075491345 0.09498888 0.1601707 -0.016749738 -0.03134416 0.019800164
-0.033684734 0.09056141 0.029784275 -0.05251211 0.018227598 0.012125506 0.09698584 -0.0016389249
0.014305161 0.07077211 0.08181654 -0.0006187659 0.08416608 0.016441891 0.02511899 0.05197774
-0.07171676 0.12978545 0.087017395 0.058285207 0.025263652 -0.016305389 0.114750296 0.035879932
-0.0020216 -0.05232242 0.066264465 -0.08053051 -0.05453661 -0.04419384 -0.027242115 0.053500578
0.105017275 0.016210774 -0.02869152 -0.025463853 0.016475264 -0.02195313 -0.040054712 -0.04008406
0.04262772 0.030318351 -0.033835746 0.03699587 -0.0070028366 -0.011175678 0.020494124 0.10326749
-0.007588024 -0.008597965 -0.06115665 0.073289804 0.05051615 -0.08042034 0.02900274 -0.007983584
0.04584675 0.028785195 -0.013456146 -0.052654188 0.07053967 0.074991144 -0.03139874 -0.052590635
0.06457431 0.009351568 0.116102956 0.07806828 0.036733832 0.014704215 0.034901455 0.042002596
0.0750598 0.093360744 -0.069257274 0.0071189157 0.26405886 0.048669603 0.19039415 0.053212732
-0.03891128 0.059694666 0.0010217774 0.23130372 0.082514204 -0.031730693 -0.025412647 0.07978551
-0.0053883125 0.029757185 0.023147037 0.10745047 -0.030691413 0.017625937 -0.08038681 0.0360999
0.053891927 0.005875834 -0.01194417 0.03852737 0.01474674 0.12131764 0.011757251 0.12288313
-0.063314185 -0.07579297 0.018971771 0.034842487 -0.0669339 -0.050207432 0.058473893 0.018196106
-0.05596435 -0.010243913 -0.012370867 0.052756306 -0.01722894 0.069264814 0.0047283033 -0.04005154
0.02216979 -0.043557994 0.028024605 0.07923979 0.09830317 -0.020898446 -0.023896424 -0.05662121
-0.016665323 0.07602097 -0.021766687 0.052420765 -0.06494105 -0.028179202 -0.015794996 0.012352881
-0.06830745 0.070233785 -0.03487856 0.0050803926 0.02623755 -0.06574594 0.032149795 -0.014468729
-0.038827915 0.013012257 0.05339414 -0.010956262 -0.026903361 -0.00023027525 -0.0037940326 0.08660046
0.02284753 0.040606145 0.011767 -0.09409034 -0.03840131 0.026724668 0.022676943 0.081241995
0.063584365 0.018558433 -0.07149548 -0.00043465386 -0.044939652 0.06601874 0.017472172 0.0032399618
-0.030826844 -0.029430732 -0.043341454 -0.06536153 0.08214518 0.03371919 -0.0060238764 0.112612754
-0.015545433 -0.05447979 -0.08830012 -0.013006901 0.07263715 -0.026472077 -0.041458756 0.09188708
-0.05726107 -0.07859945 0.06410145 -0.0015075625 0.055750944 0.036774416 0.008748912 0.028595546
-0.019364106 0.0216797 0.06765023 0.078652985 -0.04930272 -0.009135959 -0.026419934 -0.08139943
-0.044989355 -4.9450286e-05 -0.055708 -0.074836254 0.06822635 -0.055182163 0.10475375 0.02305485
-0.05766983 0.045008946 -0.055348326 0.033980124 0.042708654 0.0859528 0.047272533 -0.087122135
0.08705921 -0.0024269356 0.043716546 -0.01724257 -0.055789854 0.04234768 -0.029201476 0.023683313
0.0665419 0.0057921023 -0.033045292 -0.040416 0.07464747 -0.021001399 0.064658046 -0.03591146
