models/SBUX model.pth (torch, 270889 bytes, 5 tensors)

lstm.weight_ih_l0 f4 [512, 1]
0	0x3cf5b88f	0.029995231
1	0x3a81d059	0.0009904011
2	0xbe6cef24	-0.231381
3	0xbcabb72c	-0.020961367
4	0x3df08c2a	0.11745484
5	0x3dfc48c1	0.12318564
6	0xbdc7f4c6	-0.09763484
7	0x3e1bea80	0.15226173
8	0xbcaa9240	-0.02082169
9	0xbcc21f16	-0.023696464
10	0x3e078f3b	0.13238232
11	0x3d05bb5f	0.032649394
12	0x3dd0b003	0.101898216
13	0xbceab31a	-0.028649855
14	0xbd2b322c	-0.041795895
15	0xbdd7172f	-0.10502469
16	0xbdb6dbc2	-0.08928634
17	0x3c28c606	0.010301119
18	0xba715f33	-0.0009207606
19	0x3e04edf0	0.12981391
20	0x3cab6889	0.02092387
21	0x3d06e2e2	0.032931216
22	0x3b57dc02	0.0032937531
23	0xbdf348e6	-0.11879139
24	0xbd405781	-0.04695845
25	0x3d97493f	0.073870175
26	0xbc792c56	-0.015208324
27	0x3e156fc0	0.1459341
28	0x3dd18da5	0.10232095
29	0x3d1d8aad	0.03846233
30	0xbe01ed01	-0.12688066
31	0xbca89995	-0.020581046
32	0xbd99c22b	-0.07507738
33	0x3db19fa6	0.08673029
34	0x3c81f5cb	0.015864274
35	0x3d2076ee	0.03917592
36	0xbd6048d2	-0.054756947
37	0x3e0617bf	0.13094996
38	0xbc8d1c9c	-0.017225556
39	0x3dfe4224	0.12414959
40	0xbd5cbca0	-0.053890824
41	0xbc51ae43	-0.012797895
42	0x3dce1466	0.100624844
43	0x3d82d02c	0.06387362
44	0xbd8bc82c	-0.06825289
45	0x3d26ecfa	0.040753342
46	0x3d55416f	0.052064355
47	0xbe1782d0	-0.14795995
48	0x3d218e17	0.039442148
49	0x3d5df9c0	0.05419326
50	0x3cf1bf89	0.029510276
51	0xbce8e019	-0.02842717
52	0xbc670421	-0.0141001055
53	0xbcc23df4	-0.023711182
54	0x3c8562d3	0.016282475
55	0x3ead23af	0.33816287
56	0xbd73c832	-0.059517093
57	0x3c3a39aa	0.011366287
58	0x3e07c6a2	0.13259366
59	0xbdb14122	-0.08655001
60	0x3d2246ca	0.03961829
61	0x3ccf9b72	0.025342677
62	0x3bb657fa	0.005564687
63	0xbdadfb64	-0.084952146
64	0xbe527dee	-0.20555851
65	0xbe1b2918	-0.15152395
66	0x3df5218e	0.11969291
67	0xbdb4c630	-0.08826864
68	0xbe144d75	-0.14482673
69	0x3d63d1d5	0.055620033
70	0x3ba8b7cf	0.005148865
71	0x3dba9b8b	0.09111699
72	0x3cb6a88c	0.022297166
73	0xbdca0cf4	-0.09865752
74	0x3c97e5ca	0.01854219
75	0xbd357f8e	-0.0443111
76	0x3d990dc2	0.07473327
77	0xbd03fcfb	-0.032223683
78	0xbdc0eb44	-0.09419873
79	0xbd09b1c3	-0.033616792
80	0x3c958b76	0.018254977
81	0x3dc7689b	0.09736749
82	0x3cea3864	0.028591342
83	0xbdbf6917	-0.09346216
84	0x3be35287	0.0069373283
85	0xbcf39740	-0.029735208
86	0x3e0d6369	0.13807453
87	0xbc9117b3	-0.017711496
88	0x3ca04af2	0.019566987
89	0xbaf76c20	-0.0018876828
90	0xbde96403	-0.11396029
91	0x3dd364c6	0.103219554
92	0x3d9b3eb9	0.07580323
93	0x3dfafaa4	0.12254837
94	0x3bced804	0.006312372
95	0xbd2d9c6d	-0.042385507
96	0xbe56545c	-0.20930618
97	0x3e002c6f	0.1251695
98	0xbd1970b2	-0.03746099
99	0xbdd7be3e	-0.10534333
100	0xbe177239	-0.14789666
101	0xbe052eb7	-0.13006102
102	0xbe20e887	-0.15713702
103	0x3e4fa7da	0.20278874
104	0xbcccfcc7	-0.025022877
105	0x3d8cac69	0.06868822
106	0xbdbdc8e6	-0.09266834
107	0xbaf9cb52	-0.0019057787
108	0x3decbc85	0.11559395
109	0xbdc5294e	-0.09627019
110	0x3addfdd5	0.001693661
111	0x3c6ae1d2	0.014336066
112	0x3d7e49b6	0.062082015
113	0xbe191717	-0.14950214
114	0x3dc29365	0.095007695
115	0x3da736af	0.08164727
116	0x3cd162ec	0.025559865
117	0xbba61830	-0.0050688013
118	0xbe13a33a	-0.14417735
119	0xbe0e3f82	-0.13891414
120	0xbcfd9cc8	-0.030958548
121	0x3d6369e8	0.055520922
122	0x3db462ba	0.08807893
123	0xbd17569f	-0.036947843
124	0x3ca462e3	0.020066684
125	0x3d25a09c	0.040436372
126	0x3d586efb	0.052840214
127	0x3ddcbd68	0.10778314
128	0xbccc2a40	-0.02492249
129	0xbe1391d1	-0.14411093
130	0xbe502de9	-0.20330013
131	0x3d6918e7	0.056908514
132	0xbcea2422	-0.028581683
133	0x3dbcd3b2	0.09220065
134	0xbd17367e	-0.036917202
135	0x3e23b227	0.15985928
136	0xbd71a0c8	-0.058991224
137	0xbdee0bb4	-0.11623326
138	0x3d961552	0.07328285
139	0x3d037e0c	0.03210263
140	0x3df99b49	0.121878214
141	0xbe440371	-0.19141938
142	0xbe00fd83	-0.12596707
143	0xbd8c56fa	-0.06852527
144	0xbe16c954	-0.14725238
145	0xbbf5d56b	-0.007502248
146	0xbd2a614c	-0.041596696
147	0x3db658b9	0.08903641
148	0x3e1ebfc6	0.15502843
149	0xbd082e1d	-0.033247102
150	0xbe0e73c4	-0.13911349
151	0xbe002324	-0.12513405
152	0xbd041a65	-0.032251734
153	0x3bfd4ff4	0.0077304784
154	0x3e2b33e0	0.16719007
155	0x3e3eebe8	0.18644679
156	0x3d5d7722	0.054068692
157	0xbde82ea5	-0.11337022
158	0xbda9bb40	-0.08287668
159	0x3d7691e7	0.060197737
160	0xbd1f3b9f	-0.03887522
161	0x3d348096	0.04406794
162	0xbd165d14	-0.03670986
163	0x3cb14824	0.021640845
164	0xbd8fffe2	-0.07031228
165	0x3e0695fb	0.1314315
166	0xbb896bff	-0.0041937823
167	0x3d8e8bd6	0.06960265
168	0xbd2d6859	-0.04233584
169	0x3cf6a8bb	0.030109754
170	0x3dd6a673	0.104809664
171	0x3d693160	0.056931853
172	0xbdcdca24	-0.10048321
173	0x3d2af0c6	0.041733526
174	0xbaf901f0	-0.001899777
175	0xbd080566	-0.033208273
176	0x3e4e3fba	0.20141497
177	0xbd05df7e	-0.032683842
178	0xbd22ba13	-0.039728235
179	0x3c72c38f	0.014817133
180	0x3d4ca85d	0.04996525
181	0x3cc27897	0.023739142
182	0x3dff42dd	0.12463925
183	0x3e8f4ff9	0.27990702
184	0xbe02b192	-0.1276305
185	0xbe256b01	-0.161541
186	0x3d246923	0.04013933
187	0xbb1fa1b0	-0.0024357848
188	0x3d68fb44	0.05688025
189	0xbdd6943e	-0.10477494
190	0x3dbe1a4f	0.09282362
191	0xbdb60309	-0.08887298
192	0xbd9cbc30	-0.076530814
193	0xbd1a0f94	-0.037612513
194	0x3cc389b8	0.02386938
195	0xbd03c24e	-0.032167725
196	0xbd97ccdf	-0.07412123
197	0xbcde5e29	-0.027144508
198	0x3cf09773	0.029369092
199	0x3d95e0ea	0.073182896
200	0xbddab0c7	-0.10678249
201	0xbecae615	-0.39628664
202	0xbdda5efa	-0.106626466
203	0x3d941d15	0.072321095
204	0xbd84997d	-0.06474588
205	0xbda6c47f	-0.081429474
206	0xbe116136	-0.1419724
207	0xbbb21e9c	-0.005435778
208	0xbbb3a192	-0.005481907
209	0x3da70607	0.081554465
210	0x3dc37373	0.095435046
211	0xbe0f119a	-0.13971558
212	0xbc9dd9a3	-0.019268816
213	0x3d1fcd18	0.039013952
214	0x3e12202e	0.14270088
215	0xbc28849d	-0.010285524
216	0x3d52c4ab	0.05145709
217	0x3d7fde6d	0.06246798
218	0xbd5527e2	-0.05203999
219	0xbb95d8db	-0.0045729703
220	0xbd5acd18	-0.05341825
221	0x3e7004d6	0.23439345
222	0x3ce3ae5b	0.0277931
223	0xbe5800b0	-0.21094012
224	0xbe82340c	-0.25430334
225	0x3d604114	0.054749563
226	0xbc19f6de	-0.009397237
227	0xbd62614b	-0.055268567
228	0xbd9bd27a	-0.076085046
229	0xbde11fcb	-0.10992392
230	0xbe07ef29	-0.13274826
231	0x3edf4225	0.43605152
232	0x3ce28e91	0.027655872
233	0xbd19bec2	-0.037535436
234	0xbe27ee3f	-0.16399477
235	0x3cd12422	0.025529925
236	0x3c6fde4c	0.014640402
237	0xbda1b963	-0.07896688
238	0xbde7fffa	-0.113281205
239	0x3db0fcc3	0.086419605
240	0x3d9c0752	0.07618584
241	0xbe187725	-0.148892
242	0x3dd837d6	0.10557525
243	0x3c9b8644	0.018984921
244	0xbdcc50a9	-0.09976322
245	0x3da16a7f	0.07881641
246	0xbd0655cb	-0.032796662
247	0xbe708ce6	-0.23491248
248	0xbdd46999	-0.10371704
249	0xbc5f2834	-0.013620425
250	0x3e18f7f1	0.14938332
251	0x3dc256a8	0.094891846
252	0x3cb32def	0.021872489
253	0x3dd4b16a	0.103854015
254	0xbca11980	-0.01966548
255	0x3bbb23cc	0.0057110544

lstm.weight_hh_l0 f4 [512, 128]
0	0xbda45561	-0.08024097
1	0x3d2359ab	0.039880436
2	0x3d8139e2	0.063098684
3	0x3d526262	0.051363356
4	0x3d966fa9	0.07345516
5	0xbdcbc1dd	-0.09949086
6	0xbc812680	-0.015765429
7	0xbd74cabb	-0.05976365
8	0x3d20b9c6	0.039239667
9	0xbd5d516b	-0.054032724
10	0x3d877434	0.06613961
11	0x3db5dcf1	0.08880032
12	0x3d08d5a7	0.03340688
13	0x3db29ad1	0.08720935
14	0x3cebc120	0.028778613
15	0xbcccff71	-0.025024148
16	0xbb8ef9c7	-0.004363272
17	0xbd10f361	-0.035388354
18	0x3cf12640	0.029437184
19	0xbd84aadd	-0.06477902
20	0x3d664671	0.056219522
21	0xbdaf38dd	-0.08555768
22	0xbdb9b04a	-0.090668276
23	0x3d1d81e8	0.038453966
24	0x3d8ac184	0.067751914
25	0xbbccee0b	-0.006253963
26	0xbca99ecd	-0.020705605
27	0xbd8cd8d0	-0.06877291
28	0x3cc0ffc5	0.02355946
29	0xbc94502f	-0.01810464
30	0xbdb06dc6	-0.086146876
31	0xbccbc5c2	-0.024874572
32	0x3dbf44c5	0.093392886
33	0x3cd208ad	0.025638903
34	0xbc986d8c	-0.018606924
35	0x3ce028b9	0.027363168
36	0xbd93460e	-0.07191096
37	0x3c2b820e	0.010468019
38	0xbd92661c	-0.07148382
39	0x3cb5b17e	0.022179361
40	0xbd408d09	-0.0470095
41	0xbcb741f6	-0.02237032
42	0xbcf54305	-0.029939184
43	0xbd69a820	-0.057045102
44	0x3c0a0f45	0.008426492
45	0xbd23b714	-0.03996952
46	0xbda504e1	-0.08057571
47	0xbd9d61fa	-0.07684703
48	0xbdb6c477	-0.089241914
49	0xbd954346	-0.07288222
50	0xbcc6bf3b	-0.024261108
51	0xbd2ef71d	-0.042716134
52	0x3d494e4a	0.049146928
53	0x3cba4ed2	0.022742663
54	0x3b0ea16e	0.00217637
55	0xbd91ea58	-0.07124776
56	0xbb6a2a89	-0.003573092
57	0xbda52bea	-0.080650166
58	0x3d7f7f5b	0.062377315
59	0xbd2a0e62	-0.041517623
60	0x3dad3d5a	0.084589675
61	0xbd52daa7	-0.051478054
62	0xbca5827e	-0.020203825
63	0x3cb5a747	0.02217449
64	0xbd8f50cf	-0.06997835
65	0xbd057514	-0.032582358
66	0xbda244b2	-0.07923259
67	0x3d8c4e57	0.0685088
68	0x3d456cde	0.048199527
69	0x3d910bed	0.07082353
70	0x3caf66b9	0.021411287
71	0x3d983425	0.07431821
72	0xbc33929d	-0.010960248
73	0xbbb73de1	-0.0055920933
74	0x3da59e4a	0.08086832
75	0xbd836803	-0.06416323
76	0x3d6a9154	0.057267502
77	0xbcf70ce6	-0.030157518
78	0xbd72ba86	-0.059259914
79	0x3cd83386	0.026391756
80	0x3d9c6b76	0.07637684
81	0x3b5c08a9	0.0033574498
82	0xbc0a50cf	-0.008442118
83	0x3c26cf05	0.010181193
84	0x3c78caf3	0.015185106
85	0x3ca866c5	0.020556817
86	0x3d46ab24	0.048503056
87	0xbd6f6267	-0.058443453
88	0xbd1d276e	-0.03836768
89	0x3d8a0355	0.06738917
90	0xbd222142	-0.0395825
91	0xbceafba9	-0.028684454
92	0xbd1852c6	-0.037188314
93	0x3d334736	0.043769084
94	0x3d104ae8	0.035227686
95	0xbd83a1ac	-0.06427321
96	0x3c0bbf9e	0.008529572
97	0xbcf82684	-0.030291803
98	0xbd190793	-0.03736074
99	0x3d146df8	0.036237687
100	0xbda41647	-0.080120616
101	0x3d8228ef	0.06355464
102	0x3d5ac667	0.053411867
103	0xbc34195f	-0.010992377
104	0x3c8e3d66	0.017363261
105	0x3d8765ad	0.0661119
106	0x3d03c3d8	0.032169193
107	0x3d74340e	0.059619956
108	0xbd25cbce	-0.040477566
109	0xbd81338c	-0.0630866
110	0x3cad46d4	0.021151938
111	0x3cbe3856	0.023220222
112	0x3d96a44e	0.073555574
113	0x3d14ff30	0.03637618
114	0x3d634961	0.0554899
115	0xbd2419af	-0.040063556
116	0xbd78374d	-0.060599614
117	0xbcc4b234	-0.024010755
118	0x3db46421	0.088081606
119	0x3d960d25	0.07326726
120	0x3cf1ffec	0.029540978
121	0x3d9026d3	0.07038655
122	0x3c81fbd0	0.015867144
123	0xbd8b8ddd	-0.06814168
124	0x3d73065f	0.059332248
125	0x3d642d2e	0.05570715
126	0x3d664b04	0.056223884
127	0xbb666c3e	-0.0035159732
128	0x3d9c4c3d	0.07631729
129	0x3d1ba2cc	0.037997052
130	0xbcd1c4e3	-0.025606578
131	0xbbe730c5	-0.0070553743
132	0x3d28a6ed	0.041174818
133	0x3d32e874	0.043678716
134	0xbd819295	-0.063267864
135	0x3d17bc07	0.03704455
136	0x3d1f5246	0.03889682
137	0x3cf93383	0.03042007
138	0xbdb0ae98	-0.08627051
139	0xbc802aa7	-0.015645338
140	0xbb08799e	-0.0020824443
141	0xbdb5f3a7	-0.088843636
142	0xba638f0b	-0.0008680678
143	0x3c8e7c41	0.017393233
144	0x3c388729	0.011262693
145	0x3d1d2196	0.03836211
146	0xbb04fe8a	-0.0020293319
147	0x3cf56c73	0.02995894
148	0xba518800	-0.0007992983
149	0x3d11c491	0.03558785
150	0x3d2daabc	0.042399153
151	0xbdb69686	-0.08915429
152	0x3d81064f	0.063000314
153	0x3c895038	0.016761884
154	0x3c65e37d	0.014031288
155	0xbd26495e	-0.040597312
156	0xbcaa8ff2	-0.020820592
157	0xbd33d224	-0.043901578
158	0xbd637265	-0.055529017
159	0xbdada171	-0.08478058
160	0xbdae85df	-0.08521628
161	0x3d01b18c	0.031663463
162	0xbd9c6621	-0.07636667
163	0xbdaa5f5a	-0.08318968
164	0x3d62921f	0.055315133
165	0x3cfdc664	0.03097839
166	0x3d8a2263	0.0674484
167	0x3dcb33aa	0.099219635
168	0x3d91d920	0.071214914
169	0x3d6313bf	0.055438753
170	0x3d8f4aa4	0.069966584
171	0xbd780393	-0.060550284
172	0xbcf64b5d	-0.030065233
173	0xbd94de22	-0.07268931
174	0xbdbff162	-0.09372212
175	0xbcff9080	-0.031196833
176	0xbb43d5ae	-0.0029882002
177	0x3d229c78	0.0397
178	0xbc5dca4e	-0.013537003
179	0x3bb4a89c	0.005513264
180	0xbd920d77	-0.071314745
181	0x3dc22681	0.0948
182	0xbc76db1b	-0.015066887
183	0x3de23d86	0.11046891
184	0xbd0fc982	-0.035104282
185	0x3d1a350d	0.03764825
186	0x3df47dc9	0.11938054
187	0x3c9b1d62	0.01893491
188	0x3bbe3f05	0.0058058524
189	0xbc63fa4a	-0.013914654
190	0x3d7e5a4c	0.062097833
191	0x3d90c90b	0.07069596
192	0x3dc39507	0.09549909
193	0x3d4c32fd	0.049853314
194	0x3d3b100e	0.045669608
195	0xbce8b232	-0.028405283
196	0x3dc5b10b	0.09652909
197	0xbd5d557f	-0.054036614
198	0x3d1eeb62	0.038798697
199	0xbd258f7c	-0.04042004
200	0xbd9c5093	-0.07632556
201	0x3d154bcc	0.03644924
202	0xbda0c9c7	-0.07850986
203	0xbd46c4e8	-0.04852763
204	0x3d7f7185	0.06236412
205	0x3d07e6d9	0.033179138
206	0x3d84afa5	0.06478814
207	0xbd9475bf	-0.07249021
208	0x3cd40c2b	0.025884708
209	0x3ce33ad8	0.02773802
210	0xbc8c6dde	-0.017142233
211	0x3d866049	0.06561334
212	0xbd23de2e	-0.04000681
213	0xbd6194b1	-0.055073444
214	0xbd41af6a	-0.04728643
215	0xbcf8a9c7	-0.030354394
216	0xbc6a0480	-0.014283299
217	0x3da559a3	0.080737375
218	0xbd6aca68	-0.057321936
219	0xbd72e93f	-0.059304472
220	0x3d383099	0.04496822
221	0xbd4a8d2a	-0.04945103
222	0x3d027cfe	0.031857483
223	0xbc2c7d72	-0.010527955
224	0x3d1a8b23	0.037730347
225	0x3d758c01	0.05994797
226	0x3d692ebe	0.056929342
227	0x3d8811a4	0.0664399
228	0xbd8a7093	-0.06759753
229	0x3d926dc8	0.07149845
230	0xbd6489c0	-0.05579543
231	0xbb0656bc	-0.0020498475
232	0x3d484671	0.048895303
233	0xbd3a2970	-0.045449674
234	0xbd4ce4d4	-0.050022915
235	0xbd2ebee1	-0.042662505
236	0xbad61ce1	-0.0016335511
237	0xbdd85eeb	-0.10564979
238	0x3d0fabc2	0.03507591
239	0x3c535c0b	0.012900363
240	0x3d3fbf92	0.046813555
241	0xbd4cba4a	-0.049982347
242	0x3d4cd7d9	0.050010536
243	0xbbc8aba7	-0.006123978
244	0xbdb10422	-0.086433664
245	0xbd413ca8	-0.047176987
246	0xbdc9c6ce	-0.09852372
247	0xbd722e97	-0.059126463
248	0xbd9b3235	-0.075779356
249	0xbd3116bb	-0.043234568
250	0x3b205a4a	0.002446788
251	0xbda1d97d	-0.07902811
252	0x3cb40f43	0.021979934
253	0x3cd5b05e	0.026085075
254	0xbd5728ab	-0.05252902
255	0xbdbabd89	-0.09118182

lstm.bias_ih_l0 f4 [512]
0	0x3c9bbcb5	0.019010881
1	0x3d9ece4d	0.077541925
2	0x3c93f998	0.018063352
3	0xbd35e2af	-0.044405635
4	0xbca93eb2	-0.020659778
5	0xbd7ab1a8	-0.061204582
6	0xbc8a95d6	-0.01691715
7	0x3cad9b46	0.021192204
8	0xbbaa803c	-0.005203275
9	0x3c01c563	0.007920596
10	0x3b15dacc	0.0022866009
11	0xbd7f9c1e	-0.062404744
12	0x3d61327f	0.054979797
13	0x3cf99061	0.030464353
14	0x3df22e30	0.11825216
15	0x3d563602	0.0522976
16	0x3d8dd8a5	0.06926087
17	0x3b5155af	0.003194194
18	0xbc0ab4c3	-0.0084659485
19	0xbbc4d268	-0.0060065277
20	0x3d76481a	0.060127355
21	0x3def65fd	0.116893746
22	0x3be3a38c	0.0069469865
23	0x3c81540a	0.015787143
24	0xbc18b158	-0.009319626
25	0xbc4f906c	-0.01266871
26	0x3db3e3c1	0.08783675
27	0x3d956461	0.072945364
28	0x3d4c0897	0.04981288
29	0xbc4fcd4c	-0.012683224
30	0x3d0137c4	0.031547323
31	0x3d9ca7a0	0.076491594
32	0xbd399c4d	-0.045315076
33	0xbd330395	-0.043704588
34	0x3ddfdd95	0.10930935
35	0x3dd729b6	0.105060026
36	0x3d9e195d	0.077196814
37	0xbd2771d3	-0.040880036
38	0x3d56a5a4	0.05240406
39	0x3db6010c	0.088869184
40	0xbc088f1b	-0.0083349
41	0x3dc454f2	0.095865145
42	0x3d21f259	0.03953776
43	0x3dbf8031	0.093506224
44	0x3d2eaafd	0.042643536
45	0xbd73018e	-0.059327655
46	0x3dbe256c	0.092844814
47	0x3d95389c	0.07286188
48	0xbd28d4e3	-0.04121865
49	0x3c894f99	0.016761588
50	0x3b9bbb8b	0.0047525815
51	0xbb77e56f	-0.0037825962
52	0x3d27f0a4	0.041000977
53	0xbcc19960	-0.023632705
54	0xbd077b47	-0.03307655
55	0x3d88958e	0.0666915
56	0x3dbd2fa0	0.092375994
57	0xbd25feaf	-0.04052609
58	0xbbb8bcd0	-0.0056377426
59	0xbca619de	-0.020276006
60	0x3de8eacc	0.11372909
61	0xbd907610	-0.07053769
62	0x3d3780f1	0.044800702
63	0xbcf7a00c	-0.030227683
64	0x3d7fb3fb	0.062427502
65	0x3cceae6a	0.025229651
66	0x3dcb962d	0.09940753
67	0xbc1590df	-0.009128778
68	0xbca74680	-0.02041936
69	0x3c1baaac	0.009501141
70	0x3df649f3	0.120258234
71	0x3d5cdfb5	0.05392428
72	0x3d9dad22	0.07699038
73	0x3dc7eb52	0.09761681
74	0xbd80086f	-0.062516086
75	0x3d31953a	0.043355204
76	0x3dafe018	0.08587664
77	0xbcd9ee8f	-0.026603011
78	0xbc91f97a	-0.017819155
79	0xbc353897	-0.011060855
80	0x3d221b24	0.039576665
81	0xbd45d275	-0.04829641
82	0xbd4bd1e0	-0.0497607
83	0x3dedea03	0.116169
84	0xbc6410f6	-0.013920059
85	0xbd5122ba	-0.05105851
86	0xbd8054a6	-0.062661454
87	0x3d9672b9	0.073461
88	0x3dce4d53	0.10073342
89	0x3d7dc8ad	0.061958957
90	0x3da7ac6a	0.08187182
91	0x3d5ccce3	0.053906333
92	0xbdc6bc50	-0.097038865
93	0xbc93c257	-0.018037004
94	0x3dd8fbf4	0.10594931
95	0x3d686911	0.056740824
96	0x3dc40c99	0.09572715
97	0xbd338eac	-0.043837234
98	0x3d1a6048	0.037689477
99	0x3cee76c4	0.029109366
100	0xbd834f9c	-0.06411669
101	0xbc620df1	-0.013797269
102	0x3d61b37b	0.055102807
103	0x3dfe7b1e	0.124258265
104	0x3dd6fd41	0.10497523
105	0x3d4423ef	0.04788583
106	0x3d5cb8c3	0.05388714
107	0x3ca9c32f	0.020722954
108	0xbd22089d	-0.039558996
109	0xbd8c8167	-0.06860619
110	0x3d00dc3a	0.031460024
111	0x3d5f0d69	0.05445615
112	0x3d74caff	0.059763905
113	0x3d95c87f	0.07313632
114	0xbd20b6d6	-0.039236866
115	0xbd603f6a	-0.054747976
116	0x3d1c2acc	0.03812675
117	0x3c8732a4	0.01650364
118	0xbc8a0a8d	-0.016850734
119	0xbd54057f	-0.051763054
120	0x3b2a46be	0.0025982107
121	0x3dfd2060	0.12359691
122	0x3d799d18	0.060940832
123	0xbd0d8089	-0.03454641
124	0x3da3037e	0.079596505
125	0x3c63c3f5	0.0139017
126	0x3d8c3f53	0.06848016
127	0xbd82b713	-0.06382575
128	0x3bb76d93	0.005597779
129	0xbd933823	-0.071884416
130	0xbce533c9	-0.027978795
131	0x3dc899ae	0.09794937
132	0x3da89c04	0.082328826
133	0xbd1fc9db	-0.039010864
134	0xbc048660	-0.008088678
135	0x3cff7fbc	0.031188838
136	0xbd54c5b4	-0.051946357
137	0xbd67f085	-0.05662586
138	0xbd231914	-0.03981884
139	0xbd7eb386	-0.062182926
140	0x3dca3f40	0.09875345
141	0x3ced4924	0.02896554
142	0x3cd47141	0.02593291
143	0x3d8bf308	0.06833464
144	0x3d8e52a7	0.069493584
145	0x3da0a966	0.0784481
146	0x3cb6af18	0.022300288
147	0x3bde55f7	0.00678515
148	0xbd000962	-0.03125895
149	0x3d889f0b	0.0667096
150	0x3d3385f9	0.04382894
151	0xbce71b35	-0.028211216
152	0x3cb0fe09	0.021605508
153	0xbc064a66	-0.008196449
154	0xbd35cd31	-0.04438514
155	0x3c8e5610	0.017375022
156	0xbd2926e5	-0.04129686
157	0x3d1ad400	0.037799835
158	0x3cb2cc47	0.021825923
159	0x3db1f178	0.08688635
160	0x3c137e1c	0.009002235
161	0xbd97bc1d	-0.07408927
162	0x3bc39062	0.0059681395
163	0xb891457e	-6.927083e-05
164	0x3d81d0dd	0.06338666
165	0xbd895fea	-0.06707747
166	0x3cbe7b16	0.023252051
167	0xbd2d5d94	-0.04232557
168	0x3d9c74c7	0.07639461
169	0xbd3edba3	-0.04659618
170	0xbd27c2f3	-0.040957402
171	0x3db5f00e	0.088836774
172	0xbd8fd6ab	-0.070233665
173	0xbc9189a1	-0.017765822
174	0x3baad678	0.005213555
175	0x3d648324	0.055789128
176	0xbd7dc99d	-0.06195985
177	0xbd136340	-0.035983324
178	0x3d817689	0.06321437
179	0xbc87d06d	-0.016578877
180	0x3d9dfdc3	0.07714417
181	0xbd4cc82b	-0.049995583
182	0x3c7bd491	0.015370504
183	0xbc939231	-0.018014045
184	0xbacfa674	-0.0015842454
185	0x3d8741dd	0.06604359
186	0xbd355906	-0.044274352
187	0xbc3d2125	-0.011543547
188	0xbc097ddc	-0.008391824
189	0x3d47da92	0.04879243
190	0xbc28fb1b	-0.010313774
191	0x3d4a5138	0.049393862
192	0xbd1bb641	-0.038015608
193	0xbd1db8c4	-0.038506284
194	0x3dc24ab0	0.09486902
195	0x3c94111b	0.018074563
196	0x3d7a1339	0.06105349
197	0xbd0eda32	-0.034876056
198	0xbd4923e0	-0.04910648
199	0xbc9d40d8	-0.019195959
200	0x3ccce3c5	0.025010953
201	0xbd245563	-0.040120494
202	0xbd3da2c0	-0.04629779
203	0x3dae3a11	0.08507169
204	0xbc1b00e9	-0.009460666
205	0xbd01ade2	-0.03165997
206	0x3d07f26a	0.03319017
207	0x3ca08aea	0.01959749
208	0x3daa4d8d	0.08315573
209	0xbc5d070d	-0.013490451
210	0x3b2bc840	0.0026211888
211	0x3c1a51d4	0.009418923
212	0xbd3d5d0d	-0.04623132
213	0xbd837feb	-0.06420883
214	0xbd777458	-0.06041369
215	0xbd47954e	-0.048726372
216	0x3d373b5d	0.044734348
217	0xbd8eb0fd	-0.069673516
218	0x3b75ceac	0.003750722
219	0xbcbc5b40	-0.02299273
220	0x3cf716c1	0.030162217
221	0xbb1c1367	-0.0023815276
222	0x3c20cd14	0.009814519
223	0x3d98fbd1	0.07469905
224	0xbd8dbb19	-0.06920452
225	0x3cd8fa22	0.02648646
226	0xbd01cbdd	-0.03168856
227	0x3cc0100c	0.023445152
228	0xbd122c52	-0.0356868
229	0x3d84ed34	0.064905554
230	0xbc833aed	-0.016019309
231	0x3d7943cb	0.060855668
232	0xbc0483d2	-0.008088069
233	0xbd530cbc	-0.051525816
234	0x3ce63281	0.028100254
235	0x3dd8239e	0.105536684
236	0xbd926390	-0.07147896
237	0xbbadd917	-0.00530542
238	0x3d784eab	0.0606219
239	0xbd2aa282	-0.041658886
240	0xbb08cfbf	-0.002087578
241	0xbdacc745	-0.08436445
242	0x3cacd250	0.021096379
243	0xbce91895	-0.028454104
244	0xbd7f6cdf	-0.062359687
245	0xbda72504	-0.08161357
246	0xbd7bf6fe	-0.061514847
247	0xbcb0a0ac	-0.02156099
248	0x3d523ff2	0.051330514
249	0x3dc55370	0.09635055
250	0xbd3edab2	-0.046595283
251	0xbd2c772e	-0.042105846
252	0x3d7200de	0.05908286
253	0x3cc83135	0.024437526
254	0xbd53c38f	-0.05170017
255	0xbd3ebbe6	-0.046565913

lstm.bias_hh_l0 f4 [512]
0	0xbd8f5511	-0.06998647
1	0xbccdc384	-0.025117643
2	0xbc7578a3	-0.014982375
3	0x3c9d8b1d	0.019231373
4	0x3dbaa9c3	0.09114411
5	0x3cb66b5e	0.022267994
6	0x3dbe1a66	0.09282379
7	0xbc537c66	-0.012908077
8	0xbcaef954	-0.021359123
9	0xbd08394b	-0.033257764
10	0xbafa84e2	-0.0019113088
11	0x3ddc75ce	0.10764657
12	0xbcebd9ce	-0.02879038
13	0xbd09fb3c	-0.03368686
14	0x3df80739	0.121107526
15	0xbcb18bcc	-0.021673106
16	0xbc81c172	-0.015839312
17	0x3dbbaa9b	0.091634
18	0x3ceca507	0.028887285
19	0x3d2bfbf3	0.041988324
20	0xbcc14c2a	-0.023595888
21	0x3d167c73	0.036739778
22	0x3db825e2	0.089916006
23	0x3bf48ff3	0.007463449
24	0xbd2faf0d	-0.04289155
25	0x3dabbf1d	0.08386061
26	0x3d8ce9b9	0.068805166
27	0xbd00d89e	-0.031456582
28	0x3d8c5c8a	0.06853588
29	0x3d1e8999	0.038705442
30	0xbda0d651	-0.078533776
31	0x3dbb45ca	0.091441706
32	0x3db102ff	0.086431496
33	0x3d6a17c5	0.057151575
34	0x3b3256a1	0.002721228
35	0x3d53d368	0.051715285
36	0x3d83b14b	0.064303
37	0x3dbe26e3	0.09284761
38	0x3bb0c812	0.005394944
39	0x3bd128a1	0.006383017
40	0xbc7af148	-0.015316315
41	0x3de734d1	0.11289371
42	0xbc2f437c	-0.010697242
43	0xbd9fe9c8	-0.07808262
44	0xbcf9e051	-0.03050247
45	0xbd790516	-0.060795866
46	0x3d1d6548	0.038426667
47	0x3cff379a	0.031154443
48	0x3d781be6	0.06057348
49	0x3ccbf29f	0.024895964
50	0x3db18495	0.08667866
51	0x3db5411b	0.088503085
52	0x3c57c13a	0.013168627
53	0xbccf1539	-0.025278674
54	0xbd6e3a28	-0.05816093
55	0x3d6619c1	0.056176905
56	0xbcf9431b	-0.030427506
57	0x3da1c25f	0.078984015
58	0xbbe09d5a	-0.0068546953
59	0xbd09a76c	-0.03360693
60	0xbd5c50f7	-0.05378815
61	0xbdbbb6a6	-0.09165697
62	0xbc385d78	-0.011252753
63	0x3def1f8c	0.11675939
64	0x3da90cd2	0.082543984
65	0xbc67c700	-0.014146566
66	0x3cf45934	0.029827692
67	0xbd2de843	-0.04245783
68	0xbb9d5a0a	-0.0048019933
69	0x3dfa76a6	0.12229662
70	0x3da39d27	0.07988959
71	0x3d18b92a	0.03728596
72	0x3d9c7ef8	0.07641405
73	0x3cf465b9	0.029833661
74	0xbcc98f79	-0.024604546
75	0xbd7cc0c4	-0.061707273
76	0x3cee0318	0.02905421
77	0x3bb05348	0.0053810216
78	0xbcfb3f4d	-0.030669833
79	0x3dbcd99f	0.092211954
80	0xbc73ed3c	-0.014888104
81	0x3d914ce8	0.07094747
82	0x3d7ac314	0.061221197
83	0xbce522b5	-0.027970651
84	0x3d12b181	0.035813812
85	0x3d8cb69b	0.06870767
86	0xbd906c40	-0.07051897
87	0xbd9fabd3	-0.07796445
88	0x3ba5cc7b	0.0050597764
89	0xbcc0a94c	-0.023518227
90	0x3d690d63	0.056897532
91	0x3d7cd8a0	0.061730027
92	0xbdba26b2	-0.09089412
93	0x3d7fca33	0.06244869
94	0x3dccf324	0.10007313
95	0xbceedcf5	-0.029158095
96	0x3d890861	0.06691051
97	0xbdd765a6	-0.10517435
98	0x3c2d3965	0.010572766
99	0x3dac9cc5	0.08428339
100	0x3c6a0d11	0.014285342
101	0xbd1944fc	-0.037419304
102	0x3d840e22	0.06448008
103	0x3cb81296	0.0224698
104	0x3db819eb	0.089893185
105	0x3b084360	0.0020792112
106	0x3a1c854f	0.0005970792
107	0xbd0368f8	-0.032082528
108	0x3d24a983	0.04020072
109	0x3d90096f	0.07033049
110	0x3c5cf129	0.013485231
111	0x3d7a7541	0.06114698
112	0xbd304c07	-0.043041255
113	0xbd0bc91b	-0.034127336
114	0xbd592f2d	-0.053023506
115	0xbd994ee3	-0.074857496
116	0x3dd1a614	0.10236755
117	0x3dc84b40	0.09779978
118	0x3d8e2c87	0.06942087
119	0x3c74a47b	0.014931793
120	0x3dcf929e	0.10135387
121	0x3d344ea5	0.044020314
122	0x3d42483a	0.047432162
123	0xbd38f747	-0.045157697
124	0x3db7606a	0.089539364
125	0x3b16365c	0.0022920584
126	0xbace22be	-0.0015726907
127	0x3d2e43f6	0.04254528
128	0xbd727550	-0.05919391
129	0x3d7bd0d4	0.06147845
130	0xbc63d136	-0.01390486
131	0x3d0ded86	0.034650348
132	0x3c06fd05	0.0082390355
133	0x3baf5f26	0.0053519187
134	0x3bf5057c	0.0074774604
135	0xbbd3fad5	-0.0064691105
136	0x3d01d33f	0.0316956
137	0xbd3da90c	-0.046303794
138	0x3c91fc0e	0.017820384
139	0xbc75bb62	-0.014998289
140	0x3d8255d8	0.0636403
141	0x3dd1bf47	0.102415614
142	0x3d2332ed	0.03984349
143	0xbdbc8657	-0.09205311
144	0x3d5f4aad	0.054514576
145	0xbd69723f	-0.05699372
146	0xbc5c2956	-0.01343759
147	0x3cc3ff0d	0.023925329
148	0x3d7d53e2	0.061847575
149	0xbd7e6b3c	-0.062113985
150	0xbd2f73cd	-0.042835046
151	0x3d2d9c12	0.04238517
152	0x3d5c1392	0.0537296
153	0x3d9462ef	0.072454326
154	0x3ccdb11a	0.025108863
155	0xbcbc7cef	-0.023008792
156	0xbd019495	-0.03163584
157	0xbc2c67a1	-0.010522754
158	0x3d8a4752	0.067518845
159	0x3da0d372	0.0785283
160	0x3dc7b3f4	0.0975112
161	0x3cf907b6	0.030399185
162	0x3c1ecf8c	0.009693038
163	0x3c8815b7	0.016611917
164	0xbd14cbbd	-0.036327112
165	0x3d07d358	0.033160537
166	0x3d55d712	0.05220706
167	0x3d84883d	0.06471298
168	0x3cb805f9	0.022463785
169	0xbc9185e9	-0.017764049
170	0xbd5cd3d5	-0.053912956
171	0x3daf0288	0.08545405
172	0x3d65f251	0.056139294
173	0xbcc01575	-0.023447732
174	0xbd82dfb4	-0.06390324
175	0xbc9dba09	-0.019253748
176	0x3d0ccd96	0.03437575
177	0xbca43258	-0.020043537
178	0x3d5c3bcd	0.053767968
179	0x3d294830	0.04132861
180	0x3ceead74	0.029135443
181	0x3dc363d3	0.09540524
182	0x3d26038f	0.040530737
183	0xbcb78cd7	-0.022406025
184	0xbca13572	-0.019678805
185	0xbd4bbddc	-0.04974161
186	0x3c8f4cf3	0.017492747
187	0x3d420169	0.047364626
188	0x3da856dd	0.08219693
189	0x3ae306f9	0.0017320804
190	0xbd649a99	-0.0558115
191	0xbd149d8f	-0.036283072
192	0xbdaeb8af	-0.08531319
193	0x3d9531f0	0.072849154
194	0x3d5d01ca	0.053956784
195	0xbd9165b2	-0.07099475
196	0xbc779021	-0.015110047
197	0xbd0895a9	-0.033345852
198	0x3c63b124	0.013897214
199	0xbd7cff75	-0.06176706
200	0xbd648f2b	-0.055800598
201	0x3db31851	0.08744872
202	0xbc6d9a71	-0.014502154
203	0x3dadc5d3	0.084849976
204	0xbd95e528	-0.07319099
205	0xbd46a152	-0.04849369
206	0xbd660ab9	-0.05616257
207	0xbd636c8a	-0.055523433
208	0xbd332287	-0.0437341
209	0xbc83e23d	-0.01609909
210	0xbd3422a4	-0.04397835
211	0x3d999dcc	0.075008005
212	0xbd9b177a	-0.07572837
213	0x3dc537c7	0.09629779
214	0x3d10620a	0.035249747
215	0xbd454d5e	-0.048169486
216	0xbd2600fd	-0.040528286
217	0xbc81d5a8	-0.01584895
218	0x3bf05d12	0.0073353136
219	0x3d5f43ea	0.054508127
220	0xbda1e197	-0.07904356
221	0xbd6b7b51	-0.05749065
222	0x3dbcf862	0.09227063
223	0x3c835497	0.016031547
224	0xbc8e82ba	-0.01739632
225	0xbd98987d	-0.0745096
226	0x3dbb3721	0.091413744
227	0x3d17fe18	0.037107557
228	0x3cfd3d63	0.03091306
229	0x3da729d1	0.08162273
230	0xbcd26ae1	-0.02568573
231	0x3d803e92	0.06261934
232	0x3b9957a4	0.004679637
233	0x3d290a86	0.0412698
234	0xbcccdf9b	-0.025008967
235	0xbd314c39	-0.043285582
236	0x3d8711f3	0.065952204
237	0x3d1f1286	0.038836025
238	0xbd13ea46	-0.036112092
239	0xbc86fb6a	-0.016477305
240	0x3c216bef	0.0098523935
241	0x3d7ce6d7	0.061743584
242	0x3ccc13e1	0.024911823
243	0xbceebc97	-0.029142661
244	0xbcd987ce	-0.026554015
245	0x3d34dcab	0.044155758
246	0x3d376ae0	0.04477966
247	0x3d15490e	0.036446624
248	0x3d6ca5d2	0.057775326
249	0x3d8b3d8a	0.06798847
250	0x3d26f120	0.0407573
251	0x3cdbd620	0.026835501
252	0xbd87defb	-0.06634327
253	0x3d991d1e	0.07476257
254	0xbd21b227	-0.03947654
255	0x3d4067ce	0.046973996

fc.weight f4 [1, 128]
0	0x3d053b5e	0.03252732
1	0x3d247a69	0.040155802
2	0x3df88e85	0.121365584
3	0x3db1f780	0.08689785
4	0x3d5e19a0	0.054223657
5	0xbd1897a2	-0.037253983
6	0x3dea44d6	0.11438911
7	0xbdfb2c26	-0.1226428
8	0x3e20047b	0.15626709
9	0x3e2f04e9	0.17091717
10	0xbd58e7c1	-0.052955393
11	0xbd5fb470	-0.054615438
12	0x3dd8a5c7	0.105784945
13	0x3de38ccc	0.11110839
14	0x3bca60fb	0.0061761118
15	0x3d7558d7	0.059899177
16	0xbdcf87e4	-0.10133341
17	0x3dc7ad93	0.097499035
18	0xbe0e5f4a	-0.13903537
19	0xbd57f989	-0.05272821
20	0x3de3baa6	0.11119585
21	0xbe1c263f	-0.15248965
22	0xbdf644d2	-0.12024845
23	0x3dbf1b86	0.093314216
24	0x3dcad652	0.099041596
25	0x3e09d1ab	0.13458888
26	0xbe01b8de	-0.12668177
27	0xbd86ac4a	-0.0657583
28	0xbcc4542a	-0.023965914
29	0xbe06374d	-0.13107033
30	0x3db0e965	0.086382665
31	0xbd6397de	-0.055564754
32	0x3dc6aac6	0.09700541
33	0xbd82d710	-0.06388676
34	0xbddfec6b	-0.10933765
35	0xbe02ddbb	-0.12779896
36	0x3ca44aad	0.02005514
37	0x3d12f88b	0.03588156
38	0x3d0db972	0.034600683
39	0x3d9f7088	0.077851355
40	0xbe022ed1	-0.12713172
41	0xbde6ec9a	-0.11275597
42	0xbdb44edf	-0.08804106
43	0x3dbdf1ba	0.09274621
44	0x3c5feac5	0.013666813
45	0x3d53d154	0.051713303
46	0xbe01a4bb	-0.12660496
47	0x3d981b3d	0.0742707
48	0xbdaa83b8	-0.083259046
49	0x3dda222c	0.10651049
50	0xbda7da45	-0.081959285
51	0x3d317da2	0.043332703
52	0x3d54ead3	0.05198176
53	0x3d2a8443	0.04163004
54	0xbde72c89	-0.11287791
55	0x3dcff502	0.101541534
56	0x3d27e986	0.04099419
57	0x3dd3f14a	0.103487566
58	0x3d65d31e	0.05610954
59	0xbdde3fbd	-0.10852001
60	0x3db8007f	0.089844696
61	0x3ce15fe1	0.027511539
62	0x3dce0d71	0.100611575
63	0x3ddada79	0.106862016
64	0xbde67274	-0.11252299
65	0x3e0dcb54	0.13847095
66	0x3e01341b	0.12617533
67	0xbd3f58c8	-0.046715528
68	0xbd376f2f	-0.044783767
69	0xbda3c1ef	-0.07995974
70	0xbe1e2e2a	-0.15447298
71	0xbd317708	-0.043326408
72	0x3def137a	0.11673637
73	0x3e0dae43	0.13836007
74	0x3c1932f0	0.009350523
75	0xbd609224	-0.05482687
76	0x3c828be0	0.015935838
77	0x3d823046	0.06356864
78	0x3d843061	0.0645454
79	0x3dffb860	0.124863386
80	0x3def727e	0.116917595
81	0x3d08b079	0.033371422
82	0xbd70e16b	-0.058808725
83	0x3dd954ca	0.10611875
84	0x3d491e09	0.04910091
85	0xbe017309	-0.12641539
86	0xbd75cd97	-0.06001052
87	0xbd33783c	-0.043815836
88	0x3d85d487	0.06534677
89	0xbe1e0ca6	-0.15434512
90	0x3d53940d	0.051654864
91	0xbe00f80e	-0.12594625
92	0x3c6fe581	0.01464212
93	0x3dcaf44d	0.09909878
94	0xbda52cfa	-0.08065219
95	0xbbac27f8	-0.005253788
96	0xbde97e9e	-0.114011034
97	0xbc9f509b	-0.019447615
98	0x3e2834c0	0.16426373
99	0xbda4c30c	-0.08045015
100	0x3dda25be	0.1065173
101	0xbda616c0	-0.08109808
102	0x3d9f28a2	0.07771422
103	0x3e06d207	0.13166057
104	0x3e07d21d	0.13263746
105	0x3e2ccf70	0.16876006
106	0x3dfd6e34	0.12374535
107	0xbda59fe8	-0.0808714
108	0xbda7a038	-0.08184856
109	0x3d6e6cea	0.058209337
110	0x3e0281a3	0.12744765
111	0xbdcbe5ce	-0.09955941
112	0x3d4798fa	0.048729874
113	0x3d27f795	0.041007597
114	0x3e061864	0.13095242
115	0xbc3a4670	-0.011369333
116	0xbe038d77	-0.12846933
117	0xbd86a3bd	-0.06574199
118	0x3db7f107	0.08981519
119	0x3dd0d6c0	0.1019721
120	0xbddad081	-0.106843
121	0x3e2b18a5	0.1670862
122	0xbd236975	-0.039895494
123	0xbc871fdb	-0.016494682
124	0xbdafab05	-0.08577541
125	0xbd7cf6f2	-0.061758943
126	0xbe01d9d6	-0.12680754
127	0xbd7988ea	-0.060921587
