models/SPG model.pth (torch, 270882 bytes, 5 tensors)

lstm.weight_ih_l0 f4 [512, 1]
000000 44 8e 31 3d b7 ae a4 bd 07 bd 99 bd 1c 81 19 bd
       0.043348566 -0.08041137 -0.07506757 -0.037476644
000010 2e 56 68 bd f3 51 d0 3d e3 6b a1 bd a3 a1 2e 3c
       -0.056722812 0.101718806 -0.07881906 0.010658654
000020 2e f9 c5 bd 88 91 85 3d ab 3e 30 be f5 62 22 be
       -0.09666668 0.065218985 -0.17211406 -0.15858062
000030 5f 26 d1 3c 0e 46 ed 3c 63 2c a8 bd f3 b1 e1 bd
       0.025530992 0.028964069 -0.08211591 -0.11020269
000040 68 03 82 3c d0 7c 7a 3d 0f 21 28 3d ab d0 a9 bd
       0.015870765 0.061154187 0.041047152 -0.082917534
000050 b8 f4 6b 3d 74 92 3b 3d 51 b2 95 bc 32 19 52 bd
       0.05760643 0.045793965 -0.018273504 -0.05129356
000060 8f 9d 08 bc 48 31 12 bd b6 f3 80 bd 30 73 48 bc
       -0.008338346 -0.03569153 -0.06296484 -0.012234494
000070 8c 51 fc 3d cf 57 8c 3c 0e 3e cd 3d 01 ef 9b 3d
       0.12320241 0.017131714 0.100216016 0.07613946
000080 11 f8 f6 3d 5e ba 5e 3d 02 02 85 3d 09 d2 29 3c
       0.12059034 0.054376952 0.064945236 0.010365018
000090 15 df 4a 3a e3 79 9d bc 15 90 f7 bc d4 74 98 3c
       0.000773893 -0.01922316 -0.03022007 0.018610395
0000a0 e7 52 05 3e da fb 68 3d 76 b8 c5 bd 89 ca 11 3e
       0.13019906 0.05688081 -0.09654324 0.14237417
0000b0 38 8c 5f 3d 54 9f 2a 3d 52 d4 e9 3d 82 b5 90 3c
       0.054577082 0.041655853 0.1141745 0.017664675
0000c0 b1 f0 27 3d 61 f8 91 bd d9 cd 7f 3d e9 2f c0 3d
       0.041001026 -0.07127453 0.06245217 0.09384138
0000d0 f8 e6 a2 3d 4a a3 97 bb d2 ca 37 bd d5 01 04 3e
       0.0795421 -0.00462762 -0.04487116 0.12891324
0000e0 33 97 ec bc 79 92 55 3a 40 26 8c 3c da 93 06 bd
       -0.028880691 0.00081471313 0.017108083 -0.032855846
0000f0 84 23 f4 bd 98 60 c3 bd 84 14 2e 3d 73 26 bb ba
       -0.119208366 -0.09539908 0.042500034 -0.0014278427
000100 2b 8b c7 bd 42 26 46 3c 1b 07 93 3d 53 94 94 bb
       -0.09743341 0.012094082 0.0717909 -0.004534283
000110 ca 45 a8 bd 78 16 79 3c 27 7c dd bc f5 f3 a0 3c
       -0.08216436 0.015203111 -0.02703674 0.019647578
000120 b1 ad b4 bd 03 35 ca 3d 93 fe 03 3e 24 0a 0d bb
       -0.088221915 0.098733924 0.12890081 -0.0021520937
000130 59 da 9f 3c fd ce 7c 3d b9 a1 5e ba f8 1a be 3c
       0.019513296 0.061720837 -0.00084927265 0.02320622
000140 78 74 df 3d 54 ca 53 bd 48 92 13 bd f8 3b 28 bd
       0.109108865 -0.051706627 -0.036028177 -0.041072816
000150 59 20 5a 3d 3f 3b 5f bd 55 0e ea 3d a0 aa a0 bd
       0.053253505 -0.05449986 0.11428515 -0.07845044
000160 1f 96 88 bc 34 ef c5 3d 20 8e 87 3d e9 51 67 3d
       -0.016673146 0.09664765 0.06618905 0.0564746
000170 f9 a7 e4 3d 29 13 24 bc a0 a3 fb bc fb f7 47 bd
       0.11164851 -0.010014334 -0.03071767 -0.048820477
000180 81 57 4c 3d d7 b6 df bc 06 90 c1 3c 4d 26 58 bd
       0.049888138 -0.027308865 0.023628246 -0.0527709
000190 22 94 ec bc ec b4 33 3d 7a 69 ad bc ea 3e 19 bc
       -0.028879229 0.043873712 -0.02116846 -0.009353379
0001a0 05 18 29 be aa 53 46 3d 78 4d 7e bc b7 57 0a 3e
       -0.16513069 0.048419632 -0.0155214 0.13510023
0001b0 d7 19 98 bd 49 1c c1 3d c0 58 b6 bd 1a 0d f4 3d
       -0.074268036 0.09429223 -0.089036465 0.119165614
0001c0 23 db be 3d 21 24 3b 3d e9 42 f8 3c 1d 8d 7e bd
       0.09319141 0.045688752 0.030305343 -0.062146295
0001d0 0e 69 d7 bc 5a c9 bf 3d e1 db 1e 3d 26 25 0c 3c
       -0.026295211 0.09364577 0.03878391 0.008553779
0001e0 5d 96 5d bd 1a 2a b6 3d 9f b5 bd bd 9e ec 86 3d
       -0.054098476 0.08894749 -0.09263157 0.065881
0001f0 14 93 fa bd 98 0a f6 3d 51 21 f7 3d 6a 9d 9e bd
       -0.12235084 0.12013739 0.120669015 -0.07744868
000200 00 1b 9b 3c a9 de 95 bd d6 3b c0 bc b7 71 3c 3c
       0.018933773 -0.0731786 -0.023466032 0.011501721
000210 6a b5 8f bd ba 14 8d 3d cd 19 a6 bd cb 39 13 bd
       -0.07017024 0.06888719 -0.0811039 -0.035943788
000220 7e 6a 7e bd 21 6e cf 3d ab a1 37 be 2d 11 28 be
       -0.062113278 0.10128427 -0.17932765 -0.16412802
000230 61 20 ae 3d 6f ba fb bd ff 97 fa 3c e3 26 7f bd
       0.085022695 -0.12291419 0.030590056 -0.062292945
000240 c1 57 16 3d 68 29 4a bd 2c b6 8b 3d 1a a9 99 bb
       0.036704782 -0.049355894 0.06821856 -0.004689348
000250 88 6b a5 3b 17 be a2 3d e1 59 67 3c 21 c1 4e be
       0.005048219 0.07946413 0.01412055 -0.2019086
000260 b3 49 7e bc 88 e6 27 3a 4c 12 1a be e8 80 2f 3d
       -0.015520501 0.0006404896 -0.15046042 0.042847544
000270 4b b2 65 3d 34 0e 8a bd e1 81 7f 3d cd 64 e8 bc
       0.056078237 -0.0674099 0.06237972 -0.028368378
000280 e4 04 b6 3d d6 45 ee 3d 79 da 1b 3e 8c ff 70 3d
       0.088876516 0.11634414 0.1522006 0.05883746
000290 09 e1 31 bd cd 8f e2 bc 9e 1c 9e bd 35 d5 95 bb
       -0.0434275 -0.02765646 -0.07720302 -0.0045725354
0002a0 15 67 96 3d 80 97 01 bd c5 d7 e2 bc aa bc fb 3c
       0.0734388 -0.031638622 -0.027690778 0.03072961
0002b0 36 de b4 bc 7b fd 46 3c 9d ea 69 3e 7d 8e 38 bc
       -0.022078615 0.012145395 0.22843404 -0.011264441
0002c0 4b 81 c3 3c 72 d2 2c 3d d0 7e 8b 3d cf d2 4c 3d
       0.023865363 0.042192884 0.06811297 0.05000573
0002d0 bf 7f 8e 3d 8c 63 fd 3c 70 c1 99 bc 6c 2f 86 3d
       0.069579594 0.030931257 -0.018768996 0.06552014
0002e0 b9 81 ad 3c f4 2a a5 bc 4f 56 7b 3d 99 58 db bc
       0.02118002 -0.020162083 0.061361607 -0.026775645
0002f0 d4 38 61 3c ec 98 58 3d 58 1a 6e bc ca 38 41 3c
       0.013746459 0.052880213 -0.014532648 0.011793325
000300 4c 9c 87 bd 19 3d 72 3d 8b a5 c1 bb 14 42 80 3d
       -0.06621608 0.0591403 -0.005909627 0.062626034
000310 e2 60 89 bd 1c 25 fc bc 8a 98 05 be 7f 1f da 3d
       -0.06707932 -0.030779414 -0.1304647 0.10650539
000320 14 1e 11 3d e0 71 ab 3c 8d 98 eb bc 47 5c bd 3c
       0.035429075 0.020928323 -0.028759265 0.02311529
000330 6b 4c 15 bc 3f a7 a9 3d 23 01 18 be ba 5a ed 3b
       -0.009112458 0.08283853 -0.14844184 0.0072434815
000340 e0 6d 04 3e 5c 0c 33 bc 06 d8 c2 3c b1 79 02 be
       0.12932539 -0.01092824 0.023784649 -0.12741734
000350 f1 b4 82 3d fe 45 08 be 49 ad b3 bc 78 18 96 bd
       0.06382168 -0.1330795 -0.021933215 -0.07328886
000360 a2 66 b1 3c 90 5c e4 3d 82 52 d4 3b 39 31 25 bd
       0.021655384 0.111504674 0.0064795623 -0.040330146
000370 d3 5f 98 3d f6 a6 99 3d ac cb a7 3d 97 b9 26 bc
       0.07440152 0.075025484 0.08193144 -0.010176084
000380 9c 06 af 3c 39 cc c6 3c f3 f2 9f 3d 24 a8 c0 3a
       0.021365456 0.024267303 0.07810011 0.0014698547
000390 84 05 4f 3d 65 2f ad 3d ee 5d 59 3d 33 99 af bd
       0.05054237 0.084563054 0.053068094 -0.08574142
0003a0 65 d7 65 bd 6a 69 4b bd da 2c 3d 3d 8e 8d 20 3d
       -0.05611362 -0.049661078 0.046185352 0.039197497
0003b0 4a 3b f3 bd a1 78 54 3d 14 47 4f bd 7d 8e ec 3d
       -0.11876543 0.051872853 -0.050604895 0.11550615
0003c0 ba 49 c7 3d d6 0f 5e bc 57 87 3e bd 17 d6 10 3d
       0.09730859 -0.01355358 -0.04651579 0.035360422
0003d0 f2 3e 0c 3d ab 66 cf bc fb bd 77 3d 04 f4 66 3d
       0.034239717 -0.02531751 0.060483914 0.056385055
0003e0 0b fa 32 bd 89 df a0 3d da b0 03 be 99 3f 7e 3d
       -0.04369549 0.07855136 -0.12860432 0.06207237
0003f0 72 c4 49 bd 18 8a fa 3d 70 4f bc 3d eb 41 b3 bc
       -0.04925961 0.122333705 0.09194839 -0.021882018

lstm.weight_hh_l0 f4 [512, 128]
000000 73 d2 f8 bc ec 91 aa 3c fc b8 1c 3d 08 9a 0a 3b
       -0.030373788 0.020821534 0.038262352 0.0021148939
000010 dc 40 9f 3d 8c b4 61 3c 1d 1c db bb 4b 20 c1 3b
       0.07776043 0.013775956 -0.006686701 0.005893742
000020 7b 3d 3a bd 2a 5c 9a bc 08 32 75 bc 6b 03 5f bc
       -0.04546879 -0.018842775 -0.014965542 -0.013611655
000030 e0 de 08 bd 71 9d 87 3c 31 44 c3 bd bb d1 fe ba
       -0.033415675 0.016554566 -0.09534491 -0.0019441167
000040 e1 d9 4b 3d 7e 59 8c bb fe f7 5a 3c d8 f4 a7 3d
       0.049768332 -0.0042831292 0.01336479 0.08200997
000050 4f 64 77 3d b9 d4 c3 3d 09 ff 5a 3d ff 6b 10 3d
       0.060398396 0.09562058 0.053465877 0.035259243
000060 ed 2b 38 bd 1a 5e a2 bd c0 da 93 bd fd de 8b 3c
       -0.044963766 -0.07928105 -0.072194576 0.017074103
000070 25 68 66 3c bb f8 ec 3c 2f 1b 71 3d 97 20 09 bc
       0.014062916 0.028927198 0.058863815 -0.008369586
000080 30 19 7c 3b f6 ec 82 bd c5 c4 9e 3c 58 a2 7f 3d
       0.0038467161 -0.06392853 0.019380936 0.062410682
000090 75 59 d0 bc e3 e9 47 3c c7 3e 84 bc 02 50 a2 bc
       -0.025433281 0.012201759 -0.016143216 -0.019813541
0000a0 ff 27 20 bc 9c b7 8c 3d a9 31 81 3d 44 4a 34 3c
       -0.009775161 0.06870958 0.063083 0.011004034
0000b0 31 d6 e4 3c a4 c1 96 3d 6e 27 4c bd 3a 7a 2b 3d
       0.027934166 0.07361153 -0.04984229 0.04186461
0000c0 cb 5e d7 3c 59 8b 1d bd 62 d3 a5 3c 21 b5 93 b9
       0.026290318 -0.03846297 0.020242397 -0.00028172976
0000d0 bb 91 a1 3c c5 ca 14 bd 23 92 8a bd 5a 17 90 bc
       0.01972281 -0.03632619 -0.067661546 -0.01758926
0000e0 31 fa 51 3c 80 bb 6a 3d 70 f5 0b bd fd e3 31 bb
       0.012815998 0.05730772 -0.034169614 -0.0027143948
0000f0 c2 b4 97 3c f9 08 e6 bc fd ff 35 3d 9c 16 2c bd
       0.01851881 -0.02808045 0.044433583 -0.04201375
000100 88 ea 08 bd 5e 9a 3d bc 9b fb a4 bd 70 e2 02 3d
       -0.03342679 -0.011572449 -0.080558024 0.03195423
000110 7a 51 c6 3d 2f 4f 95 3d 97 eb 48 bd 65 55 98 bc
       0.09683509 0.07290494 -0.0490528 -0.018595407
000120 5c 2b f2 39 27 a0 90 3d 0b ed a1 3d e3 71 a2 bd
       0.00046190142 0.07061797 0.079065405 -0.079318784
000130 fe 51 c2 bb 88 48 88 bd 92 11 4b bd aa c0 23 bd
       -0.0059301844 -0.06654459 -0.049577303 -0.03997866
000140 9f 00 88 3c 67 5b 9d 3d 2c b9 21 bc 30 c5 97 bc
       0.016601859 0.07683449 -0.009870809 -0.018526644
000150 80 59 8e bd 0f 99 82 3d 6e e7 25 bd 7c 32 05 3d
       -0.069506645 0.0637685 -0.04050391 0.03251885
000160 b8 6b 49 bc fb b4 a2 3d b7 c3 d5 3d 77 76 65 3a
       -0.012293749 0.079446755 0.1043772 0.00087533094
000170 36 f8 a1 bc b5 1f ce bd 13 8d 78 3d 1c a9 63 bb
       -0.019771677 -0.100646414 0.060681414 -0.0034738248
000180 72 44 9d bc 08 12 86 3d 98 cc a1 3c 66 39 60 bd
       -0.019197676 0.06546408 0.019750878 -0.05474224
000190 cb c6 b3 3d 1c b4 92 bd fa a8 d4 bb 1b 46 5c bc
       0.08778151 -0.071632594 -0.00648987 -0.013444449
0001a0 7f e2 27 bd be 3a b2 3d ee a2 1c 3d 14 4b 93 3d
       -0.040987488 0.087026104 0.03824132 0.071920544
0001b0 85 f1 ce 3d 34 0a 4a bd 7f 7c 5f bd 1f e7 55 bd
       0.1010466 -0.049326137 -0.054562088 -0.052222367
0001c0 f5 5f cd bd fc 16 8f bd cf c2 19 bd 28 21 2f 3d
       -0.10028068 -0.06986806 -0.0375393 0.04275623
0001d0 c5 b6 31 bd 9a 6b 27 3d 9a 1b 77 bd 4a 46 a0 bd
       -0.043387193 0.0408741 -0.060329057 -0.078259066
0001e0 79 59 60 bd f9 4f 36 bd 12 a7 bc 3d 55 aa 38 bc
       -0.054772828 -0.04450986 0.09211554 -0.011271079
0001f0 b5 21 6f bd 4d 64 68 3d 70 0b 67 bd 39 8c 08 3d
       -0.058381755 0.05673628 -0.056407392 0.03333685
000200 79 14 9e bb ac 16 58 3d 4c 1d 89 bc e3 37 47 3d
       -0.004824218 0.052755997 -0.016737603 0.048637282
000210 47 53 81 bd d7 cf d0 bd 85 fd 24 bd c7 d9 ba 3d
       -0.06314712 -0.10195892 -0.040280838 0.09123569
000220 18 0e 3b bd 06 e8 a8 bc 12 fc 4f 3c 97 92 ee bc
       -0.045667738 -0.02061845 0.012694376 -0.029122634
000230 a3 3d 37 bc 2d e2 ea bc 96 e1 82 3d 7d 50 b9 bc
       -0.011184129 -0.028672302 0.06390683 -0.022621388
000240 ab f2 4c bd ba c3 b8 bd 5c 82 5a 3d dd 48 9e 3c
       -0.050036114 -0.09021707 0.053346977 0.019321853
000250 25 09 83 bb 43 30 b5 bd 38 c0 a8 3c 0f 7f c0 3d
       -0.003998893 -0.08847096 0.02059947 0.093992345
000260 e2 b5 92 bd 9d 05 00 bd 80 ab d6 bd 03 5b b4 bc
       -0.07163598 -0.031255353 -0.1048193 -0.022016054
000270 51 70 a0 3b 9c b0 ed 3b 0b f6 87 3c fb d4 94 ba
       0.0048962017 0.0072537195 0.016596815 -0.0011354977
000280 e3 94 5b bd 28 e1 ac 3d b9 98 dc bc 5d f4 53 bc
       -0.053608786 0.08441383 -0.026928293 -0.012936679
000290 ea 95 89 bc 0e d4 90 3c e8 c5 8f 3c 22 33 35 3b
       -0.016795117 0.01767924 0.017550424 0.0027648886
0002a0 70 a1 9f 3d 37 c2 85 bd 1e 46 36 bd be 64 36 bc
       0.07794464 -0.06531184 -0.044500463 -0.011132417
0002b0 b0 eb 2a 3d 95 06 60 bd 2c 67 b7 bc fe b4 89 3c
       0.041728675 -0.054693777 -0.022388063 0.016809937
0002c0 55 76 a4 bc f9 9a 9a 3c 11 84 b1 3c f0 88 ee 3c
       -0.020075956 0.018872725 0.02166942 0.029118031
0002d0 27 0a ea 3d 25 92 41 3d 23 65 35 bc f3 81 38 3b
       0.11427718 0.047258515 -0.011071476 0.0028153628
0002e0 25 1d 5c 3c f8 78 8d 3c fa 8c 7a 3a 1e 6e f5 3c
       0.013434683 0.017269596 0.00095577503 0.029959735
0002f0 75 82 1f bc 8b a4 61 bd 95 23 50 bc 99 d2 6e 3d
       -0.009735693 -0.05508856 -0.012703796 0.05830631
000300 05 93 d9 bd e5 42 aa bd 58 2b 88 bd 8a 21 0a 3d
       -0.10623745 -0.0831354 -0.06648892 0.03372339
000310 28 01 ac 3d 20 29 35 bd 57 ba c3 bd 2b e4 3e 3d
       0.08398658 -0.044228673 -0.09557026 0.046604317
000320 dd 37 10 3d a6 22 80 3d 3a d1 47 bd 59 96 21 3d
       0.035209525 0.06256609 -0.04878352 0.039450023
000330 2f a4 8e 3d c1 18 80 bd 31 e9 a4 3b 71 67 7c 3d
       0.06964909 -0.062547214 0.0050326814 0.061622087
000340 e0 36 30 bd b7 98 77 3d 64 c3 f5 bb 86 22 45 3c
       -0.043021083 0.060448375 -0.007500099 0.012032157
000350 10 97 32 3d 7e 41 98 bd 96 6d 5b 3d 14 90 51 3d
       0.043601096 -0.07434367 0.053571306 0.051162794
000360 99 00 78 bd 86 a6 47 3c ec 87 04 bd 38 85 da 3b
       -0.060547445 0.012185698 -0.032356188 0.006668713
000370 97 7f 0e bd f4 aa 29 3c ee b2 3c 3d 5d 53 61 3d
       -0.034789648 0.0103557 0.04606908 0.055011142
000380 28 45 06 bd 79 41 d3 bd 65 32 31 3d a7 bc d2 3d
       -0.032780796 -0.10315222 0.04326095 0.10289889
000390 12 bd 54 bd 4d c8 6d 3d 69 bd 20 3c cd e5 e7 bd
       -0.051938124 0.05805235 0.009810784 -0.11323128
0003a0 91 fb d5 3d 2d a4 38 3c 75 d5 9a bc 64 cc a6 bc
       0.10448373 0.011269611 -0.018900612 -0.020361133
0003b0 0e 28 a5 3d d7 25 81 bc de 58 61 bd b1 f2 d2 bc
       0.080642805 -0.015765114 -0.05501639 -0.02575049
0003c0 dd a3 d9 bd 27 26 8f 3d 9e cc e9 3c be 42 bc bd
       -0.106269576 0.06989699 0.028539952 -0.091924176
0003d0 01 88 93 bd 88 40 0c 3b 24 d3 be 3c 31 4c 13 bc
       -0.07203675 0.0021400768 0.02329404 -0.008990333
0003e0 d0 67 2a 3c 9e 53 e5 bc d3 93 6c bd 76 0f 40 3a
       0.010400727 -0.027993973 -0.057758164 0.00073265226
0003f0 e9 11 68 bd be bd 68 bd 00 b7 7d 3d bb 32 dc b9
       -0.056657705 -0.056821577 0.0619421 -0.00041999467

lstm.bias_ih_l0 f4 [512]
000000 70 e6 2b 3d dc cd 4a 3c 46 33 0e 3e af a5 8f bb
       0.04196781 0.012378182 0.13886747 -0.0043837647
000010 a9 4e 62 3d ec 16 5b 3d 15 01 22 3d e8 78 f9 3d
       0.055250797 0.053488657 0.039551813 0.12181264
000020 e4 d4 de bc 8f 25 a3 3d 98 5d e0 3c df 29 42 3d
       -0.027201124 0.07966148 0.027388379 0.047403213
000030 f5 73 04 bd 84 19 b3 3d 1c 39 d7 bb 43 1d 00 3e
       -0.032337148 0.08745101 -0.0065680873 0.12511162
000040 d6 82 a7 bc 7f bf 4e 3d bd fd 57 bd 33 f8 60 3d
       -0.02044813 0.050475594 -0.052732218 0.0549242
000050 1e 16 aa ba fb 36 8b bd 89 02 66 3c df dc 52 bc
       -0.0012976562 -0.06797596 0.01403869 -0.012870043
000060 8e 95 1c bd c6 1b 75 3d 23 dd 6b bc cd 90 42 bd
       -0.038228564 0.05984094 -0.014395985 -0.047501374
000070 8c 5e d8 bc ae 64 73 3d a5 fc fe 3c 34 2a 0a bd
       -0.026412271 0.059422188 0.03112633 -0.033731654
000080 17 48 d6 bc 25 5c 02 3d 41 39 03 3e 35 57 5f 3d
       -0.026157422 0.031826157 0.1281481 0.054526526
000090 fa 94 3b bd f3 21 41 3c 2a e0 9d 3b 44 72 0c bd
       -0.045796372 0.011787879 0.004817982 -0.03428866
0000a0 3e ca fd bc 5f 5a 2d bd 6c ad d9 3c 10 3f f7 3c
       -0.030980226 -0.042322513 0.026571952 0.030181438
0000b0 90 04 11 bd 51 85 60 3d 3f 2a 05 3d af 88 05 3e
       -0.03540474 0.05481464 0.032510992 0.13040422
0000c0 5c ad f2 3d 4f 23 62 bd 0a f9 31 3d 0f 08 1b 3d
       0.11849472 -0.055209454 0.043450393 0.037849482
0000d0 f5 dd 03 3d be ea 48 bd c1 f9 87 bc c6 3b b2 3d
       0.032194097 -0.049051993 -0.016598584 0.08702807
0000e0 72 74 0b bc eb 05 74 3d b2 e4 05 3d c5 37 9c 3d
       -0.008511649 0.059575956 0.032688804 0.07627825
0000f0 05 0c 3b bd d3 2c 4d 3b 8d 77 cb bc 9d 84 33 3d
       -0.04566576 0.0031307235 -0.02483728 0.04382764
000100 e4 e8 9e 3d f4 41 08 3e 1b 7f c3 3d 26 1b 41 bd
       0.07759264 0.13306409 0.09545728 -0.04714503
000110 40 7e df 3d cd 3a 5c 3c 1c 87 48 3c 84 62 5c bd
       0.10912752 0.013441754 0.012239244 -0.05380489
000120 b8 19 d9 3d 33 78 4c bd 6b 22 41 3c 64 00 3b bd
       0.106006086 -0.04991932 0.011787991 -0.04565467
000130 33 ca 20 3d bf 47 dd 3c 06 17 69 bc f9 47 fd 3d
       0.039255332 0.02701175 -0.014226681 0.12367243
000140 8b e0 77 bc d6 d7 7a 3d de 35 19 bd cc c9 92 3d
       -0.015129219 0.061240993 -0.037404887 0.07167396
000150 f5 62 d5 3d 60 af 7d bc 92 4d f8 bc a4 c5 94 3d
       0.10419265 -0.015483707 -0.030310426 0.072642595
000160 ec fa bc 3d 37 02 bb 3d 16 18 ac 3c f2 0f 8a 3d
       0.09227547 0.09131282 0.021007579 0.067413226
000170 95 c2 37 3b 7e 1d bf 3c 1a f6 e3 3d 21 68 b0 bd
       0.0028039564 0.023329493 0.111309245 -0.08613611
000180 b2 7f 1e 3c 0e 18 2e bc 0e 17 a2 3d 08 09 cf bd
       0.009674 -0.010625852 0.079145536 -0.101091444
000190 fa f6 b1 3d cd cf a6 bc 04 e2 fe 3c 61 6d 85 3c
       0.08689685 -0.020362759 0.031113632 0.016287507
0001a0 ff 27 82 3d 40 ed d0 bc 06 07 ea bc f0 1e 6f 3d
       0.06355285 -0.025503755 -0.028567802 0.058379114
0001b0 39 07 a6 3d e6 38 8f bc f7 0a a0 3d 34 ba 48 bd
       0.08106846 -0.017483186 0.078145914 -0.049005702
0001c0 37 8f 7f 3d 31 fc bc 3d 05 3e 87 3d 4a 06 73 bc
       0.06239244 0.09227789 0.06603626 -0.014833042
0001d0 87 86 0f bc 38 df 74 3d 69 29 c4 bc b8 52 ef 3d
       -0.008760101 0.05978319 -0.023945527 0.11685699
0001e0 f8 1e 49 3c 4a 07 67 bd fa 28 aa bb 46 87 4f bc
       0.01227545 -0.056403436 -0.005192873 -0.012666529
0001f0 4d 6a a6 3d 97 52 38 3d cc e0 dd bc d9 7b 8f bb
       0.08125744 0.04500064 -0.02708473 -0.0043787775
000200 9c dd 68 3d e2 74 ff bc 0f 38 77 bd bc 3f 60 3d
       0.05685197 -0.031183664 -0.060356196 0.05474828
000210 2e 2e 12 3d 13 47 0d bd b1 4e 98 bc 54 1a 21 3d
       0.03568857 -0.03449161 -0.01859221 0.03933175
000220 1e f6 bf bd 34 bd 60 bd c6 b1 87 bc 5c ce 1a bd
       -0.09373115 -0.05486794 -0.016564261 -0.037794456
000230 69 78 d0 3d 17 17 7e bd 93 63 3c 3d ed 26 ef bc
       0.101792164 -0.06203374 0.0459934 -0.029193366
000240 e0 44 7f bd 48 4e ae 3c f2 5d cd 3c 32 67 dc bd
       -0.062321544 0.021277562 0.02506921 -0.107618704
000250 01 70 1e bb 1e e7 7a bb 23 20 c9 3c e6 f3 5d bc
       -0.0024175646 -0.003828473 0.024551457 -0.013546919
000260 f0 43 75 bd 26 d1 48 3c 5d c5 6c bd 1f 4b 8f 3d
       -0.059879243 0.012256896 -0.057805408 0.0699675
000270 86 0c 81 3c 45 44 10 bc 4f 42 f3 bb c5 94 17 3c
       0.015753042 -0.008805339 -0.007423676 0.009251778
000280 e1 fa c6 bb 9e 49 f1 3c 15 cd 2d ba f7 94 cf bd
       -0.0060723876 0.029454049 -0.0006629986 -0.10135835
000290 84 06 00 3d 4d 5e 7b ba 8b 77 98 bb f1 51 1a 3d
       0.031256214 -0.0009588942 -0.0046529225 0.0376758
0002a0 fe 40 82 3b af b7 95 bd d5 5a b2 bc 68 c9 99 bd
       0.003975033 -0.073104255 -0.021771828 -0.07509118
0002b0 8d 33 a3 bd 71 bd 1a bd 17 96 74 bb f3 c3 7d bd
       -0.07968817 -0.03777832 -0.0037320906 -0.06195445
0002c0 15 dd 34 3c 18 5c 17 3c 68 2f 14 3d b4 ce 45 bd
       0.011039038 0.009238265 0.036178023 -0.04829283
0002d0 8f 6f 2f 3d e8 dd ae bb 6c 31 81 bd 53 68 3f 3d
       0.042831 -0.005336512 -0.063082546 0.04673035
0002e0 49 a8 9b bd 36 24 95 3d d0 13 a0 bd c0 dd 86 bd
       -0.07600457 0.07282297 -0.07816279 -0.06585264
0002f0 47 58 16 3d 04 69 18 3c 93 dc 3c 3d 4e 0f c2 bd
       0.03670528 0.009302381 0.046108793 -0.094755754
000300 27 ff 95 bd d6 be 39 3b f9 ca 97 3d 79 e7 88 bd
       -0.07324057 0.0028342507 0.07411761 -0.06684775
000310 3c cd 92 3d a4 4e c8 bc 53 2b b7 bc d8 16 37 3d
       0.071680516 -0.024451561 -0.022359526 0.04469952
000320 56 c6 83 3d 3c 8e 1e 3d e2 b4 75 3d 65 26 89 3d
       0.06434314 0.038709864 0.059986956 0.06696776
000330 dc ad 11 bd 18 13 41 3d 46 94 8e bb 86 b6 4f b9
       -0.035566196 0.04713735 -0.0043511717 -0.00019809054
000340 74 ef d4 bc 69 e1 aa 3b a2 6e 8e bd 88 e8 55 3d
       -0.025993086 0.0052148593 -0.06954695 0.052223712
000350 79 24 40 3d 09 77 28 bc 25 a9 a3 3d c6 d8 c1 bd
       0.046909783 -0.010282286 0.07991246 -0.094651744
000360 5a aa 7b bd cd 7a 0d bd 38 1c 3b bd ba d6 62 3d
       -0.061441757 -0.03454094 -0.04568121 0.05538056
000370 69 89 87 3d 1a 7e ce bd 15 a7 15 3d 45 40 8c 3d
       0.06618006 -0.10082646 0.036536295 0.06848196
000380 75 8a 38 bd bd c9 90 bd de 50 66 bd 3e 13 03 3d
       -0.045053918 -0.070697285 -0.056229465 0.032000773
000390 97 9b 24 3d 6d bf 4e 3d ac 4d 02 3c ed ca ff bc
       0.040187445 0.050475527 0.007953089 -0.031224692
0003a0 30 82 a0 3d 63 c4 84 3d ba d3 84 3c 6c 20 16 bd
       0.07837331 0.0648277 0.01621424 -0.036652014
0003b0 ec d1 96 bc c7 2b e4 bb c2 2c ae 3c 30 ed e8 bc
       -0.018410645 -0.0069632265 0.021261577 -0.028433412
0003c0 9b 80 9e bd ef e3 69 bc 12 99 c3 3d 91 1d 4d bd
       -0.07739373 -0.014275535 0.0955068 -0.050077025
0003d0 20 7e a0 3c 40 7c 47 3d 3e 7a 0f bd b6 0e 1e 3d
       0.019591391 0.04870248 -0.03502869 0.03858825
0003e0 e7 72 b1 3d f6 10 93 3d 7e 49 27 bb 65 96 e3 3c
       0.08664494 0.071809694 -0.0025525982 0.027781675
0003f0 ff 33 97 bd 3b 50 1b 3d 9f 79 16 3d 17 5b 1c bd
       -0.07382964 0.03791831 0.03673708 -0.038172808

lstm.bias_hh_l0 f4 [512]
000000 ba 9d 8a 3d 79 19 a5 bc 56 c6 b8 3d b2 c0 97 3d
       0.06768365 -0.020153748 0.090222046 0.074098006
000010 36 cb e9 3a aa ce 99 3d ed e5 37 3d 33 47 aa 3c
       0.0017837051 0.07510121 0.04489701 0.020785904
000020 c3 92 ca 3d 15 35 2c 3d 87 12 de bc 56 49 65 bd
       0.09891274 0.04204281 -0.027108444 -0.05597814
000030 a5 5d 8f bc 35 90 84 3d b0 df 02 bd 7f d8 e8 3d
       -0.017500708 0.06472818 -0.031951606 0.11369418
000040 04 d9 5d bd a3 07 ab 3d 81 db 1f bd 3f 1f b1 bb
       -0.05416204 0.08351066 -0.039027695 -0.005405336
000050 58 fa db bb d8 a7 1a 3d 92 b8 86 bd 70 4f ef 39
       -0.006713193 0.037757725 -0.06578173 0.00045644818
000060 c0 93 a1 bc ee be 6c 3d 26 1a bc 3d 6d 7e 83 3d
       -0.019723773 0.057799272 0.09184675 0.06420598
000070 11 1a 20 3d 48 64 61 bd 2b d1 8e 3d f3 5a 9f bc
       0.03908736 -0.055027276 0.069734894 -0.019452548
000080 9b c3 e2 3d 17 c5 3c bd 3a 46 9c 3d d3 85 90 bd
       0.11072465 -0.046086397 0.07630582 -0.07056775
000090 88 10 58 3d a1 3b 38 bd ea 82 02 3d b6 f9 ec 3b
       0.05275014 -0.04497874 0.03186313 0.0072319163
0000a0 b1 ea aa bc c2 a5 46 3d 2a 4a f2 3d 8c 7d e2 3d
       -0.020863863 0.048497923 0.11830552 0.110591024
0000b0 1b ba 8f 3c 01 cb 8a bb 1f 88 45 bd e8 a9 82 3d
       0.017544797 -0.0042356257 -0.04822552 0.06380063
0000c0 ce da 27 3a e0 95 4c bd c7 58 83 3d b6 1b 17 bd
       0.0006403149 -0.04994762 0.06413417 -0.03689166
0000d0 1f 52 a3 bd 31 d4 79 bc a8 d5 84 3d c2 f1 b2 3c
       -0.07974648 -0.015248344 0.06486064 0.021843795
0000e0 be ba c7 3d fa 4d aa 3d 42 6b 85 3c 84 cc ed 3d
       0.09752415 0.08315654 0.016286496 0.11611274
0000f0 b3 f2 73 3d ee 3a 92 3d b5 6a c4 bc be d7 d7 bc
       0.059557628 0.07140146 -0.023976663 -0.026347991
000100 49 93 db bc 16 f9 c2 bb dd fe 80 bd a7 59 4b 3d
       -0.02680363 -0.0059501035 -0.06298611 0.049646046
000110 2b 1b 30 3b 54 0e 10 3d 3a 9b b6 3d 4d 01 22 3c
       0.0026871662 0.035169914 0.08916326 0.009888005
000120 0b cd 8a 3d 07 01 9d 3d b9 57 80 bc f9 40 a5 3c
       0.0677739 0.076662116 -0.01566683 0.020172583
000130 67 c6 15 bd be 94 85 bb 93 58 4b bd c0 65 a7 3d
       -0.036566164 -0.0040765693 -0.049645018 0.08173704
000140 63 65 cc 3c 38 a1 6a 3d ae 46 7a bd db eb 88 bd
       0.024950689 0.057282656 -0.06110256 -0.06685611
000150 55 0b 52 3d d1 83 9d 3d a9 67 e0 3d aa 7f a0 3d
       0.05128034 0.076911576 0.109572716 0.0783685
000160 27 9e 84 bc 57 d5 eb 3d ef 02 80 3d ab ce 82 3d
       -0.016188694 0.11515301 0.062505595 0.06387075
000170 ae 7a bf bc 47 6e fd bb 4e 6d 0e bd d1 14 05 3d
       -0.023373928 -0.0077340933 -0.03477221 0.032490555
000180 34 1d eb 3d 5e 65 d9 3c 79 24 52 3d f1 64 b3 3c
       0.114801794 0.026537593 0.051304314 0.021898719
000190 11 12 5c 3d 33 34 75 3b 22 de 42 3d a7 cd ce 3c
       0.053728167 0.0037415146 0.047575124 0.025244547
0001a0 98 18 b6 bc 19 33 1f 3c 65 48 f2 3c 59 30 0a 3b
       -0.022228524 0.0097167725 0.029575536 0.0021085946
0001b0 d2 ca 96 3a 63 0d 15 bd 36 b0 97 3a e5 9e b0 3d
       0.0011504537 -0.03638972 0.0011572901 0.08624057
0001c0 08 31 33 bd 1e 99 19 3d 8e 0c 5c 3d 4f 6d ab 3d
       -0.04374793 0.03749954 0.05372291 0.08370458
0001d0 56 bb 86 3d cb 07 c4 bc e3 b7 24 bc 2b 0f 49 bc
       0.065787 -0.023929497 -0.010053608 -0.012271683
0001e0 76 f5 af 3d 59 c5 32 bd 0e ae 1f bd 93 61 1a 3d
       0.0859174 -0.043645237 -0.03898435 0.03769071
0001f0 47 5f 02 3e 95 83 58 3d 27 78 be 3d 29 0c 9d 3c
       0.12731658 0.05285986 0.09300261 0.019170837
000200 6e 92 6d bd 41 62 98 3a c7 68 52 3d eb 06 8b bd
       -0.058000974 0.0011625962 0.051369455 -0.06788429
000210 52 7d 37 bd 09 a3 a1 3d f7 f1 86 bd 01 d7 9b 3d
       -0.04479725 0.078924246 -0.0658912 0.07609368
000220 d7 c3 7c bd cc e7 07 3d 13 fc 0b 3c 2e 2f cb 3c
       -0.061710205 0.033180043 0.008543986 0.02480277
000230 a1 b7 d4 3d 00 51 46 bd 66 ad fe bc 7a b0 bc 3a
       0.10386587 -0.04841709 -0.031088542 0.0014395856
000240 50 bf 83 bd 00 fe a2 3d 1b 68 5d 3d fc 64 63 3d
       -0.06432974 0.07958603 0.05405436 0.055516228
000250 b9 83 6a bd c8 15 f3 ba 3f bb aa bd 52 f9 4e 3d
       -0.057254527 -0.001854592 -0.083364956 0.05053074
000260 73 ae 19 3d 00 d8 c6 bc 06 e7 f7 bc 01 2f 5d 3d
       0.037519883 -0.024272919 -0.030261528 0.053999905
000270 b3 b2 28 3d 93 15 b1 bd a4 c2 93 bd 11 1f c0 3d
       0.041186046 -0.08646693 -0.07214859 0.093809254
000280 5e 37 20 3d 78 04 28 3d a7 85 36 bc 67 7e cd bd
       0.039115302 0.041019887 -0.011140264 -0.10033875
000290 00 9d a0 bd 17 07 f5 3c d7 db 9a bd d3 23 9e bd
       -0.078424454 0.029910607 -0.075614624 -0.07721677
0002a0 87 7a 68 bd af 88 7d 3d c8 e6 c2 3d 84 b6 0e bd
       -0.056757476 0.06189793 0.09516674 -0.03484203
0002b0 89 17 9d bd 60 cc 2a 3d a3 d2 8b bd 54 a3 3a 3d
       -0.076705046 0.041698813 -0.06827285 0.045565918
0002c0 1f 03 da bc 99 22 a8 bd a6 a8 8e 3c e3 00 18 bc
       -0.026612816 -0.08209724 0.017414402 -0.009277555
0002d0 af e7 2f bd c8 a9 56 3d bf a3 f3 bc a1 2f 38 bd
       -0.04294556 0.05240801 -0.029741166 -0.044967297
0002e0 04 1e 46 3c 7c d9 b4 3d d1 a9 85 bd ed 43 c9 bd
       0.012092117 0.08830544 -0.065265305 -0.09827409
0002f0 5d 9a df 3a c5 b4 3d bc 10 d9 62 bc 43 4d df bc
       0.0017059554 -0.011578743 -0.013845697 -0.027258521
000300 92 b1 93 3d b1 0d 89 3d 16 8d 91 bc 65 9e 95 bd
       0.07211603 0.066920646 -0.01776747 -0.07305602
000310 27 6a 4d bd 77 90 ec bc b6 98 c5 3d 51 75 27 bd
       -0.050150063 -0.02887748 0.09648268 -0.040883366
000320 32 bb 89 3c cc 6f 38 3d 85 1e 19 bd c9 7a 1c bd
       0.016812894 0.045028493 -0.03738262 -0.038203035
000330 ef 9b a4 bb 64 66 85 3d 43 5e 6c bc 6a d6 59 3d
       -0.0050234715 0.0651367 -0.014426771 0.053182997
000340 a1 31 4e 3d 16 36 ab 3d 2f 29 b8 bd 60 57 8f bc
       0.0503403 0.083599254 -0.0899223 -0.017497718
000350 45 d4 a4 3c 6a 89 fd ba f2 4c 40 3d 82 48 20 3d
       0.02012075 -0.0019343321 0.04694838 0.03913165
000360 8e 2b 76 3d c2 24 8e 3d 11 29 5a 3d 8f 1d bc 3c
       0.06010013 0.06940605 0.05326182 0.022963313
000370 15 3b c2 3c 85 26 83 3d 28 6b c2 bc f5 0d e7 3c
       0.023709813 0.064038314 -0.023732737 0.028204897
000380 32 aa 0a 3d 18 ed 47 bb cf 44 42 3d 1c d6 ee ba
       0.033853717 -0.003050631 0.047428902 -0.0018221769
000390 5f f2 c2 3d 16 84 83 3c df 40 51 bd 06 a3 d5 bd
       0.09518885 0.016054194 -0.051087257 -0.10431485
0003a0 d0 8f 14 bb 56 d3 d1 3b 36 f5 87 3c 51 43 80 3d
       -0.0022668727 0.006403367 0.016596418 0.062628396
0003b0 51 16 6a bd c0 ff 8c bd d0 90 0b bd 5b 58 17 bc
       -0.05715019 -0.06884718 -0.03407365 -0.009237374
0003c0 1f 5b 13 3d fd 87 92 bc 6a 67 bc 3d bc 0f 98 bd
       0.03597557 -0.01788711 0.09199412 -0.07424876
0003d0 fc db 99 bc a8 cd 0f 3c 07 5b c4 3d c0 9c 72 bd
       -0.018781655 0.00877706 0.095876746 -0.05923152
0003e0 f1 6a b6 3d d0 1c 61 3d 64 7e 76 3d 1d bb 86 3c
       0.08907116 0.05495912 0.06017913 0.016446644
0003f0 99 aa 34 3d 54 35 ae 3d 48 e6 12 bd 43 b7 88 3d
       0.044108007 0.08506265 -0.035864145 0.066755794

fc.weight f4 [1, 128]
000000 d3 b5 91 3d 54 56 fd bd 27 64 12 3e c8 26 83 bb
       0.07114758 -0.123699814 0.14296018 -0.004002426
000010 90 7e 68 3d 57 a1 1e be 96 c7 39 3d 57 1b c2 bd
       0.056761324 -0.15491234 0.045356356 -0.09477871
000020 49 f8 20 3d 5b 44 10 be c5 17 07 3e ab 83 c2 bd
       0.039299283 -0.14088576 0.13192661 -0.0949777
000030 05 b8 05 be c1 cf 48 bd a7 68 0b 3e e8 6a 15 be
       -0.13058479 -0.049026255 0.1361414 -0.14591563
000040 0f de a6 bd cf 36 9c bc dc e9 96 3d 7f 2c 43 3c
       -0.08147823 -0.019069104 0.07368824 0.011912464
000050 e4 00 cb 3c 4c b7 78 3d a9 32 99 3d bf 15 06 be
       0.024780698 0.06072168 0.07480366 -0.13094233
000060 1c a3 4b 3d 0d d0 81 3d d5 07 fb 3d d6 3f 44 3d
       0.0497161 0.06338511 0.12257353 0.04791244
000070 f3 b5 ef bd 00 a0 94 3b 04 50 5a bd 4a ba 27 be
       -0.11704626 0.004535675 -0.053298965 -0.16379657
000080 12 38 13 be b0 8b db 3d 6b 73 2c be d4 46 60 bd
       -0.14376858 0.10720003 -0.16840903 -0.054755047
000090 f6 d2 e6 bd e9 6d 92 3d d9 89 3a bc 31 f1 ad 3c
       -0.11270706 0.0714987 -0.0113854045 0.021233173
0000a0 72 52 93 3d 4a 56 14 bd 25 8b 06 3e 5e bc e0 3d
       0.071934596 -0.036215104 0.13139017 0.10973428
0000b0 b0 dc 74 bb 85 8e 1c be de 60 90 bd 2b a8 95 bd
       -0.0037362985 -0.15288742 -0.07049726 -0.07307466
0000c0 28 62 00 be d2 c6 82 3d 23 c9 ea bd 0e fd 15 3e
       -0.12537444 0.06385578 -0.11464145 0.14647314
0000d0 dd 4c 13 3d 3d 69 d8 3c 5b 4a 03 bd 2f 2c 0f 3e
       0.035961974 0.026417369 -0.032053333 0.13981698
0000e0 2c f8 03 be 72 57 dd 3d 8a 73 a2 3d 3f 82 f9 3d
       -0.12887639 0.108076945 0.079321936 0.121830456
0000f0 57 fe fc 3d 2d 81 d6 3c bf db b4 3d 43 89 af 3b
       0.12353199 0.026184643 0.08830976 0.005356939
000100 c7 77 db 3d e7 7f b1 bd 67 df 7d bd 99 bf 10 3d
       0.10716205 -0.086669736 -0.06198063 0.03533897
000110 66 db dc bd f2 55 b9 bd c4 1b cb 3d cb 3b 31 3d
       -0.107840344 -0.09049596 0.09917405 0.043269914
000120 39 e6 c4 bd 90 a5 97 3d f2 2b 32 3d 65 c8 00 3e
       -0.09614224 0.074046254 0.04349894 0.12576444
000130 60 61 f0 3d 32 41 6e bd 46 d4 97 bc 02 cd 1f 3e
       0.11737323 -0.058167644 -0.018533837 0.15605548
000140 05 d9 85 bd 4f c4 9e bd ae ee d5 bd 79 be 39 bd
       -0.06535534 -0.07752287 -0.10445915 -0.045347665
000150 78 c6 8d bd f3 fc 98 3d 62 3f af 3d d3 17 2e bd
       -0.069226205 0.07470121 0.08557011 -0.04250319
000160 98 1b b1 3d 1b 54 f6 bd b8 06 25 3d 86 33 be 3d
       0.08647841 -0.120277606 0.04028961 0.09287171
000170 0a 72 fd 3d cc 2b 0f bd ae 33 08 3e 1e dc d3 bc
       0.12375267 -0.034953877 0.13300964 -0.025861796
000180 3b 94 bc bd 58 85 03 3d ce d6 91 3d 85 73 6b bd
       -0.0920796 0.03210959 0.07121049 -0.057483215
000190 f2 ba 85 bd ae 84 01 be ef 08 e4 bc 04 84 2b 3d
       -0.065297976 -0.1264827 -0.027836291 0.041873947
0001a0 42 96 77 bd ee a0 ea 3d e5 a8 05 3d bd 69 97 bd
       -0.06044603 0.11456476 0.032631774 -0.07393215
0001b0 9e 69 cd bd 1b d3 70 3d 8e 98 3a bc 71 27 8b 3d
       -0.100299105 0.058795076 -0.011388911 0.06794632
0001c0 b5 e3 1e bd ad d6 9f 3d a6 22 da 3d d2 3a 8b 3d
       -0.038791377 0.07804618 0.1065114 0.067983285
0001d0 da f6 b3 bd bf ba fa 3c 2d f0 1a be da bf ee 3d
       -0.087873176 0.030606626 -0.15130682 0.116576865
0001e0 68 34 63 3d 06 8d 87 3d 39 28 05 be 97 f5 96 bd
       0.0554699 0.06618695 -0.13003625 -0.07371061
0001f0 50 ce d0 bd 8b 93 95 bd 99 1e 99 3d 82 63 be bd
       -0.10195601 -0.07303532 0.07476539 -0.09296323
