models/TPR model.pth (torch, 799650 bytes, 9 tensors)

lstm.weight_ih_l0 f4 [512, 1]
00000000: 70c8 9cbc 3f2f c23b ec86 453c 6017 31bd
00000010: d005 3c3c d053 143e 301e a83d 674c 63bd
00000020: 77b0 2dbb 0211 573d 6b09 91bd 4e5e a83d
00000030: c421 47bc 2c6e 9b3d ad6d cd3d 132b 453d
00000040: 6559 b5bb 4e46 813d 1afd b5bd 977f 5cbd
00000050: 058f 31bd 9733 82bd b9f2 bbbd b64e 3d3d
00000060: 912b 67bd 9ff6 fabb f90d 75bd b84b d8bd
00000070: 40f6 6c3d d3f6 133e 991a be3c d06b 643c
00000080: 8a42 29bd a6ea 22bd 043c 9d3c b9f9 7a3d
00000090: 3b88 223d 03df da3d e617 59b7 6564 bb3d
000000a0: 46c2 64bd ab04 a6bd b43f 45bd c32d 863d
000000b0: 6232 203d 6faa 713d d2c6 95bd 213d bdbd
000000c0: fd17 26bc a6ec 87bd 7886 4f3d f388 02bd
000000d0: a19e 72bc 1170 423d ddd6 70ba a6a6 8dbc
000000e0: 7e63 34bd 3044 b6bd 0d53 c1bc e212 8c3d
000000f0: f408 c1bd d195 7bbb fd5b 3a3d 68bc 09bd
00000100: 4eae 423d 80b0 6bbd 4c8f dd3d b91b 3ebd
00000110: afb0 bf3c 1aa0 cbbd baf8 4f3c 3da9 12bd
00000120: cb79 d9bd 4e53 81bd 7f00 b23b 9b43 e3bd
00000130: 5b32 aabc c573 a23d 0a27 22bd 56cf 00bc
00000140: 6481 87bd e859 363c 0a63 99bd 5025 9a3c
00000150: 458a 7ebd 9547 56bc d723 5ebd 2209 a83d
00000160: 29d3 13ba 394c 20bd 752b 4d3c e1d0 9bbc
00000170: 4b5f 95bd 1e16 4ebd c748 513d 0be4 3d3d
00000180: cecd 3c3d ee74 c83c ce3f 913c db2a e6bc
00000190: 1606 e2bc 4fe2 5d3d b119 353c 058e 5cbd
000001a0: c6e8 7a3d 2be6 233d 5964 333d d5ea 73bd
000001b0: 921b 96bb bd24 a3bc d437 0e3d 0137 583d
000001c0: 9278 5b3d 0e0d 39bd 71b8 c139 191d 033c
000001d0: 93ec a9bc 42ae cdbd d373 b73a 27ab 3c3c
000001e0: 38a1 b63c 6d62 5fbd ef11 a43b 5d84 59bd
000001f0: 2197 c5bc b07c 0ebd 3634 99bd 7d21 37bc
00000200: 78ac d33d df34 06bd a8cc 2a3d de06 ad3d
00000210: 7d91 a23c 4668 2b3e 6d46 95bd 65f9 7b3d
00000220: 389b 3cbd f1e9 8a3c d8fa 53bd f24f 0a3e
00000230: a6f4 22bd a576 193e a14c 5bbc 7859 393d
00000240: b614 53bd 232e 10bd f742 003a 19bc 933d
00000250: eb30 103d 5e70 2fbd 86b8 8ebd 39a1 a73d
00000260: 46bc dc3c b291 853d d083 81bd 21a7 e4bd
00000270: 9ee0 3e3c 6e70 083e 53d5 933c fb73 26bd
00000280: 62ab 00bd 174e be3c a9ba 50bd 8150 5a3d
00000290: c071 f73c 0087 ec3d 4dec de3c be07 0c3e
000002a0: 6019 15bd e784 243d 6387 10bd c660 d6bd
000002b0: 7b13 e3bd 07e9 24bd 1f8d 18be 9396 d6bd
000002c0: ac53 db3c 62e8 06bc b4f3 30bc 4d48 9c3d
000002d0: eb0e 70bd 230d 9e3c 73a2 e7bc 2f11 a7bd
000002e0: 91ee efba 33a5 10bd 9ce2 51bd 7845 b43d
000002f0: c505 863d 1323 cd3c ef97 873d a853 283d
00000300: 32c2 7bba c997 8a3c 8c7c 5bbd f0c5 7b3c
00000310: 7e19 2bbd 93ef 12bd 8858 8f3d c366 22bd
00000320: d157 83bd a7b8 823c 1cf5 1abc cb5b 61bd
00000330: f132 fd3b cc0e 49bc 73f6 dd3c 4bd6 043e
00000340: cb31 94bd a3e5 523d 347a c4bd 5ae3 953d
00000350: a4a9 82bd 501e 833c ff4f 823d b588 8bbc
00000360: 1c78 a83d 8e12 6bbc 31d7 90bd 7a3a d33c
00000370: bf45 a2bd a65f 583d 7eea febc e40d 9e3c
00000380: 44da 90bd 57ba a4bd dd05 773d 6de3 3ebd
00000390: a87f 823d f2e4 4b3d 68d8 18bc 8776 a33c
000003a0: 8f9c 1bbd 3eb6 cbbd 8871 b63b 30cf 613d
000003b0: cca6 a93c 7286 74bb 4cf9 a9bd cbb7 e6bd
000003c0: 1d4a 863d fdc6 4dbd ed65 a7ba 0a62 233d
000003d0: d8e8 8dbd d857 cabc 767e 00bc ab51 b2bb
000003e0: 08b5 95bc 038b f8bd 8bca d73d cdd6 a9bd
000003f0: 1e3d 9fbd 9c85 16bb f8b8 02bc eb2c 2a3c
-0.019138545 0.0059260423 0.012056094 -0.043235183 0.011475995 0.14485097 0.08208883 -0.055492785
-0.0026502886 0.052506454 -0.070818745 0.08221112 -0.012154046 0.07589373 0.100306846 0.048136782
-0.0055343383 0.06312238 -0.08886166 -0.053832617 -0.043349285 -0.06357496 -0.09177155 0.046217643
-0.056438033 -0.007658794 -0.05982778 -0.10561317 0.05785203 0.14449625 0.023206042 0.01394172
-0.041323222 -0.03977456 0.019193657 0.06127331 0.0396807 0.10687067 -1.2939772e-05 0.09150008
-0.055849336 -0.08106359 -0.048156455 0.06551697 0.03911055 0.05900043 -0.073133126 -0.09240175
-0.010137555 -0.06636934 0.05066535 -0.031868886 -0.014808328 0.047470156 -0.00091872906 -0.017291378
-0.044040196 -0.088997245 -0.023599172 0.06839539 -0.09425536 -0.0038388858 0.045497883 -0.033626944
0.04752951 -0.05754137 0.10818347 -0.046413157 0.023399679 -0.09942646 0.012693578 -0.03580593
-0.10618933 -0.06314717 0.005432188 -0.11096879 -0.020775964 0.079322375 -0.03958801 -0.007861933
-0.06616476 0.011129834 -0.07489593 0.01881662 -0.062143583 -0.01307859 -0.0542334 0.08204867
-0.00056390703 -0.03913519 0.012522568 -0.0190205 -0.07293566 -0.05031406 0.051094797 0.046360057
0.04609471 0.024469819 0.01773062 -0.028096607 -0.027590793 0.054170903 0.011053489 -0.053846378
0.061257146 0.040014427 0.04379687 -0.059550125 -0.0045809234 -0.01991498 0.03472121 0.05278683
0.05358178 -0.045178466 0.00036949248 0.008002543 -0.02074269 -0.10043003 0.001399631 0.011515415
0.022293672 -0.054537226 0.0050070207 -0.053104747 -0.024119915 -0.03478688 -0.074806616 -0.011177418
0.1033563 -0.032765266 0.04169908 0.084485754 0.019844765 0.16738996 -0.07288823 0.061517138
-0.046046466 0.016957255 -0.051752895 0.13507059 -0.039784096 0.14986666 -0.013384969 0.04525134
-0.051533423 -0.03520025 0.0004892791 0.07213611 0.0352029 -0.04283177 -0.06968789 0.08185048
0.026945245 0.0652193 -0.06323969 -0.1116469 0.011650233 0.13324139 0.018046057 -0.04063795
-0.031413443 0.023230596 -0.050959263 0.05329943 0.030205607 0.11549187 0.027212286 0.13674828
-0.036401153 0.040165808 -0.035285365 -0.10467677 -0.110877 -0.040261295 -0.14897583 -0.104779385
0.026773296 -0.008234115 -0.010800291 0.07630978 -0.058607977 0.019293373 -0.028275704 -0.081575744
-0.0018305351 -0.035313796 -0.051241502 0.088023126 0.06544069 0.025041139 0.06620776 0.041095406
-0.00096038275 0.01691808 -0.053585574 0.015367016 -0.041772358 -0.035873007 0.06999308 -0.039648782
-0.06413234 0.01595719 -0.009457853 -0.05501918 0.00772702 -0.012271594 0.027095055 0.12972371
-0.0723606 0.05148853 -0.09593621 0.073187545 -0.06380013 0.016005665 0.06362914 -0.01703296
0.08226034 -0.0143476855 -0.070722945 0.02578472 -0.07923459 0.052825592 -0.031117674 0.019293733
-0.07072881 -0.08043354 0.060308326 -0.04660361 0.06372005 0.049778886 -0.009328939 0.01995398
-0.037991103 -0.09946869 0.005567733 0.05512923 0.020709418 -0.003731158 -0.08299503 -0.112655245
0.06557105 -0.0502386 -0.0012771465 0.03988842 -0.06929177 -0.02470009 -0.007842651 -0.0054418645
-0.018274799 -0.121358894 0.10536679 -0.08292923 -0.07775329 -0.002296782 -0.00797867 0.010386686

lstm.weight_hh_l0 f4 [512, 128]
00000000: f9e9 ecbc 5bb9 e1bd 6d1b a2bb 107f d6bc
00000010: 937e 933d 76be e73c 01f4 ee3c 6faf 693d
00000020: e0d0 18bd 1d97 7e3d 6bbd 293d 98c6 88bc
00000030: cf96 7fbd 4721 32bd 6bc6 bb3d 5e17 643c
00000040: a16f 2cbd 9448 8dbc 3e45 97bd fd81 ba3c
00000050: 364b 823d 7c4b 8e3d 3109 393d eafe 0f3c
00000060: d424 0f3b e53d 00bd 6ab0 333c 40fd abbd
00000070: 3117 88bd 858c 92bb ec1f 88bd e20d 9c3d
00000080: ff5e 84bd d2b6 37bd 63df 32bd b3b5 753c
00000090: 02c5 b3bd d315 47bd 7154 b1bd 7e2c 0e3d
000000a0: 35a6 8ebd a47a 83bd f014 ba3d 393a 11bd
000000b0: a6bd 093d c882 743b 657a 14bb 27c6 1bbd
000000c0: e171 a83d 6c05 4cbd f87e 16bd 0964 8bbd
000000d0: 0b31 7bbd ff24 85bd 5a4d 09bd b3ad 8d3b
000000e0: afff a23d 6d8c 3a3c 05af 47bd 2369 12bd
000000f0: 8795 a83c facd 2bbc 852a 363d b973 26bd
00000100: aad5 29bd 7735 36bd d0d1 99bd 1070 d9bd
00000110: 10cf 723d 019f ad3d 88f3 5abd eb95 063e
00000120: 32d8 47bc 5ac2 37bd 5687 debc 564e f2bb
00000130: e308 b7bd f5f9 d1bc b82d cabd 317d 76bc
00000140: b236 62bb a7e7 c5bc d9af 09bd a3a6 2b3d
00000150: f012 b03c a87d 8f3d f251 753c 5df5 81bd
00000160: f8c4 8abd 9c8c 5e3d 80b2 94bd 7982 423d
00000170: 9655 b03d 6d5e 2f3e ccc7 923d f20f 89bd
00000180: 485e a03c c3ae bd3a 03c0 91bd f3fa 9dbc
00000190: 6645 70bd 29ea 9c3d 3e91 e8bc a577 d9bc
000001a0: 3d1a 483c fc52 4f3d ced5 87bd 1d0a 5fbd
000001b0: 54e1 e93c f9c3 d9bd 3208 003d 1ba4 923d
000001c0: a08d cabb 417a b83a 5f40 2abd 4c46 a33c
000001d0: 6963 61bc 528b aebd fc4b 113c c24c 393d
000001e0: 39c7 b6bc 128a 9c3c 418c a73d 0c6a 46bc
000001f0: 354a 16bd 1e82 423b 58b4 b0bd 5aef ae3c
00000200: dbcc 58bd 4560 8c3d b55f 3fbd ec47 1eba
00000210: 8a4c 9abd c3c5 9f3c 080b 8abc d028 11bd
00000220: 40fa 62bd b51e 3cbd 9c02 153c 040e e63c
00000230: c7ec 04bd e831 94bd 1cf9 8d3d 4526 2f3d
00000240: 9ca8 953d e514 a2bc a56e 5d3d af8d 6cbd
00000250: caa0 043d 9f4f 7bbd 869b e53b c434 3f3d
00000260: 7d1c b83c b01c 863d 338f a53d cecf 94bd
00000270: 3bdd c73b ecc0 8f3d aa96 733d 5b90 4fbd
00000280: 60b4 b53d e275 403d ceb1 263d 41e4 563d
00000290: 529c 88bd c440 a93d 554f 673c 9f03 7c3d
000002a0: bfd6 babc a773 80bb 9c9a 643c 2c1c 96bc
000002b0: 49b1 34bd 78af 8d3c 023d 63bd c091 413c
000002c0: dcb8 09bd 4957 3fbd ad0a 873d 7cca a8bb
000002d0: 11cd 453d c742 c33c 759d d73c 4fbb 97bd
000002e0: d8f1 63bd 2251 69bd bda7 f83c c329 dabc
000002f0: b468 90bd 8ab3 d43c e843 b5bd 3d85 3bbd
00000300: f035 0dbd 813e 783d a8ed 133d 7f3d 1c3c
00000310: e62d ac3d dfc8 9b3d e266 8bbc 7365 1dbd
00000320: 5aa1 98bd d9e6 b03d c4b8 a73d a0db 22bc
00000330: b425 4cbd bcb6 47bc e9c1 a3bd c78b ae3d
00000340: 4b90 bcbc 8a78 503b 993b 82bd 802c 0f3d
00000350: 84c6 8dbd 920f 533d 8edf a8bd db11 573d
00000360: 9f5e 9abd 4f98 9dbd 5f45 073c d44d 38bc
00000370: 1deb 91bc 08e5 853c 5a9a 613c aa35 a1bc
00000380: d7ac f4bc 6558 98bb b34b 19bd 50df 99bd
00000390: 4f4c 6cbd d7af 883d d443 503d 4d94 8b3d
000003a0: b10d 08bd 79c6 5c3d 7c1f c4bd 9242 abbd
000003b0: 62b1 de3c 772c 89bd 9b50 4f3d c0e1 983d
000003c0: 160b f9bb 451c 80bc 8f3e ba3d 4822 09bd
000003d0: 8a5d 873d 3c1b 353c 354e 1e3d b7a5 ad3d
000003e0: 194d 92bd 5caf 543d 86c9 b93d 51f8 1abd
000003f0: a465 9ebd a1ee c7bd c297 a4bd ff35 393c
-0.02892016 -0.11021682 -0.004947117 -0.026183635 0.072018765 0.028289061 0.029169085 0.057052072
-0.037308574 0.06215583 0.04144041 -0.01669626 -0.06239968 -0.043488767 0.091687046 0.013921587
-0.042098645 -0.017246522 -0.07386254 0.022767061 0.063620016 0.06947991 0.04517478 0.008788804
0.002184202 -0.031309027 0.010967353 -0.08397913 -0.066450484 -0.0044723176 -0.066467136 0.076198354
-0.064634316 -0.044852085 -0.04367007 0.014996934 -0.08777811 -0.048604798 -0.08658684 0.0347104
-0.06965295 -0.06419876 0.09086025 -0.035455916 0.03362813 0.0037309397 -0.002265596 -0.03803077
0.08224846 -0.04980986 -0.03674218 -0.068061896 -0.061326068 -0.06501197 -0.033521034 0.004323685
0.07958924 0.011386019 -0.048750896 -0.035744797 0.020579113 -0.01048612 0.044474144 -0.040637705
-0.04146353 -0.04448458 -0.07510722 -0.10617077 0.0592795 0.08477593 -0.053454906 0.13143127
-0.012197541 -0.044863082 -0.027164143 -0.0073945923 -0.08937242 -0.025631884 -0.098720014 -0.015044496
-0.0034517464 -0.024158312 -0.033614967 0.041906964 0.021493405 0.07006389 0.014973151 -0.063456275
-0.0677585 0.054333314 -0.07260609 0.04748771 0.08610074 0.17125864 0.071670145 -0.066924945
0.019576207 0.0014471639 -0.071167015 -0.019284701 -0.058659934 0.0766185 -0.02838957 -0.026546309
0.012213287 0.05061625 -0.06632577 -0.054453004 0.028549828 -0.10633082 0.031257816 0.07160207
-0.006181434 0.001407452 -0.041565295 0.019930981 -0.013756611 -0.08522667 0.008868214 0.045239218
-0.022311794 0.019108806 0.08181048 -0.0121102445 -0.036691863 0.0029679607 -0.08628148 0.021354366
-0.05292974 0.068542995 -0.046722133 -0.0006037939 -0.0753413 0.01950348 -0.016850963 -0.035439312
-0.05541444 -0.045927722 0.00909486 0.028082855 -0.03245237 -0.07236081 0.069322795 0.042761106
0.0730755 -0.019785354 0.054060597 -0.057752308 0.032379903 -0.06135523 0.007007065 0.04668118
0.022474522 0.065484405 0.08083954 -0.07266198 0.006099371 0.07019219 0.059469856 -0.050674777
0.088722944 0.04698742 0.04069691 0.052463774 -0.06670441 0.08264306 0.014118035 0.06152689
-0.022807477 -0.003920037 0.013952877 -0.01832398 -0.044114385 0.017295584 -0.055478103 0.011814535
-0.03362356 -0.0467141 0.06593833 -0.005151091 0.04829127 0.023835553 0.026320199 -0.07408773
-0.055650562 -0.05696214 0.030353421 -0.026631242 -0.070512205 0.025964517 -0.08850843 -0.045781363
-0.034475267 0.060606483 0.03611532 0.009536146 0.08407192 0.076066725 -0.017016832 -0.038426828
-0.0745265 0.08637781 0.08189538 -0.009940058 -0.049840644 -0.012189563 -0.0799597 0.08522754
-0.023018023 0.0031810128 -0.063590236 0.034954548 -0.069226295 0.05152852 -0.08245765 0.052507263
-0.07537579 -0.07695066 0.008256285 -0.011249024 -0.017812306 0.016344562 0.01376971 -0.01967891
-0.029867573 -0.0046492093 -0.037425708 -0.075132966 -0.05768996 0.06674164 0.050845936 0.068153955
-0.033216182 0.053900216 -0.09576318 -0.08362307 0.027184192 -0.06697934 0.05061398 0.074649334
-0.0076001985 -0.01563848 0.09093963 -0.03347996 0.06609638 0.011053856 0.038648803 0.08478873
-0.071436115 0.05192505 0.09071641 -0.03783447 -0.0773423 -0.09762312 -0.08036758 0.011304378

lstm.bias_ih_l0 f4 [512]
00000000: 6559 97bd 0617 193d 4fdc ad3d 87b9 843e
00000010: 69fb a43d 9086 e33c 9b32 64bc 6240 35bd
00000020: b264 393d f69a 7cbd 4367 acbb 8022 963d
00000030: 383f ba3d 50c4 ad3d 2819 713d 4540 84bd
00000040: 34c3 b0bc 2bfd 7ebd db06 9a3d e259 233d
00000050: a756 c6bc 40d6 66bd 9204 9bbd 210d 9dbc
00000060: d9db 8a3c ef4a 81bd 271e ba3d 522e 9e3d
00000070: 1d43 103e 3418 65bd 8d24 053e d9b0 143d
00000080: a21c 51bc 95df fdbb e5dd 0b3d a6ba 8d3a
00000090: 53d0 203d 83c3 173e 9001 d33d 9500 8f3b
000000a0: e650 a03d 5397 083d ba7c ac3d 4bf3 743d
000000b0: b850 78bb db80 b93d 8fc6 5ebd 6414 123d
000000c0: b147 ae3c 9b71 d83d 4662 253d 9bea ae3d
000000d0: d233 5f3d a413 78bb 6bdf c33d 8068 973c
000000e0: f384 bc3c 32c5 b33d 33f9 ebbc b145 dc3c
000000f0: ae19 54bd 027e a1bd 6b24 ed3c f75c e33d
00000100: 7308 803d 9d71 c73c eba4 b7bb ec6b be3d
00000110: d188 203c a385 86bc 0cfa fabb 25ae c5bd
00000120: d356 6dbc 67ac 85bd a9a6 033e bf11 6fbc
00000130: fccf b03d 1454 0f3c e553 d93d bcc5 9a3d
00000140: 0d24 523d 44a0 2e3d 9de1 d4bc 34d6 6e3d
00000150: 3bf8 1b3c 71b3 ba3d 33ac c63d f4c2 833d
00000160: d442 0f3e f20d a23d c1e5 09bd 5a41 913a
00000170: efd3 993d e7fd 563e 2236 313c d993 83bc
00000180: 233d 12bd 73a0 ce3d 5080 af3d 69f0 4bbd
00000190: 4f71 043d c054 443d cd17 14bb 467d e43d
000001a0: 81ec 2cbc d051 33bd 5ad0 b83b 28c0 5cbd
000001b0: d5e1 663c 8d12 413d 5af6 693c 1773 ff3d
000001c0: db4e 943d ed1f 773d c4ea adba e1ea 47bd
000001d0: 16af 2c3d 60d7 bdbb a312 373c 7187 843d
000001e0: 8f3d c93d 291b a23d a58e 903d d3aa db3c
000001f0: 9ca2 a33c df30 813d 22fa 633d 8516 4c3d
00000200: 7a09 ca3a 7c70 2abd 00a1 453d dcf7 e0bc
00000210: 557d 863d 82cf 823c 9ac2 eebc 2130 81bd
00000220: 5e9d 8a3c 0059 a3bc 702c b9bc db63 adbd
00000230: c64a b0bc c62c 48bd a33f 7cbd d2cf 72bd
00000240: 4c15 00bd f70b a23d 6438 bcbd 959e d5bd
00000250: 67a4 e2bc 16c4 c33d 488d c8ba b5d3 e2bb
00000260: f7c1 53bc 33d6 a63d d1e7 cbbc d593 fa3c
00000270: b337 92bd cfd1 c23d acce 443c 0959 813d
00000280: ed57 bdbc 7584 773d 05c7 903d d674 07bd
00000290: 105b 61bd 9d4b c53d 5da6 41bd e9e0 533b
000002a0: 4954 4fbd 8651 f13c a1f5 abbd ec3b 8dbd
000002b0: f2e4 723c 1857 80bd 528e 483d 6979 c1bd
000002c0: 171b 2c3d 43f6 88bd 2e9e 2f3d 3178 ce3c
000002d0: f941 5cbd 4b17 8fbd 5a87 203d 00dc 113c
000002e0: 352f 8f3d 461e 2dbd ec92 02bd 9102 d5bb
000002f0: b4ab 653d 2970 99bd 80a0 0b3d 0e42 833d
00000300: df1d 773d 305d b13d 4aa9 a83b 72dc b03d
00000310: 6c3a 973d c6ef 81bd 1ef5 53bc 5b00 833d
00000320: 7a34 98bd b2ac 593d f436 d43b c153 663c
00000330: fcad c1bb 6a19 11bd 5799 e9bc 1743 ca3c
00000340: 8543 423c d108 8c3c eacb 5cbd dbaf ca3d
00000350: d340 ed3c a100 99bd c648 00bc 7c22 d1bb
00000360: 2a72 153d 2b89 82bd aac0 0cbd 89af 073d
00000370: 2826 023c 5e03 3f3d 91f1 48bd cd90 293d
00000380: 3557 f93c e7af 093c 0265 99bd 485b 13bd
00000390: 70f0 7c3d 40c1 c53d 933c 8a3d 8339 ebbb
000003a0: 392a 813d 2784 c9bb f58a eabc 9ad0 8cbd
000003b0: fc79 a5bc ece6 4cbd 4361 a03d cb8b 1e3d
000003c0: 3a8f 94bd 0fbc 54bd 0459 48bd 88ed 54bd
000003d0: ef59 84bd 6dc9 943c 0d6b 263b 2157 87bd
000003e0: 75cf 8b3d d77b c03d d5b7 38bd 95e1 203d
000003f0: 430d 9bbd f0a9 263d b7c4 cebc d8ee 993d
-0.073900975 0.037375472 0.08489286 0.25922796 0.08055765 0.027774125 -0.013928081 -0.044250853
0.045262046 -0.06167122 -0.005261333 0.07330799 0.09094089 0.08484709 0.05886188 -0.06457571
-0.021577455 -0.06225316 0.07520839 0.03988064 -0.024211241 -0.05635667 -0.07569231 -0.0191713
0.016950535 -0.063131206 0.09087782 0.07723679 0.14088102 -0.055931285 0.13002224 0.036301468
-0.012763174 -0.0077476003 0.034147162 0.0010813072 0.039261173 0.14820676 0.103030324 0.004364083
0.0782793 0.03334744 0.08422227 0.059802335 -0.003788991 0.0905778 -0.05438858 0.035663977
0.02127442 0.105685435 0.040376924 0.08540841 0.05449278 -0.0037853504 0.09564098 0.018482447
0.023012614 0.087778464 -0.02880535 0.0268887 -0.051782303 -0.07885362 0.02894803 0.11101716
0.062516116 0.024346167 -0.0056043766 0.09297928 0.009798245 -0.016421145 -0.0076592024 -0.09652356
-0.014486033 -0.06527024 0.12856545 -0.014591633 0.0863342 0.008748073 0.10611705 0.07557246
0.051303912 0.04263331 -0.025986487 0.05830975 0.009519632 0.09116257 0.09700813 0.06433669
0.13990337 0.07912816 -0.033666376 0.0011082098 0.07511126 0.20995294 0.010816129 -0.01606171
-0.035702836 0.10089197 0.085693955 -0.04978982 0.032334622 0.047932386 -0.0022597194 0.111567065
-0.010554434 -0.043779194 0.005640072 -0.053894192 0.0140919285 0.047136832 0.014279926 0.124731235
0.07241603 0.06033318 -0.0013268818 -0.048807982 0.042159162 -0.005793497 0.011173877 0.06471146
0.098261945 0.07915337 0.07058457 0.026814854 0.019975 0.063081495 0.055658467 0.049826164
0.0015414201 -0.04161118 0.048249245 -0.027461939 0.06566874 0.015968088 -0.029145528 -0.06308008
0.016920742 -0.0199399 -0.022604197 -0.084663115 -0.02152003 -0.048870824 -0.061584126 -0.059280224
-0.03127031 0.07912438 -0.09190443 -0.10430638 -0.027666284 0.09558885 -0.0015300894 -0.00692221
-0.012924663 0.08146324 -0.024890812 0.03058807 -0.0713953 0.09512674 0.012012165 0.0631581
-0.023113215 0.060429055 0.0706921 -0.033070408 -0.055018485 0.09633563 -0.047277797 0.0032330102
-0.05061749 0.029457819 -0.08396459 -0.06896195 0.014825093 -0.06266612 0.048963852 -0.09446985
0.042018022 -0.06687596 0.04287546 0.025203796 -0.053773854 -0.06986865 0.03919158 0.00890255
0.06991426 -0.0422652 -0.031878397 -0.00650055 0.056071952 -0.07492096 0.03408861 0.06409083
0.06033122 0.08660352 0.005147134 0.086357966 0.0738419 -0.06344561 -0.012936858 0.06396552
-0.07431884 0.05314321 0.0064762775 0.014058054 -0.005910633 -0.035424627 -0.028515501 0.024690194
0.011856918 0.017094048 -0.053905405 0.09896823 0.028961575 -0.07470823 -0.007829851 -0.0063822847
0.03648583 -0.06373819 -0.034363426 0.033126388 0.0079436675 0.04663407 -0.0490585 0.04139786
0.030437091 0.008403755 -0.07489969 -0.035975724 0.061752737 0.09656 0.06749835 -0.007178487
0.063068815 -0.006149787 -0.028630713 -0.06875725 -0.020199768 -0.05002491 0.07831051 0.038707536
-0.07253881 -0.05193716 -0.048913017 -0.05198434 -0.06462466 0.018162454 0.0025393397 -0.066084154
0.06826679 0.093986206 -0.04509719 0.03927763 -0.07570889 0.04068941 -0.025240285 0.07516259

lstm.bias_hh_l0 f4 [512]
00000000: a8e4 87bd 29d2 0a3d 77c3 c5bc 82e0 273e
00000010: 0935 973d 0110 eb3d 93e0 513d 64dd 1e3d
00000020: b0b7 e53d bd2d c4bc 19c4 263c 162c 243d
00000030: 39ec ec3c e4b0 483e d9df a6bc bab1 4d3d
00000040: 00be 98bd fc26 2b3d 0d98 55bd ce4d edbc
00000050: cf85 c83b 2dca d9bb 634b 573d 4fa1 d13d
00000060: bd11 d13d 632a 873d 88c9 18bd b8c1 28bd
00000070: 6bff c53d 7f1d a5bd 00d4 a33d 04fd 24bd
00000080: 7ffb 8f3d 05bf 033e 1c2a ca3d 9793 133d
00000090: 7053 a23c e652 d83d 2bb1 d83d 9cf4 e73d
000000a0: bf7f 5c3d bef3 ebbc 61b9 d23c f7e9 693d
000000b0: efb5 013d 8618 773c 8399 5f3d 68c7 8a3d
000000c0: edae 79bd 715a 473d 5299 703d e608 b73c
000000d0: b7b5 a8bc 0abc 85bc f52d 59bd 1d7a 2fbd
000000e0: 7aab c53c 4434 9d3d 9f4f cfbc 4611 5d3d
000000f0: 6518 4cbd 9627 f3bc 6dd0 313d c1b8 e83c
00000100: 25a3 d0bc 1556 b43d c3a3 9c3d 8f9a bebc
00000110: e013 c4bb a4fe 5f3d 5420 39bc 9f01 74bd
00000120: 2e20 3d3d 3f76 863d 6d77 ba3b 29f8 863d
00000130: e96d b53c a02d bb3d b712 ca3d 7d94 ed3d
00000140: 32ce ce3d 9537 e83b f69f 083c 4752 acbb
00000150: 941e c03d 2182 fabc 413d 19bd bba3 bb3d
00000160: a423 723d af63 873a ae02 9a3d 50c2 ee3a
00000170: f02b 813c cf3b 893d 30a8 5b3d 5666 8f3d
00000180: 11cc 643d 28fd ea3d 3cfd 693c bacd 263d
00000190: 8faf 833d b973 bc3d 967b 8c3d f7cf 8cbc
000001a0: f3f0 b23c 3259 10bd c8e9 9a3c bb59 ae3d
000001b0: fcc4 0dbd 0267 9f3c ac0c a13b c16f 073e
000001c0: aaff 9fbb 514a 5dbd adac 1e3d 9ec5 a1bd
000001d0: 6954 223d b8f6 60bd a78c bd3d e861 9bbd
000001e0: 2e30 c63d 9a1b bf3d f901 623d 02e7 b83c
000001f0: 0be3 b2bc 09ef 813d 9162 233d 7e9a c93d
00000200: 926b 683d ce28 4bbc c9b2 93bd 753c 0fbc
00000210: 953a 483d 184f 9fbd b150 fbbc acf1 8d3d
00000220: 329c 88bc ccb6 a6bc d4c3 0dbd b39f bbbd
00000230: 7ff2 78bd e52c b13d 02f6 633d 00a8 bb3d
00000240: 9a97 2b3c 1376 a33d 9a8e d13c 665d ef3c
00000250: 2af0 76bc 2e3f 7bbd 5b76 84bd 55d4 71bd
00000260: 7728 a63d 22e6 72bd 57b9 e53c 0f89 bd3d
00000270: 32d0 36bd 4054 413d 2beb e0ba 75fc a93d
00000280: 27a0 a73d d8ed 503c 227d df3c 5cc6 6dbd
00000290: dc87 8b3d 1718 f23d 9636 863c bac4 323c
000002a0: 3c21 5b3d ba01 15bd df3e 9b3b ffbe 29bd
000002b0: 40c5 303d 84e7 58bd fd33 92bd f49c c9bc
000002c0: 9ea0 a33d 3f98 0abd 790f babc d6a5 113d
000002d0: ff5f b4bd 5d77 1abd 8103 a73d 20a6 61bb
000002e0: 7d0c 143d 383e 79bd d56e 0f3d d1a4 b43d
000002f0: 9da6 b03d b075 a23d ad72 35bc e017 92bd
00000300: aa3a 993d c854 2f3d 8451 263d 12c6 bbbc
00000310: de3d 763c 74d3 9cbd 4a53 22bd f446 a73c
00000320: 2054 57bd 70d2 5fbd a51a 0f3d 1c9c 9fbd
00000330: aa4d 0c3d 996b 24bd 105d 87bd 3a13 c1ba
00000340: cc61 6ebd f08a 53bd 7a8a 86bd af80 d83d
00000350: 48e0 133c f197 a7bd e9be 3cbd 65bc 05bd
00000360: 93f2 0abc 9b5e 35bd 4ecd 25bd 2a18 82bc
00000370: 7269 28bc 66ae 9cbd 2250 88bd 19f7 69bd
00000380: 9a5a 74bc c11e 25bd ed2b 8bbd e5ab b53d
00000390: a799 98bd aee0 84bd cdd3 9fb9 e887 2e3c
000003a0: f74d 843d 642f 183c e617 d93c ae03 5a3d
000003b0: ffc2 5bbc cf35 d43c 52c6 98bd b799 113d
000003c0: ce31 a6bc f835 febc 2f74 a2bd 1e77 08bc
000003d0: c278 92bb 541d 203b 2dc7 e5bc dc3d a9bd
000003e0: 6251 5e3d 1a4a 0a3c 9bcd 923c d503 9b3d
000003f0: eedc 3a3d 3e89 f6bb 43df d4bc 1d1e 58bd
-0.066354096 0.03389183 -0.024141056 0.16394237 0.073831625 0.11477662 0.05123956 0.038785353
0.11216676 -0.023947591 0.010178589 0.040081106 0.028921233 0.19598728 -0.02037041 0.05021832
-0.074581146 0.041785225 -0.05214696 -0.028967764 0.006119467 -0.0066464157 0.05256213 0.10235845
0.102084614 0.065998815 -0.03730157 -0.04120037 0.09667858 -0.080622666 0.0799942 -0.040280357
0.07030391 0.12865837 0.09871313 0.036029425 0.019815177 0.105626866 0.10580667 0.113259524
0.053832766 -0.028802749 0.025723161 0.057107892 0.031667646 0.01508153 0.05458976 0.06776315
-0.060957838 0.048670236 0.058739968 0.02234311 -0.02059446 -0.016325016 -0.053022344 -0.042841066
0.024129618 0.076759845 -0.025306521 0.05397155 -0.049827952 -0.029681962 0.04341166 0.02840841
-0.025468418 0.08805481 0.076484226 -0.023267059 -0.0059838146 0.054686204 -0.0112992115 -0.05957186
0.046173267 0.065655224 0.005690506 0.065903015 0.022147136 0.09139562 0.09866851 0.116005875
0.100979224 0.007086704 0.008338919 -0.0052588317 0.09380832 -0.030579628 -0.037411932 0.091620885
0.05911602 0.0010329391 0.07520042 0.0018215869 0.015768021 0.06700861 0.053627193 0.07001941
0.055858675 0.11474067 0.014281567 0.04072354 0.064299695 0.0920176 0.0685951 -0.01718901
0.02184341 -0.035241313 0.018910304 0.085132085 -0.034611687 0.019458298 0.0049148407 0.13226224
-0.0048827725 -0.05402595 0.038738895 -0.078990206 0.03963128 -0.05492279 0.09255343 -0.075870335
0.09677158 0.093314365 0.055177663 0.02257109 -0.021836778 0.063444205 0.039888922 0.0984392
0.056743212 -0.012399865 -0.07211835 -0.008742441 0.048883993 -0.07778758 -0.030678125 0.06930861
-0.016676042 -0.020350836 -0.034610584 -0.091613196 -0.060778137 0.08651141 0.055654533 0.09162903
0.010473156 0.07981505 0.025580693 0.02921934 -0.015071908 -0.06133955 -0.06467887 -0.059040386
0.08113187 -0.059301503 0.028042478 0.092546575 -0.044632144 0.047199488 -0.0017159929 0.083001055
0.081848435 0.012752019 0.027281348 -0.0580505 0.068130225 0.11821001 0.01638345 0.010911161
0.05349849 -0.0363786 0.0047377194 -0.041441914 0.043156862 -0.052955166 -0.07138822 -0.024610974
0.0798962 -0.0338366 -0.022712456 0.035558544 -0.08807372 -0.03771149 0.08154965 -0.0034431294
0.036144722 -0.060850352 0.035017807 0.08820499 0.08625529 0.07932603 -0.011074704 -0.0713346
0.074818924 0.042805463 0.040605083 -0.022921596 0.015029399 -0.07657519 -0.039630212 0.020419575
-0.052570462 -0.05464405 0.03493752 -0.077934474 0.034253754 -0.040141676 -0.06609547 -0.0014730461
-0.058198735 -0.051646173 -0.06569381 0.105714194 0.009025641 -0.081832774 -0.046080504 -0.03265037
-0.008480686 -0.044279676 -0.040478997 -0.015880663 -0.010279046 -0.07650451 -0.06655909 -0.057120416
-0.014914179 -0.040312532 -0.067954876 0.08870677 -0.07451182 -0.06488167 -0.00030484647 0.01065252
0.06460183 0.009288643 0.026500653 0.053226165 -0.01341319 0.025904564 -0.074597016 0.035546985
-0.02028742 -0.031031594 -0.079323165 -0.008329181 -0.004469962 0.0024431543 -0.028049076 -0.08263752
0.05427683 0.008440519 0.017920306 0.0756909 0.04562085 -0.0075236848 -0.025985366 -0.052763093

lstm.weight_ih_l1 f4 [512, 128]
00000000: abf9 913c ced6 aebd 4390 173d a5be 9d3d
00000010: 0624 90bd e1d6 82bd 8ecf 37bd 5e8f 42bd
00000020: 4e6b d83a 0644 aebd 1235 c1bd 2a72 8d3c
00000030: 75e7 a23d 1819 e1bc f95c 393c 5003 bdbd
00000040: d98a 9bbd 7d9f c73c f7ab 06bd c8cd bd3c
00000050: e161 813d 6c34 d2bd 5d93 123a 7cea 70bc
00000060: fca2 f3bc 958c a3bc d128 9c3d 7223 723d
00000070: 3e25 8c3c 1b0f d9bd fc4e 4bbc c47a 2a3d
00000080: 1bbd 863d 9465 6ebd 95e5 29bc b5f1 9f3d
00000090: 38b1 bcbd 556a 613d 72c2 963c 0360 603c
000000a0: e0e3 213d d4ab b4bd 40ae 76bc 8fba c33d
000000b0: f843 febc a05e c0bd 1df7 c03d fe6c 9b3d
000000c0: e22d 3f3c fb30 a13c c1f7 b23d e786 663b
000000d0: 93a1 9dbc da50 e0ba 5bbe c6bc c5ef afbc
000000e0: 48d3 ce3b df05 a93c 9142 c23c f3c6 0fbc
000000f0: 3f05 833c 517e d2bc d09d 163d b049 373d
00000100: b2bf e7bb 2d6e 5cbd 75d2 8fbd 23fb b1bd
00000110: bf14 523d 1644 3a3b e1d0 7abd 0521 913a
00000120: 39bd 083a be75 a2bd 5123 b93d 1706 c1bd
00000130: cf6b 63bb dd4c 97bc 2477 373d 1bf6 6cbd
00000140: 6c4f 9bbb fbe1 1b3d 2505 8ebd 5bd2 45bb
00000150: 347f 57bd 15bb b6bd 09d9 e0bc 91ca 533d
00000160: a9df c9bc 72ce ddbd c798 493d ca4f 283d
00000170: 0591 18bd 65b1 74bd f591 ffbc c877 84bd
00000180: 57f9 523c 3a07 7f3c 732b 263d cfff 83bd
00000190: a11f babd 8d04 c93d f0d4 0a3d 46a8 ae3d
000001a0: d382 463c 5609 53bd bc81 41bd 755c e83a
000001b0: 6055 40bd f5e3 133d e552 99bd c1c2 53bd
000001c0: 36a6 573d aa89 d8bc 3a05 ac3d c560 dc3c
000001d0: d2aa 713d d2e2 743d 96a8 cfbd 1794 5b3d
000001e0: 165c 9d3d bb5c e9bc 0239 ac3d 1de3 07bc
000001f0: f3c7 5ebd 68c0 a0bd 1049 19bd a59d 4dbc
00000200: e9be 043d 8b6f d13d 4769 6fbc d3e9 603d
00000210: a6d9 1f3d eb6c 063d 00a6 51bd a7b1 983b
00000220: 7a39 e83b 2562 98bd 1762 17bd 25f3 aa3d
00000230: d219 5cbc d38a 8c3b 9199 e7bc 3b49 a13d
00000240: dd00 273d 97e8 84bd fa38 03bc bb6a 0a3c
00000250: 4a30 dc3c 7494 043c afef ab3c 3d6d 483c
00000260: 376e 6e3d 5b45 0ebc f9dc a0bd 1131 933d
00000270: ead0 7c3d 3409 ef3c af44 55bd c06a cf3c
00000280: 6def 81bd 61f4 9e3c ad97 c33c 45ef 243d
00000290: 8963 91bd 70cb ca3d c9ce 95bc 05c7 053d
000002a0: 6e69 63bd 63f4 963b 75f0 aabd 5914 a5bd
000002b0: cbc2 a7bc 131c a03d 34c2 dcbd 7e2d b63a
000002c0: 82e1 b43c 3591 8ebd 236e 813d 2618 a93c
000002d0: eedd 4a3c 75f0 8c3d ed84 023c a890 e0bc
000002e0: efb5 8c3d fc5f 4d3d 6d6a df3c f2d2 8b3d
000002f0: 2336 803d 453d c6bc 9c8f 883d e827 70bd
00000300: bafb 84bc 97a3 fb3c ba7c 4cbd 6c6d 50bc
00000310: d45c 7abc 3417 493c c064 58bc d81e 503d
00000320: ce60 cb3d 8378 843d 6116 1a3d 4d47 423d
00000330: 6121 883d b2f7 763d 51bb 9d3d 84b8 033d
00000340: 20bb a6bd d378 943d 6a48 eebc 1e27 863d
00000350: 4821 40bd 46f1 96bc 7f1e 9dbd d55b 35bd
00000360: cd20 213d d1a0 c03d fcd0 44bd cfb9 cd3c
00000370: 1e61 943d 2d9c 85bd 965a 8f3d 080e 063d
00000380: c69c aabb 9d9a 3abd 082f e5bc b43a 74bd
00000390: f123 71bd e1c7 8b3d b053 bdbd 8033 83bd
000003a0: cac3 a13b 47c8 a73d e296 103b da9d b03d
000003b0: c0ec bcbb 7d70 7ebd 1920 2f3c feac 2b3d
000003c0: 6c4b d5bc 84d5 0abd 901b efbc c9eb 5ebd
000003d0: ed58 a538 4dd7 c63d a7be 513d ba1c 8ebd
000003e0: 44bb 92bd 6013 e23c e1de 45bc 042d 683c
000003f0: 2cdd 05ba 848e 55bd 60b3 833d add0 82bd
0.017819246 -0.085370645 0.037002813 0.07702378 -0.07038121 -0.06388641 -0.044875674 -0.047500007
0.0016511471 -0.08509068 -0.094339505 0.017266352 0.07954303 -0.027477786 0.01131367 -0.092291474
-0.075948425 0.024368042 -0.032878842 0.023169413 0.06317497 -0.10263905 0.0005591417 -0.014704343
-0.029740803 -0.019964496 0.076249726 0.059115835 0.017107602 -0.10598584 -0.012408968 0.041620985
0.06579038 -0.05820234 -0.010369678 0.07809774 -0.09213489 0.055033047 0.018403266 0.013694766
0.03952396 -0.08821836 -0.015056193 0.095570676 -0.03103827 -0.09393048 0.09422133 0.07589148
0.011668654 0.019676676 0.087386616 0.0035175623 -0.019242084 -0.0017113939 -0.02426069 -0.021476636
0.006311808 0.020632682 0.023713382 -0.0087754605 0.015993712 -0.025694998 0.036771595 0.04474801
-0.0070724124 -0.05381601 -0.07022563 -0.08690479 0.051289316 0.002842193 -0.06123436 0.0011072463
0.00052161847 -0.07932614 0.09039939 -0.0942499 -0.003470171 -0.018469268 0.044791356 -0.057851892
-0.0047396924 0.03805731 -0.06934575 -0.0030185196 -0.052611545 -0.08922402 -0.02744724 0.051706854
-0.024642782 -0.10830392 0.049217965 0.041091718 -0.037247676 -0.05973949 -0.031197527 -0.06468159
0.01287683 0.015565688 0.04056878 -0.06445276 -0.09088064 0.09815321 0.03389448 0.08528189
0.012116152 -0.051522575 -0.047242865 0.001772775 -0.04695642 0.03610607 -0.07486514 -0.051699404
0.052648745 -0.02643283 0.083994344 0.026901612 0.059000798 0.059786625 -0.10139577 0.053608026
0.076835796 -0.0284866 0.08409311 -0.008293894 -0.054389905 -0.078491986 -0.037423193 -0.012549792
0.03240863 0.10226353 -0.014612502 0.054910492 0.039025925 0.032818716 -0.0511837 0.0046598497
0.00708693 -0.074405946 -0.03695878 0.083471574 -0.01343389 0.00428901 -0.028271468 0.07875296
0.040772308 -0.064896755 -0.00800919 0.008448298 0.026878495 0.008092035 0.020988313 0.012233076
0.058210578 -0.008683528 -0.07854647 0.07187093 0.061722673 0.029179193 -0.052067455 0.025319457
-0.06344495 0.019403638 0.023876036 0.040267248 -0.07099063 0.09902084 -0.01828708 0.032660503
-0.055520467 0.00460677 -0.08346645 -0.08060522 -0.020478627 0.07817855 -0.10779229 0.0013899056
0.022080187 -0.0696129 0.06319835 0.020641398 0.012382014 0.06881801 0.007966262 -0.027412727
0.068706386 0.050140366 0.027272427 0.06827344 0.06260326 -0.024199137 0.06668016 -0.058631808
-0.016233314 0.030717654 -0.049923636 -0.012721401 -0.015280921 0.012273598 -0.013207614 0.050810665
0.099305734 0.06468298 0.037619 0.04743128 0.066469915 0.060294814 0.077017434 0.03215839
-0.0814116 0.07249608 -0.029087264 0.0655043 -0.04690674 -0.018425595 -0.07671832 -0.04427703
0.039337922 0.09405673 -0.048050866 0.025113015 0.07245086 -0.06523929 0.069997 0.032728225
-0.005206677 -0.045557607 -0.027976528 -0.059626296 -0.058872167 0.06825233 -0.09244478 -0.06406307
0.00493667 0.08192497 0.002206259 0.08623858 -0.0057655275 -0.062118996 0.010688805 0.041913025
-0.02603694 -0.03389503 -0.029187948 -0.05442408 7.884377e-05 0.09709034 0.05120721 -0.06939073
-0.07164624 0.02759713 -0.012077064 0.014170889 -0.00051065045 -0.052137867 0.064306974 -0.06387458

lstm.weight_hh_l1 f4 [512, 128]
00000000: 976f 96bd 7ae7 37bd b1b9 42bd 171a ba3d
00000010: 59dd 90bd 4f9e 9dbd f877 a03d 66cb 8fbd
00000020: 9b6f d2bd 25be 7bbd e181 a1bd a351 173d
00000030: f454 d63d d6e3 38bb 586f 483d 1c75 6cbd
00000040: 7985 47bd 03df 26bd 5a81 7c3c 1840 efbc
00000050: 2616 2dbd be74 4d3d 723e 80bd 99bf 2c3d
00000060: 6f31 1b3c e3a4 af3c 59b8 1c3d 027a dc3c
00000070: 3201 5d3d 1d52 8cbd f911 33bd c0fc 3ebd
00000080: 1b01 3f3d 809b 5f3d d822 28bb 81d0 93bd
00000090: d1d9 a3bd 5ff5 9a3c f800 5a3d 4493 bbbb
000000a0: 12e8 f7ba 63b3 aa3d 834c 87bd f0d7 3e3c
000000b0: fdae cfbd 04c9 533a fb78 973d 146c 303d
000000c0: f25e cabd d066 6dbc 8e0f 34bd a93a 223d
000000d0: 5a0f b2bc 94a7 babd 68d1 5e3d 24e2 8b3d
000000e0: cb29 b9bd 631e 213c 9549 043d 6a63 d23b
000000f0: e26e 983d b17b d03d 859f bbbc d1f0 4abd
00000100: 76b8 9d3d 5635 9bbc c013 b5b9 339d 073d
00000110: 619e f1bb 07f9 cdbc 1b2a 133b 65a6 26bd
00000120: 0e30 b4bc b388 cebc f679 043d 06c5 15bd
00000130: 884e 4ebb 9359 113d af72 01bd 18c9 a9bc
00000140: e045 d13d 666b 31bd 357e 42bd 2f20 12bd
00000150: 3c74 9dba cd07 96bd 7953 3f3d 4013 84bb
00000160: 74ea 1dbd 2b86 713c 700e 4ebd 32f7 31bd
00000170: 9a4d 9e3d 3a66 a03c 8aea 4d3d e5ba afbd
00000180: 0699 8e3d 4714 88bd bf55 6fbb ab82 5e3d
00000190: 21a7 243d 6f85 47bc d8b0 c6bd 7142 f6bc
000001a0: 1043 f4bc a1da babd f9ba 3abd d5f6 28bd
000001b0: 8c0b be3c bbfe 653c f527 973d 71cd 813d
000001c0: b576 2ebd 6db9 7f3d 034a 99bd 75ff 2dbd
000001d0: 0757 093c dbf0 053d 5efb 99bd c340 833d
000001e0: 9863 88bd a66e 703d a0d2 d93d da72 01bd
000001f0: 755b ab3c 112b 053d 3915 873c cf31 eb3c
00000200: e38e 853c aeeb b2bd 237e a2bc 3654 0cbd
00000210: bc04 623d 6620 86bc 4845 b03c 4b33 393d
00000220: dc71 e5bb c5e0 00bd 2c75 ba3d 0f3d 3a3d
00000230: c4e4 8e3d 23ed 643d 17e6 7cbd e0db b13d
00000240: 26d6 cc3c 0945 b8bc 9d89 8abc 0019 863d
00000250: 0ee0 0b3d 910d 3a3e 326b 663d 3b6e 34bd
00000260: d774 6bbc 8807 a43d a787 91bd abd6 00bc
00000270: 4d56 c53d 609d c63c 9a9e b13d 1004 cbbd
00000280: 0a76 a0bd af0f 293c 6e8c 533d a298 173d
00000290: d808 7d3d cb8e 70bd 4b84 d53c 5fa5 8f3d
000002a0: 67c0 6d3c 8b68 5a3d bcc1 ec3c a3b4 84bd
000002b0: 759e dc3b 1c1e 78bd 5bc0 b43d f47e 813d
000002c0: 3a7d 813d cedf d0bc 0dda cf3d a685 493d
000002d0: 8048 b1bd bfe8 983d 0ea3 ad3c 81d9 50bc
000002e0: 851a a33d b5cc 513b 2770 963d 7f4d 0cbc
000002f0: fbab b73d 8b1d 583d e787 96bd 0aea 1bbd
00000300: 9e47 c93c cc5e 8c3d f5dd a03c 0efb 413c
00000310: 3cf9 a5bd a45b e53c 3e0e ef3c 6009 103c
00000320: 6e9c be3d ecba 9fbb 8b05 cdbc 9a1f 523d
00000330: 060d 80bd 207f 833d 74ca 45b9 f0e0 703d
00000340: 2c7c a43b 0970 18bd 594d 553d 243b a33d
00000350: 9852 99bd a8d3 19bd 9b36 b43d a3f3 b33d
00000360: 3046 773c f6cd 12bd 74d0 c5bd 1329 70bd
00000370: 5870 913d 8fc0 86bc 76a5 20bd 589b 65bd
00000380: 4423 8dbc a684 783d 59ad 3ebc cc76 343d
00000390: 6316 97bd 1209 6b3d 922a 8abd a531 61bd
000003a0: d614 e93c 4630 dfbc 4b72 d2bd 4735 943d
000003b0: 34dc 85bd 732b 87bd 1c3f 46bd 3a16 743b
000003c0: 0312 c7bc ad78 de3c a22a 543b 5a92 8c3d
000003d0: 4a4e da3c c8e5 a53c ddfe ad3d 5acb 4d3d
000003e0: 3e7f 6fbc 1233 5dbd 054b 4f3d 5fd9 4fbd
000003f0: b309 98bd 0053 e13c 6627 14bd c571 f43c
-0.07345503 -0.044898488 -0.04754037 0.090870075 -0.07073469 -0.076962106 0.07835382 -0.07021217
-0.10275193 -0.061460633 -0.078861006 0.03694309 0.10465422 -0.0028211973 0.04893431 -0.05772887
-0.048711274 -0.040740024 0.015411699 -0.029205367 -0.04225745 0.050160162 -0.062619105 0.04217491
0.009472235 0.021440929 0.038261745 0.026913647 0.053956218 -0.06851599 -0.043718312 -0.04662776
0.046631914 0.054591656 -0.0025655534 -0.07217503 -0.080005296 0.01891583 0.05322358 -0.0057243425
-0.0018913767 0.083349966 -0.0660639 0.011648163 -0.10140798 0.0008078965 0.07396122 0.04307182
-0.09881391 -0.014489844 -0.043960147 0.039606724 -0.021735836 -0.09113994 0.054398924 0.06830242
-0.090411745 0.009833905 0.032296736 0.0064205425 0.07443024 0.10179842 -0.022903213 -0.049546067
0.07701199 -0.018946331 -0.00034537725 0.0331089 -0.0073736166 -0.02514316 0.0022455517 -0.04068603
-0.02199557 -0.025211668 0.032342874 -0.03656485 -0.0031479914 0.035485815 -0.03160351 -0.020725772
0.10218406 -0.043315314 -0.04748364 -0.035675224 -0.001201279 -0.07325707 0.046710465 -0.004030615
-0.03855367 0.014741461 -0.050306737 -0.043448634 0.07729645 0.019579995 0.050272502 -0.08580569
0.06962781 -0.066444926 -0.0036519615 0.054323833 0.04019845 -0.012177809 -0.09701699 -0.030060979
-0.029817134 -0.091237314 -0.045588467 -0.041251022 0.023198865 0.014037783 0.07380668 0.06338013
-0.042593677 0.062432695 -0.0748482 -0.04247995 0.008382565 0.0327004 -0.075186476 0.06408837
-0.06659621 0.058699273 0.10635877 -0.03160367 0.020917634 0.032511774 0.016489612 0.028710274
0.016303485 -0.087363586 -0.019835537 -0.034259997 0.055180296 -0.01637287 0.02151741 0.045214932
-0.0070020985 -0.031464357 0.0910438 0.045468386 0.06977227 0.055890214 -0.06174287 0.08684516
0.025004458 -0.022493856 -0.016911322 0.06547737 0.034149222 0.18169238 0.056254573 -0.044050436
-0.0143711185 0.08009249 -0.07105952 -0.007863681 0.09635601 0.024244964 0.08672829 -0.09912884
-0.07835014 0.010318681 0.051647596 0.037010796 0.061776012 -0.058729928 0.026064059 0.07013964
0.014511204 0.053322356 0.028900973 -0.06479766 0.0067327567 -0.06057559 0.088257514 0.063230425
0.06322713 -0.025497343 0.10149012 0.049199723 -0.086564064 0.07466268 0.021195915 -0.0127471695
0.079640426 0.0032012884 0.0734561 -0.008563398 0.089683495 0.05276255 -0.0735014 -0.038064994
0.024570283 0.068540186 0.019637087 0.011839641 -0.08104178 0.0279978 0.029181596 0.008791298
0.0930718 -0.0048745777 -0.025027057 0.05129967 -0.06252484 0.064207315 -0.00018862804 0.058808267
0.0050196853 -0.03721622 0.052075718 0.079702646 -0.07486457 -0.037555367 0.08799478 0.087867044
0.015092418 -0.03584095 -0.096589 -0.05863292 0.07101506 -0.016449241 -0.039220296 -0.05605635
-0.01722873 0.06067338 -0.011638009 0.044058606 -0.07377317 0.057381697 -0.06746401 -0.054978985
0.028452318 -0.027244698 -0.10275706 0.07236724 -0.06536141 -0.06600084 -0.04840003 0.0037244693
-0.02430058 0.027157152 0.0032374044 0.06863852 0.02664866 0.02025117 0.08495877 0.05024276
-0.014617739 -0.054003783 0.050608654 -0.05074441 -0.07423725 0.027505398 -0.036170386 0.029839406

lstm.bias_ih_l1 f4 [512]
00000000: 1049 943d f952 99bd 566d 82bd 804b 39bd
00000010: 0496 013d ce6e 43bd 73c6 c23d 0770 85bc
00000020: e6ad 62bd 8955 153d a23f ac3d cd80 47bc
00000030: 0716 f93b fa51 763d 1197 813d 67d9 cc3d
00000040: 7314 efbc 6d18 343d adc6 cfbc d8cb f13c
00000050: 2169 033e 0fdc ae3c d8d0 bcbc 24c1 c6bc
00000060: 3a08 09bd 145c 453d 1bf0 a6bc 4852 9a3a
00000070: 91a9 c63b 9cd8 c2bc 2403 80bd d32f 243d
00000080: b6de 4e3d 2a15 0bbc 6eaf a9bc de2d 3d3d
00000090: 0c6d 5d3d aec1 99bc 323e 9e3d 19eb 643c
000000a0: e060 ecb8 0f3a be3d 4252 7abd 143d 853d
000000b0: e1d9 3c3c 5765 67bd b1a3 a73d 037b df3d
000000c0: c457 72bb 1a28 b13d ac80 b83d 7fc2 4e3d
000000d0: d2f2 b53d 498b 003d fa97 193e 2117 643d
000000e0: f695 e3bc 727d 56bd e725 6ebd df52 c73a
000000f0: 1f8f 8ebc 4b35 b93b a450 4ebd ad87 85bd
00000100: 61b2 543d 43dd 943d a76e 9a3d 8139 2b3d
00000110: d680 33bc a003 3b3e 78ee 22bd 5c5e b73c
00000120: 5819 00bd 9a20 9c3d 34fd a03d e3e4 643d
00000130: 95e7 f9bc a0a7 e3bc 711a 3b3c 8a1f e93d
00000140: 3e59 3e3d 551b a63c d599 cf3c e51b 3f3d
00000150: 2bdf cf3c c68a 823d f4f2 c03c 2adf 803d
00000160: ee15 e33d 0613 c03c d45e ec3d 1351 b93d
00000170: 579e eb3d 1f04 37bb 193e d03a fd6c 993e
00000180: 8c63 c03d df16 b73d 5d8c 973d eeb6 0a3c
00000190: 6cfc 4b3d a61f 9fbc 0271 57bd 04ce fe3d
000001a0: 3ff1 503c a0a1 023e 7f4a 6f3d 7840 803d
000001b0: 82f5 f73d b63d 193d 069a b53d 9e76 873d
000001c0: c6af 8e3d f108 083d cb5d 043e de41 cd3d
000001d0: fd6f 893d 9684 573d 756c 223e 7c79 ff3c
000001e0: 8572 953b 2b70 793d 68e9 73bc fc35 bdbc
000001f0: dd59 e73d f6bc 7e3d 474c 8e3d 0cc0 533d
00000200: 6633 97bd 87b6 b8bd 4e54 93bc 5fd9 0abd
00000210: 1fa5 8b3c 237e 073d b45c 433d 5513 133d
00000220: 5b7c 65bd 7cd3 d73c 5f3e 39bd f2a5 ac3d
00000230: 6868 7fbc 19ac efbc 9bef dd3c ca28 2fb9
00000240: 3ea6 ca3c 31d8 38bd b95b d6bc b299 b53b
00000250: bf36 65bb 449c 22bd 7b4d 063d ec2f a43d
00000260: 7069 603c f10d 58bd 19f8 ac3d 625f 97bd
00000270: ae0f eb3c 2b8a 8e3d a5d1 3c3b 6d20 6bbd
00000280: b10d 6abc f811 333d 4448 1c3d 8e9e 3ebd
00000290: 1ad5 783d 744c 97bc 992f 5f3c 045a 8b3d
000002a0: 149f 93bd 50e4 c63c c661 afbc eb7a 51bd
000002b0: e00c b4bd 5c6a 43bc 8d05 41bd ea41 bdbd
000002c0: 41fc edbc 0fa9 2d3d 9a6d 5dbc 5ff7 e13d
000002d0: f86a 18bd 68cd 75bd fc0d 79bc 0d40 a23d
000002e0: b26d 8f3d 83c7 8bbd 38a4 8c3b c50c 813d
000002f0: ffe1 813d 4921 18bd 1b48 30bd 00ba b83d
00000300: 4022 cbbb 552b 083d ce8e 63bd 620e 2abd
00000310: 8695 22bd b3eb 6c3b 87c7 e13c 7417 8c3d
00000320: 5745 883d 0de6 f83c fb0b ab3d 04d7 95bb
00000330: 48bd 393d 4b18 c13d 5540 883d a836 51bd
00000340: e142 aebc ab40 26bd ef54 80bd 5e0a cdbc
00000350: f4e0 7f3d 7409 8fbd 8706 4c3d 9257 babd
00000360: e8d5 d93d 8c15 5bbd d02d cc3d a579 1e3d
00000370: 7dc5 d43d 32d8 21bd 2774 983d c9cf b3bd
00000380: 7951 77bd c921 fcbc 8eb4 3fbd 657f 93bc
00000390: 8cf4 2bba dee8 883d f347 d93b fb72 d83a
000003a0: b2e1 35bd 905d 973d cec4 1f3d 12ac 4fbd
000003b0: 89f7 9dbd ce6c 8f3d 71dc 87bd 8bab ca3d
000003c0: 0467 93bd 8674 a0bd 758d 483d 15f4 55bd
000003d0: 2cbe 8d3d 59c7 97bd 2f28 073c 7641 a43b
000003e0: 13d2 8c3d 9709 403d 4278 383d 7b14 b8bd
000003f0: a3c6 90bc 022b 9cbd 5bab 3cbd 57e4 393d
0.07240498 -0.07486529 -0.063685104 -0.045238018 0.031637207 -0.047713093 0.095105074 -0.01628877
-0.055341624 0.036458526 0.084105745 -0.012176705 0.007601503 0.060136773 0.06327642 0.10002404
-0.029184556 0.043968607 -0.02536329 0.029516146 0.12833072 0.021345166 -0.023048803 -0.024262019
-0.03345511 0.048183516 -0.020378163 0.0011773789 0.0060626944 -0.023784928 -0.06250599 0.04008467
0.050505362 -0.008488933 -0.020713534 0.04618632 0.054059073 -0.018769111 0.077267066 0.013972067
-0.00011271401 0.092884175 -0.061113603 0.0650579 0.011526556 -0.05649313 0.081855185 0.109121345
-0.0036978582 0.08650227 0.09008917 0.050478455 0.08884205 0.031382833 0.1499938 0.05568612
-0.027781468 -0.052365728 -0.058141615 0.0015207193 -0.01740223 0.005652105 -0.050369874 -0.06520019
0.051927928 0.07268765 0.075406365 0.041802887 -0.01095601 0.18263102 -0.039778203 0.022383861
-0.03127417 0.07623406 0.07860795 0.055882346 -0.030505935 -0.02778989 0.011419878 0.11382969
0.046471827 0.020276705 0.025341908 0.04665746 0.02537497 0.06374125 0.02355335 0.06292565
0.11088167 0.023446571 0.115415245 0.09048667 0.1150481 -0.002792604 0.0015887647 0.29965964
0.09393987 0.08939909 0.07399819 0.008466465 0.049801275 -0.01942427 -0.052598007 0.12441638
0.01275283 0.12756968 0.058420654 0.062622964 0.12107374 0.037412368 0.08867268 0.06614421
0.0696712 0.033211652 0.12926404 0.10022329 0.06710813 0.05261668 0.15861686 0.031185858
0.004560771 0.060897987 -0.014887191 -0.02309703 0.11296437 0.062191926 0.069481425 0.051696822
-0.0738285 -0.09019189 -0.017984536 -0.033898707 0.01704651 0.033079278 0.04769583 0.03590711
-0.056026798 0.02634596 -0.045225497 0.08430089 -0.015588857 -0.029256867 0.027091792 -0.00016704496
0.024737474 -0.04512805 -0.026166784 0.0055420035 -0.0034975258 -0.039699808 0.032788735 0.08016953
0.013697013 -0.05274767 0.084457584 -0.0739124 0.028694 0.06959947 0.0028811481 -0.05740397
-0.014285491 0.04371831 0.038154855 -0.04653793 0.060750104 -0.018469073 0.013622188 0.068042785
-0.07208076 0.02427879 -0.021408927 -0.051142614 -0.08791518 -0.0119272135 -0.047124434 -0.09241088
-0.029050948 0.042397555 -0.013514901 0.110335104 -0.03721139 -0.060010344 -0.015201088 0.07922373
0.070033446 -0.06825163 0.0042920373 0.06301264 0.063419335 -0.03714112 -0.043037515 0.09019852
-0.0061991513 0.03324445 -0.05555611 -0.041517623 -0.039693378 0.003615123 0.027560962 0.06840411
0.066538505 0.030383134 0.083518945 -0.004572751 0.04534653 0.09428462 0.06652895 -0.051077515
-0.021272125 -0.040589016 -0.062662 -0.025029358 0.06247039 -0.06984225 0.049810912 -0.09098734
0.106365025 -0.053487346 0.099696755 0.038690228 0.103892304 -0.03951282 0.07444029 -0.08779866
-0.060380433 -0.030777829 -0.04680305 -0.018005082 -0.00065595726 0.06685041 0.0066308915 0.0016513759
-0.044404693 0.073908925 0.039006047 -0.05070121 -0.07713229 0.07003175 -0.06633843 0.098960005
-0.07197383 -0.07834725 0.04896303 -0.052234728 0.06921038 -0.074110694 0.008249327 0.0050126864
0.06876006 0.046884146 0.04503656 -0.08988281 -0.017672842 -0.076253906 -0.046061855 0.045383777
