models/TXN model.pth (torch, 799650 bytes, 9 tensors)

lstm.weight_ih_l0 f4 [512, 1]
-0.010426484 -0.08979963 0.030443769 0.028785098 -0.048040904 0.06599398 0.054294202 0.074322835
-0.016885065 -0.018973898 0.04657758 0.07676254 0.056120567 0.024117429 -0.02325993 0.0058129947
-0.024095742 0.03536687 -0.06666335 0.033992607 -0.0626334 0.052143745 0.060893457 0.028423417
0.012727666 0.03472814 -0.019334229 -0.016185986 0.036078062 0.07203938 -0.057447854 0.066679485
-0.061363727 0.05022406 0.029662868 -0.07016455 0.019691924 -0.028651722 -0.054194078 0.07517734
-0.08976527 -0.039723806 -0.024197634 -0.03298002 0.016771225 0.06043217 -0.024973365 -0.07729766
-0.07122839 0.0010775331 -0.007826788 -0.08571697 0.060274016 -0.060181346 -0.061668865 0.027069993
-0.041700862 -0.08485389 0.056815416 -0.068586394 -0.035375237 0.01544475 0.0396247 0.017362885
-0.07328292 0.018754039 -0.004982142 -0.020815179 -0.024127688 0.047908284 0.042377166 -0.08885424
-0.013342081 -0.04883841 -0.046976063 -0.09371257 -0.06381711 0.013584096 -0.04932007 -0.071479924
-0.052255154 0.021254776 -0.080711044 -0.041343227 -0.051315185 0.0809097 -0.04277255 0.050220974
-0.037079293 -0.0028450366 -0.003335809 -0.08415838 0.027719812 -0.046132274 -0.04241664 0.039950747
0.029733533 -0.02373902 -0.018813638 0.06666 -0.058419812 0.04029809 0.03588531 -0.036654066
0.008284763 -0.018370785 0.050129756 -0.07487956 -0.04558484 -0.054190855 -0.04545573 -0.023613432
-0.038453493 0.02621924 -0.095665514 -0.07865416 -0.060971826 -0.05679425 -0.06272955 -0.029096004
0.05112426 0.060663078 0.06268655 -0.03549485 0.043832097 0.06219146 -0.012548543 0.039458323
-0.05882231 0.061473906 0.0065766564 -0.033503663 0.00978415 -0.036975212 -0.039026402 -0.039620917
-0.0027395282 -0.013992743 -0.091957994 0.07158169 0.069748156 -0.0064925277 -0.05251877 0.015943207
0.027244927 0.07699764 0.03244623 0.058782138 0.004976469 -0.055628072 -0.07022842 0.02063968
-0.023740014 -0.014011885 -0.09890263 -0.0051598577 0.013406932 0.029395835 0.042652063 0.0012161845
-0.06700082 -0.0104723135 -0.029677674 0.02256315 -0.06242017 -0.010783446 -0.001720639 -0.07038186
0.04091614 0.0036972673 0.025067266 0.0013002201 -0.002061418 -0.08924473 0.06900784 0.0048759393
-0.054125965 -0.0767245 0.07756704 0.057411805 -0.085547924 -0.056823697 0.019639054 0.05285201
0.07959684 0.045290448 0.014509686 -0.03887033 -0.07916133 0.022336664 -0.053554665 -0.0531358
-0.0069912383 -0.066805206 -0.06459353 -0.04412385 -0.05918412 0.0086346585 -0.045901608 0.03688521
-0.014329664 -0.07687509 -0.027811432 -0.045225877 -0.045978993 0.08038713 -0.061677434 0.06587066
-0.040971443 -0.01971626 0.073368326 0.03631963 -0.06433972 0.0737902 -0.05830957 -0.017965103
-0.036860567 0.029918464 0.075840846 -0.08416451 0.058136947 0.061102144 0.08404807 0.0060252873
0.00019554973 0.044108044 0.019637687 -0.0038922704 -0.045303993 -0.09580241 -0.03557791 0.0687021
0.051439837 -0.051717967 0.038364805 -0.07494224 0.01254365 -0.0333183 0.0318923 0.05453713
0.066801645 0.060880966 -0.085932255 -0.08034943 0.005243628 0.08794626 0.07594543 0.03336401
0.06725906 -0.05272704 -0.06458856 -0.066827014 0.049362823 -0.013877386 0.054781493 -0.02166698
00000000: d8d3 2abc dee8 b7bd 3665 f93c bace eb3c
00000010: 8ac6 44bd da27 873d 9963 5e3d 9236 983d
00000020: 8c52 8abc 266f 9bbc 22c8 3e3d ae35 9d3d
00000030: aede 653d ea91 c53c 9c8b bebc ef7a be3b
00000040: 6f64 c5bc dadc 103d cb86 88bd d53b 0b3d
00000050: f145 80bd ae94 553d 6b6b 793d 3ad8 e83c
00000060: b387 503c 183f 0e3d d162 9ebc 7998 84bc
00000070: 97c6 133d 6289 933d 714e 6bbd 418f 883d
00000080: 8858 7bbd beb7 4d3d 8bff f23c 6eb2 8fbd
00000090: f550 a13c 04b7 eabc 9cfa 5dbd 94f6 993d
000000a0: dbd6 b7bd 6eb5 22bd 1e3a c6bc 0f16 07bd
000000b0: cf63 893c b987 773d f194 ccbc 3c4e 9ebd
000000c0: 31e0 91bd 033c 8d3a ee3b 00bc 618c afbd
000000d0: e3e1 763d b780 76bd 7e98 7cbd e4c1 dd3c
000000e0: 86ce 2abd e0c7 adbd 48b7 683d 0677 8cbd
000000f0: a0e5 10bd fa0b 7d3c 824d 223d 9c3c 8e3c
00000100: 5b15 96bd 12a2 993c 3c41 a3bb 9884 aabc
00000110: 6ea7 c5bc 7a3b 443d ae93 2d3d 36f9 b5bd
00000120: be98 5abc c90a 48bd f969 40bd 60ec bfbd
00000130: 8cb2 82bd d48f 5e3c d703 4abd 1164 92bd
00000140: 8009 56bd 7f1e ae3c d54b a5bd 8457 29bd
00000150: df2f 52bd fcb3 a53d 4532 2fbd 82b4 4d3d
00000160: 75e0 17bd cb73 3abb 979d 5abb 3b5b acbd
00000170: a914 e33c 32f5 3cbd 12bd 2dbd 65a3 233d
00000180: bd93 f33c 5578 c2bc 0f1f 9abc 0a85 883d
00000190: 9d49 6fbd 9c0f 253d 7afc 123d 9322 16bd
000001a0: d1bc 073c 547e 96bc dc54 4d3d 745a 99bd
000001b0: 2bb7 3abd 3bf7 5dbd ca2f 3abd f570 c1bc
000001c0: 6981 1dbd bbc9 d63c 48ec c3bd 6f15 a1bd
000001d0: 98bd 79bd 16a1 68bd 5a78 80bd be5a eebc
000001e0: ac67 513d d979 783d ce61 803d 0c63 11bd
000001f0: 4989 333d 79bc 7e3d 6798 4dbc 0d9f 213d
00000200: aaef 70bd 10cc 7b3d fe80 d73b 233b 09bd
00000210: b34d 203c 5273 17bd 26da 1fbd 8b49 22bd
00000220: a889 33bb d141 65bc 7954 bcbd 6c99 923d
00000230: 1fd8 8e3d 45bf d4bb ec1d 57bd 549b 823c
00000240: c130 df3c f0b0 9d3d 57e6 043d 8ac5 703d
00000250: a611 a33b 43da 63bd ebd3 8fbd 8c14 a93c
00000260: 6b7a c2bc 1b92 65bc 768d cabd 0614 a9bb
00000270: c0a8 5b3c 89cf f03c eeb3 2e3d 6168 9f3a
00000280: ba37 89bd 1194 2bbc 981e f3bc 5bd6 b83c
00000290: 4bac 7fbd 0dad 30bc 1087 e1ba 5d24 90bd
000002a0: af97 273d da4d 723b de59 cd3c 266c aa3a
000002b0: db18 07bb f1c5 b6bd fb53 8d3d 58c6 9f3b
000002c0: 30b3 5dbd bc21 9dbd 78db 9e3d a428 6b3d
000002d0: c033 afbd f7bf 68bd 15e2 a03c 597b 583d
000002e0: ab03 a33d 7a82 393d 09ba 6d3c 7f36 1fbd
000002f0: 561f a2bd 61fb b63c 235c 5bbd eda4 59bd
00000300: c216 e5bb 2bd1 88bd 9d49 84bd 36bb 34bd
00000310: 0c6b 72bd 6278 0d3c 5303 3cbd f214 173d
00000320: f8c6 6abc b070 9dbd cdd4 e3bc c53e 39bd
00000330: 7854 3cbd 02a2 a43d 7aa1 7cbd 32e7 863d
00000340: acd1 27bd fe83 a1bc 2242 963d e4c3 143d
00000350: 8bc4 83bd 511f 973d 04d6 6ebd 8d2b 93bc
00000360: 1bfb 16bd 9117 f53c 7252 9b3d 715e acbd
00000370: 0221 6e3d 3e46 7a3d 6521 ac3d c66f c53b
00000380: 7b0c 4d39 a3aa 343d 37df a03c 7615 7fbb
00000390: ae90 39bd 0e34 c4bd 24ba 11bd b0b3 8c3d
000003a0: 94b2 523d 38d6 53bd 6a24 1d3d 517b 99bd
000003b0: e283 4d3c c578 08bd 80a1 023d 5362 5f3d
000003c0: 4dcf 883d 525e 793d 40fd afbd 3e8e a4bd
000003d0: bdd2 ab3b 2b1d b43d 4789 9b3d b3a8 083d
000003e0: 1ebf 893d 4ff8 57bd 0247 84bd 9adc 88bd
000003f0: ac30 4a3d fa5d 63bc 8f62 603d f37e b1bc

lstm.weight_hh_l0 f4 [512, 128]
0.05186658 -0.06502933 -0.014936395 -0.0037175308 0.0093574235 0.019699248 0.083055645 0.043245766
0.029800205 -0.027781826 0.029585017 0.02540958 0.056493923 0.08703059 -0.046363927 0.05145203
0.036543805 -0.07247908 -0.0524927 0.066911 -0.048152383 -0.07491832 -0.0338178 -0.07791063
0.055934373 -0.02208786 0.028042076 -0.06970954 0.012175337 0.019693755 0.025569657 -0.02497967
-0.053131543 0.0034806991 0.07864861 -0.0042571025 -0.08043728 -0.022280432 0.08173659 -0.05293191
-0.058189195 0.054935545 -0.0425731 -0.017799117 0.028807439 -0.04475973 -0.06029113 0.041044798
0.055521518 -0.005650187 0.03818237 -0.03633477 0.029706985 0.049750004 0.043998238 -0.02533263
0.062450893 0.032620806 -0.015822593 -0.0009852899 -0.09448718 0.061874446 0.011335513 -0.09091487
0.0071496745 0.05332618 -0.012636926 -0.041054662 0.013973959 0.042155553 -0.036082722 -0.051923096
-0.0012703126 0.0824633 0.0652211 -0.08146521 -0.06466456 0.0379347 0.050473414 0.007923251
-0.07829607 -0.008316035 -0.005901865 -0.018134732 0.020396974 0.043402787 -0.026031371 0.026806692
0.03597166 -0.081442304 -0.06754473 0.025206149 -0.014366791 0.05219984 0.0036624132 0.04058505
0.040720068 -0.045855973 0.059993327 0.040476013 -0.012535345 0.026765158 0.005978454 0.057308156
0.002695733 -0.0011734301 0.060976487 0.012118564 0.052511007 -0.025188938 0.06404308 0.03329021
0.034731347 0.015332682 7.385448e-05 0.050481513 0.0682039 0.07902042 -0.036029946 -0.013340927
-0.00066982163 0.078870304 0.08268058 0.012451446 -0.08583753 -0.0033461875 -0.05795846 -0.061576154
-0.052693117 -0.047574975 0.047641467 0.018511336 -0.039062 -0.056540113 -0.01987141 -0.05478108
0.03813257 0.005225527 -0.00063022523 -0.056840613 0.052901544 0.080267824 -0.08752872 -0.04257048
-0.0008515438 -0.08866757 0.045757454 0.0520804 -0.02062727 -0.0057516345 0.07514314 0.06414208
0.046510775 -0.07028018 -0.05977847 -0.07752693 0.055043954 0.07999264 0.048506454 0.023717558
0.059356764 0.077381715 -0.042479727 -0.04114039 0.0073581673 0.040609572 -0.013766873 -0.008507161
0.030683583 -0.008106299 -0.030955344 -0.017234372 0.049526032 0.039348997 -0.075852804 -0.011636336
-0.09371709 0.038353745 -0.02864154 -0.034680698 0.01780291 -0.0073062317 -0.0486236 0.056728706
-0.005377116 -0.052099187 0.040592656 -0.03412407 -0.0172906 -0.013714165 -0.025968384 0.044534314
-0.0018352967 0.0578984 0.09416177 0.08977317 -0.06441331 -0.04701505 0.08423875 0.0079488065
-0.04569096 -0.057502296 -0.0918149 -0.06839782 0.048559807 0.006286626 0.0068843956 -0.023576383
-0.0055794707 0.08355113 0.045835625 0.020814817 -0.053454913 -0.051289093 -0.027512252 0.048927933
-0.009429665 -0.040370446 0.02128089 0.014394843 0.0143116405 -0.041645374 0.06363462 -0.033272035
0.016816195 -0.04762113 0.058434926 0.06928752 0.0042132298 0.06415474 -0.047805194 0.025115209
0.07540486 0.01594486 0.07831216 -0.0706643 0.06185006 -0.084036894 0.051523317 0.015463372
-0.008156135 0.044299323 -0.02753105 -0.001728547 0.04464646 0.047923125 -0.0119957095 0.047005747
0.01340144 -0.01972831 0.018978756 -0.06851186 -0.003453695 0.013839948 -0.04962675 0.026836388
00000000: 0d72 543d 192e 85bd c8b7 74bc d1a1 73bb
00000010: e14f 193c 5160 a13c 1419 aa3d 7922 313d
00000020: 8f1f f43c b696 e3bc 475c f23c c027 d03c
00000030: 2c66 673d 183d b23d 1ae8 3dbd 5dbf 523d
00000040: f5ae 153d e96f 94bd 9602 57bd a208 893d
00000050: 6f3b 45bd c76e 99bd 8984 0abd 9c8f 9fbd
00000060: 711b 653d 9af1 b4bc 7fb8 e53c e0c3 8ebd
00000070: 117b 473c cc54 a13c 7577 d13c 2aa2 ccbc
00000080: 76a0 59bd 711c 643b 8612 a13d 2a7f 8bbb
00000090: 4dbc a4bd 7485 b6bc 8365 a73d 21cf 58bd
000000a0: cb57 6ebd 1804 613d 2261 2ebd 74cf 91bc
000000b0: 94fd eb3c fb55 37bd d5f3 76bd 971e 283d
000000c0: 886a 633d 3425 b9bb 1e65 1c3d c5d3 14bd
000000d0: 105c f33c a9c6 4b3d 7f37 343d 6086 cfbc
000000e0: 82cc 7f3d 659d 053d 629e 81bc d824 81ba
000000f0: 7f82 c1bd 0f70 7d3d 96b8 393c 9331 babd
00000100: d147 ea3b 8d6c 5a3d 1c0b 4fbc ef28 28bd
00000110: 08f3 643c 4dab 2c3d 7acb 13bd 50ad 54bd
00000120: 9e80 a6ba 85e2 a83d a492 853d 3bd7 a6bd
00000130: da6e 84bd 6a61 1b3d 36bd 4e3d 86d0 013c
00000140: b159 a0bd fb3f 08bc 6f64 c1bb 4a8f 94bc
00000150: 8e17 a73c 1fc7 313d be3f d5bc b599 db3c
00000160: 0557 133d 39cb a6bd e454 8abd 207d ce3c
00000170: b062 6bbc 80cf 553d 1905 703b 823c 263d
00000180: 16ca 263d 79d3 3bbd 90bb 753d 2dca 253d
00000190: 0c61 4dbc 9b42 db3c e8e6 c33b f5bb 6a3d
000001a0: e5aa 303b c8cd 99ba 7bc2 793d f18c 463c
000001b0: c815 573d 0859 cebc 0529 833d 515b 083d
000001c0: 7542 0e3d ee35 7b3c 52e2 9a38 b4c5 4e3d
000001d0: 7cae 8b3d 75d5 a13d 2394 13bd e793 5abc
000001e0: f896 2fba c186 a13d 7054 a93d 2601 4c3c
000001f0: 96cb afbd b64b 5bbb da65 6dbd 4737 7cbd
00000200: bdd4 57bd fadd 42bd b323 433d 16a5 973c
00000210: 7aff 1fbd 9b96 67bd 5ec9 a2bc 2062 60bd
00000220: e630 1c3d e63a ab3b b335 25ba b4d1 68bd
00000230: 4aaf 583d 7563 a43d 4242 b3bd 625e 2ebd
00000240: 233a 5fba 5897 b5bd 2b6c 3b3d 4252 553d
00000250: 85fa a8bc 3578 bcbb a6e4 993d ec5c 833d
00000260: 1582 3e3d 0eef 8fbd 45da 74bd 70c6 9ebd
00000270: c575 613d 2ed3 a33d b4ae 463d 534b c23c
00000280: 1420 733d 4e7a 9e3d 39ff 2dbd d382 28bd
00000290: c81c f13b 3956 263d 738e 61bc 9f61 0bbc
000002a0: 235c fb3c 48d0 04bc 1096 fdbc 192f 8dbc
000002b0: cfdb 4a3d 6a2c 213d b758 9bbd 55a6 3ebc
000002c0: bfee bfbd d118 1d3d aaa1 eabc 590d 0ebd
000002d0: 69d7 913c 1d69 efbb 8a29 47bd 5c5c 683d
000002e0: 8532 b0bb f565 55bd 7c44 263d aec5 0bbd
000002f0: 04a5 8dbc 61b1 60bc a6bb d4bc 9d69 363d
00000300: 578e f0ba df26 6d3d e3d7 c03d ffda b73d
00000310: 20eb 83bd da92 40bd 5e85 ac3d b63b 023c
00000320: 7226 3bbd 8787 6bbd 7309 bcbd 2814 8cbd
00000330: a6e6 463d 0b00 ce3b 7f96 e13b 4223 c1bc
00000340: fed3 b6bb db1c ab3d 23be 3b3d d683 aa3c
00000350: 8af3 5abd 8314 52bd 6061 e1bc a868 483d
00000360: e27e 1abc 7b5b 25bd 4355 ae3c 59d8 6b3c
00000370: 5f7b 6a3c 5794 2abd de52 823d 4248 08bd
00000380: 1ec2 893c 600e 43bd 7659 6f3d 9ee6 8d3d
00000390: 220f 8a3b 8f63 833d 61cf 43bd 69be cd3c
000003a0: dd6d 9a3d cc9e 823c 2062 a03d 72b8 90bd
000003b0: 7d56 7d3d 891b acbd 1d0a 533d 155a 7d3c
000003c0: 4fa1 05bc 3573 353d cc88 e1bc 6a90 e2ba
000003d0: 35df 363d 0a4b 443d a789 44bc 1989 403d
000003e0: b791 5b3c 449d a1bc 5679 9b3c f24f 8cbd
000003f0: 6357 62bb f3c0 623c 6b45 4bbd fcd7 db3c

lstm.bias_ih_l0 f4 [512]
-0.00052538834 -0.034245986 0.049629107 -0.0028541249 -0.05117638 0.07200256 -0.031225495 0.020529032
-0.014664411 -0.048987605 -0.043838877 0.03930631 -0.018876426 0.026627483 0.018908285 -0.029108798
-0.06874129 0.04418217 0.03783018 -0.050930027 -0.029100038 -0.046437506 0.021410609 -0.070559636
0.06572728 -0.061824962 -0.07463759 0.072734386 -0.078633055 -0.017419694 0.045082074 0.03132185
-0.053280603 -0.06359027 -0.0560771 0.038729064 0.098972335 -0.072328925 -0.035020627 -0.030971834
-0.06369087 0.086968146 0.08966245 0.06979352 -0.074070096 -0.071217194 -0.07781541 0.01574633
0.06733524 0.072289385 -0.0063780025 0.0383199 -0.023474317 -0.054606825 -0.07184269 0.05640037
1.4782221e-05 0.023800615 -0.029496517 -0.076615915 -0.076421306 0.022647828 0.008738261 0.07692565
0.07011121 -0.04200138 0.09643804 -0.03873551 0.05759546 0.027891632 -0.03874877 -0.06390848
-0.033414893 0.00753988 0.0026648846 0.0020396295 -0.046250865 0.03568602 -0.071312696 -0.0407866
-0.07440309 -0.038768124 0.013597492 0.009462689 -0.030698001 -0.04555341 -0.052967582 0.040377345
0.07755789 -0.071895264 -0.010163695 0.030038914 -0.035035368 0.032055683 -0.013660359 0.061246846
0.059393916 0.0013950384 0.080253 0.07491837 -0.04691461 -0.060675804 0.08387693 0.08157831
-0.059752055 0.055614796 0.08998333 0.047609936 -0.05482033 0.01725014 -0.001911371 0.06589806
0.029937565 0.061019327 0.079748444 -0.064690806 -0.030065317 0.047661766 0.04080866 0.040217146
0.085486956 0.0014657435 -0.01757883 -0.0008130282 0.0040844767 0.0052822973 -0.056545816 -0.0021392258
-0.06573486 -0.039945036 0.0016140455 0.0794994 -0.042566966 0.01808762 0.0047947248 -0.07565926
-0.07329197 0.033392664 0.033839438 0.009944776 -0.010650689 0.065469146 0.097205855 -0.055380017
0.088406004 0.043853533 0.040535733 -0.019996988 -0.03502951 -0.037708797 0.04980072 -0.010326931
0.028052147 0.011738514 -0.036624484 0.033834517 0.05146493 -0.011218838 0.008357077 0.07608407
-0.05200018 0.03464335 -0.05996332 0.0255292 0.02868275 -0.053317614 0.015249827 0.001730212
0.08521075 0.022235302 0.023083493 -0.007389476 0.050041974 0.066788696 0.038062017 0.028175984
-0.032416936 -0.061464902 -0.0030434623 -0.017926088 0.055545654 0.028436873 -0.015088083 0.022896484
0.065523975 -0.005875555 0.07148743 -0.011571706 0.03007003 -0.0186724 0.07772443 0.0117978
-0.03572877 -0.044478327 0.053171404 0.067276046 0.09567362 0.07850804 0.025862917 0.0102881165
0.06834763 0.040356804 -0.035938963 -0.053115822 0.08521369 0.012381697 -0.08692231 0.014129123
0.037597902 0.0012210531 0.0034530733 0.02436851 0.07176463 0.065088905 0.07218537 0.06848702
-0.046125792 -0.0150071215 0.01456976 -0.054212887 0.01835514 -0.02407879 0.04658546 0.09003783
-0.047337692 -0.07422275 0.08221999 0.056143157 0.037291512 0.012010083 0.072376825 0.08237666
-0.05143493 -0.04664116 0.015320436 0.0042384537 0.0054483754 0.0841794 -0.0021135453 0.015690893
-0.06558966 -0.07359705 0.02171805 -0.007761392 0.03538818 -0.032935742 -0.036924694 -0.038251195
0.011172732 -0.051514763 0.03151392 0.037898008 0.05177765 -0.039256297 0.009526583 -0.055196635
00000000: 37ba 09ba 8545 0cbd e447 4b3d 450c 3bbb
00000010: 539e 51bd 1476 933d 9ccc ffbc 802c a83c
00000020: ff42 70bc 3aa7 48bd 6590 33bd a7ff 203d
00000030: bca2 9abc e121 da3c 8ce5 9a3c 9375 eebc
00000040: 3cc8 8cbd 5df8 343d d2f3 1a3d 019c 50bd
00000050: 3463 eebc 4135 3ebd 4d65 af3c 9281 90bd
00000060: 069c 863d 2c3c 7dbd 98db 98bd c4f5 943d
00000070: 5e0a a1bd bfb3 8ebc fba7 383d 574b 003d
00000080: c33c 5abd 9e3b 82bd 1ab1 65bd 5ea2 1e3d
00000090: 02b2 ca3d 3021 94bd ca71 0fbd a5b8 fdbc
000000a0: 5c70 82bd 5b1c b23d f2a0 b73d e8ef 8e3d
000000b0: 10b2 97bd 52da 91bd b05d 9fbd 73fe 803c
000000c0: 0fe7 893d 750c 943d 90fe d0bb 54f5 1c3d
000000d0: 364d c0bc 68ab 5fbd 4322 93bd 1304 673d
000000e0: 2801 7837 82f9 c23c aea2 f1bc cee8 9cbd
000000f0: c682 9cbd f087 b93c ec2a 0f3c 328b 9d3d
00000100: 7796 8f3d a409 2cbd 4f81 c53d 20a9 1ebd
00000110: 38e9 6b3d fe7c e43c 08b7 1ebd 73e2 82bd
00000120: 0ede 08bd 1911 f73b 58a5 2e3b 4eab 053b
00000130: 8c71 3dbd 812b 123d 640c 92bd da0f 27bd
00000140: a660 98bd 53cb 1ebd 04c8 5e3c 6509 1b3c
00000150: 607a fbbc 3696 3abd 89f4 58bd b762 253d
00000160: acd6 9e3d d33d 93bd a085 26bc 2b14 f63c
00000170: 3f81 0fbd d24c 033d b3cf 5fbc f9dd 7a3d
00000180: 0947 733d b9d9 b63a af5b a43d cd6e 993d
00000190: 8929 40bd 3187 78bd abc7 ab3d 8712 a73d
000001a0: 92be 74bd 57cc 633d 2e49 b83d a302 433d
000001b0: 488b 60bd 2a50 8d3c f886 faba 90f5 863d
000001c0: a03f f53c 67ef 793d 2753 a33d 9d7c 84bd
000001d0: 8a4b f6bc fc38 433d fb26 273d bcba 243d
000001e0: c913 af3d 311e c03a 7a01 90bc 6621 55ba
000001f0: 13d7 853b 1f17 ad3b 969c 67bd 4132 0cbb
00000200: 00a0 86bd 689d 23bd 618e d33a 95d0 a23d
00000210: b35a 2ebd 7d2c 943c 111d 9d3b 3ef3 9abd
00000220: 1a1a 96bd bfc6 083d 399b 0a3d 6aef 223c
00000230: 3a80 2ebc b014 863d dd13 c73d 28d6 62bd
00000240: 350e b53d c39f 333d cc08 263d b9d0 a3bc
00000250: 1a7b 0fbd 8a74 1abd d7fb 4b3d 4a32 29bc
00000260: 9ecd e53c e552 403c 8e03 16bd 1096 0a3d
00000270: e4cc 523d 38cf 37bc 1fec 083c f7d1 9b3d
00000280: 24fe 54bd 2fe6 0d3d 199c 75bd 9d22 d13c
00000290: 16f8 ea3c 9263 5abd 69da 793c 48c8 e23a
000002a0: f982 ae3d cf26 b63c 9819 bd3c 6b23 f2bb
000002b0: d0f8 4c3d 83c8 883d ebe6 1b3d 52d1 e63c
000002c0: 9fc7 04bd 9fc2 7bbd d374 47bb bbd9 92bc
000002d0: d783 633d 72f4 e83c 0234 77bc 6891 bb3c
000002e0: 6f31 863d ba87 c0bb 0068 923d 4197 3dbc
000002f0: 6c55 f63c dcf6 98bc fc2d 9f3d 8f4b 413c
00000300: 5558 12bd e82e 36bd 42ca 593d 06c8 893d
00000310: 88f0 c33d d3c8 a03d 78de d33c 7d8f 283c
00000320: d8f9 8b3d 2d4d 253d bc34 13bd fa8f 59bd
00000330: 8484 ae3d 9adc 4a3c 5304 b2bd d67d 673c
00000340: 4200 1a3d be0b a03a f54c 623b 78a0 c73c
00000350: 56f9 923d 554d 853d ecd5 933d ec42 8c3d
00000360: 66ee 3cbd 6ee0 75bc 01b6 6e3c 550e 5ebd
00000370: 855d 963c e240 c5bc 65d0 3e3d c165 b83d
00000380: 2be5 41bd 1902 98bd f462 a83d 5ef6 653d
00000390: fcbe 183d f0c5 443c 4d3a 943d 18b5 a83d
000003a0: 6fad 52bd cd0a 3fbd 9102 7b3c bae2 8a3b
000003b0: 4988 b23b 4066 ac3d 6883 0abb 308a 803c
000003c0: df53 86bd 0dba 96bd 0dea b13c 4653 febb
000003d0: 32f3 103d a1e7 06bd 593e 17bd 49ad 1cbd
000003e0: d60d 373c 2501 53bd bd14 013d f13a 1b3d
000003f0: cd14 543d 36cb 20bd 6315 1c3c de15 62bd

lstm.bias_hh_l0 f4 [512]
-0.060587928 0.05419604 -0.0017656173 -0.05763487 0.0400269 0.037667032 0.02497093 -0.015843747
-0.042108804 0.07504742 -0.044751704 0.07020507 0.04693947 0.06652672 0.050693676 -0.09104119
0.06560006 -0.06466687 0.06186383 0.03690395 0.062576495 -0.06984458 0.0463901 -0.074531056
0.052888885 -0.073791504 0.05025096 -0.062961414 -0.08090165 0.06897041 -0.058827408 0.0866704
0.004646675 0.018731728 -0.07301326 0.05419763 -0.07055971 -0.003747238 0.068860054 -0.032533754
-0.05005794 0.074482344 -0.062138163 -0.048004266 -0.0020878448 -0.044348177 0.076252274 0.07402368
-0.056917943 0.009473879 -0.073534384 -0.0755665 -0.055471193 -0.07059755 -0.018795773 -0.043810505
0.06971304 -0.07116483 0.09822494 -0.03591223 -0.07907534 0.015760964 -0.013725576 -0.016086537
0.041705918 0.029498367 -0.055667665 -0.06132215 -0.03185687 0.035725337 0.022329833 -0.03852092
-0.02188437 -0.07561829 -0.06866613 0.058198337 -0.0474872 0.07820808 0.039820768 -0.07426228
-0.035802484 0.022554813 -0.04079786 -0.037708707 -0.081274316 -0.071019195 -0.04350736 -0.015252586
0.01458903 0.054695107 0.08603824 0.07084971 0.05083572 0.032093905 0.073669404 -0.009307583
-0.030726604 0.034329847 0.044395804 -0.06665474 -0.03297452 0.007372476 0.05171491 0.036901206
0.06010486 0.08717923 0.09017405 -0.0073700976 0.04329732 0.0047445768 -0.008446281 -0.012392838
-0.008690834 0.06635915 -0.0045446544 -0.026335735 -0.053959977 0.015231128 0.0005550474 0.06671461
0.036900435 -0.070459165 0.008709184 -0.04283049 -0.007413709 -0.05852757 0.020157397 0.055262532
0.033456184 0.04605796 -0.020746423 -0.025824675 -0.06869503 -0.051842168 -0.04404081 -0.025996113
0.03355552 0.028979963 -0.06670277 -0.06204955 -0.07533177 0.018079765 0.0064242026 -0.07417032
0.08341757 0.026644686 -0.02157687 -0.008234195 -0.038242467 0.06152542 0.02729513 -0.07390358
-0.012840815 0.019854162 -0.03652392 -0.07613605 0.005171482 0.07045208 0.08595881 -0.065381855
0.043192115 -0.06539173 0.022129029 0.008632505 -0.0074531343 -0.07184642 -0.0069389106 -0.03777613
-0.023949677 0.063754216 -0.07669679 -0.07601284 -0.020644492 0.040240295 0.04211175 -0.013037587
-0.027674435 0.079581715 0.060772337 -0.076597914 -0.060266282 -0.04870414 0.0052520256 -0.07344869
0.027378567 0.02558761 -0.07410126 -0.0633041 0.09091324 0.08029888 -0.041027416 0.06260208
0.059099928 0.03281726 0.061493956 0.07376796 0.063798994 0.058177702 0.084049076 -0.041652378
0.05087992 0.07638628 0.051771946 0.01009639 -0.0036229163 -0.001281259 -0.08093452 -0.008015478
0.09054989 -0.011317097 -0.00464047 0.047104385 -0.0566335 -0.008872731 -0.026871976 -0.028808335
0.076920405 0.038131516 -0.021577358 0.0317959 -0.06903234 0.017238637 0.015438262 -0.07855898
0.034432635 0.024110941 -0.033075742 0.093885876 0.08107036 0.02749847 0.02376802 -0.03013906
-0.059120227 0.0497634 0.0676069 -0.0055806967 0.09121008 0.08217743 0.055158634 0.0070633288
0.06842435 -0.06831313 0.007863548 0.004460466 0.04411508 0.06841129 0.0034805662 0.0036671183
0.062134344 0.07137264 0.051123537 0.037785936 0.08485062 -0.034856208 -0.04296758 -0.026251888
00000000: 0c2b 78bd abfc 5d3d 496c e7ba 8b12 6cbd
00000010: 3ff3 233d bf48 1a3d d68f cc3c bfca 81bc
00000020: 487a 2cbd 76b2 993d 904d 37bd adc7 8f3d
00000030: 9a43 403d 293f 883d 2ca4 4f3d ce73 babd
00000040: 5359 863d 1070 84bd ed64 7d3d 9928 173d
00000050: 1b28 803d ad0a 8fbd 8c03 3e3d bda3 98bd
00000060: 04a2 583d 0020 97bd f3d3 4d3d eaf1 80bd
00000070: c4af a5bd 5c40 8d3d 02f5 70bd 4080 b13d
00000080: 2343 983b 4873 993c fa87 95bd 56fe 5d3d
00000090: 9c81 90bd 3994 75bb 8006 8d3d 1d42 05bd
000000a0: 8e09 4dbd 338a 983d 9684 7ebd 1fa0 44bd
000000b0: 39d4 08bb 6fa6 35bd 272a 9c3d ba99 973d
000000c0: ca22 69bd 5438 1b3c 3299 96bd 9cc2 9abd
000000d0: c335 63bd 7395 90bd 98f9 99bc a572 33bd
000000e0: b6c5 8e3d debe 91bd 282a c93d b418 13bd
000000f0: 40f2 a1bd 231d 813c 3de1 60bc eac7 83bc
00000100: d3d3 2a3d 8fa6 f13c c703 64bd ef2c 7bbd
00000110: 597c 02bd bb54 123d 0eed b63c 1dc8 1dbd
00000120: da46 b3bc c3dd 9abd d4a0 8cbd 6161 6e3d
00000130: f081 42bd 8f2b a03d 1a1b 233d d216 98bd
00000140: a0a5 12bd dfc4 b83c a81b 27bd 7274 1abd
00000150: 2673 a6bd 8372 91bd c634 32bd fce5 79bc
00000160: d406 6f3c fa07 603d d134 b03d a719 913d
00000170: 1e39 503d e674 033d fcdf 963d d57e 18bc
00000180: 5cb6 fbbc 749d 0c3d 60d8 353d 4882 88bd
00000190: 4a10 07bd d094 f13b 03d3 533d b825 173d
000001a0: 8430 763d 068b b23d 2cad b83d dc80 f1bb
000001b0: 8858 313d 6578 9b3b 4562 0abc 540b 4bbc
000001c0: 0064 0ebc 4ee7 873d 53eb 94bb 0abe d7bc
000001d0: 2305 5dbd fb8b 793c 9a80 113a aba1 883d
000001e0: e924 173d e54c 90bd f7b0 0e3c 066f 2fbd
000001f0: b3ee f2bb 9bba 6fbd 2021 a53c f75a 623d
00000200: 5a09 093d 45a7 3c3d 67f4 a9bc 458e d3bc
00000210: fbaf 8cbd 7458 54bd 2364 34bd cdf5 d4bc
00000220: 8371 093d 6367 ed3c 769b 88bd ab27 7ebd
00000230: 8b47 9abd 041c 943c 1e82 d23b 9ce6 97bd
00000240: d5d6 aa3d f545 da3c fac1 b0bc b8e8 06bc
00000250: 22a4 1cbd 1402 7c3d 099a df3c c35a 97bd
00000260: 4862 52bc 32a5 a23c 1b9a 15bd 38ed 9bbd
00000270: 8975 a93b 2e49 903d 2c0b b03d ece6 85bd
00000280: 37ea 303d 19ec 85bd f047 b53c 5a6f 0d3c
00000290: 6c39 f4bb 3724 93bd cd5f e3bb 25bb 1abd
000002a0: 1d32 c4bc 9291 823d 3513 9dbd 9fac 9bbd
000002b0: a31e a9bc 02d3 243d 5f7d 2c3d 9a9b 55bc
000002c0: 7fb5 e2bc bdfb a23d 6aec 783d 5edf 9cbd
000002d0: c7d9 76bd fe7d 47bd 2f19 ac3b 446c 96bd
000002e0: 0449 e03c 1c9d d13c 67c2 97bd 94a5 81bd
000002f0: b930 ba3d bd73 a43d 5d0c 28bd 8535 803d
00000300: c412 723d 646b 063d 16e1 7b3d a813 973d
00000310: 0ca9 823d be4b 6e3d ec21 ac3d af9b 2abd
00000320: 7767 503d 6970 9c3d d20e 543d 546b 253c
00000330: 736e 6dbb ebef a7ba ffc0 a5bd 5a53 03bc
00000340: 3972 b93d 586b 39bc 150f 98bb 87f0 403d
00000350: 87f8 67bd ee5e 11bc 9e22 dcbc 75ff ebbc
00000360: 7288 9d3d cb2f 1c3d 00c3 b0bc 6b3c 023d
00000370: d460 8dbd 0b38 8d3c c4f0 7c3c 88e3 a0bd
00000380: 3c09 0d3d 4f84 c53c 6e7a 07bd 3d47 c03d
00000390: 3808 a63d 7944 e13c 27b5 c23c 31e6 f6bc
000003a0: 0d28 72bd b5d4 4b3d 7d75 8a3d 47de b6bb
000003b0: 5acc ba3d a44c a83d 05ee 613d 7f73 e73b
000003c0: 1122 8c3d c1e7 8bbd 1cd6 003c 1a29 923b
000003d0: 04b2 343d 381b 8c3d 361a 643b 0954 703b
000003e0: 9580 7e3d d22b 923d ea66 513d 6dc5 1a3d
000003f0: 29c6 ad3d 62c5 0ebd c6fe 2fbd 330e d7bc

lstm.weight_ih_l1 f4 [512, 128]
0.06578679 -0.03071516 -0.08242087 -0.06461068 -0.06500627 0.009931376 -0.009832055 0.014782768
0.015546221 -0.07180705 0.069003865 0.067375235 -0.013542868 0.068104535 -0.015237993 -0.006477195
-0.062434293 -0.05286403 0.06965725 -0.0040862807 -0.08692206 -0.04941276 0.029427834 -0.07628403
-0.04768241 0.062398434 0.031091508 -0.08233066 -0.0013289617 -0.09346684 -0.009056099 -0.062090676
0.09327205 -0.04296704 -0.019818144 -0.005789915 -0.0046212156 -0.044026155 0.06683246 0.0627407
-0.020097733 0.029705564 0.05351488 -0.07164924 0.05365154 -0.06674879 0.016516909 0.04701568
-0.06191662 -0.004960247 -0.059145086 0.03309527 -0.02944752 -0.018654639 -0.0117168315 -0.027437044
-0.07275867 -0.017278867 0.087370686 0.09204641 0.07679561 -0.029468084 -0.07669388 0.0763361
0.08479194 0.049006075 -0.071827315 -0.07575067 0.011022305 -0.04285291 -0.011598138 -0.05088599
0.09017676 0.07671336 -0.030842282 0.060673047 0.04469835 -0.008895247 -0.019811481 0.07391608
0.02886515 -0.018262975 -0.040962946 0.031680755 0.059324246 -0.027899453 -0.042545304 -0.045215983
0.033220027 -0.060707636 -0.04446346 0.073621124 0.013745722 0.059123427 0.07970151 -0.084952585
-0.015342892 0.04181289 0.01667781 0.0667154 -0.024021309 -0.044131976 -0.037883155 -0.038625058
0.03798486 0.06306652 0.030965054 -0.017183635 0.07099975 -0.053214803 -0.061103974 0.036131117
-0.018028405 0.019863598 -0.02592586 -0.036677703 0.06932223 0.031060906 0.07635914 -0.06363202
-0.0071189026 -0.048517592 0.050335027 0.0895862 -0.047137573 -0.02580774 0.07012112 0.03829327
-0.006162046 -0.043894395 -0.08176486 0.05660414 -0.04326896 0.07540444 0.06723605 -0.00052132685
0.085368566 -0.07417282 -0.0047933105 0.08569788 0.055794176 -0.03458047 -0.04346782 -0.04592873
-0.05526375 -0.018913493 0.0011402462 0.034590714 0.090533435 0.055641737 -0.076533064 -0.044070393
-0.03472779 0.04729994 -0.054718442 0.096132755 0.058772877 -0.015849434 -0.0603596 0.07700279
-0.058351118 0.083625525 -0.04619896 -0.018458402 0.06642093 -0.056378476 -0.08169495 0.068172485
-0.069492616 -0.027797729 -0.051607847 0.06311409 -0.0065570823 0.07013071 -0.056126237 -0.08360698
-0.008415223 -0.050081633 0.0134006655 -0.047847334 -0.06993071 0.013392882 0.046098117 0.04472869
-0.054382004 0.08199952 -0.07304311 0.08450315 0.059587557 0.061958276 0.087977745 0.093836844
0.033510156 0.07864098 -0.014145334 -0.011387742 0.09584988 0.09829942 0.050658755 -0.08018149
-0.0448586 -0.09893981 -0.073433205 0.014130829 0.0111343935 0.045355197 0.083245195 -0.017244507
-0.0368231 0.0069354163 -0.040583782 0.019447807 -0.026035508 0.025243632 0.069808446 -0.044938225
-0.06517909 0.00040351308 0.05321538 0.05308474 0.044451956 0.07149993 -0.06584444 0.09134635
0.05951002 0.077860795 -0.022038883 0.07930193 -0.07456973 -0.042225353 -0.036191657 -0.024403246
-0.062757246 0.083453685 0.07297129 0.061286874 -0.09336477 -0.03280389 0.085513 0.06808249
-0.09103078 0.06725445 0.022541596 -0.04439742 0.044653483 0.041486904 0.085339524 0.044350374
-0.054580998 0.040008 0.026942197 -0.07862839 0.09216988 0.046258375 -0.059228472 -0.06114188
00000000: 39bb 863d 5c9e fbbc 46cc a8bd 9b52 84bd
00000010: 0222 85bd 36b7 223c a116 21bc 6c33 723c
00000020: 94b5 7e3c 930f 93bd e651 8d3d 07fc 893d
00000030: e8e2 5dbc 647a 8b3d c6a8 79bc a63e d4bb
00000040: 1abb 7fbd f487 58bd 76a8 8e3d 35e6 85bb
00000050: 3104 b2bd 0965 4abd a412 f13c cd3a 9cbd
00000060: a14e 43bd 8095 7f3d 9eb3 fe3c fa9c a8bd
00000070: 8e30 aeba 8b6b bfbd 0860 14bc cb52 7ebd
00000080: 6b05 bf3d 35fe 2fbd a959 a2bc 54b9 bdbb
00000090: 916d 97bb c554 34bd 75df 883d 327e 803d
000000a0: 00a4 a4bc 1559 f33c 6b32 5b3d d6bc 92bd
000000b0: b8c1 5b3d 97b3 88bd 784e 873c 8393 403d
000000c0: 489c 7dbd 9189 a2bb 1e42 72bd e88e 073d
000000d0: ed3b f1bc 9dd1 98bc f4f7 3fbc a7c3 e0bc
000000e0: 7f02 95bd 698c 8dbc 67ef b23d d482 bc3d
000000f0: 0447 9d3d 0d67 f1bc ae11 9dbd 1a56 9c3d
00000100: 66a7 ad3d 98ba 483d 331a 93bd 2b23 9bbd
00000110: e696 343c 8886 2fbd 1e06 3ebc d46d 50bd
00000120: 98ae b83d e51b 9d3d f4a8 fcbc 4d84 783d
00000130: 9e15 373d 5fbd 11bc b04b a2bc 5061 973d
00000140: 9b76 ec3c 3c9c 95bc c3c8 27bd aec3 013d
00000150: fbfd 723d 658d e4bc fc43 2ebd 6534 39bd
00000160: b911 083d 92a8 78bd 511f 36bd acc6 963d
00000170: bd35 613c 682b 723d 8c3a a33d 9ffb adbd
00000180: c160 7bbc fe43 2b3d e79f 883c 15a2 883d
00000190: 56c8 c4bc bbc3 34bd 5e2b 1bbd 4f35 1ebd
000001a0: 0396 1b3d 0529 813d 6daa fd3c b2c4 8cbc
000001b0: 5168 913d c4f7 59bd 2948 7abd 39fe 133d
000001c0: 4eb0 93bc fcb8 a23c 7862 d4bc 5c3b 16bd
000001d0: d0f8 8d3d 7173 fe3c 2e62 9c3d 8151 82bd
000001e0: af45 e9bb 62ba 46bd 1a2c 4e3d f878 b73d
000001f0: 5413 41bd c16a d3bc a99b 8f3d 67d9 1c3d
00000200: fdea c9bb 9cca 33bd 5674 a7bd bed9 673d
00000210: cb3a 31bd a56d 9a3d 0eb3 893d a7a9 08ba
00000220: b7d5 ae3d ebe7 97bd 3411 9dbb 5f82 af3d
00000230: 6f88 643d 40a4 0dbd 500b 32bd c41f 3cbd
00000240: 3e5c 62bd 78f0 9abc 5074 953a feae 0d3d
00000250: 9869 b93d 97e8 633d 5ebd 9cbd 2883 34bd
00000260: ba3e 0ebd 95bd 413d 7220 60bd 40e1 c43d
00000270: d4bb 703d acd6 81bc a13b 77bd a4b3 9d3d
00000280: 9501 6fbd dc43 ab3d 1f3b 3dbd 1336 97bc
00000290: b207 883d 1eed 66bd af4f a7bd 049e 8b3d
000002a0: 2552 8ebd 10b8 e3bc c062 53bd f641 813d
000002b0: cbdc d6bb b1a0 8f3d a0e4 65bd 233a abbd
000002c0: 01e0 09bc 6622 4dbd 778e 5b3c 91fb 43bd
000002d0: d537 8fbd d26d 5b3c 61d1 3c3d 6e35 373d
000002e0: aabf 5ebd 5def a73d a097 95bd fd0f ad3d
000002f0: 1512 743d f6c7 7d3d ad2d b43d 882d c03d
00000300: f241 093d 860e a13d d5c1 67bc a793 3abc
00000310: f14c c43d 3551 c93d 8e7f 4f3d 3136 a4bd
00000320: a7bd 37bd f5a0 cabd 2664 96bd fe84 673c
00000330: 086d 363c 5fc6 393d 757c aa3d 5a44 8dbc
00000340: d2d3 16bd 7d42 e33b 2e3b 26bd 0251 9f3c
00000350: 6b48 d5bc bccb ce3c bbf7 8e3d 2511 38bd
00000360: 9d7c 85bd 9c8e d339 5ff8 593d 626f 593d
00000370: 4113 363d 8e6e 923d 73d9 86bd cc13 bb3d
00000380: c7c0 733d 7b75 9f3d e38a b4bc 0d69 a23d
00000390: 04b8 98bd 7ef4 2cbd b43d 14bd 51e9 c7bc
000003a0: df86 80bd c4e9 aa3d f971 953d f207 7b3d
000003b0: 0736 bfbd 5f5d 06bd 7121 af3d d56e 8b3d
000003c0: 586e babd b3bc 893d 27a9 b83c 12da 35bd
000003d0: 92e6 363d 2cee 293d 7dc6 ae3d bda8 353d
000003e0: 5390 5fbd 6edf 233d e2b5 dc3c ec07 a1bd
000003f0: 90c3 bc3d 6c79 3d3d 8e99 72bd e86f 7abd

lstm.weight_hh_l1 f4 [512, 128]
0.015079478 -0.075946674 -0.025046473 -0.0886805 0.05125387 -0.006176506 0.023940543 0.08465728
0.0015994298 0.014403247 -0.014285316 -0.041913625 0.082781464 0.04791457 -0.039219745 -0.04425264
0.070764944 -0.08153609 -0.073491305 0.048449248 0.008051832 0.024566473 -0.081822805 0.03765655
-0.0032289897 0.06708483 0.03659173 -0.027658448 0.082661025 -0.092901826 -0.034878656 -0.06208933
-0.05747364 0.0846661 -0.01283338 -0.039751753 0.08859214 0.018523274 0.025370156 0.020842625
-0.08828378 -0.089161284 -0.012652007 -0.048468318 0.0699924 0.057528216 -0.06702597 0.06965864
-0.06890773 0.03317977 -0.028278932 -0.030332081 0.095579214 -0.07235221 0.070378646 0.0118155
-0.04890598 0.032799054 0.06736348 -0.04975198 0.0047785756 -0.078991294 0.04106295 0.015976049
0.043501772 0.07158247 -0.018909782 0.05645604 0.07178991 0.044372376 0.028343616 -0.008707025
-0.032674447 -0.07824052 -0.058649532 -0.063806474 0.0533867 -0.016084567 0.013787731 0.028410176
0.0044959043 0.07184219 -0.0015590157 0.05050459 0.04135496 0.005888336 -0.021525083 0.016067509
0.044579815 0.010165069 0.07545818 0.0025597755 -0.044822592 0.03359217 0.0747087 -0.04763825
0.014257126 0.014656419 0.05345967 0.029118868 0.022775669 -0.01804016 -0.033829 0.066569574
0.06413122 0.050413594 0.057086274 0.07305136 0.066581234 -0.06779176 0.043421563 0.06640744
-0.049842257 -0.03449169 0.050158285 0.04447966 0.06800325 -0.001856576 0.07191506 0.060507853
-0.048282813 -0.09644313 -0.03289951 -0.06359056 -0.011470014 0.060550287 -0.065416425 0.06399045
0.0837604 -0.05305368 0.080899544 -0.0026128688 -0.0079621365 0.071460955 0.07512218 -0.034296706
0.020187043 0.07331451 0.052592408 0.013463045 0.022905955 -0.097433604 0.00848514 0.046318993
0.022863971 0.030585993 -0.058626674 -0.0072260066 -0.04595975 -0.035231505 0.037229434 -0.07232109
-0.015849816 0.06982244 -0.012224153 0.031025087 0.010971647 0.054501645 -0.03250442 0.05341677
-0.0318541 -0.0043867836 -0.030187601 -0.027157424 0.017634576 -0.016854681 -0.010237018 -0.048807107
0.042411625 -0.024652924 0.00035050063 -0.09572944 -0.067716554 -0.074625485 0.06106892 0.050287373
0.068208136 -0.02635287 -0.071754575 -0.02988408 0.03888668 0.009330544 0.04674604 0.06415324
0.06492068 0.074133806 0.09107273 0.06446853 -0.06420233 0.08302477 0.06281025 0.06983264
-0.05606085 -0.061896063 -0.052660637 -0.074727125 0.015873564 0.046826866 -0.06244516 0.0980393
-0.046150208 -0.0652343 0.041773204 0.06789324 -0.055658612 -0.07424975 -0.052831806 0.03681308
0.009942241 0.03643557 0.05266159 -0.08006836 -0.07460441 -0.06631977 0.06464179 -0.09664794
0.08793906 0.037000604 -0.029567102 -0.034281835 -0.04631393 0.021489408 -0.06489567 0.018823486
0.07518948 0.036891688 -0.010453404 -0.051418796 -0.0750583 -0.04005662 -0.05707125 -0.054860268
0.005468331 -0.06927305 0.058528166 0.050194092 -0.07049398 0.0074047567 -0.002481028 0.015138092
0.06505291 0.022948695 0.051916655 0.0073002717 0.00029092655 -0.053680643 5.3024993e-05 -0.08665747
-0.04666281 -0.051694363 -0.09788201 -0.011799667 -0.08422328 0.0010693246 0.07680427 0.05523752
00000000: ea0f 773c ee89 9bbd 432e cdbc 1f9e b5bd
00000010: 94ef 513d 4a64 cabb f51e c43c cc60 ad3d
00000020: f5a3 d13a 99fb 6b3c f50c 6abc 9fad 2bbd
00000030: 5489 a93d 1142 443d e2a4 20bd 4242 35bd
00000040: 36ed 903d 65fc a6bd 9c82 96bd b872 463d
00000050: d5eb 033c a13f c93c b792 a7bd c13d 1a3d
00000060: 759d 53bb c563 893d 36e1 153d f893 e2bc
00000070: 2f4a a93d 5043 bebd ecdc 0ebd 6251 7ebd
00000080: 7b69 6bbd 6c65 ad3d 1943 52bc bcd2 22bd
00000090: cc6f b53d 1fbe 973c 13d5 cf3c 27be aa3c
000000a0: 20ce b4bd 319a b6bd 5d4a 4fbc b786 46bd
000000b0: 2d58 8f3d b5a2 6b3d e944 89bd 30a9 8e3d
000000c0: 7f1f 8dbd 83e7 073d 38a9 e7bc fc7a f8bc
000000d0: 09bf c33d 652d 94bd ae22 903d cd95 413c
000000e0: a351 48bd 4d58 063d ddf5 893d bbc8 4bbd
000000f0: 9995 9c3b 30c6 a1bd a031 283d 34e0 823c
00000100: ea2e 323d d499 923d b0e8 9abc 733e 673d
00000110: 9706 933d cfbf 353d df30 e83c e9a7 0ebc
00000120: a4d5 05bd 913c a0bd 7e3a 70bd f8ac 82bd
00000130: 03ac 5a3d c8c3 83bc efe5 613c 75bc e83c
00000140: 6152 933b 0022 933d e357 ccba e7dd 4e3d
00000150: d263 293d f1f2 c03b 5f55 b0bc 02a0 833c
00000160: 5399 363d 648b 263c d189 9a3d e8c1 273b
00000170: e597 37bd f197 093d e000 993d 5320 43bd
00000180: b896 693c 7a21 703c 87f8 5a3d b18a ee3c
00000190: 0a94 ba3c f5c8 93bc 4790 0abd a155 883d
000001a0: 3b57 833d 7c7e 4e3d 4cd3 693d f49b 953d
000001b0: be5b 883d 68d6 8abd cfda 313d a000 883d
000001c0: 6527 4cbd 2947 0dbd c672 4d3d 4e30 363d
000001d0: 4a45 8b3d 5a58 f3ba 3448 933d 15d7 773d
000001e0: 33c4 45bd fa83 c5bd a3c1 06bd c43b 82bd
000001f0: baec 3bbc 9403 783d 0cf9 85bd 6d0d 833d
00000200: 938a ab3d d14e 59bd a9ae a53d aa3c 2bbb
00000210: 9f73 02bc 1f5a 923d a8d9 993d b47a 0cbd
00000220: 4c5f a53c eb25 963d 236b 573d 1a94 5c3c
00000230: 45a5 bb3c 458b c7bd 4205 0b3c fcb8 3d3d
00000240: 394d bb3c 7a8f fa3c 8622 70bd 23c8 ecbb
00000250: 4a40 3cbd e94e 10bd e47d 183d 141d 94bd
00000260: 79d7 81bc 11ff 8e3d d047 48bc 5328 fe3c
00000270: 6cc2 333c 1e3d 5f3d 5b23 05bd 8bcb 5a3d
00000280: 7279 02bd 02bf 8fbb fd4b f7bc 3f79 debc
00000290: 6376 903c d412 8abc 2ab9 27bc f6e9 47bd
000002a0: d0b7 2d3d eef4 c9bc 66c3 b739 cc0d c4bd
000002b0: faae 8abd 3fd5 98bd 6723 7a3d 22fa 4d3d
000002c0: b5b0 8b3d f9e1 d7bc 10f4 92bd 75cf f4bc
000002d0: a447 1f3d 23df 183c c778 3f3d c662 833d
000002e0: 22f5 843d 77d3 973d 5784 ba3d 1408 843d
000002f0: 837c 83bd e408 aa3d a9a2 803d 6a04 8f3d
00000300: 10a0 65bd ba86 7dbd aeb2 57bd 890a 99bd
00000310: 4709 823c 87cd 3f3d 7fc6 7fbd d4c8 c83d
00000320: 0008 3dbd 9099 85bd 611a 2b3d 9c0b 8b3d
00000330: 49fa 63bd 4110 98bd 2a66 58bd 50c9 163d
00000340: c8e4 223c 773d 153d aeb3 573d e1fa a3bd
00000350: 32ca 98bd a9d2 87bd ea62 843d 5bef c5bd
00000360: 6519 b43d f28d 173d b536 f2bc 1c6b 0cbd
00000370: adb3 3dbd 8e0a b03c 05e8 84bd b633 9a3c
00000380: f1fc 993d bd1b 173d c144 2bbc 849c 52bd
00000390: 2ab8 99bd 6912 24bd 8bc3 69bd 29b5 60bd
000003a0: af2f b33b 07df 8dbd 3bbb 6f3d 5298 4d3d
000003b0: 265f 90bd 9aa3 f23b be98 22bb c305 783c
000003c0: 763a 853d e7fe bb3c 8fa6 543d 1e37 ef3b
000003d0: 8087 9839 3ce0 5bbd 2767 5e38 7979 b1bd
000003e0: 8121 3fbd 78bd 53bd 5d76 c8bd 6453 41bc
000003f0: 417d acbd 9428 8c3a 8f4b 9d3d bd40 623d

lstm.bias_ih_l1 f4 [512]
-0.026361251 0.08032794 0.036363423 0.02208579 0.0197346 -0.03006436 0.073587626 -0.037786186
-0.04618955 -0.03912334 0.048085537 0.02391591 0.010223739 0.058399968 -0.027038613 -0.017951403
0.052813567 0.027507314 0.036947325 0.038481068 -0.04093166 0.02328861 0.06787152 0.09245549
0.013728822 0.016636362 0.04906138 0.02852809 -0.03251678 -0.034370642 0.022478102 0.03556754
0.059185147 0.072320394 -0.04125177 -0.0329452 0.007908265 0.034388654 0.029487567 0.033794098
0.09462895 -0.037100017 0.020040624 0.005913067 0.02958053 -0.03173713 -0.004121721 0.09908672
0.05992544 0.08271444 -0.042851917 0.075591594 0.012502324 0.030428095 -0.06258737 -0.042050693
-0.06523045 0.029949306 0.05232641 0.04257432 -0.02970738 -0.0060505173 -0.006487619 0.05700152
0.03639393 0.060308434 -0.036349747 0.081087746 -0.062139254 0.09867095 0.025465596 -0.011252473
0.00981181 0.035648644 -0.0022222344 -0.034729 0.083083235 0.0020299414 -0.07548336 0.0042054574
0.08656368 -0.037399523 -0.026306434 -0.057901092 -0.07249365 -0.02027471 -0.039998624 0.015961481
-0.06107322 -0.0637359 -0.005501749 0.028897857 -0.035182383 -0.0777022 -0.0019077708 0.038734082
-0.035627134 0.057430178 -0.0267302 0.048730094 0.0036396263 -0.037918363 0.006050769 0.05871592
-0.03626283 0.008973648 -0.05893087 0.052778274 0.025612233 0.06634944 -0.04462591 -0.057677075
0.0060177036 0.0046084663 -0.06298084 0.08625138 -0.02659655 -0.0020202044 -0.0051476955 0.05952616
0.067437895 -0.07631377 -0.067626484 0.094714716 -0.0056024194 0.00828759 -0.043689273 -0.01309573
-0.029866355 0.087048516 -0.029095892 -0.068005264 0.042860337 0.06887129 -0.018460361 0.033249814
-0.022625329 -0.0029023932 -0.0007156639 -0.06687947 0.080716364 -4.118649e-05 0.078502186 -0.07495114
-0.022363335 -0.0037719288 0.018853845 -0.062581114 -0.08918555 0.04149994 0.0026683153 -0.02370173
0.03983958 0.064859174 0.055748872 0.039314117 -0.06283782 -0.00750689 -0.047299344 -0.043705367
0.016893236 -0.004450067 0.019351449 -0.06798052 0.06760727 0.085138075 -0.005260284 -0.049637973
0.033307124 0.0029120676 -0.07903165 -0.016552616 0.042866897 -0.050998352 0.09374934 -0.020966306
-0.027262934 0.0668186 0.01814894 0.038424544 -0.02867762 -0.07863945 0.052225366 -0.024758741
0.09530783 -0.0019347814 0.07182871 -0.02660237 0.029343 -0.030955855 0.067300394 0.007249406
0.023015304 -0.07228569 -0.062452674 0.020575393 -0.027824197 0.08255216 0.07642799 0.09502236
0.07500529 0.040471435 0.068936795 -0.0012922898 0.07888585 -0.0136634745 0.032282554 -0.00849299
0.035105783 0.01592045 0.09030548 0.092959024 0.01940018 -0.064168125 0.052324098 0.042357363
0.060906086 0.0370479 0.014821551 -0.043171324 0.058587395 0.06609939 -0.01877985 0.09848257
0.029728312 0.005096266 -0.07764768 -0.015306955 -0.07588815 0.04726924 0.074534945 -0.053644396
0.026737975 0.09930026 0.0023642548 0.061004065 0.03153123 -0.019181138 -0.02184 0.08590278
0.075505756 0.021037184 -0.022998434 0.07629184 -0.00077751355 -0.0248576 0.0981277 0.06751356
-0.0450812 0.09480639 0.018062875 0.070767134 -0.06797315 0.07168859 -0.08090479 0.0625621
00000000: 8df3 d7bc fa82 a43d d0f1 143d 42ed b43c
00000010: 75aa a13c 8849 f6bc 1cb5 963d b0c5 1abd
00000020: 4131 3dbd cc3f 20bd 57f5 443d 4ceb c33c
00000030: 7881 273c ce34 6f3d 1580 ddbc d20e 93bc
00000040: 0a53 583d 0557 e13c 1456 173d 539e 1d3d
00000050: f5a7 27bd c1c7 be3c 3900 8b3d 4e59 bd3d
00000060: daee 603c fb48 883c 96f4 483d beb3 e93c
00000070: 5130 05bd 3bc8 0cbd ff23 b83c 45af 113d
00000080: 206c 723d b71c 943d 9ef7 28bd 8cf1 06bd
00000090: ab91 013c 1edb 0c3d e98f f13c ae6b 0a3d
000000a0: d3cc c13d 30f6 17bd 3c2c a43c 67c2 c13b
000000b0: de52 f23c cbfe 01bd 800f 87bb faed ca3d
000000c0: 6174 753d 3066 a93d 7e85 2fbd c4cf 9a3d
000000d0: 8cd6 4c3c 5744 f93c cf2d 80bd 593d 2cbd
000000e0: 8b97 85bd 3f58 f53c 3854 563d 6962 2e3d
000000f0: e45c f3bc 6b43 c6bb 1896 d4bb 6d7a 693d
00000100: cd11 153d fa05 773d 79e3 14bd 5511 a63d
00000110: bb85 7ebd ff13 ca3d 3a9d d03c 4b5c 38bc
00000120: b7c1 203c 5004 123d e8a2 11bb ff3f 0ebd
00000130: 8b27 aa3d c408 053b 0597 9abd efcd 893b
00000140: 4c48 b13d 3e30 19bd 9780 d7bc b229 6dbd
00000150: 8d77 94bd 2617 a6bc 99d5 23bd a7c1 823c
00000160: ea27 7abd f887 82bd 0448 b4bb 33bb ec3c
00000170: 671b 10bd 5522 9fbd 2a0e faba a1a7 1e3d
00000180: c2ed 11bd e83b 6b3d 4bf9 dabc 3599 473d
00000190: cc86 6e3b 4950 1bbd 8745 c63b 1b80 703d
000001a0: 5588 14bd 3506 133c 7f61 71bd 082e 583d
000001b0: bfd0 d13c 37e2 873d a9c9 36bd cc3e 6cbd
000001c0: 2830 c53b 9e02 973b 19fc 80bd 90a4 b03d
000001d0: 02e1 d9bc 6865 04bb 00ae a8bb b4d1 733d
000001e0: e11c 8a3d 654a 9cbd c17f 8abd caf9 c13d
000001f0: 8094 b7bb acc8 073c 86f3 32bd 798f 56bc
00000200: 49aa f4bc 7e46 b23d 825a eebc 5846 8bbd
00000210: 528e 2f3d 640c 8d3d 2f3a 97bc f530 083d
00000220: c158 b9bc 1436 3ebb 649b 3bba 1bf8 88bd
00000230: 9f4e a53d a8bf 2cb8 c1c5 a03d fc7f 99bd
00000240: 5033 b7bc 7732 77bb 6173 9a3c 872a 80bd
00000250: eaa6 b6bd d7fb 293d e7de 2e3b 212a c2bc
00000260: d42e 233d e3d4 843d ee58 643d d707 213d
00000270: 1db1 80bd 5cfc f5bb f5bc 41bd 6604 33bd
00000280: af63 8a3c ded1 91bb ee86 9e3c 5f39 8bbd
00000290: ae75 8a3d df5c ae3d 765e acbb 3051 4bbd
000002a0: 0d6d 083d 63d8 3e3b 59db a1bd 5a99 87bc
000002b0: 3395 2f3d a6e3 50bd a7ff bf3d 88c1 abbc
000002c0: 8456 dfbc 31d8 883d 16ad 943c 0e63 1d3d
000002d0: 54ed eabc b80d a1bd 44ea 553d d8d2 cabc
000002e0: c030 c33d 7e98 fdba ee1a 933d 37ed d9bc
000002f0: bb60 f03c 2297 fdbc cad4 893d 6d8c ed3b
00000300: 978a bc3c 850a 94bd 60ce 7fbd ba8d a83c
00000310: 92ef e3bc 1b11 a93d 4786 9c3d 159b c23d
00000320: 609c 993d 60c5 253d bc2e 8d3d 0d62 a9ba
00000330: e88e a13d c4dc 5fbc b63a 043d 2f26 0bbc
00000340: 15cb 0f3d 9b6b 823c 14f2 b83d 4d61 be3d
00000350: 20ed 9e3c 946a 83bd cb51 563d ea7e 2d3d
00000360: a978 793d 8abf 173d 17d6 723c 6ad4 30bd
00000370: 56f9 6f3d 1e5f 873d 33d8 99bc 3bb1 c93d
00000380: ca88 f33c 94fe a63b bf05 9fbd 06ca 7abc
00000390: 3f6b 9bbd 649d 413d c7a5 983d 3aba 5bbd
000003a0: 9909 db3c ef5d cb3d 9df1 1a3b 66df 793d
000003b0: e426 013d c321 9dbc cde9 b2bc cced af3d
000003c0: c3a2 9a3d 2c56 ac3c 3667 bcbc e53e 9c3d
000003d0: 0dd2 4bba 2aa2 cbbc 2df7 c83d 8d44 8a3d
000003e0: 10a7 38bd da29 c23d 98f8 933c 5cee 903d
000003f0: 8235 8bbd 78d1 923d 69b1 a5bd 8f20 803d
