models/TYL model.pth (torch, 799650 bytes, 9 tensors)

lstm.weight_ih_l0 f4 [512, 1]
0	0x3c68a337	0.01419907
1	0x3bf2c392	0.0074085677
2	0x3bf5a890	0.007496901
3	0xbdcb7610	-0.09934628
4	0x3cd32f94	0.025779523
5	0x3d236b9c	0.039897546
6	0xbbe69cbb	-0.0070377267
7	0x3d969b1b	0.07353803
8	0xbd6a4ac4	-0.05720021
9	0x3dc2c0f0	0.09509456
10	0xbd221cc0	-0.0395782
11	0x3e209b07	0.15684138
12	0xbc7508a1	-0.014955671
13	0x3da2d5d9	0.079509445
14	0xbcb9e27b	-0.022691002
15	0xbaa2b903	-0.0012414757
16	0xbcb80c53	-0.022466814
17	0x3b4c8bb7	0.0031211206
18	0xbbca86e4	-0.006180631
19	0xbd6a241e	-0.05716335
20	0x3d8a23ec	0.06745133
21	0x3e04057e	0.1289272
22	0xbd9d6b56	-0.07686488
23	0xbd20e60c	-0.03928189
24	0xbd44bd34	-0.048032
25	0x3d0e960e	0.034811072
26	0xbdaa2414	-0.083076626
27	0x3d2c5330	0.04207152
28	0x3d358d33	0.04432411
29	0x3ce905a0	0.028445065
30	0x3db64ae1	0.08901001
31	0xbcde48a5	-0.027134249
32	0x3d0c7e9b	0.034300428
33	0xbdc5711b	-0.09640714
34	0xbc06d5cb	-0.008229683
35	0x3d0cf0ef	0.03440946
36	0x3c9e5bee	0.019330945
37	0x3de7d0c6	0.11319117
38	0x3dc6ea81	0.09712697
39	0xbdbd4161	-0.09240986
40	0xbd905444	-0.070473224
41	0xbd67c181	-0.056581024
42	0xbdfbe598	-0.12299651
43	0x3d31b529	0.04338566
44	0x3c913c64	0.017728992
45	0xbcd0d62e	-0.025492754
46	0x3dcb80c7	0.09936672
47	0x3d0002de	0.031252734
48	0xbd96faf3	-0.073720835
49	0x3d28248d	0.041050483
50	0x3d8faed6	0.07015769
51	0x3bac1cd6	0.005252461
52	0x3d4c9861	0.049950007
53	0x3de962d9	0.11395807
54	0x3d33dea6	0.043913506
55	0x3c5c7032	0.013454484
56	0x3dabdf42	0.083921924
57	0x3daf4c4e	0.08559476
58	0x3df8c3f2	0.121467486
59	0x3dce4106	0.10070996
60	0x3de2acf5	0.11068145
61	0xbd0d6e57	-0.034529056
62	0x3d2da349	0.04239205
63	0x3d63e5e9	0.05563918
64	0x3dbd202b	0.09234651
65	0x3e00c235	0.12574084
66	0x3d5c60a5	0.053803105
67	0xbcd725e8	-0.026263192
68	0x3e553c9b	0.208239
69	0xbd604762	-0.054755576
70	0x3e0c3947	0.13693725
71	0x3dbdb8f4	0.09263793
72	0x3d39e0fa	0.04538057
73	0xbdb6f0ac	-0.08932623
74	0x3d61e0ac	0.055145904
75	0x3d7d97a7	0.061912205
76	0x3dc4fbff	0.09618377
77	0x3ca28242	0.019837502
78	0xbc120c2e	-0.008914037
79	0x3dfe8a3f	0.12428712
80	0x3cdba0c8	0.026810065
81	0xbdd8481f	-0.10560631
82	0xbcd75cdf	-0.026289402
83	0xbd782c87	-0.06058934
84	0x3d376159	0.044770572
85	0x3ce52be8	0.027975038
86	0x3ce1c672	0.027560446
87	0x3dee28fa	0.116289094
88	0x3d8078b0	0.06273019
89	0xbccb6d18	-0.024832293
90	0x3ddf722e	0.1091045
91	0xbd535df6	-0.05160328
92	0x3cefecf8	0.0292878
93	0x3e13b154	0.14423114
94	0x3d3c37ba	0.045951582
95	0xbd2b64b3	-0.04184408
96	0xbd69b19f	-0.05705416
97	0x3dd19705	0.10233883
98	0x3e0056af	0.12533067
99	0xbb82b418	-0.003988754
100	0xbd8a7d27	-0.06762152
101	0xbd4a66c6	-0.04941442
102	0xbd83a140	-0.0642724
103	0xbd1f6682	-0.03891612
104	0x3dc5df12	0.09661688
105	0x3d5ca02f	0.0538637
106	0x3baea6a7	0.005329925
107	0xbd88b13c	-0.0667443
108	0x3df6d0f5	0.12051574
109	0x3de38532	0.11109389
110	0x3dec8550	0.11548865
111	0xbc8fca1b	-0.017552426
112	0x3ca153ee	0.019693341
113	0x3d05b79d	0.03264581
114	0x3e07ff44	0.1328097
115	0x3d8ad4ae	0.06778847
116	0xbdaabeaa	-0.083371475
117	0x3ced80d2	0.02899209
118	0x3d1f2930	0.03885764
119	0x3db7a595	0.08967129
120	0xbc66c40a	-0.014084825
121	0x3d28835c	0.0411409
122	0x3be27b24	0.006911652
123	0x3cb4d1f3	0.022072768
124	0x3cc611c2	0.02417839
125	0xbdba1fba	-0.090880826
126	0x3d53e6d4	0.051733807
127	0xbd90fdb9	-0.07079644
128	0xbd80aa94	-0.06282535
129	0xbc7b1094	-0.015323777
130	0xbce075f8	-0.027400002
131	0xbda6469b	-0.08118936
132	0x3d0bde3c	0.034147486
133	0x3e04c43f	0.12965487
134	0xbdd7e73a	-0.1054215
135	0x3d8cab2a	0.068685845
136	0x3d7a1f08	0.06106475
137	0x3c2e1307	0.010624654
138	0xbd9e48ea	-0.07728751
139	0x3d3aafd4	0.04557784
140	0xbde3d486	-0.1112452
141	0x3e073feb	0.13207977
142	0xbd3de1b0	-0.04635781
143	0xbe10a6da	-0.14126149
144	0xbd13ea29	-0.036111984
145	0xbd8c77e2	-0.06858803
146	0xbc1651e5	-0.009174799
147	0xbd4fb0ff	-0.050705906
148	0x3e0f18ca	0.139743
149	0x3d148a71	0.03626484
150	0xbe19aa5d	-0.15006395
151	0x3cddf181	0.027092697
152	0x3d3fd60e	0.046834998
153	0x3cf67155	0.030083338
154	0x3b22edd5	0.0024860997
155	0x3d8787bd	0.06617687
156	0x3dcfdb21	0.101492174
157	0x3dab4c83	0.08364203
158	0xbc777902	-0.015104534
159	0x3df73ddd	0.12072346
160	0xbd893086	-0.06698708
161	0xbdfc9b51	-0.12334312
162	0x3c5727e5	0.01313207
163	0x389f55b5	7.597675e-05
164	0xbd414c07	-0.047191646
165	0x3d8c5a0a	0.06853111
166	0x3cfe2a63	0.031026071
167	0xbdf0859f	-0.11744236
168	0xbdb9cfda	-0.09072848
169	0x3d420168	0.047364622
170	0x3d4495cc	0.04799442
171	0x3d184f9c	0.037185296
172	0xbdb367da	-0.087600425
173	0xbd13d145	-0.036088247
174	0x3d961a3f	0.07329225
175	0x3dc85b15	0.097829975
176	0x3d034cf1	0.0320558
177	0x3d9ef3ee	0.0776137
178	0xbcd4a337	-0.025956733
179	0xbd26b8f3	-0.040703725
180	0x3dab3e6d	0.08361516
181	0x3d933318	0.0718748
182	0xbddf6207	-0.10907369
183	0xbdc1d714	-0.09464851
184	0xbbac4578	-0.0052573048
185	0x3cc49203	0.023995405
186	0x3e134a92	0.14383915
187	0x3dbbf63c	0.09177825
188	0x3db844a3	0.089974664
189	0xbc3fa850	-0.011697844
190	0xbcc6c14c	-0.024262093
191	0x3d18b9f8	0.03728673
192	0x3dcc1634	0.099651724
193	0x3de55d57	0.11199444
194	0xbb9e45c7	-0.0048300955
195	0xbc30b3c7	-0.01078505
196	0x3e037151	0.12836196
197	0xbcd5662f	-0.026049701
198	0x3d8ed335	0.06973878
199	0x3dd308d8	0.10304421
200	0x3cf5bb5c	0.029996566
201	0xbde51f63	-0.11187627
202	0x3dd7db0a	0.10539825
203	0xbd57275c	-0.05252777
204	0xbc5814ac	-0.013188522
205	0xbca6a7c2	-0.020343665
206	0xbd0cc87b	-0.03437088
207	0x3dc0ccf2	0.0941409
208	0x3b3e8288	0.0029069502
209	0x3d11b60f	0.035574015
210	0x3d8daa4d	0.06917248
211	0x3d263e4e	0.040586762
212	0x3d53fa49	0.051752362
213	0xbd85777d	-0.06516931
214	0x3c920c78	0.017828211
215	0x3d8b8354	0.06812158
216	0xbcc159e0	-0.023602426
217	0xbd67ce07	-0.056592967
218	0x3e024c94	0.12724525
219	0xbd9a9e8e	-0.07549773
220	0x3d107b0a	0.03527359
221	0x3da863a3	0.08222129
222	0x3d27e591	0.040990416
223	0x3d594b22	0.053050168
224	0xbd872300	-0.065984726
225	0x3d81c88b	0.06337079
226	0xbcf6c778	-0.030124411
227	0xbd2cc034	-0.042175487
228	0xbdc8f35e	-0.098120436
229	0xbb51cb88	-0.0032012183
230	0x3d39565f	0.045248386
231	0xbd9237de	-0.07139562
232	0x3dd99c13	0.10625472
233	0xbd2fab01	-0.04288769
234	0xbbf13750	-0.00736133
235	0xbd990249	-0.07471139
236	0xbcabe65c	-0.020983867
237	0x3decfde3	0.115718625
238	0xbd469b32	-0.04848785
239	0xbd7db2c2	-0.061938055
240	0xbc7627e5	-0.01502416
241	0x3d7d9b92	0.06191594
242	0x3d14be7f	0.036314484
243	0x3db7e845	0.08979849
244	0xbd838305	-0.06421474
245	0x3dc2adc0	0.095057964
246	0x3d401208	0.046892196
247	0x3d21a818	0.039466947
248	0xbd93153a	-0.07181783
249	0x3dbd5de2	0.09246422
250	0xbd98a64e	-0.07453595
251	0xbd7392b1	-0.059466068
252	0x3dbf0d37	0.093286924
253	0x3c774544	0.015092198
254	0xbc7ab039	-0.015300804
255	0xbdaef0ae	-0.08542

lstm.weight_hh_l0 f4 [512, 128]
0	0xbcc52f36	-0.024070363
1	0xbd222ff5	-0.039596517
2	0x3caf0193	0.021363055
3	0xbd84c5fd	-0.06483076
4	0x3db48964	0.08815268
5	0x3d3b3432	0.045704074
6	0xbd1ebd6c	-0.038754866
7	0xbc113243	-0.008862081
8	0x3c3244c4	0.010880653
9	0xbc9fe8a9	-0.01952012
10	0xbd85dde5	-0.06536464
11	0x3c514a6f	0.012774094
12	0xbd6c194f	-0.057641324
13	0xbce36e57	-0.027762575
14	0xbd91c46e	-0.07117544
15	0x3d597457	0.053089466
16	0x3cce497d	0.025181526
17	0xbdde4a10	-0.1085397
18	0x3d71e490	0.059055865
19	0xbcd22459	-0.025652098
20	0xbd12c2f7	-0.035830464
21	0xbd58d879	-0.05294082
22	0x3dd5aff9	0.10433955
23	0xba731d4a	-0.0009274079
24	0x3d964121	0.07336641
25	0x3d8394da	0.064248756
26	0xba7d1c56	-0.00096554065
27	0xbd90df26	-0.07073812
28	0x3d68c093	0.056824278
29	0x3c4474ef	0.01199077
30	0xbd155e28	-0.036466748
31	0xbd2c0aff	-0.042002674
32	0x3d74afc3	0.059737932
33	0x3d3f000f	0.046630915
34	0x3db9d005	0.0907288
35	0xbc51ab0e	-0.01279713
36	0xbda731f3	-0.08163824
37	0x3cba8d87	0.022772564
38	0x3d53713b	0.051621657
39	0x3d933c08	0.071891844
40	0xbd64aee3	-0.055830847
41	0xbd677042	-0.05650354
42	0x3d857097	0.065156154
43	0x3c3658d9	0.011129581
44	0x3df15b1b	0.11784955
45	0x3c8e9450	0.017404705
46	0xbce5f5f8	-0.028071389
47	0x3c8c4779	0.017123925
48	0xbc8fd929	-0.017559605
49	0xbdce5b91	-0.10076059
50	0xbd34c511	-0.04413325
51	0x3cf56a87	0.029958023
52	0x3da52f3c	0.0806565
53	0xbcac8a9a	-0.021062184
54	0x3dcd352f	0.100199096
55	0x3ba4b09b	0.005025936
56	0xbd715748	-0.05892113
57	0xbdc37d9e	-0.09545444
58	0x3d035886	0.032066844
59	0xbcfbb6d4	-0.030726828
60	0x3d8e3608	0.069438994
61	0x3cc2578b	0.023723384
62	0x3da2abd5	0.079429306
63	0x3c1205c8	0.008912511
64	0xbd87639e	-0.06610797
65	0x3d5c05f9	0.053716633
66	0x3d676f2c	0.056502506
67	0x3cfd8d30	0.030951113
68	0xbd93761a	-0.072002605
69	0xbd9043ac	-0.070441574
70	0x3cef1bed	0.02918812
71	0xbd6d4d44	-0.057935014
72	0x3d130b64	0.035899535
73	0xbd113ac9	-0.035456453
74	0x3a1fb021	0.0006091614
75	0x3d01705e	0.031601302
76	0xbd00f0e7	-0.031479742
77	0x3dc9bbde	0.09850286
78	0xbc33af81	-0.010967136
79	0x3d470ed8	0.04859814
80	0x3dd4b77d	0.1038656
81	0x3cf6f2eb	0.03014513
82	0xbdec0409	-0.11524207
83	0xbcc74dce	-0.024329092
84	0xbd65fd47	-0.056149747
85	0x3d30ae50	0.043134987
86	0x3d54594a	0.051842965
87	0xbd70f3da	-0.058826305
88	0xbc80bcb5	-0.015714983
89	0xbda8e067	-0.08245926
90	0x3cb2c38c	0.02182176
91	0x3d5c8d96	0.053845964
92	0x3cfd39de	0.030911382
93	0x3db699c9	0.08916051
94	0x3d3381d6	0.043824993
95	0xbde9711f	-0.11398529
96	0x3d592402	0.053012855
97	0x3d504517	0.05084714
98	0xbbdd91e9	-0.0067617786
99	0xbbe26643	-0.006909163
100	0x3d80729e	0.062718615
101	0x3de969f8	0.11397165
102	0x3db9a5c6	0.09064822
103	0x3cb1dc58	0.021711513
104	0xbcd6c1fd	-0.026215548
105	0x3d63c9a0	0.055612206
106	0x3c1924ae	0.009347124
107	0xbda002ea	-0.07813056
108	0x3db6165a	0.08890982
109	0xbd7dd74b	-0.061972897
110	0xbd90a072	-0.070618525
111	0x3c1d0009	0.009582528
112	0x3db6baa6	0.08922319
113	0x3d566ffe	0.052352898
114	0x3bf6fa68	0.007537175
115	0xbdc0dc7a	-0.094170526
116	0x3dce723d	0.10080383
117	0xbd30ee7a	-0.04319618
118	0x3d095d7f	0.03353643
119	0xbcf132f4	-0.029443242
120	0xbd96801b	-0.07348653
121	0xbcb90dc9	-0.022589581
122	0x3d1ab1cc	0.037767217
123	0x3c553f25	0.013015543
124	0x3d3f2ea9	0.046675358
125	0xbd2c5f80	-0.042083263
126	0xbcb1edc2	-0.021719817
127	0x3db2b13c	0.08725211
128	0xbdbcbfb6	-0.092162535
129	0xbdf14b73	-0.11781969
130	0xbdcc2040	-0.09967089
131	0xbd15c1a9	-0.03656164
132	0xbd132f71	-0.035933916
133	0xbddb9e5e	-0.107235655
134	0xbcc97ab2	-0.024594638
135	0x3c7ac80e	0.015306486
136	0xbcca57c1	-0.024700047
137	0xbcdc9192	-0.026924882
138	0x3b89dae9	0.0042070043
139	0x3db1a3a9	0.08673794
140	0x3cd682c7	0.026185406
141	0x3cc0ad24	0.02352006
142	0xbb016afe	-0.001974761
143	0xba8ff50d	-0.0010983065
144	0xbd38bd16	-0.0451022
145	0x3cccc1dc	0.024994783
146	0xbddba8f0	-0.10725582
147	0xbcbfec2b	-0.023428043
148	0xbc3814c3	-0.011235419
149	0xbd3ca1b9	-0.04605267
150	0x3da4e5e2	0.08051659
151	0x3da2d7cc	0.07951316
152	0xbcd4ab63	-0.02596063
153	0xbd3c7005	-0.046005268
154	0x3de22dc7	0.110438876
155	0xbd916b81	-0.07100583
156	0xbde084e5	-0.109628476
157	0x3dc6311d	0.09677336
158	0xbdb29ae1	-0.08720947
159	0xbd1be0b0	-0.038056076
160	0x3d8d9f56	0.069151565
161	0xbd7ff662	-0.06249083
162	0x3dce1b40	0.10063791
163	0xbd36eba1	-0.044658307
164	0x3c954e78	0.018225893
165	0x3d178a50	0.03699714
166	0xbd32b431	-0.043628875
167	0xbced0b21	-0.02893597
168	0x3addb5b9	0.001691512
169	0xbd09bc5c	-0.0336269
170	0xbc51bc3f	-0.012801229
171	0xbcb2606b	-0.021774491
172	0xbd894676	-0.067028925
173	0x3b86a7c6	0.0041093556
174	0x3d979f57	0.074034385
175	0x3d975e03	0.07390978
176	0x3d2a320a	0.041551627
177	0xbe05184f	-0.12997554
178	0x3b9fbeb2	0.0048750276
179	0x3d37133e	0.044696085
180	0xbe016736	-0.12637028
181	0x3d840413	0.064460896
182	0xbc941950	-0.018078476
183	0x3b96384a	0.004584347
184	0x3b6e6b59	0.0036379902
185	0x3c6da79e	0.014505295
186	0x3d05de79	0.03268287
187	0x3cf1cb7e	0.029515978
188	0xbcfc2dc9	-0.03078355
189	0xbc8e43c1	-0.017366292
190	0xbdc5b7b2	-0.09654178
191	0xbd6aa507	-0.05728629
192	0xbaab50db	-0.0013070361
193	0xbd8c5076	-0.06851284
194	0xbd500425	-0.050785203
195	0x3d353de0	0.04424846
196	0xbdb95ee6	-0.090513036
197	0xbdbaa1ed	-0.09112916
198	0x3d5c0ad7	0.053721275
199	0xbbf727dc	-0.0075425934
200	0xbd92618e	-0.07147513
201	0x3d3ce882	0.046120174
202	0x3d06724d	0.03282385
203	0xbd863c14	-0.06554428
204	0x3d05e870	0.032692373
205	0xbbda06cf	-0.0066536437
206	0xbcac1f06	-0.021010887
207	0x3d8a0fd4	0.067413
208	0xbd090588	-0.03345254
209	0x3d1edd24	0.038785115
210	0xbc77fcba	-0.015135938
211	0x3c67b496	0.014142176
212	0x3cdc4d6b	0.026892385
213	0xbd7fceb2	-0.06245298
214	0xbdc3a605	-0.0955315
215	0xbd2aab36	-0.041667186
216	0x3c9bfbe6	0.019041013
217	0x38313c45	4.225622e-05
218	0xbdd73456	-0.10508029
219	0x3d924cea	0.071435764
220	0xbd7e2005	-0.062042255
221	0x3c2b7353	0.010464507
222	0xbcfdda37	-0.030987842
223	0x3d6bc61a	0.05756197
224	0x3d4e2473	0.05032773
225	0xbd313c01	-0.043270115
226	0x3b9edc6a	0.0048480527
227	0x3b5b76d0	0.0033487566
228	0x3a5744d4	0.00082118553
229	0x3df3dc88	0.119072974
230	0xbccdf944	-0.025143273
231	0x3cc8dcfa	0.024519432
232	0xbd4e00e4	-0.050293818
233	0x3d5bcb7c	0.053660855
234	0x3cfefa43	0.031125193
235	0x3d738174	0.059449628
236	0xbd07a3f5	-0.033115346
237	0xbdc19e62	-0.09454037
238	0xbca71120	-0.020393908
239	0xbda43301	-0.08017541
240	0x3d260c22	0.040538915
241	0x3d873e44	0.06603673
242	0x3d0bc4f4	0.034123376
243	0x3ce82648	0.028338566
244	0x3db976cb	0.09055861
245	0x3d8f61f9	0.07001109
246	0x3d6255ac	0.055257484
247	0xbdf8e728	-0.121534646
248	0xbcac6f9e	-0.021049317
249	0xbdac0e88	-0.08401209
250	0x3c911064	0.017708011
251	0xbc0a9070	-0.008457288
252	0x3d95c3ec	0.0731276
253	0x3d93ea8e	0.07222472
254	0x3daf367e	0.085553154
255	0xbd7ae049	-0.06124905

lstm.bias_ih_l0 f4 [512]
0	0xbd11f266	-0.03563156
1	0x3d44b067	0.048019793
2	0xbd6dbe2f	-0.0580427
3	0xbb6813ac	-0.0035412116
4	0x3db5d65a	0.08878775
5	0x3dbcae63	0.09212949
6	0xbd2a2c92	-0.04154641
7	0xbd888bc1	-0.06667281
8	0x3e05c98c	0.13065165
9	0x3dde7cdc	0.10863659
10	0x3dd9d58f	0.10636436
11	0x3d66b465	0.05632438
12	0x3d0db4ee	0.034596376
13	0xbcd70c48	-0.026250973
14	0xbd0cf73e	-0.034415476
15	0x3d5a0dac	0.053235695
16	0xbd778cc6	-0.060436986
17	0x3df3a57c	0.11896798
18	0xbd00fbce	-0.03149014
19	0xbd49613a	-0.049164988
20	0xbd5bf606	-0.053701423
21	0x3d78aa55	0.060709316
22	0x3e32910d	0.17438145
23	0xbd175864	-0.03694953
24	0xbd8b9aae	-0.06816612
25	0xbc86ab87	-0.016439212
26	0x3d26e723	0.040747773
27	0x3ba2812d	0.0049592466
28	0xbcccda18	-0.025006339
29	0x3d7a10b4	0.061051086
30	0x3d5e0c0d	0.05421071
31	0xbd8027f9	-0.06257624
32	0x3cf074e8	0.02935262
33	0x3da5ab32	0.080892935
34	0x3d1eca1c	0.038766965
35	0x3d11eb31	0.035624687
36	0x3d80c72e	0.062879905
37	0x3d327a93	0.043573927
38	0x3d99a5bf	0.07502317
39	0x3d962bb6	0.07332556
40	0x3d64c678	0.055853337
41	0x3d5c069a	0.053717233
42	0xbd2c1946	-0.04201629
43	0xbc0ed89a	-0.008718634
44	0x3dc998ea	0.09843619
45	0x3d917bb7	0.07103675
46	0x3dabcb21	0.08388353
47	0x3d858625	0.06519727
48	0x3daba774	0.083815485
49	0x3c8c8ae9	0.017156081
50	0x3d51f32d	0.0512573
51	0x3d5dfb1f	0.054194566
52	0x3d37b4bd	0.0448501
53	0xbcc74486	-0.024324667
54	0xbcbfa1c9	-0.023392575
55	0xbd41325e	-0.047167175
56	0x3d91ab65	0.07112769
57	0x3dac6f7c	0.084197015
58	0x3c777feb	0.015106182
59	0xbaacada7	-0.0013174311
60	0xbcf5e686	-0.030017149
61	0xbcfc676f	-0.03081104
62	0x3dbd15e3	0.0923269
63	0x3dcd6257	0.100285225
64	0x3b8ac239	0.004234579
65	0x3b987c66	0.0046535013
66	0x3d2aa8b3	0.04166479
67	0x3c8a0540	0.016848207
68	0x3e4a7523	0.19771247
69	0x3c6c745f	0.014432042
70	0xbd0f8af3	-0.03504462
71	0x3e0c1996	0.13681635
72	0x3db31ae7	0.087453656
73	0xbd2cce3d	-0.04218887
74	0x3d5f55d8	0.054525226
75	0xbd3f552c	-0.046712086
76	0x3da3512e	0.07974468
77	0x3c39f19f	0.011349111
78	0x3df1156e	0.117716655
79	0x3cfc68ed	0.030811751
80	0xbd7c1260	-0.06154096
81	0xbdcf4ceb	-0.10122093
82	0x3daf2529	0.085520096
83	0x3d1ea2c8	0.03872946
84	0xbda3f25b	-0.0800521
85	0x3e10f35c	0.14155334
86	0x3cea649e	0.028612431
87	0xbd2b59ad	-0.04183357
88	0xbd401313	-0.04689319
89	0xbd222ed5	-0.039595444
90	0x3ddebd6c	0.10875973
91	0xbd492f57	-0.049117412
92	0x3ca0ee50	0.019644886
93	0x3d84bf53	0.06481805
94	0x3d63ad03	0.05558492
95	0xbc882911	-0.016621144
96	0x3cd58565	0.026064584
97	0x3d4e818d	0.050416518
98	0x3cc28edc	0.023749761
99	0x3dbbb762	0.09165837
100	0x3df258fe	0.1183338
101	0xbd79dab6	-0.060999595
102	0xbd6a1859	-0.057152126
103	0xbcae97c9	-0.021312611
104	0xbb7b4ff7	-0.0038347223
105	0x3e03f791	0.12887408
106	0xbd4bad72	-0.049725957
107	0xbcdb0620	-0.026736319
108	0x3d993c89	0.07482249
109	0x3ddfe9d2	0.109332696
110	0x3b7e4fbf	0.0038804857
111	0x3cbccfc5	0.023048291
112	0x3d84a19c	0.06476137
113	0xbc0a4a51	-0.00844057
114	0xbcf306f7	-0.029666407
115	0x3db6995e	0.08915971
116	0x3c926098	0.017868325
117	0x3c16336c	0.009167533
118	0x3dea86b9	0.114514776
119	0xbd890e3d	-0.06692169
120	0x3d966d04	0.07345012
121	0x3cce5ed7	0.025191708
122	0xbc85e561	-0.016344728
123	0x3d9d8f1c	0.076933116
124	0xbcc70013	-0.024292028
125	0xbaff9226	-0.0019498512
126	0x3cee26e2	0.029071275
127	0xbd29ed53	-0.041486096
128	0xbd2882dd	-0.041140426
129	0xbc3def4e	-0.011592699
130	0x3da3f0df	0.08004927
131	0xbd9356e1	-0.07194305
132	0x3d942bb6	0.072349
133	0x3bcb5daf	0.0062062363
134	0xbc568ca3	-0.013095054
135	0x3c9e86b8	0.019351348
136	0x3d9a410c	0.07531938
137	0x3dadd98b	0.08488759
138	0x3d1d6337	0.038424697
139	0x3d7a2cfc	0.061078057
140	0x3ba4d56a	0.0050303238
141	0xbd5ebd0b	-0.054379504
142	0x3d3872d6	0.04503139
143	0x3d9feb7a	0.078085855
144	0x3c9d3ccf	0.019194035
145	0x3c40fa95	0.011778493
146	0xbd85c866	-0.065323636
147	0xbcf8f448	-0.03038992
148	0x3d1a2b60	0.037639022
149	0x3c2c1b4a	0.010504553
150	0x3e08a05b	0.13342421
151	0x3b28b655	0.0025743444
152	0xbd45b0e2	-0.04826439
153	0x3b9189a0	0.004441455
154	0xbdb9f38a	-0.090796545
155	0xbd7e4ea1	-0.062086705
156	0xbda526eb	-0.08064064
157	0x3dcbe585	0.09955887
158	0xbc1566f2	-0.009118782
159	0x3d4a699b	0.04941712
160	0xb997e17a	-0.00028968957
161	0xbd90800b	-0.07055672
162	0x3ab0af99	0.0013480067
163	0xbce6006a	-0.02807637
164	0xbd934453	-0.07190766
165	0xbbdafb93	-0.006682822
166	0x3d71dc76	0.05904814
167	0xbc36e5c5	-0.01116318
168	0xbdacd725	-0.08439473
169	0xbd6b88db	-0.057503562
170	0x3d8c3685	0.06846336
171	0xbd1b3c3d	-0.037899245
172	0x3ccecf7c	0.02524542
173	0x3cc31583	0.023813969
174	0xbd894b01	-0.06703759
175	0xbd99215a	-0.074770644
176	0x3da29a93	0.07939639
177	0xbbfff689	-0.0078113717
178	0xbd83c1af	-0.064334266
179	0x3d4853e4	0.04890813
180	0x3da7aaf4	0.081869036
181	0x3d7970e4	0.060898677
182	0xbd38b775	-0.045096833
183	0xbd2f6d50	-0.042828858
184	0xbd8faf0c	-0.070158094
185	0x3d044ff2	0.032302804
186	0xbcd2c7a3	-0.02572996
187	0xbd0a0160	-0.033692718
188	0xbd86b4db	-0.06577464
189	0xbbcc60b3	-0.0062371134
190	0xbd7e8868	-0.062141806
191	0xbd1b8cdb	-0.037976127
192	0x3cac66dc	0.02104514
193	0xbd5401a3	-0.051759373
194	0xbc0baf85	-0.008525734
195	0xbd7e0514	-0.06201656
196	0xbdd5b540	-0.10434961
197	0xbd0dcb00	-0.034617424
198	0x3da2313d	0.07919548
199	0xbdb74092	-0.08947863
200	0xbd2bd2a4	-0.04194893
201	0x3b38ae85	0.0028180194
202	0xbcc4dcff	-0.02403116
203	0xbd44da87	-0.048059966
204	0x3da31ee4	0.07964876
205	0x3d30fb25	0.04320826
206	0xbd4580e9	-0.04821864
207	0xbc4f28cc	-0.012644004
208	0xbcc6aa39	-0.02425109
209	0x3d2b7c0b	0.041866343
210	0x3da5afab	0.08090147
211	0x3d5898fa	0.052880265
212	0xbd6bdd93	-0.057584357
213	0xbd8ae418	-0.06781787
214	0xbd3146c8	-0.043280393
215	0xbd9ba9a7	-0.07600718
216	0xbd5109a2	-0.051034577
217	0xbc6dc2d0	-0.014511779
218	0x3daa51f1	0.0831641
219	0x3d93f249	0.072239466
220	0x3d8dc784	0.0692282
221	0xbd8e8489	-0.06958873
222	0xbcbfecba	-0.02342831
223	0xbd11ab9f	-0.03556406
224	0xbd9b0f67	-0.07571297
225	0xbd8e9df4	-0.06963721
226	0xbda5a4d7	-0.08088081
227	0x3c9c2fbc	0.01906573
228	0x3ce6f636	0.028193574
229	0x3d44118d	0.0478683
230	0xbca9b8fe	-0.020718094
231	0xbd05d05f	-0.03266942
232	0xbdb3c5f3	-0.0877799
233	0xbdac7fe5	-0.084228314
234	0xbd836e5a	-0.06417532
235	0x3daaf1a2	0.08346869
236	0x3d520790	0.051276743
237	0xbc8fe475	-0.017564991
238	0xbb863443	-0.0040955856
239	0x3d8919ac	0.0669435
240	0x3c36de1b	0.0111613525
241	0xbd663404	-0.05620195
242	0xbc7043b6	-0.014664581
243	0xbc609b24	-0.013708863
244	0xbd63ef60	-0.055648208
245	0x3daf42db	0.085576735
246	0xbd40ee1e	-0.047102086
247	0xbba7a02f	-0.005115531
248	0x3ce75748	0.028239861
249	0x3d3030c7	0.043015268
250	0xbd245873	-0.040123414
251	0xbd7b2fc0	-0.061324835
252	0x3add967c	0.001690581
253	0xbdad0ef6	-0.08450119
254	0xbda9c916	-0.08290307
255	0xbcecccb6	-0.028906208

lstm.bias_hh_l0 f4 [512]
0	0x3dd693b7	0.10477393
1	0x3dfb5035	0.12271158
2	0xbda7a9d0	-0.08186686
3	0xbbca1764	-0.006167339
4	0x3ca0bb7c	0.01962065
5	0x3cf17045	0.02947248
6	0xbd8a0c5f	-0.06740641
7	0x3cc30c2d	0.023809517
8	0x3d9a2df0	0.07528293
9	0xbb45268c	-0.003008279
10	0x3e10af83	0.14129452
11	0x3c48bbc4	0.012251798
12	0xbd93c9d9	-0.07216234
13	0x3b0c1192	0.0021372777
14	0x3d7d2164	0.061799422
15	0x3db89a1f	0.09013771
16	0x3c86ca43	0.016453868
17	0x3d7aff73	0.06127877
18	0x3d992337	0.0747742
19	0x3c04a33e	0.008095561
20	0xbd4aef87	-0.049544837
21	0xbc3e5b16	-0.011618396
22	0x3e829727	0.25505945
23	0x3d967f64	0.073485166
24	0xbdae4f73	-0.085112475
25	0xbce8f3e8	-0.028436616
26	0xbb800e5b	-0.0039079613
27	0x3c0528ac	0.008127373
28	0x3d477c16	0.048702322
29	0xbd26258e	-0.04056316
30	0x3d89adb9	0.06722588
31	0x3c005235	0.0078321
32	0x3d52ffaf	0.05151337
33	0x3d793147	0.06083801
34	0xbd8fb798	-0.070174396
35	0x3dab273f	0.08357095
36	0x3d75fe48	0.060056955
37	0x3cf79e7d	0.03022694
38	0xbd545278	-0.05183646
39	0xbd43522d	-0.04768579
40	0xbd8a141a	-0.06742115
41	0xbda23cac	-0.079217285
42	0xbd70aebc	-0.05876039
43	0xbd8a28f5	-0.06746093
44	0x3ddc39dc	0.10753223
45	0x3ded6543	0.1159158
46	0xbb42ce0a	-0.002972486
47	0x3e67c4a9	0.22633614
48	0x3e0dce26	0.1384817
49	0x3db44bc0	0.08803511
50	0x3d955b3f	0.072927944
51	0x3ca6a2ee	0.020341363
52	0xbc2ce606	-0.010552889
53	0x3dcdc2dd	0.10046933
54	0xbd81e683	-0.06342795
55	0x3c9d0ad8	0.01917021
56	0x3d179f60	0.037017226
57	0x3d49b1d2	0.04924185
58	0xbd4fa4a8	-0.050694138
59	0x3d474f05	0.048659343
60	0x3d96e9ac	0.07368788
61	0x3e00ab83	0.12565427
62	0xbac61fe4	-0.0015115705
63	0x3d1a9799	0.03774223
64	0xbcf227f4	-0.029560067
65	0x3d944c50	0.07241118
66	0x3c9c83f0	0.019105881
67	0x3ca57929	0.020199375
68	0x3d9d154e	0.07670079
69	0xb9e63c1c	-0.00043913804
70	0xbc81b04d	-0.015831137
71	0x3e79f5ec	0.24410218
72	0x3de9a720	0.1140883
73	0xba74e777	-0.0009342352
74	0xbd0000da	-0.031250812
75	0x3dc9c201	0.098514564
76	0x3d4ada19	0.0495244
77	0x3d64452c	0.05573003
78	0xbd5893c8	-0.05287531
79	0x3d7da5d5	0.061925728
80	0x3d9637b3	0.073348425
81	0x3d809bc1	0.06279708
82	0x3dddc69a	0.10828896
83	0xbcf4d214	-0.02988533
84	0x3c20936c	0.009800773
85	0x3dc9ada1	0.0984757
86	0xbd0c9388	-0.034320384
87	0x3d7e7ea5	0.062132496
88	0xbd76bb70	-0.060237348
89	0x3dc62771	0.096754916
90	0xbd449601	-0.047994617
91	0x3d5f3b6e	0.054500036
92	0x3d2c5c4d	0.042080212
93	0x3e0d36ae	0.1379039
94	0x3aad10dd	0.0013203878
95	0x3d657c5f	0.056026813
96	0x3d96cb21	0.073629625
97	0x3d132df9	0.035932515
98	0xbd0fe443	-0.035129797
99	0xbd65b212	-0.056078024
100	0x3cdd5ce2	0.027021829
101	0xbcec888b	-0.028873703
102	0xbcc7275d	-0.024310762
103	0x3d677ec7	0.05651739
104	0xbcec39a5	-0.02883608
105	0xbb78922a	-0.0037928917
106	0xbcb2efec	-0.02184292
107	0x3c17f024	0.009273563
108	0xbbdaef66	-0.0066813705
109	0xb98cd263	-0.0002685963
110	0xbca6414f	-0.020294813
111	0x3e10acb5	0.14128383
112	0x3c1d84ee	0.009614212
113	0xbc104e9f	-0.008807807
114	0xbb2c11cf	-0.0026255732
115	0x3dc862f7	0.09784501
116	0xbd1301c9	-0.035890374
117	0x3da523c5	0.08063463
118	0x3e1eadd7	0.15496002
119	0xbcd90c10	-0.02649501
120	0x3bc2e57a	0.005947766
121	0x3dbd6589	0.09247882
122	0x3c08607f	0.008323788
123	0x3d9033dc	0.070411414
124	0x3da6d526	0.081461236
125	0xbd1aebf8	-0.037822694
126	0x3d76da94	0.060267046
127	0x3cd8862b	0.026431164
128	0x3ce228fe	0.027607437
129	0x3c89bee4	0.016814657
130	0xbd4ef41a	-0.050525762
131	0xbc7bd3d4	-0.015370328
132	0x3cd3d713	0.025859391
133	0xbd0ca7a4	-0.034339562
134	0xbda79c59	-0.08184118
135	0xbd4c3f3b	-0.04986499
136	0x3b954670	0.004555516
137	0xbd5fef28	-0.054671437
138	0xbd0cdef9	-0.03439233
139	0x3d15d2b6	0.036577903
140	0x3d9195ef	0.07108676
141	0xbd8f22ec	-0.06989083
142	0x3d5bd643	0.053671133
143	0x3d2db71b	0.04241095
144	0x3c8793e6	0.016550016
145	0x3caa897d	0.020817513
146	0x3d7271b1	0.059190456
147	0xbd9918a0	-0.074754
148	0xbbe5859a	-0.007004452
149	0x3c274d71	0.010211335
150	0xbd15c1a8	-0.036561638
151	0x3c1ff60c	0.009763252
152	0x3d0c0dca	0.034192838
153	0x3d3e7548	0.046498567
154	0xbdc2870f	-0.09498417
155	0xbc037eb8	-0.008025818
156	0x3da706ea	0.08155616
157	0x3d77a5ff	0.06046104
158	0x3d7a421a	0.061098196
159	0xbda52690	-0.08063996
160	0xbd0ddf8f	-0.03463703
161	0xbbdb87d9	-0.006699544
162	0x3d3fc40e	0.04681783
163	0xbd7c8596	-0.061650835
164	0xbdb47374	-0.088110834
165	0xbd86dd97	-0.06585234
166	0x3d6cd285	0.057817955
167	0x3c8f175a	0.01746719
168	0x3ce06249	0.027390616
169	0xbd1d4bbb	-0.0384023
170	0x3d11e76f	0.035621103
171	0x3d7c238c	0.061557338
172	0xbda142c0	-0.0787406
173	0x3d7c0489	0.061527763
174	0x3ccacdd0	0.024756342
175	0xbdc33ed0	-0.09533465
176	0x3d709e91	0.05874497
177	0x3d47b8f4	0.04876037
178	0x3da91b51	0.08257163
179	0x3b653cc2	0.0034978841
180	0x3cb4f0eb	0.022087535
181	0xbd268d83	-0.0406623
182	0x3d0b5783	0.034019005
183	0x3da08d03	0.07839396
184	0x3d831b9d	0.06401751
185	0x3ce3f77d	0.027827973
186	0xbbe9855d	-0.007126494
187	0xbbfd8867	-0.0077372077
188	0xbd9277cd	-0.071517564
189	0xbd8196f4	-0.0632762
190	0x3cd7fb7a	0.02636503
191	0xbd0c3901	-0.03423405
192	0x3c294a00	0.010332584
193	0x3aab786e	0.0013082155
194	0x3d9f9c5d	0.07793496
195	0xbdab8db9	-0.08376641
196	0xbbdaf61f	-0.006682172
197	0x3db81150	0.08987677
198	0xbd96dc8e	-0.07366286
199	0xbc1819dc	-0.009283509
200	0x3b7ea0bb	0.0038853127
201	0x3d0bbe65	0.03411712
202	0xbd6d4b93	-0.0579334
203	0xbc98e98e	-0.018666055
204	0xbd0b44f8	-0.03400132
205	0xbb3a1148	-0.0028391648
206	0x3dc097d3	0.09403958
207	0x3d133481	0.035938744
208	0xbd92a793	-0.071608685
209	0x3c5845e5	0.013200258
210	0x3d47c035	0.048767287
211	0x3cefe2c0	0.029282928
212	0xbc19e907	-0.009393937
213	0xba915cee	-0.0011090317
214	0xbdc0b36d	-0.09409223
215	0x3d943a14	0.0723764
216	0x3d393880	0.0452199
217	0xbc30b476	-0.010785213
218	0x3c2da71a	0.010598922
219	0x3d92dc69	0.07170946
220	0xbbdff911	-0.006835111
221	0x3c84ede7	0.016226722
222	0xbdb78f6e	-0.08962904
223	0x3c8dedcb	0.017325303
224	0x3dadd33b	0.08487555
225	0x3d152bd6	0.03641876
226	0x3d39f398	0.045398325
227	0x3d0a8e19	0.03382692
228	0x3caa41fd	0.020783419
229	0x3d26b8d3	0.040703606
230	0xbcae3396	-0.021264832
231	0x3c91f217	0.017815633
232	0x3c818fa1	0.015815558
233	0x3d041dbe	0.032254927
234	0xbd982161	-0.074282415
235	0xbd8841cd	-0.066531755
236	0x3dafb5be	0.085795864
237	0x3d9a41ed	0.075321056
238	0xbcb5a62a	-0.02217396
239	0x3b85c9cb	0.0040828935
240	0x3a1e044e	0.0006027863
241	0x3d8a6fb4	0.06759587
242	0xbd251250	-0.040300667
243	0xbcd40661	-0.025881948
244	0xbd415b0a	-0.047205962
245	0x3b5593db	0.003258935
246	0x3ab02c80	0.0013440996
247	0xbd44116e	-0.047868185
248	0x3d10602b	0.035247963
249	0x3d3ec6db	0.046576362
250	0x3d4b39d3	0.049615692
251	0xbd61f5cf	-0.055166062
252	0xbd04c4f4	-0.03241439
253	0xbc8131ac	-0.015770756
254	0xbd8738eb	-0.06602653
255	0xbd3ba23d	-0.04580902

lstm.weight_ih_l1 f4 [512, 128]
0	0x3c337753	0.010953742
1	0x3bdd0774	0.0067452732
2	0x3d7946f6	0.06085869
3	0x3d063c09	0.032772098
4	0x3ce74a42	0.028233651
5	0xbbe15fb2	-0.006877863
6	0x3d6fc74f	0.058539685
7	0xbde1fcf2	-0.110345736
8	0xbca13e2f	-0.019682972
9	0xbcd4e0f4	-0.025986172
10	0x3c4f61df	0.012657612
11	0x3da94ad8	0.082662284
12	0xbc614790	-0.013749972
13	0xbd027306	-0.031847976
14	0xbba0a11b	-0.004902018
15	0xbd407e78	-0.04699561
16	0x3d851aa7	0.06499224
17	0xbdba3836	-0.09092753
18	0xbc718044	-0.014740054
19	0xbd784674	-0.060614064
20	0x3b2eccb6	0.002667231
21	0x3d6d4b87	0.057933357
22	0x3dee8bb9	0.11647744
23	0x3c1e3ae2	0.009657593
24	0x3d88d3b2	0.06681003
25	0x3dd24f7b	0.10269066
26	0x3d195340	0.03743291
27	0xbcbe4bdd	-0.023229534
28	0xbd4d279b	-0.0500866
29	0xbbeb17f4	-0.0071744863
30	0xbc8f8d53	-0.017523443
31	0x3d808edd	0.06277249
32	0x3b6ab441	0.0035813006
33	0x3aaabbb5	0.0013025912
34	0x3d995e65	0.074887075
35	0x3b53afd0	0.0032300837
36	0x3c8c15ba	0.017100204
37	0x3d597dd5	0.05309852
38	0xbc0a2473	-0.008431542
39	0x3d2f51da	0.04280267
40	0x3c045090	0.008075848
41	0x3c8bce26	0.017066073
42	0x3d160722	0.036627896
43	0x3cba30fa	0.022728432
44	0xbd8fcd4a	-0.07021578
45	0xbcbfd65c	-0.023417644
46	0x3d86d82d	0.06584201
47	0xbd9bc0d2	-0.07605137
48	0xbdc49179	-0.09598059
49	0xbe0eb0d8	-0.13934648
50	0x3cd89bee	0.02644154
51	0xbcce2cbc	-0.025167815
52	0xbd97f558	-0.074198425
53	0xbd29c379	-0.041446183
54	0x3d1da200	0.038484573
55	0x3daad8b9	0.08342118
56	0x3dc2bd4b	0.09508761
57	0xbda4d93a	-0.08049245
58	0xbbdf99a0	-0.0068237334
59	0x3d5fb176	0.0546126
60	0x3d5d7921	0.054070596
61	0x3d898c58	0.067162216
62	0xbcc74cdd	-0.024328643
63	0x3d0a6194	0.033784464
64	0x3cf1d5b3	0.029520845
65	0xbd280208	-0.041017562
66	0xbd710acf	-0.0588482
67	0x3d79e85d	0.061012615
68	0xbd739d29	-0.05947605
69	0xbd42e6ab	-0.047583263
70	0x3c6d95b1	0.014501021
71	0xbd733e97	-0.059385862
72	0x3d9c0a05	0.076190986
73	0xbc5beedc	-0.013423648
74	0xbcdb2209	-0.026749628
75	0xbdb6257c	-0.08893868
76	0x3d2fc8e1	0.042916182
77	0xbd8c43e6	-0.06848888
78	0xbda6aae7	-0.08138066
79	0xbd093582	-0.033498295
80	0x3d0716eb	0.03298084
81	0xbcf28395	-0.029603759
82	0x3d3460a9	0.044037495
83	0x3d7b3f2a	0.061339535
84	0xbd6e4f4d	-0.058181096
85	0xbd415eee	-0.047209673
86	0x3d8da884	0.069169074
87	0x3d169c40	0.036770105
88	0x3d87cd8a	0.06631
89	0x3d2824d7	0.04105076
90	0xbd1efd9f	-0.03881609
91	0x3d3054ee	0.043049745
92	0x3ce81e72	0.02833483
93	0x3d6f0518	0.058354467
94	0x3d1b8c0f	0.037975367
95	0xbc15d382	-0.009144666
96	0x3d9128a1	0.070878275
97	0x3cd833aa	0.026391823
98	0x3c8b2272	0.016984198
99	0xbdaf80fe	-0.08569525
100	0x3db7e95f	0.08980059
101	0x3b9c248d	0.0047650994
102	0xbcb1f776	-0.021724444
103	0xbc1e3f13	-0.009658593
104	0x3d3b665e	0.04575192
105	0x3ce530a9	0.027977305
106	0xbb51173f	-0.0031904725
107	0xbce5a745	-0.028033862
108	0x3ca78ad1	0.020451935
109	0x3c5ac568	0.013352729
110	0xbd6699a2	-0.05629886
111	0xbdd1d3bf	-0.102454655
112	0x3d713d86	0.058896564
113	0xbd2e3818	-0.042533964
114	0xbd4a0064	-0.04931678
115	0xbd89a662	-0.06721188
116	0xbd6c9a65	-0.05776443
117	0xbd66e416	-0.056369863
118	0xbda41eee	-0.08013712
119	0xbd01f63d	-0.03172897
120	0xbd5110b0	-0.051041305
121	0x3d119aed	0.03554814
122	0xbd8ee107	-0.06976514
123	0xbdcd1976	-0.10014622
124	0x3d271dda	0.040799953
125	0x3a87dfc0	0.0010366365
126	0x3d6aa356	0.057284676
127	0x3cbea839	0.023273574
128	0x3ad9b5b1	0.0016609934
129	0xbcfb28c6	-0.03065909
130	0x3d5fab4a	0.054606713
131	0x3d17187b	0.03688858
132	0x3cc89500	0.024485111
133	0xbc0b7b6b	-0.008513312
134	0x3d9058a4	0.07048157
135	0xbd4329d9	-0.04764733
136	0xbcbeb5a2	-0.023279969
137	0xbdb3e1ee	-0.08783327
138	0xbca2119e	-0.019783791
139	0xbda9fc69	-0.083000965
140	0x3c6615b3	0.014043259
141	0x3cf77783	0.030208355
142	0x3c226156	0.009910902
143	0x3c4d5bce	0.012534095
144	0xbd8a5045	-0.067535914
145	0x3bfea981	0.0077716713
146	0xbd88c89f	-0.066788904
147	0xbd4019dd	-0.046899665
148	0xbdcac4c1	-0.09900809
149	0xbd78e512	-0.060765333
150	0x3da28beb	0.079368435
151	0x3babefdf	0.0052471007
152	0x3dc1925a	0.094517425
153	0xbcaaff45	-0.020873675
154	0xbd276c91	-0.04087502
155	0x3d95813b	0.073000394
156	0x3c9d2729	0.019183712
157	0x3d301867	0.042992022
158	0x3d6b2bb6	0.057414733
159	0xbd1b0b3d	-0.037852515
160	0x3b944f3f	0.0045260484
161	0xbc868da2	-0.016424958
162	0x3d560fdc	0.05226122
163	0x3dc0e86c	0.09419331
164	0xbd157cd8	-0.036496013
165	0x3dad7030	0.08468664
166	0x3c95a0df	0.018265186
167	0x3c58a932	0.013223933
168	0x3c9cdfef	0.019149749
169	0xbdda4575	-0.10657779
170	0xbd0be8b7	-0.03415748
171	0xbdda71a9	-0.1066621
172	0x3dac43e6	0.08411388
173	0xbba114a8	-0.0049157925
174	0x3b631635	0.0034650688
175	0xbd70667e	-0.058691494
176	0xbd53bf8c	-0.051696345
177	0x3d8806d3	0.066419266
178	0x3c2a2739	0.010385328
179	0x3d4cdf3d	0.050017584
180	0xbdb37807	-0.08763128
181	0xbbd18ce5	-0.0063949698
182	0x3c4d2abc	0.012522396
183	0xbc1580ee	-0.0091249775
184	0x3db1e059	0.08685369
185	0x3c824591	0.015902312
186	0x3d51b5d9	0.051198814
187	0x3dadad6d	0.08480344
188	0x3d79b3ee	0.06096261
189	0xbd67f9eb	-0.056634825
190	0xbd7f0c85	-0.0622678
191	0xbd7f9f3a	-0.06240771
192	0xbd70cb97	-0.05878791
193	0x3b09989b	0.00209955
194	0x3d51d611	0.05122954
195	0xbcb19694	-0.021678247
196	0x3d5cc7b1	0.053901378
197	0xbdb28195	-0.08716122
198	0xbd8c8b4e	-0.06862508
199	0x3db7dbe8	0.08977491
200	0x3d8f5b94	0.06999889
201	0x3d340d83	0.0439582
202	0x3bd13138	0.006384041
203	0x3c98cb90	0.018651754
204	0x3d631381	0.055438522
205	0x3c5429ae	0.01294939
206	0xbd1a78c9	-0.037712846
207	0xbc446b8c	-0.011988532
208	0xbc9b75e2	-0.01897711
209	0xbca36e22	-0.019949976
210	0xbcaeaccd	-0.021322632
211	0xbc5d531f	-0.013508587
212	0x3d315fbd	0.043304194
213	0x3db013ec	0.0859755
214	0x3d8a8f98	0.067656696
215	0xbd13b3a2	-0.036059983
216	0x3d8effcd	0.06982384
217	0xbd3301f8	-0.04370305
218	0xbd814cce	-0.063134775
219	0x3ac346f9	0.0014898471
220	0x3d5154c2	0.051106222
221	0x3deb41e1	0.11487175
222	0xbd86d7e5	-0.06584147
223	0xbd01b347	-0.031665113
224	0xbdb92043	-0.090393566
225	0x3d924518	0.07142085
226	0x3d96f890	0.07371628
227	0xbcfef469	-0.031122403
228	0x3d617a76	0.05504843
229	0x3d31fe20	0.043455243
230	0xbb0b08e6	-0.002121502
231	0xbdaededc	-0.08538601
232	0xbd329505	-0.043599147
233	0x3c8eeb5f	0.017446218
234	0xbb5a8936	-0.0033345944
235	0xbc8d325d	-0.01723593
236	0x3d88f3db	0.06687137
237	0xbd6c5cb5	-0.0577056
238	0xb989325e	-0.00026168203
239	0xbd004ba7	-0.031322148
240	0xbc2f274e	-0.010690523
241	0xbda16c12	-0.07881941
242	0xbd500d6a	-0.050794043
243	0xbc9e11ca	-0.019295592
244	0xbd5c8775	-0.05384012
245	0x3da049b9	0.078265615
246	0x3d1c2c57	0.038128223
247	0xbbd67ad2	-0.006545403
248	0xbd6c726c	-0.05772631
249	0xbd0ba4d1	-0.034092728
250	0x3c9bc4a6	0.019014668
251	0xbd27a068	-0.04092446
252	0xbd8c3a14	-0.06847015
253	0xbc206217	-0.009789011
254	0x3da10a41	0.07863284
255	0xbd359097	-0.044327345

lstm.weight_hh_l1 f4 [512, 128]
0	0x3d35b5b4	0.04436274
1	0xbdac8703	-0.08424189
2	0xbdcdb6e2	-0.10044648
3	0xbdadef33	-0.08492889
4	0xbacb169e	-0.0015494411
5	0xbd8ae502	-0.06781961
6	0xbd7fe3d4	-0.062473133
7	0x3d41d58c	0.047322795
8	0xbcab8dd9	-0.020941662
9	0x3aaf988f	0.0013396906
10	0xbc7ef391	-0.015561
11	0x3c6d1b4f	0.014471843
12	0xbd869fc6	-0.06573443
13	0xbcde2540	-0.027117372
14	0xbd02da4a	-0.031946458
15	0xbdbbb5ae	-0.09165512
16	0xbd1282f3	-0.035769414
17	0xbc887401	-0.016656877
18	0xbceb83aa	-0.028749306
19	0xbd810625	-0.063
20	0xbd99e2a4	-0.075139314
21	0xbc8a48a1	-0.016880335
22	0xbcfe9e51	-0.03108135
23	0x3c666aff	0.014063596
24	0x3d93d367	0.07218056
25	0xbd14d41c	-0.036335096
26	0x3d500388	0.050784618
27	0x3d72c458	0.05926928
28	0xbd527109	-0.05137733
29	0xbc489acd	-0.012243939
30	0x3bc49861	0.0059996103
31	0x3d462c62	0.04838217
32	0xbc986b27	-0.018605782
33	0xbd2fb7cc	-0.04289989
34	0x3cf1eae1	0.029530944
35	0xbb9eab80	-0.0048422217
36	0x3d87371e	0.0660231
37	0xbd3a4d73	-0.045484018
38	0x3d824a1f	0.06361794
39	0xbd3f899a	-0.046762086
40	0x3cb83c52	0.0224897
41	0x3d59129b	0.05299626
42	0xbdc05d65	-0.093928136
43	0xbd36ebf3	-0.044658612
44	0xbd4083d2	-0.047000714
45	0x3c53af39	0.012920194
46	0xbca4f4f0	-0.020136327
47	0x3dab672e	0.08369289
48	0xbce6234c	-0.028093003
49	0xbda29a23	-0.079395555
50	0x3cdc58bd	0.026897782
51	0xbd2d9d33	-0.042386245
52	0x3d31ea0a	0.043436088
53	0x3cf68e7c	0.030097239
54	0x3cffdec4	0.031234153
55	0x3d4705f4	0.04858966
56	0x3cf1743d	0.029474372
57	0x3d8aef39	0.06783909
58	0xbe04d045	-0.12970074
59	0x3c5f5e11	0.013633267
60	0xbd9d4d3d	-0.07680748
61	0x3c0f88ea	0.00876067
62	0xbd983887	-0.07432657
63	0x3d747586	0.05968239
64	0x3d9e0e1e	0.077175364
65	0x3afdc954	0.0019362369
66	0x3d8bbdf1	0.06823338
67	0xbdc7621f	-0.09735512
68	0x3dc0e6b1	0.09419001
69	0xbd8d6cc8	-0.06905514
70	0x3ccd360c	0.025050186
71	0x3cdc2e60	0.026877582
72	0x3dcd2a60	0.10017848
73	0x3b9388fd	0.0045024143
74	0x3d3c87fb	0.04602812
75	0xbd043650	-0.03227836
76	0xbc00167f	-0.0078178635
77	0xbc95e60c	-0.018298171
78	0x3ca0c0b5	0.01962314
79	0x3d899117	0.06717127
80	0xbc48c207	-0.012253291
81	0xbdb2d03a	-0.08731122
82	0x3dd8c0e0	0.10583663
83	0xbd3bce28	-0.045850903
84	0xbccf07a4	-0.025272198
85	0xbd8db0af	-0.06918465
86	0xbc9ab413	-0.018884694
87	0x3d3a7637	0.045522895
88	0xbae3355f	-0.0017334631
89	0x3d7bcc37	0.06147405
90	0xbd3e563e	-0.046468966
91	0x3d8de7d5	0.06928984
92	0xbba357f5	-0.0049848505
93	0xbb933ada	-0.0044930996
94	0x3cd7cd60	0.026343048
95	0xbc552095	-0.013008256
96	0xbd61dd5a	-0.055142738
97	0xbd3d21fb	-0.046174984
98	0xbdd0c050	-0.10192931
99	0x3daddb8d	0.084891416
100	0xbd64aa04	-0.055826202
101	0xbd4217c6	-0.047385953
102	0x3d8f0d5e	0.069849715
103	0x3d9a4d26	0.07534246
104	0x3d654174	0.055970624
105	0x3d0785e9	0.03308669
106	0x3d846d96	0.06466214
107	0x3d11388b	0.035454314
108	0x3c9b7c27	0.018980099
109	0xbd6c3646	-0.057668947
110	0xbdc6ea31	-0.09712637
111	0x3a49af4f	0.00076936645
112	0xbd6f162e	-0.05837076
113	0xbc25f1cb	-0.010128449
114	0x3dd9b38f	0.10629951
115	0x3da5dadb	0.08098384
116	0xbd4a9306	-0.04945662
117	0x3d5e638b	0.05429415
118	0x3d9a7f65	0.0754383
119	0xbc8c2633	-0.017108059
120	0xbd2a5aaf	-0.04159039
121	0x3d81c707	0.063367896
122	0xbd4f492c	-0.05060689
123	0xbd0cc20a	-0.034364738
124	0x3d4e398e	0.050347857
125	0x3c2be763	0.010492179
126	0x3d569ca8	0.052395493
127	0xbd9facfe	-0.077966675
128	0x3d874d27	0.066065125
129	0x3d97cacf	0.074117295
130	0x3cb28d44	0.021795876
131	0xbcad9331	-0.02118835
132	0xbc95e737	-0.018298728
133	0x3c97f0ec	0.018547498
134	0xbda16053	-0.078797005
135	0x3d9a19e4	0.075244695
136	0xbd3ed854	-0.046593025
137	0xbbe591e4	-0.007005917
138	0x3d8cb408	0.06870276
139	0x3cbdcf61	0.023170175
140	0xbdc3fdbe	-0.09569882
141	0xbdc532df	-0.096288435
142	0x3d4cbe84	0.049986377
143	0x3d8fd7bc	0.0702357
144	0x3d6a0c9c	0.05714093
145	0x3b12e6cb	0.0022415395
146	0xbda176f5	-0.078840174
147	0x3cf1d274	0.029519297
148	0x3d4cdba3	0.05001415
149	0x3c18c15f	0.009323447
150	0x3d75ac7e	0.059978954
151	0xbcab1637	-0.020884616
152	0xbd73455c	-0.059392318
153	0xbc99f93f	-0.018795608
154	0xbcbfdeb6	-0.023421627
155	0xbd76560a	-0.060140647
156	0xbc348239	-0.011017376
157	0x3dcb7968	0.09935266
158	0x3caadc2d	0.020856941
159	0x3d90466e	0.070446834
160	0xbcf274b9	-0.029596673
161	0x3d89c915	0.067278065
162	0x3da9ca54	0.08290544
163	0x3d080d31	0.033215705
164	0x3d0858dd	0.03328787
165	0xbc0bbd91	-0.008529083
166	0x3d77dd4b	0.060513776
167	0x3ce214cc	0.027597807
168	0x3d9465fb	0.07246014
169	0x3d7e22f0	0.062045038
170	0xbd20111e	-0.039078824
171	0x3d20d023	0.039260995
172	0xbc26181d	-0.010137585
173	0xbd004dff	-0.031324383
174	0xbd88b345	-0.06674818
175	0xbd5634e7	-0.052296545
176	0xbc8b6e5c	-0.017020397
177	0xbddcb0cb	-0.10775908
178	0x3ca4662d	0.020068252
179	0xbd92c8fe	-0.071672425
180	0x3c462615	0.01209404
181	0x3da101d7	0.07861679
182	0xbd999236	-0.07498591
183	0xbce20886	-0.027591955
184	0xbb9aed51	-0.0047279974
185	0xbcd0c28c	-0.025483392
186	0xbcbe9cc3	-0.02326811
187	0x3d562ac9	0.052286897
188	0xbd189411	-0.037250582
189	0xbd8098f8	-0.062791765
190	0x3ce2d221	0.027688088
191	0x3d0bed49	0.03416184
192	0x39c8345b	0.0003818598
193	0x3cb1ce81	0.021704914
194	0xbd8c9ea9	-0.068661995
195	0xbd17c7ee	-0.037055902
196	0xbd867187	-0.06564622
197	0xbd38f4d7	-0.045155372
198	0x3d0f865c	0.035040244
199	0x3d26b7ac	0.040702507
200	0x3d80f5fa	0.06296916
201	0x3b348c8c	0.0027549593
202	0xbdaf1a13	-0.08549895
203	0xbcbd385f	-0.023098169
204	0x3d9793fc	0.07401273
205	0xbd7009b9	-0.058603022
206	0x3c81f81d	0.01586538
207	0x3caf2d30	0.021383852
208	0x3c0dc282	0.008652331
209	0x3c63f46a	0.013913253
210	0xbd806dd0	-0.06270945
211	0xbd72556c	-0.059163496
212	0x3c66c49c	0.014084961
213	0xbc8d07d2	-0.017215643
214	0xbc194654	-0.009355146
215	0x3dba8f39	0.09109349
216	0xbc5c200e	-0.013435377
217	0x3d793065	0.06083717
218	0xbd289406	-0.04115679
219	0xbd179b40	-0.037013292
220	0xbd8041bd	-0.062625386
221	0xbd8dd7d7	-0.06925934
222	0xbd6b7808	-0.057487518
223	0x3a5e9dbc	0.0008492132
224	0xbc10c98f	-0.008837118
225	0x3d8c3d45	0.06847624
226	0xbd56e93a	-0.052468516
227	0xbc0d5ecf	-0.008628561
228	0x3d4015aa	0.04689566
229	0x3dbbdecc	0.091733545
230	0xbd90be9c	-0.07067606
231	0xbd663b3a	-0.056208827
232	0x3d4b26f5	0.0495977
233	0xbdaf1e7d	-0.08550737
234	0xbd91a939	-0.07112355
235	0xbca37e14	-0.01995758
236	0xbdb718b3	-0.08940258
237	0xbbb42352	-0.0054973746
238	0x3c5e373f	0.013562976
239	0xbd7434d4	-0.059620693
240	0xbdd12cf2	-0.10213651
241	0x3d5f62f5	0.054537732
242	0x3d5be3f5	0.053684194
243	0x3db400b6	0.08789198
244	0xbd554218	-0.052064985
245	0xbd07ef86	-0.03318741
246	0xbc6593ee	-0.01401232
247	0xbd88efbe	-0.06686352
248	0xbc857c4f	-0.016294627
249	0x3ca2198a	0.019787569
250	0x3d92aa9c	0.071614474
251	0xbd76c60b	-0.060247462
252	0x3d44b081	0.04801989
253	0xbcf548d1	-0.029941948
254	0x3ca02d5c	0.019552879
255	0xbd1960a2	-0.03744567

lstm.bias_ih_l1 f4 [512]
0	0x3da0a3d8	0.07843751
1	0x3cde31bc	0.027123325
2	0x3bca1554	0.0061670933
3	0x3de063e4	0.109565526
4	0x3d42020e	0.04736524
5	0x3bc99972	0.0061523253
6	0x3d9851c4	0.074374706
7	0xbd2c7049	-0.04209927
8	0xbd24ca98	-0.04023227
9	0xbc40ebad	-0.0117749395
10	0xbd788452	-0.060673065
11	0x3dbc6748	0.09199387
12	0xbd87acc7	-0.066247515
13	0xbda00c4d	-0.07814846
14	0x3c9ae105	0.018906126
15	0x3db1a136	0.08673327
16	0x3d2db20f	0.042406138
17	0x3dc432bd	0.0957999
18	0x3db41eb0	0.08794916
19	0x3bec9e08	0.007220987
20	0xbc0cc10b	-0.008590947
21	0x3c0c788c	0.0085736625
22	0x3d562e6f	0.052290376
23	0xbd3f1043	-0.046646368
24	0xbd1dbc4a	-0.038509645
25	0x3dd0d142	0.10196163
26	0x3cb74a9e	0.022374447
27	0xbda16138	-0.07879871
28	0x3d9d2f9d	0.07675097
29	0xbd7fb317	-0.062426653
30	0x3dcfa718	0.101392925
31	0x3d8bf8c2	0.06834556
32	0xbc75a050	-0.014991835
33	0xbd0b623f	-0.03402924
34	0xbd4106c6	-0.0471256
35	0x3cd33db3	0.025786256
36	0x3d855eb7	0.06512206
37	0xbc3d5e6d	-0.011558157
38	0x3d562070	0.05227703
39	0xbd5460a0	-0.05184996
40	0xbd89fa0d	-0.067371465
41	0x3cddb078	0.027061686
42	0x3d67731d	0.056506265
43	0xbce88db8	-0.02838789
44	0x3db08d11	0.08620656
45	0x3dc5b758	0.09654111
46	0x3c8c3427	0.017114712
47	0x3a530437	0.00080496393
48	0xbc5aabb1	-0.0133465985
49	0x3d7c1a80	0.06154871
50	0x3deb52ca	0.114904
51	0x3daff669	0.08591921
52	0xbd7a41eb	-0.06109802
53	0x3d3aab90	0.04557377
54	0xbd65097a	-0.05591724
55	0xbd81f236	-0.06345026
56	0x3ddcc0fb	0.107789956
57	0xbd663591	-0.05620343
58	0x3e2617e3	0.1622005
59	0x3d6b4d92	0.057447024
60	0x3dca6cb4	0.09884015
61	0xbd2beaa0	-0.041971803
62	0xbb295126	-0.0025835722
63	0x3da41e45	0.08013586
64	0x3d8a3d53	0.06749978
65	0x3db0c47a	0.08631225
66	0xbca5e1eb	-0.020249328
67	0x3cf5c865	0.030002782
68	0xbd5bfa77	-0.05370566
69	0x3d66b0df	0.05632102
70	0xbd7a7aec	-0.061152384
71	0x3d17d784	0.037070766
72	0xbcc5c1bf	-0.024140237
73	0x3dd1a5c3	0.10236695
74	0x3d87b3b3	0.06626072
75	0x3d763fcf	0.060119446
76	0x3dea3206	0.114353225
77	0x3dd0ad75	0.10189334
78	0x3da18848	0.07887322
79	0x3dd66dcf	0.10470163
80	0x3c4b1f4f	0.012397601
81	0x3e84de9f	0.25951096
82	0x3dbd8d05	0.09255413
83	0xbc3d618e	-0.011558903
84	0xbaf4bd46	-0.001867213
85	0x3d257d45	0.04040267
86	0x3e20aaec	0.15690202
87	0xbd54f6f7	-0.051993337
88	0x3cb0f2f5	0.021600226
89	0xbb9500f3	-0.0045472323
90	0x3d7b9238	0.061418742
91	0x3acb132f	0.0015493388
92	0x3ddbe94d	0.10737858
93	0xbbfe202b	-0.0077552996
94	0xbcac5ffa	-0.021041859
95	0x3d2df6cd	0.042471696
96	0xbd3105aa	-0.043218292
97	0x3d92b550	0.07163489
98	0x3dd172d4	0.1022698
99	0x3dabbd81	0.083857544
100	0x3da43fc9	0.080199786
101	0x3d2e35b2	0.042531677
102	0xbd42a32d	-0.047518898
103	0xbc866471	-0.016405316
104	0x3b991b2f	0.00467243
105	0xbd8d1f0b	-0.068906866
106	0xbd8031e3	-0.06259515
107	0xbc8422e5	-0.01612992
108	0x3cf9854c	0.030459069
109	0xbd190b12	-0.037364073
110	0xbd110514	-0.035405234
111	0xbb21aec7	-0.0024670826
112	0xbc8b45d1	-0.017001064
113	0xbcc82d65	-0.024435708
114	0xbc2927b7	-0.01032441
115	0xbcc56ffb	-0.024101248
116	0x3d9cdda2	0.076594606
117	0x3d9577b0	0.07298219
118	0x3cbaa3cf	0.022783188
119	0xbcf7c99a	-0.030247498
120	0x3d8e95e8	0.06962186
121	0x3dc452aa	0.095860794
122	0xbd03e5c0	-0.03220153
123	0x3d1fce59	0.039015148
124	0x3d98d3ae	0.0746225
125	0x3d8ff129	0.070284195
126	0xbc3c9226	-0.011509454
127	0x3e4c854a	0.1997272
128	0x3cbe2db3	0.02321515
129	0x3d8c3901	0.0684681
130	0xbab026bf	-0.0013439282
131	0xbd9e36d0	-0.077252984
132	0x3d59de94	0.053190783
133	0xbcd8a717	-0.026446862
134	0xbbc60355	-0.0060428777
135	0x3d2b1084	0.041763797
136	0xbdae9443	-0.085243724
137	0xbd899caf	-0.06719338
138	0xbd3dffc3	-0.04638649
139	0x3d83fc5f	0.0644462
140	0xbcc99cdb	-0.024610927
141	0x3d57104c	0.052505776
142	0xbd76e102	-0.060273178
143	0xbd93ab7e	-0.07210444
144	0x3db07b85	0.086173095
145	0x3d59ac70	0.053142965
146	0x3ccfdb0d	0.025373006
147	0xbd5ddb37	-0.054164138
148	0x3c58c96f	0.013231619
149	0xba457146	-0.00075318327
150	0x3c9271c8	0.01787652
151	0xbd9ae7d4	-0.07563749
152	0xbcf5a784	-0.029987104
153	0x3d28331b	0.041064363
154	0x3de4f772	0.11180009
155	0xbd66d064	-0.05635108
156	0x3cc6f993	0.024288928
157	0x3d326f07	0.043562915
158	0xbd980fef	-0.07424914
159	0xbd05abca	-0.032634534
160	0x3d37c5d7	0.04486641
161	0xbd32dc5a	-0.043667175
162	0x3d802411	0.06256879
163	0x3b8488af	0.0040446143
164	0x3d89a56b	0.06721004
165	0x3d6720ce	0.05642777
166	0x3cd9c6a2	0.026583973
167	0x3db46640	0.08808565
168	0x3d669c2f	0.056301292
169	0xb9797d76	-0.00023793228
170	0x3c9cb0a2	0.019127194
171	0x3cb645ba	0.022250045
172	0xbdbc3872	-0.091904536
173	0xbd5a9d51	-0.053372685
174	0xbda247eb	-0.079238735
175	0x3d9a9237	0.075474195
176	0x3c57b709	0.013166198
177	0xbd43a9f8	-0.047769517
178	0xbac2fe8b	-0.0014876885
179	0xbd5d5698	-0.05403766
180	0xbdcb3945	-0.09923033
181	0xbd4bb640	-0.049734354
182	0x3d3acb2e	0.045603923
183	0xbd1bfe8b	-0.038084548
184	0x3cbcb7da	0.023036886
185	0x3a702528	0.000916081
186	0xbda4487c	-0.08021638
187	0x3d0920d6	0.03347858
188	0xbd1760e8	-0.03695765
189	0x3c8fde48	0.017562047
190	0x3d8b55f6	0.06803505
191	0x3cadb515	0.02120451
192	0x3d25d062	0.040481932
193	0xbc06dc71	-0.008231268
194	0xbd3c84d0	-0.046025097
195	0x3c31d96b	0.010855059
196	0xbccc976a	-0.024974544
197	0x3c86cc6d	0.0164549
198	0x3d0a3ae6	0.033747576
199	0xbd029653	-0.03188164
200	0x3d6aa392	0.0572849
201	0xbd364558	-0.044499725
202	0xbd278bba	-0.040904738
203	0xbdd3d8bf	-0.103440754
204	0xbc3896bc	-0.011266407
205	0xbd69f74e	-0.057120614
206	0xbc680a86	-0.014162665
207	0xbccecc3f	-0.025243877
208	0xbda63d33	-0.081171416
209	0x3e2f87d7	0.17141663
210	0x3c1be63b	0.00951534
211	0x3d0aae25	0.033857483
212	0xbc75b17c	-0.014995929
213	0xbd06cb3a	-0.032908656
214	0xbd1ba7e8	-0.038001925
215	0x3d875c44	0.06609395
216	0xbc240baa	-0.010012547
217	0x3d99ec6e	0.075157985
218	0x3cb47bcd	0.022031689
219	0xbcf26cfc	-0.029592983
220	0xbd7beac1	-0.061503176
221	0x3c828f09	0.015937345
222	0xbd1f0026	-0.0388185
223	0xbc75af0b	-0.014995347
224	0x3cd99384	0.026559599
225	0xbdaaae7f	-0.08334064
226	0x3d87c32b	0.06629022
227	0xba0b5685	-0.00053153216
228	0x3d3c5bbd	0.045985926
229	0xbd992038	-0.07476848
230	0xbd32932f	-0.043597396
231	0x3cb8114f	0.02246919
232	0x3d9b0a03	0.07570269
233	0x3d8ee481	0.069771774
234	0xbd98199b	-0.07426759
235	0x3d9922fe	0.07477377
236	0x3cf9e828	0.030506209
237	0xbdabf07b	-0.083954774
238	0x3db059dd	0.0861089
239	0x3daba992	0.08381952
240	0x3dc2c027	0.095093064
241	0x3d5421a2	0.051789887
242	0x3bc02f55	0.0058650174
243	0x3d0c2749	0.034217153
244	0xbdca4ba1	-0.09877706
245	0xbd1267b9	-0.03574345
246	0x3da3b7a0	0.07994008
247	0x3ce17e85	0.02752615
248	0x3d76835d	0.06018387
249	0x3d7d0d3c	0.0617802
250	0xbd779a12	-0.060449667
251	0x3d0309b7	0.031991687
252	0x3bde65ff	0.006787061
253	0x390c7977	0.0001339669
254	0xbc369fdd	-0.011146513
255	0xbbcf4514	-0.0063253734
