models/UDR model.pth (torch, 270882 bytes, 5 tensors)

lstm.weight_ih_l0 f4 [512, 1]
-0.14294733 -0.13384701 0.04004438 0.14405023 0.07370485 -0.072813444 -0.069370285 -0.06896684
0.04685765 0.13448164 -0.09946055 -0.106982864 0.0831468 0.025342682 0.07663897 -0.12619817
0.0404819 0.08784621 -0.03952614 0.009821848 0.08399923 0.06843242 0.07512866 -0.06033956
0.023528209 -0.031178495 -0.036055397 0.021992268 0.1087069 0.07854287 0.04479619 -0.00089156756
-0.07162931 -0.05964449 -0.010214032 -0.052710935 0.052638385 -0.010379681 -0.030221011 0.029524952
-0.030445132 -0.12178262 0.08910587 -0.019582864 -0.011305192 -0.007617602 -0.043528277 0.023068413
0.016327947 0.028609365 0.053118985 -0.057170715 -0.101502985 0.09695668 0.0057999417 0.065331265
-0.0646528 -0.07025389 -0.02075523 -0.073849075 -0.048117746 0.08996141 -0.06888593 -0.111867815
0.0012400434 -0.008327916 -0.2272375 -0.12509131 0.037185546 0.034695514 -0.09099344 0.013028347
-0.035637632 -0.19066258 -0.08059142 -0.09105864 0.051165547 -0.1342531 -0.08592862 -0.14491814
0.030239584 -0.022118833 0.057274483 0.15996376 0.20397745 -0.012837307 -0.08473671 -0.12775522
-0.07303132 0.21280424 -0.066403635 -0.009646486 0.12800506 -0.13773324 -0.0131073715 -0.020039586
0.0034960003 -0.019414833 0.053184822 0.08505332 0.10611612 -0.017375657 0.028169792 0.09465753
0.04742707 0.1297912 -0.0417439 0.013358855 0.12268471 -0.06674977 -0.037878774 0.04513791
-0.119060576 -0.043824725 -0.06914358 -0.029268445 0.110130504 -0.08590472 0.030503625 -0.0074545485
0.11793294 0.02476827 -0.07253112 -0.0638631 0.013446654 0.028474772 0.04959126 0.0023205348
-0.38506645 -0.09655345 0.1302002 0.14291406 0.054604977 -0.002217871 0.00791033 -0.09727258
0.011389675 0.12610926 -0.047104534 -0.19909593 0.041066602 0.093491524 0.04228927 -0.03747071
0.10057811 0.078406915 -0.05161225 0.15463874 0.053698402 0.056643717 0.024400288 -0.083907455
-0.04123799 0.023401802 0.029078491 0.02422823 0.1466771 0.050430547 -0.0022104671 0.04110334
-0.051907774 -0.025924476 -0.12820971 -0.1016329 0.15828718 -0.10517789 -0.10780578 0.06377096
-0.0049884343 -0.1835835 0.04024211 0.04829081 0.008307239 0.087248884 -0.024655536 0.14925443
0.11887991 -0.13030641 0.08727179 -0.17527159 -0.14641538 0.038678076 -0.121121615 -0.018467465
-0.11456648 -0.031070136 0.095759004 -0.23293096 -0.0450135 0.06716668 -0.04583269 -0.12741527
-0.06546294 -0.031654987 -0.19530131 -0.085684754 -0.05166106 0.074258104 -0.10774824 -0.041179255
-0.18063983 -0.09478431 -0.13983244 -0.09709844 0.07642711 -0.22271244 -0.054000102 -0.1597135
-0.001090723 -0.06872764 0.106753215 0.16501005 0.3383414 0.011325623 -0.2421748 -0.0683879
-0.147866 0.17655519 -0.16303414 0.018661806 0.14728862 -0.1559708 0.0023897274 0.109028146
0.09935014 -0.003866701 0.064891055 0.017603144 -0.029321438 -0.060541466 0.0030222097 0.16310649
0.13488886 -0.017122695 -0.036204413 0.06800259 0.14819705 -0.14897355 0.1182728 0.072677314
-0.05335374 0.05667192 -0.09495371 0.014405774 0.08223911 -0.005371791 0.018256737 0.084423244
0.024368046 0.008819113 -0.15013404 -0.008760555 -0.051285297 0.09340006 0.17097828 0.03543789
00000000: c960 12be 310f 09be 9305 243d e781 133e
00000010: 92f2 963d 371f 95bd 0212 8ebd 7d3e 8dbd
00000020: cfed 3f3d 8eb5 093e f9b1 cbbd d519 dbbd
00000030: df48 aa3d 759b cf3c e4f4 9c3d 183a 01be
00000040: 59d0 253d b7e8 b33d 29e6 21bd d1eb 203c
00000050: ca07 ac3d 4c26 8c3d 0edd 993d 9d26 77bd
00000060: 3bbe c03c 0b6a ffbc d3ae 13bd 2129 b43c
00000070: b9a1 de3d 16db a03d 367c 373d 16b8 69ba
00000080: 63b2 92bd c84d 74bd c158 27bc 6ce7 57bd
00000090: 599b 573d 8a0f 2abc 0e92 f7bc 50de f13c
000000a0: 1268 f9bc 2b69 f9bd 237d b63d 3e6c a0bc
000000b0: 6939 39bc 149d f9bb b54a 32bd f8f9 bc3c
000000c0: 30c2 853c 305e ea3c 4b93 593d d72b 6abd
000000d0: cce0 cfbd 3991 c63d 700d be3b 66cc 853d
000000e0: b068 84bd 45e1 8fbd df06 aabc 2f3e 97bd
000000f0: 1d17 45bd b03d b83d 1114 8dbd f41a e5bd
00000100: f488 a23a d071 08bc f2b0 68be f017 00be
00000110: df4f 183d e21c 0e3d c55a babd d974 553c
00000120: c4f8 11bd 0d3d 43be 1d0d a5bd f47c babd
00000130: f792 513d a579 09be 58fb afbd 6c65 14be
00000140: 01b9 f73c 8e32 b5bc a698 6a3d 8acd 233e
00000150: 77df 503e 9153 52bc 718a adbd 44d2 02be
00000160: 7291 95bd 5be9 593e a1fe 87bd 4b0c 1ebc
00000170: c213 033e f109 0dbe 4dc0 56bc 0f2a a4bc
00000180: 271d 653b db0b 9fbc 54d8 593d 6f30 ae3d
00000190: 6953 d93d 6557 8ebc 56c4 e63c cfdb c13d
000001a0: e342 423d fce7 043e a7fb 2abd 19df 5a3c
000001b0: 1f42 fb3d 1ab4 88bd c626 1bbd 87e2 383d
000001c0: 08d6 f3bd 8e81 33bd 269b 8dbd 61c4 efbc
000001d0: 1a8c e13d d0ee afbd bde2 f93c 4945 f4bb
000001e0: d386 f13d d4e6 ca3c 328b 94bd a8ca 82bd
000001f0: 5b4f 5c3c ed43 e93c 3420 4b3d 1d14 183b
00000200: 6e27 c5be d1bd c5bd 3453 053e 1058 123e
00000210: 78a9 5f3d b359 11bb 549a 013c d936 c7bd
00000220: c29b 3a3c c922 013e aff0 40bd cedf 4bbe
00000230: 7435 283d 7c78 bf3d 8337 2d3d e37a 19bd
00000240: e5fb cd3d ce93 a03d 5e67 53bd 9e59 1e3e
00000250: dbf2 5b3d 3e03 683d 1de3 c73c acd7 abbd
00000260: 2be9 28bd 23b5 bf3c 0436 ee3c 487a c63c
00000270: 8632 163e 4390 4e3d 7cdd 10bb fa5b 283d
00000280: 3f9d 54bd 915f d4bc 6849 03be e924 d0bd
00000290: 0916 223e 8167 d7bd 47c9 dcbd 599a 823d
000002a0: 0576 a3bb 50fd 3bbe e9d4 243d 96cc 453d
000002b0: 161b 083c 8baf b23d 68fa c9bc 27d6 183e
000002c0: 4f77 f33d 0b6f 05be 8dbb b23d 657a 33be
000002d0: eaed 15be e76c 1e3d 9c0e f8bd 1549 97bc
000002e0: d5a1 eabd cc86 febc 4c1d c43d 7485 6ebe
000002f0: 1360 38bd af8e 893d 0fbb 3bbd 2679 02be
00000300: 6f11 86bd a9a8 01bd 11fd 47be 7d7b afbd
00000310: 8c9a 53bd a214 983d 1cab dcbd 94ab 28bd
00000320: a6f9 38be 471e c2bd 3c30 0fbe 8cdb c6bd
00000330: d185 9c3d bb0e 64be 362f 5dbd f08b 23be
00000340: 97f6 8eba 14c1 8cbd 6ea1 da3d 65f8 283e
00000350: 153b ad3e 1b8f 393c acfc 77be f50e 8cbd
00000360: 2f6a 17be e2ca 343e 6cf2 26be a5e0 983c
00000370: d4d2 163e cfb6 1fbe f99c 1c3b 264a df3d
00000380: 1678 cb3d 7a68 7dbb 9ae5 843d 7834 903c
00000390: 8333 f0bc 54fa 77bd 4410 463b 6305 273e
000003a0: 4e20 0a3e e544 8cbc 144b 14bd f144 8b3d
000003b0: f8c0 173e 868c 18be 0339 f23d d8d7 943d
000003c0: 7489 5abd d120 683d 1777 c2bd 3206 6c3c
000003d0: fa6c a83d d905 b0bb 278f 953c 18e6 ac3d
000003e0: 7f9f c73c 0a7e 103c bdbc 19be 6e88 0fbc
000003f0: 8810 52bd 8848 bf3d ee14 2f3e 5227 113d

lstm.weight_hh_l0 f4 [512, 128]
-0.13100187 -0.21120934 -0.086224325 0.20910162 0.032004002 0.06366347 0.06720312 0.24057692
0.29047802 0.11607272 0.14119175 0.25799552 -0.1427778 -0.004419122 0.0029762902 -0.2593098
-0.1320013 0.006584315 0.12558042 0.15274797 0.077798255 -0.12618683 -0.020623144 -0.07755899
0.010871586 0.14370473 0.27888945 0.060200065 0.16346161 -0.10885685 0.09440633 -0.015862504
-0.34111223 -0.027892865 -0.22032832 0.17688829 -0.19528022 0.17052406 -0.25877407 0.015955178
0.07733962 -0.13786018 0.11221983 -0.018890342 -0.10182076 -0.07941408 -0.20757206 0.109459944
-0.1338937 -0.04440019 0.1956132 -0.14842221 -0.19879973 0.121283725 0.14166 -0.013550164
-0.11443783 -0.04335183 0.0067260987 -0.29570514 0.009846646 -0.078620024 -0.33013305 -0.2432819
-0.13041781 -0.018250812 0.29339236 -0.15367949 0.31907758 0.06345119 0.2586499 -0.1334348
-0.07741015 0.23488866 0.10414915 0.2577094 -0.112765156 -0.20833862 -0.22223887 -0.2584192
0.052472085 -0.12134288 0.08842786 0.1566091 0.12732586 -0.090815924 -0.18548538 0.23869322
0.18864699 0.13549334 -0.25157073 0.02910786 -0.13197325 -0.1877565 -0.1687588 0.09438751
0.117114455 -0.12190923 0.028853735 0.054310106 0.045156963 -0.083070524 0.07765188 0.06862913
0.058197975 0.031709082 -0.020870717 0.0046576625 -0.2570558 -0.20969477 0.15758857 -0.0164465
-0.17569011 0.15547246 -0.11116316 0.16980508 -0.22402929 -0.14297624 -0.20440003 -0.14768806
-0.17430386 0.14020199 -0.22817397 0.0037184432 -0.08944882 -0.13262868 -0.1437429 -0.10392644
-0.0035744621 0.025489032 -0.03489179 0.10304319 0.09720905 0.0011568934 -0.06907782 0.091346495
-0.054015856 0.08632357 0.08689696 -0.056277487 0.025532153 -0.043849554 0.0066108955 0.038368784
0.08014975 -0.0742453 0.0019532372 0.06353086 -0.03428593 -0.008013139 0.056342416 -0.038182724
-0.07001343 0.0969234 0.08113127 -0.021568656 0.08008091 0.028724732 -0.0010108952 0.033114683
-0.11735861 -0.042540304 -0.065643325 0.010290521 0.06435018 -0.058461014 -0.068924606 -0.050700836
0.10167203 0.0008938991 0.06291588 0.07284698 -0.032857437 0.011547472 -0.014782485 0.09225611
-0.07183823 -0.083243385 0.034708474 0.057372168 -0.0061604227 0.08165796 0.08178659 -0.03841918
0.023110077 0.059413005 0.048558 0.035852887 0.080482766 0.07532775 -0.04723533 -0.01735808
-0.037102513 0.06438911 0.065341905 -0.08738502 0.09215643 0.06637681 -0.043335687 -0.08249372
-0.037318863 0.08536622 -0.062411565 0.09246007 0.013834497 0.0251201 -0.04592259 0.02134919
0.014929719 0.055246193 -0.034146573 -0.014166159 -0.04876276 0.03193619 -0.023914637 0.08434379
0.062379397 -0.042743966 -0.013432122 0.066540055 0.004097669 -0.017831171 -0.07543444 -0.028165199
-0.018567149 -0.050400816 0.05492242 0.043413173 0.001976787 0.045882557 0.057725478 0.00019115549
0.033885263 0.0012483745 -0.04605147 0.05467771 0.046585184 0.0583833 -0.013185905 -0.035941977
-0.049968675 -0.053968657 0.045945548 -0.059233084 0.013571253 0.070927516 -0.013575107 -0.048031628
0.059981257 -0.071530946 -0.046341445 0.039629508 0.02905994 -0.09682942 -0.07630414 0.040845003
00000000: 5b25 06be 4347 58be 6196 b0bd bc1e 563e
00000010: a116 033d fe61 823d caa1 893d cc59 763e
00000020: 89b9 943e 89b7 ed3d 9294 103e fd17 843e
00000030: 5834 12be 48ce 90bb dd0d 433b 41c4 84be
00000040: 592b 07be 3dc1 d73b 2798 003e f769 1c3e
00000050: b154 9f3d 1f37 01be def1 a8bc 3fd7 9ebd
00000060: bd1e 323c 5527 133e 99ca 8e3e 5894 763d
00000070: 7b62 273e 57f0 debd 1b58 c13d 15f2 81bc
00000080: 43a6 aebe 947f e4bc bf9d 61be 3422 353e
00000090: 8af7 47be dc9d 2e3e 097e 84be 6fb4 823c
000000a0: 3c64 9e3d 382b 0dbe 83d3 e53d ebbf 9abc
000000b0: 6787 d0bd d9a3 a2bd c58d 54be 892c e03d
000000c0: 6e1b 09be f9dc 35bd d44e 483e fefb 17be
000000d0: 2892 4bbe 9a63 f83d 520f 113e 8201 5ebc
000000e0: 625e eabd b091 31bd 9b66 dc3b aa66 97be
000000f0: d453 213c 8903 a1bd 3307 a9be e41e 79be
00000100: 3f8c 05be ba82 95bc 8637 963e 285e 1dbe
00000110: 235e a33e b3f2 813d c26d 843e 22a3 08be
00000120: 3689 9ebd a786 703e 264c d53d 7df2 833e
00000130: 6bf1 e6bd b856 55be 9692 63be 854f 84be
00000140: f8ec 563d 9e82 f8bd aa19 b53d 235e 203e
00000150: b661 023e b3fd b9bd e1ef 3dbe ff6b 743e
00000160: ad2c 413e c4be 0a3e e1cd 80be 9b73 ee3c
00000170: ff23 07be 3d43 40be 1bcf 2cbe 3d4e c13d
00000180: b4d9 ef3d 8cab f9bd ab5e ec3c 4674 5e3d
00000190: 82f6 383d e120 aabd f307 9f3d 6e8d 8c3d
000001a0: 0061 6e3d 62e1 013d 11f9 aabc 4e9f 983b
000001b0: d19c 83be 3aba 56be e65e 213e cfba 86bc
000001c0: 1ce8 33be 2c34 1f3e 83a9 e3bd 62e1 2d3e
000001d0: ef67 65be 5d68 12be 3e4e 51be 8a3b 17be
000001e0: b67c 32be 1c91 0f3e 70a6 69be 20b1 733b
000001f0: f130 b7bd d0cf 07be 5731 13be 63d7 d4bd
00000200: 8641 6abb 60ce d03c b2ea 0ebd 4f08 d33d
00000210: 8a15 c73d e7a2 973a ac78 8dbd df13 bb3d
00000220: bb3f 5dbd 69ca b03d 09f7 b13d 3983 66bd
00000230: ce28 d13c 979b 33bd 36a0 d83b 9628 1d3d
00000240: 8d25 a43d eb0d 98bd e201 003b 781c 823d
00000250: 676f 0cbd 8a49 03bc 4ec7 663d 7d65 1cbd
00000260: 3463 8fbd c77f c63d 2728 a63d c0b0 b0bc
00000270: 7601 a43d 2150 eb3c 0480 84ba 43a3 073d
00000280: b659 f0bd be3e 2ebd 0270 86bd 9399 283c
00000290: 07ca 833d d174 6fbd 5828 8dbd aeab 4fbd
000002a0: 6d39 d03d 8e54 6a3a 0ada 803d cc30 953d
000002b0: 8595 06bd 9c31 3d3c 3c32 72bc c5f0 bc3d
000002c0: ec1f 93bd 827b aabd 792a 0e3d 14ff 6a3d
000002d0: 5fdd c9bb 4a3c a73d ba7f a73d 6e5d 1dbd
000002e0: 5851 bd3c 0d5b 733d c1e4 463d 7ada 123d
000002f0: 26d4 a43d 6f45 9a3d d579 41bd 8832 8ebc
00000300: cef8 17bd 70de 833d fad1 853d ebf6 b2bd
00000310: 83bc bc3d 91f0 873d c380 31bd 78f2 a8bd
00000320: aadb 18bd 7cd4 ae3d 45a3 7fbd b55b bd3d
00000330: 16aa 623c abc8 cd3c 5319 3cbd 7fe4 ae3c
00000340: c89b 743c d549 623d 47dd 0bbd 2d19 68bc
00000350: 76bb 47bd 86cf 023d a1e8 c3bc 70bc ac3d
00000360: 8a81 7f3d 4c14 2fbd 6712 5cbc 2746 883d
00000370: bd45 863b ad12 92bc 5f7d 9abd b4ba e6bc
00000380: 221a 98bc 1671 4ebd 55f6 603d 03d2 313d
00000390: fc8c 013b 59ef 3b3d 8d71 6c3d e970 4839
000003a0: 46cb 0a3d 7fa0 a33a 77a0 3cbd bcf5 5f3d
000003b0: 1bd0 3e3d 5423 6f3d b209 58bc e537 13bd
000003c0: f4ab 4cbd 3d0e 5dbd 6631 3c3d 649e 72bd
000003d0: f659 5e3c 7242 913d 206a 5ebc d0bc 44bd
000003e0: e8ae 753d d17e 92bd 87d0 3dbd 8d52 223d
000003f0: 1c0f ee3c 814e c6bd 5845 9cbd 174d 273d

lstm.bias_ih_l0 f4 [512]
0.012828211 -0.0036405874 0.029335607 -0.0052426658 0.03214183 -0.041920975 0.063620426 0.03647011
-0.032793738 -0.029202638 0.028013512 0.035758685 -0.030987067 -0.02664118 -0.008253686 -0.011361574
0.07533732 0.028893303 0.08933997 -0.0069534327 0.103015706 0.06943131 -0.038684435 0.1033491
0.081986666 -0.04413644 0.032202154 0.11778466 -0.037086044 -0.067737006 0.05229224 0.07749787
-0.019807264 -0.02014925 0.05630075 -0.08802943 0.03860794 0.07504385 -0.06530204 0.08616705
-0.025420424 -0.02625832 0.017664181 -0.02951603 0.032298688 -0.0030408252 -0.044107795 -0.056356538
0.043220233 -0.04384457 0.018882113 -0.044948734 0.020052737 -0.00904724 0.014544486 -0.0028266567
0.017322322 0.08223238 0.0392439 0.10930892 -0.00823464 0.08181706 -0.031196002 0.040780004
0.052130774 -0.015503712 -0.0035792477 -0.036287814 -0.07684927 0.046824697 -0.033033818 -0.0043412424
0.047478 0.052926105 -0.011816921 -0.045589656 0.10524579 -0.051686782 0.10134568 0.113196015
-0.059727326 0.024164068 0.029940294 -0.007925624 -0.028377349 -0.059620913 -0.031130275 -0.06388584
0.008945406 0.023810463 0.060767148 0.018065432 0.017455347 0.025430905 0.056106076 0.00809565
0.035814222 0.08938925 0.020100078 0.08656622 0.06234343 -0.014421007 -0.032797128 0.028763242
0.034205675 0.051759686 0.02196093 0.072262704 -0.057215918 -0.013120048 0.022893628 0.03861558
-0.080864824 0.025415407 0.014699397 0.056443617 -0.0013216336 -0.028007409 -0.07483167 -0.04885959
0.031412534 0.09098754 0.058124244 -0.021334793 0.06904118 0.09484398 -0.04307381 0.06112057
-0.054032613 0.06847073 0.046804007 -0.08489141 -0.010168538 0.08511404 0.038578212 0.048458055
-0.075720035 0.044278536 0.09671543 0.013104851 -0.072086655 -0.0030265057 -0.015623954 0.07030496
-0.043339156 0.010508475 0.0016079899 0.0053227493 0.04447689 -0.021786967 0.044144716 0.078153454
0.07231989 0.082282305 0.047651798 0.035327796 -0.07706501 0.0815394 0.039033838 -0.0012950366
-0.053961463 -0.008274619 0.0024744533 -0.041062795 -0.024126697 -0.013403983 0.05710878 0.10182613
0.09038885 0.043395862 0.031281225 0.08762863 0.08911917 -0.060940746 0.015054684 -0.050059542
-0.05593105 0.043785095 -0.036127433 0.040011257 -0.00027019228 0.082035884 -0.032865874 0.021178437
-0.07043428 -0.04352514 0.03641103 -0.015173369 -0.02380079 0.09800343 0.07159766 0.044460796
-0.0329337 -0.0020069322 0.0070041143 0.05903721 0.06276102 -0.035880726 0.090979375 -0.024249582
0.046105713 0.07091538 0.005366812 0.032132816 0.09120322 -0.040750444 0.03462814 0.08529113
-0.024058647 0.010505845 0.10500312 0.069587566 0.046342872 0.06559035 0.030928966 0.07462107
-0.035880875 -0.00028629744 0.07613346 0.048906364 -0.051753074 -0.01015013 0.051832724 -0.018371122
0.06306722 0.026490433 -0.0052900896 -0.004506877 0.020048024 0.012386148 -0.06564351 0.014089839
0.04898617 0.02913952 -0.048687268 0.06553163 0.037602574 -0.013076946 -0.05668482 0.06023057
0.038877185 -0.038589034 -0.038607113 -0.0242409 -0.04779141 0.07505745 -0.057622533 -0.007771478
0.08306791 0.09766474 -0.037267808 -0.0066289753 0.06845758 0.10052766 -0.0718078 -0.010205144
00000000: 6b2d 523c ec96 6ebb 3a51 f03c abca abbb
00000010: 27a7 033d 54b5 2bbd 6d4b 823d af61 153d
00000020: ba52 06bd 5f3a efbc 987c e53c b377 123d
00000030: 97d8 fdbc 9b3e dabc 783a 07bc e525 3abc
00000040: 744a 9a3d a6b1 ec3c e0f7 b63d 9fd9 e3bb
00000050: e6f9 d23d 0132 8e3d 9273 1ebd b1a8 d33d
00000060: a0e8 a73d 69c8 34bd 68e6 033d 1539 f13d
00000070: 89e7 17bd b3b9 8abd 6330 563d 34b7 9e3d
00000080: d842 a2bc 0a10 a5bc 9d9b 663d c648 b4bd
00000090: 5c23 1e3d 97b0 993d 13bd 85bd 5a78 b03d
000000a0: 7e3e d0bc b01b d7bc 79b4 903c 9acb f1bc
000000b0: a14b 043d 9548 47bb 60aa 34bd 1dd6 66bd
000000c0: b307 313d 5d96 33bd a9ae 9a3c 2a1c 38bd
000000d0: a345 a43c e03a 14bc ff4b 6e3c 6e3f 39bb
000000e0: 8be7 8d3c 7369 a83d 36be 203d 5bdd df3d
000000f0: 95ea 06bc b48f a73d c28e ffbc ef08 273d
00000100: 1487 553d 4803 7ebc d091 6abb 88a2 14bd
00000110: 2663 9dbd 41cb 3f3d 784e 07bd fb40 8ebb
00000120: 4b78 423d 0bc9 583d c29b 41bc 38bc 3abd
00000130: 1b8b d73d 85b5 53bd 538e cf3d 50d3 e73d
00000140: a4a4 74bd b9f3 c53c 5945 f53c 7ada 01bc
00000150: 9d77 e8bc 0f35 74bd eb04 ffbc 94d6 82bd
00000160: c18f 123c 290e c33c f9e6 783d f5fd 933c
00000170: 84fe 8e3c 7954 d03c 7ccf 653d 9ea3 043c
00000180: efb1 123d b611 b73d eba8 a43c a149 b13d
00000190: d35b 7f3d 1646 6cbc 4856 06bd e4a0 eb3c
000001a0: 401b 0c3d f701 543d 69e7 b33c 78fe 933d
000001b0: 3d5b 6abd 78f5 56bc 6b8b bb3c 5f2b 1e3d
000001c0: 759c a5bd f933 d03c bdd5 703c 6c31 673d
000001d0: aa3a adba cb6f e5bc 5941 99bd fe20 48bd
000001e0: 6eaa 003d ad57 ba3d b013 6e3d 4ec6 aebc
000001f0: 7665 8d3d 903d c23d 2a6e 30bd 9059 7a3d
00000200: 4d51 5dbd 623a 8c3d 8fb5 3f3d 8cdb adbd
00000210: f199 26bc 4550 ae3d 3004 1e3d f47b 463d
00000220: 1b13 9bbd 695d 353d bd12 c63d bbb5 563c
00000230: 2ba2 93bd 5758 46bb 9dfb 7fbc 0cfc 8f3d
00000240: 6684 31bd bd2b 2c3c 30c3 d23a 756a ae3b
00000250: 662d 363d 957a b2bc 17d1 343d eb0e a03d
00000260: 731c 943d a083 a83d 882e 433d e1b3 103d
00000270: 43d4 9dbd 21fe a63d f2e1 1f3d 38be a9ba
00000280: b206 5dbd 4492 07bc 702a 223b 7631 28bd
00000290: 5aa5 c5bc 619c 5bbc e5ea 693d 388a d03d
000002a0: ca1d b93d dcbf 313d be20 003d a476 b33d
000002b0: 1d84 b63d 019d 79bd eca7 763c 3c0b 4dbd
000002c0: f517 65bd 0058 333d 5cfa 13bd d8e2 233d
000002d0: 98a8 8db9 6e02 a83d 5e9e 06bd 677e ad3c
000002e0: d93f 90bd 6b47 32bd bb23 153d b999 78bc
000002f0: e0f9 c2bc 06b6 c83d cba1 923d 861c 363d
00000300: 7de5 06bd bc86 03bb c582 e53b 00d1 713d
00000310: da88 803d abf7 12bd 6553 ba3d 0fa7 c6bc
00000320: 58d9 3c3d 153c 913d 15dc af3b b39d 033d
00000330: c1c8 ba3d f0e9 26bd 3dd6 0d3d 1ead ae3d
00000340: a416 c5bc b520 2c3c e00b d73d ed83 8e3d
00000350: 06d2 3d3d 3c54 863d be5e fd3c eed2 983d
00000360: d3f7 12bd 311a 96b9 dceb 9b3d 0a52 483d
00000370: 08fb 53bd bb4c 26bc 8d4e 543d 097f 96bc
00000380: 6329 813d 7702 d93c 7d58 adbb 6dae 93bb
00000390: c13b a43c 45ef 4a3c 1b70 86bd 11d9 663c
000003a0: b9a5 483d 01b6 ee3c 4d6c 47bd 7235 863d
000003b0: 2805 1a3d b040 56bc 582e 68bd 55b4 763d
000003c0: af3d 1f3d 890f 1ebd 7e22 1ebd da94 c6bc
000003d0: edc0 43bd b8b7 993d 9b05 6cbd e2a7 febb
000003e0: 821f aa3d 7404 c83d 21a6 18bd e037 d9bb
000003f0: 7d33 8c3d 72e1 cd3d f80f 93bd 7a33 27bc

lstm.bias_hh_l0 f4 [512]
0.048285335 -0.047352962 -0.0780843 0.028709285 0.00820987 0.07216351 0.029286517 0.10006245
-0.06787057 0.02589342 -0.014173518 0.003383376 0.072147846 0.0088004 0.02145026 -0.039927833
0.10600878 0.09285093 0.0005284412 -0.03582847 0.06588547 -0.008792161 0.014759532 0.03694259
-0.011531028 0.005764793 -0.04207359 0.11824448 0.053873144 0.003526421 0.029366357 0.07744077
0.063739285 0.04013806 0.115790546 -0.044986304 0.029283095 -0.019656613 0.023771875 -0.0053576683
-0.019656695 0.052103292 0.013729027 0.054853354 -0.047388967 -0.046127874 0.10080181 -0.06936295
-0.02085954 0.023244312 0.073440164 0.072996296 -0.0018214298 -0.0061184224 0.022966623 -0.035470422
0.023342336 -0.02813908 0.053388666 -0.008462007 0.09276305 0.025200402 -0.04087169 0.09124188
-0.072501875 -0.06015188 -0.023836505 0.03352554 0.04821247 -0.041792065 0.07587959 -0.029376615
-0.046736903 -0.002063282 0.101775974 0.11394615 -0.017085813 0.022252098 0.028119527 0.10225804
0.10214817 -0.05037925 -0.034683157 -0.035101928 0.14020897 0.085177936 0.06153821 0.07996158
0.06854373 -0.017176833 0.06504351 -0.008954105 0.06278466 -0.022329077 0.07086467 -0.029146474
-0.05767998 0.060752854 0.11610998 0.044465926 0.05035102 0.0010255523 0.0232711 0.042487297
0.05667797 -0.010439069 -0.05067228 -0.042555302 0.07330786 -0.053948406 -0.07044794 0.07405942
0.014728279 0.0715974 0.060499825 0.0023643146 -0.024141388 0.09808898 -0.08159045 0.04602898
-0.012548281 -0.023106031 0.06957398 0.115070805 -0.07823177 0.04559676 -0.014079631 0.04469752
-0.04607903 0.09723737 0.018907301 -0.012175287 0.047204535 0.10042786 0.023940507 0.045296147
0.05891202 0.007955544 -0.054073296 -0.046526078 -0.07307737 -0.06118426 0.011898852 -0.069825165
0.053743012 0.038738206 -0.09376464 0.09687291 0.040124573 -0.039874107 0.10217709 -0.050789993
0.07645353 -0.026738413 -0.047065232 -0.03053009 0.0586207 0.036164496 0.047415465 -0.087796345
0.063096374 0.059914153 0.0070183077 -0.015279126 0.07645115 0.059834562 -0.05679325 0.024581151
0.09782907 -0.04949967 -0.047646984 -0.071942195 0.0772843 -0.07109541 0.00072882354 -0.0437223
-0.027585968 -0.053082496 -0.06482931 -0.028923485 -0.0021744133 -0.055949412 -0.060484327 -0.07101575
0.1014755 0.0017699212 -0.009002286 0.08035787 0.01915878 0.06776891 -0.08210718 0.08408422
0.04657639 0.0837779 0.030068498 -0.017389225 -0.08184062 0.087332875 -0.05473963 -0.017064586
-0.053376142 -0.018258888 0.0028634248 0.010036224 0.055416875 0.079773724 0.050232068 0.07952884
0.055705354 0.020036798 0.014723991 -0.038198013 0.087832145 0.040055666 -0.053193625 -0.08841847
-0.057926852 0.03095493 0.008692234 0.06295112 0.08027027 0.015547645 -0.009444925 -0.0029925515
0.073617294 -0.01869961 -0.0022370028 0.0375326 -0.007510461 -0.047457896 0.0026482774 -0.04366411
0.032159656 0.08833566 0.040204264 0.017857898 0.09294061 0.006807468 0.004991683 0.06790179
-0.059247024 0.04139655 0.036233805 -0.075618654 0.0070333155 0.03506865 0.08554809 0.07536184
-0.01916767 -0.04217381 0.04503344 -0.04566072 -0.029723844 0.078040525 -0.033825014 -0.06340401
00000000: d8c6 453d 2ef5 41bd a9ea 9fbd bc2f eb3c
00000010: b182 063c 76ca 933d 47ea ef3c 8bed cc3d
00000020: baff 8abd 701e d43c 0b38 68bc a1bb 5d3b
00000030: 40c2 933d 8e2f 103c 75b8 af3c 5e8b 23bd
00000040: 221b d93d a128 be3d 1787 0a3a e0c0 12bd
00000050: f6ee 863d ff0c 10bc f7d1 713c 1d51 173d
00000060: a3ec 3cbc 97e6 bc3b 5b55 2cbd 292a f23d
00000070: 16aa 5c3d 871b 673b b791 f03c 4499 9e3d
00000080: be89 823d ce67 243d 9823 ed3d 8f43 38bd
00000090: 1ae3 ef3c e806 a1bc 3cbd c23c 618f afbb
000000a0: 1407 a1bc 436a 553d b6ef 603c e9ad 603d
000000b0: ef1a 42bd 95f0 3cbd 2e71 ce3d 2a0e 8ebd
000000c0: a0e1 aabc db6a be3c cc67 963d 157f 953d
000000d0: 0bbd eeba 0c7d c8bb 8024 bc3c 6f49 11bd
000000e0: 6d38 bf3c ee83 e6bc 13ae 5a3d 3ba4 0abc
000000f0: 8efa bd3d 1371 ce3c 1369 27bd 06dd ba3d
00000100: dd7b 94bd d161 76bd c644 c3bc 1452 093d
00000110: 707a 453d 282e 2bbd c266 9b3d 3aa7 f0bc
00000120: 326f 3fbd 2138 07bb ec6f d03d 995c e93d
00000130: 8cf7 8bbc 084a b63c ec5a e63c aa6c d13d
00000140: 0f33 d13d 795a 4ebd ed0f 0ebd 0ac7 0fbd
00000150: f192 0f3e c571 ae3d 7d0f 7c3d e6c2 a33d
00000160: a860 8c3d 6eb6 8cbc 8835 853d 3db4 12bc
00000170: 3e95 803d 78eb b6bc 7f21 913d 96c4 eebc
00000180: d841 6cbd fcd7 783d 12cb ed3d e721 363d
00000190: df3c 4e3d d36b 863a 09a3 be3c 2907 2e3d
000001a0: 2927 683d a108 2bbc bd8d 4fbd 784e 2ebd
000001b0: 6e22 963d 01f9 5cbd 0247 90bd 77ac 973d
000001c0: e14e 713c a8a1 923d aace 773d 9ef2 1a3b
000001d0: 29c4 c5bc e0e2 c83d e518 a7bd e288 3c3d
000001e0: 4e97 4dbc dc48 bdbc ce7c 8e3d 3eaa eb3d
000001f0: fa37 a0bd abc3 3a3d 41ae 66bc bf14 373d
00000200: 5dbd 3cbd 6324 c73d 7ce3 9a3c db7a 47bc
00000210: 8b59 413d 1fad cd3d e21e c43c 7488 393d
00000220: bb4d 713d f857 023c f67b 5dbd 2192 3ebd
00000230: 97a9 95bd 599c 7abd 67f3 423c 7f00 8fbd
00000240: a221 5c3d f4ab 1e3d ad07 c0bd 4e65 c63d
00000250: aa59 243d 0853 23bd 3942 d13d 2b09 50bd
00000260: ab93 9c3d 840a dbbc 79c7 40bd 3d1a fabc
00000270: 421c 703d 3921 143d b836 423d 92ce b3bd
00000280: ac38 813d 8b68 753d d5f9 e53b 4d55 7abc
00000290: 6c92 9c3d 1615 753d 0aa0 68bd 695e c93c
000002a0: 9c5a c83d 2ac0 4abd 7c29 43bd 6e56 93bd
000002b0: 3b47 9e3d 789a 91bd 850e 3f3a 2816 33bd
000002c0: f8fb e1bc 086d 59bd 3bc5 84bd f2f0 ecbc
000002d0: 9a80 0ebb 362b 65bd 6abe 77bd b570 91bd
000002e0: 63d2 cf3d b3fc e73a 537e 13bc ab92 a43d
000002f0: e0f2 9c3c 6dca 8a3d cf27 a8bd 5934 ac3d
00000300: e2c6 3e3d bf93 ab3d 3652 f63c d973 8ebc
00000310: 0e9c a7bd 94db b23d aa36 60bd 08cb 8bbc
00000320: f1a0 5abd aa93 95bc 4ca8 3b3b f96e 243c
00000330: cefc 623d 6860 a33d 24c0 4d3d 04e0 a23d
00000340: 4c2b 643d 3624 a43c e53c 713c 8575 1cbd
00000350: 57e1 b33d 6911 243d 8fe1 59bd be14 b5bd
00000360: b544 6dbd 3195 fd3c df69 0e3c 84ec 803d
00000370: bd64 a43d 8dbb 7e3c e3be 1abc af1e 44bb
00000380: aac4 963d ed2f 99bc ae9a 12bb c9bb 193d
00000390: 501a f6bb 3663 42bd b98e 2d3b 23d9 32bd
000003a0: d8b9 033d 54e9 b43d 3aad 243d ba4a 923c
000003b0: a657 be3d 2e11 df3b 4691 a33b 1810 8b3d
000003c0: 02ad 72bd 6e8f 293d e669 143d f4dd 9abd
000003d0: ba77 e63b 25a4 0f3d d633 af3d 4f57 9a3d
000003e0: 8405 9dbc 72be 2cbd fc74 383d bc06 3bbd
000003f0: 6b7f f3bc b6d3 9f3d 198c 0abd f6d9 81bd

fc.weight f4 [1, 128]
0.21518084 0.09077947 -0.065821305 0.054013673 -0.025213646 0.120908625 -0.033473324 -0.09383289
0.021259762 0.113406464 -0.0488334 -0.1319247 -0.014570047 -0.06425827 0.048474144 0.067735076
-0.152921 -0.13214006 -0.075722076 0.13713166 0.0625983 -0.09294832 -0.103078246 0.045269743
-0.032061223 0.0043276134 -0.0004889495 -0.14418115 0.0650541 -0.033292998 -0.14754865 0.0064756353
0.016314045 0.13159208 0.027653148 0.07742373 -0.1689604 -0.121472254 0.037815455 -0.1313964
0.089396425 0.10823795 0.123345226 0.09533888 -0.03698065 -0.10529206 0.107578784 0.08536053
-0.09824877 -0.013799972 0.066035055 0.12463362 0.13922097 0.090878986 -0.13329376 -0.08198548
0.15861323 -0.19146216 -0.06678578 0.1229683 -0.08599834 -0.12136577 0.028533576 0.11824542
0.017142253 0.07591529 -0.14450759 0.07488592 -0.006873874 0.09631414 -0.12131033 0.026668862
0.13354349 -0.07039633 -0.15098055 -0.07973561 -0.07043329 0.12966311 0.09747616 0.13401246
0.05087875 0.13327068 0.08787846 0.09617918 0.10062629 -0.080413066 0.15671235 -0.03227605
-0.10860933 0.060886204 0.07938626 0.15187863 -0.056971837 0.09333298 -0.06280238 0.07119252
0.083245836 -0.08933362 0.11941143 0.09064672 0.12195997 0.145775 -0.093196794 0.049142867
0.116179116 0.05357122 0.045757137 -0.116250195 -0.10669721 0.08521596 0.08418086 -0.12050135
0.030362936 0.04643084 0.12641044 -0.044138122 -0.06692495 0.11921874 -0.066923276 -0.13554269
-0.14054845 0.09906807 0.067328975 0.112796076 -0.020781774 -0.035101946 -0.15659326 -0.09116956
00000000: 5e58 5c3e 96ea b93d 52cd 86bd 713d 5d3d
00000010: d98c cebc f19e f73d 531b 09bd 752b c0bd
00000020: f428 ae3c a641 e83d 8805 48bd 4517 07be
00000030: 35b7 6ebc d799 83bd d38c 463d b0b8 8a3d
00000040: 5397 1cbe b94f 07be 2d14 9bbd 3e6c 0c3e
00000050: 8a33 803d b05b bebd b01a d3bd c46c 393d
00000060: a152 03bd a7ce 8d3b d82c 00ba 39a4 13be
00000070: 153b 853d 3d5e 08bd fe16 17be 9131 d43b
00000080: 08a5 853c 13c0 063e db88 e23c 5590 9e3d
00000090: f503 2dbe 72c6 f8bd 61e4 1a3d c78c 06be
000000a0: 7915 b73d dcab dd3d 6c9c fc3d 0841 c33d
000000b0: 0679 17bd 5da3 d7bd 4452 dc3d 80d1 ae3d
000000c0: a736 c9bd 4719 62bc 633d 873d e93f ff3d
000000d0: f18f 0e3e c31e ba3d 297e 08be 01e8 a7bd
000000e0: 826b 223e a80e 44be fcc6 88bd ced6 fb3d
000000f0: e61f b0bd 9e8e f8bd 3fbf e93c a82a f23d
00000100: e96d 8c3c 7a79 9b3d ccf9 13be ca5d 993d
00000110: 3c3e e1bb 5940 c53d 8d71 f8bd a878 da3c
00000120: a0bf 083e f32b 90bd a59a 1abe 6c4c a3bd
00000130: 543f 90bd 68c6 043e 95a1 c73d 903a 093e
00000140: 3c66 503d 1c78 083e 9ff9 b33d 97f9 c43d
00000150: 2815 ce3d 9baf a4bd 3479 203e e433 04bd
00000160: 926e debd d063 793d 4395 a23d 1286 1b3e
00000170: 4d5b 69bd 5d25 bf3d 899e 80bd 62cd 913d
00000180: cb7c aa3d 8cf4 b6bd fb8d f43d fda4 b93d
00000190: 26c6 f93d 0b46 153e f6dd bebd 084a 493d
000001a0: 51ef ed3d 7f6d 5b3d d66b 3b3d 9514 eebd
000001b0: 1184 dabd b585 ae3d 0467 ac3d 69c9 f6bd
000001c0: b1bb f83c 442e 3e3d bd71 013e 2dca 34bd
000001d0: f30f 89bd f428 f43d 120f 89bd b4cb 0abe
000001e0: efeb 0fbe 33e4 ca3d c6e3 893d a101 e73d
000001f0: 8a3e aabc 0fc7 0fbd fc59 20be 1bb7 babd
