models/UDR model.pth (torch, 270882 bytes, 5 tensors)

lstm.weight_ih_l0 f4 [512, 1]
0	0xbcdf2904	-0.027241237
1	0x3caf307c	0.021385424
2	0x3dec6fd2	0.115447655
3	0xbe268936	-0.1626328
4	0x3c015844	0.007894579
5	0x3d51cf84	0.051223293
6	0xbe2b2b35	-0.16715701
7	0x3dcfadc7	0.10140567
8	0x3dfaf88f	0.1225444
9	0x3ccaa571	0.024737092
10	0xbd8f213e	-0.06988762
11	0xbe0c24f3	-0.1368597
12	0x3beb5312	0.0071815336
13	0xbcb148a2	-0.02164108
14	0x3cf51ec0	0.02992189
15	0x3dd7ca50	0.10536635
16	0xbcb43169	-0.021996217
17	0x3e044cd5	0.12919934
18	0xbe0cb63f	-0.13741396
19	0x3d0eaacb	0.03483085
20	0xbc196b14	-0.009363908
21	0xbcf34439	-0.029695617
22	0x3b8baa93	0.0042622774
23	0xbc292b52	-0.01032527
24	0xbcc37067	-0.023857309
25	0xbcd00f90	-0.025398046
26	0x3de19064	0.110138685
27	0x3da0d125	0.07852391
28	0xbc537d44	-0.012908284
29	0xbe56d164	-0.20978314
30	0x3cb7acfa	0.022421349
31	0x3c568de9	0.013095357
32	0xbd7a9410	-0.06117636
33	0x3dc09521	0.09403444
34	0xbac8e0d3	-0.0015325792
35	0xbd153659	-0.036428783
36	0x3e1418d2	0.14462593
37	0x3dfb0d34	0.12258378
38	0x3ddd823f	0.10815858
39	0x3dd755ec	0.10514435
40	0x3d81d7af	0.063399665
41	0x3d8c0b1d	0.06838057
42	0xbcf682b3	-0.03009162
43	0x3d8aa519	0.06769771
44	0x3da5b865	0.08091811
45	0x3daf7ff0	0.08569324
46	0x3d8c082b	0.068374954
47	0x3d7b88aa	0.06140963
48	0xbdd8fa9c	-0.10594675
49	0x3d83fb4f	0.06444418
50	0xbe3853ca	-0.18000713
51	0x3c9e98a7	0.0193599
52	0x3db9388a	0.09043987
53	0x3db07ea3	0.08617904
54	0xbdca0d3d	-0.09865806
55	0x3dababc1	0.08382369
56	0x3dde2637	0.10847133
57	0x3d76838c	0.060184047
58	0x3a856653	0.001017759
59	0x3d6d510d	0.057938624
60	0x3cc6f394	0.024286069
61	0xbcb0615c	-0.0215308
62	0xbd5cb40e	-0.05388265
63	0xbcacf393	-0.021112239
64	0x3e10a5de	0.14125773
65	0x3dacd020	0.08438134
66	0xbca649d8	-0.020298883
67	0xbb936f42	-0.004499347
68	0xbc9e6511	-0.019335302
69	0x3bd28103	0.006424071
70	0x3dd1c68b	0.10242947
71	0x3dcde67e	0.100537285
72	0xbd59792d	-0.053094078
73	0x3d2636a9	0.04057947
74	0x3d178dd6	0.0370005
75	0x3db72ae5	0.08943728
76	0xbd0bb18b	-0.034104865
77	0x3e75abc1	0.239913
78	0xbe518f76	-0.20464882
79	0xbe2d8278	-0.16944301
80	0x3d682bc6	0.05668237
81	0xbd2d7218	-0.042345136
82	0xbd5cabd8	-0.05387482
83	0xbc643563	-0.013928744
84	0x3d142897	0.036171522
85	0xbd1a6ea0	-0.037703156
86	0xbdfbe32a	-0.122991875
87	0x3d4d3e1b	0.050108057
88	0xbe3811c0	-0.17975521
89	0x3d695b92	0.056972094
90	0x3da58d55	0.080835976
91	0xbcf4d898	-0.029888436
92	0x3dd8ebd0	0.10591853
93	0x3c00a5f8	0.00785207
94	0x3d23c758	0.03998503
95	0x3d937d89	0.07201678
96	0x3d42c971	0.04755539
97	0x3d83a674	0.06428233
98	0x3de279d6	0.110583946
99	0xbd5209ba	-0.051278807
100	0xbcbe7902	-0.02325106
101	0xbd8aec82	-0.067833915
102	0x3d3f50bc	0.046707854
103	0x3cffe179	0.031235443
104	0xbcceede0	-0.025259912
105	0xbd149bd1	-0.03628141
106	0xbcc4f3b0	-0.02404198
107	0xbc69466e	-0.014237983
108	0x3d42f3e7	0.047595885
109	0x3d9058c0	0.07048178
110	0x3d5e8193	0.05432279
111	0xbd47fcda	-0.048825122
112	0xbe185b4b	-0.14878576
113	0xbe3ec93b	-0.18631451
114	0x3d630ce7	0.055432227
115	0x3a395347	0.0007069599
116	0x3d684cf9	0.05671403
117	0x3bf3b2a8	0.007437069
118	0x3e0792e2	0.13239625
119	0xbd1f0690	-0.038824618
120	0xbc43b2a0	-0.011944443
121	0x3d28e29f	0.041231748
122	0x3db7a7c4	0.08967546
123	0x3dda9bdd	0.1067426
124	0x3cf2e66e	0.029650893
125	0xbbddc554	-0.006767908
126	0x3da2e5be	0.07953976
127	0x3e454a99	0.19266738
128	0x3b8ffe10	0.0043943003
129	0x3d351588	0.044209987
130	0x3dcd4511	0.10022939
131	0xbde630de	-0.112397894
132	0x3cc67448	0.02422537
133	0x3dba2616	0.090892956
134	0xbe12839c	-0.14308017
135	0x3dc58275	0.09644023
136	0x3c69f018	0.014278434
137	0xbce540fb	-0.027985087
138	0xbd218059	-0.039429042
139	0xbe74a5f9	-0.23891439
140	0x3de9e99c	0.114215106
141	0x3c0d8fa3	0.008640203
142	0x3b6ae294	0.0035840617
143	0x3e123a8b	0.14280145
144	0xbc9b268e	-0.018939283
145	0x3e05251d	0.13002439
146	0xbd0e944a	-0.03480939
147	0x3dd5a2d3	0.10431447
148	0xbd24f897	-0.040276136
149	0xbd90dada	-0.070729926
150	0xbc500a8b	-0.012697826
151	0xbe16fd90	-0.14745164
152	0xbd3c08f0	-0.04590696
153	0xbd104639	-0.03522322
154	0x3cf90ce0	0.030401647
155	0x3cb0b3c0	0.021570086
156	0x3da0d742	0.07853557
157	0xbe7a9fd1	-0.24475028
158	0xbcb4473c	-0.022006623
159	0x3c853e49	0.016265051
160	0xbe03498a	-0.12821022
161	0x3a84569e	0.0010096615
162	0xbd7033e0	-0.05864322
163	0x3cbf385e	0.023342308
164	0x3dbcc68d	0.09217558
165	0x3d022093	0.031769346
166	0x3d218f26	0.039443158
167	0xbd2bb646	-0.041921876
168	0x3d9257da	0.071456626
169	0x3dde5115	0.10855309
170	0x3da702de	0.08154844
171	0xbd814813	-0.06312575
172	0x3d6785c8	0.056524068
173	0x3e19d635	0.1502312
174	0x3dea0d62	0.11428334
175	0xb8bc9e42	-8.9940164e-05
176	0xbb0fc1e2	-0.0021935632
177	0x3d84f4d0	0.06492007
178	0xbde641bd	-0.11243007
179	0xbc0c6c7a	-0.008570785
180	0xbce5bcba	-0.028044093
181	0x3d929a56	0.071583435
182	0xbde9979d	-0.11405871
183	0x3dfcb164	0.12338522
184	0x3d0ffd09	0.035153423
185	0x3df3188c	0.11869916
186	0x3d327b1f	0.04357445
187	0xbcc7626f	-0.024338929
188	0xbca5aeef	-0.020225016
189	0xbe2a8055	-0.16650517
190	0xbb8af111	-0.004240163
191	0x3d4be7ff	0.049781796
192	0x3d541e4f	0.051786717
193	0x3dc01dd0	0.09380686
194	0x3dbeb4f8	0.09311861
195	0x3de9c079	0.11413664
196	0x3df5327e	0.11972521
197	0xbda901cb	-0.08252295
198	0x3d6f8856	0.05847963
199	0x3ddf7d76	0.10912602
200	0x3d4f788b	0.050652068
201	0x3df893ab	0.121375404
202	0x3d9def70	0.07711685
203	0x3db02fea	0.08602889
204	0xbe2c80a1	-0.16845943
205	0x3e88cb99	0.26717833
206	0xbe0fe430	-0.1405189
207	0xbe4fd056	-0.20294318
208	0x3d591934	0.05300255
209	0x3d701053	0.058609318
210	0xbeb2a461	-0.34891036
211	0xbd2e3315	-0.042529184
212	0x3db8643e	0.09003495
213	0x3bb30400	0.0054631233
214	0xbdf08762	-0.11744572
215	0x3d1768a2	0.03696502
216	0xbe3d14c5	-0.18464954
217	0x3d1aec58	0.03782305
218	0x3caed6ec	0.021342717
219	0xbda60ae3	-0.08107545
220	0x3d71d9be	0.059045546
221	0x3de1d8bd	0.11027668
222	0x3dde9427	0.108681016
223	0xbca23b1e	-0.01980358
224	0xbd8a1661	-0.0674255
225	0xbc4f4748	-0.012651272
226	0x3d676311	0.05649096
227	0xbdc60072	-0.09668054
228	0xbd0c016f	-0.034181055
229	0xbd9f5483	-0.07779791
230	0x3de7fdbe	0.11327694
231	0x3d94b2be	0.07260655
232	0x3a02cb14	0.00049893674
233	0xbcd68e5e	-0.026190933
234	0xbc1c78d4	-0.009550292
235	0x3d98efb5	0.074675955
236	0xbb66e0bf	-0.0035229174
237	0x3d97ed29	0.074182816
238	0xbb9cc8cb	-0.0047846786
239	0xbccebc12	-0.025236163
240	0xbe0dd79c	-0.1385178
241	0xbe2dc258	-0.16968668
242	0x3d47f316	0.04881581
243	0x3d31479a	0.043281175
244	0x3de0afe4	0.109710485
245	0x3d84df54	0.06487909
246	0xbc453d9f	-0.012038617
247	0xbd938512	-0.072031155
248	0x3da1a35b	0.07892486
249	0x3d870f79	0.06594748
250	0xbd164286	-0.036684535
251	0xbd52c4c5	-0.051457185
252	0x3de418d9	0.11137552
253	0x3d83ccc5	0.06435541
254	0xbbcbb8dd	-0.006217106
255	0x3e5c5c2e	0.21519539

lstm.weight_hh_l0 f4 [512, 128]
0	0xbd5d8efd	-0.054091442
1	0x3c236b93	0.009974378
2	0x3cf5b7f8	0.02999495
3	0xbd9cb771	-0.07652176
4	0xbdbe4b4f	-0.09291708
5	0xbd0e4092	-0.034729548
6	0x3cf30f16	0.02967028
7	0xbd547122	-0.051865704
8	0x3d6dc715	0.058051188
9	0xbd5231c8	-0.051317006
10	0xbd14ddf8	-0.0363445
11	0xbc2b326f	-0.010449036
12	0x3d0cf584	0.03441383
13	0x3cbff582	0.023432497
14	0x3b7b239e	0.003832079
15	0xbb016007	-0.0019741075
16	0x3ca591f3	0.020211196
17	0xbca1d50a	-0.019754905
18	0xbd6a56aa	-0.057211556
19	0x3d74b787	0.059745338
20	0x3be40e77	0.006959732
21	0xbdabc20d	-0.083866216
22	0x3d84f6e5	0.06492404
23	0x3c65dfac	0.014030378
24	0xbccc21c5	-0.024918446
25	0xbd9285d3	-0.07154431
26	0x3dabb93a	0.083849385
27	0x3d6cb99e	0.057794206
28	0xbc2be6c5	-0.010492031
29	0xbc4b3353	-0.012402373
30	0x3d40ecba	0.04710076
31	0xbc328a9c	-0.010897305
32	0xbd3136a3	-0.043264996
33	0x3d971000	0.07376099
34	0x3c2f8654	0.010713179
35	0xbd658a8c	-0.05604033
36	0xbd97b65d	-0.0740783
37	0xbd98bd67	-0.07458001
38	0x3b482974	0.0030542286
39	0xbc570cfc	-0.013125654
40	0xbbe82d8e	-0.0070855087
41	0xbbb49374	-0.005510742
42	0xbc4bbcc1	-0.012435139
43	0xbd8db8e2	-0.06920029
44	0xbd7e46b8	-0.06207916
45	0xbd09bb59	-0.033625934
46	0x3d83ecb6	0.064416334
47	0xbbf7694c	-0.007550394
48	0xbda79e10	-0.08184445
49	0x3d88cbf5	0.06679527
50	0x3d6ab729	0.05730358
51	0x3ce7c8a4	0.028293915
52	0x3cb7f311	0.02245477
53	0x3be43856	0.0069647236
54	0x3d1bdca8	0.03805223
55	0x3b48d060	0.003064178
56	0x3cddce31	0.027075859
57	0x3d4f422f	0.050600227
58	0xbc1add63	-0.009452197
59	0x3cb19921	0.021679463
60	0x3d6dcca9	0.058056507
61	0x3d82d652	0.063885346
62	0xbd25e32a	-0.040499844
63	0x3cb35605	0.021891603
64	0xbd301eb9	-0.04299805
65	0x3cb0e0ba	0.021591533
66	0x3da95638	0.08268398
67	0xbdb8db72	-0.09026231
68	0x3d843ab7	0.064565115
69	0x3d40f8a9	0.04711214
70	0x3db95e20	0.09051156
71	0xbd2d80d8	-0.042359203
72	0x3c083e10	0.008315578
73	0xbd6319ae	-0.055444412
74	0xbd8a07ca	-0.06739767
75	0xbd3f7d2a	-0.046750225
76	0x3dc0cee5	0.09414462
77	0x3d7708d2	0.060311146
78	0x3c16655c	0.009179439
79	0x3d54ae73	0.05192418
80	0xbc26aeef	-0.010173543
81	0x3ba31217	0.0049765217
82	0xbdb05b65	-0.08611182
83	0xbdb0048b	-0.085946165
84	0xbc919178	-0.01776956
85	0xbd07acf0	-0.03312391
86	0xbd51aba2	-0.051189072
87	0xbcba12f6	-0.02271412
88	0xbd7fa349	-0.06241158
89	0xbdb12909	-0.08650405
90	0xbd9ee97a	-0.07759376
91	0x3c203738	0.00977879
92	0x3ccc7b4d	0.024961138
93	0xbd136209	-0.035982165
94	0x3daf6ceb	0.08565696
95	0x3d478b2e	0.048716716
96	0xbd6779d6	-0.056512676
97	0x3ccda6f5	0.025104025
98	0xbd800691	-0.062512524
99	0x3cd88939	0.02643262
100	0xbd36852c	-0.044560596
101	0xbd4fb8e8	-0.05071345
102	0xbceb9f1e	-0.028762396
103	0x3d90a69b	0.070630275
104	0x3d7edfe5	0.06222524
105	0x3d4cecdc	0.050030574
106	0xbcaa239c	-0.020768933
107	0x3d50e21d	0.05099689
108	0xbd37643a	-0.044773318
109	0xbd663513	-0.05620296
110	0x3c8a1dcc	0.016859911
111	0x3da106b7	0.07862609
112	0x3d32532e	0.043536358
113	0x3c95cb93	0.018285548
114	0xbc4730c7	-0.0121576255
115	0x3d5b284d	0.05350523
116	0x3d685bd8	0.056728214
117	0xbd0d2c62	-0.034466155
118	0xbd73ae66	-0.05949249
119	0x3d9e91df	0.077426665
120	0xbba92a84	-0.005162539
121	0x3b1013d2	0.002198447
122	0x3d98a2be	0.074529156
123	0x3d2cc743	0.04218222
124	0xbd997445	-0.0749288
125	0x3d7353ad	0.05940597
126	0xbd95c24f	-0.07312452
127	0x3d272fa8	0.040816933
128	0x3db5abe9	0.0887068
129	0x3c1ad00f	0.009449019
130	0x3d783eb2	0.060606666
131	0x3ca49251	0.0200893
132	0xbcc9bdd7	-0.024626656
133	0xbd8795f9	-0.06620402
134	0x3d435c51	0.04769546
135	0x3c611724	0.013738427
136	0x3d3e20e0	0.04641807
137	0x3db669c0	0.08906889
138	0x3be57826	0.007002848
139	0xbe1dd2a3	-0.15412383
140	0xbcb79ce5	-0.02241368
141	0xbdcb32b1	-0.09921778
142	0x3dd9a060	0.10626292
143	0x3d9f7eae	0.07787834
144	0x3d192dba	0.037397124
145	0xbd6d54b2	-0.0579421
146	0x3b4aeb7c	0.0030963114
147	0x3dc0dadc	0.09416744
148	0xbd7aec25	-0.06126036
149	0xbd673a2a	-0.056451954
150	0x3c9987bb	0.01874148
151	0x3e4c1311	0.19929148
152	0xbd65ed0b	-0.056134265
153	0x3dd55401	0.10416413
154	0xbd29b8a8	-0.041435868
155	0xbd2005dd	-0.03906809
156	0xbdc4ebe4	-0.09615305
157	0x3d3f3e82	0.04669047
158	0xbc1e9ccf	-0.009680941
159	0x3db96f20	0.090543985
160	0x3d83e939	0.06440968
161	0x3d605230	0.05476588
162	0xbd3f1e47	-0.046659734
163	0x3d6fbe09	0.05853084
164	0xbd51c6d9	-0.051215027
165	0x3d7fd2a7	0.062456753
166	0x3d8f0fe2	0.06985451
167	0xbbce83e2	-0.0063023428
168	0x3d2cfeaf	0.042235073
169	0x3db1e5a9	0.08686382
170	0xbb3f388d	-0.0029177994
171	0xbd1d032d	-0.038333107
172	0x3d6988aa	0.0570151
173	0xbc7028e8	-0.01465819
174	0x3dbe88c0	0.09303427
175	0xbd8275cf	-0.063701265
176	0xbbfecd57	-0.0077759433
177	0xbd3b036d	-0.045657564
178	0xbd936da3	-0.07198646
179	0xbcf34d42	-0.029699925
180	0x3dab7615	0.08372132
181	0xbd4d53ef	-0.050128873
182	0xbcb93aa8	-0.022610977
183	0xbd2e4f38	-0.042556018
184	0x3da691c6	0.08133273
185	0x3c58deb2	0.013236688
186	0x3c45163a	0.012029225
187	0x3d2dac47	0.042400625
188	0x3ddb2bab	0.107016884
189	0xbc8b780e	-0.01702502
190	0x3e3aee8f	0.18255065
191	0xbd7bd5cc	-0.06148319
192	0xbbc4a650	-0.0060012713
193	0xba5566da	-0.0008140631
194	0x3ba7d9c3	0.0051223948
195	0x3d1b3356	0.037890755
196	0xbd42c424	-0.047550336
197	0x3c8c4700	0.0171237
198	0x3cde87d0	0.02716437
199	0xbc02c44e	-0.007981373
200	0x3ddac2e4	0.10681704
201	0xbc31db56	-0.010855516
202	0xbdd465b3	-0.1037096
203	0x3cdaaa6f	0.026692597
204	0xbd766622	-0.060155995
205	0x3c8646ef	0.016391246
206	0xbc0b15b8	-0.008489065
207	0x3d0f53b0	0.03499192
208	0x3d31866e	0.043341093
209	0x3daa3313	0.08310523
210	0x3dc6f042	0.09713794
211	0xbcc8a273	-0.024491524
212	0x3d8f66e9	0.070020504
213	0x3d55abe2	0.052165873
214	0x3a598cdc	0.0008298883
215	0xbd66429f	-0.05621588
216	0xbdd17fbd	-0.10229442
217	0xbd0e3b8e	-0.034724765
218	0xbd81d1e7	-0.06338864
219	0x3cd0ae3e	0.02547371
220	0x3dcb6c60	0.0993278
221	0x3cfcc352	0.030854855
222	0x3d7e068e	0.06201797
223	0x3d65e93b	0.05613063
224	0x3d3faff4	0.04679866
225	0x3dc319ad	0.09526382
226	0x3d15ecb0	0.036602676
227	0xbb98c984	-0.0046626944
228	0xbc72e8ec	-0.014826041
229	0xbd488f7c	-0.048964962
230	0xbd045adb	-0.03231321
231	0xbbec0124	-0.0072022844
232	0xbdc42966	-0.095782086
233	0xbd4000a8	-0.046875626
234	0x3c7135db	0.014722313
235	0x3c8a1767	0.016856862
236	0xbd6646db	-0.056219917
237	0x3cf0c4f7	0.029390795
238	0x3db0a60b	0.0862542
239	0x3d9f5916	0.07780664
240	0xbd7698b6	-0.06020423
241	0xbdcde96f	-0.100542895
242	0x3dddeb7e	0.10835932
243	0xbdc616cd	-0.09672318
244	0x3c8e55e7	0.017374946
245	0xbd23cff1	-0.03999323
246	0xbc9f41a3	-0.019440478
247	0xbd1a57cc	-0.037681386
248	0xbca65a95	-0.020306865
249	0x3c3e488b	0.011613975
250	0xbdcac403	-0.099006675
251	0xbd4e398b	-0.050347846
252	0xbdbbd1e3	-0.09170892
253	0x3d291de6	0.04128828
254	0xbd8ebc93	-0.069695614
255	0xbca2e706	-0.019885551

lstm.bias_ih_l0 f4 [512]
0	0x3d55efc8	0.052230626
1	0x3da45799	0.080245204
2	0xbd5a96f6	-0.053366624
3	0x3dea86b8	0.11451477
4	0x3c9e10e9	0.019295173
5	0x3df7348a	0.12070568
6	0x3bcd0b70	0.006257467
7	0xbd6583c3	-0.05603386
8	0xbc314274	-0.010819066
9	0x3d9e842e	0.07740055
10	0xbd8b98f8	-0.06816286
11	0x3cb20c4f	0.021734385
12	0x3dde0136	0.10840075
13	0x3da2d1c6	0.07950167
14	0x3c53093c	0.01288062
15	0xbd20677b	-0.039161187
16	0xbcaa42fc	-0.020783894
17	0xbd889352	-0.06668724
18	0x3d9a3359	0.07529325
19	0xbd395159	-0.045243595
20	0xba483b8d	-0.0007638268
21	0x3c8f7d95	0.017515937
22	0x3d9164ab	0.07099279
23	0x3dc2bf20	0.095091105
24	0xbd23e36c	-0.04001181
25	0xbcdb51b4	-0.026772358
26	0x3e060196	0.13086542
27	0xbd6a68fd	-0.05722903
28	0x3da9fb2d	0.08299861
29	0x3c3d614c	0.011558842
30	0xbbc028e2	-0.0058642486
31	0x3cb5df27	0.022201134
32	0xbccb8318	-0.024842784
33	0x3d641cc8	0.05569151
34	0x3dc9a9d2	0.09846844
35	0xbcfae0af	-0.030624716
36	0x3d96f148	0.073702395
37	0xbd5253a2	-0.05134929
38	0xbcab76a9	-0.020930605
39	0x3dacc298	0.08435553
40	0xbd33c849	-0.04389218
41	0xbc92060e	-0.017825153
42	0x3c9610e4	0.018318601
43	0xbd8c39da	-0.06846972
44	0x3d9f16da	0.077680305
45	0x3b242b70	0.0025050305
46	0x3d85575c	0.06510803
47	0x3ccd091a	0.025028754
48	0x3d072142	0.0329907
49	0xbd5e9d14	-0.05434902
50	0xbc993bd0	-0.018705279
51	0xbd65029d	-0.055910695
52	0x3b82599f	0.003977969
53	0xbbecbe2e	-0.0072248196
54	0x3dbeb5c1	0.093120106
55	0x3ca84978	0.020542845
56	0x3d44d474	0.048054174
57	0xbd16a730	-0.036780536
58	0x3d75606f	0.05990642
59	0x3bd466db	0.006481988
60	0xbd0adf6d	-0.03390448
61	0xbc545452	-0.012959557
62	0xbd5ac285	-0.053408165
63	0xbc2818d6	-0.010259828
64	0x3cbeeaa9	0.023305254
65	0x3df3ee40	0.11910677
66	0x3d9471f6	0.07248299
67	0xbd161c23	-0.036647927
68	0xbd47ab07	-0.04874709
69	0x3c82b8c5	0.015957246
70	0x3da96b6c	0.08272442
71	0xbcc7e23d	-0.024399871
72	0x3d79f16d	0.061021257
73	0x3df59c6d	0.119927265
74	0x3cd0da87	0.025494827
75	0xbac3e82a	-0.001494651
76	0xbca22ae3	-0.01979584
77	0x3d77990c	0.06044869
78	0x3ca9842b	0.020692905
79	0xbc893827	-0.016750408
80	0x3d942e2b	0.07235368
81	0x3df2cf40	0.11855936
82	0xbd6e5d68	-0.058194548
83	0x3aedd336	0.0018144611
84	0x3cb21c77	0.021742089
85	0xbbfba846	-0.007679972
86	0x3dbf057a	0.093272164
87	0x3d0ce745	0.034400243
88	0x3d8582ed	0.06519113
89	0x3dd7e4d3	0.10541692
90	0xbd56f765	-0.052482028
91	0x3d66e335	0.056369025
92	0x3d4689f0	0.04847139
93	0x3ca4420e	0.020051029
94	0xbcb9db6b	-0.022687634
95	0x3ddbc863	0.1073158
96	0xbd414c50	-0.047191918
97	0x3db96fdd	0.09054539
98	0xbb27321c	-0.0025512045
99	0xbbf44608	-0.0074546374
100	0xbcc7c03b	-0.024383655
101	0x3d7ddc10	0.061977446
102	0xbc070225	-0.008240257
103	0x3d7c1ffd	0.061553944
104	0xbc89549f	-0.016763983
105	0x3d96b8d5	0.07359473
106	0xbdbfc3d9	-0.09363527
107	0x3d8bc4ea	0.06824668
108	0x3d8428a9	0.06453068
109	0x3cb7f678	0.022456393
110	0xbca28791	-0.019840034
111	0xbd42feca	-0.047606267
112	0x3ca03205	0.019555101
113	0xbd7f5eac	-0.062346146
114	0x3d8964d2	0.06708683
115	0xbc4207e0	-0.011842698
116	0x3d6d402d	0.05792253
117	0x3dbde84f	0.09272825
118	0xbd1cf0b8	-0.038315505
119	0xbb151246	-0.0022746488
120	0x3d7e8462	0.06213797
121	0x3d9ccb36	0.07655947
122	0x3d92c428	0.0716632
123	0xbc975ae9	-0.018475967
124	0x3d351468	0.044208914
125	0xbd5ea035	-0.054352004
126	0x3da72a74	0.08162394
127	0xbccc6876	-0.024952155
128	0x3d864512	0.06556143
129	0x3caf5d5e	0.021406826
130	0xbb85b1e9	-0.0040800464
131	0x3d76ced5	0.060255844
132	0x3d8d348b	0.068947874
133	0x3d7a6277	0.06112906
134	0xbd1859d3	-0.037195038
135	0x3cefcbeb	0.02927204
136	0x3ccc0b9a	0.024907876
137	0xbdc220cb	-0.09478911
138	0xbd5ab9bc	-0.053399786
139	0xbaaf5233	-0.0013375938
140	0xbd26c043	-0.0407107
141	0x3d1252e8	0.035723597
142	0xbd88c8e4	-0.06678942
143	0x3d6031fc	0.05473517
144	0x3b4b7e61	0.003105067
145	0x39d21fd5	0.00040078038
146	0xbd23ad90	-0.039960444
147	0xbca63513	-0.02028898
148	0xbc80af4b	-0.015708586
149	0xbd83d24e	-0.06436597
150	0xbdd8fbed	-0.10594926
151	0x3d7b99c8	0.061425954
152	0x3cc60b34	0.024175264
153	0x3d0d2227	0.0344564
154	0x3d0110a4	0.03151001
155	0x3da04352	0.0782534
156	0x3c9b02be	0.018922206
157	0xbd6bbc01	-0.05755234
158	0x3d3572e0	0.044299006
159	0x3bae95fe	0.005327939
160	0xbce607f3	-0.028079962
161	0x3cb1f0cc	0.021721266
162	0xbd6a13dc	-0.057147846
163	0x3cd37a3e	0.025815126
164	0x3d3f20ac	0.046662018
165	0x3da63af9	0.08116717
166	0x3c3479e7	0.011015392
167	0xbd77f6c9	-0.060538087
168	0xbd5256ad	-0.05135219
169	0xbd90438f	-0.07044136
170	0x3b9f2bde	0.0048575243
171	0x3ca88571	0.020571442
172	0x3d147233	0.03624172
173	0xbd7a3832	-0.06108875
174	0xbca9e3a0	-0.020738423
175	0x3ba058a5	0.0048933798
176	0x3d8c945d	0.068642356
177	0xbbd397da	-0.006457311
178	0xbd8d32c2	-0.06894447
179	0x3c2c62b7	0.010521582
180	0x3ce16e1c	0.027518325
181	0xbd0c73b7	-0.03429004
182	0x3dcff88e	0.1015483
183	0xbcf80f4d	-0.030280733
184	0x3dace83d	0.084427334
185	0x3d1f6561	0.03891504
186	0xbd24607e	-0.040131085
187	0xbc8cd1e6	-0.017189931
188	0x3d91539d	0.07096026
189	0xbc89beb6	-0.01681457
190	0x3d211344	0.039325014
191	0xbc5d7b1a	-0.013518119
192	0xbb25b7be	-0.002528652
193	0x3d92377e	0.071394905
194	0x3dae9c00	0.085258484
195	0x3d18cfe8	0.03730765
196	0x3d32a679	0.043615792
197	0xbcde6cf2	-0.027151559
198	0x3d9a39f6	0.075305864
199	0x3d4e9c43	0.05044199
200	0xbd8df5d0	-0.06931651
201	0xbd40d236	-0.047075473
202	0x3d1ed6e2	0.038779147
203	0x3d0c7a0e	0.034296088
204	0xbc5c320c	-0.0134396665
205	0x3d8824c1	0.06647635
206	0x3d64360d	0.05571561
207	0x3d3b8cd2	0.045788594
208	0xbcaacfd3	-0.020851051
209	0x3d49144f	0.049091633
210	0x3d0c3ec5	0.03423955
211	0x3dafb6cb	0.08579787
212	0x3d827acf	0.0637108
213	0x3d3d975f	0.046286937
214	0x3ca82905	0.020527372
215	0x3d131d6c	0.03591673
216	0xbd6b0f64	-0.057387725
217	0xbd0116ce	-0.03151589
218	0x3bd9e0af	0.006649099
219	0xbd4ece14	-0.0504895
220	0x3d75d7d1	0.06002027
221	0xbd0471c8	-0.032335073
222	0xbd51a6bc	-0.0511844
223	0xbbc5cb6c	-0.0060362127
224	0xbc61bc16	-0.013777753
225	0xbd341807	-0.043968227
226	0x3d823c5b	0.06359168
227	0x3ce348b2	0.027744625
228	0xbd4b0888	-0.049568683
229	0x3d8d740e	0.06906901
230	0xbd910422	-0.070808664
231	0xbd5a347c	-0.05327271
232	0xbda242ca	-0.07922895
233	0x3bb09a48	0.0053894855
234	0x3d1b03c2	0.03784538
235	0xbd70fddd	-0.058835853
236	0xbd35441b	-0.044254404
237	0x3d91fe5e	0.07128595
238	0xbc8198fa	-0.015820015
239	0x3bd1a028	0.006397266
240	0x3ccc82d1	0.024964722
241	0xbd47188a	-0.048607387
242	0xbb7a721b	-0.0038214985
243	0x3d84873f	0.06471109
244	0x3cc421a5	0.023941824
245	0x3dc109f6	0.09425728
246	0x3d08974d	0.033347417
247	0x3cb56e20	0.022147238
248	0x3c2c07b3	0.0104998825
249	0xbda2cd06	-0.07949261
250	0xbca1f435	-0.019769767
251	0xbd80a71a	-0.06281872
252	0x3c3bf770	0.011472568
253	0x3b3e0c81	0.0028999152
254	0x3b5be511	0.0033553282
255	0xbd083e1e	-0.033262365

lstm.bias_hh_l0 f4 [512]
0	0xbd934133	-0.0719017
1	0x3d691a9d	0.056910146
2	0xbce0b9cf	-0.02743235
3	0xbd1d1054	-0.03834565
4	0xbdb88dfb	-0.090114556
5	0x3dd4dcca	0.10393675
6	0x3d485af5	0.04891487
7	0x3d4b4d5c	0.049634323
8	0xbd2201a8	-0.03955236
9	0xbcb3f28e	-0.021966245
10	0xbb8cfd67	-0.004302669
11	0x3db1ab5f	0.086752646
12	0xbb917fa8	-0.0044402666
13	0xbd0763cf	-0.03305417
14	0x3936a088	0.00017416675
15	0x3d8613cb	0.06546744
16	0x3d0ed1fa	0.034868218
17	0xbd47e26a	-0.04879991
18	0xbbe19551	-0.006884255
19	0xbcf44c18	-0.02982144
20	0x3d1dc23a	0.038515307
21	0x3c93bcc0	0.018034339
22	0x3e0a1765	0.13485487
23	0x3d3066ac	0.043066666
24	0x3d9d1914	0.07670799
25	0x3d984199	0.07434387
26	0xbc33e489	-0.01097978
27	0x3d25258b	0.040319007
28	0x3ba5bedb	0.005058152
29	0x3de3203d	0.11090133
30	0xbd14c8e4	-0.036324397
31	0xbd7e7572	-0.062123723
32	0x3c076c03	0.008265498
33	0x3d81fbb8	0.0634684
34	0xbc5e786a	-0.013578514
35	0xbd35a2da	-0.04434476
36	0x3d6b7b15	0.057490427
37	0x3d78eeb8	0.060774535
38	0x3de99785	0.11405853
39	0xbcc629e8	-0.024189904
40	0x3c808143	0.015686637
41	0x3d2cfa66	0.042230986
42	0x3dc26689	0.09492213
43	0xbcb349be	-0.021885749
44	0x3bc92672	0.0061386162
45	0xbc9cad68	-0.019125655
46	0x3dddf209	0.1083718
47	0xbbb3f3ef	-0.0054917256
48	0x3d21de59	0.039518688
49	0xbd4080a1	-0.04699767
50	0xbc91926e	-0.017770018
51	0x3d6d8623	0.05798925
52	0x3af58fc5	0.0018734863
53	0x3d8c1bc8	0.06841236
54	0xbcd8a95e	-0.026447948
55	0x3d32240d	0.043491412
56	0x3d2941e4	0.041322604
57	0xbbfc0aa4	-0.007691698
58	0xbd09369c	-0.033499345
59	0xbcee601a	-0.02909856
60	0x3d8b72eb	0.06809028
61	0xbb3dd138	-0.0028963815
62	0xbcf4f8f6	-0.02990387
63	0xbc98e94e	-0.018665936
64	0x3d78a544	0.060704485
65	0x3cfdae08	0.030966774
66	0x3db59746	0.08866744
67	0xbd385838	-0.045006007
68	0x3db1aaed	0.0867518
69	0x3e0d5916	0.13803515
70	0x3d8ffc60	0.070305586
71	0x3dbdc96e	0.09266935
72	0xbcb87792	-0.022517953
73	0x3c633111	0.013866679
74	0x3d4d6322	0.05014337
75	0xbb9b54a7	-0.004740316
76	0xbd49794a	-0.049187936
77	0x3d9fe324	0.078069955
78	0x3df1eced	0.11812768
79	0x3d99c710	0.07508671
80	0xbd527649	-0.051382337
81	0x3d6c8160	0.05774057
82	0xbce0f544	-0.027460702
83	0xbd0f56d2	-0.034994908
84	0x3c0aaecd	0.008464527
85	0x3db233e6	0.08701305
86	0xbd14c78d	-0.03632312
87	0xbad390cc	-0.0016141175
88	0x3dbff9f3	0.09373846
89	0x3de6dc0f	0.112724416
90	0xbd5a0be5	-0.053234
91	0xbb2b8c29	-0.0026176071
92	0xba51cae6	-0.00080029515
93	0x3de27d6b	0.11059078
94	0x3d006f39	0.03135607
95	0x3c25efe0	0.010127991
96	0x3da41886	0.0801249
97	0x3d6c247f	0.057651993
98	0x3d5e9edc	0.05435072
99	0xbd42d5a0	-0.04756701
100	0x3dbff26d	0.09372411
101	0x3d93ba0d	0.07213221
102	0xbd9068bd	-0.07051227
103	0x3d914e3d	0.07095001
104	0x3cbb92a5	0.022897074
105	0x3d711512	0.058857985
106	0xbd847ed1	-0.06469501
107	0x3d8fdca2	0.07024504
108	0xbda2dae1	-0.07951904
109	0xbcb0e6cc	-0.021594428
110	0xbcd668e9	-0.026173072
111	0xbd73e11b	-0.05954085
112	0x3da1efcb	0.07907065
113	0x3d6f5b9c	0.058436975
114	0xbd821dbe	-0.06353329
115	0x3cae1e2c	0.021254621
116	0xbd53ddbf	-0.051725145
117	0x3b65947b	0.0035031128
118	0xbab4d0d1	-0.0013795142
119	0xbc7e8190	-0.01553382
120	0x3b8dd2cb	0.004328107
121	0x3dd28181	0.10278607
122	0x3d06544c	0.032795236
123	0x3dec6c24	0.11544064
124	0x3da82238	0.08209652
125	0xbccc0898	-0.024906442
126	0x3d2a42c3	0.041567575
127	0x3d13ab32	0.036051936
128	0xba236bb6	-0.0006234007
129	0x3db2d2f9	0.08731646
130	0x3cb3a9a3	0.021931475
131	0x3ce5d9ea	0.028058011
132	0x3d8ca8e7	0.06868153
133	0x3dc85b93	0.097830914
134	0x3da9013b	0.08252188
135	0x3d168630	0.036749065
136	0xbc50f040	-0.012752593
137	0xbdacafcf	-0.0843197
138	0x3d60db53	0.054896664
139	0x3db719dd	0.0894048
140	0xbd95f361	-0.073218115
141	0x3cc8b364	0.024499603
142	0xbda76456	-0.081734344
143	0xbd2ce6f0	-0.042212427
144	0x3d8648cc	0.06556854
145	0xbac14bed	-0.0014747359
146	0x3d0b9b25	0.034083504
147	0x3d1e542e	0.0386545
148	0xbd49f29e	-0.049303643
149	0xbd6fdfd8	-0.058563083
150	0xbd94e702	-0.07270624
151	0xbce81289	-0.02832915
152	0xbd7c7764	-0.061637297
153	0xbc92f9c6	-0.017941367
154	0xbd6edb0a	-0.05831436
155	0xbd87e90d	-0.06636248
156	0x3d8560c1	0.06512595
157	0x3d2d355c	0.042287216
158	0x3d434a78	0.04767844
159	0x3cb64ad5	0.02225248
160	0xbd712f1c	-0.058882818
161	0xbd22a8d0	-0.039711773
162	0x3ca97b44	0.02068866
163	0xbd32c641	-0.0436461
164	0xbda01430	-0.078163505
165	0xbc1f9bde	-0.0097417515
166	0x3db496d5	0.088178314
167	0x3da4d028	0.08047515
168	0x3dd3a874	0.10334864
169	0x3ce82aff	0.028340815
170	0x3cd00738	0.025394067
171	0x3cf67ddd	0.030089313
172	0x3d38fe30	0.045164287
173	0xbdb855e3	-0.090007566
174	0x3da30ec6	0.07961802
175	0xbd820b4e	-0.063498124
176	0xbcbe115e	-0.02320164
177	0x3d9ba703	0.07600214
178	0x3c4493a2	0.011998089
179	0xbd2b2b32	-0.04178924
180	0x3dc9be42	0.09850742
181	0x3c1d49bd	0.0096001
182	0x3d975fa8	0.07391292
183	0x3dbab592	0.09116663
184	0x3ba61411	0.00506831
185	0xbd504c93	-0.050854277
186	0x3caf642f	0.021410076
187	0xbdbde021	-0.09271265
188	0xbcb61ad1	-0.022229584
189	0x3d623b01	0.05523205
190	0xba9e2c71	-0.0012067688
191	0xbc35620c	-0.0110707395
192	0x3d593bcc	0.053035542
193	0xbd73dc68	-0.059536368
194	0xbb8fbedf	-0.0043867673
195	0xbc8964dc	-0.016771726
196	0x3dca3bed	0.09874711
197	0x3d4976b2	0.049185462
198	0xbd7776b0	-0.060415924
199	0x3dc536f5	0.09629623
200	0x3d2c0a2f	0.0420019
201	0x3d7c475f	0.061591502
202	0x3da45324	0.0802367
203	0x3a2d5f58	0.00066136336
204	0xbb574bc1	-0.003285155
205	0x3a5f5355	0.00085191923
206	0x3d47a5d6	0.048742138
207	0x3cd88169	0.026428895
208	0x3cafc641	0.02145684
209	0x3d99a4c6	0.07502131
210	0xbaf2a215	-0.0018511439
211	0xbd03e9c0	-0.032205343
212	0x3d542e73	0.05180211
213	0xbd30b922	-0.043145306
214	0x3bd2dd35	0.0064350613
215	0xbd864787	-0.065566115
216	0xbd440b61	-0.047862414
217	0xbc0feb01	-0.008784057
218	0xbc8ed8b3	-0.017437315
219	0xbd5a13f7	-0.053241696
220	0x3d76b647	0.060232427
221	0x3dbbf6bd	0.09177921
222	0x3d47b29d	0.048754323
223	0x3d439944	0.047753587
224	0x3c262229	0.01013998
225	0x3d83b6fc	0.06431386
226	0x3d965ecb	0.07342299
227	0x3dae581e	0.08512901
228	0xbd867c22	-0.06566645
229	0x3d38fa2c	0.045160457
230	0x3d252779	0.040320847
231	0x3d69d7fe	0.05709075
232	0x3d915959	0.0709712
233	0xbd153593	-0.036428045
234	0xbd839ac3	-0.06426003
235	0xbd0930ff	-0.033493992
236	0x3d5b207d	0.05349778
237	0xbd24934e	-0.040179543
238	0xbc9351ae	-0.017983284
239	0x3d945388	0.07242495
240	0x3d17e893	0.037087034
241	0x3cad7519	0.021174
242	0x3d3ee049	0.046600614
243	0x3da65c05	0.0812302
244	0xbc7c60d7	-0.015403948
245	0x3dc92346	0.09821181
246	0xbd5fc89f	-0.054634687
247	0x3d9cf571	0.07664002
248	0xbdb4761b	-0.08811589
249	0xbd8126e2	-0.063062444
250	0x3d9eebaa	0.07759793
251	0xbd4db6e4	-0.050223246
252	0xbc2b20a6	-0.010444796
253	0xbc8db9e8	-0.017300561
254	0x3d9d1271	0.07669533
255	0x3cc3c1b2	0.023896072

fc.weight f4 [1, 128]
0	0x3804c045	3.1650317e-05
1	0xbda21c4f	-0.07915556
2	0x3db70096	0.08935659
3	0xbdb71fbd	-0.089416005
4	0xbc589614	-0.013219375
5	0xbe055606	-0.13021097
6	0xbe2558c7	-0.16147147
7	0x3db872ee	0.09006296
8	0xbdce884b	-0.100845896
9	0xbcd051b9	-0.025429593
10	0x3d87df22	0.06634356
11	0x3e016058	0.12634408
12	0xbd9e1662	-0.07719113
13	0xbe00f7e5	-0.12594564
14	0xbd61333d	-0.054980505
15	0x3dac85e9	0.08423979
16	0x3dbe775d	0.093001105
17	0x3d949374	0.07254687
18	0xbd72820b	-0.05920605
19	0x3da50478	0.08057493
20	0xbd98b450	-0.07456267
21	0x3dd49d88	0.10381609
22	0x3d91ccdc	0.07119152
23	0xbd659d2a	-0.056058086
24	0xbd90147a	-0.070351556
25	0xbd220eb7	-0.039564814
26	0xbdd74c33	-0.10512581
27	0x3da80fcd	0.08206139
28	0xbd7afe0c	-0.061277434
29	0x3e0dac8c	0.13835353
30	0xbda42646	-0.080151126
31	0x3d99a797	0.07502668
32	0xbd8119b8	-0.063037336
33	0xbdcd9426	-0.10038023
34	0x3ce14881	0.027500393
35	0x3d03b843	0.032158148
36	0x3d5cd857	0.053917255
37	0xbd8cac98	-0.06868857
38	0x3df2f5c2	0.11863281
39	0x3df26d8b	0.118373
40	0x3dff9b34	0.124807745
41	0x3db28d4f	0.08718359
42	0xbd3fc579	-0.046819184
43	0xbd4bed1a	-0.049786665
44	0xbda7adfb	-0.08187481
45	0xbd8e330a	-0.06943329
46	0x3d650ab0	0.055918396
47	0xbe0a5f21	-0.13512851
48	0xbe150d54	-0.14555866
49	0x3d9229f2	0.07136907
50	0x3e62193d	0.2207994
51	0x3d6dcaf7	0.05805489
52	0x3d46124c	0.048357293
53	0x3d65a0d8	0.056061596
54	0x3da96bfc	0.082725495
55	0x3def6cae	0.11690651
56	0x3d924026	0.071411416
57	0xbdbbc506	-0.091684386
58	0x3deb64b6	0.114938185
59	0xbd9b2d70	-0.07577026
60	0xbda46619	-0.08027286
61	0x3e2b63db	0.1673731
62	0x3c7a2ce8	0.015269496
63	0xbcc5db4c	-0.02415242
64	0xbdcc1f55	-0.099669136
65	0x3de4ef74	0.111784846
66	0xbc9a5d85	-0.018843422
67	0x3e152a27	0.14566861
68	0x3d95193b	0.07280203
69	0xbe1d8dd4	-0.15386134
70	0xbd7ab94d	-0.061211873
71	0x3d8fb324	0.0701659
72	0x3cd6d2d3	0.026223576
73	0xbe113071	-0.14178635
74	0xbd489d34	-0.048978046
75	0x3daa6ea4	0.08321884
76	0x3d68bc51	0.056820218
77	0xbdc48ff2	-0.09597768
78	0x3da73438	0.08164257
79	0x3e0a4642	0.13503364
80	0x3d83e7d5	0.06440703
81	0x3e02ac7d	0.12761112
82	0xbdb94c32	-0.09047736
83	0x3dc4c6a5	0.09608201
84	0x3d57cc01	0.052684788
85	0x3e1314dc	0.14363426
86	0xbdddd846	-0.108322665
87	0x3e1c59bd	0.15268607
88	0x3deb3259	0.114842124
89	0x3dc3d8f9	0.095628686
90	0x3c8b3a95	0.016995708
91	0x3d855d0f	0.0651189
92	0x3dd38c1e	0.103294596
93	0x3dc7a64c	0.097485155
94	0xbe09467a	-0.13405791
95	0xbe33c6af	-0.1755626
96	0xbd668d11	-0.056286875
97	0x3d958560	0.0730083
98	0xbde90ade	-0.11379026
99	0x3d4381fe	0.047731392
100	0x3e1f45e2	0.15554002
101	0x3e072c58	0.1320051
102	0xbd56cce8	-0.052441508
103	0xbc7791f6	-0.015110483
104	0xbd076918	-0.03305921
105	0x3dbf0d5d	0.09328721
106	0x3b4dd289	0.0031406006
107	0xbdf633e0	-0.12021613
108	0xbc4caca3	-0.012492332
109	0x3ce729d2	0.028218184
110	0x3e041efc	0.12902445
111	0xbd13594d	-0.035973836
112	0xbe002cf8	-0.12517154
113	0x3da1ffdb	0.07910129
114	0x3dac1db1	0.08404101
115	0xbe0eeb17	-0.13956867
116	0x3d5f65fa	0.05454061
117	0x3d9bde3b	0.076107465
118	0x3de5ce39	0.112209745
119	0x3e0e4abe	0.138957
120	0x3a117a2e	0.0005549517
121	0x3e137f2b	0.1440398
122	0xbb2a6214	-0.00259984
123	0xbe15b59d	-0.14620061
124	0xbda8e274	-0.082463175
125	0x3d7c388d	0.06157737
126	0x3dfa8526	0.12232427
127	0xbd1527a3	-0.036414754
