models/WELL model.pth (torch, 270889 bytes, 5 tensors)

lstm.weight_ih_l0 f4 [512, 1]
00000000: 5822 163d 6d2b 93bd cecb cfbd 4976 893d
00000010: 15d8 0b3d 5cff c1bd b988 473d b056 633b
00000020: 8a31 a4bd 4949 a9bb bff7 b1bc 2307 a7bd
00000030: 7466 cf3d 19b3 a5ba f2b2 65bb 941e a1bd
00000040: fdbc a13d 1959 ddbd 8688 873c b8eb 383d
00000050: 409f cdbd b0b9 273d 533f 9bbc e0b0 f2bd
00000060: b948 7ebb 549c 8dbc 16bb 33bd 7a0b 7cbd
00000070: 06f1 6ebd be91 853d 29c5 6e3d 7678 913b
00000080: 9cdc 453d 8ceb 3b3d 75ee 14bc b280 873d
00000090: 511e 9dbd 4a95 3b3d b716 75bd fe09 2dbd
000000a0: 29f4 25bc 8a4b 343d c14c 61bd f8a4 b13d
000000b0: cf08 9cbd f12f 663d a0cd 65bc b19b a7bc
000000c0: 9957 11be 9500 2b3c b08c fbbd 9349 bb3c
000000d0: 849f 1b3d eed1 983d 8d4d 0e3d 0da1 b9bb
000000e0: 2006 c1bc ae53 82bc c02d b63b edf6 5cbd
000000f0: 8264 1dbd 9333 2fbc 6250 d9bd f510 ae3d
00000100: 0625 023d 43d8 d93b 405c 213d b0ff 18bd
00000110: c0a4 ffbd 578e d43c 3bb0 68bc 5e11 973c
00000120: c615 88bd 3448 abbc e4fa 143d 9390 b9bb
00000130: bdfc 6c3c e568 a63d 90f1 2d3d 9733 fe3c
00000140: 362c acbd ff97 843c 4ec3 da3c 67a9 3dbd
00000150: 1638 88bc f916 24bc e139 b13d 9f5d f2bd
00000160: 51ed 7a3c 77b4 99bd e167 733d 8f29 1d3c
00000170: e791 e8bd d9cf b6bd e854 d6bb e234 113d
00000180: 1431 47bb 42b7 f3bd c469 cdbd 6c61 753d
00000190: baf7 0bbc 1761 95bd da73 e83c e655 28bd
000001a0: 6459 c63d 7c50 f4bc 9641 f5bd bebe a1bd
000001b0: c360 f7bc 5177 cdbc 7e98 823d 083b 91bd
000001c0: 70cb 8fbd b043 9bbd 6194 eabd 066f 0d3d
000001d0: 6106 e6bd 7693 85bd 45a7 1e3d b3d7 e63c
000001e0: dd28 b7bd 58a8 0b3c 8615 383d 4769 213d
000001f0: 4016 0e3e fef2 9f3d 53ac dfbc f4fd 91bc
00000200: e866 84bd d61f 9abd b6ba fabc 291d bebc
00000210: 261a 27bd c901 263d 770e 60bd 3992 2f3d
00000220: f441 b93b e4f6 a33c 4dbc d9bc 24c1 adbd
00000230: eb2a f73d 2ad1 513d e45c 30bc 5b47 91bd
00000240: 03c7 39bb 93b4 f5bd 8f02 a1bd a57b c03c
00000250: e2c9 74bd a348 a9bd 2db3 993d cf92 19bd
00000260: cc72 323d c332 43bc c206 32bd 396d f33c
00000270: dea5 a5bd ce98 5c3d 264d 81ba 65ab a038
00000280: 98a3 6ebd f660 b9bd 0717 2a3c 8582 d9bc
00000290: ad4d 8ebd 0613 463b ad49 d1bd 5c5a c1bd
000002a0: a04b f73c 8754 d4bd 3c10 fabb a3ea 8abd
000002b0: dc60 9ebd e02b 583d 172c 26bd d358 3fbb
000002c0: da87 6dbd 4f39 f2bd 6ff6 bc3b 4943 bcbd
000002d0: e54e 8e3d 1b58 b53c c906 c1bd 83e6 17bd
000002e0: 8e36 74bd cae7 fdbc 6901 0bbd fa2a d4bb
000002f0: dd00 763c d3a5 4abd 8430 aabd 4aea 8038
00000300: 1088 a43b ad41 583d 0101 06bd bad1 b63c
00000310: edd0 02be 28b9 1bbd 0fe2 c63c b127 83bd
00000320: c3a9 573d a0b0 8ebc 5583 943d d7cb a0bd
00000330: 6e64 c9bd e81b e93d 927d f1bc 073a abbd
00000340: e736 cc3b b1ef 1dbd f144 5a3c ef4e 04bd
00000350: d42f a0bd bef2 b03c daa8 933c dcb1 39bd
00000360: 3e6e d1bd c688 433d 421a e7bb bf00 903b
00000370: dd77 c93c 235e 1bbc 6c27 0c3e d463 043d
00000380: 0779 033d f9a6 c63c b94b d1bd 2c4b 04bd
00000390: 1275 c8bd c9ce 5c3d 6a92 a7bc ed3f 24bd
000003a0: 9106 973d 5bcb 01bc fa85 f0bd 5064 ac3d
000003b0: 8cdc 053d f5ec cd3d 2276 b03c 779a 5dbd
000003c0: ed12 cd3d 7281 0fbe 0013 613d 1b13 293d
000003d0: 67f1 c63c ecde fdbd 4101 8a3c 9cff 09bc
000003e0: b518 1c3d edca 90bc e5bd baba 15ed 063c
000003f0: 3ed1 323c 866c 963d 62c7 d3bd 0057 27bd
0.036653847 -0.07186017 -0.101462945 0.06712014 0.03414162 -0.09472534 0.048714373 0.003468912
-0.08017261 -0.005166207 -0.02172458 -0.08155658 0.10126963 -0.0012641876 -0.0035049287 -0.078671604
0.07897375 -0.1080801 0.016544592 0.045146674 -0.1004014 0.04094857 -0.018951094 -0.118501425
-0.003880067 -0.017286457 -0.04387959 -0.061534382 -0.058335327 0.06521939 0.058293495 0.004439409
0.048306093 0.045878932 -0.009090056 0.066163436 -0.07671798 0.04579667 -0.059836116 -0.042245857
-0.010129013 0.044017352 -0.05500484 0.086740434 -0.076188676 0.056198064 -0.014026076 -0.020459982
-0.14193572 0.0104371505 -0.122826934 0.022862231 0.037993923 0.07461916 0.034741927 -0.0056649507
-0.023562491 -0.015909042 0.005559653 -0.053946424 -0.03842593 -0.010693449 -0.10611035 0.08499328
0.03177359 0.006648095 0.039394617 -0.037353218 -0.124825954 0.02594678 -0.014202173 0.018440899
-0.06644778 -0.020908453 0.03637208 -0.0056629865 0.014464554 0.08125476 0.0424667 0.03103046
-0.0840687 0.016185759 0.026704457 -0.046304133 -0.016628306 -0.010015243 0.08653618 -0.11834263
0.01531537 -0.07505124 0.05942524 0.009592428 -0.11355954 -0.089263625 -0.0065408833 0.035450824
-0.0030394243 -0.11900188 -0.10029939 0.059907362 -0.008542949 -0.07293909 0.028375555 -0.041097544
0.09685019 -0.029823534 -0.119754 -0.07897709 -0.030197507 -0.025081309 0.06376742 -0.070913374
-0.070212245 -0.0758127 -0.11454082 0.03452971 -0.112316854 -0.065222666 0.03873374 0.028179025
-0.08943341 0.008524023 0.0449424 0.03940704 0.13875675 0.07810019 -0.02730385 -0.01782129
-0.0646494 -0.075256035 -0.030606609 -0.023207264 -0.04079642 0.040529046 -0.054701295 0.04286406
0.005653614 0.020015188 -0.026579047 -0.08484104 0.12068733 0.051224865 -0.010764334 -0.07093688
-0.002834738 -0.119973324 -0.07861816 0.023496458 -0.059762843 -0.082658075 0.07504878 -0.037493523
0.04356651 -0.011913958 -0.043463476 0.029715167 -0.08088277 0.053856663 -0.0009864911 7.661319e-05
-0.058261484 -0.09051697 0.010381467 -0.026551494 -0.06948409 0.0030223741 -0.10219131 -0.09441063
0.030187428 -0.10367685 -0.00763133 -0.06783035 -0.07733318 0.052776217 -0.04056939 -0.002919723
-0.057990886 -0.11827337 0.005766682 -0.09192521 0.06948642 0.022136739 -0.09425122 -0.037085067
-0.05962234 -0.030994315 -0.03393689 -0.00647485 0.015014854 -0.04947455 -0.08310035 6.147155e-05
0.0050211027 0.05279701 -0.0327158 0.022316802 -0.12775011 -0.038018376 0.024277715 -0.06404055
0.05265213 -0.017418206 0.07251612 -0.07851379 -0.098336086 0.11382276 -0.029478822 -0.08360677
0.006232131 -0.038558666 0.013322101 -0.03230184 -0.078216225 0.021600123 0.01802485 -0.045335636
-0.10226105 0.04773786 -0.0070526907 0.00439462 0.024593288 -0.009482893 0.13686913 0.032321766
0.032097843 0.02424954 -0.10219521 -0.032298252 -0.097879544 0.053908143 -0.020455558 -0.040100027
0.07374299 -0.007922019 -0.11744304 0.084175706 0.032681033 0.100549616 0.021540705 -0.054102387
0.100133754 -0.14014223 0.05494976 0.041277986 0.024285031 -0.123960346 0.016846301 -0.008422758
0.0381095 -0.017674888 -0.0014247267 0.008235236 0.010914145 0.07344918 -0.10340764 -0.040854454

lstm.weight_hh_l0 f4 [512, 128]
00000000: 07ce 173d d87c 71bd ed40 cebd e042 88bd
00000010: 488b 9a3d ae48 81bc 9e3c 7d3d 313c bd3c
00000020: d712 863d eda7 a83d baeb cbbb be3b e6bb
00000030: 8a1d 9c3d 056a 88bd c029 403c 4ba4 64bc
00000040: fd08 58bc 7fa8 e13c a0c1 9abd 2518 2dbd
00000050: 77ec c3ba 0b4b 80bd e91d a03c a385 83bd
00000060: 3bdc aebd 3d41 c1bc 9abf 603c 1a8b 123d
00000070: 8904 7fbc 8d3e 4cbc c629 703d 2d58 0f3d
00000080: bd37 00bd 755e f3bc 3204 cfbc 88b9 f2bb
00000090: 6343 1d3b 12f1 84bd df36 083d e4e5 0cbb
000000a0: 2735 29bb 52e1 963d 6f4f 213d 94c2 a43d
000000b0: 2744 b83d 2190 68bd 22c8 9fbd 004e bbbc
000000c0: 983b 62bd ca5f fdbc 0c66 42bd d7da 9ebc
000000d0: 975b 21bb 6c75 f4bd d509 7abd 1cc2 23bc
000000e0: 65f3 a5bc 2529 90bd 8778 7f3d 642c 3abc
000000f0: a70b 96bd 6a29 d03d f3c0 a0bd 663b 4abd
00000100: 0cb3 2cbd 2bce 6a3d 72f5 ae3d 9041 f03b
00000110: 27c3 893d 5407 c9bd 53e1 3ebd 37ad 41bd
00000120: 7971 2cbc 6bb5 9e3d 048d 01bd f96a 713d
00000130: f739 4a3d 81cf 3a3d 9660 c5bd b2cb 81bd
00000140: 64a9 78bc 75db 4f3b 2dc5 29bd 4df3 343d
00000150: 8f6f 18bd 0e96 9d3d aa05 6f3d 676c 853d
00000160: 582f 443d ff36 45bd a002 d33a 14ae 59bd
00000170: 0aac c4bb 781f 07bd 6ac4 21bd cf7f 4abd
00000180: 55ee 9e3c e661 8dbb 1355 8abd 0f39 0bbb
00000190: 95f8 aabd 2230 b1bb f820 d3bc 1f30 5bbc
000001a0: 86cd f23d b5ee 23bc 551d 1ebc 2eec e73c
000001b0: 66c6 a8bd cb84 84bd 2f74 54bc 6e94 40bd
000001c0: dc16 4fbd f603 bfbd adc6 1a3d 632c 40bd
000001d0: e543 bfbd 3835 803c ff87 b7bd 2739 673d
000001e0: 76d1 783d 01e6 9abd e205 003c 0933 963b
000001f0: cc13 713c 7974 b9bb 5c84 ee3c 80a9 123d
00000200: f20e 11bd 49bf 92bd 35ad bc3c 2248 943d
00000210: f44f bc3d c0d1 e03c 21b9 d13c e768 593d
00000220: 775f 1bbc ef0a ab3d 7143 b7bc 8857 7bbd
00000230: 8686 8f3d 6b3d 71bd 50df bebd ce12 8b3d
00000240: 363d 3d3d aa71 f03c e7a4 713d a72f 843d
00000250: 1171 52bc 5767 b53d de04 083d 9dfa 223d
00000260: 5f96 99bd c9a7 0c3d 4a60 8cbb 5767 8f3d
00000270: 9800 a2bd b4ae 113d c2cc 6d3d f819 19bd
00000280: 468e 85bc a02a 7f3d c0cf 0abd b517 b23d
00000290: ecc7 3bbd f0db 5ebd 0fcb 57bd 107f 96bc
000002a0: 9da9 983d 7d1f 64bd 6b2f 1bbd 70a7 a73c
000002b0: 00eb 993d 2177 90bd 384b c4bb 599e 4d3c
000002c0: e6a6 713d 339e 5d3d 6e5d b03c dbeb 903c
000002d0: 1421 ac3d 778d 853c deb9 9ebd 9178 32bd
000002e0: 3375 64bd 5651 5abd 4f30 863d f227 d23c
000002f0: 4425 ad3b 43a2 77bd 3928 103d 3c28 9f3d
00000300: 505d c4bd 729d 5abd 3b3d 77bb bda6 2b3c
00000310: 742e 64bd 3b1c 893c 2630 043d 27c4 bdbd
00000320: 7c27 23bd 505d ba3d 0a58 263c c940 013c
00000330: cbab 073b cb87 4c3d 9530 8e3d d2c0 f53c
00000340: e604 033d a4e8 64bd a484 04bd c596 7c3d
00000350: 32f1 e9bc 3c8e a73d 94a1 07bc d839 f5bb
00000360: 48c8 5a3d 0cf1 e9bc 263a 88bd c08c 01bd
00000370: d92b 24bd 00a7 7f3d 6607 513b 5fbf 8b3d
00000380: a768 423d 3c15 77bc 5518 a03d 1288 013d
00000390: c016 a1bd c69a be3d 788f 843d e13e c53c
000003a0: 37ab 203c 70b1 9b3c 879c 11bd 541a a6bd
000003b0: eca5 8bbd fce4 c23c 2bb7 573d 20df 37bd
000003c0: 8994 d53c cd26 adbd 7a3a 72bc ede4 d6bd
000003d0: da69 59bd 4848 6bbd f44a 70bd e702 66bc
000003e0: f7a9 9cbd da54 acbd 03cf 873c 3423 4abd
000003f0: f89b 22bd 270d 833d 500b ca3d cd8f cebc
0.037061717 -0.05895695 -0.10070977 -0.066533804 0.07546097 -0.015781727 0.061825387 0.02309999
0.06546562 0.08235154 -0.006223169 -0.007026165 0.07622822 -0.066608466 0.011728704 -0.013955186
-0.013185737 0.027546166 -0.07556462 -0.042259354 -0.0014947791 -0.06264313 0.019545512 -0.064219736
-0.085380994 -0.023590678 0.013717556 0.03577719 -0.015565046 -0.012466085 0.05863359 0.0349962
-0.031303156 -0.029708127 -0.025270555 -0.007407371 0.0023996464 -0.06491293 0.033255454 -0.002149933
-0.0025819035 0.07367195 0.039382394 0.08044925 0.08997374 -0.056778077 -0.07801844 -0.022864342
-0.055232614 -0.030929465 -0.0474606 -0.01939146 -0.0024621242 -0.11936459 -0.061044533 -0.00999501
-0.020257661 -0.07039098 0.062370803 -0.011363123 -0.07326441 0.10164149 -0.07849302 -0.049373053
-0.04216294 0.057325523 0.08542909 0.0073320344 0.067266755 -0.09815851 -0.046601605 -0.04728433
-0.010525101 0.077494465 -0.031628624 0.058939908 0.049371686 0.045608047 -0.09637563 -0.0633768
-0.015177105 0.00317165 -0.041447807 0.044177342 -0.037215766 0.07694636 0.05835501 0.06514817
0.047896713 -0.04814815 0.0016098805 -0.05314453 -0.006001954 -0.032988995 -0.039493956 -0.049438294
0.019400755 -0.004314649 -0.06754508 -0.0021243726 -0.083481945 -0.005407349 -0.025772557 -0.013378172
0.11855607 -0.010005643 -0.009650548 0.028310861 -0.082409665 -0.06470641 -0.012967153 -0.047016554
-0.05055891 -0.09326927 0.03778713 -0.04691733 -0.09339122 0.015650377 -0.08961486 0.05645099
0.060746633 -0.07563401 0.007813903 0.0045837206 0.014714193 -0.0056596366 0.029115848 0.03580618
-0.035414644 -0.07165391 0.02303181 0.07240321 0.09194937 0.027443767 0.025600972 0.05307856
-0.00948321 0.08351695 -0.022371026 -0.061362773 0.0700808 -0.058896463 -0.09319937 0.06790696
0.046200953 0.029351074 0.058995154 0.064544015 -0.01284434 0.08857601 0.033207767 0.039789785
-0.07499384 0.0343397 -0.0042839395 0.070021324 -0.079102695 0.035567 0.0580566 -0.03737828
-0.016303193 0.06229651 -0.033889532 0.08695928 -0.045844957 -0.054408967 -0.052683886 -0.018371135
0.07454226 -0.055694092 -0.03788702 0.020465583 0.07515526 -0.07053972 -0.005990412 0.01254996
0.058997057 0.05410595 0.021528926 0.01769059 0.08404747 0.016302807 -0.07750295 -0.043572012
-0.055775832 -0.053300224 0.06552183 0.025653813 0.0052839834 -0.06045748 0.03519461 0.07771346
-0.095881104 -0.053372808 -0.0037725705 0.010476765 -0.055708364 0.016737094 0.03227248 -0.09265929
-0.039832577 0.09099829 0.010152826 0.007888981 0.0020701762 0.04993419 0.0694286 0.02999917
0.031987093 -0.055885926 -0.03235306 0.061667223 -0.028557394 0.08181426 -0.008278269 -0.007483702
0.05341366 -0.028557323 -0.06651716 -0.03162837 -0.04008088 0.062415123 0.003189528 0.068236105
0.047463086 -0.015080746 0.07817141 0.031623907 -0.07865667 0.093068644 0.06472677 0.024077835
0.009806446 0.019005507 -0.035549667 -0.081104904 -0.068187565 0.023790829 0.052664917 -0.044890523
0.026071804 -0.08454666 -0.01478445 -0.10492883 -0.053079464 -0.05744198 -0.05866523 -0.014038778
-0.07649606 -0.08414622 0.016578203 -0.04934998 -0.039699525 0.06398993 0.09865439 -0.025215054

lstm.bias_ih_l0 f4 [512]
00000000: 13f8 103c 31fa 5c3d 70cb be3d ba77 a43d
00000010: 001a f93d 93de dd3d 4468 b0bb adc9 8f3c
00000020: 1805 d93d 7fe3 31bd 095e e73b 4a54 d93c
00000030: c964 403d ab57 8e3c c923 c23d 4be1 24bd
00000040: bfd8 93bb 421c 6fbd b9e4 de3d b6b4 ebbb
00000050: 0334 8d3c 0e84 333d 627b 8bbc 4684 b53b
00000060: 9189 c23d 071a 97bc 042e 8b3c 6896 e33c
00000070: 30ec b73d b8dc 673d d836 22bc 1497 c83d
00000080: 4108 10bd e327 bc3b 80bf 703d 04de 8a3d
00000090: 5afe 2d3d b705 693d 1494 c03d d43a ac3d
000000a0: 63e5 b83d f81b c53d 5e14 a7bd e2b4 573d
000000b0: a260 8aba 4db6 4c3a 7e85 96bd 4a9c 3dbd
000000c0: a770 233b 5723 8d3d 47c9 46bd ee15 873c
000000d0: 8061 9d3d 3f18 86bc 09a7 5a3d 3a4e e73c
000000e0: ba8c 673d ab5a 36bc 389b 623d 66b8 9f3d
000000f0: 9d1c 65bd 3d1e 8e3d 3ad9 dcba 67c1 30bd
00000100: b448 bf3d d61b ee3c 1c83 be3c 9dbc 3f3d
00000110: d052 053c d1a0 7e3d 43fd 52bd 0e6c d33d
00000120: ca9d d33d 569f 9b3d 10cd 54bd 84fd 173d
00000130: e6f5 99bd 3ed8 fc3d 533d 33bd f805 303d
00000140: 8721 58bc 8289 3e3d 06c5 7e3d 466a 9a3d
00000150: ffe0 983d 5332 48bc 4e8e 83bd 7832 2dbd
00000160: 73ce 173b d758 d33d 800d 0b3d 7d24 8b3d
00000170: 73df b13d 7976 8dbd f500 fdbc b54d bd3d
00000180: 95c5 aebc d8a3 153d 3f0c e63d e452 443d
00000190: a56f 4f3d 7047 b63d e54d bf3c d644 e03c
000001a0: 554b 593d 21d2 d13d e95b d33c 35b1 113e
000001b0: 09c2 1a3c 9de4 22b9 f851 dd3d 4423 96bd
000001c0: aa32 583d da47 533d 4eb3 7b3d e436 e23d
000001d0: 84ab 4fbd 4983 a5bd 3157 313d 31dd ed3b
000001e0: b4d2 1f3d 8745 77bd a78e a73b 89e4 463d
000001f0: 362d b43d 3174 433c 0a7c cc3d de3a d03a
00000200: cfd8 96bc 9525 b6ba 0517 93bd 1088 933d
00000210: 2124 9abc 8054 8b3d a2fe 98bd 60df 51bd
00000220: 69b9 773c 4129 90bb 0c31 29bd 9af4 883d
00000230: 865b 023c 407a 3f3d f4c0 97bc 579f 59bc
00000240: c553 adbd 0fc9 653d 4a65 253d 8c2f f53c
00000250: 11fe 8fbc 5de7 77bd 5736 383d 846a 8e3d
00000260: c3a9 483c 0f30 a6bd 2eb2 003d c325 993d
00000270: 7fe6 d3bc 2315 cdbd 3744 50bd 0b03 07bb
00000280: 05b7 b5bb 51d2 2e3d d70b 783d 4d27 253d
00000290: 4ead febc 4e51 043d 39eb 7abd d92d 683c
000002a0: 5112 6bba 4bc9 7ebc 7a5b ccbc 5833 12bd
000002b0: 7a74 37bd 82c2 05bd 4e19 58bd 8e3f d9bc
000002c0: dffa b73d b7a5 03bd 36d5 c1b8 c9e9 16bc
000002d0: d493 653d 5a91 07bc 37a7 eebc 96e8 af3d
000002e0: 830e 873d a255 a83d 3723 c83b c236 893d
000002f0: ea50 963d 24fd 50bb d0fb 4b3c 747b a93d
00000300: ad83 99bc 0555 bc3b 0b01 a4bc f2b2 b1bd
00000310: f475 91bd 43c3 8bbd 4ff9 6c3d ac94 9c3d
00000320: 68a1 873c 60c7 e0bc fb8b 4cbb ab70 aabb
00000330: c47d 69bd 3ee9 a23c 123a 51bd 06d2 913c
00000340: 6709 2cbc 13f0 edbb 9bbf 913d e39d a9bc
00000350: d46a 7b3c 6b64 bebd 6621 4abd 33cb 3f3c
00000360: 89f2 3b3d 1075 82bc c931 993d 631b a7bd
00000370: a026 03bd de0d 0ebd cf90 b73d 6bca 673d
00000380: f8be 40bb d22d 3bbd a9fa 0f3b 5486 193c
00000390: 1e72 31bd a883 9abb cc80 c5bc 284e 153d
000003a0: 9338 8cbc 616d 983d 610e b0bb ca5b 443d
000003b0: f134 85bd c345 853d 458d ad3d cbb1 babc
000003c0: 97bb 18bd c727 a93d cb44 be3d 9f8b c63d
000003d0: a43d 69bd 5910 733d 8c77 853d 6fc4 0dbc
000003e0: 15a6 013c 6f70 09bb 5a3d 20bd 3930 243d
000003f0: 0cde edbc a5ed 8cbd 7d61 05bd 52d2 b3bd
0.008848208 0.05394954 0.093161464 0.080306485 0.12163162 0.10833468 -0.005383523 0.017552221
0.10596675 -0.043429848 0.0070607704 0.02652945 0.046971116 0.017375788 0.09479482 -0.04025392
-0.004511922 -0.058376558 0.10883469 -0.0071931733 0.017236715 0.04382711 -0.017026607 0.00553945
0.09498895 -0.018445028 0.016989715 0.02778168 0.08980596 0.05660698 -0.009900771 0.09794441
-0.03516412 0.0057420596 0.05877638 0.06780627 0.042478897 0.056890216 0.09403244 0.08409658
0.09028127 0.09624475 -0.081581816 0.052662738 -0.0010557363 0.00078091474 -0.0734968 -0.046291627
0.0024938972 0.06891506 -0.048531797 0.01648995 0.07684612 -0.016368983 0.053381953 0.028235544
0.05653069 -0.011130015 0.05532381 0.07798843 -0.05593549 0.06939361 -0.0016849407 -0.043153193
0.09340039 0.029066008 0.023255877 0.046810735 0.00813742 0.062165085 -0.05151106 0.10323344
0.1033283 0.0759875 -0.051953375 0.037107006 -0.075176045 0.123459324 -0.043759655 0.042974442
-0.013191587 0.046517856 0.062199615 0.07539801 0.074647896 -0.0122190295 -0.06423627 -0.04228446
0.0023163825 0.10319679 0.03394842 0.06794069 0.08685198 -0.069073625 -0.030884245 0.09243337
-0.021334449 0.036533207 0.112328045 0.047930613 0.050643582 0.08900344 0.023352573 0.027376574
0.053050358 0.10245157 0.025800662 0.14227755 0.009445676 -0.00015534689 0.1080665 -0.07330945
0.052782692 0.051582195 0.061450295 0.11045626 -0.05070068 -0.08081681 0.043296043 0.007259034
0.0390193 -0.06036904 0.005113441 0.04855779 0.08797686 0.011929558 0.09984596 0.0015886684
-0.01841393 -0.0013896698 -0.07182125 0.07203686 -0.018816056 0.068032265 -0.07470442 -0.051238418
0.015119889 -0.004399449 -0.04130654 0.06687279 0.007956391 0.046747446 -0.018524624 -0.0132826185
-0.084632434 0.056099948 0.0403798 0.029929899 -0.017577203 -0.06052338 0.044973698 0.0695391
0.012247506 -0.08114635 0.031419925 0.074779056 -0.025866745 -0.10013797 -0.050846305 -0.002060118
-0.0055454993 0.042681042 0.060558166 0.040320683 -0.031088497 0.0323041 -0.061259482 0.014171087
-0.0008967268 -0.015550922 -0.024945963 -0.035693496 -0.044788815 -0.0326562 -0.052758507 -0.026519563
0.08983397 -0.03214046 -9.242671e-05 -0.009211012 0.056049183 -0.008274401 -0.029132469 0.08589284
0.06594565 0.08219458 0.0061077136 0.06699897 0.07339652 -0.0031889165 0.0124501735 0.082755
-0.018739546 0.00574744 -0.020020029 -0.08676709 -0.07102576 -0.068243526 0.057854947 0.076455444
0.016556457 -0.02743882 -0.0031211365 -0.0052014193 -0.057004705 0.01988661 -0.05108077 0.017800342
-0.010500289 -0.007261285 0.07116624 -0.020705169 0.015345294 -0.09296497 -0.049348257 0.011706161
0.045885596 -0.01592496 0.07480199 -0.081595205 -0.032019258 -0.034681194 0.08963167 0.056589525
-0.0029410701 -0.045697995 0.0021969473 0.009370405 -0.04332172 -0.0047154017 -0.024109267 0.03645149
-0.01711682 0.07442737 -0.005372808 0.0479391 -0.065042384 0.065074466 0.08474211 -0.022789856
-0.037288275 0.0825954 0.09290465 0.09694599 -0.05694355 0.059341762 0.065169424 -0.00865279
0.007913132 -0.0020971557 -0.03912101 0.04008505 -0.029036544 -0.068812646 -0.032563675 -0.0878035

lstm.bias_hh_l0 f4 [512]
00000000: f733 c43d ffbe 0abd 4c41 663d c35b 85bd
00000010: 0f90 ba3d fdfc ad3d 7375 d23c 1b08 ab3d
00000020: 5a90 d83d 8000 c83c 2499 ad3d ea1f c63d
00000030: 0999 62bd c2df 89bd 7272 f93c 09c0 d73d
00000040: 5327 a13c 134e ae3d 042b 31bd c9ac 023a
00000050: 0df0 b73c 77e6 813d cee6 caba e597 943c
00000060: 9224 0e3d aa82 953c 1ff6 7e3d 98fe 6f3c
00000070: dfe6 2e3d 6ab2 503d 35f5 5cbb 52f3 f33c
00000080: 9d8b 013d 21d3 8abd 54c0 42bb 9f8c ec3b
00000090: 9f1d 6f3d 4d77 d73c 0851 5e3d d1cd 97bc
000000a0: 1a4d 753d 6a57 91bc 2398 883d 9374 053b
000000b0: 894a b63d 1265 a83d 58c5 a83c df81 b63d
000000c0: e1cd 683d 9f74 dd3d e22a d5bc 6c4c 51bd
000000d0: 9d59 5dbd 6e45 913d e544 3fbd 4b07 26bd
000000e0: 1c00 8c3d 071f e4bc 84fd 8b3d f49e e13b
000000f0: aa85 5a3d 9477 5b3c f23c f8bc 3366 fc3d
00000100: 4044 083c e691 66bd e526 e4bc a121 18bd
00000110: 1dae bf3c f631 5ebd 2b5b ab3d 1a92 01bc
00000120: 6c3d 61bd bc71 b73c 853c 963d d41d 3ebc
00000130: 04ad 663c 958c 1cbd 8e50 10bd ed78 e6bc
00000140: c3e6 9c3d 081a 483d f891 9bbc 8f83 8b3d
00000150: 874c fa3b 0303 95bd b4d4 a8bc b882 213d
00000160: 7254 a13d f3fa 65bb e59c 10bd 64c9 e03c
00000170: 338b c03d fa57 41bd df83 413d 5b30 993d
00000180: 18b2 9f3d 04e7 303d e29e a8bc a29d 3e3d
00000190: f0cd 003d 72da 33bc 7185 4f3d 3f43 bb3c
000001a0: ef85 133d da6b dbbc ae3d 433d 1326 413d
000001b0: 5689 cc3d 602e d0bc 2f3b 0c3e 49dd b73d
000001c0: 3fcc 223d 035e 0a39 27fb d5bc 2396 4c3b
000001d0: 6e56 ef3d 4cf6 9a3d dd56 a53d dd77 a63c
000001e0: 0850 1abd 1c18 8f3c 18ef 563d 57a3 7dbd
000001f0: 3bf1 d63d e3d4 6c3d 5e8b e3bc 9b34 eb3a
00000200: 9695 1d3d 9822 92bb 4e5d aa3d 0c1c b3bd
00000210: d436 213c ff93 033b 0a3a c1bc 00f3 673d
00000220: d992 8cbc 6674 863d d7b5 6dbd 4b92 2f3d
00000230: ca51 28bd 5e2f 893d bded 62bd 8f9f 243d
00000240: 6e54 8ebd d36c 4b3d 092c 6d3d 2a55 b4bd
00000250: 5d0f b03d 2d3d 7a3c 4248 83bd 6c76 1bbd
00000260: 0644 17bd 4c87 0e3d 5380 ff3b 607d 643d
00000270: 772b 543d 6eb3 06bd 90ad 343c e7c6 a33d
00000280: c7ba b83d e732 b03c b633 833d 1089 29bd
00000290: 4d00 8abb 8cee 593d d892 5f3d 8536 b23d
000002a0: 56d9 5b3c 7bc6 f33c e6f8 cbbd 98c2 8b3b
000002b0: cbb4 cabc b64e a5bd 7b21 593d ed42 2dbd
000002c0: adc8 a73d 864a 8e3d 0799 25bd d5f1 d3bc
000002d0: 1c61 08bd da73 8c3d 104e 483d 7b31 7a3c
000002e0: 635a f0bb 6500 7e3c a7c0 113d 0dbd 673b
000002f0: 1a1f 023d 1297 89bd 344b 59bd f921 553d
00000300: fbe8 75bd a9af 2fbc ffd4 593d 6a17 a03d
00000310: 1a06 80bc 9235 3bbd 8c1c 1dbd b0da b93d
00000320: 45d9 a13d a74c 8b3d dacf 1f3d 6116 9b3d
00000330: 328f 7b3c d8d7 323d 8d08 4f3d edff c53d
00000340: 779c d03d 09eb 8ebd afb1 c03d d7c5 133c
00000350: dde9 ad3c 2ced 59bb 2a9b bebd eff2 153a
00000360: eb99 8dbd ef8e c63c 7aaa c3bc 5421 833d
00000370: bb8c 083a d8b2 b13d 7f73 6dbd 7db4 5dbd
00000380: efbd 8c3d ea14 cf3d 7e7c d13d 40ce 863d
00000390: ae08 99bc a277 e0bb f2b7 4abd 694d b8bd
000003a0: a751 81bd a057 823d dc5d 34bd f111 2fbd
000003b0: 9dd9 d33d 0775 833d 29df 1a3d e68c 9e3d
000003c0: 0a79 adbc 5dbb 8ebd 3524 ab3d da6c 0c3d
000003d0: e8a2 a13c 3291 6fbd a9d1 06bb 1082 6b3d
000003e0: ede8 583d af3c 38bd 0e82 ff3b 7b6d a8bd
000003f0: 31a1 d73d 899b 14bd 0d6e 743d ef28 28bd
0.09580224 -0.033873554 0.056214616 -0.06511643 0.09109508 0.08495519 0.02569077 0.08351155
0.10574408 0.0244143 0.08476475 0.09674056 -0.055321727 -0.067321315 0.03045008 0.10534675
0.019672072 0.08510985 -0.043253914 0.00049848534 0.022453332 0.06342786 -0.0015480162 0.018138835
0.034702845 0.018250782 0.062246438 0.014648102 0.042700645 0.0509514 -0.003371549 0.02977911
0.031627286 -0.06778551 -0.0029716687 0.007218912 0.05837786 0.026302004 0.054276496 -0.018530758
0.059887983 -0.017741878 0.06669643 0.0020363673 0.08900935 0.08222403 0.020601913 0.0891149
0.056836966 0.10813259 -0.026021425 -0.051098272 -0.05404054 0.07093321 -0.046696562 -0.0405343
0.06835958 -0.027846826 0.06835464 0.006885404 0.05335013 0.013395209 -0.030302498 0.123241805
0.008317053 -0.056291483 -0.027850578 -0.037141446 0.023398453 -0.054246865 0.08366998 -0.0079083685
-0.054990217 0.0223931 0.07335762 -0.011603791 0.014079336 -0.038220007 -0.035233073 -0.028133834
0.07661202 0.04885295 -0.018990502 0.06812202 0.0076385173 -0.07275965 -0.020609237 0.039431304
0.07877435 -0.0035092204 -0.035305876 0.02743978 0.0940155 -0.04720304 0.047244903 0.07479926
0.077976406 0.043189064 -0.020583574 0.04653705 0.031446397 -0.010977374 0.05066437 0.022859214
0.0360164 -0.026784826 0.047666244 0.04715545 0.09987132 -0.025412738 0.13694452 0.08977754
0.039745566 0.00013195728 -0.026120735 0.0031217418 0.11686407 0.07566509 0.080732085 0.020320827
-0.03767398 0.017467551 0.05247411 -0.06192335 0.1049523 0.057820212 -0.027776416 0.0017944755
0.038472734 -0.0044596903 0.08318578 -0.08745584 0.009839732 0.0020077226 -0.023587245 0.056628227
-0.017159866 0.0656517 -0.058034744 0.042864125 -0.041093625 0.06698488 -0.055402506 0.04019123
-0.069496974 0.04966433 0.057903323 -0.08805306 0.0859668 0.0152733745 -0.064102665 -0.037954733
-0.036930107 0.034796998 0.00779728 0.05578363 0.051799264 -0.03288596 0.011027709 0.07996922
0.0902 0.021508647 0.064063475 -0.04139048 -0.0042114616 0.05320601 0.0545834 0.08701805
0.013418516 0.029757729 -0.09959583 0.0042651407 -0.024744412 -0.080716535 0.053010445 -0.042300154
0.08192573 0.06947808 -0.04042914 -0.02587215 -0.033295736 0.068580344 0.04890257 0.015270586
-0.0073349937 0.015503024 0.03558412 0.0035360486 0.031767942 -0.067182675 -0.053050235 0.052034352
-0.06003664 -0.010723033 0.053181645 0.07816966 -0.01562791 -0.045705386 -0.038357303 0.090749145
0.07902769 0.0680173 0.039016582 0.07572628 0.015353965 0.043662876 0.050545264 0.096679546
0.10186093 -0.06978423 0.094088905 0.009019337 0.021229679 -0.0033252938 -0.09306939 0.0005720099
-0.06914123 0.024238078 -0.023885 0.06402841 0.0005208959 0.0867669 -0.057971474 -0.054127205
0.068721645 0.10111411 0.10228823 0.06582308 -0.018680897 -0.006850199 -0.04949183 -0.0899914
-0.06314402 0.063643694 -0.044034824 -0.04274172 0.10344241 0.064188056 0.03781048 0.07741718
-0.02117588 -0.069693305 0.08356515 0.034283496 0.019731 -0.05848808 -0.0020571745 0.057497084
0.05295651 -0.044979747 0.007797486 -0.08224007 0.10528792 -0.036281142 0.059675265 -0.041054662

fc.weight f4 [1, 128]
00000000: 99eb aabd 4302 823d 5118 ce3c fbb9 973c
00000010: 55d4 dc3d 0735 5abd cc69 cb3b 320e 633d
00000020: d9bd 5cbd 012e 07be 23b6 8a3b 0a6d f0bd
00000030: 0987 80bc c0b6 bcbd bff4 bebc 50ba 823d
00000040: 8068 2bbd cd0a 90bd bca2 fb3d 7457 e53b
00000050: 6ae1 dd3d bd6b d3bd 2760 e8bc c64f ab3d
00000060: 1ee7 b7bd bc1d 9e3c a209 99bc 7703 22bd
00000070: 6af2 d73d ed35 d73c 65fa d8bc c4e6 133d
00000080: 7e2e 0ebd 4a6d aebd ef52 69bd 5264 803d
00000090: 263e 173d f483 b73d 6985 06be 9a24 d93d
000000a0: 245d b0bd 8170 f8bc eefa 8ebc 3667 6f3d
000000b0: c6ef e0bd 9945 b1bc 964c adbd 47a2 81bd
000000c0: 2bd1 093e f5f1 e93d e7ab b53d b367 b6bd
000000d0: d5b6 003d 4f8d 1ebd b131 703c faca e23d
000000e0: c9cb 5b3c 4a37 b1bd d943 ab3d 54c1 39bd
000000f0: 92c2 693d b2fc 4bbd 841a 54bd 92af 3c3d
00000100: c1dd 7e3d fb18 9ebd 555f 2fbd 5fc2 e43b
00000110: fa20 d4bd 8363 1a3d cffa 87bd 2563 613d
00000120: fbc5 46bd 2df6 49bd f80e efbc 0768 d73d
00000130: 1d4e dc39 c54e b5bd 1ecc a53d 3ff1 5d3d
00000140: 43c2 c2bd 94b0 4ebd a403 953d 8b52 71bd
00000150: 568d 46bd a3ec 363d 6b00 533d 41b1 403d
00000160: 4664 a53b f555 af3d b101 91bc dd11 893c
00000170: f11a 8fbd bc65 86bd 4f9c 1c3d 65bf 23bd
00000180: ee0d ec3d cb96 c23d 3bb5 a8bd a1f8 c53d
00000190: fd5c b83d 2d6c 89bd 0881 733c d5d9 2fbd
000001a0: 829b 0f3d 5c6d b23d 6e3e a8bd 8e86 923d
000001b0: 0541 cc3d 452b 353d 12d3 cd3d 9f5a 993d
000001c0: 043d 153c 6d7f ec3d 3841 e3bd 4929 e6bd
000001d0: d59d 253d bf46 84bd 2571 3b3d 84e0 373d
000001e0: f280 0bbe dfcc 83bd 536a c3bd 63ad c63d
000001f0: eefc 8e3c e87b 903d c6c9 8ebd 7ffa 16bb
-0.08345718 0.06348088 0.02515808 0.0185213 0.107826866 -0.053273227 0.0062076803 0.05543346
-0.05389199 -0.13201143 0.004233138 -0.117395476 -0.01568939 -0.09214544 -0.023310063 0.063831925
-0.041847706 -0.0703331 0.122868985 0.0069989506 0.1083401 -0.10323284 -0.028366162 0.08364825
-0.08979629 0.019301288 -0.018681351 -0.039554086 0.10544284 0.026270831 -0.026486585 0.036108747
-0.034712307 -0.08516939 -0.056963857 0.062691346 0.036924504 0.08960715 -0.1313683 0.10602684
-0.08611515 -0.030327084 -0.017453637 0.05844804 -0.10983233 -0.021639632 -0.08461873 -0.0632978
0.13458697 0.11423103 0.088706784 -0.08906498 0.031424362 -0.03870898 0.014660285 0.11073871
0.013415285 -0.08653124 0.0836255 -0.045350388 0.057070322 -0.049801536 -0.0517831 0.046065874
0.0622232 -0.077196084 -0.042815525 0.0069811787 -0.10357852 0.037692558 -0.06639635 0.055026192
-0.048528653 -0.049307037 -0.029181942 0.105178885 0.0004201987 -0.08852915 0.08095573 0.05418515
-0.09509709 -0.050461367 0.07276085 -0.05891661 -0.048474632 0.044659268 0.05151407 0.047044042
0.005047354 0.08561317 -0.017701002 0.01673215 -0.069875605 -0.06562373 0.038235005 -0.03997745
0.115260944 0.09501418 -0.08237692 0.09666563 0.09002111 -0.06710086 0.014862306 -0.04293235
0.035060413 0.08712265 -0.082150325 0.071545705 0.09973339 0.04423072 0.10050024 0.07487988
0.009108786 0.11547742 -0.11096424 -0.11238343 0.040433723 -0.06458806 0.0457622 0.04489185
-0.13623407 -0.064355604 -0.09541764 0.0970104 0.01745459 0.07054883 -0.06972079 -0.002303749
