models/WMB model.pth (torch, 270882 bytes, 5 tensors)

lstm.weight_ih_l0 f4 [512, 1]
00000000: 0114 9c3c b104 cc3d 494d 313d d0a0 62bd
00000010: cfba a9bd 3426 6cbd 93cb da3c 96c9 63bd
00000020: ec36 a03d a173 213e 60b8 4abc aa6a 4b38
00000030: d9ca b5bd 253c b43c 96cc 88bd 616e 383d
00000040: 85cc 0d3e 0c29 733d e414 863c 6a0a 293d
00000050: 1f26 5a3d 0a5a fabd 2ea3 1cbd 0871 d53d
00000060: a58b 9abd 0064 053e 3902 843d de98 943d
00000070: 014f c23a 0f0c a53d 44d6 cc3d 33cd 093d
00000080: 05a5 e33c b1d9 09bd b75c 97bc d82e dd3c
00000090: b073 4c3d 219f d2bd 241f ec3d 6599 a1bc
000000a0: 1998 98bb 9277 453d a6cc 9abd 3651 673b
000000b0: 6706 a33d 14b9 e7bd 79b4 67bd 5677 13bd
000000c0: 2504 703d 7f2c 553d 0c11 b7bc 07e2 01be
000000d0: 23a3 21bd 21b2 ae3b f6c2 4a3d 6a0c d73d
000000e0: 9801 8cbc 89d8 b9bd c21a 193d 70a6 893d
000000f0: 2cd9 e439 726b 863c 7299 e5bc 3826 9a3d
00000100: e10c 42bd 4c3d 3d3d 6eaa 2cbd c59d e43c
00000110: 176e 493d 1877 2a3c f354 bc3c a64c 89bd
00000120: 9ff7 4e3d 004f 0d3e 8ad9 81bb e9e3 fcbc
00000130: 8a3c adbd 2860 233e 56bc c7bd 5f4b a73d
00000140: 4fd2 3b3d 5402 ee3c 0c12 0e3e df43 943d
00000150: 292d 38bd 30d0 933c 79d9 513e 3e45 a63d
00000160: bcf2 aa3d 9d6f cf3c cd24 04be 2b25 29bc
00000170: 1b28 6c3d f051 62bd 4602 603d 0d4d 3c3d
00000180: 840a 723c e59d 65bc ed9b 243d 7d6a 773a
00000190: 18c5 e13d 416b e0bd 4936 3f3d ee5b a2bd
000001a0: 731a 55bd 15de 90bd 3e8f e93c a433 743c
000001b0: b61c 103e 739b ed3b d1af 023c 9ff8 7ebc
000001c0: c466 d9bc e2ae 1ebd d8a5 abbd 88a8 b8bc
000001d0: 87af a23b efec d6bd b8ff 533d 5148 e0bd
000001e0: 842a dd3c f203 033d b59d 303e 5e05 1abc
000001f0: afae 723d a280 aebc d564 9cbd 50a5 ca3b
00000200: e07e 0d3e 768e f63d 6a5f b33d 3f05 cebb
00000210: 0be1 41bc 5c56 b43d 6e6f 553b 6307 783d
00000220: 0aaf 91bc 006c 043e 9dde d33b 64bf a4bb
00000230: b153 89bc f0d7 cf3b dc4b 51bd dccc 87bd
00000240: f2cd 6fbb ae54 23bd 6d82 763b 044a 693c
00000250: 3837 8a3d 32d2 ddbd 3dbc 363c 78cd 443d
00000260: 09ff d83b 2a53 5ebc ba2c 9e3d 5816 413d
00000270: 91e5 0cba 7e5e 1b3e d472 52bc ffa3 223c
00000280: 3d4b 0dbd ccfa 40bd 58cf b7bd ca27 4bbd
00000290: f9dc 5f3d af40 1b3a 6150 203e a3c1 3f3d
000002a0: 75a0 bfbc 1229 7c3c 1672 4cbb e243 363e
000002b0: e11d 88bc b2b1 023d 6f9e 3e3d b938 4ebd
000002c0: 0844 1ebd b222 9ebd a386 0abd f89f 1a3d
000002d0: 6fdc b9bd b3f7 9ebd f849 213d 73e3 8a3d
000002e0: e63c 993d a2e0 d9bd 0ef0 e93c 6e94 de3d
000002f0: 5e7b a2bd 4c5e 2fbd 7acf 123d 2408 043e
00000300: fed9 a7bd ff61 153c 60de 71bd 5b05 c93d
00000310: 0f7c b13c 6d65 753d 8b60 8cbd d7ea bebd
00000320: efb3 153d 44f1 063e af1a 6c3d 20dd 55bd
00000330: 51d5 563d f63b ba3d dcc4 29bd b8f2 d4bb
00000340: 7c4f 2bbd 2655 22bd b19f 07bc ae50 52bd
00000350: 5598 15bd 3d00 21bc 2d98 2c3e 533a a0bc
00000360: 8642 583c 2205 72bd af2a 63bd 17f0 ce3d
00000370: a600 1c3e 9879 5a3c fbe0 733d 60fc 8dbb
00000380: 2976 563d 9b7a 333d 7d79 3b3d 1d06 f1bd
00000390: 0c61 813d cd9f 5e3d 9422 b0bc 7801 77ba
000003a0: 6883 bbbc bdd2 afbb 77df e3bd 60d9 de3a
000003b0: ab10 a13d 8101 133c 5bb4 fb3d c1a5 70bd
000003c0: 5b7b 6dbd c612 82bd 3621 aebd 7ce4 de3c
000003d0: beb3 093d a509 adbc 7e35 8abd 8aea 00be
000003e0: 3a8a 32bd 3beb 58bd cf9f ea3d a253 59bd
000003f0: 34d0 853d f48b bd3c 3561 ecbc dde4 193d
0.019052507 0.09961832 0.043286595 -0.055329144 -0.08287584 -0.05765362 0.0267084 -0.05561217
0.078229755 0.15766765 -0.01237306 4.849831e-05 -0.08876581 0.022001335 -0.06679647 0.04502714
0.1384755 0.059365317 0.016367383 0.041269697 0.05325901 -0.12224205 -0.038241558 0.104219496
-0.07546166 0.13026428 0.064457364 0.072557196 0.001482457 0.080589406 0.100018054 0.03364296
0.027788648 -0.033654872 -0.018476827 0.026999876 0.049915016 -0.10284258 0.11529377 -0.019726465
-0.0046568033 0.048209734 -0.07558565 0.0035296208 0.079602055 -0.11314598 -0.056568597 -0.03600248
0.058597703 0.052044388 -0.022346996 -0.12683879 -0.03946222 0.005331293 0.049502335 0.10500415
-0.017090604 -0.09074504 0.037379034 0.067211986 0.00043649354 0.016408656 -0.02802727 0.07526821
-0.047375564 0.046201035 -0.042154722 0.027907262 0.049177255 0.010404371 0.022989726 -0.06704073
0.05052912 0.13799667 -0.0039627003 -0.030870395 -0.084588125 0.1595465 -0.09752719 0.08168673
0.045854863 0.029053845 0.13874072 0.07239508 -0.044964943 0.018043607 0.20493115 0.08118676
0.08347079 0.025321776 -0.12904663 -0.010323803 0.057655435 -0.055253923 0.054689668 0.04597192
0.014773015 -0.014014696 0.040187765 0.000943817 0.11023921 -0.10957957 0.04668263 -0.079276904
-0.052027177 -0.07073609 0.028510686 0.01490489 0.14073452 0.007251197 0.007976488 -0.015562206
-0.02653826 -0.038741 -0.083812416 -0.0225413 0.004964772 -0.1049441 0.051757544 -0.10951293
0.026997812 0.031986184 0.1724766 -0.009400694 0.059248623 -0.021301571 -0.0763642 0.0061842576
0.1381793 0.12038891 0.08758433 -0.0062872465 -0.01183344 0.08805534 0.0032567638 0.06055392
-0.01778366 0.12931824 0.0064657466 -0.0050276984 -0.01676354 0.0063428804 -0.051097736 -0.06630871
-0.0036591259 -0.03987568 0.003761436 0.014238838 0.067488134 -0.10831107 0.011153278 0.048047513
0.0066221994 -0.013569633 0.07723375 0.04714045 -0.0005374784 0.15172765 -0.01284476 0.009926795
-0.03449558 -0.04711418 -0.089750946 -0.049598493 0.054654095 0.00059224194 0.15655662 0.046815526
-0.023391942 0.015390651 -0.003119593 0.17799333 -0.01661581 0.031907745 0.046537813 -0.050347064
-0.0386391 -0.07721461 -0.033819806 0.037750214 -0.090752475 -0.077620886 0.039377183 0.06781664
0.074823186 -0.106385484 0.02855685 0.108681545 -0.07933687 -0.042814538 0.035842396 0.1289373
-0.081958756 0.009117602 -0.059049964 0.098154746 0.021665601 0.05991118 -0.068543516 -0.09322136
0.03654855 0.13177973 0.057642635 -0.052212834 0.052449528 0.09093468 -0.041447505 -0.006498661
-0.04182385 -0.039631985 -0.0082778195 -0.051346473 -0.03652223 -0.009826717 0.16854925 -0.019559061
0.013199454 -0.059086926 -0.055460628 0.10104387 0.15234622 0.013334654 0.05954073 -0.004333064
0.05235878 0.043818098 0.045770157 -0.11768744 0.06317338 0.054351617 -0.021500863 -0.0009422521
-0.022889808 -0.005365698 -0.11126607 0.0017002039 0.07864507 0.0089725265 0.122902595 -0.058751825
-0.05797897 -0.06351237 -0.08502428 0.02720856 0.03361868 -0.021122763 -0.06748484 -0.1258947
-0.043588854 -0.05295871 0.11456262 -0.053058274 0.06533852 0.023138024 -0.028854946 0.037571777

lstm.weight_hh_l0 f4 [512, 128]
00000000: bcbf 693d 9974 8f3d 4a06 6bbd b53a 80bd
00000010: 5590 8c3d da30 d63d 475a 073e 6433 b13c
00000020: 3ac6 ad3a 7da1 edbd b629 91bd 75b2 ae3d
00000030: 3e4e 2ebe 20a5 413d 299d 05bc 2876 2fbd
00000040: 140c d4bc 9788 d2bd a3ed f73d a382 003d
00000050: 56e9 22b8 3019 323e 7081 ac3d d926 3e3c
00000060: 9b4f 9f3d 9d8c 33bd 9137 a7bc b4d8 453d
00000070: 9311 9d3b 7095 95bd 9dcf eabd 534e 09bd
00000080: e3c3 623a d13d 8a3c 7360 5f3d 7368 7ebd
00000090: b004 423c c5ff d2bc 6264 0b3e e794 c7bc
000000a0: 7550 a5bc acfb e3bc 08ab d03d 198f 5c3d
000000b0: cf16 b0bd fbea 32bd 2d16 873d 5072 e63c
000000c0: 9cbe a23b dbb4 56bd 5fcc 4e3c 2e65 913d
000000d0: 287c 55bd 9758 1e3d db22 3e3d e818 88bd
000000e0: 9265 cdbd 2378 babc 54ba 5e3c 8f48 143d
000000f0: 6ca2 923d 2f1f a8ba 7531 28bd bcae 1e3d
00000100: deeb 40bd f9c4 61bd 2f7c 523d 583e fbbd
00000110: 4045 68bb b18b 133d 3efe 33bd 2f06 153b
00000120: e651 aa39 c92d 6c3c 7e19 4cbc ffc0 a0bd
00000130: d8c2 6fbd 7a9d cd3d 916a ef3c 5598 d63d
00000140: 6ad2 853d 46ab 323d 9886 c63c 335e 663d
00000150: 3857 453d af8e 3e3d 005b c23d 3b7a 96bd
00000160: bb73 8bbd 8f50 b8bd 24d6 cabc 6937 633d
00000170: 7540 65bd ed0f 6c3c e4b3 193d 02a7 b93d
00000180: 29fb 0a3d d479 08bd 3f5f 9f3d 3da6 313b
00000190: f3e8 e9bc a8ea d4bc e149 9cbd 2fbe 773b
000001a0: e68f 74bb 26ff 793b ff4e f8bc 157b c53c
000001b0: 89eb db3b ae3f 1ebd 0462 203d 73fb dcbb
000001c0: b621 4d3d f4b5 a23d bbf1 003d 1705 1ebd
000001d0: b4ab 04bd a73c cf3d 12a3 583d c386 0ebe
000001e0: a17b ff3c 8bd5 363d 6b1f 0dbd f208 073d
000001f0: a556 bebc 216f d53c 9ade 6c3d ab6f 033d
00000200: 01f5 c8bd b940 6e3c 9380 223d 7565 653b
00000210: 1bb0 3cbd b07d 53bd 3163 bf3d d27b 2ebb
00000220: e8e7 da3c 77ab d6bd d908 603d 2311 a43c
00000230: 60d2 553d 60b0 7c3d 0adc c03d a66a e43c
00000240: a05f 5a3d be1d 883d a3f0 c43d 3281 fd3b
00000250: 9ae4 df3d 3905 43bd df9f 47bd acad 08bd
00000260: 3bb1 543d c71e f03d 39b1 cdbd f14a a8bd
00000270: aa40 bcbc f334 c3bd d246 eabd 5600 8e3d
00000280: 7093 72bd 0d80 843d 0e25 7ebd a850 773b
00000290: 74fa 4cbc 763b 05bd 1c5a be3d 8c07 9f3d
000002a0: bb7d bcbc 8a02 67bd 1a63 9b3b 6597 cf3d
000002b0: 02b7 aabc 3a6b a4bd 9d4b d23c 4490 8f3d
000002c0: 91b4 663d b8c9 7ebd bd62 81bc cc89 73bd
000002d0: 1608 973c 848e cc3d 8768 ffbc 51f2 c13d
000002e0: c7c7 07bd a100 d43c b7ed 97bb 0705 9a3c
000002f0: bc6f 87bd db54 6abd 8ed6 e0bc b73d 6c3d
00000300: 570a c8bd 2ed7 a7b9 46d5 e1bd 4cbc 4ebc
00000310: 7e79 ab3b 9878 9b3c 5ab8 a5bd 41d0 533d
00000320: 6a93 6cbd e816 4ebd 4d50 563d ed35 26bd
00000330: 5a53 043b 3945 5fbb 4245 b33c ee07 c03d
00000340: 7b7e 40bd 92c9 18bd f41f 8cbc 5509 d53c
00000350: 7eb8 14bd 1a8b 6e3a 938a 9c3d ba1a eebd
00000360: e737 c6bd e18e 253c e384 76bd ff60 d4bc
00000370: cf6f 56bd 6dca 7d3c e45b cebd e5b2 613d
00000380: bb7c 8ebc 2d3a 7bbd bfdf 733d 5521 013c
00000390: 6b79 19bd 4919 7dbd 266a af3b 9728 0a3b
000003a0: ed95 a53d 3fde c6bc c7d1 e2bd 9fc5 363d
000003b0: f846 133d 3391 8fbd 5d13 fe3c 992c f9bc
000003c0: 6dc5 ba3d 07f8 5bbc 2352 c43c 574d 75bc
000003d0: f716 1cbd 628e a63b 2fce c3bd 0fdd 683d
000003e0: 1434 463d 2eac 393c 1bb1 8abc f109 c8bc
000003f0: 5ccd 35bd e756 393c c417 5d3d 4ae0 853d
0.057067618 0.07004661 -0.057379045 -0.062611975 0.06863467 0.104585364 0.13218032 0.02163095
0.0013257929 -0.11603067 -0.07088034 0.08530132 -0.17022035 0.047276616 -0.008155146 -0.042837292
-0.025884666 -0.10279959 0.121058725 0.031374585 -3.884112e-05 0.17392421 0.08423126 0.011605942
0.077788554 -0.04383527 -0.020412238 0.048302367 0.004793355 -0.073038936 -0.1146538 -0.03352196
0.0008650405 0.01687518 0.05453534 -0.06211133 0.011841938 -0.025756726 0.13612512 -0.024362994
-0.020179966 -0.027829967 0.101888716 0.053847406 -0.085981004 -0.043681126 0.065960266 0.02813068
0.00496657 -0.05241857 0.012621968 0.070993766 -0.052120358 0.038658705 0.04641996 -0.066453755
-0.100291386 -0.022762364 0.013594229 0.03620201 0.07159886 -0.0012826676 -0.04106279 0.03874086
-0.04709994 -0.05511949 0.051387962 -0.122677505 -0.0035441667 0.036021892 -0.043943636 0.0022739281
0.00032485946 0.014415213 -0.01245725 -0.07849311 -0.058535427 0.10039802 0.02922562 0.10478274
0.06534274 0.04362037 0.024234101 0.05624218 0.04817888 0.046522792 0.09490013 -0.07347532
-0.06809183 -0.0899974 -0.024760313 0.055472765 -0.055969674 0.014408094 0.037525073 0.09065057
0.03393093 -0.03331931 0.077818386 0.0027107142 -0.028553462 -0.0259908 -0.07631279 0.0037802567
-0.0037317215 0.0038146465 -0.030311106 0.024106542 0.0067114276 -0.03863495 0.039155975 -0.0067438423
0.050080977 0.07944861 0.031480532 -0.038579073 -0.03239031 0.101189904 0.05288989 -0.13918595
0.03118688 0.044637244 -0.03445379 0.032967515 -0.023234675 0.026053967 0.057829477 0.032088917
-0.09812356 0.014541798 0.0396734 0.00350031 -0.046066385 -0.051633537 0.09345091 -0.0026624096
0.02672191 -0.10481923 0.054695938 0.020027703 0.052202582 0.06169164 0.09416969 0.027882885
0.05331385 0.06646298 0.0961621 0.0077363485 0.10932274 -0.047612403 -0.04873645 -0.03336875
0.051926833 0.1172462 -0.10043568 -0.08217419 -0.022980053 -0.09531584 -0.11439289 0.06933658
-0.05922264 0.06469736 -0.062047057 0.0037737284 -0.012510885 -0.03252741 0.09294531 0.07765111
-0.023009172 -0.056398906 0.0047420384 0.10136298 -0.020839218 -0.08028264 0.02567082 0.07009938
0.056324545 -0.062204093 -0.015794152 -0.059457585 0.018436473 0.0998812 -0.031177772 0.09470046
-0.033149507 0.025879206 -0.004636492 0.018801225 -0.066131085 -0.05720983 -0.027446058 0.057676043
-0.09767597 -0.00032013044 -0.11027007 -0.012618136 0.005232989 0.018978402 -0.08091803 0.05171228
-0.057757773 -0.050314814 0.052322675 -0.04057877 0.0020191283 -0.003406836 0.02188361 0.093765125
-0.04699562 -0.037301607 -0.01710508 0.026005426 -0.036308758 0.0009099707 0.076436184 -0.116261914
-0.09678631 0.010104866 -0.060185324 -0.025925158 -0.052352723 0.015490157 -0.100761205 0.055102248
-0.01739346 -0.061334778 0.059539553 0.007881482 -0.03746931 -0.061791692 0.00535323 0.0021081322
0.08085237 -0.024275897 -0.11075168 0.04462206 0.035956353 -0.070101164 0.031015093 -0.030416774
0.09119687 -0.013425834 0.023964947 -0.014972053 -0.03810784 0.0050828913 -0.09560811 0.056851443
0.04838951 0.011332555 -0.016930154 -0.024418803 -0.0443853 0.011312223 0.053977743 0.0653692

lstm.bias_ih_l0 f4 [512]
00000000: 1b34 70bd 45a3 4abd fd23 173d 6e93 60bd
00000010: 9c4b 883c d0b4 1c3b 81d5 2bbd 008a 95bd
00000020: 47d6 8a3c 5098 a0bc ee70 94bc 61cc 333d
00000030: e937 713d 5940 093c bcca 07bc 78a4 12bd
00000040: 373e b33d 38bb 003d 2d4f 4d3c f3e4 2ebd
00000050: c80d b43d 43c7 773e 5082 db3c 72a1 853d
00000060: 6019 10bd d893 b33b 383d 8c3c b703 c5bc
00000070: 30f3 983d 9906 c03b c490 38bd 24dd 29bd
00000080: 5e12 a7bd 00f1 b93d 8ef3 aa3d f7e1 d23d
00000090: ca0e 693d 7219 fd3d 796a b0bc a9fc c73c
000000a0: 86cd 583d 67d5 e83d 896e 853c 02c9 353c
000000b0: 3f91 3b3c ace8 443d 02f5 0bbd 6f41 c4bc
000000c0: 6d00 d03d 435f 33bd 7822 16bd b8c5 503d
000000d0: 3d8b f6bc c09c 873d 81e1 db3d 70ea 83bc
000000e0: f51a 993c c73b 923d 26b4 e03d 204e efbc
000000f0: 735a cd3d 768a 14bd a910 8a3d afd3 0b3d
00000100: 2073 d03d 0fb2 efbc 4f12 c63d b93a 893c
00000110: 442c 8a3d 70be b13d 238c b2bc ac02 20bd
00000120: 367c 673d f94a 4dbd d5d0 7a3d 8383 75bc
00000130: 0c27 f83c a69d 973c 70fd 79bd 5404 303d
00000140: cb28 793c 6f6a d93c 5529 30bd 5405 033c
00000150: acaa 0bbc e414 17bd 4bbd 423c 2da2 9ebd
00000160: db49 363c 4380 0cbb be53 c13c d427 9b3c
00000170: adcc bcbc d3b8 9abc b13a 8cbd 3e1c d43c
00000180: 618c cb3d 9bca 963d a19f 63bd 6c2c 963c
00000190: 936b 2d3d 884c 62bc 3b51 7bbd 17c4 d03d
000001a0: 90bb 813d f975 963c 960e 703d e015 9dbb
000001b0: 1832 f53d 2fff c23d 38b5 a53d a4bb 7ab8
000001c0: 5f84 8abc 9f76 24bd 0822 8b3d a508 443d
000001d0: 6722 c63d d013 a83d 8ce4 293d 701c c83d
000001e0: 7cb5 d1bc f5db 61bd a8ec acbc 9f5d fd3c
000001f0: f427 d33d 7e74 0a3d 3106 01bd cd7b 253d
00000200: e1cc 9f3d 1d0e 2b3d 8ebd d63d 2fb9 4cbd
00000210: 746a c73d 68ce 50bd 9674 173d b78b 203d
00000220: 725c b1bc 8ea3 f1bc 1c16 a13d 5f53 bb3d
00000230: 67f4 b7bd ee70 3bbd abe4 17bd da47 a73d
00000240: e6e7 6e3d 1bc1 a3bb ae22 743d 4173 56bd
00000250: 3849 36bc e83b 7b3d 0308 5cbd 5efe 813d
00000260: 47b5 b63a 346e 0f3d 6967 373d ee53 083d
00000270: 7871 80bd da45 8bbd 5bb4 47b9 801b 653d
00000280: 9d7c 5d3d 3e7e 6fbd 45ba 8cbc 9bdd 0ebd
00000290: 5302 2d3d 7540 723c 96c4 2ebc f7c6 423c
000002a0: 5686 a3bd 7680 67bd e535 4abd 267b 5d3d
000002b0: 0c68 0bbb 1842 b33d 88b4 12bc 5af6 6bbd
000002c0: 30fa a63d 9bcc 87bd 85b1 133d 2248 4fbd
000002d0: aca5 a33d 1ba9 1bbc aa0a babc 9b66 a63c
000002e0: 7a44 cebc 12a1 c03d e8cc a63d a15f 543d
000002f0: d508 8bbc 0be1 c53d 5890 023d 0ecf 0bbd
00000300: 8433 aebd affc a33d 740b e7bc 66ca 91bc
00000310: dd9d edbc 63e3 84bd 61d8 683d e62a 8bbd
00000320: 4cd3 81bd 284b 3e3c 1e17 9abb 7de6 2abd
00000330: e0bb 5f3c b820 633d bd8e 97bd eb16 babc
00000340: 6d4c a53d 3d4a 4ebd c223 913d 0d6f 76bd
00000350: c06b 65bd 8ad1 943b 8008 9d3d 2354 27bc
00000360: 8e61 2abd 2b1a 4c3d 3768 873d 14b7 573d
00000370: fdaa 6abd a4d0 c2bd d1fa a23d b4d1 7d3d
00000380: ada8 5abd 786e 843d 6be4 973c 735e 39bd
00000390: e546 a4bd 4432 c93d 073d a7bd 150b 11bd
000003a0: a216 383d d9d4 b53d 2716 d4bb f0cf 55bd
000003b0: 677a a83d eb98 93bd 3fdf 6f3d 96bc a9bb
000003c0: 02f2 5fbc 9378 70bd a08e 663c 1e78 1f3d
000003d0: a11d 8f3a d652 1fbd d578 b53d 7b67 9e3c
000003e0: fff8 983d ea4d 28bd 3ff2 b23d 46b6 6abd
000003f0: fc8f 023d c61f 823d f08b 1f3c 299a a3bd
-0.05864344 -0.049472112 0.036899555 -0.0548281 0.016637616 0.0023911484 -0.04195166 -0.07301712
0.016947879 -0.019603878 -0.018120255 0.043896083 0.05889121 0.008377158 -0.008288082 -0.03580138
0.08752101 0.031428546 0.012531084 -0.04269881 0.08791691 0.24197106 0.026795536 0.06524934
-0.03518045 0.005480271 0.017119035 -0.024049623 0.07468259 0.0058601615 -0.045059934 -0.04147066
-0.081578 0.0907917 0.083472356 0.102970056 0.05689887 0.12358369 -0.021535145 0.02441247
0.052930377 0.11368828 0.016288059 0.011095287 0.011448204 0.048073456 -0.034169205 -0.023956982
0.10156331 -0.04379202 -0.036653966 0.05096981 -0.03009569 0.066216946 0.10736371 -0.016103
0.018689612 0.07140308 0.109718606 -0.029212058 0.100270174 -0.03626486 0.06741459 0.034137424
0.10178208 -0.02925971 0.09671461 0.016751634 0.06746724 0.08678901 -0.021795338 -0.039065048
0.05651494 -0.050120328 0.061234314 -0.014984968 0.030292057 0.01850779 -0.061032712 0.042972878
0.01520748 0.02654001 -0.043008167 0.007996876 -0.008524578 -0.036885157 0.011885951 -0.07745776
0.011126007 -0.0021438755 0.023599502 0.01893989 -0.023046816 -0.01888696 -0.06847132 0.025892373
0.099388845 0.07362863 -0.055572156 0.018331729 0.04233892 -0.013812192 -0.061356764 0.10193651
0.06334603 0.0183668 0.05860766 -0.0047938675 0.11972445 0.09521329 0.08091205 -5.97794e-05
-0.016908823 -0.04015219 0.067936 0.047859807 0.096745305 0.08206904 0.041477725 0.09771049
-0.025599234 -0.055141408 -0.02110894 0.030928431 0.10310355 0.0338025 -0.031500045 0.04040127
0.078027494 0.041761506 0.104853734 -0.049981292 0.09737101 -0.050978094 0.03697642 0.039195742
-0.021650527 -0.029496934 0.07865545 0.09146761 -0.08982163 -0.045761995 -0.03708331 0.081680015
0.058326624 -0.004997385 0.059603386 -0.05235601 -0.011125855 0.061336428 -0.053718578 0.06347345
0.0013939523 0.035017207 0.044776354 0.033283167 -0.062716424 -0.068004325 -0.00019045307 0.05593443
0.05407392 -0.058470003 -0.017178664 -0.03487931 0.042238545 0.014785876 -0.010666987 0.011888257
-0.07984607 -0.056518994 -0.049367804 0.05407252 -0.0021271734 0.08752841 -0.008954175 -0.057607986
0.08153188 -0.06630822 0.036057968 -0.0506059 0.07990584 -0.009500767 -0.022710163 0.020312598
-0.025179137 0.09405722 0.081445515 0.05184901 -0.016971985 0.09662064 0.03187594 -0.03413301
-0.085059196 0.0800718 -0.028203703 -0.017796706 -0.02900594 -0.06488683 0.05684698 -0.067952916
-0.0633913 0.011614598 -0.004702463 -0.041723717 0.013655633 0.055451125 -0.07400272 -0.022716006
0.08071218 -0.050363768 0.070868984 -0.0601645 -0.05601096 0.0045415806 0.07667637 -0.010212931
-0.04159694 0.049829643 0.06611674 0.05266483 -0.057291973 -0.09512451 0.07957996 0.061967567
-0.053383518 0.06466383 0.018541535 -0.04525609 -0.080213346 0.098240405 -0.08165937 -0.03541096
0.04494346 0.08878488 -0.0064723673 -0.052200258 0.082264714 -0.07206901 0.058562513 -0.005179952
-0.013668539 -0.05870874 0.01407209 0.038932912 0.0010918864 -0.038897358 0.088609375 0.019336453
0.07469367 -0.04108993 0.08737611 -0.057302736 0.031875595 0.063537166 0.009737954 -0.07988388

lstm.bias_hh_l0 f4 [512]
00000000: c50a cf3d 11b5 953d 3b91 d93d 92d0 123d
00000010: d616 c23d 9697 8d3c 6ba5 b53d d163 94bd
00000020: 3cfc 5dbc 146f 1f3d ec08 193d 3fd1 d33d
00000030: f850 1b3d e2c8 b53d 3a62 8bbd 1b3b 2a3d
00000040: 0f33 ab3d 7fa5 8c3d f8f3 503d 5a60 af3c
00000050: ae2c 013c bcd5 603e a24b 3fbd 82f2 2d3c
00000060: 301c 64bc f8a4 e3bb 587e 2e3e 13f4 153c
00000070: 6569 15bd de12 0cbd 3e52 b5bb 409f 8ebb
00000080: 4992 833d b34e 9a3d df7b 223d 9e57 9fbb
00000090: 8d66 033e ce1c 903d 0721 9f3d 3112 0b3c
000000a0: 54ac 8c3c dd0a e63d 6e94 86bd 6fb3 b93c
000000b0: 2a01 8bba b36e 733d dc61 27bd 1bb7 633c
000000c0: caa9 c0bc 361c 33bb 0317 b63d 2635 06bd
000000d0: baca 1d3d dca0 593b 401e 10bd 257a cf3c
000000e0: ffec edbc a002 d23d 755a ac3c 8414 003d
000000f0: 0d0d 863d 5783 7f3d 8011 08bd 06cb c93d
00000100: 6617 cd3d e63d 0fbd 4f55 8b3d 6a11 383d
00000110: cf11 113d 6b08 2fbd 9a0d 14bb 9583 bb3d
00000120: c87e b63c 152b 28bd 9659 1f3d 095b 9c3a
00000130: 0f0f 803d dd0f 1bbd 4671 b23d c59a 3a3d
00000140: 7e2a a7bd ab5d 043d 93de e0bc 7b3b 10bc
00000150: 6121 ce3d 8507 d03c a33e 803b 722e 95bd
00000160: b025 c23d 42a5 5e3c d784 36bd 18ed a43c
00000170: cc02 cc3b 60f8 b73d d139 a9bd 0277 d33d
00000180: 64d2 90bc e5a7 7e3d 8536 2fbd 16e7 9fbc
00000190: d7c9 773c f912 9bbc f765 eb3c f976 603d
000001a0: aca6 c83c 30d7 363d 0a2f 4f3d 4308 ad3d
000001b0: 8e28 a6bc 7c6b 0c3d 0d31 3d3d 4236 193d
000001c0: 6ea5 a13d 9f71 873c e362 05bd 125e 633c
000001d0: e28b ac3d 5ad3 78bc 6a44 df3b 8012 a73d
000001e0: 6f54 483d b78a 34bd 9e8d d43d 7d29 883d
000001f0: 8446 e83d 4bbf d83d 90d0 1e3c 6fb5 b63d
00000200: a9aa 9dbd 573e da3d 8f25 bebc 4a78 32bd
00000210: 9ac8 993d 847b a33d 5bbc bbbc eb54 803c
00000220: c232 47bd 4e53 eabc eeb0 ffbc 2c77 37bd
00000230: 14c1 853a 296c 3ebd af88 9fbd bf0a 24bd
00000240: dc36 93bd 9f8b 733d 51a1 a8bc d9c1 1f3d
00000250: 4b1c 263d 8442 593d d8a3 64bd ffb6 b7bc
00000260: 7920 3a3d a417 d23c a2b4 d3bc a90e ba3d
00000270: 2564 90bb 3727 10bd 2b72 8d3d 51f7 813d
00000280: bbb8 4ebd f201 21bd bdea 85bc 5130 653d
00000290: e52d 133d f580 82bd d484 b33d 6c4f a93d
000002a0: 6a32 153d 1792 af3c 1aa6 22bd 6e69 4e3d
000002b0: b52c 133d f245 a83d 7af7 47bd 78ab 223d
000002c0: 689c 963d 6c3b 9dbd 0fb3 253b 1068 f93c
000002d0: 8a58 4338 a165 6a3c d6c8 d5bc 6b36 a9bd
000002e0: 3819 0ebc 4ec9 c73c fff7 32bd 3de5 2fbd
000002f0: 92ef 0a3d 1f8f be3d f63a 343d ca64 6ebd
00000300: 4cde 843d 32cb 153d 739f f8bc 6e9b 4abd
00000310: 0068 7c3d cfaa b83d af29 953c ac09 8b3d
00000320: e8f2 0f3d 672a 53bd ab6c 133d 6262 94bc
00000330: 0da0 fcbc ff22 903d 4ffe b6bc da8a ac3d
00000340: 74a5 8b3a d62a 57bc b8bd 1f3c 60df 2e3d
00000350: 9bf6 de3c 1237 9dbd ceed 753d a307 aebd
00000360: 40f9 173d d99b 99bd 98ba 693d 9e49 88bd
00000370: c60a c63c a378 6a3d 1b5a f83c e100 603c
00000380: 3c49 b83d d820 96bd 6d70 14ba 7a61 83bc
00000390: 5077 47bd 27f4 893d 9204 913d fb47 a73d
000003a0: 96e1 503d d7f1 31bd 49de 223d 149f 74bb
000003b0: 6641 823d a3b7 d9bc 9d3b 373c 2c1f a33c
000003c0: 3a82 293d 866a b5bd 0ec8 c93c a7fb c13c
000003d0: e0c4 8cbd c1db 87bd eaec 8f3d c8bc d93d
000003e0: 28b3 3a3c 8821 d1bc 9cec 88bd 057c 903d
000003f0: 8f58 7c3c 8e2a ab3d 9405 9c3d 0d36 103d
0.10109476 0.07309926 0.10623404 0.03584344 0.09477012 0.017284196 0.088694416 -0.07245601
-0.013548907 0.03892429 0.037362024 0.10342645 0.037919015 0.08876206 -0.068058446 0.041560274
0.08359348 0.068675034 0.051013917 0.021408249 0.007884188 0.21956533 -0.04670299 0.0106169
-0.013922736 -0.006947156 0.17040384 0.00915243 -0.036477465 -0.03419768 -0.0055334857 -0.00435248
0.06424386 0.07534542 0.039668914 -0.0048627397 0.12832089 0.07036744 0.07769971 0.008488224
0.017172016 0.11232541 -0.065712795 0.022668568 -0.0010605205 0.059431743 -0.04086481 0.013898636
-0.023518462 -0.0027330047 0.08891108 -0.03276553 0.038523413 0.0033207452 -0.0351851 0.025326798
-0.029043673 0.10254407 0.021039227 0.031269565 0.06545458 0.062381115 -0.033219814 0.09853177
0.100142285 -0.03497114 0.06803381 0.044938482 0.035417374 -0.042732637 -0.0022591115 0.09155957
0.02227725 -0.04105671 0.038903795 0.0011928986 0.06252872 -0.037856925 0.087130114 0.045557756
-0.081624016 0.03231589 -0.027449882 -0.008803244 0.1006496 0.02539421 0.003913717 -0.07284249
0.094798446 0.013589205 -0.04456028 0.020132586 0.0062259194 0.08982921 -0.08262981 0.10325433
-0.017678447 0.062171835 -0.042776603 -0.01951937 0.015123806 -0.018929945 0.028735144 0.05480096
0.024493538 0.044638813 0.05058197 0.084488414 -0.02028301 0.034282193 0.046189357 0.03740526
0.07892881 0.016533671 -0.03256501 0.013877409 0.08425118 -0.015187109 0.0068135755 0.081578255
0.048908647 -0.0440776 0.10378574 0.06648538 0.11341575 0.10583361 0.00969328 0.089213245
-0.076985665 0.10656422 -0.023211269 -0.043571748 0.07508965 0.07982543 -0.022916963 0.015665492
-0.04863239 -0.028604176 -0.031212296 -0.044791386 0.0010204636 -0.04648987 -0.07789742 -0.04004931
-0.07188198 0.059459325 -0.020584734 0.039003227 0.040554326 0.05304195 -0.055820316 -0.022426127
0.045441125 0.025646038 -0.025842968 0.090848275 -0.0044064694 -0.03519365 0.069065414 0.06346
-0.05046914 -0.039308496 -0.016347283 0.05595428 0.03593244 -0.06372253 0.08765569 0.08267102
0.03642503 0.021431966 -0.039709188 0.050393514 0.035931308 0.08216466 -0.048819996 0.039714307
0.07354051 -0.076773494 0.002528373 0.030445129 4.657408e-05 0.014306457 -0.026096743 -0.082623325
-0.008673005 0.024387982 -0.04369354 -0.042943228 0.03391988 0.09304642 0.044001542 -0.05820159
0.06487712 0.036570735 -0.030349469 -0.049464636 0.06162262 0.09016954 0.018208353 0.06788954
0.035143763 -0.05155411 0.035992306 -0.018113319 -0.030838037 0.07037925 -0.02233806 0.08424921
0.0010654167 -0.0131327715 0.009749822 0.042693496 0.0272172 -0.076765195 0.06004124 -0.0849755
0.037102938 -0.07500429 0.057062715 -0.06654666 0.024175059 0.057243954 0.030316403 0.013672085
0.08998343 -0.07330483 -0.00056625047 -0.016037691 -0.04869777 0.067360215 0.0708095 0.08168026
0.050996386 -0.043443527 0.03976277 -0.0037326263 0.0636013 -0.026576823 0.0111836465 0.019912325
0.04138396 -0.08858208 0.024631526 0.023679568 -0.068734884 -0.066337116 0.0702761 0.1063171
0.011395253 -0.025528684 -0.06685755 0.07054905 0.015401973 0.08357726 0.076182514 0.035207797

fc.weight f4 [1, 128]
00000000: 03f4 b3bd ede5 fa3d a3ea 0a3e ce83 52bc
00000010: b5fe e6bd 5262 933b 97c9 47bd ffc2 aebc
00000020: c6f3 34be 0056 c1bd eaef 10be d954 c3bd
00000030: efa2 623d 246c 9fbd 9938 e7bd 8afb c73d
00000040: 3e87 a63d 2254 75bd 500b 843c ff09 cdbd
00000050: 9f5d a83c 1d14 d9bd e4e3 b83d ceff 02be
00000060: 0954 bdbd a6a3 843d d5b5 04be 5c2f ad3d
00000070: 6181 15bd 7e35 85bd 28f9 79bd 4401 dfbd
00000080: f722 973d e502 1bbd a541 03be e6f5 93bd
00000090: 6fff 3d3e 2bc8 d63d 08fa 193e 2bae f93d
000000a0: 8c7d d13c d0ad a43d 797b abbc 41e8 063e
000000b0: 5cf3 903d fb4f e4bd 10ca adbc f4d1 0c3e
000000c0: 7062 f93d bcdb 4dbd edf1 f7bd 68ed adbd
000000d0: 8f16 f3bd c2b0 eebd e429 d1bd 4a7e a03d
000000e0: 9cc4 74bc 1db6 ba3d a365 acbd 893f 16bd
000000f0: 15eb 153e 2aea 04be 3dab f23d c539 223e
00000100: 767b d33d 566c 043e 4985 b3bd f5ab 18be
00000110: 3bbe 90bd 7ea3 d5bd 5bd1 c13d 4bd0 db3d
00000120: 782b 163d 7421 b0bd 45c6 7ebc 1438 e73d
00000130: 0def 9abd 176d b23d 9160 e03d 2548 713d
00000140: 7fd0 423d 8715 f1bd d1fa 393d f00b 7cbd
00000150: d65d df3c 2e04 a53d c155 ca3d 879a 34bd
00000160: 2ae2 66bd f384 47bc 75d3 9dbd a994 9cbd
00000170: 585d dc3d aabc 24ba 9fc9 b5bd 0da2 843d
00000180: 508a 22bd 6ab9 d33d e93c 06be e72d dbbd
00000190: baa0 67bd 934a b93d b6e7 3cbd d708 063e
000001a0: 064d 003e 450f f83d 494e 073e 9a74 81bd
000001b0: 3775 dc3d 38e5 7dbd e9f6 80bd b534 55bd
000001c0: 6078 59bd 1c49 c5bb ceac 0c3e 12f1 973d
000001d0: 9e37 a3bd 10e7 89bd 4294 563d 4e0e b53d
000001e0: 97a0 a8bd 7fac b23d 2de6 95bd e842 ac3d
000001f0: 8846 9f3d 2dc4 c9bd 037f ee3d 7a62 613d
-0.08786776 0.12250886 0.1356607 -0.0128488075 -0.1127905 0.0044978047 -0.048776235 -0.021333216
-0.17671117 -0.09440231 -0.1415402 -0.09537668 0.055331167 -0.07784298 -0.11290092 0.09764774
0.08131264 -0.05989469 0.016118675 -0.10011672 0.020552455 -0.105995394 0.09027842 -0.12792894
-0.09244544 0.06476526 -0.12959988 0.08456299 -0.03650034 -0.065043435 -0.06102863 -0.10888913
0.07379716 -0.037844557 -0.1281801 -0.07224636 0.18554471 0.10487398 0.15036786 0.12191423
0.02557256 0.080409646 -0.0209329 0.13174535 0.07077667 -0.111480676 -0.021214515 0.13751966
0.121769786 -0.050258383 -0.121066906 -0.08492547 -0.11869537 -0.116548076 -0.10213068 0.07836588
-0.014939453 0.091167666 -0.08417823 -0.036681686 0.14640458 -0.12979952 0.11849067 0.1584235
0.10326283 0.12931952 -0.087656565 -0.14909346 -0.070675336 -0.10431574 0.094637595 0.10733088
0.03666255 -0.08600131 -0.015550201 0.11289993 -0.075651266 0.087122135 0.109559186 0.058906693
0.04756212 -0.11771684 0.045405213 -0.061534822 0.027266424 0.08057438 0.098796375 -0.04409268
-0.05636803 -0.012177694 -0.07706348 -0.07645542 0.107599914 -0.00062842167 -0.08876347 0.06476221
-0.039682686 0.10338099 -0.13109173 -0.107021146 -0.056549765 0.09047427 -0.046119414 0.1308931
0.12529382 0.121122874 0.13213457 -0.06321068 0.107645445 -0.06198618 -0.062970944 -0.05205222
-0.053093314 -0.006020678 0.13737795 0.074190274 -0.079695925 -0.06733525 0.052387483 0.08840619
-0.08233755 0.08724307 -0.07319293 0.08411199 0.07777125 -0.09851871 0.11645319 0.055025555
