models/WSM model.pth (torch, 270882 bytes, 5 tensors)

lstm.weight_ih_l0 f4 [512, 1]
-0.04317891 0.0827443 -0.054006435 0.041573882 0.050334863 -0.010324702 0.013705839 0.03233252
-0.06108384 0.07343172 -0.097418666 -0.07331916 -0.025916876 0.1490021 -0.014409089 -0.08783508
8.00334e-05 0.07800173 -0.012814448 0.09991135 -0.045811776 0.03333781 -0.015010248 -0.06357248
0.012822692 -0.026240392 -0.04640098 -0.007849042 -0.08131413 -0.096031964 0.043344364 -0.004035758
-0.043152988 0.027050799 0.0166146 0.06592409 -0.04660417 0.041401133 0.013308283 -0.10934635
0.038243633 0.04226413 0.0498024 -0.033678308 0.017322736 -0.014374591 0.083644606 0.068827465
0.013237093 0.027925635 0.082969606 0.028880144 0.002848807 -0.10712257 0.010653293 0.07257737
0.0925217 0.1355481 -0.057321116 -0.08137162 -0.025882352 0.032998387 2.4892166e-05 -0.056507416
-0.102899514 -0.057366934 -0.102880225 0.26621106 -0.019269135 0.0589073 0.009324775 0.014778136
-0.009457372 -0.051858444 -0.046719197 0.019558648 0.051016282 -0.07616697 -0.05437523 0.04393078
-0.007965279 -0.09602697 -0.046204243 -0.037982963 0.03172219 0.03778484 -0.07993448 0.049017664
-0.031757064 -0.032304853 -0.10176847 0.0017393067 0.026746247 -0.046155926 -0.00026721862 0.05590152
0.027899412 0.0037028764 0.017382288 -0.08437388 -0.09109955 0.079927504 -0.07796581 0.072239816
-0.09606571 -0.11391622 -0.026109712 0.02134 -0.009618106 -0.06415652 0.015699236 0.038164876
-0.09014812 0.069277145 -0.033725765 -0.06485518 -0.08277113 -0.11211119 -0.071175754 -0.0129558155
-0.019855516 0.20086463 0.032636877 -0.03950495 0.033597443 0.02141117 0.03434608 0.024452876
-0.021132648 0.24559125 0.0034408201 0.0038297276 -0.001988638 0.0037157473 0.075802855 -0.091248505
0.07907507 0.066773914 -0.111924306 -0.10134763 -0.044698972 0.1908598 -0.02951371 0.04166479
-0.060926877 0.006476288 -0.024052016 0.061723143 0.06311526 0.039945085 -0.03671137 -0.019809606
-0.020391017 0.014534626 -0.10939008 0.045812562 -0.08153455 -0.05264968 -0.07843588 -0.02535537
0.01309766 -0.06593315 -0.04010009 -0.07377286 -0.14948125 0.045564853 -0.041255847 0.054939874
0.078102976 0.04955766 0.029378908 0.020894842 -0.11552941 -0.064231135 0.18099095 -0.03510052
-0.0582036 -0.081099086 0.04842551 -0.10194052 -0.054567363 -0.11242571 0.10381789 0.056540426
0.07888521 0.13879114 -0.06537348 -0.068930715 -0.0033272905 0.013998414 0.039445885 0.007146126
-0.038473252 0.039837245 -0.04349155 0.1821156 0.054668747 -0.07960226 -0.040904626 -0.06717676
-0.040006563 -0.11715043 -0.035986774 -0.07025322 -0.0017250387 0.03205365 0.058656696 0.07360713
-0.055336162 0.058993742 -0.09907188 -0.06292007 0.024547627 0.044561766 0.02813644 -0.08145962
-0.064822204 0.048505627 -0.08323444 0.007685346 0.15293142 -0.010897223 0.035808608 -0.02682792
-0.06743573 -0.056530744 0.0828081 -0.03585431 -0.006812397 -0.06681469 0.066560104 0.018477893
-0.10201717 -0.038758893 0.04382188 0.03168774 -0.028647508 0.039942402 0.04602936 0.0013716236
-0.03695508 0.033559937 -0.018149698 0.03972592 0.06020768 -0.12441509 -0.068274975 -0.09809033
0.033666857 0.20821664 0.023875413 0.012873474 -0.0017380825 -0.026412986 0.15033346 0.17010508
00000000: 5edc 30bd d875 a93d da35 5dbd 6049 2a3d
00000010: ee2b 4e3d f028 29bc 758e 603c 1b6f 043d
00000020: 0c33 7abd 5f63 963d 7083 c7bd 5b28 96bd
00000030: a14f d4bc 0294 183e 1a14 6cbc e1e2 b3bd
00000040: 9bd7 a738 5fbf 9f3d b1f3 51bc 529e cc3d
00000050: 21a5 3bbd 3a8d 083d 8bed 75bc 4a32 82bd
00000060: 4516 523c 17f6 d6bc f40e 3ebd 4599 00bc
00000070: 0688 a6bd 68ac c4bd dc89 313d 643e 84bb
00000080: 30c1 30bd a399 dd3c 571b 883c 3603 873d
00000090: 04e4 3ebd 3c94 293d fc0a 5a3c fbf0 dfbd
000000a0: 5ba5 1c3d 271d 2d3d 9afd 4b3d 44f2 09bd
000000b0: 69e8 8d3c 6883 6bbc dd4d ab3d 6af5 8c3d
000000c0: 64e0 583c 4dc4 e43c f8eb a93d 0d96 ec3c
000000d0: 0db3 3a3b 1463 dbbd 268b 2e3c 72a3 943d
000000e0: 047c bd3d 1fcd 0a3e 8cc9 6abd 2aa6 a6bd
000000f0: 3a07 d4bc 5129 073d 85cf d037 5274 67bd
00000100: fbbc d2bd 97f9 6abd deb2 d2bd d14c 883e
00000110: 4eda 9dbc c848 713d f1c6 183c ff1f 723c
00000120: 18f3 1abc 8569 54bd a15c 3fbd 7539 a03c
00000130: 73f6 503d 6efd 9bbd 90b8 5ebd c3f0 333d
00000140: cd80 02bc caa9 c4bd a940 3dbd 0694 1bbd
00000150: 21ef 013d 47c4 1a3d b0b4 a3bd bfc6 483d
00000160: b213 02bd 1852 04bd fd6b d0bd 73f9 e33a
00000170: f21a db3c ff0d 3dbd 7a19 8cb9 fef8 643d
00000180: 4f8d e43c f5ab 723b 4d65 8e3c 36cc acbd
00000190: 6792 babd 08b1 a33d 8aac 9fbd 78f2 933d
000001a0: 19be c4bd e84c e9bd 09e4 d5bc 39d1 ae3c
000001b0: 4395 1dbc 7e64 83bd af9b 803c c652 1c3d
000001c0: 949f b8bd 2de1 8d3d 0724 0abd cbd2 84bd
000001d0: e983 a9bd 8d9a e5bd 98c4 91bd a144 54bc
000001e0: 09a8 a2bc 75af 4d3e 3fae 053d f1cf 21bd
000001f0: 799d 093d 7a66 af3c 7aae 0c3d 6651 c83c
00000200: 601e adbc 467c 7b3e 627f 613b 2bfc 7a3b
00000210: cf53 02bb e583 733b 873e 9b3d 7fe0 babd
00000220: 1cf2 a13d c3c0 883d 9238 e5bd 598f cfbd
00000230: 4516 37bd c070 433e bcc6 f1bc b3a8 2a3d
00000240: 768e 79bd 0b37 d43b bc08 c5bc 68d1 7c3d
00000250: 9342 813d 759d 233d a95e 16bd c147 a2bc
00000260: 100b a7bc a422 6e3c e807 e0bd f4a5 3b3d
00000270: 96fb a6bd 31a7 57bd fea2 a0bd 11b6 cfbc
00000280: 9197 563c f607 87bd fe3f 24bd 3a16 97bd
00000290: 9d11 19be 36a2 3a3d e4fb 28bd a208 613d
000002a0: 74f4 9f3d f9fc 4a3d 09ac f03c a92b ab3c
000002b0: af9a ecbd 9d8b 83bd b155 393e 90c5 0fbd
000002c0: e666 6ebd 4717 a6bd d459 463d 31c6 d0bd
000002d0: 0782 5fbd 733f e6bd 799e d43d ef96 673d
000002e0: 928e a13d 441f 0e3e 88e2 85bd 8c2b 8dbd
000002f0: ac0e 5abb 9b59 653c 0292 213d 0d2a ea3b
00000300: 2196 1dbd 612c 233d 3224 32bd 837c 3a3e
00000310: 56ec 5f3d 8206 a3bd 9c8b 27bd f893 89bd
00000320: ecdd 23bd 91ec efbd de66 13bd ece0 8fbd
00000330: b21a e2ba b04a 033d 0142 703d 56bf 963d
00000340: 2ca8 62bd 6ca3 713d 33e6 cabd 3ddc 80bd
00000350: 1b18 c93c 6686 363d 647e e63c 4dd4 a6bd
00000360: 81c1 84bd d6ad 463d d176 aabd 5bd5 fb3b
00000370: 0e9a 1c3e 448a 32bc 0cac 123d 3ac6 dbbc
00000380: be1b 8abd c88c 67bd 4b97 a93d f8db 12bd
00000390: 873a dfbb 24d6 88bd aa50 883d f35e 973c
000003a0: 61ee d0bd a5c1 1ebd 927e 333d 01cb 013d
000003b0: 2eae eabc a59a 233d 4889 3c3d 0dc8 b33a
000003c0: 365e 17bd 2576 093d adae 94bc a5b7 223d
000003d0: 549c 763d 57cd febd c0d3 8bbd 95e3 c8bd
000003e0: 42e6 093d be36 553e 5f96 c33c 43eb 523c
000003f0: 5fd0 e3ba 0c60 d8bc 04f1 193e 0730 2e3e

lstm.weight_hh_l0 f4 [512, 128]
-0.0005099103 0.09083969 -0.030628636 0.011451137 0.020013336 -0.0243493 -0.014946172 0.06291209
-0.07340227 0.032153398 0.058677178 0.03492809 -0.038005717 0.043120723 -0.026998572 -0.06656087
-0.01244429 0.032807507 0.00064126705 0.07444537 0.015213978 0.00789164 -0.06322077 0.03401153
-0.037939746 -0.069586635 -0.06934039 -0.07913898 -0.07632298 -0.07840161 0.05260517 -0.066566795
0.0766839 -0.05126057 -0.017045015 -0.037452366 0.08861073 0.061544552 0.08289975 -0.08481617
0.03926458 -0.05720784 -0.042219087 -0.07676684 -0.07910688 -0.060934693 0.07175455 -0.11175977
0.021720257 0.032131974 -0.029052442 -0.010242122 0.018078748 0.011553323 -0.07571586 0.017154044
-0.0065224515 0.10502929 0.010914516 -0.010512829 -0.06669385 0.016509995 -0.084101476 0.07594213
-0.06217591 -0.0721015 -0.008325934 -0.016748685 0.097668625 0.024689654 -0.028995391 0.08265162
-0.0013971652 -0.024731046 0.022233523 0.052457687 -0.01974223 0.080923684 0.027783765 -0.03201236
-0.046661492 -0.082104005 0.056706797 -0.015648382 -0.0057201223 0.041458376 0.021472564 0.014305096
-0.066245615 0.06614565 -0.02017189 0.014017123 0.07964979 0.028931983 0.048962127 0.034370672
0.038877975 -0.07189073 0.020766724 -0.01728111 0.0050789188 -0.018192973 -0.05242416 -0.048375435
0.02269989 -0.07664524 -0.016277358 0.040375084 -0.0602987 -0.017007055 0.0036738534 -0.018755995
-0.016979072 -0.01232824 -0.037011467 -0.007756371 0.007016319 -0.024387483 0.028714126 -0.027677266
0.08775295 0.09812567 0.029808916 -0.01646875 -0.012739222 -0.0393863 -0.076925695 -0.10894886
0.08239961 0.10001303 -0.021952858 -0.09006702 -0.00014132891 -0.04219226 0.08432329 0.019013219
-0.09969783 0.01760319 0.009005497 0.0052872887 -0.06621386 0.10801833 0.112964466 0.051065993
0.07614111 0.13986748 -0.079200625 0.22215587 0.13632277 0.005490966 0.02842583 0.05684319
-0.1895219 -0.084677465 -0.05876767 0.05779979 0.103652716 -0.059278738 0.0016012595 -0.065281935
0.1267903 0.082339056 -0.03643767 -0.093432665 -0.16416727 0.028365588 -0.040910676 -0.07819877
-0.0061425357 0.079157285 -0.15350032 -0.12101707 0.027912917 0.120715894 -0.04255259 -0.06816497
-0.07448879 -0.08185937 0.12209763 -0.05449075 -0.11046636 0.021223819 -0.16628975 -0.15846826
0.11826315 0.12033522 -0.044635594 0.02328087 0.122057885 -0.05724751 0.007614138 -0.0024133786
0.030190093 0.072300054 -0.1025146 -0.006923039 -0.07928501 0.010327691 0.19103664 -0.07408863
-0.077167004 -0.014862417 0.06236933 0.036406998 -0.027843798 -0.027715756 0.060287967 0.13462166
0.060444638 -0.11791479 0.047554217 0.0181318 0.038132586 -0.0645603 0.052367903 -0.0088868635
-0.07877533 0.038240276 -0.0020618462 -0.107447445 0.06288697 0.017747318 -0.11296317 0.022420928
-0.05417929 0.12118684 0.009577843 0.078081444 -0.0035575638 0.04052112 0.003945966 0.005737918
-0.025250705 -0.00020197689 0.031286627 0.00051152264 -0.009932935 -0.074811846 -0.06893439 0.11139791
0.06943476 0.10352677 -0.018603584 -0.17727458 0.16233191 -0.14994219 0.029290626 -0.09970177
-0.08658477 0.10010092 -0.06755816 0.030141173 -0.06780736 -0.057602722 0.003362668 -0.01977367
00000000: 80ab 05ba 290a ba3d e8e8 fabc 8d9d 3b3c
00000010: 02f3 a33c 2f78 c7bc cae0 74bc 0ed8 803d
00000020: ee53 96bd 48b3 033d 7b57 703d c210 0f3d
00000030: e2ab 1bbd 5b9f 303d 1c2c ddbc 1151 88bd
00000040: 23e3 4bbc 2a61 063d b41a 283a d076 983d
00000050: 0c44 793c f04b 013c e479 81bd ad4f 0b3d
00000060: b566 1bbd 7083 8ebd 5602 8ebd 9e13 a2bd
00000070: 394f 9cbd 0691 a0bd 8578 573d 2c54 88bd
00000080: 730c 9d3d 9af6 51bd fda1 8bbc a767 19bd
00000090: 8b79 b53d 2416 7c3d 58c7 a93d 1ab4 adbd
000000a0: e5d3 203d c552 6abd eced 2cbd ef37 9dbd
000000b0: ca02 a2bd a896 79bd 0df4 923d 4ee2 e4bd
000000c0: aeee b13c d19c 033d 63ff edbc 93ce 27bc
000000d0: e219 943c 264a 3d3c eb10 9bbd a386 8c3c
000000e0: 4aba d5bb 9919 d73d ccd2 323c 003e 2cbc
000000f0: c996 88bd f83f 873c 653d acbd 8c87 9b3d
00000100: 2bac 7ebd f4a9 93bd 8069 08bc 8a34 89bc
00000110: 7d06 c83d f541 ca3c be87 edbc 4145 a93d
00000120: 1621 b7ba c398 cabc 1423 b63c dfdd 563d
00000130: 75ba a1bc 51bb a53d c79a e33c 641f 03bd
00000140: 1f20 3fbd 2526 a8bd 6345 683d 0931 80bc
00000150: dd6f bbbb 42d0 293d 3be7 af3c ec5f 6a3c
00000160: c8ab 87bd 5f77 873d 853f a5bc 13a8 653c
00000170: 6e1f a33d c402 ed3c 838c 483d 43c8 0c3d
00000180: 833e 1f3d 723b 93bd fa1e aa3c 1d91 8dbc
00000190: 0f6d a63b 6e09 95bc b7ba 56bd 5225 46bd
000001a0: 1ff5 b93c 2ef8 9cbd 1858 85bc 5860 253d
000001b0: c5fb 76bd 6152 8bbc 08c5 703b 2ca6 99bc
000001c0: b217 8bbc 63fc 49bc 5699 17bd 2829 febb
000001d0: 26e9 e53b 42c8 c7bc e339 eb3c 6fbb e2bc
000001e0: d2b7 b33d 1cf6 c83d d431 f43c 79e9 86bc
000001f0: 2bb8 50bc 8753 21bd 388b 9dbd 9420 dfbd
00000200: 20c1 a83d a2d3 cc3d 7bd6 b3bc 0f75 b8bd
00000210: b131 14b9 cbd1 2cbd b0b1 ac3d 9cc1 9b3c
00000220: 602e ccbd 9134 903c cb8b 133c fe40 ad3b
00000230: 229b 87bd b738 dd3d ea59 e73d 932a 513d
00000240: dfef 9b3d 6c39 0f3e f033 a2bd d47c 633e
00000250: 3298 0b3e 90ed b33b 49dd e83c 68d4 683d
00000260: 0712 42be 616b adbd 5eb6 70bd 79bf 6c3d
00000270: e047 d43d 43ce 72bd 5ae1 d13a 89b2 85bd
00000280: 51d5 013e 61a1 a83d ab3f 15bd a059 bfbd
00000290: 771b 28be f35e e83c f491 27bd ad26 a0bd
000002a0: 5347 c9bb 371d a23d 302f 1dbe ccd7 f7bd
000002b0: a1a9 e43c e539 f73d a04b 2ebd 139a 8bbd
000002c0: 948d 98bd e3a5 a7bd 520e fa3d b131 5fbd
000002d0: 303c e2bd 93dd ad3c dc47 2abe 8145 22be
000002e0: f333 f23d 5072 f63d d0d3 36bd 86b7 be3c
000002f0: 7cf9 f93d 5d7c 6abd 0580 f93b c629 1ebb
00000300: 3751 f73c 0d12 943d 2df3 d1bd a9da e2bb
00000310: 2e60 a2bd 7a35 293c 1c9f 433e c8bb 97bd
00000320: bc09 9ebd 7f81 73bc fc76 7f3d 811f 153d
00000330: ad18 e4bc 270c e3bc 84f0 763d 43da 093e
00000340: cc94 773d 4f7d f1bd 36c8 423d 2489 943c
00000350: ea30 1c3d 3138 84bd ba7f 563d 359a 11bc
00000360: f654 a1bd d6a1 1c3d 0a20 07bb 680d dcbd
00000370: e2ca 803d d362 913c 3c59 e7bd 18ac b73c
00000380: 1aeb 5dbd ce30 f83d 63ec 1c3c 2ae9 9f3d
00000390: 0426 69bb 79f9 253d 294d 813b 2505 bc3b
000003a0: 91da cebc c2c9 53b9 6826 003d b417 063a
000003b0: c0bd 22bc f436 99bd 792d 8dbd 9624 e43d
000003c0: d033 8e3d d805 d43d 8b66 98bc 7887 35be
000003d0: 563a 263e 728a 19be e5f2 ef3c 7130 ccbd
000003e0: 5b53 b1bd b601 cd3d ef5b 8abd 9fea f63c
000003f0: 96de 8abd d5f0 6bbd 3560 5c3b 64fc a1bc

lstm.bias_ih_l0 f4 [512]
0.07756253 0.07459661 0.030830795 -0.056233972 -0.008922222 0.08110159 0.05786194 -0.0053430093
0.034068633 0.010079389 -0.02050311 0.07360447 0.03352722 0.048890032 0.07793169 -0.03470396
-0.012264886 0.07668191 -0.028634554 -0.06413805 -0.06544182 0.072832264 -0.002182812 -0.08362743
0.06755274 0.04078647 0.029385505 -0.056653947 -0.050309975 -0.04059873 -0.010978284 -0.016067361
-0.025632508 0.030470291 0.063858785 -0.046465095 0.039820466 0.09239816 0.0276216 0.036257762
-0.061391212 -0.030282905 -0.021869801 0.074070476 0.06898889 0.0344064 0.00018726899 0.019622764
-0.0108235935 -0.030176252 -0.0258953 0.001989396 0.09505525 0.06895062 0.06583835 0.08528193
0.07969894 0.023672523 -0.011007864 -0.00216729 -0.0060491203 0.022287512 0.044875275 0.042056177
0.06908584 0.007879952 0.057353325 0.06679476 0.039203674 -0.06746909 0.0819743 0.07229833
0.123841375 0.06907872 -0.038269844 0.10479636 -0.0389417 -0.002655682 -0.08407848 -0.01957598
-0.044299576 -0.036606394 0.069078386 0.038441014 -0.0513 -0.0056436905 -0.0053872555 0.11826048
0.06603217 -0.060480308 -0.06528017 0.060567006 -0.015670113 0.12483135 0.017321907 -0.04885753
0.09688719 -0.00276716 0.08481603 -0.04896725 -0.042525873 0.030863348 -0.020612715 0.112704985
0.030833395 -0.030733334 0.07307104 0.063367404 -0.05320429 0.006345887 -0.015845941 -0.0037251106
0.102547705 -0.069414675 -0.067657895 -0.04485218 0.08490781 0.08439195 0.053685244 -0.0148242805
0.05291155 0.0927902 -0.07365526 0.08576468 -0.022054045 -0.028990885 0.010625304 0.00924129
0.040466 0.05608924 -0.040368788 -0.018500641 0.02698254 -0.026089206 -0.10191714 0.106835276
-0.08148059 -0.075136915 0.099531025 -0.047280353 -0.0679063 0.04354591 0.051577177 -0.016050614
0.054182567 -0.006615666 -0.00808092 -0.025443051 -0.06983285 -0.095103934 0.018612491 -0.028803617
-0.024937829 -0.02670187 0.069218464 0.08076403 -0.0698262 -0.040488176 0.012908577 -0.079854324
-0.02207166 -0.03166284 0.04196112 0.058754668 0.011969277 -0.08512782 0.08161252 0.024472885
0.069114834 0.022855448 0.07313312 0.050920386 0.048677493 0.100905724 0.08741285 0.05191696
0.053620823 0.040829394 0.0049669775 -0.020600094 0.022904802 0.075534716 -0.05809469 0.061789673
-0.063138835 -0.029467536 0.031057782 -0.03269472 -0.0071818572 -0.04293921 -0.028379684 -0.08078125
0.048032816 -0.002024361 0.0035989326 -0.009092229 0.047566634 -0.0713343 0.036326963 -0.02872888
0.074423455 0.016215935 -0.06767842 -0.06343058 -0.0565234 0.01559923 0.053249933 -0.06545962
-0.07175755 0.02629356 0.024525665 0.07890344 0.0871015 -0.02732628 -0.067976765 -0.026099028
0.009354644 -0.032345857 0.05774026 0.015195069 -0.045816634 0.06884115 0.09551676 0.10051001
-0.025018796 0.069211654 0.040072832 -0.0065628667 0.08994747 0.051604558 -0.015097853 -0.079359815
-0.062025886 0.106177084 0.0065055382 0.030073514 -0.06978024 0.10081636 0.010165734 0.06730483
0.01955831 -0.0104510635 0.01206606 -0.035201363 0.03870589 0.024911458 0.016842129 0.0705184
-0.057683583 0.037188563 -0.017352453 -0.06700761 -0.05836104 -0.03845098 0.046420664 0.0621624
00000000: 1bd9 9e3d 1cc6 983d dd90 fc3c 9855 66bd
00000010: 832e 12bc 9718 a63d a400 6d3d 6914 afbb
00000020: 8d8b 0b3d 0624 253c 23f6 a7bc f1bd 963d
00000030: d753 093d ea40 483d a69a 9f3d bd25 0ebd
00000040: a9f2 48bc 680b 9d3d 0393 eabc cf5a 83bd
00000050: 5c06 86bd 1529 953d 820d 0fbb dc44 abbd
00000060: 1759 8a3d b70f 273d dfb9 f03c f80d 68bd
00000070: d511 4ebd db4a 26bd 43de 33bc b39f 83bc
00000080: 44fb d1bc d59c f93c 65c8 823d 2f52 3ebd
00000090: c91a 233d 3f3b bd3d b246 e23c 0583 143d
000000a0: 5a75 7bbd db13 f8bc 4c28 b3bc 43b2 973d
000000b0: 0c4a 8d3d baed 0c3d a35d 4439 ebbf a03c
000000c0: 7155 31bc 3034 f7bc 6122 d4bc 8760 023b
000000d0: 54ac c23d fc35 8d3d 42d6 863d 4ba8 ae3d
000000e0: 3339 a33d e1ec c13c 545a 34bc 1809 0ebb
000000f0: b337 c6bb 4d94 b63c 23cf 373d 1943 2c3d
00000100: e07c 8d3d ea1a 013c 52eb 6a3d b1cb 883d
00000110: 0894 203d 3c2d 8abd 24e2 a73d 2611 943d
00000120: 8ca0 fd3d 2579 8d3d d7c0 1cbd 799f d63d
00000130: 5581 1fbd f30a 2ebb 5731 acbd ce5d a0bc
00000140: 7973 35bd 96f0 15bd f878 8d3d 5374 1d3d
00000150: f31f 52bd b5ee b8bb 9387 b0bb 8d32 f23d
00000160: e03b 873d 33ba 77bd 9cb1 85bd 1c15 783d
00000170: 9c5e 80bc 94a7 ff3d ace6 8d3c d51e 48bd
00000180: cb6c c63d 3e59 35bb 07b4 ad3d e291 48bd
00000190: 9c2f 2ebd 22d5 fc3c ffdb a8bc dfd1 e63d
000001a0: 5196 fc3c 79c4 fbbc 45a6 953d c5c6 813d
000001b0: beec 59bd 29f1 cf3b 59cf 81bc fc20 74bb
000001c0: 8804 d23d 4829 8ebd 3990 8abd ebb6 37bd
000001d0: 25e4 ad3d b0d5 ac3d 0fe5 5b3d 8ae1 72bc
000001e0: c8b9 583d ca08 be3d 92d8 96bd 64a5 af3d
000001f0: afaa b4bc 4b7e edbc c115 2e3c c868 173c
00000200: adbf 253d d5bd 653d be59 25bd a88e 97bc
00000210: 7d0a dd3c 08b9 d5bc efb9 d0bd 74cc da3d
00000220: 4cdf a6bd 62e1 99bd ecd6 cb3d 0ba9 41bd
00000230: 7512 8bbd 325d 323d 9742 533d 947c 83bc
00000240: 8aee 5d3d 3bc8 d8bb d665 04bc f26d d0bc
00000250: 8604 8fbd dac5 c2bd 3979 983c 90f5 ebbc
00000260: 6b4a ccbc e1bd dabc 69c2 8d3d 9d67 a53d
00000270: 0a01 8fbd eed6 25bd 7f7e 533c aa8a a3bd
00000280: a0cf b4bc e5b0 01bd 6cdf 2b3d bca8 703d
00000290: c91a 443c 7f57 aebd 7724 a73d 5c7b c83c
000002a0: 148c 8d3d 593b bb3c d1c6 953d e591 503d
000002b0: 0d62 473d a9a7 ce3d 8205 b33d e1a6 543d
000002c0: 82a1 5b3d b93c 273d 07c2 a23b 87c1 a8bc
000002d0: daa2 bb3c f2b1 9a3d b3f4 6dbd 2b17 7d3d
000002e0: ef4e 81bd e765 f1bc e46c fe3c e6ea 05bd
000002f0: c955 ebbb 06e1 2fbd 837c e8bc a470 a5bd
00000300: 0fbe 443d 24ab 04bb 12dc 6b3b 93f7 14bc
00000310: 3bd5 423d b817 92bd 95cb 143d d458 ebbc
00000320: 536b 983d 48d7 843c fc9a 8abd e4e7 81bd
00000330: 1585 67bd ea93 7f3c 9a1c 5a3d b10f 86bd
00000340: 9ff5 92bd 9865 d73c 0cea c83c 2098 a13d
00000350: 4562 b23d 5ddb dfbc 6737 8bbd a1cd d5bc
00000360: 3944 193c 177d 04bd 0d81 6c3d bdf4 783c
00000370: 39aa 3bbd 97fc 8c3d 4b9e c33d 31d8 cd3d
00000380: 38f4 ccbc d7be 8d3d 6923 243d 510d d7bb
00000390: 6136 b83d 4d5f 533d fc5c 77bc 6687 a2bd
000003a0: db0e 7ebd 5f73 d93d 692c d53b bb5c f63c
000003b0: f1e8 8ebd cf78 ce3d 2e8e 263c 1dd7 893d
000003c0: c038 a03c f03a 2bbc b9b0 453c 4e2f 10bd
000003d0: 118a 1e3d 1d13 cc3c 81f8 893c f36b 903d
000003e0: 9f45 6cbd 0953 183d bb26 8ebc 493b 89bd
000003f0: fc0b 6fbd c67e 1dbd 9823 3e3d 009e 7e3d

lstm.bias_hh_l0 f4 [512]
0.028577887 0.13942291 0.10890228 -0.047233175 -0.03476192 0.045951456 0.079167426 0.017535081
-0.0673693 0.025201874 -0.0027127562 -0.031299405 0.05710606 0.03472787 0.052642256 -0.06077586
0.07437634 0.049313672 0.05033151 0.04832921 -0.055627167 0.06565139 -0.08658881 -0.0069766375
0.03742347 0.013420609 0.08271459 -0.07678743 -0.009375179 -0.08855952 -0.044941902 -0.043644585
-0.0296596 0.03057533 0.0376518 0.03029139 0.04405217 -0.038220186 0.02595982 0.1142763
-0.08712158 0.07257594 0.05870185 0.007998887 0.10834178 0.11176141 -0.013508331 0.064370245
0.054042432 0.055137515 0.024285406 0.060259935 -0.015598329 0.07239187 -0.038640305 0.0053961105
-0.02312321 0.07911398 0.04500249 -0.050810795 0.0053590294 -0.02521584 0.10942527 0.07412126
0.03670098 0.010384674 0.10857956 0.0910389 -0.08935321 -0.03788837 0.0721519 0.025337908
-0.036827534 0.020320257 -0.03176741 0.060153265 -0.043623663 -0.032379884 -0.0033763354 0.015267737
0.013167841 0.049138654 -0.00799707 -0.08212956 0.04832525 0.0051983367 -0.011238044 0.035905063
0.09076245 -0.030326143 0.009778759 0.005103677 0.012941824 -0.03398014 0.076545425 0.0060557327
-0.030619822 -0.0070836465 0.041978765 -0.043644488 0.015763063 -0.030820958 0.05478951 0.049134403
0.013437395 0.05498661 -0.031595264 0.06303221 0.10899797 0.04416745 0.07060238 0.13279252
0.024563571 0.012943801 0.011522405 -0.052373677 0.036560215 0.03639869 -0.026103975 0.069515534
0.05198261 0.022469973 -0.020806279 0.024335671 -0.08012029 -0.06334904 0.08425455 0.056010712
-0.081271395 -0.053793248 0.034665704 0.017246058 0.073205695 0.052456927 -0.095261276 -0.034144845
0.07720141 -0.015897896 0.0069714123 0.024418987 -0.052690644 0.06861845 0.0891845 -0.052237257
-0.04919902 -0.022372585 0.041485883 0.042690177 0.033163566 -0.009987957 0.007992871 0.023189655
0.045997884 0.06526456 0.043569226 0.0060767685 0.046237156 0.0059063183 -0.003799748 0.014960029
0.06668719 -0.034218375 -0.055185165 -0.034883756 -0.072848864 -0.05207979 0.047988564 0.088256106
-0.034699336 0.0701311 0.04385631 -0.004248659 0.102484025 -0.06347403 0.04093505 0.009169203
0.024186091 -0.049093265 0.017910682 0.040032744 -0.058209635 -0.046008147 0.0654357 0.07040494
0.020145973 0.04566438 -0.021831814 -0.032066956 0.036576662 0.055083733 -0.027428808 0.00036396686
-0.0077201873 -0.002112024 -0.026094845 0.022489397 0.045951482 0.099530675 0.07172246 -0.04151025
-0.05095791 -0.04311216 0.1011582 -0.025958933 0.094440326 -0.008562052 -0.0794136 0.06843905
-0.010722171 -0.050816756 0.07264964 -0.07472259 0.08657216 0.07592195 0.016019205 -0.02813882
0.0006628052 -0.055208534 0.09684536 0.01619689 -0.049211998 -0.06453548 -0.056338333 0.087057196
0.10142939 0.07985689 0.050169952 0.041068383 0.037363082 -0.0013741816 -0.057217907 -0.003713994
0.028734345 0.059227645 -0.05013951 -0.012441294 0.05001406 -0.017959028 0.07547032 0.053170193
-0.035692383 0.024560984 -0.031089045 0.035597246 -0.039871577 -0.070880815 0.0215796 0.032439843
0.066867866 0.12184682 0.06899921 -0.06914909 -0.037620336 0.0409575 0.0013797993 0.01901567
00000000: 2c1c ea3c e1c4 0e3e 2908 df3d 9377 41bd
00000010: 8462 0ebd 9837 3c3d 8822 a23d bba5 8f3c
00000020: eaf8 89bd 2974 ce3c 7fc8 31bb ce33 00bd
00000030: 0be8 693d d03e 0e3d 689f 573d 1cf0 78bd
00000040: 9f52 983d 22fd 493d 6a28 4e3d daf4 453d
00000050: 50d9 63bd 3c74 863d 7955 b1bd 479c e4bb
00000060: 5a49 193d 1de2 5b3c 4466 a93d ba42 9dbd
00000070: 5a9a 19bc b25e b5bd 0015 38bd aac4 32bd
00000080: b1f8 f2bc 1d79 fa3c c638 1a3d a625 f83c
00000090: 0c70 343d c58c 1cbd b0a9 d43c b109 ea3d
000000a0: cd6c b2bd b2a2 943d 5a71 703d c40d 033c
000000b0: 4ce2 dd3d 2be3 e43d 0c52 5dbc 8cd4 833d
000000c0: 995b 5d3d e0d7 613d 30f2 c63c 1fd3 763d
000000d0: 2290 7fbc 3042 943d 4c45 1ebd dbd1 b03b
000000e0: e36c bdbc 8306 a23d 8854 383d fb1e 50bd
000000f0: cc9a af3b 7391 cebc 5b1a e03d e3cc 973d
00000100: c453 163d 7b24 2a3c f65e de3d 9a72 ba3d
00000110: d1fe b6bd d630 1bbd 60c4 933d 7291 cf3c
00000120: 78d8 16bd ab76 a63c 8b1e 02bd 4563 763d
00000130: baae 32bd c5a0 04bd 8245 5dbb 8825 7a3c
00000140: eebd 573c 9d45 493d 2506 03bc 8b33 a8bd
00000150: b3f0 453d cf56 aa3b c61f 38bc 3011 133d
00000160: aae1 b93d 886e f8bc 1737 203c bf3c a73b
00000170: f209 543c c22e 0bbd d9c3 9c3d 2b6f c63b
00000180: 6cd6 fabc ef1d e8bb edf1 2b3d 90c4 32bd
00000190: 8a21 813c 3c7c fcbc f76a 603d 2841 493d
000001a0: 8528 5c3c a439 613d 096a 01bd 0817 813d
000001b0: 543a df3d eee8 343d fb97 903d c3fa 073e
000001c0: 8b39 c93c 3c12 543c 78c8 3c3c c885 56bd
000001d0: 2ac0 153d cb16 153d 01d8 d5bc 295e 8e3d
000001e0: b8eb 543d f312 b83c ee71 aabc 9a5b c73c
000001f0: 1b16 a4bd 24bd 81bd a68d ac3d 7d6b 653d
00000200: 9e71 a6bd 4f56 5cbd a0fd 0d3d 9b47 8d3c
00000210: deec 953d 13dd 563d 5818 c3bd 77db 0bbd
00000220: c61b 9e3d 4e3c 82bc 7270 e43b 540a c83c
00000230: 25d2 57bd d487 8c3d 5da6 b63d bcf6 55bd
00000240: e984 49bd b646 b7bc 1aed 293d e5db 2e3d
00000250: 85d6 073d 87a4 23bc 88f4 023c 3bf8 bd3c
00000260: 4768 3c3d 6da9 853d a575 323d a11f c73b
00000270: 2c63 3d3d ca89 c13b 3105 79bb e91a 753c
00000280: 4b93 883d 9128 0cbd d709 62bd 45e2 0ebd
00000290: c931 95bd 9e51 55bd a88f 443d 9ebf b43d
000002a0: e420 0ebd e5a0 8f3d ada2 333d 5638 8bbb
000002b0: 25e3 d13d acfe 81bd 83ab 273d 6d3a 163c
000002c0: e921 c63c 0516 49bd 6cb9 923c 60f9 233d
000002d0: 3a6d 6ebd 0a73 3cbd 2703 863d 7730 903d
000002e0: 2b09 a53c 930a 3b3d a2d8 b2bc a458 03bd
000002f0: 69d1 153d 7b9f 613d 61b2 e0bc ced2 be39
00000300: a0f9 fcbb e269 0abb dbc4 d5bc af3b b83c
00000310: 9f37 3c3d bdd6 cb3d 3ae3 923d a706 2abd
00000320: 3eb9 50bd 6096 30bd 082c cf3d d4a7 d4bc
00000330: ee69 c13d d947 0cbc 99a3 a2bd c629 8c3d
00000340: 0bac 2fbc 3b25 50bd 56c9 943d 2808 99bd
00000350: bf4c b13d f87c 9b3d b53a 833c 6283 e6bc
00000360: 1bc0 2d3a 5822 62bd dc56 c63d 57af 843c
00000370: 8592 49bd 2e2b 84bd 06c3 66bd 0b4b b23d
00000380: 36ba cf3d 028c a33d 027f 4d3d 5237 283d
00000390: 080a 193d e21d b4ba 535d 6abd 7b66 73bb
000003a0: 4a64 eb3c b098 723d 165f 4dbd 92d6 4bbc
000003b0: 8bdb 4c3d d01e 93bc 2f90 9a3d fdc8 593d
000003c0: 2d32 12bd 1e34 c93c 74ae febc 6bce 113d
000003d0: 6150 23bd f629 91bd b4c7 b03c a4df 043d
000003e0: 05f2 883d d38a f93d 754f 8d3d 0a9e 8dbd
000003f0: c817 1abd 0dc3 273d 62da b43a c0c6 9b3c

fc.weight f4 [1, 128]
0.08878308 0.132704 -0.07780295 -0.13389099 -0.074161075 -0.039784547 -0.020460326 -0.13903621
-0.017373502 0.019550355 -0.070558526 0.12172749 -0.11145249 0.103770584 0.016833277 0.006962923
-0.06302814 0.06419323 0.045054432 0.036793556 -0.02545064 -0.005342861 0.003900997 -0.020071948
0.029967478 -0.14691773 0.025072586 -0.0370716 -0.047441836 0.07579229 -0.0014043485 0.031755812
-0.07445021 -0.10445794 0.03168552 0.03968996 0.06544991 0.037245598 0.0033771151 -0.107142024
0.0011526931 0.13532075 -0.041176397 -0.024018425 0.06796645 0.08283596 0.0751697 -0.109732464
-0.028809875 -0.09441819 0.14492647 -0.06348312 -0.0366978 0.05969554 0.0013902639 -0.08077571
0.035220176 0.10567781 0.14675699 -0.017232766 -0.042244077 0.027231222 0.1425376 -0.037296835
0.08809522 0.05943218 -0.08259234 0.19236614 -0.032230936 -0.07164159 -0.032334127 0.07210244
-0.15361808 -0.11955231 0.03601552 -0.10179251 0.089138515 -0.08904907 -0.017168498 -0.022245072
0.047838733 -0.0880111 -0.08868132 -0.039907806 0.03208912 0.07036047 -0.081537664 -0.15852211
-0.08551006 -0.019140154 -0.04365542 -0.096571594 0.12850228 0.12127842 -0.123004206 -0.121969365
0.10315992 0.047561225 -0.11500304 0.0977433 0.0706931 0.030790595 0.07398882 -0.08133833
-0.106758066 -0.13155334 -0.13301486 -0.091866165 0.053107485 0.116081744 -0.07930398 0.15209454
-0.079021096 0.023491759 0.033166077 -0.021017151 0.10431006 0.076269716 0.13985223 0.034697134
-0.073372155 0.106877685 0.0029039362 -0.09581566 0.054439403 0.11090053 0.079150945 -0.060780816
00000000: e7d3 b53d 8fe3 073e 2757 9fbd b81a 09be
00000010: c3e1 97bd 1ff5 22bd 6a9c a7bc 825f 0ebe
00000020: e052 8ebc 1128 a03c fd80 90bd 434c f93d
00000030: 3441 e4bd ac85 d43d f1e5 893c 3b29 e43b
00000040: e614 81bd bd77 833d ff8a 383d d7b4 163d
00000050: dc7d d0bc 2b13 afbb dfa7 7f3b ed6d a4bc
00000060: 5b7e f53c 9a71 16be 0665 cd3c 64d8 17bd
00000070: 5f52 42bd fd38 9b3d 1e12 b8ba 6212 023d
00000080: 5a79 98bd 0bee d5bd adc8 013d f191 223d
00000090: 9a0a 863d d78e 183d 9752 5d3b 476d dbbd
000000a0: f615 973a 8691 0a3e 95a8 28bd 4ac2 c4bc
000000b0: fe31 8b3d e6a5 a93d 92f2 993d 6abb e0bd
000000c0: b002 ecbc 535e c1bd 9b67 143e 7003 82bd
000000d0: 6f50 16bd 5083 743d 8439 b63a bc6d a5bd
000000e0: 0843 103d 9c6d d83d 7747 163e bb2b 8dbc
000000f0: 2008 2dbd 0314 df3c 60f5 113e 91c4 18bd
00000100: 446b b43d 286f 733d 2c26 a9bd a1fb 443e
00000110: 9604 04bd d3b8 92bd ca70 04bd 72aa 933d
00000120: 0f4e 1dbe d7d7 f4bd 0385 133d 9778 d0bd
00000130: 418e b63d 5c5f b6bd f3a4 8cbc 4c3b b6bc
00000140: 8cf2 433d 2a3f b4bd 8d9e b5bd 5e76 23bd
00000150: e26f 033d 2619 903d 38fd a6bd 9f53 22be
00000160: e61f afbd d0cb 9cbc 07d0 32bd 54c7 c5bd
00000170: 1a96 033e d260 f83d a1e9 fbbd 13cb f9bd
00000180: 8245 d33d 8fcf 423d b786 ebbd a42d c83d
00000190: 8bc7 903d 8f3c fc3c 7387 973d b694 a6bd
000001a0: f9a3 dabd ebb5 06be 0c35 08be 5424 bcbd
000001b0: 3c87 593d 44bc ed3d 206a a2bd acbe 1b3e
000001c0: d0d5 a1bd ca71 c03c 27d9 073d 292c acbc
000001d0: 83a0 d53d 4c33 9c3d 6c35 0f3e 951e 0e3d
000001e0: 2444 96bd b0e2 da3d f74f 3e3b 003b c4bd
000001f0: dafb 5e3d d11f e33d e419 a23d 4ef5 78bd
