models/WTW model.pth (torch, 799650 bytes, 9 tensors)

lstm.weight_ih_l0 f4 [512, 1]
000000 e8 ca 80 bd 24 97 62 bd 44 3d ce bd da f5 54 3d
       -0.06288701 -0.05531992 -0.10070279 0.051992275
000010 7f 8e 6e 3b 40 56 98 bc 20 de d7 3d 67 ad 6b 3d
       0.0036400852 -0.018595815 0.10540414 0.057538416
000020 d1 d1 a6 3b fa a2 1e bd fa 3d 37 bc f2 e5 6f bd
       0.00509093 -0.038729645 -0.01118421 -0.058568902
000030 96 e9 be bc 75 f3 05 3d cd 4b b1 bd 62 46 a4 3d
       -0.023304742 0.03270288 -0.08657036 0.08021237
000040 cd e8 89 3d 0a 5e 19 3d a1 83 09 bd 78 62 98 3d
       0.06733856 0.0374432 -0.033572797 0.074406564
000050 d2 92 2e 3d 6b 31 b7 3d e5 0c a4 3a 8d e8 0f bd
       0.042620488 0.089449726 0.001251605 -0.035133887
000060 69 29 01 3d b1 26 2c 3c 6c 2c 73 3d ab 9c 90 bc
       0.031533632 0.010507272 0.059368536 -0.01765283
000070 45 71 19 bd c1 1b b4 3d f1 6f 52 3c b4 f1 a8 3d
       -0.037461538 0.08794356 0.012844072 0.08249226
000080 a6 50 68 3c 05 de 41 3d 20 32 c9 bd 08 93 59 3c
       0.014179384 0.047330875 -0.09824014 0.013279684
000090 fc 60 a8 bd d1 5c c9 3d b3 3f e0 3d 17 20 5c bd
       -0.08221623 0.098321564 0.1094965 -0.05374154
0000a0 22 c9 8f 3e c8 98 38 bd 14 38 0e bd c2 f6 cf 3d
       0.2808314 -0.04506758 -0.03472145 0.10154487
0000b0 14 72 a3 3c 91 4e 0b 3e a1 49 3c 3d 89 84 ec 3d
       0.019951858 0.1360419 0.045968655 0.115487166
0000c0 b0 10 99 3d 46 e9 5a 3b ff 77 c7 3c 46 22 98 3d
       0.07473886 0.0033403202 0.02434921 0.07428412
0000d0 ae 15 d1 3b 68 8b 39 3d 76 64 47 bd 5d 7f 94 bd
       0.0063807582 0.045298964 -0.04867979 -0.07250855
0000e0 15 83 9b bd 0f 55 4b bc b9 a2 83 3d c8 03 97 3b
       -0.07593361 -0.012410416 0.06427521 0.004608605
0000f0 b7 19 13 3d 5a 3b 23 3d bb af ba ba 49 47 15 bd
       0.035913195 0.039851524 -0.0014243046 -0.036444936
000100 0b 0c 2e 3b a7 6b 80 bd 24 7f 92 bc aa 04 8f 3d
       0.002655747 -0.06270533 -0.017882891 0.069833115
000110 4c ca a9 3c 67 2b b1 bd 0f ab d3 3c 82 5a f9 bc
       0.020726345 -0.086508565 0.025838403 -0.030438665
000120 29 de 38 3d b0 59 c6 3d 1c 4a a2 bc ba d8 99 3d
       0.045133743 0.09685075 -0.019810729 0.075120404
000130 83 cc 3f bc 0a 23 40 bd 75 d1 3b 3b e3 62 f3 bc
       -0.011706474 -0.046908416 0.0028658782 -0.029710239
000140 25 e4 f4 bc 7d d6 5e bd ff 1c 8c 3d 09 fe 64 3d
       -0.029893944 -0.05440377 0.06841468 0.05590633
000150 6e 8e 8e bc b9 8d 71 bd cd d6 8b 3d 13 5c 9f bc
       -0.0174019 -0.058973048 0.068280794 -0.019453084
000160 6b c6 9b 3d 49 9b b4 b9 89 f1 64 3d 59 69 98 bd
       0.076062046 -0.00034447972 0.05589441 -0.074419685
000170 68 d0 fe bc 54 a1 11 3d df e4 90 3b e0 12 61 bd
       -0.031105235 0.035554245 0.004421815 -0.05494964
000180 94 f3 b2 3d e6 b4 f1 3d 80 74 06 3e f3 98 4e 3d
       0.08737865 0.11802082 0.13130379 0.050438832
000190 3d a4 e8 3c bb be 72 bd fa a5 9f 3d 6e b0 aa bd
       0.028398627 -0.059263926 0.077953294 -0.083344325
0001a0 aa 40 c2 3d 6c 95 8b ba ee 8a f9 bc 3e 2a 63 bd
       0.0948499 -0.001064939 -0.030461755 -0.055460207
0001b0 c1 19 ce bc 62 b6 24 3d ee 40 34 3d fa bc cb 3d
       -0.025158765 0.040212996 0.044007234 0.09948154
0001c0 a1 f0 cd 3c 23 e4 db 3d 55 04 4f bd dc 34 bc bd
       0.025139155 0.10736873 -0.05054124 -0.091897696
0001d0 79 56 2e 3d 56 69 c7 3d 9a 4e f3 3a 86 e8 b3 bd
       0.042562936 0.09736888 0.0018562854 -0.08784585
0001e0 dd 33 96 bc e9 08 0b 3e ff 9f 3a bd a8 21 50 3d
       -0.018335277 0.13577618 -0.04556274 0.050813347
0001f0 69 c4 fe 3c 11 1f b6 3c c9 71 1a bd d7 13 2c bd
       0.031099515 0.02223161 -0.03770617 -0.04201111
000200 23 43 5c 3d df 0b b1 bb 07 d4 cd bd ec 41 70 3d
       0.053774964 -0.0054030265 -0.10050207 0.058656618
000210 d2 7e 83 3c 4f bd 1a bd 1d f5 f0 3d 70 e0 f9 3d
       0.016051684 -0.037778195 0.11765502 0.12201011
000220 aa 4e 8d 3d 36 4b 06 bd 66 9e 0b 3d 7f 2d df bd
       0.068997696 -0.03278657 0.034086607 -0.108973496
000230 87 1f 98 3d 7f 7c 48 bd 47 a9 25 3d 7d 38 e0 3d
       0.07427888 -0.048946854 0.04044464 0.10948274
000240 62 ef ee 3d 52 3c a5 3c 96 e9 5a 3c 49 1a 8e 3d
       0.116667524 0.020170365 0.013361355 0.06938607
000250 80 66 ec 3c a2 d7 f3 3d cd 51 c4 3d 11 97 a6 bd
       0.02885747 0.11906363 0.09585915 -0.081342824
000260 a6 df fa bc 13 24 af 3c ff 05 3e 3c d5 57 b1 bd
       -0.030624222 0.021379506 0.011598109 -0.08659331
000270 ba 47 1e bd da 09 d6 3d 0a c9 3c bd 2c f1 fc 3c
       -0.038642623 0.10451098 -0.046090163 0.030876718
000280 34 bd e2 3c 88 53 e9 bc c9 91 3a bd 86 4e a2 3c
       0.02767811 -0.028482214 -0.045549188 0.019812834
000290 ee 2b b7 bd 47 ff c5 3c 0a 2d ef 3d 3e 11 9b 3c
       -0.08943926 0.024169577 0.116785124 0.01892912
0002a0 61 e7 80 3e b1 11 2f 3d 79 cd 80 3b c3 75 ce 3d
       0.25176528 0.04274148 0.0039307442 0.10081055
0002b0 d8 98 a0 3d f3 cd 11 3c 3d 3d aa 3d 7d 1e 6c bb
       0.07841653 0.0088992 0.083124615 -0.0036028915
0002c0 ab 1f c9 bc 03 05 0d 3d 54 e4 93 bc 69 17 4d 3d
       -0.024551233 0.034428608 -0.018053211 0.050071154
0002d0 05 15 12 bd aa 18 09 bd 42 7f f8 3b df 24 9a bd
       -0.035664577 -0.033470787 0.0075835297 -0.07526564
0002e0 4f 4a 81 bd 9d 52 92 3d 46 08 7d bd 3f e7 0b bd
       -0.06313001 0.071446635 -0.06177547 -0.03415608
0002f0 cb c6 78 bb ef 99 08 3d a8 b8 20 3d a7 1b ac 3d
       -0.0037960287 0.033349928 0.039238602 0.08403712
000300 c5 c8 8c bc 16 29 25 bd 09 45 5c 3d 6b d6 50 3d
       -0.017185578 -0.040322386 0.053776775 0.050985735
000310 1e 4d 85 bd 4e 53 5e 3d de e6 40 bc e0 dc 2e be
       -0.065088496 0.054278664 -0.011773793 -0.17076445
000320 bd 5b 37 3d 91 4b b2 3d be ae 0f bd a5 80 19 bd
       0.044765223 0.087058194 -0.035078757 -0.0374762
000330 83 1f d2 38 33 4f b9 bd 79 62 b3 3b 10 41 cc 3d
       0.0001001945 -0.09048309 0.0054743853 0.09973347
000340 2f 22 bb 3c dc fc 51 bd a6 dd e3 3d 53 b5 90 3d
       0.022843448 -0.051266536 0.111262605 0.07065835
000350 70 09 aa 3c 3d 16 c3 bd d8 48 72 3c 34 b9 8b bc
       0.020756453 -0.09525726 0.014787875 -0.017056085
000360 ae bc b8 3d 69 00 c5 3c 95 c1 08 3d b6 09 23 3d
       0.09020363 0.024048047 0.03338774 0.039804183
000370 33 de 96 bd 51 fb b5 3d 5b cc d3 bc 29 e4 ba 3c
       -0.073666 0.088858254 -0.02585428 0.022813873
000380 b9 83 c3 bb 09 84 30 bd db 36 1f bd 66 c6 08 3d
       -0.0059666303 -0.04309467 -0.038870674 0.033392332
000390 fe dc 34 bd ae c3 ef bc aa 80 f6 3c 4f 3e fc bc
       -0.044156067 -0.029268112 0.030090649 -0.03079143
0003a0 c1 13 ac 3d ae 99 69 3c 6d 5e 57 bb ba fc bf bd
       0.08402205 0.0142578315 -0.0032862679 -0.09374376
0003b0 7e a1 5c bc e4 5a c1 3d 98 cc a6 bc 74 be e3 bc
       -0.013466237 0.09441164 -0.02036123 -0.027800776
0003c0 9a 96 6e 3b 0c b0 75 3c 64 ca 08 3d 62 5a 32 3d
       0.0036405683 0.014995586 0.03339614 0.043543227
0003d0 4f 60 33 3d ae 00 8c bc b9 bf eb bc cc 43 a4 bd
       0.04379302 -0.017090168 -0.028777944 -0.08020744
0003e0 a5 95 5f 3d 00 ce c7 3d 69 64 dd 3c 6e c2 06 bb
       0.05458607 0.09756088 0.027025418 -0.0020562666
0003f0 1d 7a 9c bd 86 8d ef 3c b4 b6 fe bc 8a 78 8e bd
       -0.07640479 0.029242288 -0.031092979 -0.06956585

lstm.weight_hh_l0 f4 [512, 128]
000000 13 9a 05 bd e9 32 a0 3c 33 16 5b 3d aa fd cd 3c
       -0.03261764 0.019555526 0.053487968 0.02514537
000010 05 67 2f bc 6c 1e 01 bb 89 d4 b8 bd b8 24 55 bd
       -0.010705714 -0.001970197 -0.09024913 -0.05203697
000020 40 4d fb bc e1 d8 b0 3c e4 ce b4 bc 95 59 9e bc
       -0.030676484 0.02158779 -0.02207131 -0.019329825
000030 84 e8 43 bd 67 50 cc 3d 8c 13 50 3d a6 2e ae 3d
       -0.047829166 0.09976273 0.05079989 0.08504991
000040 d5 f8 5d bd c6 b6 d1 3d 03 d0 e8 bc ec 6d c4 bc
       -0.054192383 0.102399394 -0.0284195 -0.023978196
000050 14 1b 7f bd 81 05 a9 3d 1e 07 f9 bb 5c c6 5c bd
       -0.062281683 0.08253003 -0.0075997254 -0.053900108
000060 75 84 27 bd 0a 53 a5 bd a5 37 68 3c 3e 4e b4 bc
       -0.040897805 -0.08072479 0.014173423 -0.022009965
000070 ea e8 8b 3d 6e 6f 20 3d c8 01 25 bd 0c 26 5a 3b
       0.06831534 0.039168768 -0.0402849 0.0033286838
000080 a3 09 5c bc 87 d2 7e bd e1 b3 d6 bd fb c6 5e bd
       -0.013430032 -0.062212493 -0.10483528 -0.05438898
000090 a5 76 84 3d 2a b2 44 3c da 6b ba bc 05 7a 44 bd
       0.06467942 0.012005368 -0.022756506 -0.04796793
0000a0 ba 9e 21 be 5e 19 21 3d f4 3d 07 bc a8 b4 98 3c
       -0.15783206 0.039330833 -0.008254517 0.018640831
0000b0 5d 61 a3 3d 53 96 60 3d 38 60 4f bd 68 6f fb 3c
       0.07977555 0.05483086 -0.05062887 0.030692771
0000c0 05 67 6d 3d 62 45 75 bc dd f0 89 bb 96 a4 ee bc
       0.057959575 -0.014970155 -0.0042096213 -0.029131215
0000d0 0b 8a a9 38 c5 a2 6e 3c 27 5c 2a 3b 7f fc ab bd
       8.0842605e-05 0.0145651745 0.0025994868 -0.08397769
0000e0 39 ab ac bd 6d 3f af bc 49 03 21 bd fb 72 68 bc
       -0.08431096 -0.021392548 -0.039309774 -0.01418757
0000f0 51 10 7a bd b4 27 63 bd 52 0d 7a bd 10 44 78 bd
       -0.061050717 -0.055457786 -0.06104786 -0.060611784
000100 78 0d 74 bd e0 58 ad bb ba d1 a3 bd 87 52 1c 3d
       -0.059583157 -0.0052901357 -0.079989865 0.03816464
000110 63 18 aa 3c 9e e1 8d bd 78 2e 87 bb d8 13 da 3b
       0.020763582 -0.06927799 -0.0041254126 0.0066551976
000120 ad c0 69 bc 0d 12 2e bd 24 b2 c2 bd 3c 65 b3 bd
       -0.014267129 -0.042497683 -0.09506634 -0.08759543
000130 70 3d 88 3c af 67 f3 bc 91 6c 8a 3d 8f fa ad 3d
       0.016630858 -0.029712526 0.06758989 0.08495056
000140 e1 05 d6 3d 1a 46 4e 3d 83 ae 1a 3d 8e 95 8c 3d
       0.1045034 0.050359823 0.037764084 0.06864463
000150 20 a9 85 bd f7 d2 48 3d ce e2 ca bd ce 9c 19 3d
       -0.06526399 0.049029317 -0.09906541 0.037503056
000160 48 cd 15 bd 4a f6 ba bc 17 91 62 3d 43 12 a6 bc
       -0.036572725 -0.022822518 0.05531415 -0.02027238
000170 97 cb cf bd 1d 72 aa bd ca 27 3f 3d 08 18 20 bc
       -0.101462536 -0.08322547 0.046668805 -0.0097713545
000180 5c 96 bd 3d c1 99 90 3b b8 40 87 bd 16 ef 4c bd
       0.092571944 0.00441286 -0.06604141 -0.050032698
000190 4a e0 78 bd 3e 13 69 bd ea c3 23 bd df 8d 6c bd
       -0.060760774 -0.056903116 -0.03998176 -0.057752486
0001a0 85 3a 60 3d d7 a9 96 bd 2e 29 54 3d dd 3d 92 bd
       0.05474331 -0.07356613 0.051797085 -0.07140706
0001b0 3a a2 06 3d 3f ba 98 3d 3a b2 52 3d 14 c0 9e bc
       0.032869555 0.074573986 0.0514395 -0.0193787
0001c0 1b a3 73 bd dd 0c be 3c 40 de ff 3b 96 ee 8d 3d
       -0.05948172 0.023199493 0.0078084767 0.06930272
0001d0 53 54 ad 3d b1 58 c7 3d 06 ca 88 3c af 98 84 3d
       0.08463349 0.097337134 0.016697895 0.064744346
0001e0 b2 7e 00 3b 61 fb 3a be 25 1a c7 bd 4b 93 c6 bc
       0.0019606766 -0.18259956 -0.097217835 -0.024240157
0001f0 98 b6 99 3d a0 e5 5a bb b9 47 ef 3c 3b f9 b6 3c
       0.0750553 -0.0033401027 0.029209005 0.02233564
000200 77 04 89 bd 72 70 71 3d 14 29 d3 bc db d7 2e 3d
       -0.06690305 0.058945127 -0.025776424 0.042686325
000210 aa a2 85 bc ad ee 5e 3b 2e 8a fa 3c 7a 97 2e 3a
       -0.016312916 0.0034016774 0.030583467 0.0006660145
000220 a9 ca 2e 3d 13 0f 24 bd f0 84 0a 3d 17 b7 94 3d
       0.04267374 -0.04005344 0.033818185 0.07261484
000230 9f f0 b5 bb ba 2c 5b bd e7 35 93 bd 68 95 a1 bd
       -0.005552366 -0.05350945 -0.071880154 -0.07889825
000240 95 e0 d9 bb cd 16 8a bb 41 17 06 3d 9a 20 87 3d
       -0.0066490867 -0.004214144 0.03273702 0.06598015
000250 29 fb 59 3d 04 9a 94 bc dd 27 c6 bc ba 0f 5c 3d
       0.05321804 -0.018139847 -0.02418893 0.053725936
000260 90 c6 75 3d 6a 64 b3 bd ce c1 ba 3d c8 9c 82 bd
       0.060003817 -0.08759387 0.091189966 -0.0637756
000270 c4 bd 5e bc 7a ce c8 bc 41 43 a3 3d 46 2e f4 bc
       -0.013595048 -0.024512518 0.07971812 -0.029807221
000280 61 7e c2 bd cc ee 9a 3d 67 e6 3d 3d 70 a1 18 3d
       -0.09496761 0.07565078 0.046362307 0.037263334
000290 c9 4e 84 3d 58 15 7a 3c ab 4f 66 bd 0a 5c 27 3d
       0.064603396 0.015263878 -0.05622832 0.04085926
0002a0 aa 40 4a bc a7 e7 71 3d be a2 05 bd e9 a4 5f 3d
       -0.012344519 0.05905881 -0.032625906 0.05460063
0002b0 67 ab 18 3a b2 52 8d bd 87 4a 01 bd b3 46 74 bc
       0.0005823881 -0.069005385 -0.031565215 -0.014909434
0002c0 cf 5e 60 3d 3f 4e b6 3d 87 99 ad 3d 6f ad 92 3d
       0.054777917 0.08901643 0.08476549 0.07161986
0002d0 89 17 dc 3c d4 78 f4 3c d0 e0 ea 3c 4d 08 e2 3c
       0.026866691 0.029842772 0.028671652 0.027591849
0002e0 fd 70 09 3b 88 ba b6 bb 45 d3 44 3d 05 37 a9 bc
       0.0020971887 -0.0055764355 0.048053045 -0.020656118
0002f0 dc de 35 3c e3 a4 98 bd 51 b1 95 bd 5d f6 1c 3d
       0.011100497 -0.07453325 -0.07309211 0.038320888
000300 ad c0 0f bd c5 81 b6 bb 8e 83 26 bd 36 f9 08 bb
       -0.03509586 -0.005569669 -0.040652804 -0.0020900494
000310 0d dc 00 3d a6 5f 5e 3d bc 76 76 3d ee 08 80 3d
       0.031459857 0.054290436 0.060171828 0.06251703
000320 26 21 49 3d 8c 0f ab bd c6 68 b0 3d 87 eb 96 3d
       0.04910388 -0.08352575 0.08613734 0.07369142
000330 9e 6d 8c bd 06 cf 50 bd 93 cf 8c bd ca e7 8c bd
       -0.06856845 -0.050978683 -0.06875529 -0.06880148
000340 45 3d 74 bd 52 06 1d bd 01 eb bb bd 54 b9 1e bd
       -0.059628744 -0.038336106 -0.09175683 -0.03875096
000350 78 b2 9a 3d d3 5f 8f 3c d8 36 6f 3d c5 33 86 bc
       0.075535715 0.017501747 0.058401912 -0.016382108
000360 d4 8c 4d 3d f8 84 ab 3d 66 bb b5 3a 70 3c 3f bd
       0.050183132 0.08374971 0.0013865053 -0.046688497
000370 c6 71 2e bd 60 6b 94 3d 1b da 0c 3c 3e c5 cc 3b
       -0.04258897 0.07247043 0.008596922 0.006249099
000380 57 09 79 bd b0 d8 93 bd e4 7e 00 3d b7 62 55 3d
       -0.060799923 -0.07219064 0.031371012 0.052096095
000390 39 15 5f 3d 92 3b f5 bc 62 d7 ee bc 5c c2 7d bd
       0.0544636 -0.029935632 -0.029155437 -0.061952934
0003a0 94 92 8d bd 43 8f 67 bd 91 b9 fe bc 60 86 71 bb
       -0.06912723 -0.05653311 -0.031094344 -0.0036853775
0003b0 99 ff e2 bc 22 1a 95 3d 99 84 fa 3c 13 f0 85 3d
       -0.02770977 0.07280375 0.030580806 0.06539931
0003c0 00 a6 d4 3b 0a 62 44 bd dc d8 8d bd a1 d5 8d bd
       0.0064895153 -0.04794506 -0.06926128 -0.06925512
0003d0 0a 27 8a bd ca 19 60 3d 41 e0 9c 3c 58 8f 20 bd
       -0.06745727 0.054712094 0.019149901 -0.039199203
0003e0 06 78 3b bd 74 e8 72 3c 94 d2 cc 3b ec 12 6c bc
       -0.04576876 0.014825929 0.006250689 -0.014408808
0003f0 a3 d9 87 bc 94 47 77 3d 1e 53 a1 bd 84 1b 81 bd
       -0.01658327 0.060370997 -0.078771815 -0.06304076

lstm.bias_ih_l0 f4 [512]
000000 0c dd 9b 3d 91 d0 94 bd 85 25 c7 3d 0f 8b 6f bd
       0.07610521 -0.072663434 0.09723953 -0.058482226
000010 51 e9 a5 3c ad 2e 9d 3d fd 8b 46 3d 7b 69 47 bd
       0.020252855 0.07674918 0.048473347 -0.04868458
000020 6c 9a 86 bd b2 97 85 bd fa 12 b8 bc a4 2a eb bc
       -0.065724224 -0.06523074 -0.022469986 -0.028706856
000030 ab f0 08 bd 8b fd ca bc ec d1 77 3b 3f 90 87 bd
       -0.033432644 -0.024779102 0.0037814332 -0.0661931
000040 98 bf b8 3d a4 a7 28 3d 8b 8b 99 3d d4 71 37 3d
       0.090209186 0.0411755 0.07497319 0.04478629
000050 d7 e5 74 3c 62 bf 13 bd ec 7e e4 3b 2b d0 3c 3e
       0.014947376 -0.03607119 0.006973138 0.18438785
000060 eb f4 d1 3c ad c8 39 3c 14 e4 a5 bd 7e 59 92 3d
       0.025629481 0.011339349 -0.08100143 0.071459755
000070 12 25 d9 3d d5 fd 73 3d 89 d6 7c 3d 11 b4 c9 3d
       0.10602774 0.059568245 0.061728034 0.09848798
000080 5e c1 f5 3b 48 09 06 bc d6 10 05 3d c4 28 4b 3d
       0.007499858 -0.008180924 0.03248676 0.049599424
000090 65 bf f4 3c bb a1 2f 3d e8 97 7f bd 83 85 4d bd
       0.02987642 0.042878848 -0.06240073 -0.050176155
0000a0 81 7f 53 3e 92 c0 89 3d 99 9f 77 3d 06 ba fd 3c
       0.20654108 0.06726183 0.06045494 0.030972492
0000b0 fb cc 8b 3a 96 1b 2c 3d 22 10 b9 3d 88 0b e6 bc
       0.0010665947 0.042018496 0.0903628 -0.02808167
0000c0 33 65 50 bd d7 99 86 3d 0a eb 2e 3d e0 59 d4 3d
       -0.05087776 0.06572311 0.04270462 0.10368705
0000d0 64 2a c0 3d fd 7d 39 bd 38 cf c4 3d 96 65 63 bd
       0.09383085 -0.045286167 0.09609836 -0.0555168
0000e0 55 0f 17 bd 05 e3 84 bb a4 93 70 3c 80 9b e7 ba
       -0.036879856 -0.004055383 0.014683638 -0.0017670244
0000f0 bb 4c f4 3c fe 64 4a b9 f0 ba 5e bd e5 5e 2a 3d
       0.029821744 -0.00019301844 -0.054377496 0.041594405
000100 9e a2 a6 3d ac cc 1d 3e b3 bf fe 3c f9 bb d0 3d
       0.081364855 0.15410107 0.031097269 0.10192103
000110 d8 2b b1 3d 83 5a 24 bd 92 a1 9b 3c 49 92 fb 3d
       0.08650941 -0.04012538 0.018997941 0.12283761
000120 bb 91 95 bd ef 0e dd 3d eb 98 8c 3d b3 81 c0 3c
       -0.073031865 0.10793864 0.06865104 0.023499345
000130 e4 1a 1d 3d fd cc d9 3b 4b c8 1f 3d 6b ed a9 3c
       0.038355723 0.006646751 0.039009374 0.020743093
000140 be a1 a2 3d 00 c1 a5 3b aa c9 8c 3e b3 a7 57 3d
       0.07941006 0.005058408 0.27497607 0.052650165
000150 d4 bd 8a bc 27 98 8f 3d f0 6f cb bc db 30 ae 3b
       -0.01693622 0.07011443 -0.02483365 0.0053158826
000160 bb bf bd 3d 6e 18 6a bc f1 f8 ad 3d 56 7e 80 3d
       0.09265085 -0.014288051 0.084947474 0.06274097
000170 7f 4c 8d 3d f9 64 0c bd c1 80 dc bc 55 5f e8 3c
       0.06899356 -0.034275983 -0.026916863 0.02836577
000180 81 e2 a0 3d e0 17 73 bd 54 12 ad 3d 56 81 7b 3d
       0.07855702 -0.05934894 0.084507614 0.06140264
000190 b6 87 bb 3b 67 66 6c bd a0 f0 1c bc 20 4a 47 3d
       0.005722965 -0.057714846 -0.009578854 0.048654675
0001a0 4f ce b0 3c c0 a8 01 3d 14 6d a8 3b 4b e4 40 3d
       0.02158275 0.031655073 0.0051399563 0.047092717
0001b0 f6 a8 3e 3d 29 68 ef 3c 65 ee 3b 3d b4 ed 54 bd
       0.046547852 0.029224472 0.045881648 -0.051984504
0001c0 23 bb 54 bd 82 08 b1 3d f1 52 b1 bb 94 dc 0c 3d
       -0.05193628 0.08644201 -0.0054114987 0.034390047
0001d0 71 1d da 3d 67 44 ba bb 1c 9c c9 bc c5 e6 81 bd
       0.10650147 -0.0056844237 -0.024610572 -0.06342844
0001e0 fd 32 00 3c 0a 43 3c 3e 80 f3 8c bd d1 04 33 3d
       0.007824657 0.18384948 -0.068823814 0.043705765
0001f0 83 94 f7 3c 1b a5 55 3d 3f 28 0a bd 26 4c 7e 3d
       0.030222183 0.05215941 -0.033729788 0.06208434
000200 a2 b8 98 3c dc 67 df 3c 01 d0 92 3c 58 79 cc 3c
       0.018642727 0.027271204 0.01792145 0.024960205
000210 ca 59 90 bd 7a 84 83 3d e6 d4 5e bd 66 d9 77 bb
       -0.07048376 0.06421752 -0.054402255 -0.0037818789
000220 79 77 2a bd 11 58 63 bd 0a 8a aa 39 20 a8 40 ba
       -0.041617844 -0.05550391 0.00032527774 -0.00073492713
000230 a7 73 47 3d 92 d3 6f 3d 86 63 d4 bc 56 0d 83 3d
       0.04869428 0.05855138 -0.025926363 0.06399028
000240 a8 05 7a 3d 56 ea c8 3d aa 4c 94 bd a5 b0 fb 3c
       0.06104055 0.09810321 -0.07241185 0.03072388
000250 22 fc 34 bd 85 28 68 bd 62 e0 42 bd ff 5b 9f bd
       -0.044185765 -0.056679267 -0.04757727 -0.07781219
000260 dc fe 81 bb a3 a2 61 3c 99 4b 45 3d b4 b3 57 bc
       -0.003967149 0.013771686 0.0481678 -0.013165403
000270 ce a4 86 bd db be 0d 3d 3f f9 bd 3d 72 9a 6e 3c
       -0.06574403 0.034605842 0.092760555 0.01456319
000280 93 eb b2 bc e3 c2 4d 3d 28 68 96 3d 03 ad a4 3d
       -0.021840846 0.050234687 0.07344085 0.08040812
000290 77 74 d7 bc 47 48 bc bc 6b 3e 8c 3d d6 21 99 3d
       -0.026300652 -0.022983683 0.06847843 0.07477157
0002a0 05 11 ae bd ed c7 1a bd a0 68 36 3d f8 38 ff bc
       -0.0849934 -0.03778832 0.044533372 -0.031155095
0002b0 d4 b7 a4 bd 1e 99 93 bd 3d af ae 3d 83 44 28 3d
       -0.08042875 -0.07206939 0.08529518 0.041080963
0002c0 d3 f3 0d 3d 6c cb 91 3d 06 86 ac 3d a9 de 04 3d
       0.034656357 0.07118878 0.084240004 0.032438908
0002d0 3a 56 39 3d 9c f9 05 3d b4 c3 8a bd ee d4 87 bd
       0.045248248 0.03270875 -0.06775609 -0.0663241
0002e0 09 c1 94 bd a9 6f 11 3d 11 f7 bc bd d0 2a 76 bd
       -0.07263381 0.035506878 -0.09226812 -0.060099423
0002f0 06 56 7c bd 8f 40 21 bd d4 c5 91 bd be 94 90 bc
       -0.061605476 -0.03936821 -0.07117811 -0.01764905
000300 09 02 1d 3c 52 73 62 3c f5 da 3a 3d 25 4a 11 3d
       0.009583005 0.01382144 0.04561897 0.0354711
000310 eb 4e 78 3d 35 52 a9 3d 03 dd 7a 3d 89 36 4a 3d
       0.060622137 0.08267633 0.06124593 0.049368415
000320 c7 9f ab 3d 97 ef 4c 3d 71 bd bd bd 79 c9 11 bd
       0.083800845 0.05003318 -0.09264649 -0.03559253
000330 2d 1d c9 3b 30 b7 62 3d fd fa 8e bd d8 3e 57 3d
       0.006137511 0.055350482 -0.06981466 0.052550167
000340 03 05 85 bd e9 ec 59 3d 41 c8 e0 bd 6e 7f a6 3d
       -0.064950965 0.05320445 -0.109756954 0.08129774
000350 fe c3 06 bd 4c 37 9e bd 03 a6 8f bd 92 d9 62 3c
       -0.032901756 -0.07725391 -0.07014086 0.013845818
000360 60 ce 68 3d 8d 77 a2 bd b7 e6 e0 bc ed 8c 78 bd
       0.05683744 -0.07932959 -0.027453763 -0.060681272
000370 3a ac e4 ba 97 5b 46 3d cb a0 07 3d 7d a1 40 3d
       -0.0017446347 0.04842719 0.03311233 0.047029007
000380 c2 74 50 bd 67 10 c5 bc 54 f7 7e 3d 86 d2 b8 3d
       -0.0508926 -0.024055673 0.06224759 0.09024529
000390 8d bb c0 bc 7f a4 69 bc 74 47 17 3e e0 b6 3c bc
       -0.023526931 -0.01426041 0.14773351 -0.01151821
0003a0 c6 0d 85 3d 5e 8d 08 bd f7 46 18 bd dc fe 7c 3d
       0.06496768 -0.033337943 -0.037177052 0.06176649
0003b0 fd 8e 6b 3d c0 c2 8f 3d 04 c6 5b bd a3 cc 26 3d
       0.05750941 0.070195675 -0.05365564 0.0407225
0003c0 75 1f 87 3a aa 8a 18 3d d2 1a 28 bd d8 fb 97 3d
       0.0010309058 0.037241615 -0.041041203 0.07421082
0003d0 df ef 8f bd f7 d9 98 3d af 5e e3 bc 73 54 29 3c
       -0.07028174 0.074634485 -0.02775511 0.010335076
0003e0 7a 06 bb 3d 92 e3 83 bd 84 f1 49 bd 87 8a d4 bc
       0.09132095 -0.0643989 -0.049302593 -0.025944961
0003f0 89 e1 6a 3d 13 3d fa bc 96 b5 12 bd 61 6f 8a 3c
       0.057343993 -0.0305467 -0.035817705 0.016898813

lstm.bias_hh_l0 f4 [512]
000000 a7 77 69 bc c1 c2 a0 3d 60 78 a9 3d 92 0f 90 3d
       -0.014249719 0.07849646 0.08274913 0.0703422
000010 37 b6 ac 3d 49 45 01 3e 8b 2e 10 3d 8c 9f 04 3d
       0.08433192 0.12624086 0.035200637 0.03237872
000020 22 24 28 3d c1 98 97 bd 1a d2 af bb 69 30 95 bd
       0.041050084 -0.07402182 -0.005365622 -0.07284624
000030 63 d9 9f bd 0b d5 a7 bc d7 35 56 bb 21 fc b0 3d
       -0.07805135 -0.020487329 -0.00326859 0.0864184
000040 de 78 93 3d 20 79 c5 3a f1 06 81 bc 7d af 88 3d
       0.07200788 0.0015066005 -0.01575038 0.06674097
000050 16 41 44 bd f3 5b 96 3d fb bc cb bc 76 7f 8f 3d
       -0.047913633 0.07341757 -0.024870386 0.07006733
000060 5e 00 cb 3d 3b 1e d0 3c 79 6b 23 3d 4b 72 2e 3d
       0.099121794 0.02540504 0.039897416 0.042589467
000070 da 28 66 bc 3d 26 51 3d 8c eb 9f 3d 52 f4 9c 3b
       -0.014047826 0.051061857 0.07808599 0.0047898674
000080 49 b2 c9 3b 53 9e d7 bc 2d 5d a3 3d c0 46 ea bc
       0.0061552864 -0.026320612 0.07976756 -0.02859819
000090 80 f4 bb bc b8 cd 93 bd b1 be b6 bc 43 7a 13 3d
       -0.022943735 -0.07216972 -0.022307726 0.03600527
0000a0 11 5a 7a 3e e6 ce b9 bc d2 7f 2f bd 39 1d 3f 3d
       0.2444842 -0.022681665 -0.04284651 0.04665873
0000b0 30 30 e8 3c a3 0d 0b 3d 87 28 3b 3c ae bf 21 bc
       0.02834329 0.033948552 0.011423237 -0.00987236
0000c0 7a 7a 75 bd 09 8f 5f 3d ed 1b 9f bc 27 db b9 3d
       -0.059931256 0.05457977 -0.019422496 0.09075003
0000d0 44 19 c2 3d f4 cb a9 3d 8e 05 aa 3d f8 46 9a 3d
       0.09477475 0.08290854 0.08301841 0.075330675
0000e0 95 be 13 bd 33 00 ac 3d 0a 92 7a 3d 29 42 bd 3d
       -0.036070425 0.083984755 0.06117443 0.09241135
0000f0 f8 79 f8 3d f5 8f 7d ba 4f 93 c0 3d e4 17 c2 3c
       0.12132639 -0.00096726354 0.09403097 0.023693033
000100 d1 90 54 3d e6 3e b2 3d 8d f3 a1 3d fb 2b 59 bd
       0.05189592 0.08703403 0.07907782 -0.05302046
000110 29 68 91 bd 4e 76 ae 3c 96 81 92 3d e3 8f f2 3d
       -0.07099945 0.021296646 0.07153623 0.118438505
000120 55 cb 59 bd 4d 18 f3 3d f4 72 b8 3d 7e 8a 53 3c
       -0.05317243 0.118698694 0.090063006 0.012911437
000130 8e a5 63 3d bc d7 e6 3d ee c3 22 bd bb ce c7 3c
       0.055577807 0.11271617 -0.039737634 0.024390569
000140 4c 13 5d bd 00 2a 33 bd 43 ec 32 3e f2 06 9f 3d
       -0.05397348 -0.043741226 0.17472939 0.077649966
000150 82 4e 77 3c 3b 70 21 3e 31 d8 87 3d 1a 69 4d 3d
       0.015094401 0.15765469 0.06633032 0.05014906
000160 9a 12 71 bc 4d d7 13 3c 40 0c f0 3a 7b 76 9d bc
       -0.014713908 0.0090235 0.0018314198 -0.019221535
000170 ff bd ce 3d 9a 2c 1f bd 09 b5 41 3d 12 a7 25 bd
       0.10094833 -0.038860895 0.04729179 -0.040442534
000180 09 3d 34 3e cc 90 24 3b 4e 96 8e bc 3c 59 ed 3d
       0.17601408 0.002511072 -0.017405655 0.11589286
000190 54 b0 27 bd f9 ab ac 3d 36 ab 02 b9 38 e0 fe 3d
       -0.040939644 0.08431239 -0.00012461547 0.1244511
0001a0 c2 1c 37 bd ca 07 54 bd 91 6d 97 3d 75 b3 11 3c
       -0.04470516 -0.05176524 0.07393945 0.008892884
0001b0 49 f8 5c 3d 88 c8 eb bb 9d a7 84 bc 3a 58 88 bc
       0.05394772 -0.007195536 -0.016193205 -0.016643632
0001c0 29 cc ab bc f7 f8 fa 3b 28 01 c8 3d 4a 0c 65 3d
       -0.020971375 0.0076590735 0.097658455 0.055919923
0001d0 fd d7 ac 3d 0e 33 a6 3d 6b e8 06 3e dc ee 3d 3d
       0.08439634 0.08115207 0.13174598 0.046370372
0001e0 6f 27 8f bd b8 82 6b 3e 83 51 87 bc 81 fa 8b 3d
       -0.06989943 0.22999084 -0.01651836 0.06834889
0001f0 9b e7 94 3d 5f f9 30 3d 4b cd d2 bc 61 aa d7 3d
       0.07270738 0.04320657 -0.025732657 0.10530544
000200 7e ea 5a bc 6c 56 a0 bd 1b 9d a1 bc 9f 93 09 3d
       -0.013361571 -0.07828984 -0.019728234 0.033588048
000210 6d 25 12 3c ba 86 69 bd c6 5e a6 bd a6 79 c7 3a
       0.008920056 -0.05701325 -0.08123545 0.0015218749
000220 71 87 59 3c 15 db 21 3d 83 41 92 3d b4 af 8d bd
       0.013276921 0.039515574 0.071414016 -0.06918278
000230 1c da b0 bd 21 bd a5 3c 81 27 dd bb d1 47 b3 3d
       -0.08635351 0.020231785 -0.006749094 0.08753932
000240 2b df 51 3b 10 90 15 3c c7 0f 97 bc 38 09 98 3d
       0.0032023888 0.009128585 -0.01844014 0.07423633
000250 9a 5c 5a 3c 80 6f c9 3d 5c 3a 35 3d ad dc 0b 3c
       0.013327742 0.0983572 0.04424511 0.0085365
000260 b5 03 29 3c 24 f9 9e 3d 69 ec 28 bd 2e d1 4e 3d
       0.010315825 0.077623636 -0.041241083 0.050492458
000270 52 f9 b6 3d e5 a1 4c bd f3 88 12 3d 5a 28 bb 3c
       0.08934273 -0.049959082 0.035775136 0.02284639
000280 6c 40 2a 3c bb 08 e4 3c e4 4b 53 3d b1 fa f0 bc
       0.010391336 0.027836194 0.051586047 -0.029416414
000290 d9 08 e8 3b 7f 95 7c 3d 15 43 a9 3d 7e 3e 46 bd
       0.007081133 0.061666008 0.08264748 -0.04839944
0002a0 65 3e c0 3b ab 0c 1e bc b9 cf 9f 3d f0 fa e6 3c
       0.005866813 -0.009646575 0.07803292 0.028195828
0002b0 fe 63 25 bd a4 df 83 3c 79 e1 ea b9 31 c6 89 bb
       -0.040378563 0.016097851 -0.00044799948 -0.0042045345
0002c0 fa 89 70 bd bf 36 59 bd db 2b 35 3d e0 0d 73 bd
       -0.058725335 -0.053030726 0.044231277 -0.059339404
0002d0 69 3f 86 3b a0 f8 5e b9 eb f0 9c bc b9 6d 10 bd
       0.0040969145 -0.0002126419 -0.019157847 -0.03526089
0002e0 91 a8 f9 ba f7 39 03 bd e5 34 4e bc 63 19 8a 3c
       -0.0019047429 -0.0320377 -0.012585853 0.016857808
0002f0 08 f2 18 3d 61 26 24 bd 57 78 5b 3d 49 c9 5b 3d
       0.037340194 -0.040075663 0.053581562 0.053658757
000300 24 9f 1b 3d fb 11 20 3c 90 ef 0d bd fb 3a 93 3d
       0.037993565 0.009769912 -0.034652293 0.07188984
000310 99 55 63 bd 54 f7 9f bd f9 2d 0e 3b 86 13 a0 3d
       -0.055501554 -0.07810846 0.0021694882 0.07816224
000320 62 d5 94 bd 70 07 b9 bb 8a b4 7f 3d f3 fb 44 bd
       -0.07267262 -0.0056466386 0.062428035 -0.04809184
000330 af 5c 87 bd 39 a8 8f 3d d4 c5 b7 3d 17 bf ff 3c
       -0.06609475 0.07014508 0.089732796 0.031219048
000340 54 c2 5d bd bf 71 38 bd e8 5e b4 bd 05 5a 71 bc
       -0.054140404 -0.04503035 -0.088071644 -0.014730935
000350 00 fc 41 bb e2 e4 b0 bd 34 da a8 bd d7 13 d4 bc
       -0.0029599667 -0.08637406 -0.08244744 -0.025888367
000360 f2 55 15 3d 5a e9 e5 3c 2d b9 17 3d b5 d9 89 3d
       0.036458917 0.028065372 0.03704183 0.067309774
000370 d0 6c d1 bc 74 c3 88 bd 43 4c 40 3c 64 0c b0 bd
       -0.025564581 -0.06677905 0.011736932 -0.08596113
000380 8f 68 0a bd f8 c8 99 3c ab 4c 73 3c 15 43 64 3d
       -0.03379112 0.018772587 0.014849822 0.055728037
000390 e5 8b 87 3d 7b d1 43 bd 8f a0 ae 3a 8f e4 b7 3d
       0.0661848 -0.047807198 0.0013322997 0.08979141
0003a0 af 5b ba 3c df 97 96 bd c4 8b ac 3d 39 32 12 3d
       0.022748796 -0.07353186 0.08425096 0.035692427
0003b0 e7 f2 9d 3d 45 56 8d bc 92 2b 96 3d 83 50 0e 3d
       0.077123456 -0.01725305 0.07332529 0.03474475
0003c0 68 7b 5c bd 9d 7c f4 3b f8 ee e4 bc 5a 2c 62 3d
       -0.053828627 0.007461144 -0.02794598 0.05521808
0003d0 1d ec 8a bd 13 9c 4c 3d 30 a3 5a 3d 0e 36 87 bd
       -0.06783316 0.04995353 0.053378284 -0.06602107
0003e0 7e 6c 6b bd fa 73 55 3a 07 22 a6 3d 29 27 e7 3c
       -0.057476513 0.0008142587 0.08111959 0.028216915
0003f0 09 8a c1 bc 70 a7 18 3c 93 8c 93 bc 6d 8f de 3b
       -0.02362539 0.009317264 -0.018011367 0.006792

lstm.weight_ih_l1 f4 [512, 128]
000000 5f 41 96 bd 0c bd 49 bd 3b 44 8d bc 6f c9 d2 3d
       -0.07336687 -0.049252555 -0.017244449 0.10292327
000010 4f 36 41 bc c0 a5 43 bd ce f4 99 3b d4 0c 90 3d
       -0.011792733 -0.047765493 0.0046983724 0.07033697
000020 ff d6 73 3d 01 05 f4 bc 46 a9 04 bd 80 1d 50 3d
       0.059531208 -0.029787542 -0.032387994 0.050809383
000030 73 38 5a bd 9e b8 af 3d 4b 6e 17 3d 32 eb 89 bd
       -0.05327649 0.08580135 0.036970418 -0.06734313
000040 cb e5 13 bc b5 64 41 3c 0a 03 1c 3d a4 93 af bd
       -0.009026955 0.011803796 0.038088836 -0.08573082
000050 a0 a0 d1 bc 0e 46 5c bd c7 da d7 bd 79 30 03 3d
       -0.025589287 -0.053777747 -0.10539775 0.03202865
000060 80 5a 83 3d 30 47 9a bd 30 6f 67 3d 7d cd 81 bd
       0.06413746 -0.07533109 0.05650252 -0.06338022
000070 22 b3 57 3d 28 fd cc bd e5 b9 c0 3d 02 b5 41 bd
       0.05266107 -0.10009223 0.094104566 -0.047291763
000080 df b7 23 3d 60 47 1b bd 45 4a d9 bb 6d 2d 9f 3d
       0.039970275 -0.037909865 -0.006631168 0.07772336
000090 69 a7 af 3c 8a b2 a2 3d bf cd bf 3c 3b 53 52 bd
       0.021442132 0.0794421 0.023413537 -0.051348906
0000a0 55 0a b8 bd 4f 12 2b 3d d5 c9 b9 3c f6 93 5a 3c
       -0.08986346 0.041765507 0.022679249 0.013340941
0000b0 ec 7e 86 3b 5e 7e 10 bd 8b 9b 80 bd 29 b9 95 3d
       0.0041044857 -0.035276763 -0.062796675 0.07310707
0000c0 a8 cc f4 bb 81 ea 87 bc 57 1e 92 3c 66 db 10 3d
       -0.007470686 -0.016591312 0.017836733 0.035365485
0000d0 54 5c a3 3d c4 41 6c bd b7 c9 bc bd bb 8c 95 ba
       0.079765946 -0.057679906 -0.092181616 -0.0011409739
0000e0 9e 6b 55 3c e4 48 7e 3d 2b 7a 2e 3d 96 3d 56 bb
       0.013026146 0.062081233 0.042596977 -0.0032690517
0000f0 9f 19 c1 bd 48 c1 ad bc 06 01 a0 bd b5 3f ab bc
       -0.09428715 -0.021210328 -0.07812695 -0.020904401
000100 62 d0 6b 3d cc 20 3c bc 18 25 89 3d 9b f3 81 bd
       0.057571776 -0.011482429 0.06696528 -0.06345292
000110 13 36 cd bd c3 f1 dc bc 7b a2 8e bd 27 40 83 3d
       -0.100200795 -0.02697075 -0.069645844 0.064087205
000120 57 e6 bb bc 22 4e 47 bd 8d 54 e2 3c 61 ec b0 3c
       -0.022936983 -0.048658498 0.027628208 0.02159709
000130 40 97 ee bc b9 d1 08 3d 4c a5 09 3d 3a 1c 8f 3b
       -0.029124856 0.033403132 0.033604905 0.0043673785
000140 f3 74 61 bd 5a c5 68 bd ac c3 4d bd 88 1a a1 3d
       -0.055043172 -0.056828834 -0.050235435 0.078663886
000150 d7 53 9d b9 c2 4e 9a 3c 17 0f c7 39 20 a0 b9 3d
       -0.0003000784 0.018836383 0.0003796748 0.090637445
000160 d3 08 45 3d 10 73 86 3d a6 09 d8 3c b5 36 1f 3d
       0.04810412 0.06564915 0.026371788 0.038870532
000170 17 77 80 3d 1e 86 83 bc c2 e5 39 bd d6 05 b0 bc
       0.062727146 -0.016055163 -0.04538513 -0.021487158
000180 3f 05 fc 3c e2 63 0b 3d ee 7c a6 3d 0e 2d 61 bc
       0.03076422 0.034030803 0.08129297 -0.013743652
000190 e6 f0 67 bc 15 11 e8 ba dd 72 0d 3d 17 76 3f 3d
       -0.014156556 -0.0017705286 0.03453337 0.04674348
0001a0 a1 87 a0 3c dd 90 87 3d 2a 59 b7 bd a6 25 c9 bc
       0.019595923 0.06619427 -0.089525536 -0.024554085
0001b0 b5 6e 95 3d f7 8c 6e 3d 48 0c 6f bd eb f1 b4 3d
       0.07296506 0.058239903 -0.05836132 0.08835205
0001c0 44 0d 66 bd bd 18 50 3d a0 e0 a4 3d cc 67 ae 3d
       -0.056164995 0.050804842 0.08050656 0.085158914
0001d0 28 f7 35 3c b5 c2 2b 3c 10 3e 85 bd fd e7 61 bd
       0.01110629 0.0104834335 -0.06505978 -0.055152882
0001e0 51 94 a0 3c 27 3e d0 bd aa d0 24 bd c9 6b c7 ba
       0.019601973 -0.101681046 -0.04023806 -0.0015214618
0001f0 80 cd ac 3a 19 25 7a 3b d5 b4 ad 3d 5c 59 01 bd
       0.0013183802 0.0038169085 0.084817566 -0.03157936
000200 9b a4 0f 3d c1 cc 07 be 09 c1 11 3d 7d 86 5d 3d
       0.03506909 -0.13261701 0.035584483 0.054083336
000210 d1 94 0a 3d a9 30 b6 bc 40 3d ab bd f9 d6 89 3d
       0.03383333 -0.02224 -0.08361292 0.06730456
000220 10 81 d5 3d 78 77 00 bd aa 64 12 bd 11 fa 0c bd
       0.10425007 -0.031363934 -0.035740532 -0.03441817
000230 bc cc 82 3d b5 52 71 bd 9e 77 ae 3d 05 bb 9b bc
       0.06386706 -0.058916766 0.08518909 -0.019010076
000240 52 6d 81 bd 33 f4 bc 3d bb fa f1 3c 5c bc 0c 3e
       -0.06319679 0.09226265 0.029538503 0.13743728
000250 87 13 c7 3d 21 db ff 3d 0c 40 3c 3c a9 5c ad 3d
       0.097205214 0.124929674 0.011489879 0.08464939
000260 fc 2a 9d 3d 7c 62 18 bd cc bc da 3d a6 0a 72 3c
       0.07674214 -0.037203297 0.106805414 0.014773047
000270 b1 35 7c bd ec 6b 01 bd 37 cd 0b 3d 67 65 8b be
       -0.06157464 -0.031597063 0.034131255 -0.272258
000280 47 59 b8 bd 17 25 89 bd d1 af 59 bd 42 c8 07 3d
       -0.09001403 -0.066965275 -0.053146187 0.033149965
000290 02 79 04 bd 62 93 30 3e 4f a2 fd bc 88 1e a2 bd
       -0.032341965 0.17243722 -0.030961184 -0.079159796
0002a0 84 c4 86 bd 66 ac 3a 3d a1 95 9c bd a7 29 12 be
       -0.06580451 0.04557457 -0.07645727 -0.14273702
0002b0 17 03 cf 3d e4 35 1a 3e ca a7 9d 3d bd b0 00 3e
       0.10108011 0.1505962 0.07698019 0.1256742
0002c0 09 c2 14 bd 8d d0 8d 3d de 31 86 bd 04 39 2f be
       -0.03631786 0.069245435 -0.0655248 -0.17111593
0002d0 e2 e2 57 bd 81 b0 90 bd 07 4d ea bd 2c 1b e8 bd
       -0.052706607 -0.070649154 -0.11440473 -0.113333076
0002e0 a2 20 d3 bd 66 a0 36 bc d0 49 6e 3d b2 95 84 bd
       -0.103089586 -0.01114664 0.05817586 -0.064738646
0002f0 4c 6e b4 3d a5 d7 ca 3c f8 9e c6 bd 6c e6 6f 3c
       0.088101 0.02476103 -0.0969829 0.014642339
000300 1d 52 0c 3e c5 79 87 bd 89 d4 26 bd 39 16 06 3d
       0.13703199 -0.066150226 -0.040730033 0.032736037
000310 f9 32 da bb 51 ef 0c 3c c6 63 05 bc f7 6e d4 bc
       -0.0066589084 0.008601979 -0.008141464 -0.025931818
000320 ba 94 21 be b9 b2 2a be 8b ed 14 3d 8a 61 cb 3d
       -0.15779391 -0.1666974 0.03635935 0.099307135
000330 cf c5 52 3d a4 f6 b5 3b ae ec 3b 3d 12 90 2b bd
       0.051458176 0.0055530835 0.045880012 -0.041885443
000340 3d 09 df bb 72 99 85 bd 28 66 2c be c8 48 66 ba
       -0.006806521 -0.06523408 -0.16835845 -0.0008784649
000350 3a 7e 8b bd aa 46 72 3d 19 c7 39 bb a4 cc ed 3d
       -0.06811185 0.05914942 -0.0028347431 0.11611298
000360 23 51 50 bd b0 51 4b bd 59 7b 1b 3e 0d e0 a3 3d
       -0.050858628 -0.04963845 0.15183772 0.08001719
000370 cd 2c 8b bd 2b 07 91 bb 81 d2 15 3d 4d 37 13 3e
       -0.067956544 -0.0044259033 0.036577705 0.14376564
000380 74 f9 58 3d 98 66 4b bd 9b 9e 7a 3d ca 58 b0 bd
       0.052972272 -0.049658388 0.061186414 -0.08610685
000390 96 26 f8 bd 05 dd b8 bd 9c 5f af 3d 29 01 ed bc
       -0.12116735 -0.09026531 0.08563158 -0.028931217
0003a0 31 d1 ca bd 55 ca 23 3d 8f b1 fa bc 72 2c b4 3d
       -0.09903181 0.03998788 -0.030602245 0.0879754
0003b0 59 85 7f bd 8a a7 b0 3d 5f e5 fc 3c 82 a8 00 bd
       -0.06238303 0.086257055 0.030871091 -0.0314107
0003c0 d8 02 62 3d 3e 5e eb 3d bf 67 7b bc e9 5c c7 3d
       0.055178493 0.11492585 -0.015344559 0.09734518
0003d0 d4 8c e9 3d b2 dc dd 3d 50 b8 aa bd 51 c2 df 3d
       0.11403814 0.1083311 -0.08335936 0.10925735
0003e0 8b 50 96 3d da c0 1d 3c cd 93 25 be 13 cb fa 3c
       0.07339581 0.009628499 -0.16169663 0.030614411
0003f0 ca 67 9e 3d 04 4f 3e 3d 6d 7e 97 3d fb f9 83 3d
       0.0773464 0.046462074 0.07397161 0.06444164

lstm.weight_hh_l1 f4 [512, 128]
000000 e5 2b 96 3d b9 f7 70 3d 14 f2 6f bb 79 5f 04 bd
       0.07332591 0.058829997 -0.0036612796 -0.032317612
000010 4a 85 80 bd 6e cf d7 bb fc 18 05 bd 90 20 b6 bd
       -0.06275423 -0.006586007 -0.03249453 -0.088929296
000020 75 de 34 3d fa d4 51 bd 51 b3 9f bd 91 05 93 bd
       0.044157464 -0.0512285 -0.07797874 -0.07178796
000030 e9 bc 6b bd cc 07 23 bd ee be 65 3d e2 8d e2 bd
       -0.057553206 -0.039802358 0.056090288 -0.11062218
000040 3b a6 6c bd 90 4d bb 3d 53 3b 6a bd ee 6a 5c 3d
       -0.057775717 0.09145653 -0.057185482 0.053812914
000050 ff b7 24 bd b3 ed 8f bd f2 bd 42 3d 9d ea 05 bd
       -0.040214535 -0.070277594 0.047544427 -0.032694448
000060 17 c7 2a 3d 82 07 1a bd b5 57 c5 bd 28 8a 54 bd
       0.041693773 -0.037604816 -0.096358694 -0.05188957
000070 01 69 50 3d e1 8a c6 bd 8d 49 99 bc dd 7c 89 3d
       0.05088139 -0.09694458 -0.01871183 0.06713269
000080 f8 6b 89 bd 6a 5a 27 3b 26 17 32 3d 32 d2 a2 3d
       -0.067100465 0.0025536069 0.043479107 0.07950248
000090 8f d3 5f 3d c8 18 6a 3d f6 54 58 bd c2 b2 59 bd
       0.054645117 0.05715254 -0.0528154 -0.053148992
0000a0 62 da 52 3c a6 e1 be 3d 8d f5 e3 3c 13 bf 44 bd
       0.012869449 0.09320383 0.027827049 -0.048033785
0000b0 63 f1 87 3c f2 d4 13 3d 3e e8 85 bb ae 1c 9b 3c
       0.016594594 0.036091752 -0.0040865233 0.018934574
0000c0 fb 5a 9c bc c5 8b 8c 3d 27 0b bc 3d 3e 2c 1c bc
       -0.019086352 0.068625964 0.09181815 -0.009532033
0000d0 45 0b e1 bc 48 96 8e 3d 5e a0 a1 bc 61 25 87 3d
       -0.027471194 0.069622576 -0.01972979 0.06598926
0000e0 f4 22 41 bd 0e 0c 1c 3d f6 5c a4 3d 61 71 0c 3d
       -0.047152475 0.038097434 0.080255434 0.034287814
0000f0 18 fb a3 3c 7f 0d c3 3c 1d 07 3b bd 30 15 96 bd
       0.020017192 0.023810146 -0.04566108 -0.0732826
000100 b9 34 8c 3b 34 03 97 3c bc 73 cc bb 49 ce bf 3c
       0.004278746 0.018434145 -0.0062393826 0.023413794
000110 cf de 5c bd d7 c5 d8 3c 4e bc ab 3d 47 d0 5c 3d
       -0.053923424 0.026461525 0.08385526 0.053909566
000120 71 21 60 bd 06 51 16 bb 86 a1 52 3d f5 ba fe 3c
       -0.054719392 -0.0022936477 0.051423572 0.031095007
000130 b4 9b 73 3d 9e fb 2a bd a5 50 8b 3d 6f 43 04 bd
       0.059474662 -0.041743867 0.06802491 -0.032290872
000140 cb db f3 bc a9 38 6e bd 26 95 86 3d 88 b4 94 3d
       -0.029767891 -0.058159504 0.065714166 0.07260996
000150 26 3f dd bc ef 27 7c 3d 5c a9 6b 3d d5 c3 65 3d
       -0.02700765 0.06156152 0.05753456 0.056094963
000160 93 a5 b5 3c 1d cf 81 bb a0 2c b5 3d 46 bb 91 3d
       0.022173679 -0.0039614574 0.08846402 0.07115798
000170 be 66 a2 3c 48 fe 9e bd 2e be 3e 3d 25 a9 13 bd
       0.019824382 -0.07763344 0.04656809 -0.03604998
000180 df 5c c7 bc 3d 9d c4 3d aa 01 d1 3d c1 f5 28 3d
       -0.024336277 0.09600303 0.102053955 0.041249994
000190 f9 33 b3 bd aa d4 2d 3d 9d 1a 26 3d b7 92 61 bd
       -0.08750147 0.04243914 0.040552724 -0.05507156
0001a0 d4 76 2f bc ef 6d be 3d e3 ec 6b bd 2c 58 0b bc
       -0.010709483 0.09298312 -0.05759896 -0.0085049085
0001b0 d9 9a fb 3b 6b ba 2c 3d 58 7e ee 3c 09 7b 33 bd
       0.0076783714 0.04216997 0.02911298 -0.043818507
0001c0 80 09 91 bd 43 36 c4 3c 3c e9 94 3d 88 3d 9c bd
       -0.0708189 0.023951655 0.072710484 -0.07628924
0001d0 ef 86 51 bd 28 d8 7b 3d 0f 60 e6 bc ff cb 17 bd
       -0.051154073 0.06148544 -0.028121976 -0.03705978
0001e0 aa f0 10 3c f8 e7 a0 bd 16 db c4 3d b3 7d 26 3d
       0.008846441 -0.078567445 0.096121 0.04064722
0001f0 84 40 0f 3d fb a5 29 3c af 1c d0 3c a1 30 08 3d
       0.034973636 0.010354514 0.025404302 0.0332495
000200 56 23 15 3c 18 82 9d bd f5 ba 0a be b3 f7 55 bd
       0.009102663 -0.07690829 -0.13547881 -0.052238178
000210 09 4d f1 bd cd c9 cc bd f0 3f c0 3d 2d d0 20 3c
       -0.117822714 -0.09999428 0.09387195 0.009815258
000220 b9 de ae 3c 28 11 16 3d d9 7c 9a bd 65 85 07 3d
       0.021346437 0.036637455 -0.07543344 0.0330862
000230 35 f3 6a bd 13 eb 57 bd 09 df 78 bd c4 78 40 be
       -0.057360847 -0.05271442 -0.060759578 -0.18796068
000240 2a 3e e4 bd 1b f0 c8 3d 79 7d 84 3d 9e 06 a9 3a
       -0.11144669 0.098114215 0.064692445 0.0012895649
000250 ea d5 e7 3d 1a 60 ad bd 58 06 9b bd aa a1 85 3d
       0.11320098 -0.084655955 -0.07569569 0.065249756
000260 f7 ba 60 3d a9 21 d6 bb df ba dd bd 33 6e 85 3d
       0.054865804 -0.0065347743 -0.108266585 0.065151595
000270 87 68 b6 3d a5 78 f4 bd 04 2b 86 bd 92 2f 8c bc
       0.08906656 -0.119370736 -0.06551173 -0.017112527
000280 6b 69 da 3d 15 2d ca 3d 11 03 e9 bd 10 3f bb 3d
       0.10664638 0.0987188 -0.11377538 0.091428876
000290 5b b9 d8 bd 0e f3 d2 bd f2 88 b7 3c 9b 20 88 3d
       -0.10582229 -0.10300265 0.022404168 0.06646844
0002a0 2c 3c d2 bd 31 53 87 bc 3d ab 7b bd 07 33 50 3c
       -0.10265383 -0.016519161 -0.061442602 0.012707478
0002b0 50 79 b5 bd 0a 32 54 3e 1e 76 5c bd dc 4b c8 bd
       -0.08861029 0.20722213 -0.053823583 -0.09780094
0002c0 6e ff aa 3c 3a f2 59 bd 77 88 af 3d f1 f0 6f 3d
       0.020873751 -0.05320952 0.085709505 0.05857939
0002d0 8d d9 b0 bd fa 38 3b 3d 83 1b 1f 3d d7 65 10 be
       -0.086352445 0.045708634 0.038844597 -0.14101349
0002e0 92 49 e8 3d cd 9f 98 3d e4 fa bb 3c de d9 5e 3d
       0.113421574 0.074523546 0.022946782 0.054406993
0002f0 52 38 13 be 14 7e 47 be 85 87 29 bd d4 78 7b 3d
       -0.14376953 -0.19481689 -0.041389007 0.061394528
000300 70 ca e7 bd c1 f5 8d 3d 99 3b 3b 3d d9 4b b3 bd
       -0.11317909 0.069316395 0.045711134 -0.08754701
000310 fd 94 8b 3c c7 59 60 3d 53 00 a4 3d d4 bf 01 3e
       0.017038817 0.05477312 0.08007874 0.12670833
000320 34 12 9d bc be e9 da 3c d4 1c 9b 3c b4 94 83 3d
       -0.019173719 0.026722785 0.018934645 0.06424847
000330 53 92 08 be 8a 36 03 3e 7f 5e d1 bd e0 07 9c bd
       -0.13337068 0.12813774 -0.10223102 -0.076186895
000340 36 eb bf 3d 94 57 03 3e 4a 9f fc 3c 06 a8 94 bd
       0.09371035 0.12826377 0.030837674 -0.072586104
000350 d0 81 33 bd 8e 6a ea bc 0f 06 2b bd af d6 06 3e
       -0.04382497 -0.028615262 -0.041753825 0.13167833
000360 ed e3 d1 bd 8a 7a f5 ba 1b 50 0e bc 24 52 13 3d
       -0.102485515 -0.0018728536 -0.008686091 0.035967007
000370 20 8c 1c 3d c5 1a f2 ba 88 04 d1 bc bb 7b da bc
       0.03821957 -0.0018471113 -0.025514856 -0.026670327
000380 f5 85 11 3e c1 1f 90 3c fa 40 32 3e f7 22 b7 3d
       0.14211257 0.017593266 0.17407599 0.08942216
000390 da ba b7 bc c8 c3 ba 3c 52 e8 d4 3d f3 3c ad bd
       -0.022427965 0.022798434 0.10395874 -0.08458891
0003a0 5b 7d 04 bd 61 d6 0b 3e 3a ae fe bc 87 cf 8f 3b
       -0.03234611 0.13655998 -0.031088937 0.004388753
0003b0 b9 1c f5 3c df 74 03 be ef 9d 44 bc d0 63 03 3e
       0.029920923 -0.12837552 -0.012000545 0.12831044
0003c0 da a3 18 bc 21 f6 b7 3d c1 d0 7c bd 5c 83 00 3d
       -0.009316409 0.08982492 -0.06172252 0.031375274
0003d0 e4 e8 00 bd 6b a0 9b 3c 9e c0 40 bd 07 6d 65 bc
       -0.0314721 0.018997392 -0.047058694 -0.014003045
0003e0 59 c1 32 be 2a a0 9c 3c d0 91 00 3d 8c d8 ac 3c
       -0.17456569 0.01911934 0.031389058 0.021099351
0003f0 84 cc c9 3d 37 52 de bd ec bc 4b bd 9d 6b 9a bd
       0.098534614 -0.10855525 -0.049740717 -0.07540057

lstm.bias_ih_l1 f4 [512]
000000 12 ed 3b bb e9 c8 b7 3d c3 2b 8f 3d 50 fc 10 bd
       -0.002867524 0.089738674 0.06990769 -0.035396874
000010 df 73 07 bd d4 e7 b4 3b 4f f2 cc 3b 06 41 78 3c
       -0.033069488 0.0055208 0.0062544714 0.015152222
000020 36 6b 31 3c f3 f2 19 bd 42 3c 16 bd 8c 24 67 3b
       0.010828784 -0.03758521 -0.03667856 0.0035269586
000030 3e a5 ba 3d 38 12 e9 3c de 89 28 bd 14 51 23 bb
       0.09113549 0.02845107 -0.041147105 -0.0024920153
000040 31 7a c5 3d 79 c0 5d 3e 48 1a 7b 3c ee fd 12 bc
       0.09642447 0.21655454 0.01532609 -0.008971674
000050 c5 bb 1a 3b f7 aa 01 3c 58 35 09 bc 65 42 9f 3d
       0.0023610455 0.007914296 -0.008374535 0.077763356
000060 aa 68 33 bd ad f2 d9 3c de 57 c2 3d b2 82 03 3d
       -0.043800987 0.026604975 0.094894156 0.032107063
000070 11 39 61 3d cb 78 2d bd 27 34 8c 3d fa 78 85 3b
       0.054986063 -0.042351525 0.06845885 0.0040732594
000080 9b 5f 2d bd f7 71 61 3d 2f e5 7a bd 2f 54 8d 3d
       -0.042327505 0.055040326 -0.061253723 0.06900822
000090 91 2a 0b 3d e4 38 a1 3d 08 2b e7 bc 13 4b 5f bd
       0.03397614 0.07872179 -0.028218761 -0.054514956
0000a0 7a 79 9d 3c c4 a9 2b 3e 31 28 f0 3d 63 29 ee bb
       0.019222964 0.16763979 0.11726416 -0.0072681173
0000b0 18 ac 9d 3d 1f 0b f8 3c 19 c2 fc bc 4d 38 24 3d
       0.0769884 0.03027874 -0.030854272 0.040092755
0000c0 91 4b 12 bd 45 4f 18 bd 7a db c5 3d 06 09 93 3d
       -0.035716597 -0.037184972 0.096610025 0.071794555
0000d0 f0 e6 90 3d 5c 85 b4 3d 42 d0 a5 bd 23 b3 12 3e
       0.07075298 0.08814499 -0.08096363 0.14326148
0000e0 a8 fe 0f bd de 9a 4f 3d 3d 50 dc 3c df 80 c1 bc
       -0.03515497 0.050684802 0.02689373 -0.02362102
0000f0 47 92 76 bc ba 4b 53 3d 37 c6 be 3d a7 ef 8e 3c
       -0.015049524 0.05158589 0.0931515 0.01744826
000100 09 a7 1a 3e b2 70 97 3d d6 e5 95 3d bc 0f 97 3d
       0.15102781 0.07394542 0.07319228 0.07376048
000110 87 72 06 3d a9 06 52 bd de fd 95 3d 88 74 3d bd
       0.032824066 -0.051275883 0.07323812 -0.04625371
000120 9b 61 40 bd fd 5f c2 3d 35 46 8d bd 9d 16 a9 3d
       -0.046968084 0.094909646 -0.068981566 0.08256266
000130 00 a7 ab 3c 22 e4 27 3d fc 19 f4 bc 25 0f 7c bd
       0.020953655 0.04098905 -0.029797547 -0.06153788
000140 53 2c cc 3d 61 8a 15 3b 45 af 96 3d 8b df 5d bd
       0.09969392 0.0022818076 0.07357649 -0.054168265
000150 74 ae c5 3d b7 12 cf 3d d2 5d 89 3d 9c 68 1d bd
       0.09652415 0.101109914 0.06707348 -0.03842984
000160 b6 c7 fe 3b d2 98 05 bd b9 71 2d bd b1 5b 05 3d
       0.0077752722 -0.032616444 -0.042344783 0.032558147
000170 67 e2 3e ba 7e d3 df bc f0 29 31 bd fa 4f 46 bd
       -0.00072816614 -0.027322527 -0.043252885 -0.048416115
000180 5a 0f 42 3c 7d 85 35 bd b8 6e cd 3c db cb d6 bb
       0.01184448 -0.044316757 0.025077209 -0.006555063
000190 5f b2 ab 3d 4e ba 26 3b 52 77 9d 3b f3 bd e7 bc
       0.08383631 0.0025440636 0.004805484 -0.028288817
0001a0 7c c7 d8 3d 9c 99 d0 3d 4d 60 50 3d 25 bb f2 3d
       0.105849236 0.10185549 0.05087309 0.11852101
0001b0 85 84 bb 3d 81 04 3e bd 89 d3 83 3d d1 d3 66 3d
       0.091561355 -0.046391014 0.064368315 0.056354348
0001c0 ba 6a 63 bd ba 3c a4 bd 82 e3 60 3d 11 d9 04 bd
       -0.055521704 -0.08019395 0.05490447 -0.032433573
0001d0 eb 91 ac 3d 2c 06 ad 3d c5 2a c5 3d 04 40 01 3d
       0.08426269 0.08448443 0.09627298 0.03155519
0001e0 63 0e b9 ba 54 c2 2d 3d 23 b2 3c bd 2f 74 3a 3d
       -0.0014118667 0.042421654 -0.046068322 0.045520958
0001f0 fa c8 9b 3d 02 5f 89 bd dd 0e 52 bd 7d 93 9e 3d
       0.076066926 -0.067075744 -0.051283706 0.07742975
000200 ed 52 9f bd 42 fd fd 3d 85 b3 0e 3e ce 26 96 3b
       -0.07779489 0.12401821 0.13935669 0.0045822626
000210 e0 09 3b 3d f3 35 71 3d 6f ca 44 bd 63 29 71 bd
       0.045663714 0.05888934 -0.04804462 -0.05887736
000220 24 b8 5f bc b7 52 85 bd b0 0e 8f 3d ec 3b a3 3d
       -0.013654742 -0.06509917 0.06985223 0.079704136
000230 31 7c 27 3d 4d 13 02 bd 6b bb ba 3c ca ec c8 3d
       0.040889923 -0.031756688 0.022794446 0.09810789
000240 e6 1b 18 3d a2 70 29 be cd 34 3f 3d 86 d2 b2 3c
       0.03713598 -0.16546872 0.046681214 0.021828901
000250 5f 68 37 3d b9 25 0d 3d 90 a2 a1 3d 66 21 43 bd
       0.04477727 0.034459803 0.078923345 -0.047639273
000260 2a cc f9 3c 81 89 62 3d 55 4c 56 bd d6 c7 aa 3d
       0.03049286 0.055306915 -0.05231889 0.08338897
000270 b6 fc 8d bd 2c 25 6b 3d 51 c9 40 bd 9c 89 b5 3d
       -0.069329664 0.057408497 -0.04706699 0.088641375
000280 53 83 48 bd 34 97 d2 3c 8e 7c e6 bc 36 4e ef bc
       -0.048953366 0.025706865 -0.028135564 -0.029212099
000290 9f 92 8a 3c b7 ba 06 3d 39 f4 9d 3d 72 0a 92 bd
       0.016915618 0.03289291 0.077125974 -0.071308985
0002a0 ea 84 91 bd 19 f5 8b bd b7 c3 dc 3c 45 f8 82 3d
       -0.071054295 -0.06833858 0.026948793 0.0639501
0002b0 c6 0c 02 bd eb 62 e6 3c 7f c9 8f bd 5d 7d bd 3c
       -0.031750463 0.02812334 -0.07020854 0.023131067
0002c0 39 1d 37 bd 67 3e 4d bd a2 a5 96 bd db 51 a0 bd
       -0.044705603 -0.05010834 -0.07355811 -0.07828113
0002d0 2e 07 9c bd 50 3c 66 bb 88 fd e2 3c 8d e7 7a 3d
       -0.07618557 -0.0035131164 0.027708784 0.06125598
0002e0 6d 6b df 3b 00 c7 65 bc 99 4f 4e 3d b1 4d a8 bd
       0.006818226 -0.014024496 0.05036888 -0.082179435
0002f0 a4 b6 79 3d b1 cc c3 3d 27 e1 eb 3c 11 08 b3 bd
       0.060965195 0.09560526 0.028793884 -0.08741773
000300 d4 c2 8a 3c e4 c6 df bb 0b c5 06 bd 6d ee 8c bd
       0.016938604 -0.0068291295 -0.03290276 -0.068814136
000310 a6 8e 1c 3c 2f 8e 00 3c 92 f7 0b 3d 50 96 82 bd
       0.009555494 0.007846399 0.03417165 -0.06376326
000320 b9 c1 0e 3d c6 d9 5f 3d 79 d9 99 3c 8b 83 a1 3d
       0.034852717 0.054651044 0.018780457 0.07886418
000330 83 d3 04 bc 97 06 85 3d 2a e2 01 3d e6 b8 53 bd
       -0.008107069 0.064953975 0.031709827 -0.051690005
000340 a9 48 95 bd 2a 12 c2 bd cf 44 44 3d 1a e8 78 3d
       -0.072892494 -0.09476121 0.047917183 0.060768224
000350 5b 62 a1 bc fc 4e b1 3d b1 e8 92 bc f8 2b 2d bd
       -0.01970022 0.08657643 -0.017933222 -0.04227826
000360 80 97 64 bd b9 98 28 bd cd 22 f8 bb 87 48 20 3d
       -0.055808544 -0.041161273 -0.007572508 0.039131667
000370 6e 0c 09 bd 6c 24 75 3c 15 ee 83 3d ae 87 8b bd
       -0.03345912 0.014962297 0.06441895 -0.06812988
000380 47 28 d0 bd fb f4 9b bc bc 7e 92 bc 98 ba 69 3d
       -0.10163932 -0.019037714 -0.017882697 0.057062715
000390 78 f9 09 bc f0 67 8f bd c8 cb 9a 3d 6f 63 94 3c
       -0.008421294 -0.070022464 0.075583994 0.01811382
0003a0 f0 79 e9 ba 9b 21 14 3d c0 72 c1 3d fe cd a7 3c
       -0.001781283 0.03616486 0.09445715 0.020483967
0003b0 68 41 a8 3d 7c 1a c0 bc ec 0c 0c 3d a2 3f 8e bc
       0.082156 -0.023450129 0.03419201 -0.017364327
0003c0 b1 2e e2 bc 8b 59 69 bd b3 e9 69 bd ff 35 89 3b
       -0.027610155 -0.05697016 -0.05710764 0.004187345
0003d0 b4 30 bc 3d b7 1b 0e ba 8b 63 a6 bd b3 65 8d 3d
       0.09188977 -0.0005421 -0.08124455 0.06904163
0003e0 15 2c 8f 3d 89 5c 0a bd 4c d1 08 bc 92 28 7d 3c
       0.0699083 -0.033779655 -0.0083506815 0.015451567
0003f0 44 63 44 3d 54 23 78 bd cf 2e be 3a 6e 52 0f ba
       0.04794623 -0.060580567 0.00145098 -0.00054673
