models/XEL model.pth (torch, 270882 bytes, 5 tensors)

lstm.weight_ih_l0 f4 [512, 1]
00000000: 6c12 03bc 6969 1d3d 1241 233d 052f a73d
00000010: 8f5e 513b 476c 8c3d 88f0 17bd e9ba 253d
00000020: 09da ebbd 4b86 b3bc 6459 d73d 42e7 51bd
00000030: aec3 25bd b083 01bd fc50 c13b 2f0b ab3c
00000040: ab78 4e3d 96ca fabd 4608 1ebd a516 cbbc
00000050: ff96 a43d ac79 d1bc 2320 313d f0cb 65bd
00000060: 1fe8 95bd 0e69 cf3d 6fcf f03d 0d18 d6bd
00000070: 8f33 f3ba b697 3ebd 8cde 92bb ab1e c43d
00000080: 9e7e fa3d 3b62 11be 782f d4bc 9243 223c
00000090: a630 023e 82e6 5bbd b543 d03d 5a28 1cbe
000000a0: ed7e ae3d 9a66 3e3d a544 6cbe 5ac1 80bc
000000b0: 8fd5 dabd 4a20 e3bd 3ec1 1a3c 5401 febc
000000c0: 2a6d cb3d fed7 d93d 9ce0 923d 32a1 6fbd
000000d0: 1197 60bc db2f 583c 5085 81bd cefa 0e3a
000000e0: 049c 38bd e5d1 4b3d c7a4 3e3a 4ebe b83c
000000f0: 3372 8dbd 83db d8bd c19e e23d 24b4 713c
00000100: 1285 fb3d dc06 783c 0b51 68bd 46e7 073d
00000110: 4cc3 9cbc 6f5b cabc 4a59 48be 03b7 cb3d
00000120: 2c65 e5bd aeba e0bb c198 123e 1780 3f3d
00000130: 3238 383d b752 d03d d792 6fbd 5e97 093d
00000140: 0013 08bd 6bd7 7b3c 3493 45bd fc0e 113e
00000150: 1708 0ebd ff09 773c 9892 293d 40a2 00be
00000160: 2a74 d33c c75a db3c f33a 4e3d 75f0 873c
00000170: e14c 9bbd 129e 193d 25ae 52bd 8063 153d
00000180: 72bc d0bd 9139 4d3d 0fdf c93d 8d9a 5bbd
00000190: d0fc e63d 0f35 f3bc 55e0 54bd 95db 0cbe
000001a0: 27a3 b03d 68ab a33c ece2 09bd 8559 d13d
000001b0: 2f8c d23d d6e8 653d ab59 983d ec2b 24bb
000001c0: b2ab 7abe 4fdf d0bc 2967 5e3d 16e3 22be
000001d0: 4a7e 3a3c 7b61 6cbc 554a 983c a9b9 343d
000001e0: 0b41 8dbd fe60 bf3c 4dd3 ae3d 899b 69bd
000001f0: 6a84 123e 60c2 103d d2a4 b83c e150 a4bd
00000200: f2f1 8abc b2b6 103b c9f7 a33d 44e0 003e
00000210: 7e23 3abc 671f 3d3d 0301 8e3d 0dcb 193d
00000220: ae64 08be 7a20 bfbc 9774 2fbc ee8d 51bb
00000230: 2629 e13d c7b1 bebd aba5 8f3c b1ae 703c
00000240: cc2b e13b 2562 eebd 24b1 74bd d126 183d
00000250: c42c 43bc 7f4b 36bd c6b9 ab3d 8efe 993d
00000260: 21d4 573c 785c 853d 58cb 9b3d 35b1 54bd
00000270: 51b7 0bbe 2550 3e3d 7e04 953d 1186 c43d
00000280: 261a f53d e718 71be ce61 163d 35ee dd3d
00000290: 73dd de3c f462 c03d 7a98 eb3d 6f00 67bd
000002a0: d2c1 113e 2692 a3bd f432 6dbe d11e 4cbe
000002b0: abf7 a2bd e07b bfbd 626b 143d c6de 0f3e
000002c0: 641f 0a3e ca23 8d3d 00a8 543e 93d2 4f3d
000002d0: fada 8abd 3dc1 c73d d6b7 0bbd 5d86 c63d
000002e0: b771 8e3d 2c89 cebc aaae b33d 3366 c8bd
000002f0: 5c85 2dbd 19bb b63c c74b 74bb 38c0 69bc
00000300: d4ea 083d 069d 0f3b 01fb 96bd 89ae b53d
00000310: 50db 33bc 6245 d53d 9b0a 3bbe 1b87 cd3d
00000320: a95f 8dbd 181e 2f3e 7272 a23c cd41 453d
00000330: 21a7 4b3d 28d0 6d3c c9f5 963c ac75 8a3d
00000340: 0aad 2e3d eebe 9c3d e0bf 8a3d ae83 423e
00000350: bfbc 883c d67d 1abd aad0 033d 2c8e 6ebd
00000360: 98d5 763b 99f9 833d 54df b03d 159e 62bd
00000370: 32db 0dbe c139 77bd 986a bfbc a703 373d
00000380: 1510 363c a10a f73c 2b00 9e3d 8dd5 d83c
00000390: 4d26 fe3d 54f3 643d e7be c93c 2de3 5bbe
000003a0: eb01 dbbc 42f6 d53d 1f2e 8cbe f9e3 9c3d
000003b0: 8eac 133e 2649 ac3d 745d d73d df12 0b3d
000003c0: 3f5e b3be 1623 973d 1d83 463d a57b c33b
000003d0: e2a6 85bc 904a e63d 4d11 93bc 595d 35bd
000003e0: ced6 d8bd 351a 73bc 3af2 8fbb a748 35bd
000003f0: 3d88 453d 4282 803d f573 cb3d 09e9 83bd
-0.007999998 0.038430605 0.039856978 0.08163265 0.003194723 0.0685659 -0.037094623 0.040461455
-0.11516196 -0.021914622 0.10515097 -0.051245935 -0.040469818 -0.031619728 0.0058995467 0.020879356
0.050408047 -0.122456715 -0.03858211 -0.024791071 0.08036613 -0.025570713 0.04324354 -0.056102693
-0.07319664 0.101274595 0.11758315 -0.10453806 -0.0018554794 -0.0465314 -0.004482096 0.09576162
0.122311816 -0.14197628 -0.025901541 0.009903805 0.1271387 -0.053686626 0.10169164 -0.15249768
0.08520303 0.046484567 -0.23073061 -0.015717197 -0.10685264 -0.11090143 0.009445487 -0.031006493
0.09932931 0.106369 0.07171747 -0.058503337 -0.013707892 0.013195003 -0.063242555 0.0005454243
-0.045070663 0.049760718 0.00072724785 0.022551682 -0.069065474 -0.105887435 0.11065436 0.0147524215
0.122812405 0.015138354 -0.056717914 0.033179544 -0.019136094 -0.024701802 -0.19565311 0.09947016
-0.11200938 -0.0068581915 0.14316083 0.046753015 0.044975467 0.101720266 -0.058489647 0.03359162
-0.033221245 0.015371184 -0.048236087 0.14165872 -0.034675684 0.015078067 0.04139957 -0.12561893
0.025812227 0.026776684 0.050349187 0.016594151 -0.07583023 0.037504263 -0.05143561 0.036471844
-0.10192193 0.050103728 0.09856998 -0.053614188 0.11278689 -0.029688386 -0.051971752 -0.13755639
0.08624869 0.019979194 -0.033663675 0.102221526 0.10280644 0.056130253 0.07438978 -0.0025050594
-0.24479559 -0.025497107 0.0542976 -0.15906939 0.011382649 -0.014427538 0.018590132 0.04412237
-0.068971716 0.02336168 0.08536396 -0.057033096 0.14308324 0.03534162 0.02253953 -0.08023239
-0.016961072 0.002208155 0.08006246 0.1258555 -0.011361001 0.046172526 0.06933787 0.03754716
-0.13319656 -0.023330916 -0.0107089495 -0.0031975466 0.109941766 -0.09311252 0.017535051 0.014690087
0.006871676 -0.11639813 -0.059739247 0.037146393 -0.011912528 -0.044505592 0.08385043 0.075192556
0.013173134 0.06511778 0.07607144 -0.05192681 -0.13644148 0.04646315 0.072762474 0.09595884
0.11967878 -0.23544656 0.036714368 0.1083645 0.027205205 0.09393874 0.11503692 -0.056396898
0.14234093 -0.0798686 -0.23163968 -0.1993363 -0.07957395 -0.09349799 0.03623522 0.14049825
0.13488537 0.06891592 0.20767212 0.05073793 -0.06780048 0.09753654 -0.034110866 0.096935965
0.06955283 -0.025211893 0.08773549 -0.09785118 -0.04236351 0.022306012 -0.0037276612 -0.01426702
0.033427075 0.0021913662 -0.07372094 0.088711806 -0.010977581 0.10413624 -0.18265764 0.10035535
-0.06903011 0.17101324 0.019829962 0.048158456 0.049719933 0.01451496 0.018427746 0.067607254
0.04264549 0.076536044 0.067748785 0.18995544 0.016691564 -0.037717663 0.03218142 -0.058241054
0.0037663933 0.06444091 0.086363465 -0.05532654 -0.13853148 -0.060357813 -0.023366258 0.044681218
0.011112233 0.030156435 0.07714876 0.026469016 0.12409649 0.05589612 0.024627162 -0.2147338
-0.026734313 0.104473606 -0.27378938 0.0766067 0.14421293 0.084123895 0.10515872 0.033953544
-0.35032842 0.07379739 0.048464883 0.0059656673 -0.016314927 0.112446904 -0.017952586 -0.044278476
-0.10587846 -0.014837791 -0.0043928893 -0.04425874 0.04822563 0.06274845 0.099342264 -0.06440932

lstm.weight_hh_l0 f4 [512, 128]
00000000: c62f acbd b5d9 b0bc 2580 3cba b930 6abd
00000010: cad0 963d c3b1 ccbd 5ea5 fc3c e974 ff3d
00000020: a291 e4bb 5f56 a5bd deca 2bbd fad1 ed3d
00000030: 3e9a e7bc 90be 90bc f859 0ebd 837e 19bd
00000040: 1dcb 553d ccac afbb fe3c d83d d38b 13bc
00000050: 34cc f1bd 54e1 213d cd96 6e3d 1ca5 f13c
00000060: 8a94 bf3d f26f afbd 2596 d4bc 848f 813b
00000070: a4f6 0a3e f1d0 90bd 1a2d f23d b1a6 7d3d
00000080: 9b98 49bd 4b68 4f3d 7cae 06bd b51e 41bd
00000090: 9f8f 15bd 2b47 243c a7c7 aabc 70da 053e
000000a0: 9823 cbbd 5e50 673c 4cca 713e fe2b 103e
000000b0: 7813 e8bd ba87 0c3e 405b cebd 6a04 903d
000000c0: 40b2 993c cbd7 9dbd 3403 6d3d f81d 0c3e
000000d0: b439 473d c43b bbbc b031 c03d e180 e93c
000000e0: d7d0 a7bc ca0c a6bd 0285 5cbe 8b8f 6d3d
000000f0: 253a 763d 951f 75be 8e69 cebc aa4d 823d
00000100: 4e6e 993b b3ad c4bc 52d2 a03d 1216 2b3d
00000110: 346f 33ba 7935 0e3c 579c 37be 5b4f f5ba
00000120: 5f7b 383e a7e8 633d 5265 373d c13a 19bd
00000130: bda0 c43b 1002 663c 36d1 8c3d c645 61bd
00000140: e2ad 91bd 3814 92bd 8599 a5bd 0d66 043d
00000150: 89b4 c5bc 3756 e63d bcf7 153d 8b31 253c
00000160: 58d2 e43c 1f70 a5bc 79af f73a dfa7 963d
00000170: 630f 803c 4a74 1cbc 9e6f 25be 0b6b bebd
00000180: 4288 b3bd c6bb 55bd c816 343c 2a7f 29be
00000190: cb56 7a3c 6d88 d1bd 4a20 603d 57d8 543e
000001a0: 92b9 19bc e518 093d 9e9d 1b3d 4934 cabc
000001b0: 92f7 6ebd 84d4 61bd cf46 23bc 6ecc 43bd
000001c0: 26f3 7c3e b399 8ebd 0b0d fdbc 9990 af3d
000001d0: 638a a0bd aee9 b13d fc67 25be 743d 413c
000001e0: 90a6 9abd c46d 843c 45bd dd3c 9fb2 393d
000001f0: d648 16bd e4c7 af3b de01 b1bc 3e5d c33c
00000200: 2739 053d e480 3abd 68d4 093d 70f5 553a
00000210: 2ef7 1cbd 8c03 d9bd 2930 b83c 31e1 2d3e
00000220: fee1 e73c a0e6 89bc 1ce5 dc3d 0328 dabc
00000230: ec14 76bd 766e 5dbd 7d3b 12bd 8315 65bd
00000240: f8cf 8bbd 2eb1 27bd 5cff 063e 1bd9 0ebd
00000250: 2d5e 993c f533 a73d a764 573d 0c6d 953d
00000260: 3a6a 313d f2e8 f3bd de87 983d 8aa8 933d
00000270: 9e91 e13d 40dc 383d a239 c73d 05e2 203d
00000280: 1a34 d5bd 5543 2d3e 6d9b 25bd f54b 983d
00000290: 6af6 e23b ffcd 2abb d611 29bd 9871 073e
000002a0: 7bde d4bd f0b6 71bc d8f2 4f3e cdfb c33d
000002b0: a9e0 90bd 5f42 103e ef1e f1bc d775 823d
000002c0: 72b0 4c3d f269 c9bb 4f4e 343d 1fdf 083e
000002d0: d696 9fbd 27cc 213d 2a70 583d 265c 5f3d
000002e0: 719d 4a3c 6414 8a3c 276b 8cbe c5b1 e33d
000002f0: a07d 113d 0c4f 74be 5bca 583c 8d1c 383e
00000300: c83f a63d e552 24bd 27ba 123d ed0f 0b3d
00000310: 105e 40bc 718f c83b 7a46 f4bd e9e9 823c
00000320: 39c6 783e 3282 323d 487b d5bc 98ca 173d
00000330: 2fb9 0b3d 49e1 e7bc e6a4 f83d fda5 0cbd
00000340: e2d6 18bd 04c7 77bc eb33 803c b26c c0bc
00000350: 4249 15bd 4520 8f3d 179c 893d 97be d6bd
00000360: e722 d03d 30f7 75bd 0c43 04bd ce53 a43c
00000370: 3f5e 083e 486c 503d e32f 64be 7ee9 a4bd
00000380: 2fb1 5bbd 8d13 cb3d 7188 89bc a15b 6fbe
00000390: f32d aebd 9121 81bd 3753 8e3d 504e 053e
000003a0: f798 ccbd 60f4 7cbc fc51 933b 7602 b5bc
000003b0: 9421 133d b8dd 63bd 2ca1 b03d 0127 e53b
000003c0: 64d5 6f3e a163 80bc 5ddb d43b 2327 bcbd
000003d0: aa7c 963d d83f 143c e10b ddbc 4e71 fe3b
000003e0: a77a cbbd b3c3 59bd 9d77 9cbc b42b f03d
000003f0: 626c 1c3d bea1 313c a3b3 4a3c a363 99bc
-0.084075496 -0.021588186 -0.0007190726 -0.05717537 0.07364042 -0.09994843 0.030840572 0.12473471
-0.0069753686 -0.080731146 -0.041941516 0.116123155 -0.02827179 -0.017668992 -0.03475377 -0.037474167
0.052195657 -0.005361175 0.10558508 -0.009005505 -0.11806527 0.03952153 0.058249284 0.029497676
0.093545035 -0.08566274 -0.0259505 0.003953876 0.13570648 -0.070711024 0.11825009 0.061926547
-0.0492178 0.05063657 -0.032881245 -0.047148425 -0.03651392 0.010026733 -0.020847155 0.13071609
-0.09918898 0.014118282 0.23612326 0.14079282 -0.11331838 0.1372365 -0.10075998 0.07032092
0.018761754 -0.07707175 0.057864383 0.13683307 0.048639014 -0.022855647 0.09384477 0.028503837
-0.020485325 -0.08107908 -0.21535113 0.05799822 0.060114045 -0.23937829 -0.025196817 0.063624695
0.004682339 -0.024008607 0.078526154 0.041769095 -0.00068448787 0.008679741 -0.17930733 -0.0018715666
0.18015812 0.055641796 0.04477436 -0.037409548 0.006000607 0.014038578 0.06875841 -0.05499818
-0.07113244 -0.07132763 -0.08085922 0.032323886 -0.024133937 0.11246913 0.03661321 0.010082613
0.027932331 -0.020195065 0.00188969 0.073562376 0.015632337 -0.00954921 -0.1615586 -0.092977606
-0.087662235 -0.052181028 0.01099176 -0.16552415 0.015279482 -0.10231099 0.054718293 0.20785652
-0.009382622 0.033471007 0.037992112 -0.024683135 -0.05834157 -0.05513431 -0.009965613 -0.04780238
0.24702129 -0.069629095 -0.030890008 0.08572502 -0.07838895 0.08687149 -0.16152948 0.011794437
-0.075513005 0.016165622 0.02706779 0.045336362 -0.036690556 0.005364405 -0.021607336 0.023848172
0.032525208 -0.045533076 0.033649832 0.0008161878 -0.038321666 -0.1059638 0.022483902 0.16980435
0.028306004 -0.016833603 0.10785887 -0.026630407 -0.060078546 -0.054060422 -0.035701264 -0.05592872
-0.06826776 -0.040940456 0.1318335 -0.034875017 0.018721664 0.08164207 0.052586224 0.0729619
0.043314196 -0.11909665 0.074477896 0.07209881 0.110141024 0.04513192 0.097277895 0.03927805
-0.10410328 0.16920216 -0.04043143 0.07436363 0.0069263475 -0.0026062725 -0.041276775 0.13226926
-0.10393997 -0.014753088 0.20307481 0.095695116 -0.070741005 0.14087819 -0.029433696 0.063701324
0.04997296 -0.006146663 0.044019993 0.13366364 -0.077924415 0.039501335 0.052841343 0.05453124
0.0123666385 0.016855426 -0.274255 0.11117891 0.035520196 -0.23858279 0.013231839 0.17979641
0.08117634 -0.040118117 0.03582206 0.033950735 -0.011741176 0.006120615 -0.11927505 0.015980678
0.24294366 0.043581195 -0.026059762 0.037058443 0.03411215 -0.028305667 0.12140827 -0.034337986
-0.037314303 -0.015123133 0.015649756 -0.02348933 -0.036446817 0.06988577 0.06719225 -0.10485571
0.10162907 -0.06005019 -0.032290503 0.020059492 0.13317202 0.050884515 -0.22283892 -0.080523476
-0.053635772 0.099158384 -0.016788693 -0.23374797 -0.08504858 -0.063052304 0.06949466 0.13018155
-0.09990113 -0.015439123 0.0044958573 -0.0220959 0.035920694 -0.05563137 0.08624491 0.006993175
0.23421246 -0.015672507 0.0064958767 -0.09187152 0.073479965 0.009048425 -0.026983203 0.007764972
-0.099355035 -0.05316515 -0.019100005 0.11727086 0.0381893 0.010841785 0.01237193 -0.018724268

lstm.bias_ih_l0 f4 [512]
00000000: fa37 ca3c 2d29 ee3d aca6 1b3d ec14 d23d
00000010: 95cd 853d ea8e 763d 1823 cf3d 0423 423c
00000020: a04f e83d a015 ad3d ea9c 26bd 3a63 a4bd
00000030: 2a68 1f3d 1bb6 bc3d 6387 473d 0bab 073e
00000040: de18 e83d 2ce6 cd3d 5b90 633d ed0e 8a3d
00000050: a509 44bd f0a9 053e 77d8 6e3d 0cf7 25bc
00000060: 3116 643d a635 c4bc 8fa6 3fbd 3ebd c83d
00000070: 5b8b 753d 44d5 88bb c0ad 213d 7a33 d0bc
00000080: 0188 823d d3b5 a83a 90e0 ebbb bc90 f43d
00000090: ff5e cabc 278c 293c be39 143c f025 973d
000000a0: 754e 1d3c 545e a93d 7f24 343e 5a4e 9d3d
000000b0: dfe5 4e3d 93d1 a63d c808 90bb 42fb 4cbd
000000c0: e634 d03c 2557 87bd d743 663d 7289 973d
000000d0: ba49 29bd 22e9 e23d ea2e 4abd 91be 97bc
000000e0: 14db 83bc 34ee 043d cab1 24bc 1d4b 1a3d
000000f0: 9516 893c f037 25bc b9f2 7b3d 06ee a83d
00000100: f6fd f63b b246 b73d 0fd9 243d 161a e43d
00000110: 18c9 603d b734 113d 1370 103e 7db7 b83c
00000120: 5027 f53d b06b 11bd 12bc 11bd 2cb0 f8bb
00000130: 4c48 a9bc c48d 36bd 990a 823d 221a c43d
00000140: 4183 a33d d6a5 253d 70a7 0ebd 9574 ec3d
00000150: 8161 0b3e 780f 82bd 3ec1 6a3d 13d5 fc3d
00000160: e84b 9cbc 38dd dd3d 5525 353c d529 413d
00000170: c219 213e 80dc c03d 835c c23c 493d 403d
00000180: b69a 8bbc 2617 4cbd 01f7 143d d412 e83d
00000190: eba7 4b3d a483 d73c a346 0d3d f7bf 06bd
000001a0: 9d5e 8abc c7bb 99bc c7e6 6f3d f207 e0bb
000001b0: 6edf df3c 58f9 243d e530 cdbc 22d4 af3d
000001c0: c891 e73d 8e90 433b 854f 71bd b450 8d3d
000001d0: 0d7b 263c 5617 903c 630e 2d3d 0143 0e3c
000001e0: 2961 44bd 6b43 633d fe7b d53c 7410 97bd
000001f0: e395 853d 030c 443c 52fa 163d 46a7 e23c
00000200: fc7d b7b8 95fd c83d 7fb4 87bd 708b cb3d
00000210: f08a 9cbd df66 1e3d 736a 7cbd dd1c 40bd
00000220: eeea a23d 5bd7 913b de40 acbb 128b 89bd
00000230: 48ca cfba c013 733d d6bf 86bd fe82 b6bb
00000240: 4251 fc3c cffe 9dbd 1935 8f3d b55e 2e3d
00000250: 44a9 f93c c707 1b3d babe 603d 4772 45bd
00000260: 87e3 19bd 17bf 26bc 1f66 20bd fa9f 8d3d
00000270: a42c 85bb f5d7 43bd e22b ab3d 65b2 7fbd
00000280: b86c 9dbb 766d 843d 8288 49bd c892 913d
00000290: 7a14 4dbc ebc2 0d3d 88c8 3fbd 0ff5 573d
000002a0: 21f7 22bd 639f 983c 9418 463d 7f9d 29bd
000002b0: 5095 643d c6af a43d 1495 5cbd 2e2f 123d
000002c0: 34d5 9e3d 5b0b ba3d 9d50 19bb 4164 a1bd
000002d0: 550b 013d 9115 c93c a33f 983d d96f b73c
000002e0: 81f2 1bbd 368d 973c 7658 8e3d b930 ed3c
000002f0: f1b3 413d 98aa ce3d d04e 003d 3dd9 1c3d
00000300: 1ce0 943d eadf 8d3d 75a7 8f3d 4bf2 9a3d
00000310: 5ca6 8bbd 5de1 63bd 46ed e2bc 2994 813c
00000320: 27d1 00bd 5400 4ebd d999 aebc 47ee 93bd
00000330: 8266 ae3d 1f6f 5d3c f94d 933d da8a 993c
00000340: 4e7d 1e3d a4bc b83d f4e9 05bd f5a0 523d
00000350: 98b7 6dbd 6919 9bbd c852 e93c 5b77 0dbd
00000360: ac1d c73d f684 b53c 8f43 aa3c ea9a b73d
00000370: 1237 c03c 83de 8abc ee3b be3d 0eb7 2c3d
00000380: 2979 953d 93dc 423d 062e 843d 83ff b23d
00000390: 7303 003d 33c8 7cbd cfa0 2e3d a65b 20bc
000003a0: 7498 8d3d 0ace 7cbc 645f 2f3d 6693 85bd
000003b0: 7ecd e0bc 4c6f 883d 46c4 73bc 4db4 d63b
000003c0: 1492 60ba e94b 0fbd 4db8 51bd 6f29 1b3d
000003d0: 7046 0ebd 75a3 28bd 9815 e2bc bcf8 cc3c
000003e0: de49 463c 7fb7 95bd 9610 503d 8bc4 1cbd
000003f0: 31c3 2a3d f071 bc3d f35e 4cbd 1690 c5bd
0.024684895 0.116289474 0.038000748 0.10257897 0.06533352 0.060194887 0.101141155 0.011849169
0.11343312 0.0845139 -0.04067699 -0.080267385 0.038917698 0.09214421 0.0487131 0.13248841
0.11332868 0.100536674 0.05555759 0.06741128 -0.04786076 0.13053107 0.058311906 -0.010129701
0.055685226 -0.023951363 -0.046789702 0.0980172 0.059947353 -0.004175814 0.03947234 -0.025415171
0.06373597 0.0012871571 -0.007198401 0.119416684 -0.0247035 0.010348356 0.00904697 0.07380283
0.009601225 0.08269945 0.17592047 0.0768096 0.05051219 0.08145442 -0.004395578 -0.050044306
0.025415849 -0.066084184 0.05621704 0.073992625 -0.041330077 0.11079623 -0.049361147 -0.018523486
-0.016095676 0.03245373 -0.010052154 0.03766929 0.0167344 -0.010084137 0.061510775 0.08248524
0.0075375987 0.08949031 0.040246066 0.11137788 0.054879278 0.035450663 0.14105253 0.022548432
0.11970389 -0.03550309 -0.03557975 -0.0075893607 -0.020664357 -0.044568792 0.063496776 0.09575297
0.07984019 0.040441357 -0.03482765 0.11545674 0.13611414 -0.06350607 0.057313196 0.12345328
-0.019079164 0.1083321 0.011056264 0.047159035 0.15732482 0.09417057 0.023725754 0.046933446
-0.017041545 -0.049826764 0.036368374 0.11331716 0.049720686 0.026307888 0.034491193 -0.032897916
-0.016890818 -0.018766297 0.058569696 -0.0068368847 0.02732822 0.040276855 -0.025047729 0.08585383
0.113071024 0.00298408 -0.058913726 0.069001585 0.0101611735 0.017589252 0.04225005 0.008682967
-0.04794422 0.055484217 0.0260601 -0.07376185 0.06522729 0.011965754 0.036859818 0.027667653
-8.7495864e-05 0.09813992 -0.06626224 0.09938705 -0.07643688 0.038672324 -0.061624955 -0.046902526
0.079549655 0.004450721 -0.005256756 -0.06715979 -0.0015853131 0.059345007 -0.065795586 -0.0055698147
0.030800465 -0.077146165 0.069925494 0.04257079 0.03047622 0.037849214 0.05486939 -0.048204686
-0.037570503 -0.010177395 -0.03915989 0.06915279 -0.0040641595 -0.047813375 0.08357979 -0.06242599
-0.00480422 0.064661905 -0.04920245 0.071080744 -0.012517089 0.034609716 -0.0468221 0.05272394
-0.03978646 0.018630689 0.048363283 -0.041409966 0.055806458 0.080413386 -0.05385311 0.035689525
0.07755509 0.09084197 -0.0023393997 -0.0788045 0.031504948 0.024546416 0.07434013 0.0223922
-0.038073067 0.018499952 0.06950466 0.028953897 0.047290746 0.10091132 0.03132516 0.038293112
0.07269308 0.06927474 0.07014362 0.07565745 -0.0681884 -0.055634845 -0.027701031 0.015817719
-0.031449463 -0.05029328 -0.021313595 -0.07223182 0.085156456 0.013515263 0.071926065 0.018742967
0.03869372 0.09020355 -0.03269382 0.05142303 -0.058036417 -0.07573206 0.028481856 -0.034537654
0.09722456 0.022158127 0.020784168 0.089650944 0.02346376 -0.016951805 0.092887744 0.042166762
0.072985 0.047573637 0.06454091 0.08740141 0.03125329 -0.061714362 0.042633828 -0.009787476
0.06913844 -0.015429983 0.04281558 -0.06522255 -0.027441736 0.06661853 -0.014878338 0.0065522552
-0.0008566689 -0.034984503 -0.051201154 0.03788131 -0.034735143 -0.04117151 -0.027598187 0.02502095
0.012102572 -0.0731039 0.050797068 -0.038273375 0.041690055 0.09201419 -0.049895238 -0.09646623

lstm.bias_hh_l0 f4 [512]
00000000: b1f5 38bc c5d7 a63d 5b17 14bd a290 a43d
00000010: 618d 813d 8bf2 5e3d f3bd 253c 3384 21bc
00000020: 4846 823d 554a 573d 1c8c 87bc e128 7abd
00000030: 59cf f939 051c 933d 47bc ac3b 8079 a93d
00000040: f046 04bd 3667 3a3e 3f3d 123e e30f 243d
00000050: cb7e 7c3d c931 923d 3e7b a93d d00f 4b3d
00000060: a1a7 66bd 2141 53bd 07f8 f7bc 9504 cf3b
00000070: b4fe 70bd 2323 cf3d 6ef1 7bbd 24fe 813c
00000080: bdb7 383d 7174 d63d 8436 0fbd b875 d73d
00000090: 23eb c13c f8a0 e6bc 894a 00bd b4de 94bb
000000a0: 9f46 d13d fa6d 81bc fb10 543e e111 373d
000000b0: 2ab0 343d 3298 0e3e d223 803d cc07 a03d
000000c0: 1d30 3b3d 0051 a23d 391b dc3d 4aed 62bc
000000d0: e492 293d abfd 3fbd 05b8 b73c a5c3 0d3c
000000e0: 6683 9d3d f525 773d 6707 103e 2596 58bd
000000f0: 8c79 39bd 8cba c93d 84e6 9abd 4ac8 d33c
00000100: 4898 d93d d331 a53d 551c f6bc 7003 a43d
00000110: b3b2 91bc 3d21 83bb a710 283d 7b39 6e3d
00000120: 72c7 1c3d 06e1 603d 7f48 51bd 0a00 a13c
00000130: f3cc a43d 42c9 163c 8890 66bd 2e4c 18bd
00000140: e8f3 77bc 39b5 733d 219a 22bd 073f 3ebc
00000150: 8770 f33c c51c fcbc b0a2 57bd f61a e23d
00000160: 5437 48bb 963b c43d 0eb7 973c 5164 993d
00000170: 2611 063e c283 c8bb 6712 2fbc 988b 66bd
00000180: b2e2 f63c 7acc 4cbd 4653 4abd c185 133d
00000190: e0ba 573d f56e 853d 1df4 8c3d bf3d 0f3d
000001a0: 6d17 7bbd d86a 64bc bbcf 6e3d fdcc 963d
000001b0: 2918 663d c5b2 b5bc 3b46 1fbc a0df dd3c
000001c0: c1b0 393c 07ed 943d 0bd6 ae3d 05e3 523c
000001d0: 3a0d c63d f0ff 643d cbc4 c23c 390c bf3d
000001e0: 46dd 52bd 4bbd 883d 54d8 ae3d 60c9 ee3c
000001f0: cab8 ea3c fd6c 333d 3b8a b03c ed6f d13d
00000200: c033 2e3c 7003 ddbc a670 563d 40bd b93d
00000210: 6314 82bd e4ab ccbc 09ad 183d f722 d1bc
00000220: b7ce dc3d 71bd 8b3d 40e4 02bd f63c c9bc
00000230: bf8c 2c3d 6262 74bd ffa9 353c 43bf bc3c
00000240: 8c36 c23d 0628 cbbd 6bda 843c 22ff 15bd
00000250: 0415 c8bd bf33 86bc 8a92 cdbc a1a6 043b
00000260: 883d 533c 5785 1a3d 88f4 af3c 7027 83bc
00000270: bb73 6b3d 6b75 59bd 75e3 59bd a55b 97bd
00000280: e7f2 c53c e127 10bd e03e 833d 00a2 2e3b
00000290: ca39 19bd 34f9 e8bc 0198 083d 72fc 04b9
000002a0: 6611 68bd 2dbc 243d c814 cbbc 75a3 6d3d
000002b0: 21f3 5ebd 694b 643d 8c7c 953d fcd4 943d
000002c0: 239e 173d 51de a93d a6ff 48bc 10cc 80bb
000002d0: 7344 aabc f858 413d 3242 77bc 6817 9a3c
000002e0: 0b3c 433d 1904 bebc a055 70bd 5a93 aeba
000002f0: f460 3dbd 8501 c43b c415 553b 0117 eb3c
00000300: 9a28 9e3d 55a5 c8bc 02f0 95bd 89a9 12bd
00000310: 5e63 2bbd 137d 4fbd 0543 7dbd 886c 903d
00000320: b5f0 d43d aa47 23bd b138 58bd c4d1 403c
00000330: 2899 c93d 84ec fabc 32d2 a7bd f013 31bd
00000340: 540a 47bd 94db c03d b54e 953d 9303 8abd
00000350: 878c f43c 480d 8c3d 4dd0 be3d 7dfa 8bbd
00000360: b40d ce3d 9c86 52bc 0aec 843d 882b 123c
00000370: a8af 123d 85c8 6a3d 1514 7d3d 4c0b 933d
00000380: ca8f d6bc bc66 b4bd 3ff8 f5bc a365 a83d
00000390: b448 2f3d 5699 a23d f585 fbbc f794 8dbd
000003a0: 060d 8c3d 79e2 8bbd 61bc 3e3d b128 773d
000003b0: a97f 123d a56f 8a3d 8de0 d2bc 881e a03d
000003c0: 23e8 a73c 82e7 59bd 758d 90bd d84a b7bb
000003d0: dff9 903d 0665 66bd ed78 823d 5a62 483d
000003e0: 7855 e03a 6376 a93d 3102 823d ec48 3f3b
000003f0: 5bb6 3ebd 4e10 273d af5e a3bd 23c4 bcbd
-0.011289046 0.081466235 -0.036155086 0.08035399 0.06325794 0.054430526 0.010116088 -0.009858179
0.06361061 0.052561123 -0.016546302 -0.06107414 0.00047647467 0.07183079 0.005271468 0.082751274
-0.032294214 0.18203434 0.14281176 0.040054213 0.061644357 0.07138402 0.0827546 0.049575627
-0.056312207 -0.051575784 -0.030269636 0.006317685 -0.058836654 0.10114124 -0.061509542 0.015868254
0.0450971 0.10471428 -0.0349641 0.105205 0.023671692 -0.028152928 -0.031321082 -0.00454315
0.10218548 -0.015799511 0.20709603 0.044694785 0.044113316 0.13925245 0.06256832 0.07813987
0.04570018 0.07925606 0.1074738 -0.013850519 0.04139985 -0.046872776 0.022426615 0.008652602
0.07691078 0.060338933 0.14065324 -0.052877564 -0.04528193 0.09850034 -0.075634986 0.025852341
0.106247485 0.08066144 -0.030042807 0.08008468 -0.017785406 -0.004001765 0.041031506 0.058160286
0.038276143 0.0549021 -0.05109453 0.019653339 0.080469035 0.009203257 -0.05629018 -0.037182026
-0.015133835 0.059499 -0.03969777 -0.011611707 0.029716743 -0.030775437 -0.052645385 0.11040299
-0.0030550556 0.095816776 0.018519904 0.07489837 0.13092479 -0.0061192224 -0.01068554 -0.05628547
0.030137394 -0.04999969 -0.049395822 0.03601623 0.052668452 0.06515304 0.068824984 0.034970995
-0.061301637 -0.013941489 0.058303576 0.07363317 0.056175385 -0.02217997 -0.009721334 0.027084172
0.011333645 0.07271772 0.08536919 0.0128715085 0.096704915 0.055908144 0.023775479 0.09328503
-0.051480554 0.0667673 0.08537355 0.029148757 0.028652567 0.04380511 0.021550288 0.10226426
0.010632455 -0.026979178 0.052353524 0.090693 -0.06351545 -0.024984308 0.037274394 -0.025529368
0.10781615 0.068232425 -0.031955957 -0.024565201 0.042126413 -0.059664138 0.0110878935 0.02304042
0.0948306 -0.09919743 0.016217431 -0.036620267 -0.097696334 -0.016382096 -0.02509429 0.002024092
0.012893088 0.03772482 0.021478906 -0.016010016 0.057483416 -0.053090494 -0.053195436 -0.07390527
0.024163676 -0.03519428 0.06408477 0.0026646852 -0.037408628 -0.028439142 0.033348087 -0.00012682544
-0.056657217 0.04021852 -0.024790183 0.058017213 -0.054431085 0.05573598 0.07299146 0.07267186
0.037016045 0.082943566 -0.012267983 -0.003930576 -0.020784592 0.047203988 -0.015091466 0.01880999
0.047664683 -0.023195313 -0.05867541 -0.0013319061 -0.04623504 0.0059816265 0.0032514194 0.028697493
0.07722588 -0.024492899 -0.073211685 -0.035806213 -0.04184281 -0.05065639 -0.061831493 0.07051951
0.10397474 -0.039863266 -0.05278844 0.011768762 0.09843665 -0.030630358 -0.081943884 -0.043231905
-0.048593834 0.09416881 0.07290403 -0.06738963 0.029852165 0.06838471 0.09317074 -0.06834886
0.100612074 -0.012849476 0.064903334 0.0089215115 0.03581205 0.057320137 0.06178673 0.07179889
-0.02619161 -0.088086575 -0.0300256 0.08222511 0.042793944 0.07939403 -0.030703524 -0.069131784
0.068384215 -0.068303056 0.04656637 0.06034154 0.035766277 0.06759576 -0.02574184 0.078183234
0.020496434 -0.0531993 -0.07058231 -0.005593639 0.07078909 -0.056248687 0.06370721 0.04892192
0.0017115315 0.082745336 0.06348074 0.0029187752 -0.046560626 0.040787034 -0.07977044 -0.092170976

fc.weight f4 [1, 128]
00000000: c41f b83d 53b0 1b3e 0871 d8bd b9af 07be
00000010: 9994 bcbd 5dbb babd db79 583d 0227 12bc
00000020: 39de 28be 4e33 ba3d d30a dd3d fcc6 0b3d
00000030: a867 c43d 56c2 6fbd edac 7fbd de63 9f3d
00000040: f6b8 bbbd e79d ed3d 9a15 e9bd 9af7 f83d
00000050: 63a2 d73b c5a9 8e3e f931 2dbc 80f4 6c3d
00000060: 2872 b7bd ef93 7bbd e360 e93d 1e57 55bd
00000070: 9ce6 adbd 57be f5bd f82f 513d ac0c 23bb
00000080: d34a 09be ee74 1dbe 3cf8 d0bd 15a4 223e
00000090: 69d5 87bd 7dea 8a3d 47c1 01be ad29 03be
000000a0: fe97 81bd d7f4 50bc 6a9b 1abe da1e 9bbd
000000b0: 49bd 6b3d b0a1 d0bd 739e 81bd da3f f63d
000000c0: 72e6 903d d6e3 28bd 1096 0abe 77ad 69bc
000000d0: eaab 8c3d 8ef2 7d3d 17dd 6dbd fb5d 193d
000000e0: 376b 2dbd d99c 9b3d cea2 483d 59d9 36bd
000000f0: 59a7 f3bd 8099 4b3d 1263 52bd ee62 e9bd
00000100: 6b81 003e fefe a83d d19d 2cbd 7cc1 d03d
00000110: 9190 1fbe 6862 23be f43c f43d deef 013d
00000120: 94e3 c2bd 3482 023e 0387 e23d 8f8c d1bd
00000130: f049 bd3d 61c3 86bd fa5c 36bd dea9 14be
00000140: e23b bfbd 345e cbbd 353d 11bd 2593 fd3d
00000150: ca0d 013e c8b9 98bb 787f c03d ef76 4c3e
00000160: 036c af3d f7d2 f63d 335b 9a3d 4d41 7c3d
00000170: 7598 38be 0039 f9bc eafa 8a3d 4fc1 f1bd
00000180: 5114 fa3b 7696 7abc 6b90 c9bd 1add 473d
00000190: 4160 cbbd 2388 43bd 18df e93d cf12 2fbd
000001a0: d5f7 c9bc 6c3f 833d 4a01 06be f202 d7bd
000001b0: bdea 4cbd d4ae e0bd 7afa fc3d e01a d33d
000001c0: e255 dabd 9a2a 5abd b453 a73d 6a2f f53c
000001d0: fb40 d2bd 8daf 8e3d a958 083d d9ca 073e
000001e0: 734f b53c 81eb 5a3d 032d cdbc 11d8 cdbc
000001f0: 55b2 bc3d 6a31 bfbd b33d 16be 1b4d b4bd
0.08990434 0.15203981 -0.10568434 -0.13250627 -0.0920803 -0.09117768 0.052850585 -0.008920433
-0.16491021 0.09091817 0.1079308 0.034125313 0.09590083 -0.058534943 -0.062420774 0.0778272
-0.09166138 0.11602383 -0.11381073 0.12156601 0.0065806373 0.278639 -0.010570996 0.05785036
-0.089573205 -0.061420377 0.11395433 -0.052085035 -0.08491251 -0.11999195 0.051071137 -0.002487938
-0.1340745 -0.15376636 -0.10203597 0.15882905 -0.06632502 0.06783006 -0.12671386 -0.12808867
-0.06327818 -0.012753687 -0.15098348 -0.07574244 0.057553563 -0.101870894 -0.0632905 0.120238975
0.07075204 -0.041232906 -0.13533807 -0.014262549 0.068687275 0.061998896 -0.058072176 0.037443142
-0.042338576 0.07598276 0.048983388 -0.044640873 -0.118971534 0.049706936 -0.051364012 -0.113958225
0.12549369 0.08251761 -0.042142693 0.10193154 -0.15582491 -0.15955508 0.119256884 0.031722896
-0.09516063 0.12744981 0.11060908 -0.102318875 0.09242618 -0.06580234 -0.044522263 -0.14517924
-0.093375936 -0.09930077 -0.035458762 0.12381581 0.12602916 -0.0046608187 0.09399313 0.19967245
0.085655235 0.12051957 0.07536926 0.061585713 -0.18026908 -0.030422688 0.06786139 -0.11804449
0.0076318164 -0.015294662 -0.09841999 0.048794843 -0.09930468 -0.047737252 0.11419505 -0.042742547
-0.024654308 0.06408581 -0.13086429 -0.10498609 -0.05002855 -0.10970846 0.12352462 0.103078604
-0.10660912 -0.053263284 0.08170262 0.029929835 -0.102663 0.069670774 0.033287678 0.13260974
0.02213261 0.05344725 -0.025045877 -0.025127443 0.09213702 -0.09335597 -0.14671974 -0.08803769
